results/boat-agent-ppo-imit-AI/boat/boat-2005208.onnx (onnx, 328993 bytes, 11 tensors)

discrete_act_size_vector f4 [1, 3]
00000000: 0000 0040 0000 4040 0000 0040
2.0 3.0 2.0

network_body._body_endoder.seq_layers.0.weight f4 [256, 47]
00000000: 5678 253e 876d 863c a6c7 133e 8355 b8bd
00000010: 571e 873d 804e 083d b687 1f3e 804f 543e
00000020: cfd5 493d 12eb 713e e6d4 eabd 4f68 e93c
00000030: c1bf b1bd d1c5 f03d ffd1 c4be aee8 70bc
00000040: e922 033e 55cd 56bc 7a71 b33d a122 ffbd
00000050: 1ac8 cbbc 70ba 2f3e 8710 d2bc b8e7 85be
00000060: 8355 5e3e b9f9 8e3d 93c5 443e 23b8 02bd
00000070: 2fee 0cbd e1d5 033e 9eb9 3bbe ab4e 9b3d
00000080: cb43 8f3c 44a6 b4bc a440 d7bd 262e 5fbd
00000090: 34b3 a63e a6d0 9ebe 846f 5abe 2802 e7be
000000a0: ca30 35bd f7a1 a3bc c156 3d3e 7e88 113e
000000b0: f456 31be 39f0 543d 155c 7a39 1da4 a13d
000000c0: df07 3f3e db9b 4c3e 2c58 853e 68b8 ee3d
000000d0: 246d 203e dd70 9f3d 1c97 5c3e e711 98bd
000000e0: 7592 d53d 3d89 02be 38c1 afbc 6583 063e
000000f0: 1f88 933d c552 cabd 7296 f93d 0642 26bd
00000100: dee6 16be 987b 6b3e e107 b4bb dc7b d53d
00000110: e14b d93d ff3a f43c f61f 34bc 70f2 02bd
00000120: 65cd 3c3e 2d39 493e 6554 2abd 3030 d73d
00000130: f53d 0b3d 0435 123e a29f ab3d 25b8 303e
00000140: 2f2b 1b3e 2718 5e3e 2a36 04bc 8ef2 0f3d
00000150: 6632 7d3e 13aa c63d 9333 8c3e 34ea d8bd
00000160: 11ab a53d 2534 ec3c ae3f 9b3d e4c7 223e
00000170: f4b4 dcbc 9e21 11be c856 143d 3929 f73d
00000180: b9d3 713d 05d6 603e 1bf3 fb3d 1032 453d
00000190: 3a2d 353d c082 3abc b810 0b3d 2ac0 57bc
000001a0: fb48 6b3d 18a5 283e eb3e cdbd 2a62 933e
000001b0: a181 823d 0680 6d3d bb7d 8abe 4ac4 06bd
000001c0: ba62 18be cf2b 253d 8e4d 2f3d 0585 9c3d
000001d0: 08bd 9b3e e2a0 173e 4be9 eabd d43f 5dbe
000001e0: 972a 9cbc d573 c1bd 6562 40bd a429 423e
000001f0: a391 833d 4778 0c3b a9b4 643c 9289 123e
00000200: 90c2 afbc fbdd bd3e ebbb 1e3d cb11 e03d
00000210: 57b4 043c e208 133e d274 423d 426e ab3e
00000220: 94ed f53d 0f66 853e 4f76 5e3e 85fe 6c3d
00000230: 3cb0 20be e94f 6a3d e411 923e 239f c6bc
00000240: 60e4 f9bd fbee 65be 68b1 30be f7cb c03c
00000250: 7551 27bc c6af 4cbe 242c 9cbd 7a52 593e
00000260: 4d29 75be 7bb6 293d d757 e5bd 5809 6c3d
00000270: 6dae 82be 42c9 c9bd 9c26 3fbd a99f 63b9
00000280: c808 273c ad08 8d3d ac10 553e a430 1f3e
00000290: 8054 babc d9e1 393e e05d 83bb 71b8 123e
000002a0: eeaa 6abc 4f38 8cbe 182b c53d fb68 eabd
000002b0: 036c 10be bcb3 9d3e afe4 9ebe ddf1 cebd
000002c0: b604 cf3d 2968 5cbe 3120 bfbc 5231 67be
000002d0: 862d cfbc 7748 c5bc 535b 9dbe 6e6d eabd
000002e0: 4871 99bd 7cae d43d cb1d 5b3d 9d4a 683e
000002f0: 9589 893b 6a09 92bd 4672 e43d 17cc ec3c
00000300: e052 ff3c 93ca 433e 29f8 443c 2bb3 223e
00000310: 28a5 023d aa0f 02be ab60 903e 2df9 12be
00000320: 6c41 a4bd f6d9 00bc b29f 133e a1a0 443d
00000330: c857 d83d f964 bf3d 9359 8d3e 8a6b 923e
00000340: f659 ad3d 8a23 943d 010a 963e c5fb 643e
00000350: 8313 7bbe 1d4b 093e e94d 23be ed95 55bd
00000360: 66b1 cf3e 03bc dfbd d212 213b 2232 e83d
00000370: 2f32 e2bd 5e01 a03d 0deb cebb e1f7 2cbd
00000380: fb6a 0d3e c79b bebe 8689 8bbc 7158 8e3e
00000390: 254f 9ebd 5e1f 82be 0724 25be 939d 3cbd
000003a0: 031b 433c 1a44 f2bd 27e8 2e3e b243 28bc
000003b0: fb84 c5bc eafa 063d d7ee b83d ddde dc3d
000003c0: 55cb 80bd 4ae5 123e 616a 2fbe a09c 17be
000003d0: 364e 8f3d 2d10 1f3e a9d0 963e 2fe3 363d
000003e0: 6849 0a3e 555f 62bd 6e7c bebd be0f 39be
000003f0: 64ad 083d ec9e 9bbc 93bf 55be c146 8abd
0.16159186 0.016409649 0.14431629 -0.09000685 0.06597584 0.03327799 0.15579113 0.20733452
0.04927617 0.23624828 -0.114663884 0.028492121 -0.08679152 0.117564805 -0.38441464 -0.014703913
0.12806286 -0.013110478 0.08761878 -0.12457777 -0.02487569 0.17160964 -0.025642646 -0.2615335
0.21712308 0.069812246 0.19215994 -0.031913888 -0.034406837 0.12874557 -0.18332526 0.07583364
0.01748838 -0.022051938 -0.10510376 -0.05448737 0.32558596 -0.3101856 -0.21331602 -0.45118833
-0.044235982 -0.019974692 0.18490125 0.14212224 -0.17318326 0.051986907 0.00023876161 0.0789263
0.18655346 0.19981329 0.26043832 0.116562665 0.15666634 0.07785199 0.21542019 -0.074252896
0.10428325 -0.12747665 -0.021454439 0.1313606 0.072036974 -0.09879068 0.12186898 -0.04059031
-0.14736506 0.22996366 -0.0054941033 0.10424015 0.10610176 0.029813288 -0.010993948 -0.031969488
0.18437727 0.19650717 -0.04158439 0.10507238 0.033994634 0.14278036 0.08380057 0.17257746
0.15153192 0.21688901 -0.008069554 0.035143428 0.24726257 0.09700408 0.27383098 -0.10591546
0.08089269 0.028833458 0.07580505 0.15896565 -0.026941754 -0.1417298 0.036215574 0.120684095
0.059039805 0.21956642 0.12302228 0.048143446 0.044232585 -0.011383712 0.03395149 -0.013168374
0.057442646 0.16469228 -0.10021766 0.2878583 0.06372381 0.05798342 -0.2704905 -0.03290204
-0.14881411 0.040324982 0.04279857 0.07642559 0.30417657 0.14807466 -0.11470278 -0.2160638
-0.019063277 -0.09445921 -0.046968836 0.18961197 0.064242624 0.0021433996 0.013959088 0.14310291
-0.02145508 0.3708342 0.03875343 0.10940894 0.008099637 0.14358857 0.04747469 0.33482558
0.12008205 0.26054427 0.21724819 0.057859916 -0.15692228 0.057205115 0.28529274 -0.024245804
-0.12201762 -0.22454445 -0.17255175 0.023534758 -0.010212292 -0.19988927 -0.07625607 0.21222869
-0.23941536 0.041433793 -0.11198395 0.0576261 -0.255237 -0.0985284 -0.04666768 -0.00021707885
0.010194965 0.068864204 0.20807141 0.15545899 -0.02274537 0.1815256 -0.0040089935 0.14328171
-0.014322979 -0.2738671 0.0962736 -0.11445805 -0.14103703 0.3080119 -0.31033847 -0.101047255
0.101083204 -0.21524109 -0.02333078 -0.22577408 -0.025290262 -0.024082405 -0.30733737 -0.11446653
-0.0749231 0.10384843 0.05349521 0.22684713 0.0041973093 -0.07130702 0.111546084 0.028905911
0.031167448 0.19120245 0.012022057 0.1588866 0.031895787 -0.12701288 0.28198752 -0.14352866
-0.08020291 -0.007864466 0.14416388 0.04800475 0.10563618 0.09345431 0.27607402 0.2859767
0.08464424 0.07233341 0.29304507 0.22361667 -0.24519162 0.1340756 -0.15947689 -0.052144933
0.40565032 -0.10924532 0.0024577868 0.11337687 -0.11044728 0.07812761 -0.0063146413 -0.042228583
0.13810341 -0.37228224 -0.01703335 0.2780185 -0.07729939 -0.25414556 -0.16127025 -0.046048712
0.011908296 -0.118293956 0.17080747 -0.010270046 -0.024111262 0.032954134 0.0902993 0.10784695
-0.062887825 0.1434528 -0.17130424 -0.14805841 0.069973394 0.15533514 0.2945607 0.044650253
0.13504565 -0.055266697 -0.09301077 -0.18072411 0.033368483 -0.018996678 -0.20873861 -0.067517765

network_body._body_endoder.seq_layers.0.bias f4 [256]
00000000: f2c0 1a3d eafe aa3d cc47 aa3d ecbd 07bc
00000010: 0045 763a a3d6 403d 204f 283d 7529 24bc
00000020: 55d1 bbbc 0f1b 433c 79b6 35bb 7ed0 e73d
00000030: 7eba 35bb aec6 593c 9a5f 4f3d 08b9 813d
00000040: 8db1 fe3b a332 c538 6601 8b3c 559c 3cbb
00000050: 00cc 5abc afe8 853d ee71 bb39 abc6 e9bc
00000060: ea4f cdbb 6e29 383b fda3 a7bb 4ef1 eb3b
00000070: 6588 b13d 1a48 fbbb 7d60 93bc e63b ee3c
00000080: 5a0c 64bb 0bd5 243d 0f75 c7bb 2ba4 16bb
00000090: 568c af3c 562a 9cbb 02ab 8ebc 118d 2cbc
000000a0: e1af 24bc 1a0f a6bc 6668 c83a 9593 9c3d
000000b0: 055c 7ebb 6eae 843d 526c 2b3c 2a70 b4bb
000000c0: 1581 81bc 8905 50ba 681b 923d cd98 4f3d
000000d0: 69b2 07bc 4159 02bb b4f6 09bc 7ce8 3bbb
000000e0: 957f e5ba 944c 8b39 7f17 da3d 8788 bbbb
000000f0: 0a53 d0ba cdc2 093d 91ee ffbb f9b7 f13b
00000100: 275f 58bb ac9d ed3d 6b4f 4bbb e12f c23b
00000110: 6f5d b2bc 5c19 96bb ef85 383c a38f 41ba
00000120: bd64 e83d d02b cebc 41d7 773d f9ed 423a
00000130: 3072 41bc 81f9 823d 350e be3d e7be 003d
00000140: e342 253b b888 25bb e84e e13b c05d bb3c
00000150: 9f84 ddbc c635 a8ba f1d1 0f3e 19e2 a83d
00000160: d6d3 2a3d 5f38 8fbc 0bb9 0d3c ba44 fc3b
00000170: 412a debc 2873 8ebc 33f0 f6bb c1f4 423c
00000180: 8d56 003d 6a78 993b 74dd cfbb 4831 86bb
00000190: f48d bf3b f000 803c cb0a 873c ee1f aabb
000001a0: cabc 743d 5034 113d 2319 4dbc 5360 8dbc
000001b0: ea92 8dbc c6f2 2dbc b6d4 cc3c c95d 603b
000001c0: 5aae 983d 15ee 043b cdea 82bc 9bb9 4f3c
000001d0: 388a 043c 45f7 a43c c846 1d3d 7048 ea3d
000001e0: 9258 53bc 6512 643d 37b1 8c3d 1af6 06bb
000001f0: bf32 a8bc 2e7f 1bbc 1207 1d3d 166d a8bc
00000200: 815f f43c 8b3e 0abc f778 3e3c e075 283d
00000210: 6f92 2ebb 090c 553c 333f 833d fbb2 db3a
00000220: 5619 04bb 8fb1 daba da1a 08ba d4c8 613c
00000230: 073e ae3c 53bc 21bb 9e84 8c3d d958 ecbb
00000240: 312b 653d f7ae 8ebc d139 33bb 1d9c f5ba
00000250: 6983 1abb 6bb9 5f3c 1de0 073c 3530 7a3b
00000260: 944d 9a3c fba4 213d fe36 543c cda4 b93c
00000270: d681 21bb ddce 46bc ec03 ecbc 0568 dcba
00000280: 4111 7e3c 8190 95bb 3477 febb b9aa 69bb
00000290: 1700 3fbc e151 14bc 1e21 5a3c 3c46 0b3a
000002a0: 5289 253b fca6 b23d a0b5 423c 3126 43bb
000002b0: 4270 c43d 30f5 92bc c088 a43d e507 4f3b
000002c0: 3505 a03c b1a8 8d3d 3083 eabb 341f e7bb
000002d0: 8111 a3bc c3eb 8b3d da98 a83d 340d 9bbc
000002e0: 7239 2cbc 0d31 bb3c edf6 a0bb 9fdb 893b
000002f0: 46eb 84bc f717 6f3b b9ca 613d b508 d0bb
00000300: 63cf 013d 49dc 52bc c0de 89bb 4b64 da3d
00000310: 8d6b 18bc 752d ea3b 24f4 503c 0c07 183b
00000320: 7e6e cebb 24ee fa3d bbf3 f2bb e7fa 11bc
00000330: 5fef 88ba 330d 993d 24b8 71bb 7b45 ab3c
00000340: 3bfc e4bb 9940 cd3c e0f5 5c3c 5259 d2bb
00000350: f95e 5e3d 7593 243c 7d71 af3d bfd7 fcbb
00000360: a81f 683c c933 16bb 30f0 1d3c 77b2 caba
00000370: 3209 673a 224a 6dbb 226e a23d bece 2a3d
00000380: a16a 993d db8c 39bc 7046 2dbd d8c7 26bb
00000390: 9bec 17bc 2567 9abc 2b89 8dbb 794b 063e
000003a0: 755d 523d b148 9e3c 500c 003d 3e7e 2b3c
000003b0: 5bd6 2bbc 8c22 4abc 3e40 743d a480 cc3c
000003c0: 6722 f1bb e353 003e 0dd3 e73c 3c85 a73d
000003d0: 421b b0bb df9e 0fbc aa6b 9a3c 9cbd 99bc
000003e0: fd66 d0b9 60bd 9b3d 278d 8cba 568a 04bc
000003f0: c83f c03c cc7b c33b 21c5 61bb 3f60 a33b
0.037781663 0.08349402 0.083144754 -0.008285027 0.0009394437 0.047079694 0.041091084 -0.01001965
-0.022926966 0.011908307 -0.002772717 0.113190636 -0.0027729566 0.013291998 0.050628282 0.0633412
0.0077726305 9.403124e-05 0.01696844 -0.0028779705 -0.013354301 0.065385215 0.00035752304 -0.028537115
-0.00626563 0.0028100866 -0.0051159845 0.0072003966 0.08668593 -0.0076685073 -0.017990345 0.029081296
-0.0034797401 0.040242236 -0.0060869525 -0.0022986035 0.021429222 -0.004765789 -0.017415527 -0.01053168
-0.010051698 -0.020270873 0.0015289902 0.076453365 -0.0038812172 0.06478582 0.010462837 -0.005506535
-0.015808621 -0.0007935395 0.071341336 0.05068283 -0.008282282 -0.0019889625 -0.008420635 -0.0028672507
-0.0017509336 0.000265692 0.10649013 -0.0057230624 -0.0015893888 0.033633042 -0.0078104218 0.0073766676
-0.00330157 0.11602339 -0.0031022679 0.0059261178 -0.021773068 -0.00458066 0.011262401 -0.0007383769
0.11347339 -0.025167376 0.060508016 0.00074359734 -0.01180701 0.06395245 0.092800535 0.03143206
0.002521687 -0.0025258493 0.0068758614 0.022871852 -0.027040778 -0.0012833409 0.1404493 0.0824625
0.04170593 -0.017482935 0.008650075 0.0076986225 -0.027119758 -0.017388895 -0.007535958 0.011899174
0.03133254 0.004683544 -0.006343538 -0.0040952303 0.0058457796 0.015625447 0.016484639 -0.0051917946
0.059750356 0.03545028 -0.0125182 -0.017257845 -0.017281968 -0.010616964 0.025003772 0.0034235588
0.0745513 0.002028351 -0.015981102 0.012678529 0.008089595 0.020137439 0.03839758 0.114395976
-0.012899535 0.055681605 0.068697385 -0.0020593465 -0.02053201 -0.009490771 0.03833682 -0.020559829
0.029830696 -0.008437763 0.01162552 0.04112804 -0.0026637574 0.013003358 0.06408539 0.0016761714
-0.0020156703 -0.0016684997 -0.00051919895 0.013780791 0.021269811 -0.00246789 0.06861232 -0.00721274
0.055949394 -0.017417414 -0.0027347694 -0.0018738542 -0.0023576862 0.013655047 0.008293179 0.0038175706
0.01883582 0.03946398 0.012952564 0.022661591 -0.0024644039 -0.012134281 -0.028810464 -0.0016815668
0.015507043 -0.0045643453 -0.007765675 -0.0035654737 -0.011657736 -0.009052725 0.01331356 0.0005312895
0.0025258851 0.08723256 0.011884123 -0.0029777403 0.09591724 -0.01793918 0.080338955 0.00315904
0.019533733 0.06916941 -0.007156752 -0.0070532802 -0.019905807 0.06832077 0.08232279 -0.018927194
-0.010511743 0.022850538 -0.0049122483 0.004207089 -0.016225468 0.003648279 0.055124972 -0.006348694
0.03169192 -0.012869903 -0.004207462 0.106636606 -0.009302986 0.007146532 0.01275352 0.002319756
-0.006299793 0.12252453 -0.007414309 -0.008909917 -0.0010447315 0.07473221 -0.0036883438 0.020907154
-0.006988076 0.025055217 0.013486356 -0.006419339 0.05428979 0.010044922 0.08566568 -0.0077161486
0.014167704 -0.002291905 0.009639785 -0.0015464564 0.0008813321 -0.0036207517 0.079311624 0.04170107
0.07491041 -0.0113250865 -0.042303503 -0.0025448706 -0.00927272 -0.018848011 -0.00431933 0.13114728
0.05135866 0.019321771 0.031261742 0.01046711 -0.010488118 -0.012337338 0.05963158 0.024963684
-0.0073588374 0.12532 0.028298879 0.08179709 -0.005374343 -0.008765905 0.018850166 -0.01876717
-0.00039749584 0.0760448 -0.0010723219 -0.0080896225 0.023467913 0.0059656855 -0.0034449773 0.0049858387

network_body._body_endoder.seq_layers.2.weight f4 [256, 256]
00000000: 048b a23d b0d3 0f3e 717d 88bd 2e3d a93c
00000010: d105 743d c4d4 743c 2510 633d f38f 623c
00000020: cc02 49bc 4e15 b3bd feed cebd ed74 483d
00000030: c506 35bd 5f5b 86bd 70d8 473c 0731 bf3d
00000040: f037 13bd 76c4 0f3d 635f f6bd 35aa 4d3d
00000050: f047 efbb e390 cebb 010a 9cbb e885 1dbd
00000060: bfe3 34bd f6ab d83c 3c03 843d a9f1 2abc
00000070: 7a3a 94ba b1c7 6f3d 2eb2 3bbc 9ccc 5dba
00000080: 46b1 793d 17cc 353d fc97 a23c 1801 10be
00000090: 0b6d 3a3d ef8c bdbd 1a28 b83d 66ad e13d
000000a0: 4589 a33c 9afa 153c dfc4 1abd 99cf 34bd
000000b0: f064 023d 226c 613d 6900 963c 42d9 8fbb
000000c0: 61a0 db3d e8b4 803d f64a 123e 7655 d6b8
000000d0: 4e6e 6abd ab02 3e3d 074f 8fbd 8fa4 f03c
000000e0: 83e0 96bc eef1 46bb 4f1b c23d 1169 83bd
000000f0: 60ec 04bd 599b 573d e1ad e33c 1dd2 a3bc
00000100: 6ac5 2f3d f011 203d 8be6 9b3d 1847 d7bc
00000110: 3ce0 35bd dc00 2fbc 4f9c bcbc 99f5 de3c
00000120: cb36 223d 8c9c 913d 8612 3c3c fe62 5e3d
00000130: 2132 3f3d c135 7d3c 68b0 f53c 7006 263e
00000140: b065 56bd cb24 e1bd 87f8 833d 2059 93bd
00000150: 9e34 5ebc b651 d83c ad24 463d b75f c53d
00000160: bd82 4f3d ae89 f0bc 4fbe 493d 2f48 91bd
00000170: 1f16 2c3d e619 e53c 1d0d b93c c40b 053d
00000180: 8c22 7c3d 8e6f d9bb c5ac 55bd d7e4 72bd
00000190: 3333 9d3d 46fa 023d 7d34 a33d e884 14bd
000001a0: d0f9 2bbd 40e0 623d 8e6a d5bb 6d0c aa3d
000001b0: a696 403d 0e54 7abd a6bc d23c 8e30 293d
000001c0: 8f09 e5ba 8846 c2bd a5f2 743c 694b 6abd
000001d0: 3907 c63d cb15 a93c c4d4 d93c 15a2 733d
000001e0: ddc2 7b3d e407 b73d 73b3 3f3e a392 39bd
000001f0: da1e 1ebd 09ec 66bd a7a0 223d b6d7 64bd
00000200: 9661 eb3d 0d15 a1ba 24fb 80bc 82f2 39be
00000210: ce3c b43d 0633 ce3d 0434 703c 73e9 4c3e
00000220: 2fa5 6bbd 40d6 7dbd 3070 123d e645 c9bc
00000230: 7d4c e03d 0911 aa3c 5ff2 37bc 8d1a 903b
00000240: 30ce c5bc 602c e93b a20e 313d 2cf3 fd3c
00000250: 81db 82bd 8cad cb3d cc00 c6bc 2f43 d13c
00000260: ddf4 493d 3334 c93b b8ed c3bc 6f58 b7bc
00000270: fc42 873b 53dc 1cbd 689f 08be e3d0 8d3c
00000280: 9754 6d3c 7800 013d b7b6 c2bd 527c 203d
00000290: 0215 92bc 94eb ad3c 09d2 9e3b d353 713c
000002a0: ade2 703d 1369 973d ed74 efbc 8e72 a0bb
000002b0: c3a8 ac3d a490 0fbd d483 f33d c0e7 973d
000002c0: f1bf a33d ba63 103e 4748 00bd 8e86 31bd
000002d0: 1bfa 953d 69fc a83d aded 1d3e 6e12 57bd
000002e0: 2aa0 f8bd 2037 ec3d cd37 be3c 8831 47bd
000002f0: fdf7 333d 6c28 443d 703a 963d 8745 a7bd
00000300: 44f7 1f3e f13d ae3d 60e4 9d3c a23b 173e
00000310: addd 0a3d 97a0 8fbc 5d7f 7cbd 8fba 8fbd
00000320: 7b8c 5dbd 9700 403e b02b 8d3d a1d8 243d
00000330: e2b7 e1bc 148d 053d 18d0 e83d 8983 013c
00000340: 357a a8bd 330c 46bc 7738 8e3d d186 5dbd
00000350: 9dc7 2a3e 7a69 71bc 3a1b 0f3e 7afd a1bd
00000360: 57b5 94bd 36f5 603c 2854 35bb 9d00 67bd
00000370: b421 f3bd aa50 8fbd 71b1 f13c eb8e 1e3c
00000380: f9b3 813c 15f5 843c f009 4abd 2a89 6ebd
00000390: a2fb 303d 08d2 02bd c632 283c 1409 27be
000003a0: 89b8 a9bc f0f6 33bd 6fa9 493d bcd7 d23d
000003b0: 0d2d 9f3d 94bd bd3c 8204 33bc 71c8 683d
000003c0: d488 0b3c 8a3f 0d3e a274 cabc 8f41 adbc
000003d0: 03f0 c0bc 6f05 153d 186d 35bc a8a1 8f3c
000003e0: 86b9 1e3d cbae fc3d a372 b43d 30b6 273d
000003f0: 404e 203c fb97 bf3c 720f 89bd 545f 023e
0.079366714 0.14045596 -0.06664551 0.020659056 0.05957586 0.014943305 0.05543532 0.0138282655
-0.012268733 -0.08744298 -0.10103987 0.048939634 -0.04419591 -0.065603964 0.012197599 0.09335523
-0.035942018 0.03509947 -0.12029912 0.05021115 -0.007302277 -0.006303893 -0.0047619347 -0.03845778
-0.044162508 0.026449185 0.064459294 -0.010433593 -0.0011308931 0.05854005 -0.011456056 -0.000846097
0.060960077 0.04438409 0.019847862 -0.14062917 0.045514148 -0.092553966 0.08992024 0.11019401
0.019962916 0.009153986 -0.037785407 -0.044143293 0.031834543 0.055034764 0.018310742 -0.004389913
0.10723949 0.06284505 0.14286408 -0.000102202335 -0.0572341 0.046389263 -0.06997495 0.029375343
-0.018417602 -0.0030356604 0.09477865 -0.06416524 -0.032451987 0.052638385 0.027792873 -0.01999765
0.042912878 0.039079607 0.07612332 -0.026279017 -0.0444033 -0.010681357 -0.023023752 0.02721672
0.039603036 0.07109937 0.011479026 0.054293625 0.046678666 0.01545471 0.029991344 0.16213393
-0.05234307 -0.10993346 0.06443887 -0.071947336 -0.01356235 0.02640615 0.04837482 0.09637397
0.05066179 -0.029362526 0.049253758 -0.07093846 0.042013284 0.02796645 0.02258926 0.032481924
0.061556384 -0.006635613 -0.05216672 -0.05930027 0.07675781 0.03197696 0.07968996 -0.03625956
-0.041986287 0.055389643 -0.0065129464 0.08303151 0.04701867 -0.061115317 0.02572472 0.04130607
-0.0017474162 -0.09486109 0.014950429 -0.057200823 0.09669346 0.020640275 0.026590712 0.059480745
0.061465133 0.08937052 0.18720798 -0.04530586 -0.03860364 -0.056377444 0.03970399 -0.05586978
0.114932224 -0.0012289599 -0.015744753 -0.18158916 0.0880066 0.10068326 0.014660839 0.20010929
-0.05753058 -0.061971903 0.03575152 -0.024569463 0.10952089 0.020760076 -0.011227219 0.0043976963
-0.02414617 0.0071158856 0.043226846 0.030999742 -0.06389523 0.09945211 -0.024170302 0.025544731
0.049305785 0.006140256 -0.023917064 -0.022381036 0.004127858 -0.038296055 -0.13342059 0.017311519
0.0144855 0.031494588 -0.09507506 0.03918106 -0.017832283 0.021230496 0.0048468155 0.014729458
0.058809925 0.07393088 -0.02923056 -0.0048964685 0.08430626 -0.03505005 0.118903786 0.0741725
0.07995594 0.14100543 -0.03131893 -0.043341212 0.073230945 0.082512684 0.15422697 -0.05250781
-0.12139924 0.11533952 0.023219967 -0.04863122 0.043937672 0.04789011 0.07335365 -0.08167558
0.15621668 0.08507908 0.019273937 0.14768842 0.033902813 -0.01753263 -0.0616449 -0.07018005
-0.05408905 0.18750225 0.06893098 0.040245656 -0.027553502 0.032605246 0.11367816 0.007904896
-0.08226434 -0.012087869 0.069443636 -0.05408365 0.16677709 -0.01473462 0.1397523 -0.07909675
-0.0726115 0.013730338 -0.002766857 -0.05639707 -0.11871663 -0.06997807 0.029503556 0.009677629
0.015832888 0.016230145 -0.049325883 -0.05823628 0.043208726 -0.031938583 0.010266012 -0.16312057
-0.020717876 -0.04393667 0.04923385 0.10295054 0.07772265 0.023161687 -0.010926368 0.05683178
0.008516509 0.1379377 -0.024713818 -0.021149425 -0.023551947 0.036382135 -0.011073373 0.017533138
0.038751148 0.123380266 0.08810928 0.040945232 0.009784281 0.0233879 -0.06692399 0.12731677

network_body._body_endoder.seq_layers.2.bias f4 [256]
00000000: c776 6abb 5018 803c e093 37bc 22fe a2bb
00000010: 7edd 04bb d5bc 4dbb d5e2 973a 0c72 893b
00000020: e826 75bb 1f2e 2d3d 00e4 02ba 0c78 80bb
00000030: f6f4 bcba 7029 9b3c 496c 10bc 2d43 00bc
00000040: e27e 173d 47b8 10bb 4fc5 32bb 336d 053b
00000050: e48a 3fbc 0ef9 9c3b e4ce f2bb fb7d 5ebc
00000060: 18b9 85bb ba55 07bb 462e 3ebb f4e7 85bb
00000070: 9ed5 923a 8bdf 6abb ae36 10bc 824c af3b
00000080: 26e5 aebb 426d d0bb ebd9 8a3b 2cf7 89bb
00000090: e018 40bb 7e91 12bc d36f e93a 83b6 013c
000000a0: d6bc 8dba 96a5 823a b181 beba 36ed 6fbc
000000b0: 8b83 333d 3a85 2abc e7b8 b8bb 376f a7bb
000000c0: 2398 1b3d 4b72 833b 4a3a 7ebb ce57 a339
000000d0: 882c e5bb 3b63 16bc 0f5a a9bb 4397 193b
000000e0: e457 493b 0657 f139 ffa0 ff3b 7fe2 013c
000000f0: f228 9fbb fe50 923d 2eb6 45bc 7520 4c3d
00000100: 7824 52b9 7cb0 b5bb 9a1f c93c 5461 bbb8
00000110: a318 163c 17db 23bb b05a 853b 2c1e 11bb
00000120: 7c7f 0cbb 4018 e53b a4bc 063d e6b4 fb3b
00000130: 70a3 2c3d 800a 6dbb 7614 1f3d f858 0cbc
00000140: 227e 023d 3d3b 723a e897 c6ba 8b2f d6bb
00000150: ccdd 413d 3dc5 d3ba 6aa0 ee3c 50da 5fbb
00000160: 70ee fb3c 691e 9dbc 3ad0 5c3b 76de c43a
00000170: faed cf3a 2a20 4fbc 182f 1cbc 85ce 40bc
00000180: 05dc 2abb 2f0d 0abc 17fe 5bbb bf7c 86bc
00000190: e356 e23a a862 8ebb c3fb 1ebc d69f 13bb
000001a0: 1436 5fbb 06f6 c23c aebc 4fbb 6636 85bb
000001b0: 4a6a 23bc ffaf d3bb 126f 6e3d 7297 a9bb
000001c0: edf5 203a cd51 60bb 8d3b a5bb ae04 b43c
000001d0: a52e 1a3b c942 c93a e37f f13b 47d4 9fba
000001e0: 4f57 09bc 87a4 ea36 d922 363d 0432 a739
000001f0: a360 a53d 1367 083d f96d 0dbc bf9d dcb9
00000200: 72db 03bc 6c72 1fbb 09e2 34bc 778f 813d
00000210: c2dc 58bc e701 813c 1cfc 35bc f446 db38
00000220: c51c 483c 2e1d d63b 48fc 103d b6ad 0939
00000230: 88a4 dc3b 3e57 0ebc 446e 56bc 9ec2 323c
00000240: 6b7e 4b3b 2509 66bc a40c cd3c a19c 2cbc
00000250: eb62 b33c db62 a53c bf54 67bc de7e 643b
00000260: feae 93bb 8c6a 1cbc 83a0 74bb 7806 453d
00000270: 1cb6 00bb 53a1 f13a 482e 13bc 622c 543c
00000280: a997 4b3b b854 003d 044f 883c b344 1cbb
00000290: c581 f43c c7b7 30bb 12e7 2b3d ce31 a33d
000002a0: 6615 1d3d 2267 78bb f8ab 673c a701 ed3b
000002b0: a773 85bb 81da 42ba 2dcf cabb a446 4bba
000002c0: f1fb 13bc 91fa 043d 8497 89ba bc1f b3ba
000002d0: dc5e 94bb c7f6 babb bd7d 83bb 01d4 90bb
000002e0: 56ea 09bc e2d9 4c3d 1ef5 bb3c e66b 1c3c
000002f0: 6e24 09bb 42f9 453c 0257 4cbc ef68 01bb
00000300: 981f 07bb 229e 823c b8da 5f3c 458a 8dbb
00000310: bb25 613d 96ce e2b9 a429 41bb 6a90 afbb
00000320: 2fae 5abb 6cde afbb 67db 1e3b 0647 043b
00000330: bb68 063c a60d 88bb 592e d2bb 80bc 36ba
00000340: 539d 15bb dec5 7bb9 1ab3 823d 2d78 903d
00000350: 093a c0bb 9476 723b a170 85b9 cc72 05b9
00000360: 3c5a 373a e903 5f3a 26b6 babb f34f 6a3c
00000370: 69e0 d13d 97d3 4dbc 5bce 24bc 5731 323a
00000380: c05b 1d3d 3bc3 32bb 6f7b 903d 1a97 61bb
00000390: b9c5 82bb 06e6 debb a54c 623c eaae 973d
000003a0: d87e 763d 7f05 ec3b f97f c5bb 068a 4f3d
000003b0: 3a97 9c3c 60bc 4b39 e857 173d 1cca ec3b
000003c0: 6db7 db3c 15bc b73c e43c 653d 6b9b 793a
000003d0: c363 28ba 849b ccbb 07b2 babb ed40 33bc
000003e0: c821 843d 13c2 423d 1a2e ac3b 2908 513d
000003f0: fe84 073b 125e c8bb 3714 b33c 0e37 bc3a
-0.0035776363 0.015636593 -0.01120469 -0.0049741426 -0.0020273621 -0.003139307 0.0011587987 0.0041945037
-0.0037407223 0.042280313 -0.0004993081 -0.0039205607 -0.0014416266 0.018940657 -0.00881488 -0.007828516
0.03698624 -0.0022082494 -0.002727825 0.0020359277 -0.011690829 0.004790432 -0.007409917 -0.013579841
-0.004080903 -0.0020650462 -0.002901928 -0.004086489 0.0011202579 -0.0035838808 -0.008802099 0.0053496966
-0.005337375 -0.006360681 0.0042374036 -0.0042103734 -0.0029311702 -0.008945821 0.0017809815 0.007917049
-0.0010813724 0.0009967561 -0.0014534501 -0.014643958 0.04382662 -0.01040774 -0.0056372765 -0.0051096934
0.037986886 0.0040114275 -0.0038792067 0.00031155202 -0.006993834 -0.009178932 -0.0051682065 0.0023436106
0.0030722553 0.0004603194 0.0078011747 0.007927536 -0.004857176 0.07144354 -0.012067361 0.04983564
-0.00020040746 -0.00554472 0.024551202 -8.9349836e-05 0.009161147 -0.0025002414 0.0040696487 -0.0022143228
-0.0021438291 0.006991416 0.032894745 0.007681477 0.042148054 -0.0036169589 0.038837872 -0.008566134
0.03185857 0.00092403946 -0.0015151473 -0.0065364293 0.047330663 -0.0016156804 0.029129226 -0.0034157224
0.030753344 -0.01917954 0.0033693449 0.0015019912 0.0015863769 -0.012641946 -0.009532712 -0.011767988
-0.0026071083 -0.008425995 -0.0033568197 -0.016416905 0.0017268326 -0.004345257 -0.009703579 -0.002252569
-0.0034059333 0.023798954 -0.0031698155 -0.0040653227 -0.009974072 -0.0064601894 0.058211394 -0.0051755244
0.00061401614 -0.0034228445 -0.0050424994 0.021974888 0.0023526337 0.0015354987 0.0073699816 -0.0012194001
-0.008382632 6.992897e-06 0.044466827 0.00031889987 0.080750726 0.033301424 -0.008632177 -0.000420792
-0.008047925 -0.0024329675 -0.011040219 0.06326192 -0.0132362265 0.015747977 -0.011107471 0.0001045595
0.01221389 0.00653424 0.035396844 0.0001313005 0.006733481 -0.008687792 -0.013087813 0.010910658
0.0031050693 -0.014040266 0.025030442 -0.01053539 0.021897754 0.02018874 -0.014119326 0.0034865658
-0.0045069447 -0.009546887 -0.0037327118 0.048101872 -0.0019639796 0.0018434919 -0.008983202 0.012950035
0.0031065738 0.031330794 0.01663924 -0.002384466 0.029847035 -0.0026965009 0.041968413 0.07968484
0.038350485 -0.0037903269 0.014140122 0.007232863 -0.0040726247 -0.00074330723 -0.006189248 -0.0007754362
-0.0090322355 0.03246552 -0.0010497426 -0.0013666074 -0.0045279097 -0.0057056877 -0.004012792 -0.004419804
-0.008417686 0.050012477 0.02294403 0.009547209 -0.0020926255 0.0120833535 -0.012471916 -0.0019746383
-0.0020618197 0.015944544 0.013662986 -0.0043194615 0.054967623 -0.00043259998 -0.0029474283 -0.0053577917
-0.0033367982 -0.005367091 0.002423966 0.0020183935 0.008203681 -0.0041520176 -0.0064142165 -0.0006970838
-0.0022829368 -0.00024010937 0.06381817 0.07054172 -0.0058662933 0.0036996948 -0.00025451652 -0.00012726634
0.0006994342 0.00085073576 -0.0056979833 0.014301288 0.10247881 -0.012562654 -0.010058965 0.00067975133
0.038417578 -0.002727701 0.07054793 -0.003442234 -0.0039908555 -0.0068023233 0.013812219 0.07406409
0.06017956 0.0072028036 -0.0060272184 0.05066874 0.01911508 0.00019429764 0.03694907 0.0072262418
0.026820863 0.022428552 0.055966273 0.0009521755 -0.0006423557 -0.006244125 -0.005697492 -0.0109407725
0.06451756 0.047548365 0.005254519 0.051033173 0.0020678635 -0.0061147297 0.021860225 0.0014359669

action_model._discrete_distribution.branches.0.weight f4 [2, 256]
00000000: d567 9bbc 2742 b8bc 1389 0cbd 03f5 3ebc
00000010: 1ccb 42bc 93b5 183d fda4 4fbd 9bc8 9ab8
00000020: 3fcc 45bd 63cd 75bd 8987 ddba c072 05bc
00000030: f950 92bc 99de 013d aa2c b9bc f261 acbc
00000040: 6d65 79bd 6064 2abc 9bc2 21bd 5e60 413d
00000050: 6b65 31bc 8aa7 443d 3477 5fbc c0d1 d4bc
00000060: 4fc0 18bc 69a4 59bd 5c67 90bd 1932 64bd
00000070: f8b0 37bd f4c1 d8bc 178e afbc a9d6 9cbc
00000080: 62cc d9bc a10e 6fbd 2013 11bd 75f0 a0bc
00000090: 0892 bf3c 6f31 d23b 8b26 54bd 995f d239
000000a0: 4500 4dbd dbe2 2cbd 4f01 d5bc c462 8dbc
000000b0: f71d 01be 7698 00bd 3fe7 fbbb 17fc 6b3b
000000c0: f4c8 62bd e1f7 4fbd db5d c6bc 59c4 66bd
000000d0: 2069 60bc bd39 efbc 8bb1 3f3d 775a 8cbc
000000e0: b493 11bd 78b3 2abd 3068 8fbc bfc7 4b3d
000000f0: f992 c8bc 72e3 ef3d 5a30 81bc 56a5 813d
00000100: 4e61 47bd b2dd f7bc f634 9fbd 3103 2bbd
00000110: 8e47 733c 7cc6 e23c ecbb 2c3d 0519 58bd
00000120: d4aa 64bd 6b7f a83c a247 96bd 3606 753d
00000130: 9ecd 753d 004f cbbc da18 1f3d 2bc0 a93b
00000140: 15b8 94bd 0a3d 5bbc 0963 28bc b27a 20bc
00000150: fe75 503d 89fa 163d a889 29bd 5562 59bd
00000160: f495 cabd 27fd 0dbd b795 4f3d 4790 6f3d
00000170: 52b3 3e3c f5af 053d 00f9 c7bc 48ef 80bd
00000180: 0e4b fabc f346 6cbd ce92 28bd cc5f cabd
00000190: 00fd e2bc 8386 6abd 1cca cdbc dcfb 35bd
000001a0: f272 c4bb d42b 04bd 24ca f338 a336 c5bc
000001b0: 4c03 613d e3bd 57bc c18f a8bd d053 803d
000001c0: bf79 f6bc 3c24 1d3b 484d fe3a 3457 963c
000001d0: b16e 493c 14c3 ad3c 3d56 1bbd 6262 52bc
000001e0: 8fed 6bbc 0095 f73c 4754 7abd 7e48 ebbc
000001f0: ed24 083e cc9a ccbd f3fc 49bc 38ee db3b
00000200: 47c2 20bd c3c2 41bd 553e 94bc 0573 c9bd
00000210: e43b a93a 98ae 5b3d 52fc 01bd 4978 96bc
00000220: aeb1 57bd 071a 463d 1a0e 013e 910e 30bd
00000230: 96c7 7ebd 8f78 c7bc 1e36 4abd 9a4f 71bd
00000240: cbb7 d0bc a928 3cbc 6a4a 33bd eba8 143c
00000250: 8815 2fbd edaf 38bd 1396 1fbd 7c0e 513c
00000260: 7466 a6bc 41ea 8d3b 7fe6 8dbc 115d eebd
00000270: 851b 19bd 9dda 0dbc 7d10 253b ab08 3fbd
00000280: c5c9 1b3b aaf1 9b3d ae8b 29bd 3c4d 11bc
00000290: fe26 6d3d d142 42bd 1c99 573d 1ba1 1dbe
000002a0: 05cd 873d 8987 4dbd fe4a 1dbd bca3 cebb
000002b0: 10cc bbbc ec34 08bd bf8f 34bd 0908 0fbd
000002c0: 09fa 08bd 1750 ec3d a108 88bc 0860 38bb
000002d0: 6257 3dbc b177 da3c 74f6 08bd af9a 30bd
000002e0: 5196 edbc 94c6 9fbd 2a0d 513d 761a 423d
000002f0: 789b 213c 28b8 513d 389a 443d 95e9 af3b
00000300: 0cbe 2abd ae30 053d e541 5e3d 9de7 3ebd
00000310: 97cb 07be 5000 56bc deda b53c b9de 68bc
00000320: 7c54 f9bc 1955 0bbd 0a23 47bd 0899 413c
00000330: 17f2 6a3d 2923 8fbb f069 aabc 5d7c 46bd
00000340: c9a0 f43c 6fcc 04bd 0d13 ab3d a39b 8d3d
00000350: 847b d9bc f6b2 0b3c 2c60 503c c420 32bd
00000360: c702 13bb 1149 a3bc 43c4 81bc 746f 303d
00000370: 0719 fc3d fef1 3bbc 0086 82bc 7245 0dbd
00000380: 4818 10be c862 22bd fe17 b4bd fd76 9cbc
00000390: 43d9 f93b 4c32 983c c912 863d af1e 11be
000003a0: 7725 5c3d 5323 153d 8ff6 6abd a869 823d
000003b0: 796c 05bd 267d f03c 1fa1 89bd 3816 613d
000003c0: 3754 33bd fce7 663d 5c08 a6bd 8b9d 2dbd
000003d0: a508 7b3c dbc6 6ebc 270c 21bc b811 13bd
000003e0: d0bf 97bd 3b2b 8e3d 7f23 2abc 2919 c63d
000003f0: e1d7 793b 3067 53bd 91e3 2f3d d7ac 07bd
-0.01897041 -0.022492481 -0.03431041 -0.011655095 -0.011889245 0.037282538 -0.050694454 -7.380658e-05
-0.048290487 -0.060010325 -0.0016901355 -0.008145034 -0.017860876 0.031706426 -0.022604305 -0.021042798
-0.060887743 -0.010399908 -0.03949223 0.047211044 -0.010827403 0.04801134 -0.01363926 -0.025978923
-0.009323194 -0.05313531 -0.07050964 -0.05571184 -0.044846505 -0.026459672 -0.021430058 -0.019145327
-0.026586715 -0.05836356 -0.03541863 -0.019645909 0.023385063 0.0064145843 -0.05179457 0.00040125547
-0.050049085 -0.042208534 -0.0260016 -0.01725901 -0.12609087 -0.031395398 -0.007687479 0.0036008412
-0.055367425 -0.050773505 -0.024214676 -0.056339595 -0.013696939 -0.029202336 0.046800178 -0.01713298
-0.03554125 -0.04167506 -0.017505735 0.04975104 -0.024484145 0.117133036 -0.015770126 0.063303635
-0.04867678 -0.03025708 -0.07773773 -0.04175109 0.014848603 0.027682535 0.042171404 -0.052758235
-0.055826977 0.02056857 -0.073378816 0.059820376 0.060010545 -0.024817944 0.03884206 0.005180379
-0.07261673 -0.013381252 -0.010277518 -0.009794878 0.050893776 0.036860023 -0.041391045 -0.053072292
-0.098918825 -0.034665253 0.05067989 0.058487203 0.011639433 0.03263851 -0.024410725 -0.06295639
-0.030553367 -0.05768485 -0.04115563 -0.09881553 -0.02770853 -0.057257187 -0.025120787 -0.044429645
-0.005995148 -0.03226836 0.000116247946 -0.024073904 0.054934785 -0.013167831 -0.08230544 0.06265986
-0.03008735 0.0023977896 0.0019401694 0.018352129 0.012294457 0.021211185 -0.03792404 -0.012840839
-0.0143999 0.030222416 -0.06111553 -0.02872109 0.13295336 -0.09990463 -0.012328374 0.0067117475
-0.039247777 -0.04730488 -0.018096128 -0.09836391 0.0012911526 0.053633302 -0.031734772 -0.018367903
-0.052659683 0.048364665 0.12603036 -0.04298264 -0.06220206 -0.024349479 -0.049368016 -0.058913805
-0.025478264 -0.0114843035 -0.04377214 0.009073476 -0.042745143 -0.04508965 -0.03896148 0.012759801
-0.020312525 0.0043309038 -0.017321823 -0.11638845 -0.03737976 -0.0086580785 0.002518683 -0.046639126
0.0023771387 0.07614453 -0.041392975 -0.008868512 0.057898514 -0.047427002 0.05263625 -0.15393488
0.06630901 -0.050178085 -0.038401596 -0.0063061398 -0.022924453 -0.033253595 -0.0440824 -0.034919772
-0.033441577 0.115387134 -0.016605677 -0.002813341 -0.011556478 0.026668401 -0.03343816 -0.043116268
-0.02900234 -0.07801548 0.051037945 0.047388516 0.009863727 0.051201016 0.047998637 0.0053684213
-0.04168515 0.032517128 0.05426206 -0.046607602 -0.13261257 -0.013061598 0.02219909 -0.0142132575
-0.030435793 -0.034016702 -0.0486174 0.011816271 0.05735978 -0.004368205 -0.020802468 -0.048458446
0.029861825 -0.032421526 0.08353243 0.06914451 -0.026548155 0.008526554 0.012718242 -0.04348828
-0.0022432075 -0.019932302 -0.015840655 0.04307504 0.12309461 -0.01147127 -0.015933037 -0.034490056
-0.14071763 -0.039644986 -0.08793639 -0.019099707 0.0076247766 0.01857867 0.06546552 -0.14171861
0.053746667 0.03641064 -0.057364043 0.063678086 -0.03257415 0.02935655 -0.067201845 0.05495283
-0.043781485 0.05637358 -0.08107063 -0.042386573 0.015321885 -0.014573778 -0.0098295575 -0.03590557
-0.07409632 0.06941839 -0.0103844395 0.09672768 0.0038123059 -0.05161208 0.042941634 -0.033123817

action_model._discrete_distribution.branches.0.bias f4 [2]
00000000: ceaf d43b 92af d4bb
0.006490684 -0.006490656

action_model._discrete_distribution.branches.1.weight f4 [3, 256]
00000000: e329 cbbb 3d6c 323c 1803 a33b c9b0 49bb
00000010: 8fc4 29bb 0941 5bbc 4d16 233c 37c2 263c
00000020: 4a76 aa3a 10a4 23bc d05c 6ebb 7938 89bc
00000030: 09c5 a63b 6707 c83c bb3e f2bc def7 ccbb
00000040: f67f 54bb f64d 8c3a 704c 0b3c 7eb1 f0ba
00000050: 3e83 94bb e18f 24bc 0ad1 58bc 9902 0fbc
00000060: a5f0 ab3a b3c2 a53b 0aa6 68bc ac3e 19bd
00000070: f1c1 d139 62ea bdba c6f1 4e3b bc76 333c
00000080: eace e53b 2732 8c3c d194 59bc 71fd 11bc
00000090: 9475 2d3c 74b7 90bc b77c 45bc 020b 31bc
000000a0: e70d afbb c69d c7bb 24eb c4bb 6be4 adbb
000000b0: 9ed1 27bd 0051 8fbc c8a3 20bc 548d 21bc
000000c0: 05d1 1d3c ee6f 56bc 942d 66bb e6df 19ba
000000d0: 62b7 f0bb d0c5 a0bc 8b48 3abc 47f3 10bb
000000e0: 5f0a b1bc 681f 0ebb c2fe 56bb e109 e1bb
000000f0: ee2d b3bb 30ee 773d ed85 023b 35ac e1bb
00000100: c194 44bc a35a ad3b d5f4 96bc a2e8 df3a
00000110: 6533 73bc e89a 0cba 484b c73b 9687 493c
00000120: 526e 1aba 53d8 a43a d628 813c 507a 05bc
00000130: 27f7 7abb 832c 4fbc bb67 4f3c 3db6 b6bb
00000140: 093e ccbb fdf6 c9bb 6a76 3cbc c2a6 ed3b
00000150: 3daa 1a3b 93be 12bb aa15 923c e047 47bc
00000160: 6ce6 ffbc 1b50 a5ba fd0d 8bbc e6ff dcbc
00000170: c377 a9bb 7ff7 2eba e275 923b 2981 0f3c
00000180: baa4 f5ba 075e f6bb d891 05b9 8808 fdbb
00000190: d49c 65bc 14ae 053b cbee 19bc fc83 b6bb
000001a0: bc67 5dbc 7037 1ebb d6bc 50bc 550d 0dbc
000001b0: 7fbd d5bc ad99 933b 9f9a 2a3b 667e 87bc
000001c0: d36b ceba 02e4 b5bb 3232 83bc ec23 813c
000001d0: cf34 3d3c b5ed 67b8 4968 903c fd88 12bc
000001e0: 9795 40bb 0e9f bfba a4ba 6d3c c04f 0abc
000001f0: d0b0 943d c9f8 60bc 8531 3ebc 7ca3 22bc
00000200: bbcd 393b eb63 373c 9754 6ebb 3d32 673c
00000210: 4dd8 e2bb 8e16 bfba 778a aa3b df54 a0b9
00000220: 0d0e fc3b 4e7c 6cbc 5cb8 21bd 4428 8d3b
00000230: 2175 c1bb 7cef bdbb 5a7f 42bb d4a0 ddbb
00000240: 7b73 da3c a386 5abc c073 aebb 0c77 59ba
00000250: e047 3b3c f1bc 80bc 6b81 febb 8fc8 78ba
00000260: 3185 963b 80da 68bc 6b91 95b8 aa63 893c
00000270: 6f6c a83b 9320 c6bc daf5 edba 3873 83bb
00000280: c383 493c 7472 6cbc 4349 eb3b 94b7 183c
00000290: 66ac 7d3c a732 3f3b b666 733c 03cf 7abc
000002a0: ee5b e3bb d909 d0ba eeac 81b9 3ebf 12bd
000002b0: 791a f7ba 0aa6 01bc f104 45bc 4068 1ebb
000002c0: c584 83bc 6dad afbc e465 053c 2c1c ebbb
000002d0: e452 02bb 6493 1bbc bbb8 25bc b48b 93bc
000002e0: ff84 17bc f776 003a ccd8 8cba afcf 30bc
000002f0: e0ee 18bc 6243 debc 8522 84bd f7bd 6f3b
00000300: 5c57 9b3b 13e0 dc3a 0d64 09bd 89e3 1cbc
00000310: 50bc e2bc 7785 feba 6afb 10bc a77d c9bb
00000320: bc37 7ebc 2cb4 95bb 5e41 f7bc 16f3 293c
00000330: 1e96 b23c b711 a73b 3e4f b7b9 dcbc 123c
00000340: 08ba 79bb 40e0 693c 126b f33c 5314 2fbb
00000350: 4f52 b9bb be2c 4d3c 537a 23bc bc0b 00bc
00000360: f931 b9bb fd66 fb3b f843 1bbc 995f 32bc
00000370: d80d a63d 64b9 113b 5d62 75bc fde8 4e3b
00000380: f40a 0f3d 9fd7 b0bb ede7 cb3c 8ceb a8bc
00000390: 12d5 f1bb 53f7 2b3c 82f6 6dbc 233c 543d
000003a0: 7647 333d a867 cdbb 8d9e 0a3c 11bb 483c
000003b0: 9e1e a43b 2ca4 d53c 2f1b c63c b4e3 62bc
000003c0: b6dd 9dbc 23bd a4b8 840e 0f3c 83b8 45ba
000003d0: 4866 46ba f86a a1bc 14c8 2cbc ae03 2dbc
000003e0: 5980 003c 8188 a53b 8489 25bc d6de 743c
000003f0: 2a30 a1b9 9fc4 64bc b11f bcbb 31bb 8739
-0.0062000616 0.010890064 0.004974734 -0.0030775538 -0.0025904512 -0.013382205 0.009954047 0.01017814
0.0013005224 -0.009987846 -0.0036371239 -0.016750561 0.0050894064 0.024417592 -0.029570928 -0.006255134
-0.0032424903 0.0010704387 0.008502111 -0.0018363444 -0.004532247 -0.010044069 -0.013233433 -0.008728647
0.0013117982 0.0050586103 -0.014199743 -0.037413284 0.00040008084 -0.0014489407 0.0031577214 0.010953601
0.0070131915 0.017113758 -0.0132801095 -0.008910523 0.010587115 -0.017665602 -0.01205366 -0.010805847
-0.0053422335 -0.006091806 -0.0060094763 -0.0053067706 -0.04097139 -0.017494678 -0.0098046735 -0.009860355
0.009632354 -0.01308821 -0.0035122382 -0.000586985 -0.0073460797 -0.019625574 -0.011369835 -0.002211766
-0.02161139 -0.00216862 -0.0032805656 -0.0068676327 -0.0054681217 0.060529888 0.0019916252 -0.0068869838
-0.011998356 0.0052903458 -0.018427292 0.001708288 -0.014843796 -0.0005363659 0.0060819723 0.012300393
-0.0005891073 0.0012576677 0.015766542 -0.008146837 -0.0038294287 -0.01264489 0.012659009 -0.0055759237
-0.006232981 -0.0061634765 -0.0115028415 0.007252545 0.0023600005 -0.0022391423 0.017832596 -0.012163132
-0.031237803 -0.0012612374 -0.016974444 -0.02697749 -0.0051717474 -0.0006674453 0.004469619 0.0087588215
-0.0018741109 -0.007518533 -0.000127382 -0.0077219643 -0.0140144415 0.0020397948 -0.009395312 -0.005569933
-0.013513502 -0.002414193 -0.0127403345 -0.008609136 -0.026091335 0.0045044036 0.0026032103 -0.016539764
-0.0015748687 -0.0055508623 -0.016015146 0.0157642 0.011548235 -5.5296074e-05 0.017627852 -0.008943793
-0.0029386037 -0.0014619546 0.014509831 -0.008441865 0.07260287 -0.01373119 -0.011608486 -0.009926673
0.0028351385 0.011193256 -0.0036366337 0.014111099 -0.0069227577 -0.0014578865 0.0052044946 -0.00030580812
0.0076921047 -0.014433933 -0.03948246 0.0043077786 -0.0059038554 -0.005796371 -0.0029677958 -0.006763557
0.026666394 -0.013337764 -0.005323857 -0.00082956324 0.011430711 -0.015715094 -0.0077668927 -0.0009490335
0.0045935144 -0.014212251 -7.13196e-05 0.016771156 0.0051398794 -0.024185454 -0.0018154935 -0.004011538
0.012299481 -0.014431585 0.0071803643 0.009321112 0.0154829975 0.0029174478 0.014856031 -0.0153081445
-0.006938449 -0.0015872075 -0.0002473364 -0.035826914 -0.0018852494 -0.007913122 -0.012025104 -0.0024171025
-0.01605452 -0.021445 0.008141968 -0.007174989 -0.0019885832 -0.00949559 -0.010114844 -0.018010952
-0.009248017 0.00049005396 -0.0010745763 -0.010791703 -0.009334296 -0.02713174 -0.064518966 0.0036581734
0.0047406387 0.0016851447 -0.03354268 -0.009575733 -0.027677685 -0.0019418438 -0.008849004 -0.006149012
-0.015516218 -0.0045685973 -0.030182537 0.010372898 0.021800097 0.0050985473 -0.0003496352 0.00895616
-0.0038105268 0.014274657 0.029714141 -0.0026714995 -0.005655564 0.012522874 -0.009977895 -0.007815298
-0.005651709 0.0076721893 -0.009476654 -0.01088705 0.08108109 0.0022235746 -0.014977065 0.0031571977
0.034922555 -0.005396798 0.024890864 -0.02062013 -0.0073801363 0.010495978 -0.014524104 0.051815163
0.043769322 -0.0062684603 0.008460653 0.012251631 0.0050085327 0.02607926 0.024182884 -0.013848234
-0.01927076 -7.855359e-05 0.008731488 -0.0007542448 -0.00075683417 -0.019704327 -0.010545749 -0.010559959
0.0078431005 0.005051673 -0.010103587 0.014945706 -0.00030744198 -0.013962894 -0.0057410826 0.00025888675

action_model._discrete_distribution.branches.1.bias f4 [3]
00000000: 844b c13b b9f9 e339 f2d3 1abb
0.0058988947 0.00043482872 -0.0023624864

action_model._discrete_distribution.branches.2.weight f4 [2, 256]
00000000: 94e3 fbbb bb73 96bc 6dcf 75ba ad0d a2bb
00000010: c26a c9bb 875f f03a eca4 a2bb 9933 6d3b
00000020: e5d1 4ab9 63fe 4c3b ccc7 a73a 9fe0 1abb
00000030: 6c85 853b eaea 59bc e514 3b3c b9ae 59bc
00000040: 9753 123c 62a5 18bc 839b c23b b1e9 723c
00000050: c895 0abb 24b7 253b 2057 aa3a d4ec e93b
00000060: e11e c4bb 0b57 10bc 98bd 683c ce74 08bc
00000070: 797d d03a 8a30 0cbc 8ac6 473b 2ec7 083a
00000080: 5c01 c43b 8b5d 413c b547 46bc 23e6 a1bb
00000090: cdba 00bc e9b4 41bc 64c6 9abb d514 32bc
000000a0: e0aa 4cbc de1b 73bb 28fb 26bb 6e50 29ba
000000b0: 8a9b c03b cfb8 523c 87fb c239 22c2 2cbc
000000c0: 3573 d0bb 8e93 da3b d7cc c9bb 637d afbb
000000d0: a64a 66bc 9fef cd3b 990f 5c3b deb5 18bc
000000e0: 0284 733b 31b1 c5bb b466 6fbb f55c 40ba
000000f0: 8b7a 013c 9737 3d3d 35d2 863b ad3c 4bbb
00000100: 4dd8 e3bb 72c8 153b aa2b ca3b 22a5 25bc
00000110: fa6c edbc 30e8 0fbc 8d50 5e3c 50d8 e5ba
00000120: 2106 973a aea1 3abb bf27 1b3c a280 0f3c
00000130: 77b1 80ba 1f08 7cbb 10ad 453c c3d0 e6ba
00000140: 542d 35bc 97f7 c33a 20aa 65ba 0f81 533b
00000150: ab0d 243b e5a2 0bbb 8db2 b43b e178 bb3c
00000160: f7c0 60bc 3c25 993b 92e6 21bb c6d4 92bc
00000170: 7e07 873a 931b 49bb 8bd6 70bb 2120 c7bb
00000180: 26c6 32bb ec51 1b39 ec56 0ebc cea9 17bc
00000190: 9c9a 49bc d6ad 7abb f576 4ebb e88f 2abc
000001a0: 824a 06bc 8cef 2fbb b486 9fbb 2de8 b5bb
000001b0: a993 823a 1215 55ba d918 0cbc 5e49 e6bb
000001c0: 1b84 1ebb 810c 81bb 90a2 33ba 0e91 2e3c
000001d0: f9c3 d4bb 2df7 e4bb 9183 a5ba ddab 20bb
000001e0: c5e1 fa3a 858b 07bb f814 dc3b 9c4b b1bb
000001f0: 7608 483d 8363 ce3c 70bb f5bb 265b a9bb
00000200: 6a59 273c 5abb 513b 54e5 8ebb 22fb 7b3c
00000210: 4124 a1bb 2e62 7b3b afd5 063b 6e8a 253c
00000220: 071b 043d cf04 a73b 6b91 e9bc a782 4c3b
00000230: d75b 08bc 2cd4 86bb 9e40 a23b b6a7 75bc
00000240: 1117 463b eed0 4f3c 5763 90bb c881 3ebd
00000250: 08aa 17bc 04d4 1fbc f766 cf3b 3c11 1c3c
00000260: b4ca 183b ae22 4a3b 769f a3bb 7fbb f63c
00000270: c09f d73a a087 4dbb 7179 6bbc 7d3c 623c
00000280: cb3f a4ba a415 adbc 2d86 a7b9 6233 19bb
00000290: e9bf 993b b976 0dbc 8915 483b 708b dd3c
000002a0: b8e1 abbb 9358 a0bb b8d1 9ab9 3c70 02bd
000002b0: 9458 a33b 3304 ef3a 863a 0abb 4e7a a03b
000002c0: 16d9 a2ba 73a9 a4bc 725a f73a 4f58 0f3a
000002d0: 3058 30bc c745 bc3b 4f09 efbb 4188 773b
000002e0: cf7b a1bb cd25 05bb 7fd1 123b ab97 a1bb
000002f0: 359c 4b3b 4ded 0abd c0f3 41bd da02 84bc
00000300: 4e3b 913b a03b c63c 89d8 4cbd f7b3 a8ba
00000310: 12ee 803c 92bd 733b e3cf c2bc ab1e 96bb
00000320: 1793 3abc 6a09 0abc d188 26bc aa14 423c
00000330: c413 a5bc 4844 f5ba 0354 9b3b 9716 193c
00000340: 590b 033c 4a01 9cbc 1290 023d fd21 13bc
00000350: 4471 17bb 5f68 9d3a 10d0 233b 51f8 ab3b
00000360: 5e51 07bc 7c3e 9a3b 884e d23b 4f6d 84bb
00000370: 4d55 003d be22 283a ca27 03bb 0f43 113b
00000380: 2e0f ba3c 1ec2 87bb 33d5 4d3c bc0a fabb
00000390: 3066 243c c936 b2b8 6010 ac3b 52a2 083d
000003a0: 2e26 b23d 00f3 aabb cbb5 fabb bc3d 193b
000003b0: 899a eab9 d826 f239 270e 923b eced a53b
000003c0: e3f4 f7ba ce91 0a3c 22af 433c be28 56bb
000003d0: f4f2 f93b 5ec0 18bc 3a75 9abb eb84 50bb
000003e0: 64b3 2a3c 8040 2c39 c70a c3bc 2877 4dbb
000003f0: 31b0 0dbc 398d c4bb ba57 0db9 9cf8 b9bb
-0.0076870415 -0.018365731 -0.0009376917 -0.004945478 -0.0061467597 0.0018339016 -0.004963508 0.0036194085
-0.00019342413 0.0031279556 0.0012800633 -0.002363242 0.004074743 -0.013300637 0.011418556 -0.013286286
0.008931062 -0.009316774 0.0059389486 0.014826224 -0.0021146405 0.0025286162 0.0012995936 0.007138828
-0.0059851264 -0.008809815 0.014205359 -0.00832863 0.0015906534 -0.0085564945 0.0030483329 0.00052176684
0.0059816074 0.011802088 -0.012102057 -0.0049407645 -0.007857037 -0.0118229175 -0.004723357 -0.010869225
-0.012491912 -0.0037095468 -0.002547929 -0.00064588233 0.0058779167 0.012861445 0.00037189966 -0.010544332
-0.00636139 0.006670422 -0.006158452 -0.0053555234 -0.0140558835 0.0062846686 0.0033578633 -0.009320704
0.003715754 -0.0060330858 -0.0036529722 -0.00073380704 0.007902752 0.046195593 0.004114414 -0.0031011507
-0.0069532753 0.002285507 0.006169756 -0.0101101715 -0.028982628 -0.008783385 0.0135690095 -0.001753578
0.0011522212 -0.0028477716 0.009469925 0.008758696 -0.0009818514 -0.003845699 0.012065187 -0.0017609823
-0.01105817 0.0014951107 -0.00087610073 0.003227297 0.002503256 -0.002130681 0.005514449 0.022884788
-0.013717881 0.004673628 -0.002470408 -0.017923724 0.0010301915 -0.0030686602 -0.0036748971 -0.006076828
-0.002727875 0.0001481247 -0.008687716 -0.009256793 -0.012304928 -0.0038250587 -0.003150401 -0.0104102865
-0.008196475 -0.0026845662 -0.004868353 -0.005551359 0.0009962219 -0.0008128445 -0.008550846 -0.007027789
-0.0024187628 -0.003938258 -0.0006852532 0.010654701 -0.0064930883 -0.0069874735 -0.0012627711 -0.00245165
0.0019140771 -0.0020682525 0.006716367 -0.0054106247 0.048836194 0.025193935 -0.007499151 -0.0051683364
0.010214189 0.003200254 -0.004360834 0.015379699 -0.004917652 0.003835808 0.0020574143 0.010103805
0.032252338 0.005097009 -0.028511724 0.0031205805 -0.008322678 -0.0041146483 0.0049515506 -0.014993599
0.003022615 0.01268409 -0.0044063735 -0.046510488 -0.009256847 -0.009755138 0.006329413 0.009525593
0.002331418 0.0030843425 -0.0049933745 0.030118702 0.0016450807 -0.0031361356 -0.014372216 0.013808367
-0.0012531219 -0.021128483 -0.0003195269 -0.0023376574 0.004692067 -0.008634263 0.0030530414 0.027044028
-0.0052454136 -0.0048933714 -0.00029529422 -0.031845316 0.0049849246 0.0018235504 -0.0021092012 0.0048973924
-0.0012424316 -0.020100331 0.0018871559 0.0005468176 -0.010763213 0.005745623 -0.007294811 0.0037770423
-0.004928089 -0.002031672 0.0022402701 -0.0049314103 0.0031068448 -0.033917714 -0.0473516 -0.016114641
0.0044321185 0.024198353 -0.05001119 -0.0012871017 0.01573852 0.003719185 -0.023780769 -0.0045812926
-0.011387608 -0.008425096 -0.0101644555 0.011845747 -0.020151027 -0.0018712366 0.0047402396 0.009343765
0.007998311 -0.019043583 0.031875677 -0.008980271 -0.0023108283 0.0012009254 0.002499584 0.0052481075
-0.008259146 0.0047071557 0.006418053 -0.004041351 0.03133135 0.00064138684 -0.002001273 0.0022165214
0.022712316 -0.0041430136 0.012563038 -0.007630674 0.010034129 -8.497906e-05 0.0052509755 0.033357926
0.086986884 -0.005216956 -0.007651066 0.0023382744 -0.00044747096 0.00046186778 0.0044572535 0.005063763
-0.0018917586 0.008457614 0.01194361 -0.0032678093 0.007627839 -0.009323208 -0.0047136815 -0.0031817507
0.010418747 0.00016427226 -0.02380885 -0.003135154 -0.008647964 -0.0059982804 -0.00013479489 -0.0056753885

action_model._discrete_distribution.branches.2.bias f4 [2]
00000000: dd8c f0ba dd8c f03a
-0.0018352527 0.0018352527
