results/boat-agent-poca_2/boat/boat-2499947.onnx (onnx, 328993 bytes, 11 tensors)

discrete_act_size_vector f4 [1, 3]
2.0 3.0 2.0
00000000: 0000 0040 0000 4040 0000 0040

network_body._body_endoder.seq_layers.0.weight f4 [256, 47]
0.14136648 -0.11560509 0.12750833 -0.058755383 0.045042116 -0.07410306 0.118331134 -0.15758249
0.13937926 0.09851917 -0.17958464 -0.2695333 0.118454956 0.0018237582 0.15715717 -0.07381086
-0.1335485 0.034602225 0.34235722 -0.1937652 -0.13331096 -0.014814508 -0.07628392 -0.0042152554
-0.058824867 -0.051529754 -0.046370815 -0.025834488 -0.17855631 0.10791115 0.050004516 0.044390462
0.20253094 -0.048139572 -0.16699825 -0.07041425 -0.12298087 -0.03955001 0.41916388 -0.1785698
-0.039494745 -0.117128864 0.10782082 -0.29822582 -0.24163169 -0.065782346 0.13742135 -0.06614693
-0.06503144 -0.0822054 -0.046488896 0.043857183 0.083881035 0.11161149 -0.15158656 -0.029078107
-0.16282791 0.061360262 -0.11065972 -0.12570448 0.0060335677 -0.0052755973 -0.20578337 0.2526488
0.08387936 -0.043308325 0.2850954 -0.017875435 -0.042985052 0.0036354507 0.15952592 -0.17136967
-0.05796281 -0.32086033 -0.08950858 -0.02792895 0.22716506 0.028196318 -0.048897505 0.14558086
-0.080844104 -0.12908751 0.045270227 -0.2167437 0.24722639 -0.09376835 0.10678719 0.13366091
-0.18247168 -0.28046814 0.13794689 0.021171976 0.10247109 0.036322925 0.466754 -0.04946928
-0.12024182 0.15293084 -0.0051157433 -0.14728868 -0.12552828 -0.033973295 -0.03031101 0.0933623
0.18439087 0.091386214 0.27721754 0.029148974 0.27007475 0.1458436 -0.11214965 -0.033174355
-0.065733336 0.02189322 0.0034318545 -0.12207959 -0.22763298 -0.025009265 0.20805217 -0.13066432
0.026716486 0.18874256 -0.013261175 -0.07105096 0.09629673 0.024789965 0.091587946 0.010478315
-0.19375642 -0.247229 -0.042721972 -0.04783659 -0.030176772 0.06168738 0.0468229 -0.053366847
0.028032584 0.10031383 0.045281325 -0.18646191 -0.108123496 0.14576691 -0.1677477 0.26076138
0.04031482 0.009937626 0.01748107 -0.34022188 -0.17287509 0.13717122 -0.14976887 0.121937625
0.2805562 0.05618356 -0.0732315 0.019754399 0.15187365 -0.04023807 0.38125983 -0.0033643704
0.24653174 0.07053185 -0.058538854 -0.26286343 0.098638706 -0.06314764 -0.027404582 0.23381466
-0.2351228 0.1680238 -0.099182986 0.05019643 0.18245964 0.09007051 -0.18333274 0.00020713588
0.012967098 0.15156676 0.030643439 0.002682511 -0.025315184 0.06605015 -0.060728498 -0.0014914953
-0.07253883 -0.13145585 0.096818544 0.3292746 -0.144067 0.030699251 0.19981188 0.11162913
-0.083019726 0.04403089 -0.093410306 -0.07327453 -0.107617125 -0.20803805 0.22660823 -0.016742857
0.045909677 -0.1253282 -0.19559717 0.043674093 -0.012218545 -0.050497692 -0.14611714 -0.107640274
-0.11565315 -0.27031517 -0.1483147 0.009716927 0.055850852 -0.13483551 0.02857092 -0.240144
-0.096417636 0.06647664 0.048926603 -0.10875619 0.2726566 0.20186889 0.029777126 -0.047231194
0.16597684 -0.097398594 0.093681686 0.1838742 -0.14812967 0.10971097 0.10510766 -0.039601777
-0.14542118 0.16864777 -0.23518643 -0.11387754 -0.21084382 -0.09616458 0.039387304 0.04699172
-0.1361837 -0.044472378 -0.10389868 -0.27972502 -0.015507811 -0.04906566 -0.09764315 0.13237977
0.018965537 -0.0025838509 -0.25729176 0.09800722 -0.0449919 -0.04243708 -0.04705582 0.033958517
00000000: 60c2 103e 5dc2 ecbd 8b91 023e 7ca9 70bd
00000010: 157e 383d 58c3 97bd 9857 f23d 4e5d 21be
00000020: 70b9 0e3e 6bc4 c93d 09e5 37be 4500 8abe
00000030: 8398 f23d 2c0b ef3a cfed 203e 262a 97bd
00000040: f0c0 08be 10bb 0d3d 7249 af3e 626a 46be
00000050: ab82 08be 8db8 72bc be3a 9cbd 2020 8abb
00000060: 58f2 70bd dd10 53bd 53ef 3dbd d9a2 d3bc
00000070: 77d7 36be 8500 dd3d 89d1 4c3d c6d2 353d
00000080: 4564 4f3e 002e 45bd 9701 2bbe 5935 90bd
00000090: 65dd fbbd 31ff 21bd a69c d63e 00db 36be
000000a0: 3ec5 21bd 42e1 efbd 29d1 dc3d 0eb1 98be
000000b0: 4c6e 77be e5b8 86bd 2fb8 0c3e 0b78 87bd
000000c0: 342f 85bd 4e5b a8bd 246b 3ebd 97a3 333d
000000d0: d2c9 ab3d 9194 e43d 8239 1bbe 3635 eebc
000000e0: 5cbc 26be e654 7b3d 90a1 e2bd adb8 00be
000000f0: 3cb5 c53b ebde acbb e0b8 52be 2f5b 813e
00000100: f1c8 ab3d 1264 31bd 06f8 913e 816f 92bc
00000110: 1811 30bd be40 6e3b c35a 233e 887b 2fbe
00000120: 696a 6dbd ce47 a4be 4650 b7bd 41cb e4bc
00000130: f59d 683e f7fb e63c c048 48bd 2613 153e
00000140: 9891 a5bd 842f 04be 466d 393d 0ff2 5dbe
00000150: ea28 7d3e 9f09 c0bd 3eb3 da3d 68de 083e
00000160: dbd9 3abe 8599 8fbe f341 0d3e da70 ad3c
00000170: 5ddc d13d 59c7 143d 61fa ee3e 4da0 4abd
00000180: 5841 f6bd e799 1c3e f7a1 a7bb d8d2 16be
00000190: 7c8a 00be 9527 0bbd cc4e f8bc bc34 bf3d
000001a0: f6d0 3c3e b228 bb3d 75ef 8d3e d4c9 ee3c
000001b0: 3d47 8a3e 0658 153e b7ae e5bd d5e1 07bd
000001c0: 339f 86bd 6959 b33c f7e8 603b dd04 fabd
000001d0: 9f18 69be 3be0 ccbc a10b 553e decc 05be
000001e0: 88dc da3c bb45 413e 6645 59bc 2a83 91bd
000001f0: 3837 c53d 5314 cb3c 7692 bb3d 3dad 2b3c
00000200: 1568 46be 9929 7dbe 3cfd 2ebd 4df0 43bd
00000210: 4735 f7bc e8ab 7c3d 5fc9 3f3d 3297 5abd
00000220: 97a4 e53c 5671 cd3d e978 393d dfef 3ebe
00000230: da6f ddbd ec43 153e 0ec6 2bbe 8482 853e
00000240: 2721 253d 6dd1 223c 7634 8f3c 9031 aebe
00000250: 2b06 31be 9d76 0c3e 035d 19be 6fba f93d
00000260: 10a5 8f3e bc20 663d 66fa 95bd fad3 a13c
00000270: c484 1b3e add0 24bd 7d34 c33e c57c 5cbb
00000280: d172 7c3e 0173 903d 70c6 6fbd 0996 86be
00000290: 1703 ca3d 8d53 81bd 937f e0bc 1c6d 6f3e
000002a0: 08c4 70be 6e0e 2c3e 7320 cbbd c69a 4d3d
000002b0: b3d6 3a3e e376 b83d 94bb 3bbe 9d32 5939
000002c0: f373 543c 5134 1b3e f307 fb3c 11cd 2f3b
000002d0: ca61 cfbc 4d45 873d 72be 78bd 477e c3ba
000002e0: 3d8f 94bd 5d9c 06be cd48 c63d ae96 a83e
000002f0: 4d86 13be ff7c fb3c 7c9b 4c3e d09d e43d
00000300: 3f06 aabd bc59 343d e74d bfbd f510 96bd
00000310: 5e66 dcbd ed07 55be fd0b 683e 5128 89bc
00000320: c90b 3c3d 0956 00be a04a 48be 9be3 323d
00000330: 4b30 48bc abd6 4ebd bb9f 15be 8172 dcbd
00000340: 8fdb ecbd c066 8abe cfdf 17be bf33 1f3c
00000350: ddc3 643d 5212 0abe 900d ea3c 4fe8 75be
00000360: 9c76 c5bd e824 883d 4367 483d 91bb debd
00000370: a599 8b3e b8b6 4e3e 29ef f33c 7f75 41bd
00000380: d5f5 293e ea78 c7bd 2fdc bf3d 8549 3c3e
00000390: 4eaf 17be 25b0 e03d af42 d73d 7935 22bd
000003a0: 4ae9 14be 00b2 2c3e b6d4 70be a138 e9bd
000003b0: 71e7 57be eff1 c4bd 9554 213d 647a 403d
000003c0: bd73 0bbe ab28 36bd d5c8 d4bd 1e38 8fbe
000003d0: 7914 7ebc 13f9 48bd 22f9 c7bd 908e 073e
000003e0: 9d5d 9b3c d355 29bb bfbb 83be 02b8 c83d
000003f0: 6d49 38bd 81d2 2dbd 9abd 40bd 1618 0b3d

network_body._body_endoder.seq_layers.0.bias f4 [256]
0.0021571976 0.01191596 0.01635289 0.0021518087 0.0048819496 -0.01912635 -0.01905548 0.0067344788
-0.008403384 0.013930953 0.020346252 -0.023917636 0.008996586 -0.014833021 -0.0177784 -0.0316136
0.039675843 -0.004807772 -0.0106538255 -0.0028645836 0.012333244 0.0026507608 -0.0045106774 0.017314348
-0.028232502 0.009580843 -0.001962118 -0.01668251 -0.0040644817 0.036393095 -0.0068749464 0.003236025
-0.008853883 -0.006135674 -0.010272616 0.013928957 0.02024313 0.01955683 4.8099217e-05 0.0037489573
0.0070255008 -0.007969875 0.0077882553 -0.027058842 -0.02542295 0.0040688994 0.006688568 0.0011276708
-0.00095368637 -0.0395075 -0.01709968 -0.01735527 -0.0062223533 0.008693333 -0.02929017 0.016130766
0.023663867 0.011998058 0.03029597 -0.018182294 -0.0030464274 0.006544776 0.015953247 0.01071796
0.016945597 0.015191078 0.008447973 0.014618215 0.030107262 -0.010648542 -0.00086142216 0.031773403
0.031805634 -0.0030718392 0.024476375 0.009417368 -0.0015584151 0.031137863 -0.0038013035 -0.005469168
-0.005171098 0.007352522 -0.020585446 -0.024551073 -0.005392793 0.00051006564 -0.011528597 -0.01840975
-0.0033485899 0.009130277 0.0018816422 -0.004033777 -0.0056805094 -0.00868044 0.012255895 0.008016161
0.0002816822 0.012064157 -0.005105706 0.0009259132 -0.001292865 -0.0037642329 0.0072620003 0.025204644
0.00992598 -0.015658954 0.017478738 -0.009653935 0.009103403 -0.011203038 -0.025594322 -0.016403742
-0.0067383046 0.021482512 0.023220835 -0.00038677122 -0.0005966711 0.0024447225 -0.0019604913 0.0015193797
-0.018000504 0.019490736 0.048307184 0.021563567 0.034314074 0.012688636 -0.0031898208 0.011572294
-0.026463196 0.0029769968 0.01019006 0.009602656 0.0027487765 -0.018246848 0.023210416 -0.034867324
-0.026175298 0.012344711 0.0056502987 -0.00073827384 0.030186784 0.038662896 0.009527322 0.0012413741
0.01497467 0.0123950755 0.011401409 -0.0019943423 -0.012182803 -0.0011416001 0.02427255 -0.005587033
0.012263292 0.015537349 0.027742669 0.01130621 0.0013905705 -0.0075688926 0.01233152 0.014027876
0.030938394 0.005734165 0.038954664 0.017355604 0.009064045 0.01381384 0.007935121 -0.008179996
-0.027414681 -0.0065500606 -0.0058082645 -0.011890955 -0.010380911 -0.01058745 -0.033000633 0.043389034
-0.005733902 0.0295967 -0.0053999065 0.003674193 0.0022611246 0.022036334 0.0042845393 -0.02392449
0.006887052 -0.010885779 0.008583138 0.0032596875 -0.0044651544 0.013071255 0.00819624 0.026473109
0.006035741 0.0068667773 0.0099643115 -0.010138454 -0.01635068 -0.013777309 0.003613997 -0.014655556
0.016968627 -0.02004927 0.0008845194 0.039109986 0.055495255 -0.0026082387 -0.02310263 -0.021215592
-0.02629843 0.002215278 -0.007331547 0.005025331 -0.012073848 0.0034585386 -0.0084907 0.007679167
-0.01474259 -0.014747002 -0.008032117 -0.0013712326 0.000568253 0.018694727 -0.0072708605 0.008204952
-0.010791515 0.007311574 0.0046802247 -0.021608433 0.002223039 0.008461434 0.0027751972 -0.012253154
0.011212875 0.005242311 -0.007752465 0.017382579 -0.01972742 0.008755542 0.021525133 -0.0009613212
0.0026359719 0.007327588 0.0021710666 -0.012253894 0.024534289 -0.020214653 0.013855575 -0.028134922
-0.0004001379 0.015435045 -0.014177906 0.029365703 0.009573325 0.008963491 0.0031982881 -0.010590034
00000000: c55f 0d3b 293b 433c 7ff6 853c 5c05 0d3b
00000010: c3f8 9f3b ddae 9cbc 3d1a 9cbc e7ac dc3b
00000020: 59ae 09bc a73e 643c 2fad a63c ebee c3bc
00000030: 6b66 133c 3306 73bc 02a4 91bc 437d 01bd
00000040: 2383 223d 848a 9dbb 628d 2ebc bdbb 3bbb
00000050: 6011 4a3c 63b8 2d3b 4ece 93bb d2d6 8d3c
00000060: d947 e7bc f8f8 1c3c e196 00bb c2a9 88bc
00000070: 582f 85bb ed10 153d 3b47 e1bb 7e13 543b
00000080: e00f 11bc c40d c9bb 794e 28bc 4836 643c
00000090: ecd4 a53c a535 a03c 24be 4938 11b1 753b
000000a0: 2c36 e63b 1494 02bc 9f34 ff3b 81aa ddbc
000000b0: ca43 d0bc 6754 853b c62b db3b 5ace 933a
000000c0: cf00 7aba 9ed2 21bd a114 8cbc a42c 8ebc
000000d0: e2e4 cbbb 7b6e 0e3c f0f1 efbc ab24 843c
000000e0: bada c13c 8193 443c 412f f83c 09f3 94bc
000000f0: 92a6 47bb 8f75 d63b 62b0 823c 629a 2f3c
00000100: 7ed1 8a3c 00e4 783c 5e69 0a3c 3d81 6f3c
00000110: 81a3 f63c 3977 2ebc 10d1 61ba d424 023d
00000120: a046 023d e950 49bb ae82 c83c 4e4b 1a3c
00000130: bc43 ccba d514 ff3c 4a1f 79bb b536 b3bb
00000140: 5072 a9bb 6ded f03b cfa2 a8bc 551f c9bc
00000150: 07b6 b0bb edb5 053a 71e2 3cbc 0bd0 96bc
00000160: 0474 5bbb 2897 153c 6fa1 f63a c62d 84bb
00000170: 9123 babb 6738 0ebc f3cc 483c 3756 033c
00000180: bfae 9339 bea8 453c c44d a7bb fcb8 723a
00000190: 5a75 a9ba 59b1 76bb 13f6 ed3b f879 ce3c
000001a0: 94a0 223c 3547 80bc 922f 8f3c 8a2b 1ebc
000001b0: 7126 153c f28c 37bc 2fab d1bc 2461 86bc
000001c0: ffcc dcbb 18fc af3c 9f39 be3c 8ec7 cab9
000001d0: eb69 1cba a337 203b 967b 00bb ec25 c73a
000001e0: cb75 93bc 09ab 9f3c c1dd 453d 14a6 b03c
000001f0: ea8c 0c3d ffe3 4f3c 500c 51bb b899 3d3c
00000200: 58c9 d8bc b819 433b 36f4 263c 7554 1d3c
00000210: d124 343b 6a7a 95bc c523 be3c 0ad1 0ebd
00000220: 946d d6bc 7941 4a3c 2426 b93b b888 41ba
00000230: 464a f73c fc5c 1e3d 7c18 1c3c 9ab5 a23a
00000240: 5158 753c b714 4b3c facc 3a3c 83b3 02bb
00000250: 619a 47bc bea1 95ba 3ad7 c63c 6e13 b7bb
00000260: faeb 483c 5d90 7e3c 9844 e33c af3d 393c
00000270: ce43 b63a 7904 f8bb 250a 4a3c 2dd5 653c
00000280: 8472 fd3c aae5 bb3b ed8e 1f3d 572d 8e3c
00000290: 5c81 143c 7253 623c 4f02 023c 6405 06bc
000002a0: c194 e0bc e4a1 d6bb 4153 bebb 48d2 42bc
000002b0: b214 2abc fc76 2dbc ac2b 07bd b3b8 313d
000002c0: 75e3 bbbb c774 f23c b3f1 b0bb bbca 703b
000002d0: 602f 143b 8b85 b43c 5265 8c3b 4bfd c3bc
000002e0: c8ac e13b 445a 32bc 4aa0 0c3c 7ba0 553b
000002f0: 6e50 92bb d128 563c 8649 063c 22de d83c
00000300: 77c7 c53b b402 e13b 5a41 233c c21b 26bc
00000310: dcf1 85bc 39ba 61bc cfd8 6c3b db1d 70bc
00000320: ca01 8b3c 5e3e a4bc 18df 673a cb31 203d
00000330: fe4e 633d fcee 2abb ba41 bdbc 52cc adbc
00000340: ce6f d7bc 332e 113b 793d f0bb 88ab a43b
00000350: 64d1 45bc a6a8 623b 941c 0bbc 86a1 fb3b
00000360: e78a 71bc 699d 71bc 2499 03bc eeba b3ba
00000370: d0f6 143a af25 993c 6640 eebb 106e 063c
00000380: e5ce 30bc ee95 ef3b 925c 993b 2b04 b1bc
00000390: 68b0 113b d4a1 0a3c 15e0 353b 74c1 48bc
000003a0: 35b6 373c b1c7 ab3b 6408 febb e965 8e3c
000003b0: 669b a1bc 6873 0f3c 7a55 b03c 2c01 7cba
000003c0: 45c0 2c3b 431c f03b 7448 0e3b 8ec4 48bc
000003d0: 22fc c83c 3399 a5bc 7e02 633c 357b e6bc
000003e0: 9ac9 d1b9 45e3 7c3c 734a 68bc 5890 f03c
000003f0: 6fd9 1c3c 9bdb 123c 5f9a 513b d281 2dbc

network_body._body_endoder.seq_layers.2.weight f4 [256, 256]
0.03007936 0.11662978 -0.06044297 0.035501223 -0.137021 -0.044745464 -0.07435975 0.05055816
-0.043508317 -0.008145005 0.12804386 0.04402321 0.06933779 0.019747544 -0.021436136 0.043139447
0.0064213737 -0.009343715 0.03358698 -0.058171246 0.05016061 -0.012852412 0.06796106 -0.04975822
-0.085693575 -0.04593235 0.023563866 -0.07037176 -0.114393175 -0.028279888 0.048943505 0.10597293
0.10709074 0.062310096 0.00881503 0.030166524 0.017153138 0.052231293 0.042607825 0.14064239
-0.033657294 -0.028184354 0.098035164 -0.09356146 -0.006003955 -0.1397834 0.03969835 -0.024645604
0.002053259 -0.011387473 0.024736116 -0.011514329 -0.07089174 0.04730936 0.059670612 -0.057990532
-0.012643529 0.06969616 0.019075925 0.14633688 0.08180159 -0.0092758415 -0.014111086 -0.06318203
-0.03711924 -0.10831308 -0.11602492 0.11617338 0.07515342 0.054276653 -0.06107069 -0.012323833
-0.112884104 0.067023404 0.02260534 -0.14206415 0.073266104 -0.03996813 0.0011608329 -0.1357576
0.10158276 0.0051429644 0.02617984 0.0007593953 0.008373237 -0.055474974 -0.030760475 0.09688638
-0.11087125 -0.0077203596 -0.028982092 0.10440463 -0.1125651 0.11315017 -0.030005975 -0.00836914
0.050670568 -0.07301665 0.015022996 -0.025505649 0.064471245 0.1247313 0.004383954 -0.0063739624
-0.0710641 -0.01565511 0.05792155 0.034329824 -0.0148900915 -0.07796678 -0.078854084 0.02415319
-0.026139418 0.03469661 0.09842734 -0.038493946 -0.051083364 0.027125714 -0.051757324 -0.019331127
0.0100359125 -0.08595045 0.03835197 0.10057002 0.01484402 0.031179633 0.041835517 0.041434187
0.06969564 0.03441204 0.017690243 0.10608807 -0.046358153 -0.032590367 -0.030118685 -0.011226546
-0.089586705 -0.1567224 -0.043941457 -0.014681912 0.019146647 0.1280702 0.032973465 0.049052235
0.080795385 -0.025588254 -0.0075137615 -0.06733281 0.044187367 0.018496413 -0.033746637 0.060017925
-0.04573687 0.019731443 -0.014907198 0.04160376 0.00941195 -0.054915708 -0.102953754 -0.01846617
-0.00780512 -0.10232595 -0.031118803 -0.03862402 -0.023613842 -0.11470741 -0.12808166 -0.03221522
-0.040253874 0.010124663 -0.09766107 -0.00310152 0.009662252 -0.059461713 0.018769847 0.039201856
-0.013912453 -0.046024058 0.03104313 0.056679778 -0.04453262 0.10152522 0.061890617 -0.09678831
-0.059682257 -0.027888251 0.013759351 0.10247424 0.02173288 -0.036663875 0.02315378 -0.122407965
-0.13294624 -0.07030734 0.0188056 -0.023242 -0.112532265 0.11302045 0.08171563 0.01444399
0.09405806 -0.012538972 -0.031168364 -0.013841806 0.11603136 0.09707486 -0.019608546 0.18512201
0.0449571 -0.051512286 0.053455424 -0.01422287 -0.04247141 -0.022450346 -0.08290214 -0.0055891797
-0.047406822 0.023371477 0.04698543 0.008599775 0.04499592 0.01632318 -0.069768496 -0.017746119
-0.026661089 0.08509343 -0.038044848 -0.011337442 0.008363593 0.01240656 -0.007051562 0.040655337
-0.029977113 0.016869128 0.018207064 -0.062511764 -0.037735444 0.055567976 0.009327933 0.025620187
-0.047832876 -0.033228047 0.06209779 -0.05067675 0.17987633 0.013688121 0.03545891 -0.046922337
0.0003857027 -0.030581007 0.03375263 0.042338874 0.0035494624 -0.07267586 -0.043368254 -0.00032508667
00000000: fd68 f63c 98db ee3d 0c93 77bd bb69 113d
00000010: 3c4f 0cbe 0547 37bd ed49 98bd 1316 4f3d
00000020: c735 32bd a172 05bc ee1d 033e ae51 343d
00000030: f900 8e3d 9ac5 a13c d69a afbc fdb2 303d
00000040: 636a d23b 6216 19bc 8092 093d f944 6ebd
00000050: 3675 4d3d ec92 52bc 2b2f 8b3d 46cf 4bbd
00000060: 1d80 afbd 8f23 3cbd 0209 c13c 121f 90bd
00000070: f846 eabd 39ab e7bc fc78 483d 5608 d93d
00000080: 6452 db3d df38 7f3d ea6c 103c c91f f73c
00000090: bd84 8c3c 7bf0 553d 8b85 2e3d 8f04 103e
000000a0: 3bdc 09bd e0e2 e6bc a9c6 c83d 279d bfbd
000000b0: d3bc c4bb 6123 0fbe bd9a 223d 94e5 c9bc
000000c0: f88f 063b 8692 3abc 65a3 ca3c 99a6 3cbc
000000d0: b02f 91bd 76c7 413d 2c69 743d 7b87 6dbd
000000e0: ce26 4fbc dcbc 8e3d 1d45 9c3c 56d9 153e
000000f0: 9887 a73d b3f9 17bc 2f32 67bc 9565 81bd
00000100: 580a 18bd 40d3 ddbd 799e edbd 4fec ed3d
00000110: 09ea 993d 3251 5e3d 4325 7abd e7e9 49bc
00000120: c82f e7bd 9143 893d d62e b93c 4479 11be
00000130: 8a0c 963d 9fb5 23bd 1727 983a 0a04 0bbe
00000140: 9f0a d03d 5086 a83b 1b77 d63c 2812 473a
00000150: e72f 093c ba39 63bd 64fd fbbc 5e6c c63d
00000160: 7710 e3bd 12fb fcbb da6b edbc 18d2 d53d
00000170: 8888 e6bd 47bb e73d 17cf f5bc b81e 09bc
00000180: f18b 4f3d c189 95bd 0323 763c 39f1 d0bc
00000190: 8009 843d 2073 ff3d 46a7 8f3b acdc d0bb
000001a0: 0e8a 91bd 253f 80bc 263f 6d3d 6e9d 0c3d
000001b0: 92f5 73bc 0cad 9fbd 407e a1bd e9dc c53c
000001c0: 5522 d6bc 081e 0e3d 4694 c93d d4ab 1dbd
000001d0: ca3c 51bd bf36 de3c 7dff 53bd 505c 9ebc
000001e0: ab6d 243c ca06 b0bd f516 1d3d a8f7 cd3d
000001f0: 5534 733c 6e6c ff3c b85b 2b3d e5b6 293d
00000200: 96bc 8e3d a4f3 0c3d 21eb 903c b444 d93d
00000210: 0ce2 3dbd 7a7d 05bd 76bb f6bc 8cef 37bc
00000220: 3c79 b7bd d67b 20be f5fb 33bd 678c 70bc
00000230: 6ed9 9c3c d624 033e 2f0f 073d ffea 483d
00000240: 0d78 a53d 759e d1bc 0036 f6bb c9e5 89bd
00000250: d0fd 343d ca85 973c ea39 0abd 5bd5 753d
00000260: 9656 3bbd d6a3 a13c 523d 74bc b468 2a3d
00000270: 9434 1a3c 4bef 60bd 6bd9 d2bd 5e46 97bc
00000280: 18c2 ffbb 4590 d1bd dcec febc 3834 1ebd
00000290: d171 c1bc b8eb eabd d727 03be 1bf4 03bd
000002a0: 3fe1 24bd eae1 253c 8702 c8bd df42 4bbb
000002b0: 6c4e 1e3c 208e 73bd 39c3 993c 2092 203d
000002c0: 0ff1 63bc b983 3cbd 2a4e fe3c 0e29 683d
000002d0: d667 36bd 74ec cf3d 0481 7d3d f338 c6bd
000002e0: 6275 74bd e775 e4bc e76e 613c 04de d13d
000002f0: 2709 b23c dc2c 16bd ffac bd3c 07b1 fabd
00000300: 0f23 08be 4bfd 8fbd 340e 9a3c 0266 bebc
00000310: 5177 e6bd 4477 e73d 865a a73d 7ca6 6c3c
00000320: 83a1 c03d 4370 4dbc cc54 ffbc bec8 62bc
00000330: daa1 ed3d 2fcf c63d 1aa2 a0bc a090 3d3e
00000340: f024 383d 8cfe 52bd 13f4 5a3d 0a07 69bc
00000350: 80f6 2dbd cae9 b7bc 99c8 a9bd 7025 b7bb
00000360: a82d 42bd 8a75 bf3c cb73 403d 12e6 0c3c
00000370: a44d 383d 31b8 853c c9e2 8ebd 4f60 91bc
00000380: 5b68 dabc 7745 ae3d ead4 1bbd aec0 39bc
00000390: 7407 093c e244 4b3c ca10 e7bb 3686 263d
000003a0: 9092 f5bc 2031 8a3c fb26 953c 2b06 80bd
000003b0: 7b90 1abd 3f9b 633d 30d4 183c 6de1 d13c
000003c0: 68ec 43bd 221a 08bd 415a 7e3d 6c92 4fbd
000003d0: 8031 383e 2444 603c 5d3d 113d a331 40bd
000003e0: 2438 ca39 0585 fabc 3340 0a3d 876b 2d3d
000003f0: 199e 683b 15d7 94bd e9a2 31bd 6570 aab9

network_body._body_endoder.seq_layers.2.bias f4 [256]
0.0076716514 0.00013427724 0.0031715063 -0.0025962228 -0.0038456004 -0.008486699 0.0042156004 0.016593786
0.0031516724 0.029861972 -0.003758443 -0.0006329569 0.014838938 -0.009306291 -0.01496494 0.023897424
0.0044456124 0.0003048516 -0.0025623676 -0.0082023265 8.839781e-05 0.015777558 -0.0050074444 0.0065392912
0.0026386995 0.01317943 0.0016174841 -0.00053337455 0.010602027 -0.0014415991 0.02954557 0.0014153449
-0.005223952 0.025504315 -0.0009018838 0.008248845 0.00082351797 0.0020348243 0.00053765124 0.02367763
0.013874493 0.0032124938 -0.009548922 0.019175954 0.014503722 0.005954506 -0.0077014333 -0.009318783
0.018275542 -0.0055080624 -5.7106513e-06 0.003926625 0.0021377897 0.016345266 0.015110025 -0.008364399
0.022910036 0.013250304 -0.009975729 0.009882128 0.006150059 0.009602787 0.003435599 0.0051069646
0.007556456 -0.003951022 0.0093061095 -0.0065574627 -0.0059494954 -0.0038841793 0.027820334 -0.0015812977
0.0028839328 0.0015762163 0.008114728 -0.0026478993 0.03270191 0.027803171 0.009521121 -0.008579073
0.007488219 0.008028395 -0.009567759 -0.0011045238 -0.0051697195 0.0021955844 0.004266659 -0.00033642142
0.029237526 0.0031452472 -0.000314785 -0.0039905612 0.041255556 0.02199429 -0.0028367236 0.028524281
-0.0034886939 0.0139930975 0.009747406 -0.0064075673 -0.012031864 0.0022433663 0.0050376016 -8.604508e-05
0.005032394 0.016532691 0.013327619 -0.0064568412 0.0063190903 0.009785783 -0.0047331876 0.013596498
-0.0078050112 0.00057723833 -0.013008338 0.015952254 0.0010732092 -0.0012126464 0.0007818103 -0.0057854266
0.024736827 0.0012644767 0.007932325 0.0023680963 0.0008281686 -0.009422607 -0.00792779 0.021003682
-0.0048717773 0.0048522954 0.00816102 -0.008962113 0.009816695 -0.0004980786 -4.0512023e-05 -0.0031726363
-0.0067377477 -0.003543121 -0.016022433 0.012713113 0.0054368256 0.0026311488 0.022273446 0.01615307
0.018686844 0.011206828 0.021396624 0.0015046512 0.011147669 0.00617968 0.017331474 -0.019728124
0.003758795 0.0014835501 0.016530098 0.00084578374 0.02553429 -0.0019335212 0.0046532424 0.017161252
0.022249268 0.0006812536 0.00038933614 0.0010914297 0.013099544 0.0054521225 -0.00900834 -0.012786283
-0.011238205 -0.010415978 0.015146622 0.010027645 0.013641702 0.003837606 0.01201168 -0.002462259
0.014117861 -0.0014427796 0.0136016365 -0.012036526 0.017430354 -0.006199916 0.020267423 -0.006403555
0.007508284 -0.009404169 0.021237241 0.01009474 0.0055803526 0.0049588927 -0.0030489543 0.0028189244
-0.0056689004 0.009346451 0.013989677 0.0045534177 -0.006868551 0.0085315155 -0.002819968 0.00700004
-0.004944293 -0.0066038272 -0.0050574197 0.0155072315 0.004683654 0.01010594 -0.0029014726 0.006359951
-0.004844206 -0.005189722 -0.006262917 0.013959087 0.005865621 -0.004729701 0.0396564 0.004936503
0.0030625907 -0.0028010514 -0.0069070165 0.0061327913 0.003594085 0.0017631316 0.007350576 0.0004210244
-0.0038819748 -0.0007493023 -0.017114108 0.00055038976 -0.0030440697 0.0013016094 -0.012925612 -0.010850433
0.007733116 0.020140344 0.0018816108 -0.0054037934 0.0063024946 -0.0009130054 0.0011439682 0.011171506
0.009848954 0.002118207 -0.001842744 0.002254589 -0.007061911 0.00038801343 0.009996892 -0.0028768615
0.0027497383 0.010190083 0.00057990686 0.0020933857 -0.004625395 -0.0065418105 0.006437506 0.023290168
00000000: 7a62 fb3b c6cc 0c39 0cd9 4f3b 6425 2abb
00000010: 7806 7cbb cc0b 0bbc 0523 8a3b b1ef 873c
00000020: 4a8c 4e3b 18a1 f43c 3650 76bb 05ed 25ba
00000030: 041f 733c 6a79 18bc 822f 75bc 88c4 c33c
00000040: 80ac 913b 7dd4 9f39 65ed 27bb 0d63 06bc
00000050: 3662 b938 f03f 813c 7d15 a4bb 8d47 d63b
00000060: 08ee 2c3b 89ee 573c c301 d43a 29d2 0bba
00000070: 20b4 2d3c 0af4 bcba 8d09 f23c 1883 b93a
00000080: af2d abbb 6dee d03c 666c 6cba 2a26 073c
00000090: 5be1 573a b05a 053b 2af1 0c3a 97f7 c13c
000000a0: d751 633c b488 523b 1573 1cbc e416 9d3c
000000b0: 05a1 6d3c 041e c33b 4e5c fcbb cfad 18bc
000000c0: 97b6 953c fa7c b4bb 1f9e bfb6 ebaa 803b
000000d0: 291a 0c3b 82e6 853c 0a90 773c d50a 09bc
000000e0: d4ad bb3c ce17 593c 3d71 23bc a6e8 213c
000000f0: 6f86 c93b 0255 1d3c c927 613b 5358 a73b
00000100: 269c f73b 9377 81bb a778 183c fcdf d6bb
00000110: fcf3 c2bb b78d 7ebb 78e7 e33c 8c43 cfba
00000120: 5d00 3d3b 0b99 ce3a a3f3 043c 6188 2dbb
00000130: 70f2 053d 7ac3 e33c 7afe 1b3c 3d8f 0cbc
00000140: bc5f f53b 8789 033c 17c2 1cbc abc5 90ba
00000150: c066 a9bb cbe3 0f3b 54cf 8b3b b861 b0b9
00000160: 8983 ef3c 7e20 4e3b ba09 a5b9 41c3 82bb
00000170: 96fb 283d 5f2d b43c 53e8 39bb c1ab e93c
00000180: 92a2 64bb 4e43 653c 95b3 1f3c 92f6 d1bb
00000190: 4c21 45bc 7105 133b 7712 a53b 1a73 b4b8
000001a0: c8e6 a43b 916f 873c 165c 5a3c e993 d3bb
000001b0: 5f10 cf3b 8c54 203c db18 9bbb d9c3 5e3c
000001c0: 2ec1 ffbb cf51 173a ed20 55bc 4dae 823c
000001d0: edaa 8c3a a9f1 9eba 67f2 4c3a ad93 bdbb
000001e0: e3a4 ca3c ccbc a53a 95f6 013c 1032 1b3b
000001f0: 7419 593a 4761 1abc 90e3 01bc ea0f ac3c
00000200: 6ea3 9fbb 0100 9f3b cdb5 053c d4d5 12bc
00000210: 34d6 203c 7d91 02ba 74eb 29b8 01ec 4fbb
00000220: 53c8 dcbb b533 68bb 7a41 83bc a94a 503c
00000230: 6627 b23b 5a6f 2c3b cd76 b63c 7153 843c
00000240: 2715 993c d89c 373c f947 af3c b737 c53a
00000250: b6a4 363c ea7e ca3b bcfa 8d3c e09c a1bc
00000260: 1e56 763b ae73 c23a 216a 873c 96b7 5d3a
00000270: 4a2d d13c 356e fdba 3a7a 983b c195 8c3c
00000280: 1944 b63c 2896 323a d01f cc39 4e0e 8f3a
00000290: 789f 563c b8a7 b23b b797 13bc 8f7d 51bc
000002a0: 7320 38bc c7a7 2abc 8a29 783c fe4a 243c
000002b0: 7281 5f3c 5880 7b3b a3cc 443c da5d 21bb
000002c0: 9a4e 673c a61b bdba 66d9 5e3c d934 45bc
000002d0: 1aca 8e3c aa28 cbbb de07 a63c ead4 d1bb
000002e0: 0d08 f63b f213 1abc b9f9 ad3c 6964 253c
000002f0: 64db b63b 357e a23b f7d0 47bb b4bd 383b
00000300: 2fc2 b9bb db21 193c f534 653c d634 953b
00000310: 9511 e1bb c5c7 0b3c 36cf 38bb 9760 e53b
00000320: bc03 a2bb eb64 d8bb b6b8 a5bb 0b12 7e3c
00000330: 5679 993b 6293 253c a226 3ebb 2367 d03b
00000340: 25bc 9ebb 8b0e aabb 2839 cdbb a8b4 643c
00000350: 6534 c03b 9cfb 9abb c06e 223d 63c2 a13b
00000360: bfb5 483b d891 37bb 4154 e2bb 95f5 c83b
00000370: be8a 6b3b e118 e73a 1add f03b f0bc dc39
00000380: bb68 7ebb d36c 44ba e332 8cbc 0848 103a
00000390: 047f 47bb c49a aa3a f2c5 53bc 04c6 31bc
000003a0: 1466 fd3b 5dfd a43c 62a0 f63a 4e12 b1bb
000003b0: 2885 ce3b c156 6fba 34f1 953a b108 373c
000003c0: 825d 213c 9ed1 0a3b 3a88 f1ba bac1 133b
000003d0: 9a67 e7bb 486e cb39 01ca 233c ba89 3cbb
000003e0: f434 343b 4ef4 263c e404 183a 2f31 093b
000003f0: a090 97bb af5c d6bb b7f1 d23b 06cb be3c

action_model._discrete_distribution.branches.0.weight f4 [2, 256]
0.00066379947 -0.022101237 -0.013914216 0.00036208483 -0.0030348941 -0.005925549 -0.021984508 -0.013600686
0.005635941 0.022948109 0.005133553 -0.007575124 -0.0004850923 -0.008141702 -0.029203935 -0.03943075
-0.0084752785 0.007732457 -0.031143298 -0.023003789 0.0031307484 -0.032919057 -0.01846454 -0.0013596562
-0.0005080297 0.024507938 0.004618979 -0.0035586471 -0.006459034 -0.0063175363 0.01760687 0.010508333
-0.017938375 0.036215346 0.00480335 0.0086726695 -0.013928113 -0.013849244 -0.01989883 0.034770038
0.009764911 -0.021460583 -0.020582207 0.0274242 0.035616856 0.027865103 -0.004308184 -0.024339922
-0.008417504 0.00015133302 -0.023275834 -0.01409492 -0.019238729 0.037577257 0.0192027 -0.007844565
0.018140497 -0.0028278467 -0.020044079 -0.028560076 0.0057251086 0.021248357 -0.011690632 0.018286122
-0.011442035 -0.0018525069 0.018194636 -0.0001522983 -0.011271832 -0.012688195 0.024217656 0.024561265
0.006839878 0.016662186 0.010850418 -0.020668559 0.045627862 0.012288007 0.03365242 -0.017536014
0.011159253 -0.03247701 -0.0006901521 -0.009922508 -0.0040948098 -0.0140713025 -0.015447813 0.004870617
0.0206795 -0.007016775 0.015472667 0.0116867395 0.01809355 0.03294601 -0.0010371325 -0.019171258
-0.010464624 0.007998521 -0.012379075 -0.0034560075 -0.012976531 0.009429604 0.01331236 -0.010901341
-0.036817558 0.011463999 -0.010636504 -0.003471284 -0.015188426 0.011826022 -0.018258423 0.0094913645
0.006231707 0.0060381815 -0.006404203 -0.01123116 -0.003726969 0.0064814296 0.007360622 -0.0071364283
0.02647656 -0.008401303 0.0023084935 -0.0050103613 0.00025267407 0.00931922 -0.028692378 0.035542678
0.00083582796 -0.02758207 0.011613595 0.0017938014 0.00814847 -0.003409617 -0.0041378518 -0.009592354
-0.007090283 -0.010772674 -0.017161658 0.027275138 0.006313224 0.0008868778 0.020675197 -0.0029218697
0.027615847 0.019348675 0.015416802 0.0054727024 0.024003616 0.009198308 0.02307105 -0.0040287594
-0.015190697 -0.0036463263 -0.00046059687 -0.03610001 0.016270228 -0.0018229326 0.010219445 0.00057052105
0.024682874 0.0048142243 0.007962429 -0.030948106 0.011315944 -0.0019606587 0.0017820107 0.007185366
-0.012073807 -0.023395225 2.5666084e-05 -0.014149391 0.010580481 -0.01935426 -0.039916635 -0.012204268
-0.0042018397 -0.0039778044 -0.026884759 0.00908786 0.009330206 -0.0029957758 0.011197907 -0.001535757
-0.017251886 -0.011670848 0.007024644 -0.017644081 -0.006927899 -0.020773062 0.0054526487 0.0092188185
-0.00711505 0.015949143 0.0022335046 -0.01812331 -0.0010719274 -0.0133933 -0.010240378 -0.0008147971
0.00032669542 -0.020616246 -0.005160599 0.011703925 -0.040254395 0.0055356785 -0.006808396 -0.041376356
0.00892385 -0.00897945 -0.015065929 -0.03833732 0.002688734 -0.025675269 0.031363275 -0.011173208
-0.019834872 -0.011245119 -0.0026864714 -0.011343743 -0.0046392456 -0.015536739 -0.0082059335 0.0017642546
-0.003093517 -0.015451472 -0.003851567 -0.005483595 0.012463474 0.0012957152 -0.0032424484 -0.015959071
0.005198638 0.032648824 -0.020950586 0.0031184151 -0.016330095 -0.008581184 -0.028872084 0.0054657473
-0.043482706 -0.013072176 0.0034337407 -0.0061612427 -0.00043641462 0.008820097 -0.018436559 -0.0049541574
-0.010289824 0.005745664 -0.011249008 -0.0060541746 0.010226117 -0.007818379 -0.01935576 0.03060743
00000000: d402 2e3a a70d b5bc 74f8 63bc 34d6 bd39
00000010: 13e5 46bb 1c2b c2bb db18 b4bc 69d5 5ebc
00000020: b3ad b83b acfd bb3c 5d37 a83b bf38 f8bb
00000030: fd53 feb9 c664 05bc 173d efbc 2382 21bd
00000040: e5db 0abc 8d60 fd3b 3b20 ffbc 7172 bcbc
00000050: 3e2d 4d3b 22d6 06bd f242 97bc 7e36 b2ba
00000060: 4c2d 05ba dfc4 c83c ce5a 973b 3138 69bb
00000070: 4ea6 d3bb 5603 cfbb 483c 903c 252b 2c3c
00000080: 80f3 92bc 8b56 143d 6c65 9d3b d017 0e3c
00000090: bd32 64bc f1e7 62bc df02 a3bc 076b 0e3d
000000a0: 01fd 1f3c 1bce afbc 049c a8bc b7a8 e03c
000000b0: fbe2 113d 5b45 e43c ab2b 8dbb 8464 c7bc
000000c0: 92e9 09bc 26af 1e39 f6ac bebc 61ee 66bc
000000d0: 8a9a 9dbc 9cea 193d fb4e 9d3c 7e86 00bc
000000e0: 619b 943c 6553 39bb 7b33 a4bc d2f6 e9bc
000000f0: b199 bb3b 0911 ae3c 118a 3fbc c7cc 953c
00000100: 6077 3bbc d1cf f2ba eb0c 953c 43b2 1fb9
00000110: 7dad 38bc 26e2 4fbc 1b64 c63c b534 c93c
00000120: 0e21 e03b 237f 883c f4c5 313c 1c51 a9bc
00000130: 48e4 3a3d a353 493c 1fd7 093d b0a7 8fbc
00000140: 4dd5 363c 9d06 05bd 53eb 34ba 0492 22bc
00000150: c12d 86bb 528b 66bc d318 7dbc b299 9f3b
00000160: 0e68 a93c faec e5bb 1281 7d3c bd79 3f3c
00000170: ed38 943c 65f2 063d 64f0 87ba 0b0d 9dbc
00000180: d073 2bbc 3b0c 033c 9bd1 4abc 2f7e 62bb
00000190: 849b 54bc a07e 1a3c 161c 5a3c 8a9b 32bc
000001a0: 02ce 16bd 7fd3 3b3c bb44 2ebc 7b7e 63bb
000001b0: e0d8 78bc eec1 413c b092 95bc ab81 1b3c
000001c0: 5933 cc3b f0db c53b 59da d1bb e602 38bc
000001d0: 2a40 74bb 2c62 d43b 5f31 f13b b3d8 e9bb
000001e0: 5fe5 d83c 9ea5 09bc 184a 173b f52d a4bb
000001f0: 5779 8439 a4af 183c 470c ebbc 3395 113d
00000200: 771b 5b3a cbf3 e1bc f346 3e3c fd1d eb3a
00000210: 2981 053c e273 5fbb d196 87bb 4029 1dbc
00000220: 9b55 e8bb df7f 30bc 9b96 8cbc 1c70 df3c
00000230: 29df ce3b 5d7d 683a 085f a93c d77c 3fbb
00000240: a13a e23c 1d81 9e3c c196 7c3c 5b54 b33b
00000250: 3ba3 c43c 80b4 163c 80ff bc3c af03 84bb
00000260: 67e2 78bc 34f7 6ebb 447c f1b9 9bdd 13bd
00000270: 2449 853c 78ef eeba 766f 273c 058f 153a
00000280: bd33 ca3c a4c0 9d3b d974 023c e286 fdbc
00000290: 8266 393c 657e 00bb 5b92 e93a 3873 eb3b
000002a0: 38d1 45bc 58a7 bfbc 7f4d d737 d9d2 67bc
000002b0: c159 2d3c d38c 9ebc a07f 23bd 69f4 47bc
000002c0: 96af 89bb 3e58 82bb 6d3d dcbc 3fe5 143c
000002d0: b8dd 183c c754 44bb 6d77 373c 744b c9ba
000002e0: d453 8dbc 1637 3fbc fc2e e63b 528a 90bc
000002f0: 6e03 e3bb 452c aabc 22ac b23b 870a 173c
00000300: 5e25 e9bb c7a7 823c fd5f 123b 5677 94bc
00000310: ea7f 8cba 926f 5bbc 42c7 27bc 1c98 55ba
00000320: 5148 ab39 67e3 a8bc 3e1a a9bb d2c1 3f3c
00000330: cbe1 24bd a364 b53b f718 dfbb 417a 29bd
00000340: 5735 123c 8b1e 13bc 16d7 76bc 9807 1dbd
00000350: 7935 303b f154 d2bc c776 003d d50f 37bc
00000360: be7c a2bc 733d 38bc 830f 30bb 1bdb 39bc
00000370: d004 98bb ce8d 7ebc 2e72 06bc 903e e73a
00000380: 9abc 4abb 2c28 7dbc 926a 7cbb bbaf b3bb
00000390: 9933 4c3c fdd4 a93a 427f 54bb 99bc 82bc
000003a0: 5659 aa3b c6ba 053d 90a0 abbc 535e 4c3b
000003b0: b1c6 85bc 1898 0cbc 2685 ecbc 031a b33b
000003c0: ec1a 32bd ae2c 56bc 9c08 613b 40e4 c9bb
000003d0: 94ce e4b9 2b82 103c 4408 97bc 7c56 a2bb
000003e0: a696 28bc 1f46 bc3b c24d 38bc 1962 c6bb
000003f0: 728b 273c a918 00bc f98f 9ebc 6fbc fa3c

action_model._discrete_distribution.branches.0.bias f4 [2]
0.0089062005 -0.008906197
00000000: 50eb 113c 4ceb 11bc

action_model._discrete_distribution.branches.1.weight f4 [3, 256]
0.011991192 0.004882426 0.011977187 0.003676447 -0.0008015023 0.007458368 -0.0015082819 0.0010061151
-0.0011907165 -0.011463736 0.0010613009 -0.008032047 0.0073202816 -0.0026196796 0.012015983 -0.0013570442
0.0036957017 -0.0034106039 0.013279685 0.010732384 0.013365196 0.012780233 -0.0013113922 -0.0031655687
-0.002961469 0.0074467696 -0.012035406 0.012048402 0.0014503797 0.00044891567 -0.01298169 0.002275831
0.013125047 -0.010067847 0.0058768583 -0.0063345223 0.0053149927 0.012035229 -0.019990943 -0.007224764
0.0015989279 -0.00048794434 0.007481692 -0.0030153682 -0.0049673575 0.003822418 0.0023641477 0.008126462
0.01133364 -0.004061059 0.012401024 -0.003245433 0.0024548883 0.0050191064 -0.0033775805 0.0024452405
-0.015943851 0.01617252 -0.008138183 0.008840609 0.01284521 0.0077245333 0.00051226275 0.0036787356
-0.0015531456 0.0061186943 -0.0022087428 -0.0071968995 0.0069281515 0.0033427281 0.010653305 -0.0068891505
-0.0056981584 -0.0030969682 -0.010070177 0.00092008105 -0.012052826 -0.006669764 0.012429621 0.004402582
0.00091079733 0.0011224208 0.0016977673 -0.012285911 0.00031168075 0.0009808505 0.014321396 0.005445968
-0.018341826 -0.0056451107 -0.0011628262 -0.0065299096 -0.02409354 -0.021748707 0.0037641642 -0.00055199605
0.009749444 0.0038712984 0.0023209907 -0.0039449036 0.004628099 0.0042236946 -0.01193704 -0.0070106927
0.016376015 0.004983143 0.0068554925 -0.003905733 -0.0032558457 -0.0052582277 0.0127734905 -0.018580163
-0.0016264353 -0.0006184929 -0.0057881195 -0.013997035 -0.0019449218 0.005208213 0.0001911606 0.0026331758
-0.014780616 -0.0006933197 -0.009911327 0.004073749 -0.007889759 -0.0007883143 0.0024916304 0.0014473121
0.008581225 -0.010275206 0.00021233015 0.011153128 0.008520198 0.0016079792 -0.008044536 -0.006082948
0.010786945 -0.00887497 0.011937951 -0.001267137 -0.0051906086 0.0066837654 -0.0031297677 -0.0076073892
-0.0012344625 -0.0026725002 0.0025448708 -0.0032912747 -0.0021760426 -0.017976413 -0.011083288 -0.0050903657
0.008205317 0.0012407445 0.0049223974 0.0046717688 -0.007648075 -0.00012639732 0.00049493666 -0.0026663719
-0.013517037 -0.012766134 0.00057701353 0.0009919587 -0.0005606399 0.0009494737 -0.0012212915 -0.0010383305
0.00918964 0.013813843 -0.004357862 0.004009066 -0.002924953 -0.022565674 -0.0017554911 0.0034393752
0.007933035 0.0013680162 0.00077004544 0.012967454 -0.004200602 -0.010344092 -0.0056937183 0.0022521624
-0.00068626524 -0.0024468752 0.0019374794 0.014073351 0.0012431749 0.0058917818 0.0052903914 0.00011472095
-0.0041842083 0.0002638217 -0.009812198 -0.0005359679 -0.01399346 -0.005489836 -0.009020964 0.00694376
0.0017182345 0.017982395 0.016029356 -0.0052312845 -0.001981322 -0.0019729321 0.0034016175 0.016102163
-0.00078375806 0.009140608 0.011801812 0.007459904 -0.01260538 0.020159101 -0.016874665 0.006711597
6.185862e-05 0.0006067696 0.0028863705 -0.0072005736 -0.006077778 0.01122306 0.01892609 0.010317927
0.00222384 0.003630517 -0.0010088807 -0.004936716 0.01969794 0.00839196 0.0046401345 0.005905259
-0.010945231 -0.008495584 0.018108753 0.0030182498 0.00021204626 -0.004997614 0.000107367094 -0.01233812
-0.00047564428 -0.00031025356 0.0021880914 -0.017485764 0.0028724817 0.01044651 -0.012517637 -0.002470738
0.0015536869 -0.022432353 -0.0059799408 -0.004945206 -0.006260754 -0.0022763542 0.006110872 -0.020126835
00000000: b476 443c c2fc 9f3b f73b 443c 8cf0 703b
00000010: e91b 52ba 5365 f43b 8bb1 c5ba 9fdf 833a
00000020: d111 9cba 65d2 3bbc 591b 8b3a d998 03bc
00000030: f9de ef3b eeae 2bbb b0de 443c d9de b1ba
00000040: 9633 723b 7084 5fbb 0993 593c e2d6 2f3c
00000050: b2f9 5a3c 2f64 513c 05e3 abba 6e75 4fbb
00000060: 3515 42bb 0804 f43b 2730 45bc a966 453c
00000070: ab1a be3a 715c eb39 27b1 54bc 1c26 153b
00000080: 700a 573c 9cf3 24bc a992 c03b d391 cfbb
00000090: 6429 ae3b 692f 453c 0cc4 a3bc b7bd ecbb
000000a0: 1e93 d13a c8d2 ffb9 fb28 f53b 7c9d 45bb
000000b0: 37c5 a2bb 8881 7a3b d1ef 1a3b da24 053c
000000c0: bbb0 393c a212 85bb aa2d 4b3c 55b1 54bb
000000d0: 31e2 203b 5177 a43b 665a 5dbb 5440 203b
000000e0: ae9c 82bc 3c7c 843c 0356 05bc 34d8 103c
000000f0: b774 523c 151e fd3b 5f49 063a f116 713b
00000100: eb92 cbba 547f c83b 8ec0 10bb f8d3 ebbb
00000110: 8c05 e33b ac11 5b3b 338b 2e3c 62be e1bb
00000120: 9eb7 babb 81f6 4abb 62fd 24bc 9831 713a
00000130: 3779 45bc 098e dabb 9ca5 4b3c 8943 903b
00000140: 93c2 6e3a 311e 933a 9e87 de3a d84a 49bc
00000150: 1569 a339 e28f 803a 4aa4 6a3c 1774 b23b
00000160: 9941 96bc 9ffa b8bb f969 98ba daf8 d5bb
00000170: d15f c5bc 582a b2bc 32b0 763b d4b3 10ba
00000180: 22bc 1f3c 9cb5 7d3b c31b 183b 4044 81bb
00000190: 4fa7 973b eb66 8a3b 9393 43bc f4b9 e5bb
000001a0: fe26 863c a249 a33b 0aa4 e03b 54f7 7fbb
000001b0: 0760 55bb 364d acbb e747 513c 6d35 98bc
000001c0: 1d2e d5ba 5b22 22ba 44aa bdbb d253 65bc
000001d0: bfec feba a8a9 aa3b 4872 4839 5c91 2c3b
000001e0: 662a 72bc e6bf 35ba 1e63 22bc 157d 853b
000001f0: 0c44 01bc e1a6 4eba 9f4a 233b bcb3 bd3a
00000200: 4498 0c3c 5659 28bc f1a4 5e39 9cbb 363c
00000210: 4d98 0b3c d4c2 d23a 3bcd 03bc 7753 c7bb
00000220: babb 303c 5268 11bc 6597 433c 1016 a6ba
00000230: fb15 aabb 7d03 db3b ca1c 4dbb 6847 f9bb
00000240: b0cd a1ba 1d25 2fbb d9c7 263b 6db2 57bb
00000250: f09b 0ebb 4543 93bc ae96 35bc 15cd a6bb
00000260: 986f 063c 7aa0 a23a 104c a13b a315 993b
00000270: b49c fabb 8689 04b9 a3be 013a 4cbe 2ebb
00000280: 9076 5dbc 0c29 51bc b942 173a 9c04 823a
00000290: e8f7 12ba 1ae6 783a be13 a0ba 9718 88ba
000002a0: 2590 163c 7553 623c 65cc 8ebb 7c5e 833b
000002b0: 91b0 3fbb a6db b8bc 8218 e6ba 2467 613b
000002c0: 8ff9 013c 024f b33a e0dc 493a 7275 543c
000002d0: 34a5 89bb 447a 29bc 5f92 babb 0499 133b
000002e0: 7be6 33ba c15b 20bb 05f3 fd3a ea93 663c
000002f0: 07f2 a23a d90f c13b 055b ad3b 5796 f038
00000300: af1b 89bb 8d51 8a39 57c3 20bc 3280 0cba
00000310: d344 65bc 15e4 b3bb aacc 13bc 7b88 e33b
00000320: 6236 e13a d14f 933c ff4f 833c 326b abbb
00000330: 11d9 01bb 4f4c 01bb aced 5e3b afe8 833c
00000340: 1d75 4dba 7dc2 153c 635c 413c 3672 f43b
00000350: cc86 4ebc b324 a53c bd3c 8abc f5ec db3b
00000360: 18ba 8138 9e0f 1f3a 4329 3d3b caf2 ebbb
00000370: 1928 c7bb ede0 373c e30a 9b3c 860c 293c
00000380: d8bd 113b f8ed 6d3b 6b3c 84ba 2dc4 a1bb
00000390: 935d a13c 6e7e 093c 450c 983b e780 c13b
000003a0: a053 33bc 1031 0bbc cf58 943c d4cd 453b
000003b0: bc58 5e39 06c3 a3bb 452a e138 d325 4abc
000003c0: e55f f9b9 87a9 a2b9 1566 0f3b 4e3e 8fbc
000003d0: 3f40 3c3b d727 2b3c c616 4dbc 1bec 21bb
000003e0: 15a5 cb3a 0ec4 b7bc 61f3 c3bb 650b a2bb
000003f0: 0327 cdbb e32e 15bb b63d c83b 08e1 a4bc

action_model._discrete_distribution.branches.1.bias f4 [3]
-0.0020995347 -0.0048611113 0.006071699
00000000: 5998 09bb f549 9fbb 1af5 c63b

action_model._discrete_distribution.branches.2.weight f4 [2, 256]
-0.010770034 -0.019083465 0.01301003 0.011272134 -0.0021186057 -0.00016727678 0.0024273633 -0.01694482
-0.008582802 -0.022659188 -0.0029125721 0.014045638 -0.017048167 -0.0057748402 0.0048258514 0.00023291445
-0.0039658244 0.00795383 -0.013504572 -0.002689228 -0.011762735 0.018451957 -0.0039292355 -0.00942772
-0.01055944 -0.011837117 -0.0008912965 0.0040968093 -0.007239885 -0.0024512978 -0.02433661 -0.00475258
0.0105105275 -0.02490476 0.0039140615 -0.0100777885 -0.0049428996 -0.0162114 0.010248636 -0.019482877
-0.017805012 0.012345719 0.007720201 -0.020430205 -0.0040519494 -0.0044189235 0.002628176 0.009455238
-0.012593519 0.0026939702 0.0025414438 -0.005652015 0.005353381 -0.023434311 0.0016800279 0.008781781
-0.01572409 -0.008960699 0.0025129763 0.01127311 -0.016853418 -0.0079509895 -0.0036829289 -0.017635375
-0.016335353 -0.006269125 -0.009615461 -0.006609923 0.006215639 -0.0025574514 -0.0014944242 0.009684218
-0.005123557 -0.0061049648 -0.0129959285 -0.014190438 -0.008017466 -0.014922379 -0.003695823 0.017430734
0.005132711 -0.012978089 0.013869201 -0.0026524826 0.011436835 0.019456051 -0.0054011075 0.018640017
-0.01215922 -0.0032912805 0.0032731718 0.0011168406 -0.0136185475 -0.007111816 -0.021926718 -0.02411974
0.010315577 -0.019750752 -0.00031059628 5.637168e-05 0.024614323 0.00050704094 -0.0014555698 0.003292995
0.014244244 -0.012581925 -0.00818037 0.01353972 -0.010273873 -0.029066259 0.0027817278 -0.015360837
0.0020392744 -0.0012851538 0.0040771207 -0.0037838584 0.009456068 0.004059345 -0.010553047 0.003147057
-0.03119969 -0.00022307945 -0.008310864 -0.005414883 0.0018892408 -0.0020257672 -0.008965168 -0.009075245
0.01574211 -0.011451421 -0.00089061947 0.010646875 0.0040616016 0.0018725026 0.0049215844 0.010430728
0.010487508 0.0042337575 0.011535565 -0.01974021 -0.009537553 -0.008473954 0.011369059 0.0025861154
0.00019852963 0.0043713246 -0.017473824 -0.01473811 -0.009588473 0.008774095 -0.017332723 0.0070673754
0.004276078 0.0023866121 -0.018294517 -0.0034187317 -0.0315577 0.005013426 0.004377575 -0.010748468
-0.017763782 -0.0075478754 0.0071749203 -0.014281 -0.0076069944 -0.009775119 0.004244906 0.0015387055
0.0023957642 0.013869261 -0.013038368 0.009360351 -0.024446933 0.0061211316 -0.009640267 -0.005364903
-0.012714942 -0.0030805843 -0.016124086 0.0037415521 -0.030089542 0.0064484337 -0.021178504 -9.57175e-05
-0.0022798772 0.011047156 -0.021423198 -0.0075897514 -0.00023234087 0.0007219799 0.01725495 0.0015606699
0.008828948 -0.0074189096 -0.021096703 -0.009801763 0.0053861225 -0.013770069 0.019438358 -0.0027850207
0.0062407665 0.022548705 0.012085771 -0.034982722 -0.0026340317 -0.013927962 -0.01033764 0.019344015
-0.008385993 -0.0030582084 -0.002061107 -0.0020913451 -0.004226164 -0.008173365 -0.019025179 0.023581741
-0.007031534 0.010158875 -0.0028029922 -0.0015273861 -0.0036692675 0.008433846 -0.00893493 -0.0036941764
0.017238846 -0.011095735 0.009142099 -0.010823208 0.0023550168 0.0027527888 0.006042983 0.01377381
0.01620308 -0.025972558 0.012938094 0.008740644 -0.019235158 0.024958463 0.017138874 -0.018039767
0.0065351017 0.00367892 0.0111164395 -0.0012255443 -0.0036749116 0.008102775 -0.010384682 0.006984768
-0.0033090424 0.00057152373 0.023948614 0.019067895 -0.00353977 0.0021790967 0.0044008056 -0.011540625
00000000: cc74 30bc ed54 9cbc 0528 553c c2ae 383c
00000010: 4ed8 0abb 0567 2fb9 6614 1f3b ddcf 8abc
00000020: e19e 0cbc c39f b9bc dae0 3ebb ad1f 663c
00000030: 99a8 8bbc df3a bdbb 2d22 9e3b 7f3a 7439
00000040: bff3 81bb c850 023c 4842 5dbc c23d 30bb
00000050: 7db8 40bc 8f28 973c d1c0 80bb b976 1abc
00000060: 8001 2dbc 78f0 41bc e5a5 69ba 873e 863b
00000070: 8f3c edbb f4a5 20bb 925d c7bc 88bb 9bbb
00000080: 5934 2c3c 1105 ccbc 8741 803b 4f1d 25bc
00000090: 0cf8 a1bb c5cd 84bc e5e9 273c 8e9a 9fbc
000000a0: d1db 91bc b345 4a3c bdf9 fc3b 3f5d a7bc
000000b0: 37c6 84bb 9ecc 90bb 7a3d 2c3b 24ea 1a3c
000000c0: 0c55 4ebc 528d 303b 5a8e 263b 8a34 b9bb
000000d0: 6a6b af3b 50f9 bfbc 6234 dc3a 76e1 0f3c
000000e0: cfcf 80bc e5cf 12bc bfb0 243b dab2 383c
000000f0: 2e10 8abc de44 02bc 4b5d 71bb 1078 90bc
00000100: b8d1 85bc 3b6d cdbb 2b8a 1dbc 0e98 d8bb
00000110: 8fac cb3b ea9a 27bb 8ee0 c3ba 8eaa 1e3c
00000120: 83e3 a7bb 280c c8bb e0ec 54bc 037f 68bc
00000130: b15b 03bc fe7c 74bc 9f35 72bb e6ca 8e3c
00000140: 4d30 a83b 0da2 54bc a53b 633c 46d5 2dbb
00000150: 9061 3b3c 4c62 9f3c c6fb b0bb f3b2 983c
00000160: 7737 47bc 86b2 57bb b682 563b f462 923a
00000170: 5420 5fbc 3d0a e9bb a99f b3bc c396 c5bc
00000180: aa02 293c 54cc a1bc 87d7 a2b9 a170 6c38
00000190: faa3 c93c f1ea 043a d1c8 beba 4acf 573b
000001a0: b160 693c 6b24 4ebc f506 06bc b4d5 5d3c
000001b0: bf53 28bc 5d1c eebc a64d 363b 05ac 7bbc
000001c0: 59a5 053b 9b72 a8ba 5e99 853b 9cfa 77bb
000001d0: a0ed 1a3c 4104 853b b0e6 2cbc db3e 4e3b
000001e0: 7e96 ffbc 6fea 69b9 4a2a 08bc 556f b1bb
000001f0: 67a0 f73a bcc2 04bb a4e2 12bc 56b0 14bc
00000200: 99f5 803c be9e 3bbc 7678 69ba 3b70 2e3c
00000210: 2f17 853b c36e f53a 3e45 a13b a5e5 2a3c
00000220: ccd3 2b3c 55bb 8a3b abff 3c3c 39b6 a1bc
00000230: 6643 1cbc 57d6 0abc 4a45 3a3c d17b 293b
00000240: 642c 5039 543d 8f3b 4425 8fbc 1d78 71bc
00000250: f818 1dbc 39c1 0f3c 5bfd 8dbc 7195 e73b
00000260: 581e 8c3b b568 1c3b 62de 95bc cd0c 60bb
00000270: a642 01bd aa47 a43b c371 8f3b 581a 30bc
00000280: 5a85 91bc 2b54 f7bb 981b eb3b dbfa 69bc
00000290: 1844 f9bb d227 20bc da18 8b3b 64ae c93a
000002a0: 4102 1d3b e63b 633c e19e 55bc 285c 193c
000002b0: ef44 c8bc c693 c83b 36f2 1dbc 11cc afbb
000002c0: 5552 50bc a1e3 49bb a916 84bc d434 753b
000002d0: 587e f6bc 624d d33b 8b7e adbc f1bb c8b8
000002e0: fe69 15bb 21ff 343c b47f afbc 73b3 f8bb
000002f0: 87a0 73b9 4043 3d3a 415a 8d3c 648f cc3a
00000300: 4ba7 103c 531a f3bb fed2 acbc 9397 20bc
00000310: 127e b03b db9b 61bc 313d 9f3c e584 36bb
00000320: 587f cc3b 10b8 b83c 6603 463c 0b4a 0fbd
00000330: b89f 2cbb 1b32 64bc 345f 29bc 5777 9e3c
00000340: 6765 09bc 396c 48bb a313 07bb f30e 09bb
00000350: a27b 8abb 94e9 05bc b1da 9bbc 7f2e c13c
00000360: c868 e6bb 6971 263c 68b2 37bb 9332 c8ba
00000370: 1878 70bb 1d2e 0a3c d063 12bc ff19 72bb
00000380: 7b38 8d3c e3ca 35bc bec8 153c d353 31bc
00000390: a056 1a3b 2268 343b 3704 c63b 8cab 613c
000003a0: 52bc 843c 67c4 d4bc 4dfa 533c eb34 0f3c
000003b0: 0d93 9dbc b175 cc3c d366 8c3c 22c8 93bc
000003c0: 6824 d63b 091a 713b ba21 363c 71a2 a0ba
000003d0: c9d6 70bb 80c1 043c 8324 2abc 7be0 e43b
000003e0: 85dc 58bb 4fd2 153a e22f c43c 4634 9c3c
000003f0: 7cfb 67bb 2dcf 0e3b a234 903b e414 3dbc

action_model._discrete_distribution.branches.2.bias f4 [2]
-0.004145648 0.0041456525
00000000: 37d8 87bb 41d8 873b
