results/skillBoat/boat/boat-499887.onnx (onnx, 340257 bytes, 11 tensors)

discrete_act_size_vector f4 [1, 3]
000000 00 00 00 40 00 00 40 40 00 00 00 40
       2.0 3.0 2.0

network_body._body_endoder.seq_layers.0.weight f4 [256, 58]
000000 f3 24 92 3d 88 7a 0e bd 5d 27 c1 bd ab 59 05 be
       0.07135954 -0.034784824 -0.09431336 -0.13022487
000010 8f b0 0c bc 1d f2 4e bd d4 bb a2 be 91 76 42 3c
       -0.008587017 -0.050523866 -0.31783926 0.011869089
000020 77 37 6a bc 68 18 92 3d af f8 d3 3a 75 43 21 3c
       -0.01429545 0.071335614 0.0016172136 0.009842743
000030 3b 45 b8 3c 88 07 2e be c8 ec 79 3e e0 6c ef bc
       0.02249395 -0.1699506 0.24406731 -0.02922672
000040 fb f2 20 bd a5 b8 a7 bd c6 2d 18 3e ce 47 a1 bd
       -0.039294224 -0.08189515 0.14861211 -0.07875024
000050 59 fc 23 be 7a b7 92 3b 4b fa e7 3d e5 96 5f be
       -0.16014232 0.0044774385 0.113270365 -0.21834905
000060 7d 69 d6 3d 44 8d 81 3c 37 a5 86 3d d9 f2 02 be
       0.10469339 0.015814431 0.06574481 -0.12787952
000070 43 65 b4 3e f0 01 d7 3e 7b f4 98 be 67 5d 74 3c
       0.35233507 0.41993666 -0.29874024 0.014914847
000080 f7 70 7b 3d e4 6e 45 bd 0c 47 9d 3d 91 ca 71 3e
       0.06138703 -0.048201457 0.07679567 0.23612429
000090 b7 8f e2 bd 1f 9e 87 3d d1 04 cc bd 7a 4b 5e 3e
       -0.11062568 0.06621956 -0.09961856 0.2170848
0000a0 59 66 88 3a 48 7c a9 3e 14 ee d8 3d aa de 06 bd
       0.0010406479 0.33102632 0.10592285 -0.032927193
0000b0 e4 98 b2 3c 98 06 9b 3d 70 53 1e 3d a6 58 c8 bd
       0.02180142 0.07569617 0.03865379 -0.09782533
0000c0 3d ef a8 3d a0 72 a1 be a8 57 c9 bc 48 1d 26 be
       0.08248756 -0.31532764 -0.02457793 -0.16222107
0000d0 e3 41 fc 3d 21 37 12 3d 4c 65 bd bd 4f e9 2c be
       0.123172544 0.035697106 -0.092478365 -0.16885875
0000e0 a9 2a 4c bd f8 72 12 3d 5c bc 36 3e a3 3a ed bb
       -0.04984537 0.035754174 0.17845291 -0.007239656
0000f0 59 95 b0 3d df 07 54 3e c7 95 e7 bd 35 5f 2c 3d
       0.08622236 0.20706128 -0.11307865 0.042082984
000100 21 95 12 3e 32 cf b1 3d f5 12 67 be 33 1c 1d 3d
       0.143147 0.086820975 -0.22565825 0.03835697
000110 c8 85 d4 be 17 d0 11 be a2 79 17 3e f8 63 c8 3d
       -0.41508317 -0.14239536 0.14792493 0.097846925
000120 a1 c9 21 3e ec 7f 52 bd 0f 26 39 be 7b 88 36 3e
       0.15799572 -0.051391527 -0.18080924 0.178255
000130 2f 5d 3f 3c c2 15 c3 bd ea b7 1a 3e e0 23 bc 3c
       0.011679932 -0.09525634 0.1510922 0.022966325
000140 21 36 cf bd 21 31 80 3d f2 cc a4 3e 8e 4c 14 bd
       -0.10117746 0.062593706 0.3218761 -0.03620582
000150 75 0d 16 bd f6 8d bd 3d f4 52 1e bd 49 60 90 3d
       -0.036633927 0.092555925 -0.03865333 0.07049615
000160 4f 85 1e 3e 78 79 23 3e ee 6e 20 bc cb ab 71 3c
       0.1548054 0.15964305 -0.009792073 0.014750431
000170 9e f5 56 3d ec ce c6 3d 91 8e ee bd f1 a1 cc 3c
       0.052480333 0.09707436 -0.11648286 0.024979563
000180 de 7c 4b be 8e 39 ee b9 59 ca 5c 3e 15 ad 2d be
       -0.19871852 -0.0004543778 0.21561565 -0.16960557
000190 11 04 90 3d 06 a0 5a bd 1c d0 f6 bd 94 46 7c bd
       0.070320256 -0.053375266 -0.120514125 -0.061590746
0001a0 2b a0 0c be ac 09 37 be 00 d9 27 3e 5d 1d 0b 3e
       -0.13732974 -0.17874783 0.16391373 0.1358542
0001b0 b8 1e 9a 3d c7 06 98 3d 39 c8 c9 bd 84 52 ba 3d
       0.075253904 0.07423168 -0.098526426 0.0909777
0001c0 e6 aa 7b 3d 7f f0 7e be 8f 9d 3a bd 58 f7 c6 bd
       0.06144228 -0.2489643 -0.045560416 -0.09715146
0001d0 12 d6 6c bc 04 fa e8 3c b8 91 95 3d 4f e5 1d bc
       -0.014455335 0.02843953 0.07303184 -0.009637191
0001e0 50 32 ab 3d 66 e1 aa 3d d2 c7 60 3d 19 9c e3 3d
       0.08359206 0.083437726 0.054878063 0.11113758
0001f0 63 6c a0 3c a2 e7 78 bd 32 29 87 3c 7e 8f 37 bd
       0.019582933 -0.060767777 0.016499136 -0.04481458
000200 26 3e 69 3d c7 d9 82 bd a9 8c 15 3e 05 a1 3c 3e
       0.056944035 -0.06389194 0.14604439 0.18420799
000210 cd 36 2a be 22 57 e8 bd 64 84 ff bb c1 e7 6f 3e
       -0.16622467 -0.11344744 -0.0077977646 0.23428251
000220 05 5f 6f bd 36 9a b4 bd 6d 20 b7 3d d5 35 7c be
       -0.058440227 -0.08818476 0.089417316 -0.2462991
000230 7f 33 db 3d d8 26 65 bd 1e 33 1f be a9 b4 b5 bc
       0.107031815 -0.055945247 -0.15546843 -0.022180872
000240 31 dc 8f bd 8e df 0d 3c 63 c6 29 bd c5 84 63 be
       -0.0702442 0.008659257 -0.041448962 -0.22218616
000250 74 19 07 3e 05 ba 28 be f0 7d 14 be b4 9d 0b 3e
       0.13193303 -0.16477211 -0.14501166 0.13634378
000260 76 79 89 bc 4a 17 09 bd 17 4d 07 3d 56 e4 09 be
       -0.01678155 -0.033469476 0.033032503 -0.1346601
000270 6d ae 5e 3d c0 15 42 be 6f b1 a5 be 6f 4a b1 3d
       0.054365564 -0.1895361 -0.32361934 0.08656775
000280 b1 d4 f0 3d 66 95 91 3e 47 57 ce bd a1 95 c6 3d
       0.11759318 0.28434294 -0.100752406 0.09696508
000290 a1 cc 48 bd 53 2b 36 3e 93 54 8a 3e ec 92 1f 3d
       -0.049023274 0.17789964 0.2701765 0.038958475
0002a0 af 09 18 bd 38 86 10 be 2a 3f 15 3e 74 af a9 bc
       -0.03711861 -0.141137 0.14574876 -0.020713545
0002b0 38 4e e0 3d a9 72 a5 be 35 b0 55 bc 41 3c 02 3e
       0.10952419 -0.3231404 -0.013042499 0.12718298
0002c0 d3 6e 30 bd 26 d3 09 3d 0f cb 1c bd 20 32 3a 3d
       -0.04307444 0.033648632 -0.03827959 0.04545796
0002d0 1f 74 df 3b 36 fa fc 3d a3 f7 79 be d6 9e 1d 3d
       0.0068192626 0.123524114 -0.24410872 0.038481556
0002e0 64 5b f3 bc 47 d4 58 3d ad 5f 19 3e 53 be c3 bd
       -0.029706664 0.05293682 0.14977904 -0.09557786
0002f0 1d 53 c5 bd b2 94 3e 3d a7 c2 2b 3d 13 ee fd 3d
       -0.09634993 0.046528526 0.04193368 0.12398925
000300 55 1a 95 3c d4 85 6c bd c3 f5 ef bb 95 5b 41 3d
       0.018201033 -0.057744816 -0.0073229983 0.04720648
000310 9f ca 10 3d 94 16 84 3d 30 c5 bc 3d a5 a4 a8 3b
       0.035349485 0.06449619 0.09217298 0.0051465803
000320 45 2e 53 bc a0 be cf bd 27 d1 8d 3d 4b 7c 3d 3e
       -0.0128894495 -0.10143781 0.06924658 0.18504445
000330 ad 87 cd 3c 9b 97 3e 3b 2d fd f4 3d fd 46 8a be
       0.02508911 0.0029082063 0.11962352 -0.27007285
000340 b3 74 aa 3c 7f d1 5c bd c8 94 c6 be 36 ec f9 bd
       0.0208076 -0.05391073 -0.38785386 -0.12203257
000350 48 3d 54 bd c7 e7 7c 3e 9b 52 9f bd 24 26 8c 3e
       -0.051816255 0.24697791 -0.077794276 0.2737285
000360 07 47 4b be f3 c4 9f 3d 60 ab 95 3c 67 66 39 be
       -0.19851314 0.07801237 0.018270195 -0.1810547
000370 0f 93 0c 3e a0 14 37 3e 67 b8 38 3e 85 a9 1a 3e
       0.13727973 0.17878962 0.18039094 0.15103729
000380 3c 3b 06 bc 43 74 0f 3e 1c c4 11 3e af be 7c 3e
       -0.0081928335 0.14009194 0.14234966 0.24682115
000390 03 16 24 3e a9 bd 39 3e 3c 82 d3 bd 7d 20 f8 3d
       0.16024022 0.18138756 -0.103275746 0.12115572
0003a0 52 3a b3 ba f4 15 2f 3d 2e ed b5 bd b1 e3 88 bd
       -0.0013673997 0.042745546 -0.08883129 -0.06684054
0003b0 ea ec ad bd dc 71 0b be 12 2a b2 3e 85 98 78 3c
       -0.084924534 -0.13617653 0.34797722 0.015173082
0003c0 1a ae 21 3e b3 36 f5 be 9f 10 08 be ad 21 41 3e
       0.1578907 -0.47893295 -0.1328759 0.18860503
0003d0 fe 87 23 bd fb 13 07 be 6d 16 d1 3d 02 55 ad 3d
       -0.039924614 -0.13191216 0.102093555 0.084634796
0003e0 a9 52 16 3e 84 41 03 3e 2f 63 49 3e e0 fc 1f bd
       0.1467997 0.12817961 0.19666742 -0.03905952
0003f0 02 96 a3 bd b9 fc 40 bd e2 a1 b0 3d 90 81 01 bd
       -0.07987596 -0.047116015 0.08624627 -0.0316177

network_body._body_endoder.seq_layers.0.bias f4 [256]
000000 ab be 4d 3c 8d 25 b1 b9 55 5b 74 bb 7c 17 9d 3c
       0.012557666 -0.00033788048 -0.0037285883 0.019176237
000010 02 85 13 3c 11 b9 0c bd 7d 01 92 bc 93 a2 34 bc
       0.0090038795 -0.03435618 -0.017822975 -0.011025089
000020 c4 00 c8 bc 68 82 8d 3c 10 75 45 bb 1a 56 24 bc
       -0.024414428 0.017274097 -0.003012959 -0.010030294
000030 67 37 c3 3c 77 e5 36 ba 80 92 08 3b 37 0c b9 bb
       0.023830129 -0.0006976942 0.0020839274 -0.005647208
000040 8a ce dd 3b a9 78 57 bc 45 b0 72 bb 00 28 5f bb
       0.006769006 -0.013151326 -0.0037031334 -0.0034050941
000050 13 fb d5 3c 72 46 83 bb 21 05 9f 3b 22 f0 ff bc
       0.026120698 -0.0040062005 0.0048529063 -0.031242434
000060 91 59 48 bc 7e 8c 85 3c 0e 97 36 ba e8 ce 3a bb
       -0.012228386 0.016302343 -0.0006965258 -0.0028504673
000070 db 62 37 3b 92 4d 00 bc 89 3c b9 bc dc 34 75 bc
       0.0027982506 -0.007830994 -0.022611873 -0.014966216
000080 a0 ab cd bc 34 c9 27 bc c2 a9 23 3d f2 21 9c 3c
       -0.025106251 -0.010240842 0.039956816 0.019059155
000090 53 f7 f5 bb 4d 1f be bb 29 90 f0 bb 40 9c 4c bb
       -0.00750629 -0.005802071 -0.007341404 -0.0031221062
0000a0 0f 5a 4b b9 61 77 7b bb 57 5c d7 bc 53 ee 8f 3b
       -0.00019393138 -0.0038370716 -0.026289148 0.004392424
0000b0 f3 13 4f bc bb 6a 89 bc db 35 1a 3c 36 e1 71 bb
       -0.012639034 -0.016774526 0.009412254 -0.0036907918
0000c0 2e b2 aa 3c 80 e8 05 3d fd ad 3e bc 94 85 92 3a
       0.020836916 0.032692432 -0.011638162 0.0011178725
0000d0 e1 ae 04 bc 7f 46 70 b9 b0 c7 cc bb 79 44 15 bc
       -0.008098335 -0.00022914445 -0.0062493905 -0.009110563
0000e0 e3 ff a4 bc 84 35 82 bb a9 39 ff 3b 95 75 2b 3b
       -0.020141548 -0.0039736647 0.007788856 0.0026162614
0000f0 22 a6 97 bc af b3 fc bc 3f de 71 bb c0 91 8d bc
       -0.018511835 -0.030847399 -0.003690615 -0.017281413
000100 f4 0f c2 3c 52 64 b3 bb 2c ee 10 bb 34 5c 8d bc
       0.023689248 -0.0054746056 -0.0022114618 -0.01725588
000110 6e ea 8c bc 92 5b 2d 3d 1c 0d 1d 3d c0 07 02 3c
       -0.017201629 0.042323656 0.03834258 0.007936418
000120 d8 c1 3f bc 74 ab 90 3c 78 d3 ef 3c ab 99 e5 bc
       -0.011703931 0.01765988 0.02927564 -0.028027376
000130 40 ce ea bb 12 60 47 3b 09 f9 4e bc 3f 82 74 bc
       -0.0071657 0.0030422253 -0.012632617 -0.014923631
000140 a3 e7 29 3c 9d ea 42 3d 3e a8 02 bc ac 09 13 3d
       0.010370168 0.047587026 -0.007974682 0.035897896
000150 61 57 1f 3d ae 7f c2 3c e5 b2 ba 3c bc 43 98 bc
       0.03890169 0.023742523 0.022790382 -0.018586986
000160 19 9a 2c 3c d4 de f5 bc 1f 55 33 3b 58 38 44 3c
       0.010534787 -0.03001348 0.0027363969 0.011976324
000170 8f b8 74 bc 48 2b 48 3c de fb 8d bc 3a e2 13 bc
       -0.01493658 0.01221735 -0.017332014 -0.009026105
000180 56 52 0d 3c d1 a2 81 bc 73 d3 d9 3b 05 5f 55 3c
       0.008625587 -0.015824707 0.006647521 0.013023143
000190 09 a4 66 bc 13 97 fb 3a 6f 3d 1b 3d 69 db 68 bc
       -0.014077195 0.0019194804 0.037900385 -0.014212468
0001a0 b9 74 42 3b c5 91 a8 3c f7 80 c5 bb ca ef 5c bc
       0.0029671623 0.02057732 -0.0060273367 -0.013484905
0001b0 57 c4 42 3c 5d e9 0a 3d cd ce b3 bb 85 5d d2 bb
       0.011887631 0.03391396 -0.005487299 -0.00641984
0001c0 47 25 ea 3c 78 24 a4 3a 90 0a c1 3c 01 50 b6 bc
       0.028582228 0.0012523076 0.023564607 -0.022254946
0001d0 d8 45 be 3b e1 ff 59 bc 87 59 f7 3c 30 b7 a9 3c
       0.005806666 -0.013305635 0.030194057 0.020717233
0001e0 b5 79 ba 3c bc 76 01 3c 12 76 90 3c 6f 83 92 bc
       0.022763113 0.007901844 0.017634425 -0.017884938
0001f0 1d b0 41 3b 84 aa 53 bc 19 e9 b2 bb b0 e0 75 bc
       0.0029554435 -0.012919072 -0.0054599163 -0.015007183
000200 1c 78 9b bc 01 1c 51 39 c9 38 c8 bc 71 a3 c3 bc
       -0.018978171 0.00019942225 -0.02444114 -0.023881646
000210 c7 19 05 3d 11 4d 10 3c e5 f4 79 bc d6 20 a9 bb
       0.032495286 0.008807437 -0.015256141 -0.005161385
000220 43 a8 42 3d eb 27 d5 3c 7f 3b 3f bc d0 5f 05 bc
       0.047523748 0.026020011 -0.0116719 -0.008140519
000230 15 c1 d0 bc 10 e0 76 3b c6 cc ae 3c 0f 43 e3 3c
       -0.025482694 0.0037670173 0.021337878 0.027741937
000240 9b 2b 0e 3c 50 2f 97 bb 70 ab 9b bb 9e 36 fb bc
       0.008677389 -0.0046137944 -0.0047506616 -0.030665692
000250 35 01 01 3d 97 74 dc 3c 91 b0 02 bd 78 6d 80 bc
       0.03149529 0.026911063 -0.031906668 -0.015677199
000260 c2 09 b1 bc 47 12 86 bc e0 94 96 39 4d 28 7b 3c
       -0.021611098 -0.016366137 0.0002872115 0.015329433
000270 1a 21 48 3b 39 d9 87 bb 0a 92 88 bc 5f f9 05 3c
       0.0030537308 -0.004145768 -0.0166712 0.0081771305
000280 43 7f 30 3b 7f a0 ca 3c d1 a7 2f bc 24 58 a8 3c
       0.0026931323 0.024734734 -0.010721163 0.020549841
000290 d0 49 00 3d bd 13 2e bc 95 1a d6 bc a3 1f 50 bc
       0.031320393 -0.010624823 -0.026135722 -0.012702855
0002a0 1c 1d 5a 3b e6 15 76 3c af 23 3b 3c 17 30 90 bc
       0.003328151 0.015019869 0.011422082 -0.017601056
0002b0 36 75 8f 3c ab 33 b4 3c 29 c9 41 3c 42 90 97 3c
       0.017511945 0.021997293 0.0118277455 0.018501405
0002c0 7e 1a ad 3c cc d9 0e 3c ea bf ce 3b ce 98 67 3c
       0.021130797 0.008718919 0.006309499 0.014135553
0002d0 e1 33 72 3d b1 ac 96 3c 52 e1 7e 3c 28 03 11 bc
       0.059131507 0.018392893 0.01555665 -0.00885085
0002e0 23 3b 2b 3a 10 cb 1d bc 3a 7d 80 bc cd 99 29 3d
       0.00065319444 -0.009630933 -0.015684713 0.04140644
0002f0 ea f5 12 3c 8a d3 d4 3b d0 4c 2c 3d 5d a2 a6 3c
       0.008969763 0.006494944 0.04206544 0.020341093
000300 a2 ed c6 3c 7b 19 7f 3a 1f 96 85 bb bf 8a 4d 3c
       0.024283234 0.0009731275 -0.0040767337 0.012545287
000310 a5 b8 76 bc d9 cf 08 bc 7e c5 c8 bb 48 17 14 bd
       -0.015058671 -0.008350336 -0.0061270585 -0.036155015
000320 63 17 2c 3c 10 a3 d3 3c 95 55 f6 ba e5 07 31 bc
       0.010503623 0.02583459 -0.0018793816 -0.010805105
000330 07 68 3d 3d 9c 8b bb 3c 00 da a6 bc 2d 1b 67 bc
       0.046241786 0.02289372 -0.020367622 -0.0141056
000340 02 15 0e 3c 0c 49 8b 3c a1 d7 d4 bb 61 da 5e bc
       0.008672001 0.017002605 -0.0064954315 -0.01360187
000350 c5 d3 8e 3b 6e c3 5c 3b 0a 1d 6b bc 27 6c c5 3c
       0.004358741 0.003368582 -0.014350185 0.024099423
000360 6b a1 48 bc 3d da 74 bb 83 cb 12 bc d8 c4 24 bb
       -0.012245516 -0.0037361525 -0.008959654 -0.0025141742
000370 97 2d d4 bc 10 99 a9 ba 82 c2 1a bc cb b1 ed 3c
       -0.025900645 -0.0012939293 -0.009445788 0.029015442
000380 13 dd ba 3c 3e be 73 3c 7f 1d 61 3b 50 e7 7f 3b
       0.022810495 0.0148769 0.0034349856 0.0039047785
000390 a8 67 50 3d 42 b4 4d bc cb 74 b3 3b 72 c0 76 3c
       0.050880104 -0.012555184 0.0054765693 0.015060531
0003a0 3b d2 6a bc d7 27 98 3c e2 86 72 3c de 56 84 bc
       -0.014332349 0.018573685 0.014802666 -0.016154703
0003b0 85 75 c8 bb 78 65 95 3c c9 0d fa bb af b4 59 bc
       -0.006117525 0.01823686 -0.007631038 -0.013287707
0003c0 62 f9 7a 3c 9d f0 15 bc 3a 6c 3a bc c2 03 c9 3a
       0.015318247 -0.009151605 -0.011378342 0.0015336203
0003d0 bd 57 43 3b b4 ee 82 bc 28 e9 a2 bb 60 58 14 bd
       0.0029806935 -0.015982963 -0.004971642 -0.036217093
0003e0 03 54 7e bb 83 c0 39 3c db bc 30 3c 59 32 d1 3c
       -0.00388074 0.011337402 0.010787214 0.025536703
0003f0 90 7d 21 bc be f1 d6 3c 5e dc c7 bb 8b 80 86 bc
       -0.009856597 0.026238319 -0.006099268 -0.016418716

network_body._body_endoder.seq_layers.2.weight f4 [256, 256]
000000 a3 72 df 3c a8 70 e7 bc d8 42 6d bd be 52 b6 bc
       0.027276343 -0.02825196 -0.057925075 -0.022256251
000010 39 83 14 3d d4 25 9c bd db b0 ca bc 38 1c b4 bd
       0.036257956 -0.07624403 -0.024742534 -0.08794445
000020 bd 1e cc bd 04 16 41 3b 1d a2 be 3d 62 7e 2c bd
       -0.099668 0.0029462585 0.093082644 -0.042112716
000030 8e c3 49 3d 50 ba 81 bc 6f ca 76 bd 04 28 8c bd
       0.04925876 -0.015835911 -0.06025165 -0.0684357
000040 92 67 c9 3c 70 c8 26 bd 0b 96 33 bc 61 66 03 be
       0.024585519 -0.040718496 -0.010961066 -0.12832023
000050 9d 26 c5 3d 38 93 2d bd d3 36 a6 3d bc 74 ff 3c
       0.096265055 -0.042376727 0.08115926 0.031183593
000060 8e 0f e0 bd ce 45 0d be 97 e4 c2 3d d5 73 9a 3d
       -0.10940467 -0.1379616 0.09516256 0.075416245
000070 08 7e 64 3d c5 b4 e4 3b 4a 11 36 bd c1 a2 49 3d
       0.055784255 0.006979557 -0.044450082 0.04922748
000080 6f 5d 49 3d 70 fb 39 3d e1 3c de 3d 5c 19 8e 3d
       0.04916137 0.045405805 0.108514555 0.06938431
000090 a6 6e 5c 3d 9b 40 4b 3c ab 95 7b 3b 93 5b 36 3d
       0.05381646 0.01240554 0.003838877 0.044520926
0000a0 2c a8 11 be 57 88 a2 bb 58 80 db 3c a3 ba 61 bd
       -0.14224309 -0.0049601006 0.026794598 -0.05510963
0000b0 1a f9 da bd 78 1a 99 bd bd eb 7e bd cf a2 54 bc
       -0.106920436 -0.07475752 -0.062236536 -0.01297827
0000c0 3d 92 ae 3d 2f f3 7d 3d 0a fa 14 bd 21 88 ac bb
       0.085239865 0.061999496 -0.03637127 -0.0052652513
0000d0 c6 7b 70 3a 1b a7 d7 3c dc 24 98 3d 22 da 73 bd
       0.0009173717 0.0263248 0.07428905 -0.0595342
0000e0 99 31 da bd 6e 04 bc 3d b0 ee d3 bd 9e 42 39 3b
       -0.10653991 0.091805324 -0.103482604 0.0028268467
0000f0 e5 dd ab bc e3 26 e9 bc ae ae 8d bd be f9 a8 bc
       -0.020979831 -0.028460925 -0.06918083 -0.020626899
000100 70 f9 85 bd f3 6a c1 bd fc 53 01 3e 1e 4d 0e bd
       -0.06541717 -0.09444227 0.12629694 -0.034741513
000110 9f 9c f2 3b 47 03 d0 3d 3b ae a6 3c d3 36 aa bc
       0.0074039246 0.10156875 0.020346751 -0.020778095
000120 5c 01 04 be b2 c7 05 bc 79 6b 85 3d 40 53 d6 bd
       -0.12891144 -0.008165287 0.065146394 -0.104650974
000130 2c 83 a4 bd e1 52 6e bd cc 10 f8 3c 0c bb d5 bb
       -0.080328315 -0.05818451 0.030281447 -0.006522542
000140 80 1d ec 3d 62 9a 3a 3d 4f 3e 96 3b 89 55 d9 bc
       0.11529064 0.045557387 0.0045850645 -0.026530044
000150 98 10 59 3d c6 ea 87 3c c2 82 5d bd 8e d6 39 3d
       0.05299434 0.01659144 -0.05407978 0.04537063
000160 a2 08 cf 3d 32 75 9a bd e0 d1 b5 3c aa 00 28 bd
       0.101090685 -0.075418845 0.022194803 -0.04101626
000170 16 3a d1 bd 98 4c 97 bc 1d 4e 3c 3c 55 85 e6 bd
       -0.10216157 -0.01846914 0.011493233 -0.112559
000180 c8 ac 6a 3d ec 34 1c bd 04 69 e8 3d 6d ee 55 bc
       0.057293683 -0.038136408 0.11348155 -0.013057333
000190 43 9e 29 3e f1 5d 24 3c c9 c1 55 bd 00 4c 90 bd
       0.16564278 0.010032163 -0.05218676 -0.07045746
0001a0 87 66 3f 3d c2 6e 8d bd 69 69 c2 3c 83 0f 7b 3d
       0.046728637 -0.06905891 0.023731904 0.06129409
0001b0 29 c9 8d bc 44 e6 7f 3c ca cd 86 bc 92 70 75 3b
       -0.017307835 0.015618864 -0.01645555 0.003745113
0001c0 64 22 9f bd cb 16 10 bd 56 33 27 3e c7 ac 66 bd
       -0.07770231 -0.035177987 0.16328177 -0.056317117
0001d0 00 55 d6 bd 03 b9 82 bd 0d 8a 27 bd 33 0b 89 3d
       -0.10465431 -0.063829444 -0.04090314 0.06691589
0001e0 82 cd 41 3c da df d4 3d f3 04 a9 bc 6a 2f b5 bc
       0.011828782 0.10394259 -0.020632243 -0.022117335
0001f0 a0 36 e7 3d b9 e1 a9 bd 55 6b eb bd 23 2d 06 3c
       0.11289716 -0.08295006 -0.11495081 0.008189472
000200 50 61 2b bc c9 b9 ad 3d 40 2e 76 bb 6d fb 1b 3d
       -0.010460213 0.08482701 -0.0037564188 0.038081575
000210 97 15 bf 3c fc df d0 3d 80 7c 24 bd f6 d4 b7 3d
       0.023325725 0.10198972 -0.040157795 0.08976166
000220 54 c8 c0 bc 72 ee 2d 3d 8d bf a8 bc e6 0e fa bc
       -0.023533024 0.042463727 -0.020599151 -0.030524682
000230 6a 03 88 bd b8 e9 c8 3d 50 16 94 3d 1c 60 94 3d
       -0.06641276 0.09810203 0.07230818 0.07244894
000240 0e 4c e5 bd 83 97 0a 3a 1e 2c 0b bc ec f9 5e 3d
       -0.11196147 0.0005286859 -0.008494405 0.054437563
000250 bf 40 2e bc db e0 9d 3d 76 94 b4 bd 3a 0a 89 bd
       -0.010635554 0.077089034 -0.08817379 -0.06691404
000260 f7 58 37 bd 3d a7 50 3d 12 0e e2 bc 5b e8 29 3d
       -0.044762578 0.05094074 -0.0275946 0.041481357
000270 e2 d9 e3 3d 27 6b 9d ba 1e 2a d3 3d 8b 5f f9 bb
       0.11125542 -0.0012010083 0.103107676 -0.0076102666
000280 ef 72 fc 3d 57 46 87 3c 11 99 7d bd 69 9c 07 3d
       0.12326609 0.016513033 -0.061913554 0.03310815
000290 ba d5 34 3d 06 48 c5 bd 40 89 bd bd 4a 38 f4 bc
       0.044149138 -0.09632878 -0.09254694 -0.029811997
0002a0 c0 8a 6e bb 5e 76 90 3b 72 97 52 bd 2c 62 3b 3d
       -0.003639862 0.0044086417 -0.05141396 0.04574792
0002b0 03 ea 11 bd 2d 0c be 3d 86 cf cc 3c 4d ff c7 3d
       -0.03562356 0.09279666 0.025001299 0.09765492
0002c0 7d c3 0c 3b 4b 90 07 3d 84 f3 81 3d 63 5d d7 3c
       0.0021478825 0.033096593 0.06345275 0.026289647
0002d0 94 a9 57 3b 91 ff ac 3d 13 56 1e bd 6b 64 68 bd
       0.0032907473 0.08447183 -0.038656306 -0.05673639
0002e0 ef bf 03 bd 64 39 b1 bd dd 2a 32 3d 46 63 27 bd
       -0.032165464 -0.086535245 0.04349791 -0.04086616
0002f0 1b 19 09 3d e2 a3 98 3d 4c b6 f1 3b e2 ae 09 3e
       0.033471208 0.07453133 0.007376468 0.13445619
000300 d2 37 b1 3d 5e 3b d9 bd fb e8 e4 3d b6 79 17 3d
       0.08653225 -0.106070265 0.1117725 0.036981307
000310 62 62 05 bd 0f 39 bd 3b e5 45 6f bd d3 fc 4b bd
       -0.03256453 0.005774624 -0.058416266 -0.04980166
000320 39 cc c6 3d 0c b4 20 bd 3a 5e ed bc 51 7c e2 bb
       0.09706921 -0.039234206 -0.028975595 -0.0069117923
000330 ad 7a a4 bd 68 08 a0 3b 2a 78 cd bb a8 c9 5b bd
       -0.08031211 0.0048838146 -0.006270428 -0.05365911
000340 d2 9e 19 3d 03 43 a5 3d 1c ab 93 bd 4e 61 73 3c
       0.03750498 0.08069422 -0.07210371 0.014854742
000350 aa d1 27 3e 4b 08 9a bd 60 a2 ad bd 01 33 7f bd
       0.16388574 -0.07521113 -0.08478236 -0.0623045
000360 1d ec bc bc c5 f7 93 3c 97 74 b3 bc f1 bd 06 bd
       -0.023061806 0.018062482 -0.02190618 -0.032895986
000370 8d a4 29 bd 77 a9 ed bc 6f 3d 8b bc 96 c2 ba 3c
       -0.041416693 -0.029011471 -0.016997067 0.022797864
000380 11 96 98 bd c2 b0 4c 3b 97 46 15 bc f4 e0 21 3d
       -0.07450498 0.0031233286 -0.009111068 0.039521173
000390 87 09 c7 3d 2a 54 c3 bb 76 b0 ac 3b 34 b0 18 3d
       0.09718614 -0.005960961 0.005270059 0.037277415
0003a0 27 f0 2b bd 96 6b d6 bc cc 79 fb 3b 43 b1 c1 3d
       -0.041977074 -0.026174348 0.0076744314 0.09457638
0003b0 33 0b 8c 3c 04 9c b1 3d ed 9f 42 be 7d 58 58 bc
       0.017095184 0.08672336 -0.1900632 -0.013204691
0003c0 38 d4 fe 3d 25 9e cd 3c 5e 0e 1b bc d2 93 9a 3b
       0.12442821 0.025099823 -0.009463875 0.0047173286
0003d0 8d ae 43 3c c4 ea de 3a f0 bd c2 bd d8 00 41 3d
       0.011943472 0.0017007221 -0.09508884 0.047119945
0003e0 0d f8 5c bd 99 04 d8 bd 0b d9 23 be 74 85 41 bd
       -0.053947497 -0.10547752 -0.16000764 -0.04724641
0003f0 ed 68 10 3d cc 9b ea 3d 92 33 a0 3c 4c 8d 9c 3d
       0.035256315 0.11455497 0.01955584 0.07644138

network_body._body_endoder.seq_layers.2.bias f4 [256]
000000 01 17 da 3c 75 4d 64 bc 6f 66 07 bc 2c c8 e2 3a
       0.026622297 -0.013934483 -0.008264168 0.0017302088
000010 06 d6 8f bb b4 0c 84 bc 49 60 e5 3c d3 89 d2 bb
       -0.0043895273 -0.016119339 0.028000014 -0.0064251213
000020 5e a3 49 bc ff bb d8 3b 7b 84 c3 3b c9 4c eb 3c
       -0.012307016 0.0066142078 0.0059667206 0.028723137
000030 d7 c3 1a bb 0b 8d 4d 3c 4d 33 40 bc de 2c 6b bb
       -0.0023615265 0.012545834 -0.011730981 -0.0035884897
000040 93 88 e6 bb 94 00 5d bc 30 a8 0a 3d 54 53 8b 3c
       -0.007035324 -0.013488907 0.033851802 0.017007507
000050 55 e5 c0 3b 56 a1 d3 3b 97 fe 38 3b 89 3c 54 3c
       0.0058867135 0.0064584417 0.002822792 0.012953886
000060 5c 0d 57 bc fc f0 d6 3b 88 b3 11 bc 03 23 07 bc
       -0.013125744 0.0065594893 -0.008892901 -0.008248094
000070 a3 53 25 bc a2 f2 02 bc c5 c8 5a 3c d0 93 6f ba
       -0.010090741 -0.0079924185 0.013353531 -0.0009139152
000080 ee 7f ac 3c 89 95 8e bc f3 87 f0 bb 25 b8 b0 3b
       0.021057095 -0.017405288 -0.007340425 0.0053930455
000090 0a 98 86 3b a0 d1 e9 3b 0b c9 fe bb e1 c8 9a bb
       0.00410748 0.007135585 -0.007775431 -0.0047236537
0000a0 cd 9f 5e bc 4f a2 2b 3c df a4 47 3b 15 a2 d1 3c
       -0.013587904 0.010475709 0.003046326 0.025589982
0000b0 08 61 5f 3b eb 06 b4 bc 40 4f 33 bc 6c 6e e7 bb
       0.0034084935 -0.021975955 -0.010944188 -0.007062724
0000c0 c0 ab a1 bc b9 c0 ae b9 d2 7b f0 bb 54 be be 3c
       -0.019735217 -0.00033331456 -0.0073389793 0.023284115
0000d0 78 00 4d 3a 07 a8 af 3b b0 8e 77 3b 4b 90 7b 3c
       0.0007820199 0.0053606066 0.0037774257 0.015354226
0000e0 d5 d7 6a bc a0 11 41 bc b2 69 8d bb 55 a0 78 bc
       -0.014333685 -0.011783987 -0.0043155784 -0.015174945
0000f0 a9 87 3c bc 89 ac 05 3c 63 11 24 3b d1 ba 43 3c
       -0.011506953 0.008158811 0.0025034777 0.011946396
000100 e7 07 81 bc 92 31 e3 bb e4 80 43 bb 36 36 85 3c
       -0.015750838 -0.0069333995 -0.0029831463 0.016261201
000110 73 58 d9 3c fa 2f de 3c cd 2f 8c 3c 1c 34 41 bc
       0.026531434 0.027122486 0.017112637 -0.011792209
000120 9f 58 7b 3c 8f f7 37 bc 27 42 d4 bb 16 8c 01 bc
       0.015340953 -0.011228456 -0.0064776125 -0.007906934
000130 96 18 d6 bc fa 94 64 3c 2a 4a 5b bc 49 f2 b9 3c
       -0.02613477 0.013951534 -0.013384381 0.022698538
000140 f1 6b 3a bc 62 58 09 3c dd f1 fd 3b ab 5b d7 3c
       -0.011378274 0.0083828885 0.0077497796 0.026288828
000150 f5 a3 3c 3c 04 2e 5f bc 0e 8c 48 3b 9b df 53 bb
       0.0115137 -0.013621811 0.0030601057 -0.0032329324
000160 d5 50 1b bc 71 be de 3c fc b2 de bb f9 57 d5 3c
       -0.009479721 0.027190419 -0.006796239 0.026042925
000170 a2 8f 99 bc c7 25 62 b9 d3 9e 94 bc 36 94 9f 3b
       -0.018745247 -0.00021567113 -0.01814214 0.004869963
000180 84 bb 0d bc e9 94 63 3c af a4 d3 bc 87 56 6e bc
       -0.008650664 0.013890483 -0.025835363 -0.014546997
000190 c3 37 60 3b c5 d7 56 ba 4d c1 59 bc 3b 2d ef 39
       0.0034212924 -0.00081956043 -0.013290715 0.00045619332
0001a0 c4 fa 53 ba ad 74 87 bc cd 96 a0 3c b8 ed 37 3a
       -0.0008086378 -0.016535128 0.019603157 0.0007016319
0001b0 4c c0 b8 bc f3 00 ba bc cf cb 2c bc a4 a1 bd 3c
       -0.022552632 -0.02270553 -0.010546639 0.023148365
0001c0 9e da 58 bc 39 8f 92 3c cb 84 3f bb f7 79 16 bc
       -0.013235716 0.01789056 -0.0029223438 -0.009184352
0001d0 4f 27 df bc f4 b7 7e 3b 4c 62 5e bb da 19 e7 3b
       -0.027240423 0.0038866969 -0.0033933101 0.0070526423
0001e0 43 2b 10 bb 9d b1 1f bc da 1d ea 3c 62 de 76 bc
       -0.0021998442 -0.009746936 0.028578687 -0.015067669
0001f0 8a c5 ba 3c 25 96 ce 3c 00 ae 5f bc ce 5a be 3c
       0.022799272 0.025218079 -0.013652325 0.023236658
000200 46 b6 24 bc 8b d7 9c bc 93 dc b7 bb 15 b6 f0 3c
       -0.010053223 -0.019145748 -0.0056110113 0.029383698
000210 f6 a6 81 b8 3d 9d 0a 3b 5e 7a 54 bc 5f 83 22 3c
       -6.182298e-05 0.002115085 -0.012968628 0.009919017
000220 96 6d 9a bb cd 19 41 bb cc f8 41 bb 9a c2 83 3c
       -0.0047127707 -0.0029464841 -0.0029597757 0.016084004
000230 f1 92 04 3c 7d 0c 6b bc 05 3d cc bc fd 20 fb bb
       0.008091674 -0.014346239 -0.02493144 -0.0076638446
000240 7c ab 49 bc c1 b2 47 bc f1 68 14 bb 8f 44 74 3c
       -0.0123089515 -0.012188614 -0.0022645558 0.014908924
000250 b9 0d 82 3c 81 e1 aa bc dd 86 8a bc ad c0 da 3c
       0.015875684 -0.020859482 -0.016910011 0.026703203
000260 23 56 63 bc da 01 48 bb 17 70 9a ba 94 4e d6 bb
       -0.013875517 -0.0030518682 -0.0011782673 -0.006540129
000270 46 33 5b 3b 8a d8 55 3c 20 e2 52 bb 80 e8 5c 3c
       0.003344731 0.013052115 -0.0032178238 0.013483167
000280 26 14 db ba fd cb da 3a 28 8c 49 bb 1e a5 d3 3b
       -0.0016714379 0.0016692873 -0.0030753706 0.0064588925
000290 70 c1 0b bc 48 a4 d0 3c 90 ed 2d bc 1e 8c 8c bb
       -0.008530006 0.02546896 -0.010615721 -0.004289164
0002a0 73 68 9f bc c4 16 05 bc 7b a6 75 bc ed 78 8e bc
       -0.019458985 -0.0081231035 -0.014993305 -0.017391646
0002b0 93 5f d4 b8 b8 68 58 bc 1a eb 97 bc 72 77 54 bc
       -0.0001012675 -0.013208561 -0.018544722 -0.012967931
0002c0 d3 fe 64 bc 1b 4f e8 bc 9b d5 7d 3c e4 d3 84 bc
       -0.01397677 -0.028358033 0.015492822 -0.016214319
0002d0 17 79 a3 3c 9e 3d 03 bc 7f 1c ef 3b b1 a8 d5 3b
       0.019955201 -0.008010296 0.007297098 0.0065203537
0002e0 3f 42 a4 bc a7 85 c0 3c 26 3e 7b bc 37 f4 99 3c
       -0.02005112 0.02350123 -0.015334642 0.018793209
0002f0 b9 61 20 bc b4 1d 63 3c 8a e0 44 3b ab ef 2a 3a
       -0.009788924 0.013862062 0.0030041062 0.00065206987
000300 c1 39 53 3c e0 e1 b0 bc f0 e7 25 3c a3 71 1c bc
       0.012892188 -0.02159208 0.010126099 -0.0095485775
000310 78 15 17 3b 7d 53 a9 bb f2 d3 91 3c e4 69 af b9
       0.0023053568 -0.0051674233 0.017801259 -0.00033457496
000320 f6 39 b2 ba db 53 2c bc d9 2e e5 ba f3 64 01 3c
       -0.0013597596 -0.01051804 -0.0017485275 0.007897603
000330 d0 cc 10 bc 17 cf bc 3c 8e 12 34 3b 69 a1 34 3c
       -0.008837894 0.023047967 0.002747688 0.011024811
000340 33 36 a5 3c 77 ef 45 bc 45 2c bd bb bf 90 bf bb
       0.020167446 -0.012081019 -0.0057730996 -0.0058461125
000350 7f ac 28 3a ce 10 24 bc e3 3b 39 3c 09 33 8e bc
       0.00064343953 -0.010013772 0.011305782 -0.01735832
000360 6d 13 ba 3b ce 83 d5 bc e3 7e 83 3c ac 43 e4 bb
       0.0056785853 -0.026063826 0.016051715 -0.006966075
000370 08 5b 22 bc 65 ce 94 3c d7 00 24 3b 0c 9a 3c bc
       -0.009909399 0.018164823 0.0025024915 -0.011511337
000380 a7 06 eb 3c 38 ae b5 bc 7d f3 88 bb e7 2a 81 3b
       0.028689696 -0.0221778 -0.0041794167 0.003941882
000390 d7 29 de 3b 50 40 8e bb c8 af f0 3c 80 5f 86 3c
       0.00677989 -0.0043411627 0.029380694 0.01640296
0003a0 1f 8d 51 bc a7 28 e0 bb 31 d5 5e bc f4 f0 8d bc
       -0.012789994 -0.0068407836 -0.0136006335 -0.01732681
0003b0 99 66 44 bc 7f 88 05 bc 07 40 04 bc 7d 20 44 3a
       -0.011987352 -0.008150219 -0.008071906 0.0007481648
0003c0 79 fa fe bb 92 f1 96 3a 14 6e 54 bb e8 fe c5 bc
       -0.0077813235 0.0011516085 -0.0032414244 -0.0241694
0003d0 1b c5 06 ba 2c e0 bc 3c 8d 11 c1 3c 3f 4a 55 3b
       -0.00051410653 0.023056112 0.02356794 0.0032545475
0003e0 c3 3a c7 bb f1 78 82 bc d1 e2 f7 3b 75 d0 11 3b
       -0.006080003 -0.01592681 0.0075648804 0.0022249494
0003f0 bc ca c4 3b 68 71 40 3c 87 42 a6 bb 30 a0 96 bc
       0.006005613 0.011745788 -0.0050738486 -0.01838693

action_model._discrete_distribution.branches.0.weight f4 [2, 256]
000000 6c 36 8e bc 52 ac 1b 3c 4b 1a c8 3c 1d 59 93 bb
       -0.017359935 0.009501534 0.0244266 -0.004496707
000010 7b 8c 8a 3b 4e 20 91 3c 97 3c 80 bc ab b3 69 3c
       0.0042281724 0.0177156 -0.015653891 0.014264028
000020 16 8c 0b 3c e1 7b d3 bb 0c 96 d2 39 53 13 88 bc
       0.008517286 -0.0064539765 0.00040166115 -0.016610777
000030 38 05 5f 3b 42 34 2b 3c 88 b4 28 bb 0e 94 96 bb
       0.003403021 0.010449471 -0.002574237 -0.004595286
000040 71 b1 7b 3c d8 bf 48 3c a0 ad de bc 3b a9 c5 bb
       0.01536213 0.01225277 -0.0271824 -0.0060321367
000050 f3 b3 16 ba 3f c2 7a bb 68 4a dc 3b 86 dd 93 3b
       -0.00057488604 -0.0038262752 0.006722737 0.0045124916
000060 2a c4 e6 3b a5 45 72 3c cd ba 1c 3b 25 b5 53 3c
       0.0070424275 0.014787112 0.0023915053 0.012921606
000070 0c e7 15 bb 5f d3 78 3b f2 50 35 bc 25 0c c5 3b
       -0.002287331 0.0037967784 -0.011066662 0.0060134106
000080 8f 56 5c 3c 64 e4 f2 3c f5 ad 1e bb 82 5a b7 3c
       0.013448372 0.02964992 -0.0024212573 0.022382025
000090 91 5b 46 3c 43 7f 82 bc 42 f1 a3 b8 69 ef ee 3a
       0.012106792 -0.015929824 -7.8173834e-05 0.0018229309
0000a0 a1 71 92 3c 9c 00 28 3c 31 1f ad bb 08 9a f8 bc
       0.017876448 0.010254052 -0.0052832593 -0.030346885
0000b0 ab 9c 1c bb 0d 83 a3 3b bd 66 03 3c 93 9e b7 3c
       -0.0023897092 0.0049899877 0.0080201 0.022414481
0000c0 95 0f 74 3c 8b b8 87 3c 4f 38 1b bc ae 07 00 3c
       0.014896293 0.01656749 -0.009473874 0.007814331
0000d0 d3 37 94 bb 37 e7 2b 3c e5 85 00 3a 6c 5d fa 3a
       -0.0045232563 0.010492138 0.00049027643 0.0019101328
0000e0 e3 cc 03 3b 32 2a 5f 3c c2 bb ce ba 6a fa 7c 3c
       0.0020111136 0.0136209 -0.0015772509 0.015440563
0000f0 8c bc bc 3c 8e da 11 bc 36 56 e3 3a 0f 8e 8e ba
       0.023039125 -0.008902205 0.0017344418 -0.0010876077
000100 5e 6f 4e 3c 60 0a d2 3b 09 03 e0 bb 04 73 44 bc
       0.012599794 0.006409928 -0.0068362993 -0.0119903125
000110 09 8e cd bc 6e e1 a6 bc 4c b6 03 bc 58 6a 9a 3c
       -0.025092142 -0.020371165 -0.008039068 0.018849537
000120 e7 c9 f4 bb 9c 65 25 3b 90 f9 ab bb e7 90 59 3c
       -0.0074703577 0.0025237566 -0.005248256 0.013279176
000130 7a 52 76 3b d5 5b 2c ba a5 b0 f8 3b 2b 71 67 bb
       0.003758578 -0.00065749633 0.007589417 -0.0035315256
000140 7b a0 50 3c 45 fd 9b bb a1 9b 01 bc f6 26 ef bc
       0.012733574 -0.0047604167 -0.00791064 -0.029193383
000150 b7 5b 09 3c 03 9d 99 3c 76 09 15 3c d0 f8 41 3b
       0.008383683 0.018751627 0.009096494 0.0029597767
000160 e7 f2 81 3c 81 e8 86 bc 8f a5 0c 3c 3e 93 c1 bc
       0.015862895 -0.016468288 0.008584394 -0.02362978
000170 06 73 c3 3c cd fb df bb 0c 86 4d 3b 32 98 06 bb
       0.023858558 -0.006835437 0.0031360416 -0.0020537493
000180 20 51 44 bc 06 3b 45 bc 9b f0 81 3c 96 1c df 3c
       -0.011982232 -0.012037998 0.0158618 0.02723531
000190 8d 45 2f bc a1 01 9a bb 4a a4 d9 3b 1a 72 07 3c
       -0.010697735 -0.004699901 0.0066418992 0.00826695
0001a0 9a 93 0d bb a3 79 62 3c 98 82 c5 bc ce 26 fd bb
       -0.002160287 0.013822946 -0.024110124 -0.007725573
0001b0 9b 4b f1 39 42 54 bb 3c 74 66 0f 3c fb 5c 50 3c
       0.00046023433 0.022867326 0.008752454 0.012717481
0001c0 59 57 b0 37 92 da 57 bc 00 6d 16 ba 56 00 87 3c
       2.102151e-05 -0.01317467 -0.0005738288 0.016479652
0001d0 66 c2 8d 3c 9a 5d 82 bc 9b ba 88 bb 49 b6 b2 bb
       0.01730461 -0.015913773 -0.0041726357 -0.005453859
0001e0 a8 e8 a8 3a 1e 96 2b 3b 26 cc ab bc de c1 bb 3c
       0.001288672 0.0026182006 -0.020971369 0.022919592
0001f0 59 7c b8 3b b1 6c 0a ba f0 bd b6 3c b3 7f fa bc
       0.005630058 -0.00052804785 0.022307366 -0.03057847
000200 24 70 90 3c e7 3e a3 3c 04 10 dd ba b3 13 2a bc
       0.017631598 0.019927455 -0.0016865735 -0.010380673
000210 76 a9 66 3a 0c f2 b3 bb 80 1e 40 ba e3 8e 6e bc
       0.00087990554 -0.0054915007 -0.00073287636 -0.014560434
000220 c5 b5 e6 bb 32 07 22 3c 94 fd d1 3b 7e 9e 2f bc
       -0.0070407116 0.009889411 0.0064084027 -0.01071894
000230 a2 73 d9 bb 8f d0 82 3c d1 ef 83 3c 7a 58 8a 3b
       -0.006636099 0.01596859 0.016105564 0.004221973
000240 63 c7 3c 3c 02 33 be 3c 54 4a a7 bb a4 e2 34 bc
       0.011522147 0.023217682 -0.005105296 -0.011040363
000250 df 61 d7 bb 86 80 27 3c d6 d8 35 3c ad b9 c2 bb
       -0.0065729464 0.0102235135 0.011099061 -0.0059425444
000260 05 f5 6d bb 52 3f d5 bb e2 c2 c5 ba cc 20 f2 3b
       -0.0036309373 -0.0065077925 -0.0015087987 0.0073891636
000270 bc c7 1d 3c de 15 1d bc 67 06 14 bb 88 76 9d 3b
       0.00963014 -0.009587733 -0.0022586824 0.00480539
000280 78 4f ea bb 9f 46 02 3b 99 a2 e2 3a 52 9a ff bb
       -0.0071505867 0.001987852 0.001729089 -0.007800379
000290 e4 ae 2d 3c 83 08 9a bb 0c ed 1a bb 8c d7 8c 3b
       0.010600779 -0.0047007217 -0.0023639826 0.004298156
0002a0 a6 04 9c 3c 7f cb a2 3c 5d ec 66 3c a6 94 c6 3b
       0.019045185 0.019872425 0.014094439 0.0060602007
0002b0 a6 11 f2 bb 4a 32 87 3c e5 1a 4d 3c 25 68 dc 3b
       -0.0073873578 0.016503472 0.012518619 0.006726282
0002c0 c4 72 b9 3c d0 b1 7a 3c 5d 9d 9f bc 84 f4 6b 3c
       0.022637732 0.015301183 -0.019484216 0.014401559
0002d0 9b d6 08 3b 98 70 11 bb 33 da 09 ba 57 63 58 bc
       0.0020879868 -0.0022192355 -0.00052586495 -0.013207278
0002e0 bc 7c 78 3c df 46 05 bc 98 57 eb 3b 91 68 91 bc
       0.015166458 -0.008134573 0.007182073 -0.017750056
0002f0 20 76 7a 3a e9 b9 7e bc 5a e0 10 3b db b7 03 bc
       0.0009554345 -0.015547254 0.002210638 -0.00803944
000300 f6 e4 a6 bb f7 70 84 3c 2a 7c 51 3b 3b 5b 7e 3c
       -0.0050932122 0.016167147 0.0031964877 0.015524681
000310 17 dc 26 bc 1a 17 66 ba f0 af 20 3b 52 f2 75 3a
       -0.010184309 -0.0008777246 0.002451893 0.0009382117
000320 41 81 12 3c 24 6f 3a 3c e3 0d b6 bb 99 81 80 ba
       0.008941949 0.011379037 -0.0055558546 -0.0009804248
000330 3e 65 86 3c 30 04 6c bc 4a 41 9b bb 89 41 99 3b
       0.016405698 -0.014405295 -0.0047380077 0.004677002
000340 14 39 26 b8 33 d4 c3 3c 5d 8d b8 bb 8b a0 d1 3b
       -3.9630642e-05 0.023904895 -0.005632086 0.006397312
000350 4b 90 0e bb 15 d1 83 3c 8a 90 4c bc 21 62 8a 3c
       -0.0021753486 0.016090909 -0.012485633 0.016892495
000360 43 76 3a 3c eb 3a 95 3c df 4d 38 bc b1 10 29 39
       0.011380735 0.01821657 -0.011249035 0.00016123314
000370 1d fd 03 3c e6 97 e5 bb b8 f1 7c 3a 3e ab 61 3c
       0.008055952 -0.007006633 0.0009649056 0.0137737375
000380 0e 50 a5 bc 9f ed d1 3c ee 6c ab 3b ce 77 13 39
       -0.020179775 0.025626002 0.0052314913 0.00014063643
000390 02 19 d2 3a 03 32 4f bb 8d 18 c1 3a e9 23 d5 bc
       0.0016029181 -0.0031615503 0.0014732048 -0.0260181
0003a0 57 fa 34 3a 86 0f 57 3c aa 69 b7 3b 29 31 bd 3c
       0.00069037586 0.01312626 0.005597313 0.02309473
0003b0 c1 88 36 3c 04 47 09 bb ac c9 03 bb a4 ee 37 bb
       0.011141003 -0.002094687 -0.002010922 -0.0028065825
0003c0 71 4d 99 3b c4 0f 49 bb 13 ff 31 39 84 86 c8 3b
       0.004678421 -0.0030679563 0.00016975058 0.006119551
0003d0 8f d8 81 bb 1a 03 0b 3c 4b fd 0f bc bd 18 7b 3b
       -0.0039625834 0.008484626 -0.008788417 0.0038314306
0003e0 de 22 bc 3c c9 5a f1 3c 8e b6 a7 b9 d6 4c 86 3c
       0.022965845 0.029462235 -0.00031988736 0.01639406
0003f0 65 c1 13 3b d7 66 b1 bb ce 29 79 ba 70 5d 3c 3c
       0.0022545692 -0.005413871 -0.00095048256 0.011496887

action_model._discrete_distribution.branches.0.bias f4 [2]
000000 cf 01 79 bc cc 01 79 3c
       -0.015198185 0.015198182

action_model._discrete_distribution.branches.1.weight f4 [3, 256]
000000 06 79 49 39 e8 31 16 3c fa 7d da 3b d2 d5 1d bc
       0.00019213939 0.009167172 0.0066678496 -0.009633498
000010 ef 4f 6d 3c 05 b4 55 3c 25 a6 04 3c c6 c3 45 bc
       0.01448439 0.013043408 0.008096253 -0.012070602
000020 38 71 ca 3a 19 92 9a ba 27 79 b4 3c bb 09 b4 bb
       0.0015445119 -0.0011792808 0.022030426 -0.005494324
000030 d3 1d 1c 3c d1 c2 59 bc d7 a0 88 3b 79 d5 69 bb
       0.009528595 -0.013291077 0.004169564 -0.0035680218
000040 32 53 2d 3c f2 71 65 3a 85 ea 87 3b 76 94 89 3c
       0.010578917 0.0008752636 0.00414783 0.016794425
000050 0e 2f 89 bb 2f 3d 31 ba 95 58 5d bb 0d fa 18 bc
       -0.0041865176 -0.0006761131 -0.0033774723 -0.0093369605
000060 ea 74 1a 3c 3d a8 4e bb cd 8f 68 3a 19 aa 65 39
       0.009427289 -0.0031533383 0.00088715256 0.00021902508
000070 a4 cd 9a bb 95 d8 b9 bb 24 a1 53 3c d3 88 4b bb
       -0.0047242213 -0.0056715705 0.012916837 -0.0031056895
000080 fd ad 85 bc 05 a7 f7 b9 9c 39 08 3c 1e 4f 32 bc
       -0.016318316 -0.0004723595 0.008314516 -0.010883121
000090 17 da 12 ba b8 11 8d b9 9e 95 91 b9 ef 90 28 3c
       -0.0005601956 -0.00026906817 -0.0002776803 0.010288461
0000a0 e3 dd 83 3b e3 de 5b 3b 36 7d 3b ba c5 4a 28 bb
       0.0040242537 0.00335496 -0.0007152142 -0.0025679332
0000b0 7f 66 84 3a 9e 23 86 3b 4e 4c 0f 3c 68 05 95 3b
       0.0010101347 0.0040936014 0.00874622 0.0045477636
0000c0 9a 61 3b 3b 5f 6b 5e bb 5b 53 0a 3c 2a d2 ca bb
       0.002859211 -0.003393851 0.008442725 -0.0061896043
0000d0 4b ff 07 3c 64 ad 02 bc 48 e7 09 3b a9 d0 9a bb
       0.008300613 -0.00797591 0.0021042395 -0.0047245813
0000e0 3d 6d 77 3b d9 ab c1 bb 06 37 1b 3b 58 1c 67 bb
       0.003775432 -0.0059103784 0.002368392 -0.0035264697
0000f0 b3 0a 36 3c cf 5e 3c 39 f3 4e 67 bb df 51 d9 3b
       0.011110949 0.00017964396 -0.003529486 0.0066320742
000100 8b 48 c7 3b bc cb d7 bb 3c c5 18 3a 81 3c cc bb
       0.006081646 -0.0065855663 0.000582773 -0.0062327986
000110 e2 21 d1 3b 81 c1 30 3c e4 08 1f 3a fa 35 85 3a
       0.006382213 0.010788322 0.00060666935 0.0010163181
000120 7f cf 53 3b 66 35 b3 ba 5e f0 47 bb 87 dc 43 bb
       0.0032319722 -0.001367253 -0.003050826 -0.0029886083
000130 8c 25 86 bb ff a6 a5 bb d8 a7 45 3c 62 44 c4 bc
       -0.0040938314 -0.005055308 0.012063943 -0.023958389
000140 91 ae 20 bb 11 9f e2 ba a6 3c e2 3b 6a 90 2c 3b
       -0.0024518112 -0.0017289837 0.0069042025 0.0026331195
000150 6b 24 15 bb 27 56 2b 3a 4c 19 6d 3a 94 87 56 bb
       -0.0022757303 0.000653597 0.0009044602 -0.003273462
000160 ff 87 2e bb 25 8f 74 bb 12 04 e3 bb b6 77 71 3c
       -0.0026631353 -0.0037316766 -0.0069279755 0.014738014
000170 09 ae c1 3b 1b 33 0f 3c f4 88 0b 3b 61 ac d7 bb
       0.005910639 0.008740212 0.0021291347 -0.0065818285
000180 b7 8a e9 3b 66 aa 78 bc 79 69 77 3b 69 7c 91 bb
       0.007127132 -0.015177345 0.0037752076 -0.0044398797
000190 04 7c 27 bb e8 6a a2 3b 36 65 d1 3b c1 65 60 3a
       -0.0025556097 0.004956592 0.006390239 0.00085600844
0001a0 d8 41 87 3b 61 1e 03 bc 4a 81 a2 bb 19 6b ed 3b
       0.0041277222 -0.008002848 -0.00495926 0.007245433
0001b0 f8 f8 06 3c cb a5 8d bb 1a 30 fc 3a 0c 78 37 bc
       0.00823807 -0.0043227426 0.001924041 -0.011198055
0001c0 fb 55 ca 3b f5 f9 d9 ba bc 1e 50 3c e1 45 ef 3b
       0.0061748005 -0.0016630279 0.01270264 0.0073020314
0001d0 63 6c ab 3b f3 c1 3b 3b 1d 2b a7 3a 59 02 cc ba
       0.0052314266 0.0028649538 0.0012753938 -0.0015564664
0001e0 54 37 a2 3b ec fa c5 bb 86 e8 39 bc 76 dc af 3b
       0.0049504433 -0.006041875 -0.011346942 0.005366857
0001f0 5f 15 83 bc d9 2e 0c 3b c8 4f 78 bb b8 c7 9a 3c
       -0.016001401 0.0021390228 -0.003788935 0.018894061
000200 59 3f 5b 3b 96 16 3b bb 59 98 3d bb 5b f0 09 bc
       0.0033454506 -0.0028547398 -0.0028929918 -0.008419122
000210 6d 92 84 3c 3c 59 22 bb cf 9f a5 3b 9d db be ba
       0.016183103 -0.0024772426 0.005054451 -0.00145613
000220 d9 d9 43 39 7a cd 2e 3b b0 1b 4e bb df 6d d3 3b
       0.00018677804 0.0026672767 -0.0031449609 0.0064523066
000230 ba f4 20 3c a4 18 21 3c f3 c6 0d b9 87 ae 15 bc
       0.009823972 0.009832535 -0.00013520922 -0.009135849
000240 ba 1c 0d 3c 2a d5 df 3b 84 71 27 bc 25 9a 14 3c
       0.008612806 0.006830831 -0.010219935 0.009069954
000250 d3 8f 83 3c f1 57 87 ba 07 d1 b2 3a 8a 4e 6f 3b
       0.016059792 -0.0010325891 0.0013642617 0.0036515319
000260 41 f6 ae bb 58 ef 3a 3b e9 53 1c 3c 9e 42 8c ba
       -0.0053394143 0.0028524008 0.00954149 -0.0010701006
000270 cb 41 2f bb 54 0b 29 bc 9b 5b 41 bc fa a4 c9 bc
       -0.0026742097 -0.010317642 -0.011801626 -0.0246148
000280 d7 f3 79 bb e3 07 65 bb 20 b8 78 3b b8 d8 d7 bb
       -0.0038139725 -0.0034947328 0.0037951544 -0.006587114
000290 8e 4b c9 3b 98 6a d7 b7 95 92 47 3b 9c 8a b9 3b
       0.00614304 -2.5679634e-05 0.003045236 0.0056622755
0002a0 79 a6 a6 bb 37 92 91 3c 64 6d 0b bc 73 c5 30 b9
       -0.005085763 0.017769916 -0.0085099675 -0.00016858224
0002b0 2e fb 4d 3c 0f ae 10 3c 16 33 f8 39 3f de f1 3b
       0.012572093 0.008830561 0.00047340308 0.00738123
0002c0 02 63 d6 3b 0c 71 1d 3c ab f3 91 3a 65 8a 8b 3b
       0.0065425644 0.009609472 0.0011135241 0.0042584413
0002d0 7c f6 00 3c d0 75 26 bc 5d fa dc ba 87 4b a7 3b
       0.007871266 -0.010159925 -0.0016859282 0.005105439
0002e0 a4 a1 d4 3b cc b5 db bb 58 40 39 3b 2c 2b 73 3c
       0.0064889956 -0.0067050215 0.0028267112 0.014841836
0002f0 05 d2 5b 3b e3 4e 4f bc 15 f3 d4 3a 81 9f ab 3b
       0.003354193 -0.012653085 0.001624676 0.00523752
000300 a5 d4 a2 bb aa 72 e7 3b 08 ec 1a bc 80 9c 88 3c
       -0.004969197 0.0070632296 -0.009455688 0.016676188
000310 a4 16 d9 b9 f5 36 c6 bb 94 c9 0a bc 8c 0d 3d bc
       -0.00041406334 -0.006049032 -0.0084709115 -0.011538874
000320 2a 3a 83 3c be 6e 92 bb 0d 32 98 3b f6 7d e0 bb
       0.016018946 -0.004468768 0.0046446384 -0.006850953
000330 e1 cb 9a bb a6 70 74 3b 3f a6 52 3c cc 0e 47 bb
       -0.0047240113 0.003729859 0.012857019 -0.003037381
000340 cc 94 ff 3a dc 0b c0 bb f2 d9 71 3b a0 8d 67 3b
       0.0019499301 -0.0058607887 0.0036903587 0.0035332218
000350 13 f6 06 3c a8 2d 38 3c f7 e1 d1 bb 37 19 fe bb
       0.00823738 0.011241354 -0.006405111 -0.0077544707
000360 25 47 f7 bb 20 45 9e 3b f6 e4 57 3b a6 07 13 bc
       -0.007546323 0.0048300177 0.0032942868 -0.0089739915
000370 b4 ea d9 3b 05 ad a9 bc d2 8e 95 3b 23 22 a3 3a
       0.0066502932 -0.020712385 0.0045641446 0.0012446087
000380 87 37 ff ba 20 b0 05 3b a3 57 0a bc 2d 52 d7 3a
       -0.0019471504 0.0020399168 -0.008443746 0.0016427689
000390 f9 b4 04 3c ed a1 95 38 a1 8f 96 bc 8b 91 34 3a
       0.008099788 7.135035e-05 -0.018379034 0.00068881427
0003a0 99 d0 b6 bb d4 d2 03 bc f6 d9 4e 3b 97 fc a2 3b
       -0.005579066 -0.008045871 0.003156302 0.0049739587
0003b0 3c e8 b2 3b e9 ae 8d 3b 68 bc 8c bc 40 62 3d 3a
       0.0054598134 0.0043238294 -0.017179683 0.0007224418
0003c0 3e 3a e5 ba 8c 76 1a 3c c6 ca 36 bc ea 59 2f bb
       -0.0017488671 0.009427678 -0.011156743 -0.0026756474
0003d0 75 3a 3c 3c 8d 9d 09 bc 0a c7 a4 bb ba a3 95 ba
       0.011488547 -0.008399379 -0.00502861 -0.0011416592
0003e0 4a 97 1c 3c a7 d3 de 3b 28 56 8b bb 99 28 9a 3b
       0.0095575545 0.0068001333 -0.004252214 0.0047045466
0003f0 52 85 2c bb 66 ef 2b ba 22 df 45 3a 5c 18 2f bb
       -0.0026324582 -0.00065588055 0.0007548203 -0.00267174

action_model._discrete_distribution.branches.1.bias f4 [3]
000000 00 50 16 bb 64 54 2a bc e9 82 52 3c
       -0.0022935867 -0.010396097 0.012848594
