results/skillBoat/boat/boat-1250015.onnx (onnx, 340257 bytes, 11 tensors)

discrete_act_size_vector f4 [1, 3]
000000 00 00 00 40 00 00 40 40 00 00 00 40
       2.0 3.0 2.0

network_body._body_endoder.seq_layers.0.weight f4 [256, 58]
000000 7d 87 55 be f2 e6 a0 3d 37 9b 7d 3d f4 44 7d be
       -0.20852466 0.07856549 0.061915603 -0.24733335
000010 91 94 9c 3c 84 35 7b be f6 48 1e be 9f 58 dc bc
       0.01911381 -0.24532133 -0.1545752 -0.026897727
000020 12 c2 18 bc 82 08 14 be 81 f6 29 3e 8d b3 22 3d
       -0.009323614 -0.1445637 0.1659794 0.039722014
000030 aa bf cf bd 80 44 72 3c bf 68 05 bc dd 07 49 3e
       -0.10143979 0.0147868395 -0.008142649 0.19631906
000040 7c bd 85 3d c9 f7 0f 3d 65 d3 c0 3d 4e 9a 6b 3e
       0.06530282 0.035148416 0.0941532 0.23008081
000050 4b 2b 55 be 6d 78 8b 3c 6d 7c 1e be a1 c7 22 be
       -0.20817296 0.017025197 -0.15477152 -0.15896465
000060 3d df c4 3b 1f 19 97 3b b4 78 4e 3d 45 f9 02 3e
       0.0060080574 0.004611149 0.05040808 0.12790401
000070 a6 58 85 3e 4e 5e 38 bd e1 a1 92 bc c2 20 34 3d
       0.26044196 -0.04501181 -0.017899456 0.043976553
000080 37 eb 77 3a 33 39 a1 3c 18 a8 67 be d5 2f 61 3d
       0.0009457352 0.019680595 -0.22622716 0.054977257
000090 e5 fc 6d be b0 ba 83 be e7 e9 a4 bc 99 93 1f bb
       -0.23241003 -0.2572837 -0.020131065 -0.002434945
0000a0 50 cf 84 bd 25 b2 53 3e d0 40 90 bd c1 9a 45 be
       -0.06484854 0.20673425 -0.07043612 -0.19297315
0000b0 b0 fe 4d 3d b6 7a 54 3e fd 27 0b be 32 17 e7 bd
       0.050291717 0.20749936 -0.13589473 -0.11283721
0000c0 b4 55 eb 3d 63 63 a5 be 5d aa 8f bd e1 bd 57 3e
       0.11490956 -0.3230239 -0.07014916 0.21068527
0000d0 8b 8b 59 be 44 49 84 bd 79 b3 f4 bd 1b 0c cc bc
       -0.21244638 -0.06459287 -0.11948294 -0.024908116
0000e0 82 e4 b0 bb d6 8f c5 3d 92 46 16 be 88 8a 1c 3c
       -0.005398334 0.09646575 -0.14675358 0.009554513
0000f0 fd e4 cc bc 0e 3b a6 bd 30 c3 fb bd a9 68 61 3d
       -0.025011534 -0.081167325 -0.122930884 0.055031452
000100 43 27 16 3c 74 eb 3b bd 2c c9 fb 3d 5b 0a bd 3d
       0.009164634 -0.045878842 0.1229423 0.09230491
000110 9d a2 5b 3e 70 9f 98 bc fc 7f 3e 3e df 43 2f be
       0.21448751 -0.018630713 0.1860351 -0.17115735
000120 62 87 ad 3c aa 9a 47 3c 47 59 ae be 6f 6c db bd
       0.02118272 0.012182871 -0.34052488 -0.107140414
000130 6c ea 7b 3e d0 73 62 3e c6 a2 d5 bd 8c 1f 8c 3d
       0.24601144 0.22114491 -0.10431437 0.068419546
000140 27 62 8b bc 41 2d 92 bd 63 2b e4 3d ac 81 fb bc
       -0.017014576 -0.07137538 0.11141088 -0.03070148
000150 d1 51 34 be 56 10 c6 bd 57 28 c9 bc 4f 73 95 3b
       -0.17609335 -0.096710846 -0.024555368 0.004560865
000160 13 c7 68 be 10 25 69 3d f0 87 de 3b b3 46 17 3e
       -0.22732191 0.05692011 0.0067911074 0.14773063
000170 41 7c c5 3d 82 92 0c be d2 22 30 bd 92 b4 89 bd
       0.0964284 -0.13727763 -0.043001957 -0.06723894
000180 21 9d 58 be 3d d2 b8 bc 9e ed 99 3d 00 7b c0 bd
       -0.2115369 -0.022561187 0.07516025 -0.093984604
000190 cf a2 9a 3e 11 75 87 3d ec 62 2f 3e ac c0 e9 bd
       0.30202338 0.066141255 0.1712758 -0.11413702
0001a0 7b 6d 5d 3d 4e b2 24 3e df ca 0c 3d 75 cb 0b be
       0.054059487 0.16083643 0.03437316 -0.13651831
0001b0 8a b8 86 bd e3 82 bd bc dd a6 91 3c 0e 03 f9 3d
       -0.06578167 -0.0231337 0.017779762 0.12158786
0001c0 3e 29 56 be 45 84 8e bd 86 8c 35 3e db ca 4b 3d
       -0.2091417 -0.06958822 0.17729387 0.049754005
0001d0 70 ab ab bd d0 42 5d 3e ac 18 8b bd 53 bb 08 3e
       -0.083823085 0.21607518 -0.06791815 0.13352709
0001e0 d9 72 68 bc 9b 00 f3 bb d4 92 af 3d 5b f9 07 bd
       -0.014187538 -0.0074158437 0.08572927 -0.03319679
0001f0 32 fc 88 3c 20 6b dd bd 7c da 5c bc 7e 1e ef 3c
       0.016721819 -0.10811448 -0.013479825 0.029189344
000200 5c ad c2 3d ba 76 5a be 31 7f 89 bc 57 ce c5 bd
       0.09505722 -0.21334353 -0.016784282 -0.09658497
000210 2d 77 40 bd 52 0b 0f bd b5 d4 72 bd 7d 8b 86 bd
       -0.046988655 -0.034922905 -0.059284884 -0.06569574
000220 78 04 e7 bd 35 ea 97 bc 31 f0 39 3d 65 2d e6 bd
       -0.11280149 -0.018544296 0.04539508 -0.11239127
000230 c5 0a 2c 3e b5 07 fd 3d f6 02 e4 3d 11 49 e3 3d
       0.16800983 0.123549856 0.11133377 0.11097921
000240 1e e7 17 3e 01 a2 9a 3d ea 75 0b 3d f4 30 04 bb
       0.14834258 0.07550431 0.034048 -0.002017078
000250 8f 6e a4 3d 26 d6 f9 bd c0 fa 85 be a2 b6 52 3e
       0.080289 -0.12199049 -0.2616787 0.20577481
000260 4f 53 24 be a2 38 ed 3b f1 58 38 bd 54 e5 13 3d
       -0.16047405 0.007239417 -0.045006696 0.036107376
000270 c7 0f 4d 3e 9b 05 cd 3d ee bc bf bd bd be f4 bd
       0.2002555 0.10010835 -0.09362207 -0.11950443
000280 03 c1 a4 bd bd 67 39 be 8b 05 0c be 25 d7 4f be
       -0.080446266 -0.1810598 -0.1367399 -0.20296915
000290 48 41 c4 3d 7f bb df bc 63 b7 48 3d ca ad b1 bd
       0.09582764 -0.027311085 0.049003016 -0.08675726
0002a0 00 da fe bd d7 21 db 3d bb f6 a8 3d 70 51 1a 3d
       -0.12443924 0.10699814 0.08250185 0.03767532
0002b0 d1 55 80 bd cb 9d 2d be a6 10 83 be d1 40 2d 3e
       -0.06266368 -0.16954724 -0.2559864 0.16919257
0002c0 76 92 fb bd d1 a7 86 3e d9 9e 8d 3e 56 dd 83 be
       -0.122837946 0.2629991 0.27660254 -0.25754803
0002d0 62 b5 1a 3e a4 f5 37 3d 50 cf 8f be 83 81 3a 3d
       0.15108255 0.044911996 -0.28087854 0.04553367
0002e0 fc 8f 5a 3d 93 43 a4 3c 2d 6e ae 3d 54 90 96 bd
       0.05335997 0.020051753 0.08517108 -0.07351747
0002f0 c3 bc c8 3d 34 d6 c1 3d 1d b3 e2 3d 40 50 20 be
       0.098016284 0.09464684 0.110693194 -0.15655613
000300 00 0f 91 3e 37 d9 96 be 6e 68 ce 3c 03 ca 33 3e
       0.28331757 -0.29462597 0.02519628 0.1755753
000310 2c e7 79 bd c1 01 a1 3e d6 16 02 3e 36 0f 9f bc
       -0.06101148 0.3144665 0.12704024 -0.019416433
000320 0d 60 c1 bd 22 f9 24 3e 32 8e 36 bd ce 94 03 3e
       -0.09442148 0.16110662 -0.0445692 0.12849733
000330 2a a9 84 3d f2 3c 6f bd 2c 42 14 3d 85 c2 5f 3e
       0.06477578 -0.05840773 0.03619592 0.21851547
000340 da 0e b4 3d 48 be c4 bd 25 3f 78 bd cb ab 64 3d
       0.08791895 -0.09606606 -0.060607094 0.055827897
000350 e9 62 a5 3c 1b 81 2f be 7a 2f 16 bc 23 4a 5a be
       0.020188766 -0.17139094 -0.009166593 -0.21317343
000360 8c 4c 37 be 1a 7c b2 3e d7 9f fd 3d bb 38 39 bd
       -0.17900294 0.34860307 0.12384003 -0.045220118
000370 a7 4f 14 be 77 f4 83 3e 3b 8b f0 3c 8a ad f3 3d
       -0.1448351 0.2577245 0.029363265 0.11898334
000380 8a 62 9f 3c 8d 50 1b 3e 71 55 18 3d f1 2d 77 bd
       0.019456167 0.15167446 0.03719086 -0.060346548
000390 8a 2d 95 3d c0 1a f7 3d af f4 ca 3d b7 dd f3 3a
       0.072840765 0.12065649 0.09909951 0.0018605505
0003a0 a9 c5 f9 bc 5a f0 95 bd e0 b6 99 bd 66 79 a4 3d
       -0.03048976 -0.07321234 -0.07505584 0.080309674
0003b0 91 c7 9d 3c 03 72 16 bd 7f 86 bd 3d 37 81 fc 3d
       0.0192602 -0.036729824 0.09254169 0.12329333
0003c0 85 48 02 be ba c3 54 bd 7e e9 00 3e da 5c 2a 3e
       -0.12722977 -0.051944472 0.1258907 0.16636983
0003d0 95 28 c0 3c c0 f2 8f bb 0d 2e 0b 3d 7c 81 e6 bd
       0.023456851 -0.0043929517 0.033979464 -0.11255166
0003e0 55 fc a1 3d b8 6d 7c 3d 14 e7 b8 3e 31 c3 5c 3d
       0.07909457 0.061628073 0.361138 0.053897087
0003f0 01 c4 3e 3e 7a 25 48 bd ba 17 c5 3c 15 ad 7f 3d
       0.18629457 -0.048863865 0.024059165 0.062420923

network_body._body_endoder.seq_layers.0.bias f4 [256]
000000 8d 0b 89 3b 42 69 b6 3b 49 73 86 bc 25 9d 33 3d
       0.004182285 0.005566747 -0.016412394 0.043851037
000010 81 5b af 3b b0 37 3e bb a7 56 f7 bc ce 5e c7 bc
       0.0053514843 -0.0029024892 -0.030192686 -0.024337199
000020 6a 99 5c 3c e8 48 15 bc d0 cc 72 3b d6 09 4c bc
       0.013464311 -0.0091116205 0.0037048347 -0.012453517
000030 31 eb c9 bb b8 d6 79 3b 56 e8 df 3b 08 56 06 bc
       -0.00616207 0.0038122367 0.0068331165 -0.008199222
000040 e1 15 ee bc 78 cf 91 3c ac 7e d9 bc 8e 01 2f 3c
       -0.029063167 0.017799124 -0.02654966 0.010681523
000050 a7 83 95 bb 48 a4 72 3c c1 83 ac bc 30 45 52 bb
       -0.0045628133 0.0148096755 -0.021058919 -0.0032084696
000060 a4 a5 d1 bb 50 6c d7 3c 17 dc 66 3c 94 77 11 bc
       -0.0063979197 0.026296765 0.014090559 -0.008878607
000070 8d 4d 05 bd 24 04 ff bb 02 4a 4b bc bd a4 19 3c
       -0.03254466 -0.007782476 -0.012407782 0.009377656
000080 0e 34 c8 bc d6 31 41 3d ea 07 60 b9 8a 2b ab 3c
       -0.024438884 0.047166668 -0.00021365253 0.020894784
000090 bf 0f a2 ba 69 c2 7c 3b cc 71 ad 3c 9f 78 67 3d
       -0.0012364312 0.0038568026 0.021172427 0.056511518
0000a0 ff 14 20 3c 2b d3 27 bc ee ee 55 3d b1 31 d9 3b
       0.009770631 -0.010243217 0.052229814 0.006628238
0000b0 61 37 e8 bb 93 4a 1e bc 2e ee d4 bc 84 6d 0c bc
       -0.00708668 -0.009661335 -0.02599248 -0.008571032
0000c0 36 71 6e bb 7e fc cb b9 df d4 17 bd 15 57 b2 bb
       -0.0036383397 -0.000389073 -0.037068244 -0.00544251
0000d0 97 1b 3f bc 36 0e b7 bc 98 fe 25 3d 5f 34 4a bc
       -0.011664293 -0.022345643 0.040526003 -0.012341588
0000e0 9f 49 2a 3c b3 9c 81 3c e0 f9 d9 bb fd 44 a3 ba
       0.010393529 0.01582179 -0.006652102 -0.0012456473
0000f0 90 3c b5 ba 68 57 4c bc 3c ff e4 bb 3a 1b 02 bd
       -0.0013827253 -0.012472011 -0.006988434 -0.031764247
000100 18 e7 10 3a 08 36 0f bc df df c9 ba af 29 1f bc
       0.00055276 -0.008740909 -0.0015401802 -0.009714528
000110 d6 73 c9 bc 44 92 ab bc 76 b0 51 3c 08 29 20 bb
       -0.024591368 -0.020943768 0.012798419 -0.002443852
000120 77 3f ef bb 50 93 71 bb 63 e6 e2 bc 7d 67 b8 3b
       -0.007301267 -0.0036861487 -0.027697748 0.005627571
000130 0a a2 45 bc 5e ce 06 3d 34 1e 82 bb c0 8f 89 3c
       -0.012062559 0.03291165 -0.0039708856 0.016792178
000140 d6 08 88 3c eb 51 e7 3b 7b 52 c6 3c ac 49 45 3c
       0.016605776 0.007059326 0.024209252 0.0120414905
000150 7c f5 82 bb 66 36 cf 3c 5f 00 d2 3c 2f f3 30 bc
       -0.003996549 0.025294494 0.025634943 -0.010800167
000160 66 f7 59 bc 04 99 82 3b 77 a8 54 bc 4f 0b 47 3b
       -0.013303613 0.003985526 -0.012979618 0.003037173
000170 ab 65 ed 3b 9b f0 36 3c 10 35 8c 3c ce 23 dc 3b
       0.007244786 0.011165763 0.017115146 0.0067181354
000180 a8 4e d5 bc 17 55 c6 bc 94 de 8f bc e2 fa d2 3a
       -0.026038483 -0.024210496 -0.017562188 0.0016096497
000190 bf 2d 92 bc 59 9d 1e bd 1d 27 34 bc 95 86 08 3d
       -0.017844079 -0.038724277 -0.010995653 0.033331472
0001a0 7a 6a be bc c7 46 e2 3b 0b 22 cf 3c 21 9c 18 bc
       -0.023244131 0.00690541 0.025284788 -0.009314568
0001b0 fa 26 02 bd 75 b3 2e bb db 83 e1 3c 26 b3 a1 bc
       -0.031775452 -0.0026657258 0.027528694 -0.019738745
0001c0 41 bc c4 bb 9d ad 05 3c 36 62 b4 3b a7 ef 37 bc
       -0.006003887 0.008159068 0.0055048717 -0.011226571
0001d0 9e 65 2a 3b 07 70 1a 3d 05 65 09 3c 3e 46 9d bc
       0.002600051 0.037704494 0.008385901 -0.019198533
0001e0 80 bc 9d 3c f0 16 d0 3a a6 e8 f2 b9 d4 9b 12 3d
       0.019254923 0.0015875977 -0.00046331174 0.03579314
0001f0 73 9f 8d bc 1e 53 e0 3b 9d 71 c4 bb d7 8e bf 38
       -0.017287945 0.006845846 -0.005994989 9.134196e-05
000200 41 aa 65 bb 60 a5 2d 3b c4 47 e4 bb 09 bc 84 3b
       -0.0035044106 0.0026496276 -0.006966563 0.004050736
000210 77 55 ce 3c 21 e5 bf bc fa 05 66 3c 55 9b b0 bc
       0.025187237 -0.023424687 0.014039511 -0.021558443
000220 ef d4 05 bd 15 8c ad bc 86 7d 05 3d ba b2 92 3a
       -0.032673772 -0.02118496 0.03259041 0.0011192181
000230 04 9c 18 bc d8 37 f5 3c a9 87 88 3c 3f ec da ba
       -0.009314541 0.029933855 0.01666625 -0.0016702487
000240 ca a2 18 bb 35 c0 f4 bb d5 e8 ab bc f1 57 09 bd
       -0.002329039 -0.007469202 -0.020985046 -0.033531133
000250 85 d9 4a bb 8f 5c 07 bd dd 22 c5 3c 7c 51 b8 bc
       -0.0030952406 -0.033047255 0.024064476 -0.022499792
000260 35 e2 17 3c 82 0b 41 3d ec 3b be 3b 69 f1 07 3a
       0.009270241 0.047130115 0.005805483 0.0005185814
000270 79 af ee bc dc 41 ad 3c ef 72 ba bc e0 44 fc 3c
       -0.029136406 0.021149568 -0.022759883 0.03079456
000280 ee f7 a6 bc 47 44 a7 bc 2d 6b 7e bb 8f ce 54 3d
       -0.020381894 -0.0204183 -0.0038821206 0.051954802
000290 04 04 cc bc 67 45 1e bc 3c 9c 34 3c 06 2c 0c ba
       -0.024904259 -0.0096601015 0.011023577 -0.0005347136
0002a0 1c bb 9c bb 44 20 02 3c fa 5d 79 bb 4e d9 8b bb
       -0.0047830474 0.007942263 -0.00380504 -0.004267848
0002b0 d2 d5 2f bc ff 8b 8a 38 74 5c 06 3c 3d 98 ee bc
       -0.010732131 6.606429e-05 0.0082007535 -0.029125327
0002c0 97 56 dc 3b 3b 79 22 3c 14 18 47 3c d4 7b 3e 3b
       0.0067241895 0.009916599 0.012151737 0.0029065507
0002d0 a9 d3 c4 3c a7 21 12 bc a0 47 d9 3c 71 50 cf 3b
       0.024026709 -0.008919156 0.026523411 0.006326728
0002e0 c8 3e 97 bc b7 b8 90 3b 87 f9 fe bb 20 61 38 3d
       -0.018462554 0.004416551 -0.007781211 0.0450145
0002f0 41 39 00 3c 6e c2 65 3d c7 8d dc bc 4c dc c0 bc
       0.00782615 0.056093626 -0.026923073 -0.023542546
000300 0a 53 71 bc a9 58 9c bc 90 2a 51 3b 3a f3 84 3b
       -0.014729271 -0.019085245 0.0031916238 0.004057315
000310 27 09 6c ba cf f3 69 bc 1a ce a0 3a 91 23 89 bc
       -0.00090040494 -0.01427932 0.0012268454 -0.016740592
000320 af 62 92 bb b4 9a 19 bc e0 b6 42 bc a5 68 8b 3b
       -0.0044673304 -0.009375263 -0.011884421 0.004254418
000330 4e 39 d1 bc 6d 11 03 bb e1 18 30 3c a5 4f 03 bd
       -0.02554002 -0.00199994 0.010748119 -0.032058377
000340 ef d5 a0 bc 6d 9d a2 3b c4 f2 b0 bc 3e d2 aa 3b
       -0.019633261 0.0049626143 -0.021600135 0.005213051
000350 33 2a 41 bb a1 83 b6 3a 68 d5 0d bd 37 a3 24 3d
       -0.0029474616 0.0013924727 -0.03462735 0.040194716
000360 2f 88 2f 3d 76 27 8b 3b 5c 28 41 3d 39 3e a9 bb
       0.042854484 0.0042466475 0.04715763 -0.005164888
000370 f0 70 84 bc dc 53 d2 3c d4 1b dd bc 91 6f f7 bc
       -0.016167134 0.025674753 -0.026990809 -0.030204566
000380 c0 6f 24 3c 42 4c 14 bd d6 71 b7 ba 39 da 04 bd
       0.010036409 -0.036205538 -0.0013995718 -0.032434676
000390 bc d3 2d 3d c4 8c 23 3c 48 5d 23 3d dc 98 8e bb
       0.042438254 0.009982292 0.03988388 -0.0043517184
0003a0 36 d3 5f 3c 82 f4 14 3c 99 a5 cf 3c 28 02 c0 3c
       0.013661196 0.009091498 0.025347518 0.023438528
0003b0 c2 ca 77 bc b0 d8 fe bc 08 19 7e ba e4 c8 f3 bc
       -0.015124025 -0.031109184 -0.0009693061 -0.029758878
0003c0 81 00 a0 bb ab 8a d3 3a b5 77 40 3c c4 22 4a 3d
       -0.0048828726 0.0016139349 0.01174729 0.04934956
0003d0 7f af 2e 3d c4 29 2d 3c 59 6f b1 bc bd 1a 45 3b
       0.042647835 0.01056904 -0.02165954 0.0030075752
0003e0 d7 eb b7 3b e3 af 5f bc 8a c7 2a bb 73 71 e6 3b
       0.005612831 -0.0136527745 -0.0026058876 0.007032567
0003f0 5a 62 b7 bc f9 3b 0d bd 2f 30 28 ba 75 ca 76 3c
       -0.022385765 -0.034481023 -0.00064158713 0.015062918

network_body._body_endoder.seq_layers.2.weight f4 [256, 256]
000000 ea 4f a2 bd 9f 29 6a bc bd ba 30 b8 09 49 98 bd
       -0.07925399 -0.01429215 -4.2135583e-05 -0.07435805
000010 7c a9 b2 3d 1a 4e db bd 8c 3c 80 bd c3 7c 2a bd
       0.08723733 -0.10708256 -0.062615484 -0.04162289
000020 45 04 61 3b 19 4a 2c bd f7 1a af 3c 42 23 e1 bd
       0.003433482 -0.042062853 0.021375163 -0.10993053
000030 54 3c 81 3d 1e 28 2c 3c 8a 6c a3 bd 70 c4 d7 3c
       0.06310335 0.010507612 -0.079796866 0.026338786
000040 83 8e 73 bc 81 17 fe bb 9e 06 4a 3c 2c 4d d5 3c
       -0.01486552 -0.0077542667 0.012330679 0.026037775
000050 de 80 4c bd fa 54 05 3d cc c7 00 bd 4c df e3 bc
       -0.049927585 0.032551743 -0.03144054 -0.027816437
000060 a8 e9 3c 3c cc 33 bb bd 2c e7 45 3c ec 94 af bc
       0.011530317 -0.09140739 0.012079041 -0.021433316
000070 bb c7 80 3c e8 6b 14 bd 96 dc 73 bd 45 fc 6b bc
       0.015720239 -0.03623572 -0.05953654 -0.014403407
000080 36 fa 06 bd da 57 07 3e 54 af 1e 3d c7 19 28 bd
       -0.032953463 0.13217106 0.038741425 -0.04104021
000090 5e 76 3b bd 8a 5f 5d 3d 9f c5 73 bd 7f 7e 04 3e
       -0.04576718 0.05404619 -0.059514638 0.1293888
0000a0 d4 25 17 3d 2c a7 07 3d 06 91 93 bd ad bd de bc
       0.03690131 0.033118412 -0.072053954 -0.027190054
0000b0 c6 b4 59 bd 93 c8 00 3b c1 1d 91 bd 88 ea e7 3d
       -0.053150915 0.0019650802 -0.07085753 0.1132403
0000c0 92 9d f4 3b 07 cf ce 3d f9 77 25 bd 10 f1 15 3d
       0.007465073 0.10098081 -0.040397618 0.03660685
0000d0 cf df 11 bc ce 1f ff bd f9 2f c7 3d 45 94 56 bc
       -0.008903458 -0.12457238 0.09725947 -0.013096874
0000e0 b6 ca c0 3c e7 aa 44 3d f2 94 f9 bd 19 db 04 3c
       0.02353416 0.048014548 -0.12186612 0.008108878
0000f0 3b ad 85 bd 14 97 e4 3c c5 33 6b bd da cf d8 ba
       -0.06527182 0.02790407 -0.05742242 -0.0016541437
000100 a8 f3 c7 3b 06 9e 02 bc 71 01 15 3e df 80 c3 bd
       0.006102044 -0.007972246 0.14551331 -0.095460646
000110 a0 2b 7a bd ca 23 ae 3d 93 91 bc 3d ff 1b 8a bd
       -0.06107676 0.0850292 0.092074536 -0.06743621
000120 b6 b3 c0 3c 6d c2 da bd 86 e7 c6 bd a7 00 d8 bd
       0.023523193 -0.10681615 -0.09712128 -0.105469994
000130 af 72 8f bd fe 72 2d 3c 5d 66 de 3d 36 33 a2 3d
       -0.07004296 0.010586498 0.10859368 0.07919924
000140 8a 37 92 3c f5 15 1f be 06 1d 39 bd e4 e6 23 3d
       0.017848749 -0.1553572 -0.045193695 0.040015116
000150 2c 5d cc 3d 0f 8a 88 3d 5c 23 88 bb 83 a6 2e 3d
       0.099787086 0.066669576 -0.004154606 0.042639267
000160 5d e5 41 bd d5 05 27 3d df 37 8b bc fc de 1b 3d
       -0.04733788 0.040777046 -0.016994415 0.03805445
000170 79 82 6d 3d a2 46 3c 3d b6 bf 76 3d 41 52 a7 bd
       0.057985757 0.0459658 0.060241424 -0.081699856
000180 10 c9 0d bd 3b f4 19 3c b7 ba 87 3d ea 9d f3 bc
       -0.034615576 0.009396608 0.0662741 -0.029738385
000190 f5 92 27 bd b7 74 70 bc fd 2a 78 bd 5e 78 86 bd
       -0.040911634 -0.0146762645 -0.06058787 -0.06565927
0001a0 e0 61 a2 3c b4 50 12 3d 9b 0a 89 3d a9 e1 18 bd
       0.019822061 0.035721496 0.06691476 -0.03732458
0001b0 56 47 66 3d 4d c5 88 bd 46 0e ca 3c fc 64 ef 3c
       0.056220375 -0.06678257 0.02466501 0.029222958
0001c0 7c 00 b4 bc 2c dc d7 3b 3a a5 e7 3c df 74 c8 bb
       -0.021972887 0.006587526 0.028277028 -0.0061174477
0001d0 e1 a2 d5 bd f3 8a 10 bd 3b d3 82 3d b7 18 bb bd
       -0.10431457 -0.035288762 0.06387945 -0.09135573
0001e0 59 aa b9 bd f1 dd 71 39 fd ab 3d bd 69 e9 0e bd
       -0.09065694 0.0002306623 -0.0463066 -0.034890566
0001f0 90 10 24 3d 99 f8 38 3d 02 9d fc 3c 5e 27 11 ba
       0.040054858 0.045158956 0.030836586 -0.0005537177
000200 9a 99 0d 3d be 76 2d 3d 39 e9 e7 3c c4 95 2c bd
       0.034570314 0.04234957 0.028309451 -0.042135015
000210 51 b0 de bc d8 13 e9 bc e5 b6 50 3d 1d 34 5b bd
       -0.027183684 -0.028451845 0.05095567 -0.053516496
000220 e7 0b e3 bd 15 3a 98 3d cd a9 3f bc ba d9 40 3d
       -0.110862546 0.07432953 -0.0116981985 0.04708264
000230 e9 10 8f 3d b1 80 03 3c 71 49 35 bd 1a 60 d1 3c
       0.06985647 0.008026288 -0.044259492 0.02555852
000240 3b bb ae 3c ef bd 7c bd 27 90 1e bd aa cc cf bc
       0.021329513 -0.061704572 -0.038711693 -0.025366146
000250 76 1e ec 3b cf ba 0b be 08 80 9a 3d de 53 0c bd
       0.0072057797 -0.1364548 0.07543951 -0.03425967
000260 07 98 29 3d 8d 61 7d bd b1 51 46 3d e5 fc a1 3c
       0.04140475 -0.06186061 0.04841775 0.01977391
000270 6d 58 7c 3d 13 b0 07 3c 29 43 6f 3d 06 99 ec bb
       0.061607767 0.008281725 0.05841366 -0.0072203903
000280 ae 98 68 bd ee 96 71 3c 66 6b cf 3a 0d 93 82 3d
       -0.05678623 0.014745457 0.0015824854 0.06375704
000290 e5 3f 79 bd 33 44 34 bc 33 f3 f9 bc 4f 72 af ba
       -0.06085195 -0.011002588 -0.030511474 -0.0013385507
0002a0 0b 89 2d 3c 47 c1 35 bd ed c0 9d bc 3e 73 7e bd
       0.010591756 -0.044373777 -0.019257033 -0.062121622
0002b0 85 bf a3 3c be ab 02 bd 8c 16 a9 bc 85 f8 9d bd
       0.019988785 -0.031902067 -0.020640634 -0.07713417
0002c0 bb 50 02 bd 2b 45 05 3d 03 a6 15 bd 63 62 8b bd
       -0.03181527 0.032536667 -0.036535274 -0.06805875
0002d0 44 6c 3f bc 24 42 73 bd c4 3a 0a 3c 5e 54 bd bd
       -0.011683527 -0.05938925 0.008436862 -0.092446074
0002e0 c0 e4 59 3c 38 ca 32 3d b9 f8 3f 3d e4 3c f6 3d
       0.013299167 0.043649882 0.04686806 0.12023333
0002f0 b0 3e 11 3c 2b 83 ff 3d 92 3b 5c bd e5 1c 68 3c
       0.0088650435 0.1247619 -0.05376775 0.014167045
000300 87 02 e4 3d f6 38 d1 bd cb f8 d1 3c 94 a5 27 3d
       0.111332946 -0.102159426 0.025631329 0.040929392
000310 de 88 d0 bc 4a 25 66 3d a1 3c 13 bd da 25 6d bd
       -0.025455888 0.056187905 -0.035946492 -0.057897426
000320 e7 68 89 bb 4e f1 db bc fd 3f 03 bd df 80 97 3c
       -0.0041934135 -0.026848461 -0.032043446 0.018494068
000330 ed ee 49 bd 96 7f 77 bd a6 cb 4f bc 7f 2c 4d bd
       -0.049300123 -0.06042441 -0.012682831 -0.050091263
000340 39 e4 a2 3b ed d1 06 bd c4 84 92 3b 4c d4 3b 3c
       0.004971054 -0.032915045 0.0044713933 0.01146419
000350 21 21 f8 bc e5 6b 28 3c 7b 4f 87 3c 61 28 02 3c
       -0.030289235 0.01027963 0.016517391 0.007944197
000360 24 8b a2 bb c6 5e 4c 3c 4c e3 8e bd 67 53 8f 3c
       -0.0049604345 0.012473768 -0.06976947 0.017495824
000370 58 f9 98 bc 2f a8 b2 bd 23 be ac 3d 8d df 25 3c
       -0.018673584 -0.08723485 0.08434703 0.010124099
000380 bb ce fe bc 7f 02 ab bd dc ec c4 3c 10 43 f2 3c
       -0.031104436 -0.083500855 0.024038725 0.029572994
000390 7d 1e 76 bc 77 4e 97 bd 80 56 03 3d 11 b9 d8 3c
       -0.015021917 -0.07388013 0.032064915 0.026455434
0003a0 26 51 15 3e c2 ab d2 bb db fe 11 3d a7 6a f6 3c
       0.14581737 -0.0064291665 0.03564344 0.030080153
0003b0 19 a6 e4 3b 72 02 0b be b8 0b c2 bc c9 e5 a0 bd
       0.006977808 -0.13575152 -0.023687229 -0.07856328
0003c0 17 6c 1e bd 9e e3 ea 3c a7 21 4d 3d 70 d4 25 bd
       -0.0386773 0.02867299 0.05008092 -0.0404858
0003d0 75 b3 bd 3c 00 1e 09 bc 65 4c 98 3d 8e 8f 54 bd
       0.02315686 -0.008368969 0.07436446 -0.051894717
0003e0 b6 fc 91 3d 7a 5e 69 bd 9f 1e 3b bd 19 18 69 3d
       0.07128279 -0.056974865 -0.0456835 0.056907747
0003f0 69 7e 87 bd 7e 8e d2 bc 99 fe 6d bb cb 09 a5 3c
       -0.06615908 -0.025702711 -0.0036315082 0.020146271

network_body._body_endoder.seq_layers.2.bias f4 [256]
000000 f0 ac bd 3c 61 41 29 bc 5a 9f 82 3a d0 e8 a8 3b
       0.023153752 -0.010330529 0.0009965703 0.0051547065
000010 60 de e5 bc a4 49 d2 bb 1f 4e 9d bc 0b 3d e0 bc
       -0.028060138 -0.00641747 -0.01920229 -0.027372858
000020 46 76 1c bb 02 25 0c 3c cd 00 f0 3a 38 92 8d 3b
       -0.0023874207 0.008553745 0.0018310786 0.004320409
000030 7e 18 c7 bb 2e f1 cd bc 2f 2a a0 bb 85 41 44 bc
       -0.0060759177 -0.025139417 -0.004887841 -0.011978512
000040 35 4c ea bb 59 8d 55 3b 18 3d 84 3b 0a e7 54 bb
       -0.007150198 0.003258547 0.0040356033 -0.0032486343
000050 df 0d 6b 3b 17 1a f8 ba 72 5b 2a 3c 88 e3 2e bb
       0.0035866422 -0.0018928674 0.010397779 -0.0026685912
000060 0e 21 e4 3b 3b 00 13 bc 53 42 ab bc 05 4d 0b bc
       0.0069619482 -0.008972223 -0.02090565 -0.00850225
000070 5c 90 f9 3b e1 61 a3 bc d3 da c6 3b 4b 04 6f bc
       0.007616086 -0.019944133 0.0060685663 -0.014588426
000080 df f3 99 ba 72 b8 8d bc 9e 15 72 bc d4 a7 2e bc
       -0.0011745653 -0.017299864 -0.014775662 -0.0106601305
000090 e8 6d d4 3c 20 80 93 3c 6b 7d cd bc db 54 49 3c
       0.025931314 0.01800543 -0.025084218 0.0122882975
0000a0 f2 ac 64 bc 3d 5e c3 bc 34 9e 63 bb 6c 2d d9 bc
       -0.013957249 -0.023848647 -0.0034731748 -0.026510917
0000b0 5a bc bc bc 0b d5 a4 bc 40 a6 23 bc 34 4c a4 bb
       -0.023039032 -0.020121118 -0.009988368 -0.005013967
0000c0 1f bd c8 3b bd c8 8f bc 01 5c 64 bc 9f 93 ac bc
       0.0061260606 -0.017551774 -0.013937951 -0.021066485
0000d0 0a f5 bc bc 41 22 04 ba ed 74 d0 3b f3 0d 6f 3c
       -0.023066062 -0.00050405046 0.006361595 0.014590728
0000e0 40 9e 81 bc 83 e1 b8 bc 99 d8 26 3d 65 6f 8a ba
       -0.01582253 -0.02256847 0.040733907 -0.0010561763
0000f0 2a ce e5 bb d4 32 09 bc 97 f5 15 ba 83 3b 6b bc
       -0.007013102 -0.008373935 -0.00057204947 -0.01435745
000100 41 48 a6 3b ef ec 27 bb d9 85 30 3b 19 87 84 3c
       0.0050745313 -0.00256234 0.0026935248 0.0161777
000110 33 90 93 bc 39 75 a0 3c 93 19 ca bc da 25 d6 bc
       -0.018013095 0.019587146 -0.024670398 -0.026141096
000120 aa b0 b8 bc c9 43 96 bb d7 29 3a bc 39 19 48 bc
       -0.022545177 -0.0045857173 -0.011362514 -0.012213045
000130 46 18 b5 3b 98 98 c7 3c 9a 4f cd 3a f8 58 64 3b
       0.0055265753 0.024364755 0.0015663982 0.0034843069
000140 eb 22 ad ba 6a d4 d5 bc 55 83 b5 bc bd ce ac bb
       -0.0013209259 -0.026102263 -0.02215735 -0.0052736686
000150 d9 c0 64 3b 5f 11 b4 bb 02 25 59 3c 57 09 e7 ba
       0.0034904985 -0.005495235 0.013253452 -0.0017626685
000160 3a cc fa 3a e3 c5 bc bc 1a 96 0c bc bc fd e6 ba
       0.0019134351 -0.023043578 -0.008580709 -0.0017623226
000170 da 18 d6 bc c3 ee 32 bc e7 6b b9 3b 9b e4 b4 3b
       -0.026134897 -0.010921183 0.005658615 0.005520416
000180 a0 6a 33 bc c0 e6 47 bc 22 02 07 3c e3 b1 97 ba
       -0.010950714 -0.012201011 0.008240255 -0.00115734
000190 a4 ce ae 3a c3 44 05 3d 34 de c4 bc 0d 2d 0e 3d
       0.001333673 0.03253628 -0.024031736 0.034710933
0001a0 b8 62 00 bd 1a 4d 8e bc 55 5e 66 3c 67 1f d0 3c
       -0.031344146 -0.01737075 0.014060576 0.025405599
0001b0 f9 c7 0c bc 79 da de 3c cf 05 fc 3b 6e 1c 86 3b
       -0.008592599 0.027203785 0.007691122 0.0040927446
0001c0 9e 5a b6 3b 4d ec 9e bc 0e eb 61 bb 6d bb 8f bb
       0.0055650016 -0.019399786 -0.003447238 -0.0043863566
0001d0 e3 1b c7 ba a7 8b a1 3a 8e 0f a6 b9 ac 72 6c bb
       -0.0015190806 0.0012324945 -0.00031673576 -0.0036079092
0001e0 57 3a 08 3b 4a ba 35 bc 7b ec 92 bb e9 e9 ce 3b
       0.0020786726 -0.011091778 -0.004483757 0.0063145054
0001f0 c6 3d 19 bc 2d 29 26 bb 64 7b 3e bc 78 28 71 bc
       -0.009353107 -0.0025354133 -0.011626098 -0.014719121
000200 35 4c 5c 3b 8b ad c3 3b f2 6f 9a bb 0b 18 72 bb
       0.003361476 0.0059716157 -0.004713052 -0.00369406
000210 18 1d db 3b a8 f6 88 bc 9b 01 a2 bb ca 2e e5 ba
       0.006686818 -0.016719177 -0.004944039 -0.0017485258
000220 5c 16 6d 3c 23 f4 0f bb 6c 57 d2 3a 97 36 a1 bb
       0.014470663 -0.0021965585 0.0016047782 -0.0049198377
000230 9b a4 87 bc 5a 18 8a bc 32 f5 28 bc 64 79 99 b9
       -0.016557982 -0.016857315 -0.010312365 -0.00029272877
000240 81 1e 7b bc 13 5d 07 3c 2f 4f e6 bc a9 d3 4a 3b
       -0.015327097 0.008261937 -0.02811393 0.0030948913
000250 25 b2 de 3a 62 e2 b5 3c 0f 77 d8 bb d3 22 2a bc
       0.0016990347 0.022202674 -0.0066059898 -0.010384279
000260 89 76 ad bc 47 53 09 bc 60 20 00 3c 71 25 26 3c
       -0.021174686 -0.008381671 0.007820219 0.010140763
000270 7c a2 1f bc e7 9e d3 39 57 c4 79 3b 10 be bf 3b
       -0.009743329 0.00040363448 0.0038111412 0.0058515146
000280 2e ce 8b bc af a7 86 3b fd b1 f6 38 c6 3d c4 bc
       -0.017066088 0.004109345 0.00011763347 -0.023955237
000290 5f a6 aa bc 76 3d a8 3b 5f 3f 6a 3c 71 e2 91 bc
       -0.020831285 0.00513428 0.014297335 -0.017808171
0002a0 b7 b2 ae ba 5a 9d bb 3b 9e e3 5a bc 6e 29 44 3c
       -0.0013328408 0.005725545 -0.013359932 0.011972768
0002b0 28 f5 b2 39 5c 6c e4 bc ad 3d c8 bc 8b 55 a5 bc
       0.0003413346 -0.027883701 -0.024443472 -0.020182392
0002c0 a6 7e 83 3c f6 da c7 3b bb 2c 1d bc bd 88 97 bc
       0.016051602 0.0060991 -0.009593184 -0.01849782
0002d0 df f1 b4 3c 32 9f 59 ba 43 66 79 bc be 19 41 3c
       0.02208799 -0.0008301615 -0.015222135 0.011785923
0002e0 ca 35 d5 ba 30 77 c3 bb 8b b7 7a bc fa 19 41 bc
       -0.0016266641 -0.005965136 -0.015302549 -0.011785978
0002f0 5d 74 04 3d 74 43 0d 39 55 84 a3 bc 09 87 2f bc
       0.032337535 0.00013471936 -0.019960562 -0.010713347
000300 b8 f9 0b bc 95 d7 2c bb 52 c7 58 bb 15 b0 2a bb
       -0.008543424 -0.0026373614 -0.0033077789 -0.0026044894
000310 fd 4c ce bb a3 40 c1 bc 36 64 7f bc ec 44 ee bc
       -0.006295799 -0.023590392 -0.015587857 -0.029085599
000320 99 c3 55 bb 28 09 da 3b 46 d8 08 3b 21 6f 78 3c
       -0.0032617806 0.0066539235 0.0020880862 0.015163214
000330 1a da 3d 3b 2c d4 a1 3c df 5e a5 3b 00 d9 91 bb
       0.002896911 0.019754492 0.00504671 -0.0044509172
000340 3b e5 3c 3c 13 02 43 bc 96 61 64 bc 42 2f fd 39
       0.011529262 -0.01190235 -0.013939282 0.0004829113
000350 c7 15 13 3d 3d fe 02 bc a0 9d 91 bb 07 8f 5e 3b
       0.03590944 -0.007995185 -0.004443839 0.0033959763
000360 b5 bd 3c 3c 7d 13 94 bb ab 1f eb 3c 80 96 eb bc
       0.011519839 -0.0045189247 0.028701624 -0.028758287
000370 ca 30 8a bc b5 07 ad bc 98 d2 3a bc 66 4a 82 3b
       -0.016868968 -0.021121839 -0.0114027485 0.003976154
000380 c5 58 88 bc 5c 36 c5 3b c9 95 00 3c 85 30 5c bc
       -0.016643891 0.006018443 0.007848212 -0.013439302
000390 d0 09 d9 ba 20 c9 da 3b cd f8 ea ba e0 97 60 3c
       -0.001655871 0.006676808 -0.0017926932 0.013708085
0003a0 75 e6 c9 bb 79 5e f6 bc a5 01 d3 bb f8 0d a9 bc
       -0.006161506 -0.030074345 -0.006439405 -0.020636544
0003b0 28 73 d9 bc 38 c7 d2 bc b6 ac 3c 3c 52 cd 85 bc
       -0.026544169 -0.02572976 0.011515787 -0.016333256
0003c0 89 a9 b1 bc c6 0e ae 3c 0d 21 78 bb 59 78 ed bb
       -0.021687286 0.021247279 -0.0037861497 -0.0072470126
0003d0 a5 99 e7 3b ac 4f 3d bc cb ee b9 38 bf b5 2b 3c
       0.0070678764 -0.01155464 8.865966e-05 0.010480343
0003e0 ca ad 55 bb 44 3d a3 bc 47 ff f8 bc fd 34 7b bc
       -0.0032604807 -0.019926675 -0.030395163 -0.015332458
0003f0 b6 99 d8 bb c5 9a 6c 3c 25 ef b5 ba be 2b 42 3b
       -0.0066101206 0.014441197 -0.0013880475 0.0029628123

action_model._discrete_distribution.branches.0.weight f4 [2, 256]
000000 bc ca 77 bc 2c 61 67 3c 9a 1e d0 37 89 8a 3b bc
       -0.015124019 0.014122289 2.4809782e-05 -0.011446604
000010 31 75 51 3c 0a fe 2d 3b c9 7d f3 3c fe 95 09 3d
       0.012784288 0.0026549124 0.029723065 0.03359031
000020 b8 b2 95 ba a3 59 9c ba 0d 67 7b bc a9 7c 22 3b
       -0.001142106 -0.0011928569 -0.015344393 0.0024793542
000030 08 67 0a 3c 48 ed 29 3d a0 b4 7d 3c 12 4f 1e 3d
       0.008447416 0.041486055 0.015484959 0.038649626
000040 85 12 90 3c f4 2d 86 bb 3b aa e7 bb 84 6a 4a 3c
       0.017586956 -0.0040948335 -0.0070698536 0.012354497
000050 18 13 ec 3a 33 bb 73 b9 47 89 2e bc bf 10 74 3a
       0.0018011061 -0.00023244023 -0.010652847 0.00093103567
000060 84 ab 00 bc b8 05 9e 3b b8 b5 4d 3c a4 7e a9 ba
       -0.0078533925 0.004822459 0.012555532 -0.0012931419
000070 7a b8 0e bb b2 31 fd 3c 73 5e 93 3a a3 7e 97 3c
       -0.0021777437 0.030907486 0.0011243358 0.018493002
000080 97 b4 38 bc b3 08 56 3c 21 15 6c 3c 32 b6 24 ba
       -0.011273525 0.0130635975 0.014409334 -0.0006283253
000090 be 69 18 bd 3c 91 bb bc a2 d8 9f 3c 0a 6d 28 bc
       -0.03721022 -0.022896402 0.019512478 -0.010279903
0000a0 8b 93 d2 3c b3 8c 8a 3c 38 61 3a 39 ec 52 8e 3c
       0.02570512 0.016912794 0.00017774559 0.017373525
0000b0 a5 65 e0 3c ed 6b 48 3c 6d bb 93 3c 73 96 30 3b
       0.027392218 0.012232763 0.018033708 0.0026945143
0000c0 f5 69 e2 b9 8b ac 0f 3d 63 fc 1f 3d e9 6a 07 3d
       -0.00043185023 0.03507666 0.039059054 0.03306094
0000d0 69 f8 ce 3c c4 03 11 bc 3d 26 97 bb ae 29 c9 bb
       0.025264936 -0.008850995 -0.0046127127 -0.006139002
0000e0 91 00 d2 3c 6f 77 0d 3d 7a de 2c bd cd 90 56 3b
       0.025635036 0.03453773 -0.042204358 0.0032740117
0000f0 7f 51 5a 3c a0 fb f5 3b 5a 87 c4 3b 0e 9c 77 3c
       0.013325094 0.0075068027 0.0059975805 0.01511289
000100 d0 c6 94 bb 4b e8 19 bb 9c c9 09 bc 05 42 05 bd
       -0.004540302 -0.0023484405 -0.008409884 -0.032533664
000110 0f 15 40 3c a6 23 f3 bb bf 55 ff 3c 49 7b b4 3c
       0.011723771 -0.007420021 0.031168817 0.022031443
000120 6d 65 e1 3c 67 a8 c3 bb a8 bb 97 3b c9 8f e6 3a
       0.027514184 -0.005971003 0.0046305247 0.0017590459
000130 09 3d d0 bb 00 0b 43 bc 7a 6b a5 bb 02 ec 86 bb
       -0.006354932 -0.011904478 -0.0050482126 -0.00411749
000140 63 f4 ce bb ba 64 67 3c 51 f5 27 3d 07 57 e2 bb
       -0.0063157543 0.014123136 0.041005436 -0.006907347
000150 f3 ce 83 bb 0a 61 fc 3b 2a 2b b0 ba e8 44 cc 3a
       -0.004022473 0.0077019976 -0.0013440598 0.00155845
000160 e3 4d 31 3a 7a 9f 00 3d ca 44 f5 3b 6a a8 05 bb
       0.000676362 0.03140209 0.007485007 -0.0020394572
000170 e3 8d 1b 3d 32 b4 06 ba d5 bb e0 39 5f 6d 31 3b
       0.03797711 -0.00051385455 0.00042864555 0.0027073247
000180 14 45 8c 3c 3c 58 15 bb 41 f1 41 bc ec 69 ee 39
       0.017122783 -0.0022788187 -0.011837305 0.00045473815
000190 62 2e db bb e1 55 8c bc d0 d8 06 3d d2 a7 9b bc
       -0.006688879 -0.017130794 0.032921612 -0.019000921
0001a0 ef a1 10 3d ee a5 20 3d 47 35 8d bb e6 09 84 bc
       0.035310682 0.039220743 -0.0043093297 -0.016118001
0001b0 af 80 7a 3b a4 5c 0a bd 21 aa 9e bc 7e b2 cf bb
       0.0038223674 -0.033779755 -0.019368233 -0.0063384166
0001c0 4f 6b 5d bc 11 0e c0 3c 33 47 5f bb f1 cb 7e bb
       -0.013514354 0.023444207 -0.0034069538 -0.0038878883
0001d0 ce c8 e1 3a ad 76 7b bb 88 c8 5b 3c 7e 2e ff 3b
       0.0017225982 -0.0038370297 0.01341451 0.0077875247
0001e0 85 45 a9 ba 8c 14 d2 3c 7b 0c 85 ba a9 b0 0c bc
       -0.0012914395 0.025644563 -0.0010150814 -0.008587041
0001f0 0a 3f 88 3b 1a 53 ec 3a 95 7e 03 3c f0 3b 23 3d
       0.0041579055 0.0018030137 0.008025785 0.039852083
000200 a9 db fd bb 3c 67 e4 39 77 ba 4c bc 05 4c 42 bc
       -0.007747133 0.00043564464 -0.012495629 -0.011858945
000210 e1 f4 a3 3b cf d6 22 3d 6f e4 45 3c 9f 92 e5 bb
       0.005003557 0.03975564 0.012078389 -0.007006004
000220 73 3b 26 bc 82 ea ea bb d5 bb b9 3a 62 24 f2 3b
       -0.01014601 -0.007169069 0.0014170358 0.007389591
000230 14 4f 0d 3d 48 3c 4e 3c b0 20 3f 3c b5 e3 dc 3a
       0.034499243 0.012587614 0.011665508 0.001685253
000240 26 ce 34 3c 57 16 91 bc 62 8b 20 3d 5d 8b 0e 3a
       0.011035478 -0.017710848 0.039195426 0.0005437637
000250 ef ff f9 3b 58 6a 73 bc 2c bb 2c 3c fb b4 b4 3b
       0.0076293866 -0.014856897 0.010542672 0.0055147386
000260 78 59 06 3d e5 d3 b1 3b 69 9c 20 bc 65 57 4d bc
       0.032800168 0.005426871 -0.009802916 -0.0125330435
000270 85 14 26 3c dd 49 1c bb df a6 0e bb f1 ab 84 bc
       0.010136728 -0.0023847737 -0.0021766943 -0.01619527
000280 2d 59 8d 3c df 2a 4f 3c 62 94 82 bb 94 08 2b 3d
       0.017254436 0.012644499 -0.0039849738 0.041756228
000290 84 d9 c6 3c 27 a5 3f bc 2f 6c 7d bc 56 3e 34 3c
       0.024273641 -0.01169709 -0.0154676875 0.01100119
0002a0 8a 55 18 bc 97 83 27 39 4b f0 05 ba b8 e1 c0 ba
       -0.009297738 0.00015975382 -0.0005109354 -0.0014715707
0002b0 d1 83 22 3b 2c 6d 33 3d cf 9a 9c 3c 6f 01 15 3d
       0.0024797807 0.043805286 0.019116787 0.03637832
0002c0 af c3 d3 bb 60 ed 56 3b 5c 88 f6 b9 f6 ad f3 3c
       -0.0064625363 0.0032795295 -0.00047022372 0.029746037
0002d0 75 de 85 bc 1a c0 a7 3a e5 bc 74 3c dd b3 94 bc
       -0.016341427 0.001279834 0.014937614 -0.018152172
0002e0 fb ac 35 3c 9e bd 7a ba d6 0b f0 3c 36 a6 9d 3c
       0.011088605 -0.00095649983 0.029302519 0.019244295
0002f0 d2 d9 8a bc c7 92 fa bb 92 79 ed 3c 34 a4 ed 3c
       -0.016949568 -0.0076468918 0.028988633 0.029008962
000300 9f 3e 07 3a 82 73 19 3a 9d 29 ef 3b 75 6d 86 3a
       0.00051591726 0.0005853699 0.007298662 0.0010256009
000310 e9 51 19 3c 6b 48 e5 3c 64 ac 45 3c 8b fe 0b 3d
       0.009357908 0.027988633 0.012065027 0.034178298
000320 f6 25 f1 bb 1b 89 c3 bb 33 8c 4a bb 93 1f 96 bc
       -0.0073592616 -0.005967272 -0.003090632 -0.018325603
000330 a9 1e ea bb f4 7d b9 bb 0b 27 db bb eb 37 1c bb
       -0.0071447683 -0.0056607667 -0.006688004 -0.002383704
000340 a9 88 86 bc 9c d9 95 bb fd ee fe 3c 11 25 1a 3b
       -0.016422587 -0.00457306 0.031119818 0.0023520628
000350 99 5e 05 bd c8 fb 43 3c fa 3a 8b bb 1c 67 1a bc
       -0.03256092 0.011961885 -0.004248974 -0.009423997
000360 4e 01 a7 bb f7 d4 9f 3c d1 f8 dc bc f0 03 3d 3c
       -0.005096591 0.01951073 -0.026974114 0.011536583
000370 d4 14 5b 3c 06 fc 14 3d 6f 19 74 3b f0 c8 3a bc
       0.013371665 0.03637316 0.0037246605 -0.011400446
000380 a0 b0 a3 3c 10 f1 12 bc b0 98 f8 bb 99 e8 c1 3c
       0.019981682 -0.008968607 -0.007586561 0.023670482
000390 87 4c 29 3b 70 09 1c bc 3d 5f 7a bb 99 50 2f bc
       0.0025832967 -0.009523734 -0.003820374 -0.010700368
0003a0 62 cf 3a 3b f8 ab e5 3c d9 44 31 3c 31 36 41 3c
       0.0028504957 0.028036103 0.010819637 0.011792705
0003b0 ae b6 29 3d 18 38 0b 3d bc 82 5a bc 7f 11 e5 3c
       0.041433983 0.033989042 -0.013336834 0.027962444
0003c0 2e ab 11 3d 93 ba 84 bc f7 61 82 3c e3 2e 72 3c
       0.03556364 -0.016202247 0.015915854 0.0147816865
0003d0 d8 0c 42 bc 52 fb 0f 3d f1 98 bd 3b 1b 12 63 bc
       -0.0118438825 0.035151787 0.0057860543 -0.013859297
0003e0 97 79 cf bb 14 25 2c 3d b6 bb 08 3d be 26 c0 3c
       -0.0063316333 0.042027548 0.03338214 0.023455974
0003f0 c9 7a 2d 3c d7 51 93 bc 8c 11 91 bb 3d 41 a5 3b
       0.010588356 -0.01798336 -0.0044271406 0.0050431774

action_model._discrete_distribution.branches.0.bias f4 [2]
000000 39 47 89 bc 37 47 89 3c
       -0.016757594 0.01675759

action_model._discrete_distribution.branches.1.weight f4 [3, 256]
000000 7e 20 13 3c eb 21 a9 bb cb 53 cb 3b 2d 99 2f 3c
       0.008979915 -0.005161514 0.0062050573 0.010717672
000010 12 6e 5f bc ad 10 fe 3b 12 03 08 3b fe f8 43 3a
       -0.013637083 0.0077534528 0.0020753783 0.00074757624
000020 67 3c f5 bb 23 a0 e2 3b 19 2b 43 3a a9 e9 66 bc
       -0.007484007 0.0069160624 0.0007445082 -0.014093795
000030 80 86 3f bb e7 78 74 bc df c6 42 bc 42 62 dc bb
       -0.0029224455 -0.0149214035 -0.011888235 -0.0067255804
000040 ab 21 aa bb 7a d3 4a bc 21 91 bc 3b 30 4f 2e bc
       -0.005192002 -0.0123795215 0.0057546054 -0.010638997
000050 9d e8 4b bb 5e 59 31 bb c4 47 06 bb 59 45 d2 bb
       -0.003111399 -0.0027061324 -0.0020489553 -0.0064169583
000060 da 71 f4 bb 89 5e 82 ba cb 71 d4 bb 05 1d 62 3c
       -0.007459861 -0.0009946387 -0.0064832917 0.013800864
000070 4e f4 71 bc 14 ca bf bb 8d 63 c0 3a f3 c7 dd bb
       -0.014767719 -0.005852947 0.0014678106 -0.0067682206
000080 d6 c8 a2 3c 7e 37 1a 3c 02 3d a8 bb 01 24 90 bb
       0.019871157 0.009412644 -0.005134226 -0.0043988233
000090 78 60 ce ba 54 bb 35 bc bd ca 7a b9 cb 9d cc 3b
       -0.0015745303 -0.011092026 -0.00023917384 0.0062443963
0000a0 f4 86 56 bc f2 06 95 bb fe 2c 13 ba 18 53 0f bc
       -0.013093699 -0.004547947 -0.00056143093 -0.008747838
0000b0 ff c1 0f ba 81 fe 67 bb cc 64 f2 ba c0 ba f6 ba
       -0.0005483925 -0.00353995 -0.0018493175 -0.0018823966
0000c0 23 08 b4 ba 74 07 97 bc 6f 92 dc bb 57 12 3c b9
       -0.0013735335 -0.018436171 -0.0067313234 -0.0001793591
0000d0 00 8c 4b 3b 79 8e 60 3b bd 73 33 3b 86 4f 40 3c
       0.0031058788 0.0034264608 0.0027382218 0.01173771
0000e0 0d ed 0f bc fa 4b 41 bc 2c be a2 ba fe 36 2f 3b
       -0.008784545 -0.011797899 -0.0012416295 0.0026735659
0000f0 b6 32 98 bc ff 87 54 3c 40 eb 9f bc 14 50 83 3b
       -0.018578868 0.012971877 -0.019521356 0.004007349
000100 a4 9b 9b 3b ab b6 bb bb ea d1 41 bc 7c f0 05 3c
       0.0047487784 -0.005728563 -0.011829833 0.008175012
000110 b6 b3 85 3a ed 7d 6d bb 1b 81 20 bc dc 2f 60 b9
       0.0010200653 -0.0036238388 -0.009796406 -0.00021380134
000120 b7 62 80 bb 7c ae e6 3b 82 8e b5 bb 2b 87 d0 bb
       -0.0039180177 0.007039843 -0.00554067 -0.0063637695
000130 d6 84 3d bc f0 22 5e bc f4 b4 77 3c 7a f1 1b 39
       -0.011567315 -0.013558134 0.015118826 0.00014871909
000140 98 e9 24 bc d8 45 41 bc bd 4e 1c 3c 2d f4 d4 ba
       -0.010065459 -0.011796437 0.009540257 -0.0016247086
000150 f8 5a bd b4 de eb 52 3b a7 46 80 b9 e6 e6 87 bc
       -3.5270182e-07 0.0032184045 -0.00024466703 -0.016589593
000160 10 c8 4c bc 62 70 b9 bb f9 17 91 bb b6 0f bf bc
       -0.0124988705 -0.005659149 -0.0044279066 -0.023322921
000170 61 89 92 bb b8 59 0a 3b c8 fa 90 3a 43 2b 01 bc
       -0.0044719432 0.0021110605 0.0011061067 -0.00788385
000180 c8 e3 8d bb 14 c1 b4 3b 3a 1f c1 3b ae 77 a5 bb
       -0.004330132 0.005516181 0.005893615 -0.0050496673
000190 fa 8a 23 3a e6 00 ca 3b 41 fb 30 3a c9 46 10 bc
       0.00062386657 0.006164658 0.0006751307 -0.008805939
0001a0 26 12 e4 bb 07 d1 50 bb 4b 41 f7 3a a9 dd a5 3b
       -0.0069601713 -0.0031862871 0.0018864063 0.0050618243
0001b0 d6 c7 0f 3c a5 28 5d bc 26 21 23 bc 9c 20 9a 3a
       0.008775672 -0.01349846 -0.009956634 0.0011758986
0001c0 bf 31 e8 bb d1 34 68 3b e1 05 3e bc fa 75 f9 bb
       -0.0070860083 0.0035431872 -0.011598081 -0.007612941
0001d0 4c 77 28 3a b9 d0 ec b9 2d 50 68 bc 14 74 1f bb
       0.0006426468 -0.00045168938 -0.014179272 -0.0024330663
0001e0 72 4c 20 bc d3 e6 a0 bc 32 a2 09 b9 4b 51 a6 bc
       -0.009783851 -0.019641316 -0.0001312576 -0.020302435
0001f0 ac ae 87 bb 1c d3 f0 3b d3 74 8a 3b f0 97 68 bc
       -0.0041406956 0.007349385 0.0042253523 -0.014196381
000200 14 dc 27 3c 59 c2 82 bb f2 71 39 bb 6c 85 3b 3c
       0.010245342 -0.003990453 -0.0028296676 0.0114453845
000210 eb b8 d0 3b ed da 5d bc c0 0f 06 bc 18 97 04 bc
       0.0063697 -0.0135409655 -0.008182466 -0.008092664
000220 e3 5e 92 3c f1 d2 57 bb 0b fd 87 3b 59 79 24 ba
       0.017867511 -0.0032932127 0.004150038 -0.0006274186
000230 cd 9f 25 bc d9 a7 df bb f1 86 96 bb f3 38 61 bc
       -0.0101089 -0.006825429 -0.004593723 -0.013746488
000240 20 b4 97 3c 31 64 2d 3b 99 71 a6 b9 ca c6 79 bc
       0.018518507 0.0026457424 -0.00031746624 -0.015245149
000250 4b aa 38 bc 6c bf 6f ba 9f 4c 0d bc 7f cb 09 3b
       -0.01127107 -0.00091456505 -0.008624225 0.0021025834
000260 40 cb d7 bb 36 7e 23 bc 14 6e f9 3b 2e 1c b2 ba
       -0.0065855086 -0.0099788215 0.0076119993 -0.001358872
000270 12 f9 c6 3a f7 f1 bc 3b 5c 9b 3c 3c 10 76 1b 3b
       0.001518043 0.005766149 0.01151165 0.0023721494
000280 45 fd 1e ba 74 e9 1c bc 72 35 0b ba 3d ca ec 3b
       -0.0006064962 -0.009577144 -0.0005310393 0.007226257
000290 92 19 91 bc 81 10 fd 3a a4 43 d8 3b 26 d5 87 bb
       -0.017712388 0.0019307287 0.0065998603 -0.0041452823
0002a0 94 e2 f4 bb 4d 50 50 bc b2 1b 8f bc 2e 29 e1 3b
       -0.0074732993 -0.012714458 -0.01746926 0.006871364
0002b0 ba fb 21 bc b3 78 37 bc f0 8b d5 bb 77 ce 8b bb
       -0.009886676 -0.0111982105 -0.006516926 -0.004266556
0002c0 68 f3 06 bc 80 3d 02 3c 42 d0 c4 3a 7d 71 db ba
       -0.0082367435 0.007949233 0.0015015679 -0.0016742196
0002d0 c9 28 4f 39 fb 87 ad ba 95 4f c5 ba ca 22 b5 39
       0.00019756252 -0.0013239378 -0.0015053625 0.0003454893
0002e0 ff 0e b6 bc 1c 56 b2 ba 16 b1 2b 3a 35 6b 8f bc
       -0.022223948 -0.0013605985 0.000654952 -0.017507175
0002f0 61 8c 03 bc 51 3f 01 3c 48 30 26 bc e3 f1 ba bb
       -0.008029074 0.007888631 -0.010143347 -0.0057051047
000300 3b f2 f4 3b c0 d0 1a 3c 33 ef 15 3b 9b ee f8 bb
       0.007475165 0.009449184 0.002287817 -0.0075968034
000310 b4 b9 1b 3b 6a d6 69 bc a0 34 eb bb 33 c9 cf ba
       0.002376181 -0.014272312 -0.0071779042 -0.0015852809
000320 05 57 24 3b 2a 84 f7 3b 85 5a 3a 3c 89 2e 1c bc
       0.0025076282 0.007553597 0.011374121 -0.009532579
000330 a8 a1 c4 b9 89 76 be bc 2d 0d 42 3c 3f 43 72 3a
       -0.00037504476 -0.023249881 0.011843962 0.0009241588
000340 25 b3 c4 bb 69 15 04 bb 6c 96 84 bb 36 6c 42 bc
       -0.006002801 -0.0020154363 -0.004046252 -0.01186662
000350 44 96 4d bc f6 3f 55 3a 02 75 59 3c c4 85 1b 3b
       -0.012548033 0.0008134836 0.013272526 0.0023730854
000360 02 9d 2d 3b 35 29 28 bc a6 01 c7 bc a8 33 27 bc
       0.002649129 -0.010263731 -0.024292778 -0.010205187
000370 91 16 6b 3b d1 21 46 3b ad 61 d1 3b 9f a0 5c ba
       0.0035871605 0.0030232558 0.0063898177 -0.00084162684
000380 99 ae 06 bc c5 66 f0 3b ad b7 80 3b dd 98 8e ba
       -0.008220338 0.00733647 0.003928146 -0.0010879297
000390 c7 6f 85 bb 73 7a 0c 3c fa 0e a3 3b 4f d2 60 bb
       -0.004072163 0.008574116 0.0049761506 -0.0034305041
0003a0 66 e2 20 bb 92 52 5f ba d3 e3 31 3c ee f6 19 bc
       -0.0024549006 -0.0008519079 0.01085754 -0.0093972515
0003b0 73 c6 11 bc e0 f3 45 bb ad 1f 2c 3b 11 3f d8 bb
       -0.008897412 -0.0030205175 0.0026263997 -0.006599315
0003c0 7b e6 36 bc c8 a2 d8 bb b8 53 5f bb 3b e8 1d bc
       -0.011163349 -0.006611202 -0.0034077 -0.009637888
0003d0 f7 ea 4a 3c 0c fb 91 bc 34 f7 08 3b 18 f8 b8 3b
       0.012385122 -0.017819904 0.0020899298 0.0056448095
0003e0 e2 9d ab bb 76 78 1f bb 5c 23 26 bc 49 71 4d bc
       -0.005237327 -0.0024333275 -0.010140266 -0.012539216
0003f0 8e a8 ea ba 45 5e dd 3a 51 d6 85 b9 2d 91 28 bc
       -0.0017903016 0.0016889056 -0.00025527415 -0.010288519

action_model._discrete_distribution.branches.1.bias f4 [3]
000000 df 83 4c 3a 45 17 f5 bb c9 ca c0 3b
       0.0007801633 -0.0074795806 0.005883549
