results/skillBoat/boat/boat-330057.onnx (onnx, 340257 bytes, 11 tensors)

discrete_act_size_vector f4 [1, 3]
00000000: 0000 0040 0000 4040 0000 0040
2.0 3.0 2.0

network_body._body_endoder.seq_layers.0.weight f4 [256, 58]
00000000: 2f05 3e3e f34b b7bd 302d 88be 70ac 093d
00000010: 291f 853d 9ac2 213e 374c 023d 5950 c8bb
00000020: 3776 833d b2f3 113e bbf4 5bbd 042d 763c
00000030: c111 253e 0e83 b8bd 1ba3 083e effe 903d
00000040: 468d 3bbe 1ff5 1bbe 73dc 34be c378 e3be
00000050: b343 afbd 3f4b 06be b863 863d e459 5f3e
00000060: 271b 67bd caa1 483e 2f67 0e3e 8bc5 3abe
00000070: 2551 dbbc bc03 ed3d 056c 89bd 89d3 0fbe
00000080: cdba d2bd bad8 65bd 2f1a 6dbe 2000 c2bd
00000090: 2906 0bbe fff0 2f3e 680d 183e acc1 98be
000000a0: d358 3abe ea82 643e d87c df3c 64f5 0abd
000000b0: 8583 6abc ebc3 123e f0cf ba3d 2ea8 a0bd
000000c0: 8cc4 af3c 002f 3f3e 451d 41be ce2a e63d
000000d0: a378 6fbe 54f1 8e3c 28e3 f1bc e2f8 0e3d
000000e0: fa30 42be 39ce 433b 9343 a7bd a113 2c3d
000000f0: 8c37 c2bd 1ad8 623d f955 90bd dd45 dc3d
00000100: 69a2 b5be 3097 ccbc 3e3c 683e 5d1c f6bd
00000110: 897f 85bd b360 b13d 9ba2 4abe 19c9 18bd
00000120: 5422 c7bd bacf 5bbc d222 e2bd 3c1c 96bd
00000130: 4a5f 1ebe ab6f 5f3e 67a8 dd3d 1a95 cebd
00000140: 2e92 12be 83f9 4abe 5778 6dbe af40 bdbd
00000150: 8bb2 25be 5113 3bbd c98b ba3d 3377 1dbe
00000160: 1628 2e3e 80c7 66bd 84ff 3abe 579b 7c3d
00000170: 0d3b a7be 6b3f 8cbb fe92 41bd 8b91 e63d
00000180: ec08 b6bd dacb 8bbc 4bb8 78bd 3b8c c63c
00000190: 7a62 9ebd 97a8 a8bd 5c6f 2a3d 985b 03bd
000001a0: 86bd ae3d 7602 0b3e 4927 fcbc 51b3 b0bc
000001b0: cb3e 2c3d 965d 97ba 4319 893e 735f 783b
000001c0: 9c1e e33d 4048 fcbd 9294 02be b372 f3bd
000001d0: 0e02 1dbe 3701 263c 2ce0 57be 4405 b7be
000001e0: 5f68 77bc 47ed 75bd 39d1 98bc 20ba e6bd
000001f0: 9fa2 e23d 9510 603e 5e12 f33d 9a0d 693d
00000200: 633e 19bc 2ae1 193e c812 8b3d b589 b2bd
00000210: 5002 16bd 2839 073e b1a8 b4bc ab4b 81bd
00000220: 8a76 19bd 1d42 213d d54b b3bc 877a 91be
00000230: 80d1 3d3d d963 74bd 93fa c93d bc90 3ebe
00000240: b76b 96be 3f1f 713e 6a0a 5fbc 86bc 0a3e
00000250: bbdd 583e 87d1 36be 74a3 4cbb 10e4 13bd
00000260: 3f82 ec3d 88a0 85be 7317 6bbe 3ca4 563e
00000270: ccd1 f5bd d2e5 9abc 2913 71bb 29e3 8abd
00000280: da93 cbbd 5b86 4c3e f7cf 203d 1f29 c1bd
00000290: d4fa 03be 5d72 3e3e 24cc 953e 8beb bb3e
000002a0: d628 243c 3846 983e 6263 233d 4c5b 18bd
000002b0: a198 46bd 8b86 ecbc 643f 853e 75d4 333d
000002c0: dd8a dfbd 52ae 983e a04e b1bb 31fb 92bd
000002d0: fdb6 693c f492 90bd 123a 15be b7cf bfbd
000002e0: efb4 2abe e294 adbd 592f 06be a1c4 7cbd
000002f0: 0085 ecbd 78d0 cdbc 53e6 e73c cf1b 633e
00000300: 711b 8b3d 32a5 adbd d2b2 173e 2a11 b73d
00000310: 1716 663e 41b5 793e 1b2b 3cbe 3f0c 963d
00000320: 3972 26bd 0750 b1bb d99f 59be 0353 8c3d
00000330: ee6b ad3d f51d aabd 7c55 84bd e722 a3bd
00000340: 09c6 053e 7013 0cba d3e1 06be 3a31 773e
00000350: 56e4 153d 0577 293c a9f7 9f3d c74b b13d
00000360: 8ca9 87be 8bdf 4e3d 5ef2 093d 16be 253d
00000370: 34c3 00bd a5d1 253e 409b 46bb 4b1e babc
00000380: 27fe 93be 07da 703d f60f 14bc 9276 2f3e
00000390: 344f 20be 875e 04be c959 d43e a00d 0fbd
000003a0: bd16 8f3d a3c6 663d dfd3 8a3e f31d 8cbe
000003b0: c552 c03c b97b 0bbd f699 1e3d 4b1f 87be
000003c0: 3bba 20be 277e 52be 1c89 eebc f89e bdbd
000003d0: 3a3b 0d3e f4cc 50bd c08f 9cbe 4f33 b0bd
000003e0: 9a45 9fbc 5a4b 4f3e 27f6 30bd f051 8fbe
000003f0: d819 8fbc 93d7 123c 81ec 65bd 51b7 e9bd
0.18556665 -0.08950033 -0.26596975 0.033611715 0.06500084 0.15796891 0.031810965 -0.006113094
0.06419032 0.14253119 -0.05370019 0.015025381 0.16120054 -0.09009372 0.1334347 0.07079875
-0.1831561 -0.15230225 -0.1766222 -0.4442807 -0.085578345 -0.13114642 0.065619886 0.21811634
-0.05642238 0.19592968 0.13906549 -0.18239419 -0.026772091 0.11572978 -0.06710056 -0.14045538
-0.10289536 -0.05611489 -0.2315452 -0.0947268 -0.13576569 0.17181776 0.14848864 -0.2983526
-0.18197946 0.22315565 0.02728121 -0.03392543 -0.014313583 0.1433255 0.09121692 -0.07844578
0.021456026 0.18670273 -0.18858822 0.11238633 -0.23385863 0.017449059 -0.029527262 0.034905322
-0.18963996 0.0029877557 -0.08167186 0.042010907 -0.09483251 0.05538187 -0.07047648 0.10755513
-0.35475472 -0.024974436 0.2267923 -0.120171286 -0.06518466 0.08661022 -0.19788592 -0.037301157
-0.097233444 -0.013416225 -0.11041798 -0.07329604 -0.15466037 0.21819942 0.10823136 -0.100870326
-0.14313576 -0.19821744 -0.23190437 -0.09240853 -0.1618139 -0.04567272 0.09108693 -0.15377502
0.17007479 -0.0563426 -0.18261534 0.06167158 -0.3266224 -0.004280021 -0.047259323 0.11258229
-0.088884205 -0.017064977 -0.06072263 0.024236789 -0.07733627 -0.08235281 0.041610107 -0.032069772
0.085322425 0.13575158 -0.030780451 -0.02156988 0.04205207 -0.0011548277 0.26777086 0.003789869
0.11089823 -0.12318468 -0.12751988 -0.118871115 -0.15332815 0.010132126 -0.21081609 -0.35746205
-0.015100568 -0.06004074 -0.018654453 -0.11265969 0.11066174 0.21881326 0.11868738 0.056897737
-0.009353253 0.150273 0.067906916 -0.08717672 -0.0366233 0.13205397 -0.022053095 -0.06313261
-0.037466563 0.03936969 -0.021886745 -0.28413793 0.046342373 -0.059665535 0.09862246 -0.186099
-0.29379055 0.23547076 -0.013613323 0.13548478 0.21178333 -0.17853366 -0.0031225355 -0.03610617
0.1154828 -0.26099038 -0.22958164 0.20961088 -0.12002906 -0.018908415 -0.0036785102 -0.067816086
-0.0994031 0.19973128 0.03926083 -0.09431671 -0.12888652 0.18598314 0.2925731 0.36703143
0.010019502 0.29741073 0.0398897 -0.037196442 -0.048485402 -0.028872749 0.26024926 0.043903787
-0.10915158 0.29820496 -0.005410984 -0.07176817 0.014264819 -0.07059279 -0.14572933 -0.0936579
-0.16670583 -0.08475663 -0.13103999 -0.061710957 -0.11548805 -0.02512382 0.02830807 0.22178577
0.067923434 -0.08478774 0.14814308 0.08938821 0.22469364 0.24385549 -0.18375818 0.073265545
-0.040636275 -0.0054111513 -0.21252383 0.06851771 0.084678516 -0.08306495 -0.06461617 -0.079656415
0.13063826 -0.00053434726 -0.13172083 0.24139872 0.03659471 0.010343318 0.07810909 0.086570315
-0.26496542 0.050506156 0.033678405 0.040464483 -0.03143616 0.16193254 -0.0030304939 -0.022719523
-0.2890484 0.058801677 -0.0090370085 0.17135075 -0.15655214 -0.12926684 0.4147475 -0.034925103
0.06986759 0.05634178 0.2711477 -0.273666 0.023476968 -0.034053538 0.038721047 -0.26391062
-0.15696041 -0.20555936 -0.029118113 -0.092588365 0.13792124 -0.05097671 -0.30578423 -0.08603536
-0.019442368 0.20243588 -0.0432035 -0.279922 -0.017468378 0.00896253 -0.05613375 -0.11411918

network_body._body_endoder.seq_layers.0.bias f4 [256]
00000000: 21ce 4b3b 6cbb 7f3b c973 e53c 66f3 573b
00000010: a6db b1bb 98ad 733b beb4 f2bc a975 fb3c
00000020: 2507 b4bc 36f3 783b 43af 563c 9b33 c9bb
00000030: ed3b 0a3c ad4f 173c 912c 89bb 8dda a7ba
00000040: 6cc5 aeba 33d0 723b 247e 193d 0331 c6bb
00000050: 7bf2 06bc d4cb d33c 957e aabb d245 183c
00000060: b1b2 80ba b857 a13c 2eda 473b c487 85bc
00000070: bc4d 63bc 22ee 423b e2cf 713b 2e76 80bb
00000080: df82 22bc 43bd 47bc 1d02 a0bb 0887 51bc
00000090: de2f 36bc 5bf6 80bb 45ca 82bc 7db8 31bc
000000a0: 68f8 103d 4e91 923c 0971 4ebb aca6 ef3b
000000b0: c0d7 963b fdeb 76bc cc24 0dbc 56a0 c4bc
000000c0: 6eb6 963c 4d5e 0ebb a0e6 bbbc e55f cb3b
000000d0: 3299 24ba 6071 51bc 7d6e 3abc 3623 063c
000000e0: 561c 8d3c a4b5 93bb 4777 3abc d549 51bb
000000f0: f13f 453c 74d3 29bc ba78 c7bc 49e7 2c3c
00000100: 7321 2dbb 77c4 943b 2cbe ccbb dcd9 aabb
00000110: 4f6d 2fbb 91f4 18ba bc2b 21bc 656d 03bc
00000120: 9feb f6bb 91d2 303d 0f38 06bc 9111 c83c
00000130: 3f3a ac3c 6331 48bc 658d c6bb d4a7 4d3c
00000140: c4bb 1cbb f447 643b ad1f fe3b e30e aa3b
00000150: ceff 393d a472 f83c 3e4e 013d 0467 8b3c
00000160: 4e81 54ba c10b 4dbb 76ec 443c 20ae 063d
00000170: 3cfd 44bc c8d0 9bbc 1a47 603b e54c e53b
00000180: ed70 ac3c 5ba4 51bc 06eb e73b 1571 243c
00000190: 98f7 f7b8 5e8a c03c 7901 debb 31b5 523c
000001a0: fdaa 66bb 9c42 11bc e2bb 253c 1883 db3c
000001b0: 9cdb aa3c 860c 9c3c ae31 a7bc 28b2 263c
000001c0: 03ea 283a ffee 68bc 60c0 6abc 71b4 adbc
000001d0: 3f0d 46bc 90d0 24bb f793 f13b 2eca 01bb
000001e0: cf19 95bc 6fd7 9fbc c6c0 2ebb 5175 563b
000001f0: bfc5 adbb 9946 c1bb 60a2 aaba 14a7 11bc
00000200: ccfc fb3c 02c4 1ebc 677d 40bc feca e33b
00000210: 155d bc3a 0b6f b039 413b 10ba 47f1 a6bc
00000220: 7f52 cdbb 0ae3 aa3c 4abc 8dbb 16b4 5cbc
00000230: cd6e 513c 5622 77bc 4e6c 90bb badb bb3c
00000240: 5f54 de3b 197c 643b dd2c 1bbb 4514 34bc
00000250: 7524 95bc 0aba 953c 0a15 853c 520e adbb
00000260: 8106 05bc 93d0 72bc 6ca7 04bc d190 b1bc
00000270: 79f7 81bc 83c7 ea3c b2b7 67bc e908 a9bb
00000280: f317 97bc fdfb 853c e4c6 413b 2b5c 01bb
00000290: ea69 9d3a b65d 4d3b 6feb 18ba 85c4 71bc
000002a0: cdc7 55ba 21bc 5b3c c110 053d 0707 97bb
000002b0: eb3b ad3c 9dac 88bc 1a85 ed3b 185d 1c3c
000002c0: 351d 34bc ede1 733c 3a2e 72bc e57a 96bb
000002d0: 0835 893c a92e 01bc 9459 31bc d005 eb3b
000002e0: 1728 3e3b 899a aabb 311a a9bb f57d febc
000002f0: d88f 0539 8538 feba 74a7 d23b 9a80 3f39
00000300: a2e4 2cbc ee6c 50bc 67f6 afbb 54d7 cabb
00000310: a9c6 59bc f705 803a cf98 633b 62b2 0f39
00000320: c314 76bb 9059 f239 dfd4 20bc bd98 7d3c
00000330: 31ff 173b 201d 0e3b 4212 89ba 3ecb debb
00000340: 4ee6 be3c bb1a 8aba 4aab 28bc 61f1 fbbc
00000350: d4b7 a23c a3e1 e1bb 03fb 2d3b c924 28bc
00000360: 2639 51ba b9fd 13bc 7ee1 28bc b2bf 78bc
00000370: 005e 42bc dd04 3a3c 3891 fdbb 6574 f5b7
00000380: f9fa e83c 07cb dabc 2e28 33bc 181d 123c
00000390: 37ca 95bb 79a0 c0ba 2377 923c 145c aabc
000003a0: 5fb4 15bc f254 25bc 9bd5 54bb 0f18 29bc
000003b0: 08f4 9cbc 163b b639 4c83 8b3c 1042 adbb
000003c0: 4bb4 28bc ac3a b7bb b70f e03b ffd9 863c
000003d0: ca7c 253d ef1d 4bbc 2f1d 0abc e2e5 893b
000003e0: 8dab 6abc d72d 3f3c 0f77 03bc f13b cebb
000003f0: d5e5 ba3c b3f8 11bc dfd4 d4b9 268c 32bc
0.0031098204 0.0039021624 0.028009312 0.0032951473 -0.0054277955 0.0037182327 -0.0296272 0.030695753
-0.021976063 0.0037986762 0.013103309 -0.006140185 0.008437139 0.009235305 -0.004186221 -0.0012806222
-0.0013333983 0.0037050366 0.037473813 -0.006048323 -0.008236523 0.025854029 -0.005203078 0.00929399
-0.0009818879 0.019695148 0.0030495035 -0.01630009 -0.013873514 0.002974399 0.003689759 -0.003920338
-0.009918897 -0.01219112 -0.0048830644 -0.012788542 -0.011119811 -0.003935618 -0.01596559 -0.010847208
0.03539315 0.017891552 -0.003150048 0.00731357 0.004603356 -0.015070912 -0.00861473 -0.024002235
0.018397536 -0.0021723688 -0.022937119 0.0062065 -0.00062789314 -0.012783378 -0.0113788815 0.008187106
0.017225426 -0.0045077372 -0.011380977 -0.0031934876 0.012039171 -0.010365356 -0.02434956 0.01055319
-0.0026417642 0.004540022 -0.006248256 -0.005213959 -0.0026768034 -0.0005834783 -0.009837087 -0.008021687
-0.0075354124 0.04316956 -0.008192076 0.024422439 0.021023868 -0.012218806 -0.006059336 0.01255222
-0.0023915628 0.0034832926 0.007755241 0.005189763 0.04540997 0.030328102 0.03156876 0.017016895
-0.0008106426 -0.0031287523 0.012019267 0.032880902 -0.012023266 -0.019020453 0.0034222067 0.006997692
0.021049941 -0.012795533 0.0070775775 0.0100367265 -0.00011823996 0.023503479 -0.006775078 0.012860582
-0.0035197132 -0.008865979 0.010115596 0.026795909 0.020856671 0.01904894 -0.020409431 0.010174312
0.0006443562 -0.014217137 -0.014328092 -0.021204205 -0.012088119 -0.0025148727 0.007372375 -0.0019804346
-0.018200783 -0.019511906 -0.0026665195 0.0032723735 -0.005303114 -0.0058983085 -0.0013018362 -0.008889932
0.030760191 -0.009690287 -0.011748648 0.006951689 0.0014371002 0.0003365207 -0.00055019936 -0.020378722
-0.006265938 0.020860214 -0.0043254243 -0.01347067 0.012782765 -0.01508387 -0.004407442 0.022931922
0.00678496 0.0034864007 -0.0023677864 -0.010991161 -0.01820586 0.018277187 0.016245384 -0.005281248
-0.008119226 -0.014820236 -0.008096557 -0.0216755 -0.015865074 0.028659588 -0.0141429175 -0.005158533
-0.018444037 0.016355509 0.002956801 -0.0019738774 0.0012009714 0.0031336374 -0.0005833422 -0.014756327
-0.0008155078 0.013411553 0.03248668 -0.004608992 0.021146735 -0.01668387 0.007248533 0.00954368
-0.010993292 0.014885408 -0.014781529 -0.004592287 0.01674892 -0.00788466 -0.01082458 0.0071723238
0.0029015595 -0.0052064103 -0.005160593 -0.03106592 0.00012737454 -0.0019395506 0.0064286534 0.00018263087
-0.010552557 -0.012721283 -0.0053699496 -0.00619022 -0.013291993 0.0009767403 0.0034728532 0.00013703996
-0.0037548996 0.00046224566 -0.009816377 0.01547831 0.0023192877 0.002168484 -0.0010457712 -0.0067991307
0.023303177 -0.0010536531 -0.010294745 -0.030754747 0.019863047 -0.006893353 0.002654732 -0.0102626765
-0.0007981233 -0.00903266 -0.010307668 -0.0151824225 -0.011863232 0.011353699 -0.0077382587 -2.9260476e-05
0.028439986 -0.02670814 -0.010934873 0.008918069 -0.004571225 -0.0014696262 0.017879074 -0.02079586
-0.009137242 -0.010091053 -0.0032475952 -0.010320677 -0.019159332 0.00034757768 0.01703038 -0.0052874163
-0.010296891 -0.005591711 0.006837811 0.01646137 0.04040221 -0.012397273 -0.0084298095 0.0042083124
-0.014323127 0.011668644 -0.008023991 -0.0062937667 0.02281467 -0.008909392 -0.00040594392 -0.010897672

network_body._body_endoder.seq_layers.2.weight f4 [256, 256]
00000000: d621 f93d 8d85 c63d 8202 d2bd 610a 15bc
00000010: cae8 a43d af74 8c3d cfda d83c 9789 323d
00000020: 109c a9bd 60f0 80bd 93b5 2bbd e2a9 49bd
00000030: 663f 103d 85f8 9b3d 63ba dbbc dc05 9f3c
00000040: 975b 4cbd aef4 463d 0742 a9bc e120 cf3c
00000050: ad4a de3d 473f 17bc de57 3d3d 556d 65bb
00000060: 90d2 203c 208f c53c fe67 43bd 853f d7bc
00000070: 4c3b 8abc 906c ca3b e0e0 643d 766b ff3c
00000080: 500e 8fba 64e7 ab3d 7111 c7bd 6046 6f3d
00000090: 03c2 a03c 4c43 c4bd 8bb6 3bbc e63f 723d
000000a0: 2c8d 0f3d 44f0 a7bd 69e6 e23d 6af4 a83c
000000b0: bc6d 953b f6d5 643d b12e b73b 8ec8 893d
000000c0: 95fc 42bd 9c06 223c 5150 a3bd 85bf 953d
000000d0: 0e56 8ebd 5940 723d 13a6 f4ba f7f4 4e3c
000000e0: 26b0 24bd 32fe f23d b223 f1bc 1f09 c5bd
000000f0: b45b 463d 1045 cabd 7619 763b 33d7 fbbc
00000100: 35f8 ce3c aeea 4e39 4631 7cbd e8c3 943d
00000110: 1b6a fcbc 4188 34bc 0195 8ebd 8cde 573d
00000120: d034 e53d 3fa2 32bd 161b aabd 81fc af3d
00000130: ea6b 0c3c 0387 afba 5ea0 c4bc 56f2 ee3b
00000140: 0317 a83d 86c0 f2bd 4492 1abd 5ca7 d33d
00000150: 95bf 653c 524f 793d 01ad 8ebc e13c db3b
00000160: c4f9 b4bd ad04 4e3d fea0 983d 4aa0 e2bc
00000170: 4aee 2cbd 1f98 963b 3f10 84bc aeef 093d
00000180: 7e2d 983c a0c3 61bd f9cf 89bb df81 a73d
00000190: a101 373c c552 47bc 9ed0 50bd 451f b93c
000001a0: aed8 d43b 3f7d 3c3e e21f 383c 77eb fc3c
000001b0: 9322 06be b1eb efbd 3654 b2bd 9bba 953d
000001c0: a869 8e3b c283 f9bc 86cb f23d 425a 33be
000001d0: 2429 7fbd 5d4b 443c 049d 183d 03a4 b7bc
000001e0: 52ef e33b d6b1 c53b 9121 41bd 434a ddbc
000001f0: 2600 afbc cae5 003d e3f6 a93d 7752 c23c
00000200: 73d6 603d f649 b8bb 1f5a 933b 828c d33d
00000210: 334a 9fbd 2fc3 943d cf6b 763d c925 3dbd
00000220: cf01 093c 263a 213d d9f1 72bc f87b 63bd
00000230: f149 d5bc 3292 55bd 45d8 20bd a43c 8f3d
00000240: 1547 8ebc 13f7 2e3d 3cba 6eba b046 a3bb
00000250: 4f80 0d3d 1f8a 88bd 3c68 863b 5b59 f4bc
00000260: 0fd5 56bc 7f72 0fbd 7f25 af3d 1a80 49bd
00000270: a969 5cbb 7594 88bd 6604 43bd 54eb 1d3d
00000280: c8e0 9e3d 22e3 0fbd 9f74 95bd 3393 d03c
00000290: 1218 1e3d 30eb ce3d 3304 07be 290f b33a
000002a0: 4fdb 0bbc fa7e 18bd fa22 98bd fa60 01be
000002b0: 7a4a 5f3a c5ae d13d 85f6 96bc d518 b33c
000002c0: 19ca e93c 7ff6 b8bd f5b0 843c 5dc9 153c
000002d0: ed62 ae3b a62c 0dbc a3a7 0fbd a3da 2abd
000002e0: a91a f1bd 1bca 7dbd e961 01ba 2a4f 5fbc
000002f0: 9aab 94bc 62a8 0ebd 78ab 0abc c314 893d
00000300: b10c ccbb 5eda 18be 1ba4 de3d 1c70 c23c
00000310: 008e 983b 133d 0fba 82aa 553d 8ef2 95bd
00000320: b95e b5bd 2c4b 6ebb 3184 063d e2bf 353c
00000330: a523 95bc 4cb2 803a 65fc 9f3b f70b b63d
00000340: 89c2 453d 9d2f efbb ac18 6a3c e83a 89bd
00000350: 72f6 e7bd 9314 b43d d134 ef3c 5e0c aabd
00000360: bb9d 513b 23ef 91bc af5d b8bc 53ee c43d
00000370: 7c4f 82bd 7ef9 373d e101 813d a073 1ebd
00000380: 95ff bd3c 7705 debd 66ad f9bd beff c93c
00000390: 9849 d2bd befc 04be 2a12 6b3c 9103 66bd
000003a0: 2cd3 133c 69a2 db3d 4ac8 5f3d 45b2 f4bc
000003b0: 59c9 03bd a34a c53d 12a5 eebd 13cb 65bd
000003c0: b16c 20bd 1f03 2d3b 677c 2c3d 9052 2bbd
000003d0: 786b 59bd bd39 2a3d 70f0 ddbd e603 f8bd
000003e0: 1d54 ae3c fed7 dd3c b705 8fbd ce09 0dbd
000003f0: b714 36bd 8a37 693d 47d5 a33c 8580 c03c
0.12164657 0.096934415 -0.102543846 -0.009096713 0.080522135 0.06858193 0.026471524 0.043588247
-0.0828172 -0.06295848 -0.04192121 -0.04923428 0.03521671 0.07615761 -0.026822275 0.019411974
-0.049892034 0.04857319 -0.020661367 0.025284233 0.10854087 -0.009231395 0.046226375 -0.0035007794
0.009815827 0.024116099 -0.047706597 -0.026275406 -0.016873978 0.0061774924 0.05587852 0.031179171
-0.00109143 0.08393744 -0.097201236 0.058416724 0.019623762 -0.09583148 -0.011457096 0.05914297
0.03504674 -0.08200124 0.110791035 0.020624358 0.0045602005 0.05586811 0.005590283 0.06727706
-0.047604162 0.009889271 -0.079743035 0.0731192 -0.069500074 0.059143398 -0.0018665217 0.012631646
-0.04020705 0.1186489 -0.029435966 -0.0962088 0.0484273 -0.09876454 0.0037551797 -0.030742263
0.025264839 0.00019733116 -0.06157043 0.07263929 -0.030812314 -0.011018814 -0.06962014 0.05270247
0.11191714 -0.04361176 -0.083059475 0.08593083 0.008570651 -0.0013391677 -0.02400225 0.0072920723
0.08207514 -0.11853127 -0.037737146 0.10334656 0.0140227275 0.06086666 -0.017416479 0.006690607
-0.088367015 0.050297428 0.07452582 -0.027664322 -0.042219438 0.004595771 -0.016121028 0.033675842
0.01857638 -0.055118203 -0.0042057005 0.08179068 0.011169822 -0.01216573 -0.050980203 0.022597918
0.006495557 0.18407153 0.01123807 0.030873997 -0.13099127 -0.117148764 -0.08707468 0.07310983
0.0043460913 -0.030458335 0.11855225 -0.175149 -0.062295094 0.011980859 0.037259117 -0.022417074
0.0069560194 0.0060331626 -0.047151152 -0.02701295 -0.021362375 0.031469144 0.08299043 0.023720963
0.054892015 -0.005624051 0.0044968273 0.10329534 -0.07777824 0.07263791 0.060161408 -0.046178613
0.008362248 0.039362095 -0.014828169 -0.055538148 -0.026036235 -0.052141376 -0.03926875 0.06993988
-0.017367879 0.042716097 -0.00091067306 -0.004982792 0.034546193 -0.066669695 0.004101781 -0.029827764
-0.013112321 -0.0350213 0.08552074 -0.049194433 -0.0033632314 -0.06668941 -0.047611617 0.038554505
0.07757717 -0.03512872 -0.07297634 0.025460815 0.038597174 0.10103452 -0.13185196 0.0013661134
-0.008536174 -0.03723047 -0.07428546 -0.1263465 0.0008517873 0.10238413 -0.018428097 0.021862427
0.02853875 -0.090313904 0.016197661 0.009142247 0.0053218515 -0.008616602 -0.03507198 -0.041712414
-0.11772663 -0.06196032 -0.0004935549 -0.013629714 -0.018148232 -0.03482855 -0.008463733 0.06693413
-0.006227099 -0.1492705 0.108711444 0.023735099 0.0046555996 -0.0005464118 0.052164562 -0.07321654
-0.088559575 -0.0036360724 0.03284091 0.011093112 -0.018205473 0.0009818762 0.0048823827 0.08889001
0.048281226 -0.007299377 0.014288109 -0.067006886 -0.113263026 0.08792987 0.02919999 -0.0830314
0.0031984884 -0.017814225 -0.02250561 0.09615769 -0.06362817 0.04491567 0.062991865 -0.038684487
0.02319316 -0.10840886 -0.12191276 0.02465808 -0.10267943 -0.12987038 0.014347592 -0.056155745
0.009022515 0.10724337 0.05463437 -0.029870162 -0.032174442 0.096333764 -0.116525784 -0.05610187
-0.039166156 0.0026399565 0.042110827 -0.041826785 -0.053081006 0.04155897 -0.108368754 -0.121101186
0.021280343 0.027080532 -0.06983512 -0.03443318 -0.04445335 0.05693773 0.01999916 0.023498783

network_body._body_endoder.seq_layers.2.bias f4 [256]
00000000: e84a cebb b497 3cbc e5cb 9e3c cda1 9b3c
00000010: 232b fcba 4dae 1bbc 445a 80bc b7f5 4bbc
00000020: 5c0b 01bb 89bf 0fbc c646 edbb 2dbd 4f3c
00000030: 7576 d5bb 1c08 17bc 18e3 a9bb dd17 49bb
00000040: ae3a b0bb 6023 37bc cc47 a73c e9e4 96bc
00000050: dbb4 59bb 01a5 1cbc fcae a6bc 9387 663c
00000060: e5f6 08bc ef21 06bc 7dbe b53c 7d7b adbb
00000070: a1c0 98bc 6b8a f8bb 3b76 33bb 4b5a 7dbc
00000080: 74aa 33bc cc0c 59bb ddc0 1a3a 45d0 6b3b
00000090: cf1c 0fbc 4f7f 64bc d800 833c 202a dc3b
000000a0: bc4a bd39 406f 61bb a119 473b b068 823b
000000b0: 847d e93a 4647 1abc a688 633b 4494 d7bb
000000c0: 278a 5cbc e06e 07bb 82c5 c13a 6c22 e0bb
000000d0: 14c2 903b f3ed a6bb 9589 b1bb 9fc6 203a
000000e0: 9910 a9ba 004a b9b9 d64f 513b 29bd 08bc
000000f0: 4946 f8ba 77a1 c53b 8351 47bc 2ae1 d4bb
00000100: fea0 1a3b 892c 8cbc 5f3c dabb 5e5b 46bb
00000110: 1470 833b db03 113c 8369 593c de52 84bb
00000120: cf14 2cbc cc67 24bb 96fe 693b d9f1 dcbb
00000130: 209c 8bb9 a16d ce3c afc4 ec3b b11d 5dbc
00000140: 8db0 85bb b9eb 85bb 6199 64bb 703f c53c
00000150: 83fb 96bc a3ca 36bc 0860 503a e079 8abc
00000160: 76d1 2cbb 0fbc 06bc 5dbf 463c 503a 83bb
00000170: 2149 e13c 3d57 d5bb 5a44 863b cf14 7eba
00000180: 6d42 7cbc 099a 0d3c c3ef 123b c64d 7dbc
00000190: 7347 7e3c 10aa 6d3b ed1b 9e3a 1b94 d7bb
000001a0: a232 3cbc 7686 9fbb a290 943c 8063 8c3c
000001b0: a4ab 23bc f401 7a3c 6031 3e3c 4486 0dbc
000001c0: 794e 263c 8db7 70bc 6cbc 76ba 9202 24bc
000001d0: 5cfb 94bc ebc2 2cb9 ecf2 3fbc b78f 8bba
000001e0: 853a a13c 8e93 83bc 95f3 503c c6da 60bc
000001f0: cdf4 a23c 9134 b2bb 4f7f 03bc b52e 8bbc
00000200: c0e7 33ba 3dfb 82bc 13c7 33bc afa2 2a3b
00000210: 61f3 e7bb 0128 8ebb 220d 2f3c 2439 0fbc
00000220: f8d8 b7bc 43ed 55bc 2844 1ebc a694 303c
00000230: 5b08 63bc 301b eabb e6c3 bcbb 6d1f f4b9
00000240: 03c1 0abc 4da8 e73c b817 7dbc b739 913b
00000250: a0b4 aabb 8ea9 423c 7834 b3bb b2f3 7dbb
00000260: 0a8f b83b 1130 653c 2c4f b33b 4445 143c
00000270: dbd2 adbc 5434 3b3c 7576 3cbc f7be 3f3b
00000280: fe27 53bb 883c dcbb 4ac9 02bc 3aa3 c3ba
00000290: d922 61bc 7d36 7abc 0225 d2bb cdc8 c1bb
000002a0: b0ea 443c 02c1 853c 53d0 c9ba 7c21 b8bb
000002b0: ffe5 9bbc 9ce2 ccbb a254 0cbc 797d c53b
000002c0: 9238 69bc 8ecf 88bc 284f d9bb 55e7 76bc
000002d0: dc2e 5bbc 66cd e5bb 66db e3bb 59eb 28bc
000002e0: 0863 bebb 93d3 a7bb a304 76bc 5171 0c3a
000002f0: 9b47 4bbb f119 223c c928 06bc ffe5 4cbc
00000300: f658 e03c 4ffb a2bb 5647 f13c d1bc 04ba
00000310: ef68 99bb 685d 36bb b5cb c2bb ea90 bbbb
00000320: bd29 7fbc c185 5dbc a2b3 35bb bfc8 83bc
00000330: b832 ca3c edf5 733b 4d5e 88bb 60ed bf3c
00000340: fb00 313b 4658 fcbb f30b 093b d8df 6fbb
00000350: 8cce 853c 6f2d 843c e75c 0a3c 038a ee3c
00000360: 4dab 95bb 07d9 86bc f02b 5cbc 61dd 1cbc
00000370: 9aac ec3a bb00 f5bb 32f0 eb39 a572 103c
00000380: 3fac 82bc 28a2 af3a d2b9 d4bb 9d4a 55bc
00000390: ff29 2a3a f1b6 463b 593e 91bb 9b73 57bc
000003a0: f954 cdbb 48a8 6e3b f3a2 8e3a 40e6 e7bb
000003b0: a139 d1bb 945a b8bb f047 53bb fd99 bc3c
000003c0: 2bee a4bc c362 44bc 17d1 51bb 5adb 1d3a
000003d0: 79cd d3bb fb93 7fbc fdd4 d5bb 2211 59bc
000003e0: 0755 013c 5c49 8a3a 454e 9cbb dc44 8abc
000003f0: fcb7 4e3b eece 4ebc 79b5 9ebc 0e79 11ba
-0.0062955506 -0.011510778 0.019384334 0.018998051 -0.001923893 -0.009502006 -0.015668042 -0.01244872
-0.0019690609 -0.008773693 -0.007241103 0.01267938 -0.0065143653 -0.009218242 -0.0051845424 -0.003068439
-0.005378089 -0.011177868 0.020419978 -0.0184197 -0.003321937 -0.009560824 -0.02034711 0.014070409
-0.0083596455 -0.008186801 0.022185558 -0.005294262 -0.01864654 -0.00758486 -0.0027383703 -0.015463422
-0.010965932 -0.00331192 0.00059033727 0.0035982293 -0.008734896 -0.013946368 0.015991613 0.006718889
0.0003610457 -0.0034398586 0.0030380266 0.003979765 0.0017813896 -0.009416407 0.00347189 -0.006578954
-0.013460672 -0.0020665452 0.0014783593 -0.006840041 0.004417667 -0.0050942837 -0.0054180124 0.00061331125
-0.0012898623 -0.00035341084 0.0031938455 -0.008345881 -0.0018941845 0.006031211 -0.01216543 -0.006496568
0.0023594494 -0.01711108 -0.006660029 -0.0030266861 0.0040111635 0.008851017 0.013269785 -0.004038199
-0.010503008 -0.0025086282 0.0035704724 -0.0067426977 -0.00026628468 0.02519876 0.007225595 -0.0134958485
-0.0040798844 -0.004086938 -0.003488146 0.0240781 -0.018430477 -0.011156711 0.000794888 -0.016903818
-0.0026369966 -0.008223548 0.0121305855 -0.004004754 0.02750069 -0.0065106438 0.0040975036 -0.0009692432
-0.0153966965 0.008642682 0.002242074 -0.015460437 0.0155199645 0.0036264695 0.0012062766 -0.006578935
-0.011486681 -0.004868324 0.018135373 0.017137289 -0.009989653 0.015259255 0.011608452 -0.008637968
0.010150545 -0.014692199 -0.00094122323 -0.010010378 -0.018186264 -0.00016475811 -0.011715632 -0.0010647689
0.019681225 -0.01606157 0.012753387 -0.013724035 0.01989212 -0.0054383953 -0.008025958 -0.016990045
-0.00068628415 -0.01598894 -0.010972756 0.0026036908 -0.0070785736 -0.004338265 0.010684283 -0.008741651
-0.022442326 -0.013057056 -0.009659804 0.010777628 -0.013856973 -0.0071443543 -0.0057606576 -0.0004656272
-0.008468869 0.028278494 -0.0154475495 0.004431929 -0.0052095205 0.011881245 -0.0054689012 -0.003874999
0.005632286 0.013988511 0.0054720845 0.009049717 -0.021218708 0.01142605 -0.011502852 0.002925811
-0.0032219882 -0.006721083 -0.007982561 -0.0014925965 -0.0137412185 -0.01527178 -0.006413103 -0.00591383
0.0120188445 0.016327385 -0.0015397168 -0.005619226 -0.01903057 -0.0062526 -0.0085651 0.0060269204
-0.014234679 -0.016700532 -0.0066317506 -0.015069802 -0.013377871 -0.007013011 -0.0069536446 -0.0103100175
-0.0058101453 -0.005121657 -0.015015754 0.00053574616 -0.0031018022 0.00989388 -0.008188435 -0.012506007
0.02738617 -0.004973806 0.029452961 -0.0005063536 -0.0046816985 -0.002782667 -0.005944694 -0.005724062
-0.015573916 -0.013520659 -0.0027725478 -0.016086934 0.024682388 0.003722544 -0.004161632 0.023428619
0.002700864 -0.0077009527 0.0020911663 -0.0036601927 0.01633384 0.016134946 0.008445001 0.029118543
-0.00456754 -0.016460909 -0.01343821 -0.009574265 0.001805681 -0.0074768937 0.00045001652 0.008816396
-0.015951274 0.0013399767 -0.006491878 -0.0130182775 0.0006491243 0.0030321444 -0.0044324812 -0.013150121
-0.006266233 0.0036416221 0.0010882303 -0.0070770085 -0.0063850437 -0.005626032 -0.0032238923 0.023022646
-0.020133099 -0.011986437 -0.0032015496 0.00060217606 -0.0064637032 -0.015599246 -0.0065256343 -0.013248714
0.007893807 0.0010550427 -0.0047700726 -0.016878538 0.0031542769 -0.012622578 -0.019373642 -0.00055493496

action_model._discrete_distribution.branches.0.weight f4 [2, 256]
00000000: 8112 a93c cdfd 063c ce24 973c 0e2b 10bb
00000010: 3baf 96b9 6433 413b 07bb be3c 46f5 72bb
00000020: 0227 683b ac22 03bb b7b5 643c 28a5 f4bb
00000030: 22aa 7aba aa1d 403c 16c9 3ab8 892f 6dbb
00000040: c646 263a c626 f33b 22a0 a83c 8f5e be3b
00000050: 58be d2bb 6a80 443b 4a35 85ba c3d7 38bb
00000060: 86ad e13b d9c8 4ab9 039b 003d 51da 1e3c
00000070: 089a 443a 7284 f2ba 0d8a 3fbb 800d 3d3c
00000080: f926 e13b fc98 faba a56f 05bc 219b 36bc
00000090: 4905 f23b 88e9 f73b 3735 06bc ca50 4c3c
000000a0: 6535 34bb dcd3 783c 8ffd f939 d305 5a3c
000000b0: c925 f43b cbf1 193c 5da9 ab3c 126f bb3b
000000c0: 19fe a53b 2d9f a0bb 90d2 22bc 23b3 29bb
000000d0: ef50 1d3a a982 e93c 24b0 a73b fcb2 c1ba
000000e0: 5edf e23b d13b 003b 8eb9 393b c950 243b
000000f0: cf89 69bb 0151 bdbb 3f82 9bbb 5286 613b
00000100: af45 bebc 007d 323c eef1 acbb 2ce8 983b
00000110: c501 ccbc d46d 5bbb 0a62 74ba e2e6 6ebb
00000120: f1fe 5c3a 47b0 d7ba 27b3 f4bb ce55 8f3c
00000130: ce61 c3bb 5efb 84bc 630e a0bb 6f96 bc3b
00000140: 3d38 7d3b bc2d ebbc fd50 e03b bb08 dd3b
00000150: b9d5 bc3c f154 403b 439b a5bb 3f1b 9f3c
00000160: 42e7 1bbc a50d 1a3c e40d 29bd dff2 8c3a
00000170: 8bcd c7bc 9ffe 1b3c f02c cebb 2cd7 b1bc
00000180: 7b25 093b d551 abbc 2d3d bbbc 8878 103c
00000190: d112 b7bc d808 46bc df4c 67bc 4782 cc3b
000001a0: 6b79 86bb c096 13bb 48dc 643c a7eb 5bbc
000001b0: bdfb 89bb 78ae dbbc 58a5 b13c ceff b43b
000001c0: b37c b9bc 8fa8 323c 4527 81bb 8aa3 543b
000001d0: 9118 0dbb 472e 003b e558 d53c 1904 173c
000001e0: 0696 91bc 0fd7 393b b133 a53b 0318 313c
000001f0: d975 d23a 2b8e be3b a66f 4e3b a80b 7e3c
00000200: 3bec d9bb 6cc9 fc3b 9ae8 3d39 2b83 96bc
00000210: 4c29 983b 8c92 00bc df38 d5bc d219 dabc
00000220: 80de 8c3c 4d2a e13b 093a 833a 28e4 40bc
00000230: de28 1b3c 0e8a 9c3b 68fb 063c cf9d 1f3a
00000240: bec2 0139 6b29 31bb a4cd ce37 a0a9 64b9
00000250: 9212 d6bb 4dae 683b 8b9b 003c 7ada f13a
00000260: 7a85 843b 1634 a5bb 44d4 0cbc 7828 2f3c
00000270: a526 8a3c 9e43 a7bc acab adb9 827f d7bb
00000280: b86e 62bb 1242 9e3c bf48 f43b 563f 30bc
00000290: dc30 2c3c ae39 6a3c 47b4 bfbb 0f85 45bc
000002a0: dba8 8b3a 4d44 7a3b 9bb6 9eba 90c3 1ebb
000002b0: 1bd9 873c ae0a 0bbc 4abe fabb 9673 663b
000002c0: 9457 083c f441 463c d61a 093c 1f57 8bba
000002d0: d730 e13b ccd2 fe3a 690b 91bb 0b05 3b3b
000002e0: 0659 833c f33b 31bb e020 033c 9ca3 bcbb
000002f0: b041 463c 02ef fbbb fc5c 3dbb c547 a33c
00000300: a1c7 6bb8 83a0 af3b 60ab 8c3c fe92 65bb
00000310: 288c 19bb 0ab2 b9bb a8f2 dd3a 780f 09bc
00000320: 5084 06bb 294d 993b 537e 543c a4ec 6a3c
00000330: 728e 183b 77f8 44bb 7a88 703b 8ba4 b2bb
00000340: a9a3 1d3c 0540 b1ba 09f1 6f3b 0b52 38bb
00000350: e0eb 0abd f3c3 67bc a4de fe3b a389 3bbc
00000360: a9dd 693c 8e07 4cbb 13d6 ac3c b57e 8bbb
00000370: e376 b53b 09c1 2c3c 1504 ecbb 6a93 e5ba
00000380: f029 c33c 8495 81bb 41f3 803c 0b2a 5a3c
00000390: d9b7 f2bb 5702 4abc 41a8 6abb f035 c33b
000003a0: b81c 7f3c 3717 54bc c46c d23b 1c56 29bb
000003b0: cb4f 0f3c 1433 9b3b 8ea1 1e3c 299b e2bb
000003c0: 81d7 d23a 3283 2a3c 3d03 e03b 94a7 e239
000003d0: 1bee 2bbc 3b3f 4a3c aa5b c83c 9325 89bb
000003e0: ab26 8dbb 24a4 d93b d9bb 9b3c edbf cc3b
000003f0: 6a59 e339 0548 003c 836b 2a3c 9b47 8cba
0.020638706 0.008239222 0.018450167 -0.002199832 -0.00028740786 0.0029480094 0.023282541 -0.0037072464
0.003542364 -0.002000968 0.01395934 -0.007465977 -0.0009562095 0.011725822 -4.453313e-05 -0.0036191663
0.00063429435 0.0074203936 0.02058417 0.005809612 -0.006431382 0.0029983767 -0.0010162976 -0.0028204776
0.0068871407 -0.00019339043 0.03139783 0.009695605 0.0007499759 -0.0018502607 -0.0029226572 0.011538863
0.006871101 -0.0019119079 -0.008144294 -0.011145384 0.007385884 0.007565681 -0.008191398 0.0124704335
-0.0027497646 0.01518723 0.00047681897 0.013307053 0.0074507934 0.009396027 0.020954782 0.0057200277
0.005065691 -0.0049017877 -0.009937897 -0.0025894127 0.0006001135 0.028504686 0.005117433 -0.0014778073
0.0069236 0.0019566903 0.002833936 0.0025072566 -0.003563512 -0.0057774787 -0.004745751 0.0034412337
-0.023226587 0.01089406 -0.0052778637 0.004666349 -0.024903188 -0.003348221 -0.000932247 -0.0036453535
0.0008430323 -0.0016455733 -0.0074676457 0.01749697 -0.005962587 -0.016233142 -0.0048845275 0.005755238
0.0038638257 -0.028708331 0.006845592 0.0067454255 0.02305113 0.0029347504 -0.005053909 0.019422172
-0.009515585 0.009402667 -0.041273013 0.0010753534 -0.024390003 0.009521156 -0.006291978 -0.021709047
0.002092688 -0.020913044 -0.02285632 0.008817799 -0.02234784 -0.012087069 -0.014117449 0.006241116
-0.0041038296 -0.0022520274 0.013968535 -0.013422883 -0.0042109177 -0.026816592 0.021685287 0.0055236584
-0.022642469 0.010904445 -0.003941449 0.003244611 -0.0021529535 0.0019558833 0.026043365 0.009217286
-0.017771732 0.0028356945 0.0050415625 0.0108089475 0.001605685 0.0058152876 0.0031499653 0.015505709
-0.0066504753 0.007714441 0.00018111095 -0.018373093 0.004643595 -0.0078474395 -0.026028095 -0.02662364
0.01719594 0.0068714977 0.0010011803 -0.011773147 0.009470193 0.0047771996 0.008238651 0.0006088884
0.00012374946 -0.0027032744 2.4652873e-05 -0.00021806965 -0.0065329755 0.0035504282 0.007849584 0.0018451952
0.004044232 -0.0050416095 -0.00859553 0.010690801 0.01686413 -0.020417985 -0.00033125037 -0.0065764794
-0.0034550857 0.019318614 0.007454961 -0.010757288 0.010509696 0.0142959785 -0.005850348 -0.012055649
0.0010655181 0.0038187683 -0.0012108864 -0.002422545 0.016583016 -0.008486433 -0.0076520788 0.003516411
0.0083216615 0.012100685 0.008368215 -0.0010630823 0.0068722772 0.0019441484 -0.004426409 0.0028536941
0.01603366 -0.002704379 0.0080034435 -0.0057568084 0.012100622 -0.007688404 -0.0028894534 0.019931683
-5.6214285e-05 0.0053597107 0.017171562 -0.003503024 -0.0023429487 -0.005666976 0.0016933279 -0.008365504
-0.0020525642 0.0046783877 0.012969571 0.014338646 0.0023278263 -0.0030055323 0.003670244 -0.005451744
0.009621539 -0.0013523108 0.0036612174 -0.0028125073 -0.033916354 -0.014145839 0.0077780057 -0.011446389
0.014274039 -0.0031132433 0.021098172 -0.004257048 0.005537854 0.01054407 -0.007202635 -0.0017515246
0.023823708 -0.003954591 0.015740993 0.013315688 -0.0074071703 -0.012329659 -0.0035805854 0.0059573576
0.015570812 -0.012944988 0.0064216573 -0.0025838679 0.0087470515 0.0047363136 0.009682072 -0.006915469
0.0016085954 0.010407256 0.0068363235 0.00043230935 -0.0104937805 0.012344177 0.024457771 -0.0041853874
-0.004307588 0.0066418815 0.019010471 0.0062484653 0.00043363433 0.007829671 0.010401609 -0.0010702492

action_model._discrete_distribution.branches.0.bias f4 [2]
00000000: f51c 05bc f41c 053c
-0.00812458 0.008124579

action_model._discrete_distribution.branches.1.weight f4 [3, 256]
00000000: f35b f93b 8055 bb3b aa33 c2bb d9df 1abc
00000010: e77f f43b c3e6 0b3c db65 283c 1b81 393c
00000020: 08cf a03c 3250 c4bb 7174 1f3c f448 a6bb
00000030: e606 95ba 0cd3 f83b 6777 0c3b ded8 4cba
00000040: f725 8fba a25b c03b be50 2ebc c3aa 133c
00000050: 887b 95ba 840b a73b c832 353c 0929 aabb
00000060: 43da 41ba cfd4 4a3b 4913 b3bc a137 873b
00000070: b52f fc3b 8024 193c 4820 003c 363b 9c3a
00000080: bd6b 583b f5ab ae3b 4552 3e39 1bb1 83bb
00000090: d663 213b 1142 6a3b 9258 08bc ceba 3dbc
000000a0: 1730 853a 6051 09bc f484 843c 2f4c 2dbb
000000b0: 2e14 763c 875a 21bb a4be 0bbc 7c2b d13b
000000c0: 6d49 9ab9 d969 8f3b 7877 4a3b 2d14 673c
000000d0: 11ad 823b 867e 863c 6bf4 c2bb a4bf f8bb
000000e0: c19c 2fbb f6dc b33b 096e 603b 690a c93c
000000f0: 1303 2abb a652 efbb 79c0 a3ba f982 1e3c
00000100: c4d4 853b d5f9 f63a 2b95 e8b8 095f 7fbb
00000110: eab7 44b9 faea f2ba b048 2ebb 4032 0e3c
00000120: c937 a9bb ca99 3dbc bac0 b5ba c28f b03b
00000130: 280c 18bb bb45 623a 98cf a03b 046a c43b
00000140: 0f67 c4bb 9fa5 403c b0c9 023c c23c 3bbc
00000150: 866d 25bc 0ed7 2d3c 736f 9abb 5760 0b3c
00000160: 7c3a 3abb 0d14 ab3c 1685 113c 72b9 a23c
00000170: 8e75 25ba 5060 203c a70d 5739 a196 5d3c
00000180: ca3a b33b 56a7 27bc b732 aa3c ac30 5b3c
00000190: 6cf5 483c e911 f33b 2e9f be3b 6a0e 8fbb
000001a0: 4e66 0dbc f641 433b 4006 81bc 63f7 853b
000001b0: d4ea 363c f2d3 223c 8e56 8ebc 1e2f e43b
000001c0: 4546 e93b 2692 543b 35af cf3b 28e0 abbb
000001d0: a2e8 6a3c db5e 6c3b 2135 cc3b 6445 82bb
000001e0: 26aa a1ba 0d82 f93a 589d 0dbc 86b0 0e3b
000001f0: 426d 90bb dc5e d9b9 7d7f 573b db1c bc3b
00000200: 7f83 b6bb 2ed6 683b 0ef3 79bb b6e5 433c
00000210: 4a75 a4bb bab7 193a c73d 133c 17bf 3c3c
00000220: df3f 533c 1ab2 a43c 42e5 393b 0a6c 063a
00000230: 9759 9f36 c73e 0e3c 742e 963b 6eb6 c03b
00000240: 3c40 7a3b 3dc8 9ebc a884 3f3b ce8a fabb
00000250: 3abc ef3b 11a5 a63a 77ac 113c 1267 7ebb
00000260: 2125 83bb 59c4 1dbb 3e8c a9ba 1584 8b3b
00000270: f7b7 3d3c 7630 9c3b 787d d8bb 25c4 c23b
00000280: 7ec3 5e3c 1fa0 523b 5512 8bbb 3feb 1e3a
00000290: fb6a f93b 4197 043c b419 e2b9 6c73 aa3b
000002a0: b51c 2abc 2c87 caba caf0 f03a 813e bf3a
000002b0: b81c 173b 3b32 28bb 8663 f73b b99f 853a
000002c0: 730b d53a e9f0 54bb fc76 8d3a b80d 0abb
000002d0: 1879 febb cf7a 333b 8b06 893a 3502 9d3b
000002e0: fcf2 373c a0e6 eab9 8485 7c3c 3d0c 3d3c
000002f0: 3ed1 253c bb24 56bc 9020 bc3a 63ac e93b
00000300: bcd9 1bbc c267 3a3b 4ead 8ebb 1897 b43c
00000310: 46a3 8a3b 32dd 8f3b 333a cfba 41a0 533c
00000320: 503e 4b3b 4e69 bf3b d93d 943b 532a 0c3c
00000330: 624b 09bc 78eb 8c3b 525c b63b feda b8bb
00000340: 9a32 24bc fb5b 193c e8cd 3e3b 7155 823b
00000350: a830 6b3c be4f 033b 0b71 e0bb ac35 c8bb
00000360: 06fb 28bc 1f7d 9dba 6c0f 5f3c cdd6 ccbb
00000370: 92ee a03b b349 e23b bcd1 ec3a c924 d4bb
00000380: 7574 523c 98d2 3b3c 8c53 5f3c b778 543c
00000390: 8391 6a3b 9743 903c c9d8 273b 9a98 b9b8
000003a0: 7d1f e6bb af19 923c da3f 02bb 5cbb 263c
000003b0: b37c a5bb e659 89bb 8785 bc3b 468f 0bbc
000003c0: 1f8f 3e3c cb94 4d3c ce6a 893c 73b1 21bc
000003d0: 61ff c53b 548c 093c d1b3 ce3b 101b 733c
000003e0: 1fdb 20bb c15c 093c 2ef1 3a3b c52f 6dba
000003f0: 2fea e8bb b769 3ebb 1a9e 693c f56a 10bb
0.007609838 0.0057169795 -0.005926569 -0.0094527835 0.007461536 0.008538905 0.0102781905 0.011322285
0.01962997 -0.0059910053 0.009732352 -0.0050746147 -0.0011369854 0.007593518 0.0021433474 -0.0007814298
-0.0010921349 0.0058702985 -0.010639368 0.009012881 -0.0011404613 0.0050978083 0.0110594705 -0.00519288
-0.0007394889 0.0030949598 -0.021859782 0.0041265045 0.007696117 0.009347081 0.007820196 0.0011919502
0.0033023201 0.0053305575 0.0001815046 -0.0040189154 0.0024626157 0.0035744945 -0.008321898 -0.011580182
0.0010161427 -0.008381218 0.016176678 -0.0026443114 0.01501946 -0.002462061 -0.008529339 0.0063833576
-0.00029427875 0.0043766317 0.0030893963 0.014103931 0.0039879163 0.016417753 -0.005949547 -0.0075912047
-0.0026796313 0.005488987 0.0034245274 0.024541097 -0.0025941774 -0.0073035536 -0.0012493274 0.009674781
0.0040842015 0.0018842766 -0.00011090407 -0.0038966557 -0.0001876053 -0.0018533163 -0.0026593618 0.008678973
-0.005164121 -0.011572311 -0.0013866641 0.005388231 -0.0023200605 0.00086316065 0.0049075596 0.0059940834
-0.005993731 0.011758237 0.007982656 -0.01142806 -0.010096913 0.010610355 -0.004712993 0.008506856
-0.0028416207 0.020883584 0.008881828 0.019863818 -0.00063117675 0.009788588 0.00020509084 0.013524682
0.0054696547 -0.010232767 0.020776136 0.0133783035 0.012265544 0.0074179065 0.0058173155 -0.004365732
-0.008630348 0.0029793954 -0.01575005 0.0040883287 0.011164386 0.009938227 -0.017375257 0.0069636246
0.0071189725 0.0032435744 0.006338025 -0.0052452274 0.014337691 0.003606728 0.0062319194 -0.003975557
-0.0012334033 0.001903595 -0.008643471 0.0021772697 -0.004407556 -0.0004146014 0.0032882385 0.0057407445
-0.005569875 0.0035528052 -0.0038139257 0.011956623 -0.0050188648 0.0005863864 0.008986897 0.011520169
0.012893646 0.020104457 0.0028365408 0.00051277934 4.748999e-06 0.0086819595 0.0045831744 0.0058811223
0.003818526 -0.01938259 0.0029223356 -0.0076459413 0.0073161395 0.0012713989 0.0088912165 -0.003881876
-0.004002229 -0.002407333 -0.0012935472 0.0042576888 0.011579505 0.004766519 -0.006606754 0.0059437924
0.013596414 0.0032138897 -0.0042441287 0.0006062276 0.00761163 0.008092702 -0.0004312523 0.0052017476
-0.010382821 -0.0015451661 0.0018382308 0.0014590771 0.002305789 -0.0025664705 0.007549706 0.0010194696
0.0016254022 -0.0032492226 0.0010792906 -0.0021065306 -0.0077659003 0.0027386432 0.001045422 0.004791523
0.011227366 -0.00044803787 0.015412692 0.011538562 0.010120688 -0.013070281 0.0014352966 0.007131146
-0.009512361 0.0028443192 -0.0043541556 0.022044703 0.0042308895 0.004390382 -0.0015810191 0.0129166255
0.0031012483 0.0058414107 0.0045239744 0.008555013 -0.008379789 0.004300531 0.0055652047 -0.0056413403
-0.01002183 0.009360309 0.002911443 0.0039774706 0.014354862 0.0020036544 -0.0068494133 -0.006109914
-0.010313755 -0.0012015438 0.013614517 -0.006251192 0.0049112523 0.0069057583 0.0018067877 -0.0064741117
0.012845148 0.011463784 0.013630759 0.012968234 0.0035792298 0.017610354 0.0025611392 -8.849912e-05
-0.0070227967 0.017834513 -0.0019874484 0.010176506 -0.0050502657 -0.004191625 0.0057532224 -0.008518046
0.011630802 0.012547682 0.016774561 -0.009868967 0.0060424064 0.008395273 0.006308057 0.014837995
-0.002454467 0.008383931 0.0028525102 -0.0009047951 -0.007107995 -0.002905471 0.014258886 -0.0022036408

action_model._discrete_distribution.branches.1.bias f4 [3]
00000000: 3f12 29bb 15cf 4cbc cfe7 623c
-0.002579823 -0.012500544 0.013849213

action_model._discrete_distribution.branches.2.weight f4 [2, 256]
00000000: 815b 6b3c 5495 813b 35e3 13bc d97a 9abc
00000010: d296 b6ba 492f 03bc 5802 1c3c 6d22 d33b
00000020: 5094 8139 a88a 66bb 96e9 deb9 8015 38bc
00000030: 44d3 e0bb e6e1 5f3c 5fac 103c f734 2ebc
00000040: 0324 70bb b279 d73b b27f 6abc 05f2 963c
00000050: 433d 763b 790e 163b 2452 7a3c 0803 45bb
00000060: d9ff 63bb 3dff 44bb f15e 6bbc b160 bc3b
00000070: d865 0d3c 9cfd 8939 1d35 7a3b 5084 be3b
00000080: bf01 823b 05d9 953b 3532 40ba e7e1 dabb
00000090: c1c5 f63b 5039 d73a a30f d1bb 07d2 b6bb
000000a0: 2277 3b3c 4c55 e2bb 3ca1 5ebb 2a5e d93a
000000b0: 7173 d3bb 6b10 073c 6489 aabc aaae 0cba
000000c0: 5890 493c 89e7 933c 5043 e73b 57a0 273c
000000d0: 2288 ce39 b70f 953c 3df5 22bb 3213 9cba
000000e0: a14c 5fbc fbf6 ee3b 3d8c 75bc 43d5 453c
000000f0: 31ea 04bc df07 8cbb ecb2 8b3b 3d39 963b
00000100: aee0 303c 1ac5 4a3c 885a c13b 1e58 3a3b
00000110: 5f66 e93b a844 d5ba ad63 8abb 7cf3 783c
00000120: 3782 02bb 7024 c63b 0e3e 313b 7dbd 453c
00000130: c67c 573c 591e a7bc 1914 9dbb 4ef9 1f3c
00000140: 01f0 49bc fec3 5b3c 7276 bbbb 1f1f 7dbc
00000150: 1ca6 973c 556a c33b 71a1 953b 5f86 493c
00000160: 8f9c bf3b f879 b73c 0339 933c e731 683b
00000170: 444b 12bc c5f6 2ebb 1deb db3a f12a 573c
00000180: 78be 3b3c 7bbe b4bb 9748 093c 3af1 1f3c
00000190: 8514 3c3c 93da b1bb 74dd 10bc 14bc 9b3b
000001a0: 536b e93b 1adb 0f3c f090 30bc 11a7 33bc
000001b0: 7955 3a3b cbdc 823c 2c20 9bbc 0d34 ad3c
000001c0: 33f5 c8bb ae2d 2d3a d7a4 06bb 761c cf3b
000001d0: 419d eb3b f5af 45bc 2b9e ae3b 20f2 fcbb
000001e0: c921 1abc c831 223c 7a76 08bc 2f88 403c
000001f0: c8c9 a9bc 6b3a a7bb 7f10 aa3c 6f44 573c
00000200: cb91 8b3b f3bd 833b c577 ffba 43ea f93b
00000210: de78 8439 3084 84bc a986 ec3b ccc9 b93b
00000220: 9c8b ae3c 5e5b 823b 0e44 cc3b 483a 56bb
00000230: 8059 113a 8d6a c13a e57d c2bb 5aad 473c
00000240: 9292 bf3b 8e4c 14ba 3fb0 dd3b eb60 25bc
00000250: 9966 813b dbb6 45bc 369d 8e3c 05c4 c43b
00000260: 72f2 00bc c028 31bc 87e0 0cba 52e7 a9bb
00000270: f024 4d3c 8def a33c d147 87bb d640 87bb
00000280: 12b8 9cb8 a315 1c3c a461 733b 2bc5 993c
00000290: 6ec8 a73a a72d 423c 4d0a 6c3b 9b8a 643c
000002a0: c027 28bc e906 0abc 2901 ea3b f5f4 b53a
000002b0: ee30 993c 20cb 02bb dbb4 b33b 1414 7bbc
000002c0: b5c3 243c e893 263b 53fd 353c ccb8 843b
000002d0: b909 4f3c 79f4 df3a 367d 153b b455 223c
000002e0: 6367 673c 5de0 073b bc19 583c f465 523c
000002f0: 0df1 323c c677 8dba 9a68 37bb ca4f 923c
00000300: 7871 a7bc cb39 eeba fa47 8bbc 9738 943a
00000310: da5f 34bb 5100 603b bf62 9bbb e733 863c
00000320: e348 973c 6f88 0d3c c69b 4f3b 9ef7 563c
00000330: ff02 7bbb 7e1f 06bb bb46 813c 8c16 5ebc
00000340: cc60 a43b a1d3 9a3a 4588 ddbb a4b7 213b
00000350: 3ec7 93ba f2dd 353b 1b36 5abc 02c9 6abc
00000360: 5ef8 d53a 07ae 613c e018 a83b 8f27 f8bb
00000370: 30d9 193b 43e4 f63b e551 7dbc b4f9 923a
00000380: 0c54 943c 42df b23b 194e b73c fccc 863c
00000390: 9a50 503c d275 313c 2a47 8e3b 478e dcbb
000003a0: 776b 66b9 496d 6c3c 8913 9b3c cd2a 9b3b
000003b0: 6dcd d23c d210 cf3b 83c8 3abc 9d24 cbb8
000003c0: adf4 433c 5519 233b 7454 adb7 75b1 7bbb
000003d0: f80f 073c 8cba bdba 2c9b b23c 9027 c13c
000003e0: 8624 2abc ea26 e63b 3590 9f3c c218 013c
000003f0: d04a bbbb c4c0 2d3c 08a0 953c af8f 30bc
0.014365078 0.003954569 -0.009026338 -0.018857406 -0.0013930446 -0.008006879 0.009522043 0.006443313
0.000247153 -0.003517786 -0.00042517175 -0.011235595 -0.0068611223 0.013664698 0.008830159 -0.010632745
-0.0036642558 0.0065757865 -0.0143126715 0.01842595 0.0037573136 0.002289681 0.015278373 -0.0030061621
-0.0034789948 -0.003005936 -0.0143658975 0.005748831 0.0086302385 0.0002631963 0.003817863 0.0058141127
0.0039674933 0.00457299 -0.00073317 -0.0066797617 0.0075308983 0.0016420279 -0.006380038 -0.0055792364
0.011441978 -0.006907141 -0.0033970615 0.0016583849 -0.0064529707 0.00824366 -0.020817466 -0.0005366603
0.012302481 0.01805474 0.007057585 0.010231099 0.0003939281 0.01819597 -0.0024865412 -0.0011907576
-0.01362911 0.007292626 -0.014987049 0.012074771 -0.008112476 -0.0042733992 0.0042632725 0.00458446
0.010795755 0.012376094 0.0059006847 0.002843387 0.0071227993 -0.0016271072 -0.004223308 0.01519477
-0.001991404 0.006046824 0.0027045044 0.012069103 0.013152307 -0.020400213 -0.0047936556 0.009764029
-0.012325288 0.013413427 -0.005720907 -0.015449314 0.018511824 0.0059636035 0.0045663645 0.012300103
0.0058475207 0.022397026 0.017971521 0.0035430135 -0.008929078 -0.002669738 0.0016778443 0.013132797
0.0114589855 -0.005515871 0.008379123 0.009762103 0.011479502 -0.0054276674 -0.008841861 0.0047526453
0.0071233897 0.008780265 -0.010776743 -0.010965125 0.0028432293 0.015974423 -0.01893624 0.021142984
-0.0061327456 0.0006606233 -0.002054503 0.0063205315 0.007190377 -0.012065877 0.0053289137 -0.0077192932
-0.009407469 0.009899564 -0.008329028 0.011751219 -0.0207261 -0.0051033995 0.02075982 0.013138874
0.0042593232 0.0040204464 -0.001949065 0.007626803 0.00025267055 -0.016176313 0.007218201 0.005669808
0.021306805 0.003978177 0.0062336987 -0.0032688547 0.00055446476 0.0014756486 -0.005935418 0.012187326
0.00584633 -0.00056571595 0.006765395 -0.010093908 0.003948998 -0.012067522 0.017408948 0.0060048127
-0.0078703035 -0.010812938 -0.00053740334 -0.0051850462 0.012521014 0.020011688 -0.004128434 -0.004127602
-7.4729454e-05 0.009526643 0.0037137056 0.018770775 0.0012800822 0.011851705 0.0036016882 0.013949062
-0.010263383 -0.008424499 0.0071412516 0.0013882207 0.01870009 -0.0019957498 0.005484206 -0.015324611
0.010056426 0.002541775 0.0111077605 0.00405035 0.012636595 0.0017086408 0.0022810227 0.0099081285
0.01412377 0.0020733096 0.013189729 0.01284169 0.010921729 -0.0010793142 -0.0027985931 0.017860312
-0.020439848 -0.0018175183 -0.017002095 0.0011308369 -0.0027522952 0.0034179876 -0.004741996 0.01638217
0.018467372 0.008638485 0.0031678542 0.01312056 -0.0038301346 -0.0020465548 0.015780797 -0.01355518
0.005016422 0.0011812338 -0.0067606294 0.0024676109 -0.0011274589 0.0027750698 -0.013318564 -0.014330151
0.001632463 0.0137744015 0.0051299185 -0.007573075 0.00234754 0.007534535 -0.01546142 0.0011213333
0.018106483 0.0054587433 0.022376107 0.016455166 0.012714529 0.010831313 0.0043419795 -0.006730828
-0.00021974543 0.0144303525 0.018930214 0.004735327 0.02573272 0.006319144 -0.011400345 -9.686614e-05
0.011960191 0.0024886925 -2.0662534e-05 -0.0038405333 0.008243553 -0.0014475151 0.021802507 0.023578435
-0.010384684 0.007023682 0.019477943 0.007879438 -0.0057157055 0.010605041 0.018264785 -0.010776444

action_model._discrete_distribution.branches.2.bias f4 [2]
00000000: a0ed 05bc a0ed 053c
-0.00817433 0.00817433
