results/skillBoat/boat/boat-499977.onnx (onnx, 340257 bytes, 11 tensors)

discrete_act_size_vector f4 [1, 3]
00000000: 0000 0040 0000 4040 0000 0040
2.0 3.0 2.0

network_body._body_endoder.seq_layers.0.weight f4 [256, 58]
00000000: 2bb7 a03d a813 9bbd 6ae2 8abd bb5d 643c
00000010: 1d88 8a3d 48e5 d43d b644 183c 65d7 1abe
00000020: d105 2c3e beca 18be 134a d23d 47e4 05be
00000030: 7dc2 4bbd 9634 1b3e 7484 04be 81ad 11be
00000040: 373c 3d3e 5e64 e03d 9e6b e53d bf86 02be
00000050: 5c90 95be 4ee6 97be c3ed e7bd 4842 a63e
00000060: 04da fdbd 14c9 813e 4bee af3a 7bea 8e3e
00000070: adb1 fcbc fa33 e93d 862f 09be add3 f9bc
00000080: 9122 ad3c 846d 493d 0661 6f3c 5e1c 3abd
00000090: 9ae0 7dbe f52a 95be f15b b23d 9617 5c3e
000000a0: 64f1 c4bd dfc2 99bd e230 c7bd 4246 acbe
000000b0: 0d0c 9d3d 7cec a5bd 45b6 1a3e a26b 3dbe
000000c0: 6239 583c 6110 c7bd c60d 06be 2c34 533e
000000d0: 45b0 98be 4cbf 1c3e 8958 37bd 2fe2 5abe
000000e0: 882b ee3c 1d1a 66bd ccf6 153e 4387 cbbd
000000f0: 1c24 0cbd ea3e 84ba 895b 213e 6e99 e23c
00000100: 60fb 06be 6a2d 383e a2d8 c6bd facb fa3c
00000110: 508a 8fbd 2a7a 5ebd ab2b f63d 16ed 483d
00000120: d594 3ebd 9285 36bd c753 afbe 5c87 a4bd
00000130: 0c3a eb3c d262 1e3e 1f0c 5cbe 60ef d1bd
00000140: 1814 903d 3505 bfbd 7948 12bc 16ae 1abe
00000150: c7e9 b23c d463 39be 11d6 ae3e 878c e73c
00000160: 3d68 4c3b 0f53 b7bd a90f 0c3e 7899 9f3e
00000170: c286 d9bd a379 523d 6a08 54be 7b72 02be
00000180: 15f0 08be c525 9f3d c218 58bd d2cb 13be
00000190: c830 343d 87a2 0c3d 0bd7 3ebe bce8 c03e
000001a0: c1de 193e b8f1 debd 6940 a9bc 31a5 8c3d
000001b0: 4203 0dbe 6473 9abd 3565 06bd e942 d9bd
000001c0: 508e a33d abed d83c 3361 023e 7c10 e73c
000001d0: 6b7d c3ba cf58 843e e5e8 b63a 0821 d6bc
000001e0: bb0a dc3d a6b6 d2bd bcec 6bbe 21e7 06be
000001f0: 93f1 c9bd bc49 4c3d a28b 4abe 7026 69bc
00000200: a0a2 87bd c658 5dbe b6c7 a03c e641 0fbe
00000210: 5c45 d6bd 1dcb b03d 6f37 6ebe 1252 3cbe
00000220: f358 513d 1d39 2c3d ad8a 36bd ef52 143e
00000230: 8ec1 f3bc 5d43 7abd 2c97 3e3e 1b35 b63d
00000240: 6787 3ebe 7a0e 4b3e bf04 66bc 415f 82bb
00000250: ed77 c2bb 9493 f73c c170 49bd 7f1d c2bd
00000260: b605 15be d899 3f3e 4543 96bc e84c e83d
00000270: 1345 0ebd 056b 293c 7eb0 f23c 06cd d5bc
00000280: 6ce8 a93c b6f0 243e 01c3 7c3c 23a5 fa3c
00000290: 4142 d6bd 945d dfbd c18e 36bd 1b68 163d
000002a0: 60ff d8bd 9888 c9bd 638b a9bc f122 e3ba
000002b0: 79b3 e33c 8681 2abe bb50 de3e e7d1 9cbc
000002c0: 8472 79be 2367 833c f1f0 553e 6043 c0bd
000002d0: 058d b7bd d47a b03b d7ec ac3d fb8c e9bc
000002e0: a5a5 ce3d fd32 eebd dd1c 533d 1d48 f9bd
000002f0: 5828 583e c58e b93d b912 50be dc4d a9bd
00000300: 6717 8ebd 4a90 23bd b47e 9d3e 1be9 91bd
00000310: 238b 64ba b964 8dbd 3d5e 2abe ed8c 9f3d
00000320: 8413 5ebe 5ae8 003e 7dae c03d c865 c3bd
00000330: aec0 a0be 43e2 3c3e f50b a63d f4d8 ebbd
00000340: 6c4f 11be 033b 85bd 9b92 26be c406 18be
00000350: cae0 ae3d 25aa 0ebe 4451 39bd ee46 03bc
00000360: d80a 3bbe dc4d 5fbe ebf9 a5bd 60f8 c93c
00000370: 63c4 dd3d e645 51bc 2c4e 98bd 9026 9e3e
00000380: a374 8ebe 08e3 aa3d bb36 583c 9699 bd3d
00000390: b2fb 4abe 1771 d8bc ed92 51be 83dc 883e
000003a0: 313e 423d 03f8 59bd 80be 923d fbff d3bd
000003b0: 884b 85bd c4fd 2dbe fad7 b43c fa62 31bd
000003c0: cbc5 20be c637 923d 4dc6 433e 9d69 f2bd
000003d0: aa74 f4bd 2656 003e b727 8d3d 16d0 873d
000003e0: d2bf 8dbe 64e3 8cbd e5a4 fe3d e8f9 62bd
000003f0: e366 c5bc 84d3 71be c840 50be 69bd 963d
0.078474365 -0.075721085 -0.06781466 0.013938363 0.06764243 0.103952944 0.009293726 -0.15121229
0.16799094 -0.1492109 0.10268035 -0.13075362 -0.049746025 0.15156779 -0.12941152 -0.14226343
0.18480001 0.109566435 0.11202167 -0.12746714 -0.292117 -0.29667896 -0.11324646 0.32472444
-0.12395099 0.25348723 0.0013422457 0.2791327 -0.030846441 0.11386867 -0.13397035 -0.030496443
0.021134647 0.049176708 0.0146105345 -0.04543721 -0.2479271 -0.29134336 0.08708943 0.21493372
-0.09616354 -0.07507872 -0.097261205 -0.33647352 0.07668314 -0.081017464 0.15108593 -0.1849809
0.013197275 -0.09719921 -0.13091192 0.2062537 -0.29821983 0.15307349 -0.044762168 -0.21375345
0.029073492 -0.056177247 0.14644927 -0.099379085 -0.034214124 -0.0010089551 0.15757574 0.027661052
-0.1318183 0.17986074 -0.09709288 0.030614842 -0.07008803 -0.054315723 0.12020048 0.049054228
-0.046528656 -0.044560976 -0.34243605 -0.0803363 0.028714202 0.15467384 -0.21488999 -0.10250735
0.070350826 -0.09327165 -0.008928412 -0.15105471 0.02183999 -0.18104488 0.34147695 0.02826525
0.003119006 -0.08951389 0.13677849 0.31171775 -0.10621406 0.051385533 -0.20706335 -0.12738983
-0.13372834 0.07770876 -0.052757986 -0.1443322 0.043991834 0.034334686 -0.1863672 0.37677562
0.1502638 -0.10885948 -0.020660596 0.06867445 -0.13770774 -0.0754154 -0.032811362 -0.10608465
0.07986128 0.026480516 0.12732391 0.028206103 -0.0014914697 0.25849006 0.0013954906 -0.026138797
0.10744234 -0.10288744 -0.23039526 -0.13174106 -0.0986053 0.049875006 -0.19779828 -0.014230356
-0.06622815 -0.21615896 0.01962648 -0.13989982 -0.10462448 0.08632491 -0.23263334 -0.18390682
0.05111022 0.042046655 -0.044565845 0.14484762 -0.02975538 -0.0610994 0.18612355 0.08896848
-0.1860634 0.19829741 -0.0140392175 -0.0039786403 -0.0059347064 0.030221738 -0.049179796 -0.09478282
-0.1455296 0.1871103 -0.018342623 0.11342794 -0.034733843 0.010340457 0.029625174 -0.02609874
0.02074071 0.16107449 0.015427352 0.030596321 -0.10461856 -0.109065205 -0.044569734 0.036720376
-0.10595584 -0.09840506 -0.020696348 -0.0017329139 0.02779554 -0.16650972 0.43420967 -0.019143058
-0.2436009 0.01604039 0.20892693 -0.09387851 -0.08962444 0.005385736 0.08443611 -0.028509608
0.10090188 -0.11630819 0.051541198 -0.12171958 0.2110914 0.09060434 -0.20319642 -0.082668036
-0.069380574 -0.039932527 0.3076073 -0.071245395 -0.0008718243 -0.06903977 -0.16637512 0.07790551
-0.21687132 0.12588635 0.09408281 -0.095408976 -0.31397003 0.18445687 0.081077494 -0.1151599
-0.14190453 -0.06505396 -0.16266863 -0.14846331 0.08538969 -0.13932092 -0.045243517 -0.008012516
-0.18265855 -0.21807045 -0.08104309 0.024654567 0.108284734 -0.012773013 -0.07436785 0.30888796
-0.27823362 0.08344084 0.0131966425 0.0925781 -0.19822577 -0.026421113 -0.20466204 0.26730737
0.04742259 -0.053215038 0.07165241 -0.10351559 -0.06508547 -0.16991335 0.022075642 -0.043307282
-0.15700452 0.07139544 0.19118614 -0.118365504 -0.119363144 0.12532863 0.06892341 0.06631486
-0.2768541 -0.06879309 0.12433795 -0.05541411 -0.024096912 -0.23615843 -0.20337212 0.07360346

network_body._body_endoder.seq_layers.0.bias f4 [256]
00000000: 56f1 c6bc 6db3 a3bb c2d7 0dbc b2ce 413a
00000010: 0645 59bc a1a3 063d f34d ec3c 94cc 1e3c
00000020: e295 b53c 3193 b9bc e1d5 593d 2c1e e6bb
00000030: 3470 ee3b af13 41bc 60fc 263d acfd c03b
00000040: 6c82 1c3c 16bd 3a3d 6526 ff3c c9af 85bc
00000050: 43f3 6a3d 4584 973c b7ad 9b3c 832a c9bc
00000060: ed74 1fba 9da9 033b d080 fdbb c30f 67bb
00000070: 5bdf edbc a54a c6bc abdb 4cba 1669 8439
00000080: 7488 67bb 4a6e 1a3d 5924 293d 1b5e 3ebc
00000090: 2029 9cbb 991f d93c c960 7fbb 1e9f d7bb
000000a0: 0639 9fbc 769d 833b 15c2 923c 13c0 0c3d
000000b0: 1643 30bc 178f b0bb e2f5 b4bb 08f3 a3bc
000000c0: b024 13bb d928 b53b a26c a63b c428 743c
000000d0: a606 bdbc f672 38bb 76a9 0a3d cfc9 ea3b
000000e0: 094d 2ebc d328 16bc 4e2f 373d b7b7 943b
000000f0: cc36 1fbc 8e46 363c a63b b3bc 7cf4 a7bc
00000100: 76cc cb3b 4f2b 78bc 2f3e 923c 0581 efbc
00000110: 8c12 b43b 142d 3ebc 6a1f fe3c cc90 733c
00000120: d09e f9ba 905d b9bc 807a 2a3c beb0 dbbc
00000130: 8a06 a5bc c34e dcbc 39dd 3fbb 08fa 0dbd
00000140: afa9 7abc 6c5b 73bc a64e 4c3b 92dc 2bbb
00000150: 9b4f debb 13ca 6e3c bad4 36bb 47cc 2c3d
00000160: bc7b ebbb 8131 30bc ad10 52bb 36b0 563c
00000170: 40a0 1cbc 3e2f 88bc 0916 cdba 15ed 32bc
00000180: 0e08 a2bc 3fdb aabc af17 b63a eef1 5bbc
00000190: 6afb 47bc 7b2b 89bb 61b2 313c 8327 9ebb
000001a0: a334 403c 82ea 00bd 3894 183c 78cc 8b3c
000001b0: 00be 4cbc c8ab 0abc 7c31 a03c 602f 603c
000001c0: d3e9 39bc a360 453d fc70 c7bc 9669 ecba
000001d0: a9a8 e6bb 7699 363b c53e aabc 67c7 513b
000001e0: 007e a33b 4369 d2bc 8dc4 b8bc ac08 66bc
000001f0: bb7f a3bc 9ee8 163b 408a 533c d2cd 08bc
00000200: 45f3 a83b 60e2 6d3c 4ab0 85bc 8689 fd3b
00000210: 3744 abbb d43b 373c 71a2 07bc 0446 b7bb
00000220: 0c08 ae3b 8aea 483c f3f1 0f3b 2a69 163c
00000230: 995c 6e3c a80c 503d 3f4e 7dbc 3d54 2dbc
00000240: 31e5 4e3b 59ec 79bc 4fe9 303d 9c7b 1e3b
00000250: 3a79 06bd 28cf 963b ba10 f4bb 3b27 993c
00000260: 7bbf 483c 2a8e 183a e08b 02bc 3664 6f3c
00000270: 9689 c9bb 23d5 34bc 28ee f4bb ff6c 8b3b
00000280: add5 353c 070b a9bc 7499 afbc f3fc 78bc
00000290: 7422 96bc d67f 633c 0876 19bc 74af b9bc
000002a0: 1f6e 4b3c 87ad 3bbc 19ab be3c 284a 4ebc
000002b0: bd8d cd3b b2f6 b33c 6dce c1bc f028 e9bb
000002c0: 24ed 9f3c 1d22 b13c 699d 983c 7a91 883a
000002d0: 979c 103c 4482 78bc 61ef 283c 8890 43bc
000002e0: ce9e a93c 4699 25bc 0211 e93b df13 9cbc
000002f0: d93e 04bc 2586 083d be77 073d 76d4 053b
00000300: 146f a03b e78b a13c d734 8d3b ac7b 95bc
00000310: 9f24 a53c 6faf f7bb b2f4 423c cd1f d8bb
00000320: b7c8 b5bb 341e e43c c0df c2bc 300a 983b
00000330: 93bd 34bc cd48 a33b 6c3e c83b 780c 373c
00000340: 7ed8 a8bc 465a 24bc 60f0 12bc 2500 39bb
00000350: 8f0d f6bb 6135 a4bc 6e24 433b f98e 8ebc
00000360: a925 d73c 8ae0 953c 286f caba f22d 01bc
00000370: 8b7a 893c 9577 973a 070d 18bc 8811 bdbb
00000380: e673 2f3c 5193 fdbb 6f1d 53bc 6e81 0f3c
00000390: 707c 013d 6e85 ec3c 9b88 0bbc 0244 abbc
000003a0: bf44 57bc a4ae 053c cf06 6b3b 9a73 1abc
000003b0: 8d22 0cbc 0fb4 5ebc 404c c93c f554 17bc
000003c0: f988 493b 0bba 25bb 8ed5 f2b9 78de 17bc
000003d0: 43eb 40bb 756a aa3c 2efc 9dbc afc0 913c
000003e0: 8aaf 04bd 22ec 933c 32d0 ee3c 3b04 57bb
000003f0: 426a c93c 3c91 d8bb a1ee c93b 6f99 3fbc
-0.024285 -0.0049957545 -0.008657398 0.0007393166 -0.013261085 0.032870892 0.028845763 0.00969233
0.022166196 -0.022653194 0.053182486 -0.0070226397 0.0072765592 -0.011784478 0.040768027 0.005889615
0.009552579 0.045590483 0.031146238 -0.016319172 0.0573609 0.018495688 0.019003732 -0.024556404
-0.0006082792 0.002009011 -0.007736303 -0.0035257197 -0.029037168 -0.024205515 -0.00078147155 0.00025255297
-0.0035329135 0.037702836 0.04129443 -0.011619116 -0.0047656447 0.026504325 -0.00389676 -0.0065802475
-0.01943637 0.0040165735 0.017914811 0.034362864 -0.010758182 -0.0053881514 -0.0055224756 -0.020013347
-0.0022452287 0.005528551 0.005078868 0.014902297 -0.02307446 -0.0028144694 0.033853017 0.0071651707
-0.010638484 -0.009165007 0.044722848 0.004538502 -0.009717654 0.01112522 -0.021879029 -0.020502321
0.006219442 -0.015147044 0.017851917 -0.029236326 0.005495375 -0.011607427 0.031020839 0.014866065
-0.0019044522 -0.022627622 0.010405183 -0.026817676 -0.02014472 -0.026893025 -0.0029276146 -0.034662277
-0.015299245 -0.01485334 0.0031174808 -0.0026224 -0.006784392 0.014574545 -0.002789779 0.042187
-0.007186381 -0.01075399 -0.0032053397 0.013103535 -0.009559691 -0.01662409 -0.0015646826 -0.010920783
-0.019779231 -0.020856498 0.0013892556 -0.01342438 -0.012205938 -0.0041860915 0.0108457515 -0.0048264875
0.0117313 -0.031473644 0.009312682 0.017065272 -0.012496471 -0.008463807 0.019554846 0.01368317
-0.011347252 0.048187863 -0.024345867 -0.0018036838 -0.007039149 0.0027862466 -0.020781884 0.0032009722
0.0049893856 -0.025684958 -0.02255466 -0.0140401535 -0.019958368 0.0023026834 0.012911379 -0.008349853
0.005155953 0.014519304 -0.016319413 0.0077373413 -0.0052266377 0.011183698 -0.008278475 -0.0055930633
0.005311018 0.01226295 0.0021964281 0.0091803465 0.014548444 0.05079332 -0.01546055 -0.010579166
0.0031569714 -0.015254104 0.04319125 0.0024182564 -0.032830454 0.0046023317 -0.007448283 0.018695464
0.012252684 0.0005819524 -0.007967919 0.0146112945 -0.0061504347 -0.011037144 -0.0074746795 0.0042549367
0.011098308 -0.020635141 -0.021435477 -0.015197027 -0.018326975 0.013885459 -0.00936652 -0.02266667
0.012416392 -0.011454946 0.023274945 -0.012590922 0.006273 0.02196822 -0.023658002 -0.007115476
0.019522257 0.021622712 0.018629747 0.0010419332 0.008826396 -0.0151677765 0.010310979 -0.011936314
0.020705607 -0.010107344 0.007112623 -0.019052444 -0.008071625 0.033331055 0.03307318 0.0020420826
0.004896054 0.019720031 0.0043092775 -0.018247448 0.020159064 -0.007558755 0.01189916 -0.006595588
-0.0055476087 0.027846433 -0.023788333 0.0046398863 -0.011031526 0.0049830438 0.006110957 0.011172406
-0.020611044 -0.0100312885 -0.008968443 -0.0028228846 -0.0075089405 -0.020044984 0.0029776352 -0.017402159
0.026263075 0.018295545 -0.0015444504 -0.007884489 0.016782066 0.0011556024 -0.00928045 -0.005769912
0.010708785 -0.0077385087 -0.0128854355 0.008758886 0.031612813 0.028872218 -0.008516456 -0.020906452
-0.013138949 0.008159313 0.0035862213 -0.009426976 -0.008553159 -0.013592734 0.024572492 -0.009236564
0.0030751808 -0.0025287892 -0.00046316948 -0.009269349 -0.0029437102 0.020802716 -0.019285288 0.017792074
-0.03239397 0.018056933 0.02915201 -0.0032808918 0.0245868 -0.00660911 0.00616248 -0.011694296

network_body._body_endoder.seq_layers.2.weight f4 [256, 256]
00000000: b047 febc 6fe6 04bc 6ea5 13bd f218 b23d
00000010: 10f2 8a3c 1b67 9bbd 792f 42bd 3cd0 253d
00000020: fe21 813d 7b0c 24bd 6db4 693c cdb4 713d
00000030: 0475 dc3d 8bd3 913d f7f3 02bd 43e0 a6bd
00000040: 64a6 18bc 27c3 04bd 6c49 513d 7887 893a
00000050: 7f00 68bd b2a7 c8bd ad32 0fbd 44c8 debc
00000060: 1913 d6bb ebb3 6bbd d7a8 c3bd 341d 843d
00000070: 3dc8 e33d 6119 c53d 93e8 d83c 8f69 65bc
00000080: cf6d 90bd b613 ddbc ce4b be3c 09c3 0b3d
00000090: 8b57 46bc ba78 d83d 282f 8bbd d1c6 92bd
000000a0: eeae 343d 46b1 89bd db7c 363d 7297 1bbc
000000b0: ae58 c03c 41ea 56bd af7b 74bd 899e 1e3c
000000c0: 92e2 8f3b fe5f adbc ef77 28bd 7f44 893c
000000d0: 32ab 6fbd 30ab b4bd 8d10 8d3d f078 7f3d
000000e0: ad26 953c adce 0dbd 727f b2bc 04d8 3abd
000000f0: af75 95bd a778 bbbc 4eb3 dd3d 8d50 823d
00000100: b0e7 ebbb c491 ac3d 0baa 1dbd 54bf 86bc
00000110: d6b9 9abd 5e7b 47bd b3c0 a33c 5fc4 c2bd
00000120: 5d43 26be ec00 d1bc c01e 97bd 8c1d 3cbc
00000130: c115 6dbd d586 553c 050a 313d 2f29 e23d
00000140: 0525 f33c ce87 36bd c662 e73c 43f9 4e3b
00000150: 8bc8 e3bd 0150 75bd 992c 843d 05f1 c9bb
00000160: ef7c de3d 99f0 fbbd 25fd 03be 068b df3c
00000170: e151 3fbd 9a7d 2b3c cd80 ccbc 7430 0bbd
00000180: 58b8 c03d f84f 13bd ae2b 72bb 63c0 923d
00000190: f52a 25bd 1010 a4bd d940 7abb 76bc b4bd
000001a0: af38 c0bd ac91 803d 79fe 1f3d d54f cb3d
000001b0: b0ad a7bc 7650 ce3b c599 16bd 3da8 883c
000001c0: 006b 8ebd 3a7e 85bd d29c 253d 05af 6dbd
000001d0: 6544 2139 b23a 4d3d 21b6 d23c 3f2b 3c3d
000001e0: e385 bebd 82b8 97bc 6803 1c3d 0695 c8bd
000001f0: 8ade 90bd 892e 96bd 901d 08bd e3a0 aa3c
00000200: d85c 173c 9b0c c9bd c10a 92bc e79f 9c3b
00000210: 75a6 373d 76fa 7bbd 978c a33d b302 273d
00000220: e182 a73d c74a 3bbc 3687 b83d 943a 17bd
00000230: 83bd a73b 0400 a4bd da45 8fbd c6b2 6ebc
00000240: 77dc f83d 908a dcbc 9e26 d33d 800d ecbd
00000250: 4669 153d 6deb 3f3d 6b01 203c 4b08 70bd
00000260: 3c18 69bc 63f1 693d 31e7 bd3c f5ee 1b3d
00000270: 6d74 92bc 07b2 97bd 6bb1 b13c a608 203d
00000280: 828d 68bd 515a bb3b 1a0f c5bb c6d3 94bd
00000290: 3f1a 623b 3435 fabb e1ef 953d e5bd 88bc
000002a0: 865d 663d 0159 253d a1bd df3c 4ebe 6ebc
000002b0: 160b 9b3d e9d2 94bb aa91 8cbd 2e13 853a
000002c0: e5ab 1cbd db43 d139 a1a5 073d 9e08 a83c
000002d0: 31f5 243c d803 c8bd 5c88 00bd f48a e1bd
000002e0: fea6 95bc 3a49 283d efcd 273d 6c00 3d3c
000002f0: 5ab5 ff3b 9c39 483b 6301 78bb 481c be3d
00000300: 8e1f 56bd 5333 0cba 9a1d 58bd a5ea 94bc
00000310: 5fbc 1b3b 3040 28bd 4990 913d 4837 2d3e
00000320: 18af e03d 2fe5 8abd 9866 dbbb e93f 123d
00000330: 93a1 e8bc 5b8b b83c b33a a3bb 65bf 1b3c
00000340: 4bce f53c e443 c2bd 82b2 79bd 07c7 253c
00000350: e07f 1fbe ca24 f53d 12f1 0dbd 9a2e 863d
00000360: bb68 c8bd 1afc 2ebc a372 15bd bc6c 163e
00000370: 48a1 2bbd 65f1 eebd 52ca 0b3e 488f 063e
00000380: dda8 5abd fcf9 b8bc f189 f13c 3ee9 52bc
00000390: be89 fbbc 5b6c 2d3e 099c 94bd ec3c a53d
000003a0: 6563 2a3e 1163 373d 0efa 12bc af87 a03d
000003b0: b298 95bd 9c9b a0bd f463 8d3d 973e 0c3e
000003c0: d015 023d c0e6 fabd 3ff4 433d 5dfc 783d
000003d0: 01ed 98bd 84b9 1abc 7609 283d 4ee6 5cbc
000003e0: b429 963d e645 86bc b0da c53c 6f49 4e3d
000003f0: 9d5c f5bd 1e2f 963d 277e 483d 93cd 15bc
-0.031040043 -0.00811158 -0.036046438 0.08696164 0.016961128 -0.07588025 -0.047408555 0.04048179
0.063053116 -0.040050965 0.014264208 0.059010316 0.107645065 0.07120427 -0.031970944 -0.08148243
-0.009317014 -0.032412674 0.05109541 0.0010492643 -0.056641098 -0.0979761 -0.034960438 -0.027195103
-0.0065330383 -0.05754463 -0.09553688 0.064508826 0.11122177 0.09623981 0.026478088 -0.014002218
-0.07052194 -0.026986938 0.023229506 0.034121547 -0.012105833 0.10569902 -0.06796104 -0.071668275
0.04411214 -0.06723265 0.044552665 -0.009496557 0.023479786 -0.052469496 -0.059688266 0.009681352
0.004391023 -0.021163937 -0.041130003 0.016756294 -0.058512874 -0.08821714 0.068879224 0.062371194
0.018206919 -0.03462093 -0.021789286 -0.045616165 -0.07297837 -0.02288468 0.10825215 0.0636302
-0.00719925 0.0842624 -0.038492244 -0.016448654 -0.07554977 -0.048701636 0.019989347 -0.09510111
-0.16236635 -0.025513135 -0.07378912 -0.011481654 -0.057882074 0.013032635 0.043222446 0.110430114
0.029680738 -0.044563107 0.028245341 0.0031581677 -0.11122235 -0.05989075 0.06453819 -0.006162765
0.10863673 -0.1230175 -0.12889536 0.027287971 -0.046708945 0.010466957 -0.02496376 -0.033981755
0.09410161 -0.035964936 -0.0036952305 0.07165601 -0.04032417 -0.08010876 -0.0038185625 -0.088250086
-0.093858115 0.06277785 0.039061043 0.09927336 -0.020468563 0.006296213 -0.03676774 0.016681785
-0.069540024 -0.065182164 0.04043276 -0.05802824 0.00015379635 0.050104804 0.025721611 0.04593968
-0.093028806 -0.018520597 0.038089186 -0.09794049 -0.07073696 -0.073330946 -0.033231318 0.02082867
0.009238444 -0.098168574 -0.017827393 0.004779804 0.04483648 -0.061518155 0.079858 0.04077406
0.0817926 -0.0114314025 0.090101644 -0.0369211 0.005119027 -0.080078155 -0.06995745 -0.01456899
0.12151425 -0.02692154 0.103101 -0.115260124 0.03647735 0.04685538 0.009765963 -0.05860166
-0.014226969 0.05711497 0.02318153 0.038069684 -0.017877782 -0.07407003 0.021691045 0.039070748
-0.056775577 0.0057175537 -0.006013763 -0.07266955 0.0034500507 -0.007635737 0.07321144 -0.016692111
0.056241535 0.040368084 0.027312102 -0.014571739 0.07570474 -0.004541744 -0.06863721 0.0010152811
-0.03824987 0.00039914143 0.03311694 0.020511921 0.010068224 -0.09766358 -0.031380042 -0.11012831
-0.018268105 0.04108546 0.040967878 0.011535745 0.007803601 0.0030551916 -0.0037842623 0.09282738
-0.052276187 -0.0005348224 -0.052762605 -0.018178293 0.00237634 -0.04107684 0.07107598 0.1691562
0.109708965 -0.067819946 -0.0066955797 0.03570548 -0.028397357 0.022527387 -0.0049813627 0.009506081
0.030005595 -0.09485605 -0.060961254 0.010118253 -0.15576124 0.119699076 -0.03465373 0.06551857
-0.09785601 -0.010680223 -0.03648628 0.14689916 -0.041901857 -0.11667136 0.13651398 0.13140595
-0.053383697 -0.02258014 0.02948472 -0.012872992 -0.030705329 0.16935866 -0.07256324 0.080682606
0.16639479 0.04477221 -0.0089707505 0.078383796 -0.07304515 -0.0784218 0.0690383 0.13695751
0.031759083 -0.12251043 0.047840353 0.060787547 -0.0746708 -0.009443644 0.041024648 -0.013482643
0.07332173 -0.016390752 0.02415213 0.050363 -0.11980555 0.07333206 0.048948433 -0.009143251

network_body._body_endoder.seq_layers.2.bias f4 [256]
00000000: 0492 9dbc 95f8 bb3c 4f40 bbbc 0506 b23c
00000010: 2848 9abc ca01 263b ec80 acbb 9b29 043c
00000020: f7e0 d03b 2516 3d3c 58b2 b1bc 59b8 92bc
00000030: 9a4d 8bbc 3227 03bc f899 debb 7bba 1abc
00000040: 387d 24bb f794 38bb 9da0 24bc a0e3 2abc
00000050: e624 cdbb 2770 b8bc 3c67 b4ba 8fc8 bdbc
00000060: 3d88 8e3b a3b1 4c3c bf0b 0b3c 033a 94bc
00000070: 91ec 523c 0f45 e2bb 6e6e b13c 3fdb 8fbc
00000080: 6c64 683c de96 87bc 1213 11bb 8731 2abc
00000090: 361c a9bc a4cb e7bc 0aa7 99bc 8a63 64bb
000000a0: 885b 8ebb 4e88 bfbc 0516 29bc 9831 87bc
000000b0: f293 c9bb 031d 41bb 91f3 17b9 4c3c 133a
000000c0: 4f8b 70bc 3808 133c 2e2a 843c c543 7dbb
000000d0: 0e3d adbc bb37 dc39 3e43 f03c f239 47bc
000000e0: 68ef 223c 020b 053d ac95 48ba 8bcf 11bc
000000f0: 960e 6bbc 45ed aeba d436 82bc e750 0f3c
00000100: 4286 ad3c 9154 c8bc 2e6d 5cbc 739c 3fbb
00000110: 220f a9bc d0f9 093c 3dcf 57bc 1b3c bdbb
00000120: 5b71 aabc 9b7d ccbc 2322 adba d57d a0bc
00000130: 0c76 f5bb 3cb1 cd3b 01a8 61bc 6dd1 a5bc
00000140: de11 f93b 8303 9fbc 4f2a ea3c 8f47 9a3c
00000150: 4374 903b 77a1 d3bb 94ca b0bc 36f4 9ab8
00000160: 1f51 e93b 835d f7bb b376 463b 521b 0a3c
00000170: 5949 e7bc 497a 6b3c bae3 31bc c5d3 2fbc
00000180: da60 d43c 076a b5b9 3e8e 18bc 6584 b0bc
00000190: 4d0a 0f3c 2590 29bc a8ff 4cbc fcea 3bbc
000001a0: 87c1 073b c878 e5bb 8ddd aa3a 564e c53c
000001b0: 6fef 5a3c 38e7 c7bc 5216 0f3c 6707 bfbb
000001c0: 190e e5bb e57b 75bc ff1b a23c b406 cebc
000001d0: 1a40 ec3b 97c2 9dbc 18b6 753b e503 35bc
000001e0: 953c ca3b df8e 94bc 25fe 113c 6a37 07bc
000001f0: 1b42 b7bc 1ef2 7c3c 4926 d1bb a49e 8abb
00000200: 1220 373b 6dfb 173c 4a49 e0bb 3036 6eba
00000210: 3559 8abc b1fd b1bb da6f a43b 5445 eb3b
00000220: dccb 53bc 25bd b1bc 52f4 3c3c e677 1abb
00000230: 62cc c0bb 954b a9bb bdf7 19bc 20c5 11bc
00000240: 99a8 b1bc 06b1 bfbb dc8b 78bc 6ccd 33bc
00000250: afac 653c 6754 363c aca8 93bb a2b5 80bc
00000260: 9819 a4ba 85ba 10bc fea4 bf3b 67c3 b0bc
00000270: 3ab7 adb9 523c 95bc aeaf 1f3d 75fb 713a
00000280: 515e 60bc ef91 ad3b b795 7ebc 8f17 77bc
00000290: 6998 193c 27e9 a2bc c82c 8bbc 0698 3cbc
000002a0: 2180 e83b de92 ecbb 76f5 83bc aaac 32bc
000002b0: 0e66 b8bc e1df 2cbc 87af 82bc d4ec 103d
000002c0: 035a 80bc 8b42 54bb 9674 52bc 92ee 86bc
000002d0: b153 653c 4a4e cebc 7460 693b 7674 b13c
000002e0: b9bb bf3b 8c95 ba3c 15b2 5dbc 269e 473b
000002f0: f763 153d c3b6 16bc c66f b73c 9704 83bb
00000300: d915 21bc 7111 75bb d6ab 3d3a 4b4b b73c
00000310: 84ac 00bc e5ec 88bc 51c0 d9bc 9c33 24bc
00000320: 9678 203c 4810 2e3c 3493 aabc 5e6f 003c
00000330: 3941 023c 361f a2bb a7ba d9bc 474f b0bb
00000340: 178d aebc 20db 37bb 8d09 92bb 8cb0 d9bb
00000350: f1ae c23c b469 c7bc 10d9 e4bb fe9a d0bc
00000360: af8b f7bb 5d28 72ba d062 c839 4025 cb3c
00000370: a101 d53b ab1e 07ba 7a82 89bb 649d 273b
00000380: 1925 9ebb b3e3 82bc f4c1 c1bc 0c0f a4bc
00000390: 10b5 a2bc 6f25 c43b 9bd1 4dbb e7b1 3e3c
000003a0: a609 a53c 4b0a 91bc ecf7 62bc 547f 583b
000003b0: f2c9 4bbc 29af 1e3c 666f 4a3b 30a0 63bc
000003c0: 1a73 90bb 271d 103d b3a4 423c f83c 253a
000003d0: d034 35bc e9c9 88ba 167f a7bb fedd 19bc
000003e0: 5536 2dbc 086a 1bbc 8b06 a2bc 31f4 33bc
000003f0: e3c6 493c aa7d 1e3d ef64 833c 8a0b acbc
-0.019234665 0.022945682 -0.022857813 0.021731386 -0.018833235 0.0025330656 -0.005264392 0.00806656
0.006374474 0.011540924 -0.021691486 -0.01791017 -0.017004777 -0.00800495 -0.006793257 -0.0094438745
-0.002509905 -0.0028164962 -0.010048059 -0.010430247 -0.006260502 -0.022514416 -0.0013763676 -0.023166923
0.004349737 0.012493524 0.008486687 -0.018094068 0.012873785 -0.006905205 0.021659102 -0.0175606
0.014184099 -0.016551431 -0.002213661 -0.010387785 -0.020643335 -0.028295346 -0.018756408 -0.003484937
-0.0043444075 -0.023380425 -0.010320191 -0.01650314 -0.0061516697 -0.0029466755 -0.00014491218 0.000561659
-0.014681651 0.0089741275 0.016133394 -0.003864513 -0.021147277 0.00042003192 0.029328939 -0.012159811
0.009944774 0.0324812 -0.00076516974 -0.00889958 -0.014346739 -0.0013345858 -0.015895285 0.008747316
0.021182183 -0.024454387 -0.013453765 -0.0029237538 -0.020637099 0.008421376 -0.013171968 -0.0057749874
-0.020806005 -0.024962237 -0.0013209026 -0.019591251 -0.007490879 0.0062772315 -0.013772965 -0.020241464
0.007601007 -0.019410854 0.028584627 0.01883295 0.0044083907 -0.006458457 -0.021580972 -7.38878e-05
0.007120266 -0.0075489893 0.0030283153 0.008429365 -0.028233217 0.014372417 -0.010857517 -0.010731642
0.025925089 -0.00034602007 -0.009311257 -0.021547506 0.008730483 -0.010349308 -0.012512125 -0.011469599
0.0020714717 -0.0070029236 0.0013035998 0.024085205 0.0133627495 -0.024402246 0.008733349 -0.00582974
-0.006990206 -0.014983152 0.01978874 -0.02514968 0.00720979 -0.019257827 0.003749257 -0.011048292
0.0061717727 -0.018134532 0.00891069 -0.008252958 -0.022370389 0.015438585 -0.006382738 -0.004230337
0.00279427 0.009276253 -0.0068446742 -0.0009087054 -0.01688824 -0.0054318537 0.0050182166 0.0071798954
-0.012927022 -0.021696636 0.01153286 -0.002357 -0.0058837393 -0.005166481 -0.009397444 -0.008897096
-0.021686839 -0.0058499603 -0.015170064 -0.010974269 0.014018222 0.0111285215 -0.0045061912 -0.01571161
-0.0012519835 -0.008833532 0.005848526 -0.02157755 -0.00033133646 -0.01821724 0.0389859 0.00092308904
-0.013694362 0.0052969377 -0.0155386245 -0.0150813 0.009374716 -0.019886566 -0.016989127 -0.011510855
0.0070953523 -0.0072196564 -0.016108256 -0.010905424 -0.022509601 -0.010551424 -0.015952839 0.035382107
-0.015667921 -0.0032388296 -0.012845179 -0.016471181 0.013997004 -0.025183816 0.003561047 0.021661978
0.0058512357 0.022776388 -0.013531228 0.0030459254 0.036472287 -0.009198847 0.022392165 -0.00399835
-0.009831869 -0.003739443 0.00072353834 0.02237477 -0.007853631 -0.016714523 -0.026580961 -0.01002207
0.009794375 0.010623999 -0.020822145 0.007839052 0.007950121 -0.0049475683 -0.02657826 -0.0053805443
-0.021307511 -0.0028054193 -0.004456705 -0.0066433605 0.02376506 -0.024342395 -0.0069838837 -0.025464531
-0.0075544934 -0.0009237582 0.00038220594 0.024798036 0.0065004383 -0.0005154411 -0.004196462 0.002557599
-0.0048261997 -0.015977716 -0.023652054 -0.020026706 -0.019861728 0.0059859077 -0.0031405452 0.011639095
0.020146202 -0.017705103 -0.0138530545 0.0033034878 -0.012438284 0.009685316 0.0030889153 -0.013893172
-0.0044082524 0.03518405 0.011880088 0.00063033355 -0.011059955 -0.001043615 -0.0051115854 -0.009391306
-0.010572036 -0.009485729 -0.01977851 -0.010983513 0.012315485 0.03869406 0.01603934 -0.021001596

action_model._discrete_distribution.branches.0.weight f4 [2, 256]
00000000: c70c a53c c817 89bc 6035 cd3c 3e0f b8bb
00000010: c010 193c 5764 2cbc 4078 88bb cee3 c03a
00000020: 2dc1 bf3b 8b5b 5e3b 8972 003d 1083 d63c
00000030: 0398 dd3c e608 0e3d 3acb 203d 1e4b 253c
00000040: 2db7 833c ec66 d6bb b60a f03b 1a69 e438
00000050: 08d4 74bc 2661 ba3c c174 113b 25cf 523c
00000060: a774 60bb 4a84 24bc aabe 89bb c64c 563c
00000070: d3b5 33bc 94c3 823c 16aa 113c 60bb 053c
00000080: 6bf7 f13b ece4 a13c 4f02 393c 883e 913c
00000090: 3b68 003d 31ed 9d3c f0f0 b43c 6d3f 7c3c
000000a0: 18a9 843b 804e 743c 2ca0 a13c 07c7 a43c
000000b0: 7ba5 3b3c f46a 06bb ebc3 053b 0cb9 77ba
000000c0: ec30 153d 2378 50bc 0ae6 993c 59d8 dab9
000000d0: ff0c 173d d3ac cb3b a097 5abc 3d5a c83c
000000e0: dd9a 533c c4b8 9abc ba5d 26bc 5d44 e53a
000000f0: 3b43 613c 29e5 c53b 9c38 683c ad2f 36bc
00000100: cd24 0f3b 31c2 8f3c 9ac9 ae3b 7145 67bc
00000110: 23e3 d03c 7b14 bebc d049 1a3d 30f3 d63b
00000120: c24d ec3b e4b8 603c 115a 6fbb 919d 0d3d
00000130: 73d4 6a3b 958c 36bc c63e 923c 14df dc3c
00000140: 2054 d2b9 4d8c ea3c 534a 23bd 2a97 54bc
00000150: 8212 273c 1a1b b93b 626a b63c e458 80bb
00000160: 2d59 02ba 2a29 a73c 8453 77bb b866 86bc
00000170: 9832 eb3c 365f 86ba f776 9d3c 1661 ec3b
00000180: 67cd 97bc 7421 16bc 4e32 85ba 3eca 883b
00000190: 179c 13bc bd23 5cb9 f0b0 113c c3bb a43c
000001a0: c613 f9bb 1cdd 753b 5bf2 9ebb 67f3 95bc
000001b0: 57d6 11bc 17df 9a3c e242 33bc 5d74 923c
000001c0: 0e3d 07bb c6fd 763c 1441 693c 37ac df3c
000001d0: 0c56 49bc 0609 863c 7933 d23c 5927 8e3c
000001e0: 199f 113c db95 beba aa66 bfbb 35a0 133c
000001f0: 2555 063d 0157 95bc b7cd f7bb 8cdd e73a
00000200: d78a b6bb dd76 2fbc 7620 9f3c d475 023c
00000210: b760 b73c 2ea2 68bb 80bb 2f3c 2256 5b3a
00000220: c46c bbbb abca e53c ae47 36bc 52ef f53c
00000230: 555f 8c3c dbd2 b4bb 5391 5e3c 7d4b 3cbc
00000240: 1f72 153d 2000 b239 db00 503c 3479 623c
00000250: e6d3 283b 597b e93b 7a0d 7cb9 06d6 3e3c
00000260: fe68 693b bad1 f83b ac0a 563b 0faf 583c
00000270: 3939 ab3a 0ce2 5f3b 0206 eebc d429 803b
00000280: 696b 123c ffac b9ba b7de 033d ab9a ca3c
00000290: 87ab 80bb 89d0 c93c 60b1 ecba 85cd c2ba
000002a0: 6524 eabb 231c 223c 1555 043c 7746 113b
000002b0: c8e2 173d 6e83 b33b de9c 853c 77ad bfbc
000002c0: 654b e83c 9014 d3ba bd24 ce3c cb28 033d
000002d0: ab9d 5dbc b0ba 863c 0243 f13b 5e5c debc
000002e0: 42b0 3dbb 4a18 ebbc 2cf2 a83c 8627 e6bb
000002f0: e9c7 47bc fcf5 3e3a 08e5 adbb 5fc1 c23c
00000300: 2ddb 903a c873 853c bd40 31bb ee75 cdbb
00000310: fcbe 643c aae9 843c 46af 053d 16aa 883b
00000320: 8999 98bb 506a 38bc a5f4 c63c 9864 083c
00000330: 124a 933a 81aa d2ba ace6 ff3c 8b63 bcba
00000340: 6997 1e3d 4da5 563b 4a98 3d3c 533d a93c
00000350: f734 82bb 49bc 893c 8a00 023d c2d0 423c
00000360: 75a3 5d3b 93f9 2cbb e5ed a53b f716 01bd
00000370: de55 64bb 1394 9a3b bdf6 953b bf26 7c3c
00000380: 01e8 203c fe28 303c 2b11 ad3c 60cf e23c
00000390: d8d4 1a3d 741e 323c e9c9 973b 01f8 d0bc
000003a0: c8b3 fa3a 5ecb b93c 24e2 803b 6bec ea3b
000003b0: 0b10 6c3b 044c 20bc 5f05 d23c 0ac0 de3c
000003c0: c69a 573b 6e57 55bd e6c3 6bbc 28e5 c43b
000003d0: ae83 533c 2125 6d3a 9eda 4ebb 2a9b 943c
000003e0: acd1 0aba f2d8 953b 0012 e63c c0e1 b13b
000003f0: 676f 97bc 5fca 26bd 58de b7bc 8ae9 a93c
0.020147694 -0.016734973 0.025049865 -0.0056170514 0.009342372 -0.01052197 -0.0041647255 0.0014716329
0.005851886 0.0033929076 0.03135923 0.026185542 0.027050024 0.034676455 0.039256312 0.01008871
0.016078556 -0.006543031 0.0073254956 0.00010891464 -0.01494313 0.022751402 0.0022194835 0.01286677
-0.0034249218 -0.010041306 -0.004203637 0.013079828 -0.010968643 0.0159624 0.008890649 0.008162349
0.007384231 0.019762479 0.011292054 0.017730013 0.031349402 0.01927814 0.022087544 0.015395981
0.004048478 0.014911294 0.019729696 0.020114435 0.011453028 -0.0020510526 0.0020410966 -0.00094498764
0.03642361 -0.012723955 0.018786449 -0.00041741392 0.03687763 0.0062156706 -0.013341814 0.024457091
0.01291534 -0.018886931 -0.010154182 0.0017491687 0.013748939 0.006039281 0.014173653 -0.011119765
0.0021842003 0.017548652 0.0053340914 -0.014115677 0.025498932 -0.023203125 0.03766805 0.006559752
0.007211418 0.013715956 -0.003652219 0.034574095 0.0035832196 -0.011141916 0.017852198 0.02696184
-0.00040117 0.028631354 -0.039865803 -0.012975493 0.010197284 0.0056489827 0.022267524 -0.0039168466
-0.00049723947 0.02040537 -0.0037738988 -0.016406402 0.028710648 -0.0010251764 0.019221766 0.007213722
-0.01853056 -0.009163249 -0.0010162087 0.0041745 -0.009009383 -0.00020994149 0.008892283 0.020109063
-0.007601234 0.0037515825 -0.0048506684 -0.01830454 -0.0089012 0.018905206 -0.010941239 0.017877752
-0.0020635757 0.015075153 0.014236707 0.027303798 -0.012288582 0.016361725 0.02565931 0.017352747
0.0088880295 -0.001454051 -0.005841096 0.009010364 0.032796044 -0.018229963 -0.007562365 0.0017689927
-0.00557075 -0.010709492 0.019424658 0.007962663 0.022384984 -0.0035497057 0.010725856 0.0008367022
-0.005719753 0.028050741 -0.011125488 0.030021343 0.017135302 -0.0055183 0.013584453 -0.011492607
0.036485787 0.000339509 0.012695516 0.013822842 0.0025761067 0.0071253 -0.00024037613 0.011647707
0.0035615559 0.0075933607 0.003266017 0.013225331 0.0013063318 0.0034161834 -0.0290556 0.0039112363
0.008936741 -0.0014165937 0.03219482 0.024731955 -0.0039266977 0.02463557 -0.0018058233 -0.0014862275
-0.007145452 0.009894404 0.008076926 0.0022167244 0.03708151 0.005478314 0.016310152 -0.023398144
0.028356263 -0.001610415 0.025164003 0.032021325 -0.0135263605 0.016446441 0.0073627243 -0.027143653
-0.002894417 -0.028698105 0.020623289 -0.0070237545 -0.012193658 0.00072845793 -0.0053068437 0.023773847
0.0011051648 0.01629056 -0.0027046644 -0.006270162 0.01396155 0.016224701 0.032637857 0.0041706664
-0.0046569747 -0.011255816 0.024286577 0.008324765 0.0011237285 -0.0016072543 0.031237923 -0.0014372928
0.038718615 0.0032752336 0.011571953 0.020659124 -0.003973599 0.016813414 0.031738795 0.011890592
0.0033819352 -0.0026393875 0.0050637596 -0.03151604 -0.003484122 0.004717359 0.0045765326 0.015390097
0.009820939 0.010751961 0.02112635 0.027686775 0.03780064 0.010871518 0.004632224 -0.025508882
0.0019127065 0.02267998 0.003933208 0.0071692965 0.0036020305 -0.009783749 0.025637327 0.02719118
0.0032898649 -0.052085333 -0.014389968 0.006008763 0.012909813 0.0009046365 -0.0031563411 0.018140394
-0.0005295526 0.004572981 0.028084755 0.005428523 -0.018485738 -0.04072034 -0.022444889 0.020741243

action_model._discrete_distribution.branches.0.bias f4 [2]
00000000: e71b 7ebc e71b 7e3c
-0.015509582 0.015509582

action_model._discrete_distribution.branches.1.weight f4 [3, 256]
00000000: 02f0 b9bb e746 ed39 0aab 183c cd8e 47bc
00000010: d238 3d3c a740 083c 2d37 aa3a a3a0 25bb
00000020: 512e 1fbc 6c5c 59bc 0fb6 94bb 2b3c 203c
00000030: 2242 bc3b aa82 30bc 8419 67bc d58c 3a3b
00000040: 8b21 c6bb df11 02bb 7449 61bb b4e0 babb
00000050: 9a69 403b f8ab bb3b 09d3 473b cb72 103c
00000060: eadb b73b 939e 09bc b0b0 c23b 1193 31bc
00000070: 59c1 a73a 5bf6 cbbb ddfd 89bb 3854 83ba
00000080: f744 8ebc d5c6 4fbc 9d52 893a 52bb e5bb
00000090: fc32 873b 3261 c8bb f228 dcbb 659e 873b
000000a0: dfa8 b33b 14f9 0b3c 3aa1 9abb 0318 793a
000000b0: 7145 573a 23cd 58bb 5e0f df39 c53e b8ba
000000c0: fda8 713c b7ca 7dbb 49d1 babc 731f 2bbc
000000d0: 15fa c03b 70af 06bc 83ef 0dbc cc29 8e3b
000000e0: 8492 5ebc 3752 a4bb 9913 33bb abcf 7a3c
000000f0: c760 073b 8c43 0bbb d6e7 953b c3b8 6abb
00000100: 02bf a8bc 1b26 a7bb 4264 9f3b 3212 7fbb
00000110: a5e6 993a 23e1 623b 8347 e43a c4b2 b7ba
00000120: ed97 d83b 9057 3bba 4564 1f3b 8714 d93b
00000130: 8246 bf3b 5fc5 0cbb f61b deba f862 5d3b
00000140: 9c3f f9bb 934e e43b 3565 2e3c 7fe8 fc3b
00000150: 4ef1 89bb c218 d83a ccd1 a83b 2eae bc3a
00000160: f93d acbb da94 bf38 aa3f 51bb 578a 05bb
00000170: ee27 563c dec7 4cbc 2bc7 9dbb b60d 1bbc
00000180: f024 de3a 7780 23bc 4a36 1f3c a80e b63b
00000190: 31f0 8d3b 968a 313b d6f6 71bb 8761 fe3b
000001a0: 2cf8 25ba a635 0837 db14 7c3b cc6a 75bc
000001b0: 9009 b8bc 91a8 14ba 7980 bf3a 0003 403b
000001c0: 5207 40bc 655a 63bb 475c 73bb 58d1 90bb
000001d0: 7d1d a1bb 5227 08bc 2ff5 27bc 2236 93bc
000001e0: 2ea3 ecbb ff00 2c3c 7cf7 76bb d155 0d3b
000001f0: 4263 273c de2e 913a 87a7 123c 5028 a63b
00000200: a268 483b 524f 483b 8dc0 f6ba 8a4a 36bb
00000210: bf2d 893b 0515 863b a245 cabb 7a12 963b
00000220: 57f8 3539 9ee7 c4bb cb93 003b 4e46 48bc
00000230: 3fd6 56bc ab1d a2bb 8d6a fb3a a49c 89bb
00000240: 7191 6e3b a4e4 d53b 5d7d 3d3b 12ea 82bb
00000250: 301b 063b 62c6 31bc b3c0 4a3b dbdd 423c
00000260: 5b56 1f3b b9c5 dbbb 9af5 c9bb 29b3 ef3b
00000270: 4cba da3b 817d 073c 343e 84bc a03e aebb
00000280: 49a4 423b a3c3 103a 679d 2bbb 8f1a 88b6
00000290: 73d8 29bb bfbd b0bb 26d2 0bbc 2fb7 e63a
000002a0: 085f da3b 3e34 633a d354 c4bb ed08 433a
000002b0: ab76 18bb 43aa f3bb 3eed 1dbc c2fd cb39
000002c0: a85f 133a 988c 963b a1ec ec3a 089b 383c
000002d0: c154 c6bb 731f ef3a 9850 d5ba d70d c73b
000002e0: 1259 c0bb b00e 47bc b66b 863b 3c60 773c
000002f0: 0620 b6bc ecb6 a23b fc79 86bc 59be 25bc
00000300: 0b7f b93b 7036 63bc 778c 2cbb 199f 4ebc
00000310: 6bc6 7c3b c8f9 ecb9 3c0d b23b f404 873a
00000320: c210 163b 5319 893c 9064 213b 8840 a6bb
00000330: 3ec4 85bb 3e2a 053b 1d51 da3b bf88 473c
00000340: 776e 203c e88c 003c 0dc2 423a f855 95bb
00000350: e0aa 99bc b5b0 20bb 9956 34bb 8c04 fd39
00000360: 4ec3 683b 84d6 863b b1bc 863a 1219 303c
00000370: 84f1 073c 99f0 d5bb 1580 c0bb ec91 eabb
00000380: 10ae 6b3b c9f5 e83a 2c09 c139 1f0e c6bb
00000390: 2e39 4dbc 0bcc 35bc 537c 51ba 5f8e 363c
000003a0: 171a 04bb 33c3 383b ee87 6bbb b44a 133b
000003b0: 74a0 a2ba 896f 30bc 29a8 5bbc bdb7 98bb
000003c0: 35d8 053b 813e a73b 396c 473c 0524 02bb
000003d0: b296 47bc 12bd 623b efdf fdbb 66c4 663c
000003e0: 9392 153b 6b72 183a 7b80 77bb b1a5 b33b
000003f0: 389d 0f3c 542b a7b9 7d88 3eba b7e3 283a
-0.005674363 0.0004525699 0.009318123 -0.012180042 0.011549192 0.008316196 0.0012986414 -0.002527275
-0.009715633 -0.013266664 -0.0045383046 0.00977997 0.0057451883 -0.01077334 -0.0141052045 0.002846529
-0.006046479 -0.0019847078 -0.0034376057 -0.005703056 0.0029359818 0.0057272874 0.0030490777 0.008816431
0.0056109326 -0.008399623 0.005941473 -0.010838286 0.0012798711 -0.006224436 -0.004211171 -0.0010019606
-0.01736687 -0.012681683 0.0010476891 -0.0070108557 0.004125951 -0.006115102 -0.0067187482 0.004138755
0.0054827775 0.008543272 -0.0047189267 0.0009502174 0.00082119467 -0.0033081255 0.00042545324 -0.0014056793
0.014749763 -0.0038725564 -0.022804873 -0.01044451 0.005889187 -0.0082205385 -0.008663061 0.0043384787
-0.013584737 -0.0050146836 -0.0027324914 0.015308301 0.002065705 -0.0021249978 0.004574756 -0.0035815693
-0.020598892 -0.005100978 0.0048642466 -0.0038920757 0.0011741711 0.0034619055 0.0017416332 -0.0014015068
0.006609908 -0.0007146532 0.002432124 0.0066247615 0.0058372626 -0.0021479947 -0.0016945589 0.0033780914
-0.00760646 0.0069673746 0.010644247 0.0077181454 -0.004209674 0.0016486871 0.005151963 0.0014395171
-0.005256411 9.1353155e-05 -0.0031928816 -0.0020376646 0.013071043 -0.012498824 -0.0048150024 -0.009463718
0.0016948264 -0.009979359 0.009717533 0.0055559464 0.0043316116 0.002709066 -0.0036920807 0.007763091
-0.0006331231 8.118723e-06 0.003846458 -0.014979076 -0.022465497 -0.00056708703 0.0014610431 0.0029298663
-0.011720495 -0.003469133 -0.003713386 -0.004419487 -0.0049168454 -0.008310156 -0.010251327 -0.017970148
-0.007221601 0.010498284 -0.0037684133 0.0021566043 0.010216536 0.001107659 0.008951074 0.0050707236
0.0030579944 0.0030564857 -0.0018825695 -0.0027815425 0.0041863616 0.004091861 -0.0061728517 0.0045798393
0.00017354019 -0.0060090562 0.0019619341 -0.012223793 -0.013112604 -0.0049473844 0.0019181535 -0.004199581
0.0036402608 0.0065275 0.0028913834 -0.0039951885 0.0020462982 -0.010850521 0.0030937612 0.011893715
0.0024312946 -0.00670692 -0.006163311 0.0073150587 0.0066750403 0.008269669 -0.016142942 -0.005317524
0.0029699972 0.0005522316 -0.0026186348 -4.0562077e-06 -0.0025916367 -0.0053937132 -0.00853399 0.00176022
0.0066641606 0.00086671475 -0.005991557 0.000743999 -0.002326409 -0.0074360683 -0.0096390825 0.00038908242
0.0005621859 0.004594397 0.0018075892 0.011267431 -0.006052584 0.0018243626 -0.0016274629 0.006074648
-0.005869993 -0.012149498 0.0041021956 0.015098628 -0.022232067 0.0049656536 -0.016415589 -0.010116183
0.0056608967 -0.013867959 -0.002632884 -0.012611174 0.0038570415 -0.0004519953 0.0054337066 0.0010301159
0.0022898172 0.016735708 0.002462659 -0.0050736107 -0.004082232 0.0020319368 0.0066625015 0.012178599
0.009791962 0.007846095 0.00074294285 -0.0045573674 -0.018758237 -0.0024519388 -0.0027517437 0.00048259308
0.0035516801 0.0041149277 0.0010279623 0.010748165 0.008297328 -0.0065289256 -0.0058746436 -0.0071585085
0.0035961904 0.0017773445 0.00036818662 -0.006044164 -0.01252584 -0.011096011 -0.0007991243 0.011142342
-0.0020157152 0.002819252 -0.0035939175 0.0022474946 -0.0012407438 -0.01076878 -0.013406792 -0.004660575
0.002042306 0.0051038866 0.012171798 -0.0019857895 -0.012181925 0.0034597558 -0.007747642 0.014084911
0.002282296 0.00058153894 -0.003776579 0.0054823984 0.008765511 -0.00031885004 -0.0007268263 0.00064426236

action_model._discrete_distribution.branches.1.bias f4 [3]
00000000: b822 9dba 19e9 4abc 28ea 3d3c
-0.0011988496 -0.012384676 0.011591472

action_model._discrete_distribution.branches.2.weight f4 [2, 256]
00000000: b0c0 843c 181a 38ba 5c69 343c 33f1 8fbc
00000010: a8d1 473b ad93 ed3b c3d7 e7bb 8c45 2e3b
00000020: b9de d73b ef5b 83ba 83a3 873b 70ed ae3b
00000030: 62ee a33b d767 60bc c694 c8bc e617 60bc
00000040: 9dda d7bb e27d 263a c4d6 cabb 57da 53ba
00000050: 59c8 703c 354a 6a3b a76c 96bc e2e1 a33b
00000060: 19e1 9a3a 55fa 11bc 0a17 23ba 7e03 dcbb
00000070: 55c0 1c3a 2307 963b 5d36 a2bc c03d 46ba
00000080: 5fd2 bebc 3ed8 3d3c dc3f e93b 12ae 593c
00000090: 2209 cc3a 71a5 ab3b 2a1a 4f3c 51cb c03a
000000a0: b856 61bb 4d80 dcba b481 a5bc 6332 913c
000000b0: 2898 56bc efa1 7abc 68df 5fbb aaeb a7b9
000000c0: 279f eaba 11a7 233c efee 1cbd 6124 553a
000000d0: 0689 ca3b 033c 2fbc 5fc7 17bc f2ae 253c
000000e0: f07d 9bbb dbf5 35bc 46b3 413c 257f 163c
000000f0: 16fe 4f3b 30fc 00bc 4628 1a3c ddb3 dc3b
00000100: 87ef 92bc e429 433c 72e8 6cbb 8bed 803b
00000110: 5762 783b fafc 483c 0c9b fb3b 0cee 37bc
00000120: cc46 ed3b 7c46 72bb 57ff 5f3a d989 2d3c
00000130: e37d 3c3c db51 7fbb a831 0b3c 7a15 59bb
00000140: e797 d5bb 495d 9c3b 2b7e 8c3c d3aa 4d3c
00000150: c2ad 8fbc 5fee 69bb b7dd 333b d476 d939
00000160: 05c1 89bc b342 ee3b 6745 5a39 ec8a 6d3c
00000170: 10ed 9d3c b794 09bc 6487 173b 85e9 ccba
00000180: e46a ae3b d622 133a b752 d9b9 8bd6 cc3b
00000190: e5b8 e43b ab83 4c3c 2ac0 523c efd8 393c
000001a0: d485 7f3b f4a6 0dbc 551d a63b 95c1 47bb
000001b0: 3398 a2bc 52ff 3a3b ef93 d13a b2b8 0a3c
000001c0: 6992 64bb bf80 123c c96f 91bc 02e6 f33b
000001d0: 50fb 293a f9f2 b83c bd9e c8bc 4bdb edbb
000001e0: 5c51 dcbb 4e7f 053c 648d aabb 5b6f cd3c
000001f0: 0448 193c 6c61 3e3b 8683 583c c054 a23a
00000200: be2f 643c bbfa 633b 12e4 9bbb 9385 01bc
00000210: b518 c9bb 5d3b 153c b373 eaba 8173 863b
00000220: bb18 0e3c e7f9 293c e80b 9ebb 6408 ecbc
00000230: 4f06 aabc 0bc0 7a3c b605 59bb 8f4a 4f3c
00000240: 0463 2f3c afb1 073c ebb9 0fbc d411 673c
00000250: bb89 35bc 6bdd 95bc d973 6c3c 6218 503c
00000260: a018 963c e6f8 b7bb d258 83bb c29e a43b
00000270: 848f c8bb 027b da3b 403a 3bbc 1075 493b
00000280: a439 0b3c b27c 253a 280a 0a39 ddad 7f3c
00000290: b222 4fbc 33d4 f23a 060b 17bb f2a3 2a3b
000002a0: b9e1 083c ff61 a73a 874d e63b c9d3 32bb
000002b0: 5174 c63b 10ae b6ba c828 893b 1d56 273c
000002c0: ed67 ce3b 0b45 143c a27e 0c3c 3782 66bb
000002d0: 9c30 acbb cf43 2a3a f42f fc3b f420 df3a
000002e0: 164a 2c3b c67b cf3b 0015 093c f5be 493c
000002f0: a9c5 ecbc 9fe1 2ebb 0039 86bc 3bc1 30bc
00000300: 662e 99bb e402 6e3b e5f1 a53b 3a00 8cbc
00000310: 7450 de3b c3c4 563c 17b9 6f3c c791 a53b
00000320: 2978 6e3c 806d ea39 0f1e 8e3c f88d ce3c
00000330: 88e4 703b 25ac da3b 7188 3f3b 7909 4c3b
00000340: f4b9 fe3a 69d1 903b 2404 a5bb e3dc c83c
00000350: 98c6 01bd dbd0 beba bceb fc3b aa6a e23b
00000360: 720d c5bb 48c4 a4bb 45a6 14bc d06c cd3c
00000370: 8ed5 d7b9 f819 b5bb cc04 ff3b 2613 14b9
00000380: 220d eebb 3732 773b 95e2 5d3b 3c13 133a
00000390: ae18 e03b b400 653c f657 9a3b c984 2abb
000003a0: 2931 82bc a88d 283c 66a2 cf3b 7f16 f63b
000003b0: 1ac9 11bb e008 a4bb 37e6 f7bc 8d10 7e3c
000003c0: 9251 a0bb 28fa 7c3c 9aac ce3c 8ce2 7dba
000003d0: 210e 693b 2da0 fe3b c606 a4bb b8c9 d43b
000003e0: e00d 9cbb 2e73 27bb 0ea7 d53b f475 203c
000003f0: 2b03 5a3c dd05 5e3c 63b5 c63b 9b51 873a
0.016205162 -0.0007022931 0.011011448 -0.017571067 0.0030489955 0.0072502703 -0.0070752813 0.0026591746
0.00658783 -0.0010021905 0.004139365 0.0053383633 0.0050027827 -0.013696632 -0.024485003 -0.013677573
-0.00658734 0.00063511555 -0.006190153 -0.00080815464 0.014696204 0.0035749797 -0.018362356 0.0050012926
0.0011816352 -0.008909781 -0.00062213896 -0.0067142835 0.00059795874 0.0045784875 -0.019801313 -0.0007562302
-0.023293672 0.011587201 0.0071182083 0.0132861305 0.0015566687 0.005238228 0.012640515 0.001470903
-0.0034383964 -0.0016822905 -0.020203449 0.017724222 -0.0130978 -0.015297397 -0.003416026 -0.00032028306
-0.0017900214 0.009988562 -0.038313802 0.0008130726 0.0061808852 -0.01069546 -0.009263842 0.010112511
-0.0047452375 -0.01110598 0.011822527 0.009185587 0.003173714 -0.007872626 0.009409016 0.0067353086
-0.017936481 0.011911843 -0.003614929 0.0039345673 0.0037900412 0.012267346 0.007678395 -0.011226188
0.0072411057 -0.0036968281 0.00085448235 0.0105919475 0.011504623 -0.0038958702 0.008495726 -0.0033124373
-0.0065183523 0.0047718626 0.017150005 0.012552935 -0.017538909 -0.0035695059 0.0027445385 0.00041478
-0.016815672 0.0072711348 0.00020815954 0.014498454 0.01927808 -0.008397273 0.002312147 -0.0015633559
0.005322801 0.0005612796 -0.00041451093 0.0062511615 0.006980049 0.012482564 0.012863198 0.011343225
0.003898968 -0.008645762 0.0050694146 -0.0030480374 -0.019847965 0.002853353 0.0015989522 0.008466886
-0.0034877306 0.008941828 -0.017753499 0.0074431906 0.0006484287 0.022576796 -0.024489755 -0.007258808
-0.006723566 0.008148028 -0.0052048434 0.025077512 0.009355549 0.0029049767 0.013214951 0.0012384877
0.013927398 0.0034786898 -0.0047574127 -0.007905382 -0.0061369785 0.009108392 -0.0017887264 0.0041031246
0.008672888 0.010374523 -0.0048231967 -0.028812595 -0.020754961 0.015304576 -0.0033114976 0.0126520535
0.0107047595 0.008282109 -0.008772354 0.014103372 -0.011080201 -0.018294057 0.014431917 0.012701126
0.018322289 -0.005614388 -0.004008391 0.005023808 -0.006120624 0.0066674957 -0.011427462 0.003073994
0.008497629 0.00063128315 0.00013164489 0.015605417 -0.012642549 0.0018526375 -0.0023047342 0.002603766
0.008354598 0.0012770294 0.007028285 -0.0027286878 0.0060563465 -0.0013937373 0.0041857697 0.010213402
0.00629901 0.009049664 0.0085751135 -0.003517283 -0.005254818 0.00064950896 0.007696146 0.0017023371
0.0026289276 0.0063318936 0.008366823 0.012313594 -0.028902845 -0.0026684774 -0.016384602 -0.010788257
-0.0046747206 0.003631764 0.0050642365 -0.017089952 0.006784493 0.013108435 0.014631531 0.0050527784
0.014555016 0.00044713542 0.017348317 0.02521418 0.003675731 0.0066733533 0.0029225613 0.0031133576
0.001943408 0.004419495 -0.005035894 0.02451939 -0.031683534 -0.0014558093 0.0077185314 0.006909688
-0.0060135657 -0.0050282814 -0.009072845 0.0250763 -0.00041167106 -0.0055267774 0.0077825543 -0.00014121513
-0.007264749 0.003771914 0.0033856977 0.0005610471 0.0068388795 0.013977218 0.004710193 -0.0026019088
-0.015892582 0.01028768 0.006336498 0.007510006 -0.002224511 -0.005005941 -0.030261142 0.015506876
-0.0048925364 0.015440501 0.025228787 -0.0009684942 0.00355614 0.0077705593 -0.0050056903 0.0064937733
-0.004762396 -0.002555083 0.0065201586 0.009793747 0.013306419 0.013551203 0.0060641035 0.0010324003

action_model._discrete_distribution.branches.2.bias f4 [2]
00000000: d658 b3b9 ec58 b339
-0.00034207728 0.00034207792
