results/skillBoat/boat/boat-41794.onnx (onnx, 340257 bytes, 11 tensors)

discrete_act_size_vector f4 [1, 3]
000000 00 00 00 40 00 00 40 40 00 00 00 40
       2.0 3.0 2.0

network_body._body_endoder.seq_layers.0.weight f4 [256, 58]
000000 de 93 0d 3b 03 86 b9 3c 0a f0 1a 3e a7 81 89 3e
       0.0021603028 0.02264691 0.1513063 0.2685673
000010 30 46 45 bc 57 ce d2 3c 0b bd da 3c 74 b3 78 3d
       -0.01204066 0.025733156 0.02670147 0.060718015
000020 17 4a 88 bd da f2 11 be c6 b8 33 be c9 05 8d 3d
       -0.066547565 -0.14252797 -0.17550954 0.06885869
000030 55 eb 1b be 7a 18 01 be 3b 0f 2e bd 76 f0 f1 3d
       -0.15226491 -0.12606993 -0.042494994 0.118134424
000040 92 df 14 be ca 2b d1 3d 75 7d d0 bd ed 47 8d bd
       -0.1453841 0.1021343 -0.10180179 -0.068984844
000050 7b 63 91 be 7b de b6 bb d2 b6 44 be 21 87 9c 3e
       -0.2839621 -0.005580721 -0.19210365 0.30571845
000060 de ae 65 be 21 1c 62 bd 8b dc a2 3d a4 8e 33 bd
       -0.22429988 -0.055202607 0.079522215 -0.043837205
000070 4e 8f 8a 3d 68 18 f0 3d fe 88 94 3b 0d 68 79 bb
       0.067656144 0.11723405 0.0045329323 -0.0038056404
000080 4a 03 b0 bd ee 61 29 3e 58 d0 92 bd 22 37 88 3e
       -0.08594377 0.16541263 -0.07168645 0.26604563
000090 4b 2b 0c 3e 79 32 e0 bc f6 33 b6 bd 18 a1 fa bd
       0.1368839 -0.027367817 -0.088966295 -0.122377574
0000a0 e9 25 77 bb 17 0c cb bc b6 3f 01 be b3 79 92 3d
       -0.0037711805 -0.024786038 -0.1262196 0.071521185
0000b0 8f 8e cb bd 8d 56 1a be 02 f3 0a 3e 6d 2c 36 3e
       -0.099393 -0.15072079 0.13569263 0.17790385
0000c0 c3 e9 30 bd 7e fd 0f be 33 c9 43 3c fc eb ee 3d
       -0.043191683 -0.14061543 0.011949825 0.11666104
0000d0 3c d4 7a be c0 cf 6e bd 82 a5 2f be 5c 38 bb bd
       -0.24495023 -0.058303595 -0.1715298 -0.09141609
0000e0 d6 46 b9 bc 75 9c 69 bd aa 53 81 bd 2a 64 49 3c
       -0.022616785 -0.057033975 -0.06314786 0.012291947
0000f0 37 ed e4 bc e2 cd a3 bd 25 60 2c 3e 2c 5d ea bd
       -0.027945144 -0.079982534 0.16833551 -0.114435524
000100 bd 08 12 be b1 1f 8d 3e 4a cb db 3d d9 a2 49 be
       -0.14261146 0.2756324 0.10732134 -0.19691028
000110 52 fd 2f be aa fc dc bd fc e1 c1 bc f4 a6 92 3e
       -0.17186478 -0.10790379 -0.023667328 0.28643
000120 20 34 c1 bd fd 5a 04 3e 6c e6 94 bd ca bf b7 3d
       -0.0943377 0.12925334 -0.07270512 0.08972128
000130 25 e8 fc bd 4b ca 03 3e 50 72 37 be e9 1f 61 be
       -0.123489656 0.12870137 -0.179147 -0.21984829
000140 dc 8a c9 bc 2e 43 84 3d 90 d3 e2 3d 95 f1 07 be
       -0.024602346 0.06458126 0.110755086 -0.1327575
000150 5f ee ff bd 7d 62 2d be 76 92 a8 3d 0c c9 09 bc
       -0.124966376 -0.16932102 0.0823106 -0.00840975
000160 ae 2a 80 3e df eb f6 bc 95 db c6 3c 4b ed 1c 3e
       0.25032562 -0.030141769 0.024274627 0.15324895
000170 ea b7 80 3e c0 ff f5 bd 73 fd 1e be 19 1f 2e 3e
       0.25140315 -0.12011671 -0.1552637 0.1700405
000180 d9 e7 cd 3b 05 03 37 3e 8f 1b ad bc b8 e0 c6 bd
       0.006283742 0.17872246 -0.021131305 -0.097108305
000190 bd 0d b7 bd 3e 40 c9 3d 8e f0 a8 3d 00 35 72 3e
       -0.08938167 0.09826706 0.08249007 0.2365303
0001a0 df 5e 32 be 2b 9c ef 3c e3 0e 37 3e d1 14 1d 3e
       -0.17419003 0.029249271 0.17876773 0.15339972
0001b0 b5 cf 29 bd 75 9a 99 be 15 f4 47 3c 5f 28 fa 3c
       -0.04145785 -0.30000654 0.01220419 0.030536829
0001c0 9f f3 05 3e 2a 34 b2 bd 50 30 da 3d e7 50 42 be
       0.13081215 -0.08701356 0.10653746 -0.18976174
0001d0 08 dd 8b 3d b2 4c 5d 3c 82 67 e2 3d 5c 8e e4 3d
       0.06829268 0.013507055 0.11054899 0.111599654
0001e0 d0 11 5b be 5a 26 c6 3c 11 2b af 3e 30 bd 71 be
       -0.21393514 0.02418821 0.34212545 -0.23607326
0001f0 d5 ec b8 bd fd d0 3f 3e f6 a7 88 be c8 7e 0a be
       -0.09029547 0.18732066 -0.26690644 -0.13524926
000200 8c 1a f7 3c 26 84 c0 bd db 17 af 3e b9 26 e5 3d
       0.030164026 -0.09400205 0.34197888 0.111890264
000210 3c 4e 3b be 5e 42 8d 3d 2b ff 98 bd d3 9c 52 3d
       -0.18291563 0.06897424 -0.074705444 0.05141909
000220 f2 01 5f 3e 1e d1 c8 bd 9a 88 c1 ba 4b 82 34 3d
       0.21778086 -0.09805511 -0.0014765442 0.04406957
000230 61 36 11 3e d9 02 1c be ba 30 00 3d ba 2f 9f 3c
       0.141809 -0.15235461 0.03129647 0.019431937
000240 10 bd 02 3d 8e e2 0b 3e 3d 5e 91 bd 9b 44 d3 3d
       0.031918585 0.13660643 -0.07098053 0.1031582
000250 4c d0 8e bd 82 14 e9 ba e9 2b b3 3c 2b c5 c1 bd
       -0.06973323 -0.0017782601 0.021871524 -0.09461435
000260 50 3d 8c bd e2 81 1a 3e b8 d5 db bd 40 3b 14 3e
       -0.06847632 0.15088609 -0.10734123 0.14475727
000270 c4 3c 06 bd 8f 07 62 bd 3c ef 0d 3d 40 46 82 bd
       -0.032772794 -0.05518299 0.03465198 -0.063610554
000280 5d 58 38 3c 7f ba 33 be 83 ca 7f 3d 69 d7 f0 3c
       0.011251536 -0.17551611 0.06244899 0.02939959
000290 1b 27 8d be b7 e1 d0 3d 57 8b 83 bc 64 b2 2c 3d
       -0.27568898 0.10199302 -0.016057653 0.042162314
0002a0 d5 11 6b 3c f4 a0 52 3c 1e 69 e4 3c ee 27 56 3e
       0.014347513 0.012855757 0.027882155 0.2091367
0002b0 34 49 c5 3c b5 7c e1 3d bd 6f e8 3d 7e 7c ab bd
       0.024082758 0.11010114 0.113494374 -0.083733544
0002c0 36 f7 4d be ca a9 30 be 23 06 48 3c f9 ae 3e be
       -0.20113835 -0.1725227 0.012208494 -0.18621434
0002d0 de f1 d7 3d a6 dd 33 3e a9 27 c9 bc ca 72 d9 3d
       0.105441794 0.17565021 -0.024555044 0.106175974
0002e0 dd cd d0 3d 54 ef fe 3d ce 70 2c 3c 69 8d 5e 3e
       0.10195515 0.12447992 0.010524942 0.21733631
0002f0 99 89 5e bd 1c 21 46 3d 14 a8 f2 3d f5 63 05 3d
       -0.054330442 0.04837142 0.118484646 0.03256603
000300 cb 85 23 3e 61 b6 1a 3d ec 8e cb bd c5 2e 60 3c
       0.15969007 0.037771586 -0.099393696 0.013683026
000310 30 c5 4e 3e cd ea b6 3d c5 24 c9 3d fa 88 06 3e
       0.20192409 0.089315034 0.09821466 0.1313819
000320 42 aa 94 3c 38 43 ca bc 7a 63 90 3d da cf 63 3d
       0.018147592 -0.024690256 0.07050224 0.055618145
000330 0a 5e 45 3e 09 77 30 bd 81 37 49 3b dd 9a f9 3d
       0.19274154 -0.04308227 0.003070325 0.12187741
000340 a3 0a 1f 3b e5 ae 54 bd 2a 37 1b bd d4 da 31 3e
       0.0024267815 -0.051924605 -0.037894405 0.17368633
000350 3b a9 bf 3b 75 7d 37 3e 63 46 8a 3d 12 84 bd 3d
       0.0058490313 0.17918952 0.067517065 0.09253706
000360 e7 ea 95 be b5 08 2e 3e 07 43 ad 3c c1 3a b1 bd
       -0.2928078 0.16995509 0.021150125 -0.086537845
000370 f9 c4 73 3d 1e 98 9a bd a7 6a 1d be 98 90 92 3e
       0.05951402 -0.07548545 -0.15372716 0.2862594
000380 97 da f5 bd 66 18 5b bd 94 70 3c 3d 7c f4 35 be
       -0.12004583 -0.053490065 0.0460058 -0.17769045
000390 3c 0a 20 3d 28 0f 19 3c a8 fc 94 3d 50 6c ff 3d
       0.03907226 0.009341992 0.07274753 0.12471831
0003a0 a8 6e ce 3d 87 05 a7 3d 99 0a 27 be 56 57 79 bd
       0.100797 0.08155351 -0.16312636 -0.060874306
0003b0 bc a9 5b 3e ce 20 5c bd 94 17 40 3c a6 1b e5 bd
       0.21451467 -0.053742222 0.011724371 -0.11186914
0003c0 a5 a2 a7 be fc f5 34 3b 26 30 68 be 4e 9b 71 3d
       -0.32741275 0.0027612438 -0.22674617 0.058986
0003d0 7f 39 da 3d aa 10 4a be ff ce 4e be 7f b1 b1 3a
       0.10655498 -0.1973292 -0.2019615 0.0013556926
0003e0 96 c8 97 3e 30 b6 30 3e 88 1f 4a 3e eb 43 44 bd
       0.29645222 0.17256999 0.1973859 -0.047916334
0003f0 34 9d 9c 3e 81 a4 07 3d d8 64 21 3e 12 1a 23 be
       0.30588686 0.033115868 0.15761125 -0.15927914

network_body._body_endoder.seq_layers.0.bias f4 [256]
000000 de ff fd bb 10 48 1d bc 2c 3c a5 b9 e2 a3 20 3a
       -0.007751449 -0.009599701 -0.00031516084 0.0006127936
000010 fa 10 66 39 86 82 a0 ba 92 73 e3 3b bf c0 05 3b
       0.00021940834 -0.001224593 0.0069412673 0.0020409075
000020 f7 e5 f0 ba a9 ae 06 bb 15 83 9a 3b 52 86 26 36
       -0.0018379082 -0.0020550883 0.004715333 2.4814112e-06
000030 b4 01 09 ba 64 89 c2 ba 2d 7e d2 3a fc 7e 15 bc
       -0.0005226389 -0.0014841971 0.0016059332 -0.009124514
000040 37 a7 8e 3a 02 6d 23 35 ec 3d 80 39 a1 9d c9 b9
       0.0010883574 6.088086e-07 0.00024460198 -0.0003845515
000050 bf a1 af b9 d8 81 3a bb d5 7f 2d bc 7c 7a 26 bb
       -0.0003349911 -0.002845874 -0.01058956 -0.0025402596
000060 f0 48 24 3c 69 82 43 3b a0 0f c2 bb 35 dc fb 3a
       0.010027155 0.002983237 -0.005922273 0.0019215407
000070 94 02 22 bb d7 88 93 3a 03 be bd bb ff 9b c8 3b
       -0.0024720775 0.0011255991 -0.0057904734 0.006122112
000080 a8 0c 1f 39 23 4d 5b ba c8 e3 21 bb ae be 55 3b
       0.00015168136 -0.0008365681 -0.0024702419 0.0032614875
000090 c6 9a f2 39 10 f0 35 ba 99 3d c3 ba 85 47 3f bb
       0.00046273152 -0.0006940374 -0.0014895677 -0.0029186916
0000a0 c5 ab 11 ba e7 d8 9e 3a 78 0e 89 3a 2c 28 fb ba
       -0.00055569067 0.0012119085 0.0010456583 -0.0019161752
0000b0 5b 42 88 3b 01 ba 7c 3b 44 c7 7a 3b 5f f3 15 3a
       0.004158301 0.0038563015 0.0038265744 0.0005720164
0000c0 15 38 9b 3b 4f 93 e3 ba 1c fb b0 bb 54 ad a6 3b
       0.00473691 -0.0017362627 -0.0054010283 0.0050865803
0000d0 45 0e 72 bb e6 60 05 3c 9e c7 23 bb 65 2e 67 3a
       -0.0036934775 0.008140778 -0.0024990807 0.0008818864
0000e0 d9 37 e9 b9 f4 43 93 3b 6a 17 a2 ba 6a 24 10 bc
       -0.00044482833 0.0044941846 -0.0012366597 -0.008797744
0000f0 6b ef 67 bb 04 1d e5 bb 11 4a e8 bb 6a 72 67 3a
       -0.0035390507 -0.0069919843 -0.0070889075 0.00088289997
000100 42 4b 59 3b 53 f5 e8 3a 4e 55 62 3b 01 93 f0 ba
       0.003315643 0.0017773308 0.003453571 -0.0018354357
000110 bd 0c 40 3b 99 68 a0 3b fa 2e ad 38 4c f0 3a 3b
       0.0029304468 0.0048952815 8.258033e-05 0.0028524576
000120 e6 66 a5 3a 78 a2 12 3b a0 f8 9b bb b4 97 a8 ba
       0.0012619167 0.002237467 -0.004759863 -0.0012862594
000130 04 a3 7b bb 3d 0b 8b ba 53 c3 f6 ba a8 1f 9d 3b
       -0.0038396725 -0.0010608208 -0.0018826522 0.0047950335
000140 65 64 95 3b c9 14 db 39 bb eb 16 ba 58 b3 2c bb
       0.004559087 0.0004178642 -0.00057571725 -0.0026352014
000150 32 12 85 bb f4 24 75 3a 30 e2 ee bb 41 df 0c 3b
       -0.004061007 0.0009351515 -0.0072901472 0.0021495374
000160 9b e8 83 3a 39 bd 00 bb 94 6e d3 bb d0 29 b6 3a
       0.0010063829 -0.0019644035 -0.006452391 0.0013897959
000170 ad cf ec 3a 2d 98 3a 3b f6 12 3d bb d2 e3 16 ba
       0.0018067263 0.0028472051 -0.0028850413 -0.0005755994
000180 2f a0 34 bb 9f 11 b2 3a b3 25 09 3b 1c a0 05 bb
       -0.0027561297 0.0013585574 0.0020927012 -0.0020389622
000190 00 3e 71 ba 2d 9c 98 bb a6 ca 9b 3a d8 9a 87 3a
       -0.0009202659 -0.0046572895 0.0011885955 0.001034583
0001a0 4a 7c 24 bb ce aa 35 bb b1 92 9c 3a d0 7f 7d 3b
       -0.0025098496 -0.0027720216 0.0011945573 0.0038680919
0001b0 7c 7f b9 3b 63 d0 a7 3a 0e 50 a2 bb d8 cc 05 bb
       0.0056609493 0.0012803193 -0.004953391 -0.0020416286
0001c0 dc 11 ef bb 16 12 47 bb fd 7b b7 ba 64 b2 2e 39
       -0.00729583 -0.003037577 -0.0013998743 0.00016660389
0001d0 54 3d 86 3b d3 6f c4 bb 72 4e ef bb 0c 41 2c 3a
       0.0040966664 -0.005994776 -0.0073030526 0.0006570972
0001e0 cd 51 38 bb d7 97 cc ba 50 14 b2 ba b8 f9 e2 3a
       -0.002812493 -0.0015609217 -0.0013586376 0.0017316854
0001f0 07 67 09 3b 6b 2d 1b bb ec 3f 3f 3b 24 0f 3a bc
       0.002096595 -0.0023678194 0.0029182388 -0.011356149
000200 3f a4 8c 3b 06 e2 09 bc 73 79 3e 3a ef c3 25 3b
       0.0042920406 -0.008415705 0.0007266022 0.0025293787
000210 f9 bd 81 3a 32 6a 93 ba 92 b8 82 3a 2e da 09 bc
       0.0009898535 -0.0011246859 0.0009973219 -0.0084138345
000220 ed 44 4f 3b 3b 3a a6 39 37 ff ae ba 31 cf 0e 3a
       0.0031626776 0.00031705372 -0.0013351206 0.0005447744
000230 f6 df bd 3a f3 e4 68 bb a2 68 c1 bb d1 63 b1 3b
       0.0014486301 -0.0035536855 -0.005902366 0.0054135104
000240 eb ce 7c 3b 74 b0 a0 3b 4c fe a8 bb d0 86 30 bb
       0.003857548 0.0049038474 -0.0051572677 -0.0026935823
000250 f0 97 20 3a 87 9d 10 b9 75 f0 ed 3b 6e 72 05 bb
       0.0006126156 -0.00013791594 0.0072613307 -0.0020362395
000260 9f 75 2d 3a b9 ac 25 3b 9e 6e 95 3b d5 a3 0d bb
       0.0006616953 0.0025279953 0.0045603057 -0.0021612544
000270 d0 23 95 3b 88 85 48 bb 7c 5f 29 3b 98 3e a3 bb
       0.0045513883 -0.003059717 0.0025844267 -0.004981827
000280 d2 69 a3 bb 1e 3c eb ba 9a cc fb bb 8b 81 b4 b9
       -0.00498698 -0.0017946993 -0.0076843025 -0.00034428792
000290 e8 d8 30 3b 07 47 e4 ba c6 59 81 39 39 1c fb 3b
       0.0026984755 -0.0017416187 0.00024671684 0.0076632765
0002a0 be b9 54 3b 87 18 b8 b9 0d bd 3d 3a 09 ad 0b 3c
       0.0032459344 -0.0003511349 0.00072379486 0.0085251415
0002b0 09 05 4e 3b b6 08 20 3c d9 87 39 bb 40 06 c8 3b
       0.0031436107 0.009767702 -0.0028309731 0.0061042607
0002c0 5a d7 2c bb 8a 51 de b6 1b fa 8f 3b 46 8a d2 bb
       -0.0026373477 -6.625608e-06 0.0043938286 -0.006425175
0002d0 0e a0 4c ba 20 36 28 3b bf b7 8d 3a 99 39 5f bb
       -0.00078058324 0.0025667027 0.0010812207 -0.003406143
0002e0 ad d9 01 bb 43 74 a6 ba 29 58 f3 ba 5c e7 29 3b
       -0.0019813583 -0.0012699444 -0.0018565702 0.0025925254
0002f0 e8 90 8d 3b 6d d4 7f bb 71 5b 30 b9 96 27 13 ba
       0.0043202527 -0.0039036528 -0.00016818733 -0.0005613504
000300 19 18 09 b8 a2 4e 61 38 13 f5 9f 3b 7f a0 d0 b9
       -3.2685788e-05 5.3717413e-05 0.00488151 -0.0003979243
000310 6d fc e3 bb 98 90 e3 ba f1 fc 2d ba 66 96 b1 3b
       -0.0069575817 -0.0017361818 -0.00066371175 0.00541954
000320 e8 86 4e ba 9b b5 49 bb 20 91 32 bb 02 36 3a 3c
       -0.0007878379 -0.0030778411 -0.0027247146 0.0113654155
000330 1a 79 b7 3b ac b0 a8 ba af 13 93 38 f5 8b 34 3b
       0.005599153 -0.0012870035 7.0131726e-05 0.0027549241
000340 41 d2 d5 3b d6 d6 e5 3a b5 a4 b2 bb 4b 99 a0 bb
       0.0065253084 0.001753534 -0.0054517635 -0.0049010864
000350 0e 76 12 bb 04 d3 32 3b 6f f0 be ba 74 45 57 3a
       -0.0022348198 0.002728642 -0.0014567504 0.00082119484
000360 2b e3 9a 3b 14 9c 24 bb fc fc ae bb 96 0a d8 b9
       0.0047267876 -0.0025117444 -0.0053402167 -0.00041206618
000370 da 28 95 b9 37 61 ca ba 9d eb dd bb 12 c7 b5 3a
       -0.0002844993 -0.0015440349 -0.006772472 0.0013868532
000380 53 21 a6 b9 5e 21 47 39 79 8f b9 3b 15 c0 c9 b9
       -0.00031686816 0.00018990549 0.005662855 -0.0003848082
000390 b7 5d 03 3b 4a 27 f2 3a ea d6 23 3b cb 03 80 ba
       0.0020044872 0.0018474844 0.0024999925 -0.0009766755
0003a0 5b 50 07 bc b3 cc ac 3a 12 f3 07 bb 61 5f 7a b7
       -0.008258904 0.0013183564 -0.0020744246 -1.4923368e-05
0003b0 e8 21 6d bb b9 a6 22 3a 24 17 94 3a 47 df 63 bb
       -0.003618354 0.0006204653 0.00112984 -0.0034770535
0003c0 48 ed 65 3b 3d 8c 0a bb 15 24 30 bb 25 89 e5 ba
       0.0035084058 -0.0021140717 -0.0026876975 -0.0017512186
0003d0 47 fa 38 3a 20 30 59 bb 7c cb 1d bc 33 07 6d ba
       0.0007056337 -0.0033140257 -0.009631034 -0.0009041905
0003e0 05 97 19 3b cb fa 77 bb 78 b7 4f 3b b7 2b 3e ba
       0.0023435962 -0.0037838693 0.003169505 -0.0007254439
0003f0 15 0a b2 3b 15 79 22 b8 7c e5 62 bb bf 74 2c bb
       0.005433331 -3.8736576e-05 -0.0034621647 -0.0026314703

network_body._body_endoder.seq_layers.2.weight f4 [256, 256]
000000 10 c8 bd bc 50 10 eb 3d 8f c0 0a bd df 7c 74 3d
       -0.023166686 0.11477721 -0.033875044 0.0596894
000010 d8 8b 04 3d 1a 9c 82 3d a5 35 23 39 6d 12 3d 3d
       0.032359928 0.0637743 0.00015564876 0.04616015
000020 55 08 7b bd 2a 23 0d 3d 01 2a 99 bd 9e 62 81 bc
       -0.061287243 0.034457363 -0.07478715 -0.015794095
000030 57 f0 35 bc c1 48 3a bd bf 6b 8b bd e5 98 04 3d
       -0.011104665 -0.04547954 -0.0680766 0.032372374
000040 e4 b0 ba 3d e9 ad 0d bd 10 4d 00 3d 1e 76 9f 3d
       0.091157705 -0.03458968 0.031323493 0.07786201
000050 32 41 e8 bc 89 8a 76 bd 35 c3 3e 3d 99 c3 b2 bd
       -0.0283514 -0.06019071 0.046572883 -0.087287135
000060 e6 5e 0b bd a5 cd 21 bd fc 0f 12 3d 3e a9 94 3d
       -0.03402605 -0.03950276 0.035659775 0.07258843
000070 29 5d 5c bd 08 96 27 bb d7 09 7f 3d 66 09 66 bd
       -0.053799782 -0.0025571603 0.062265243 -0.056161307
000080 c0 a1 ab 3c 9d 1f 6e 3c 5d 2e d7 bc 43 ab 1e bc
       0.020951152 0.014533904 -0.026267225 -0.009684387
000090 19 a3 69 bc 19 59 3c bd d4 d2 46 3d e4 46 81 3c
       -0.014260077 -0.045983408 0.048540905 0.015780874
0000a0 da 31 23 bc 03 b8 0b 3d 61 65 a8 3d 39 68 cc 3c
       -0.009960616 0.034111034 0.082224615 0.024952041
0000b0 9a 79 12 3d 8f 0a 81 3b e7 90 1f 3b 9c 03 14 3d
       0.0357605 0.0039380263 0.0024347843 0.036136255
0000c0 50 f1 5c bc 5a 66 e6 3d 28 4c cd 3d f6 5a ac 3b
       -0.013485268 0.11249991 0.10024291 0.005259867
0000d0 c0 35 30 3d 31 f6 08 3d a6 44 10 bd d9 01 0a 3d
       0.04302001 0.03343791 -0.03522172 0.03369317
0000e0 42 42 bc 3d 36 3b bc 3d 87 a4 87 3c 10 18 06 3e
       0.09192325 0.09190981 0.016557945 0.13095117
0000f0 96 45 9c bc 7d d4 9b bd 6b 20 7a bd cb 88 c3 bc
       -0.01907615 -0.07608888 -0.061066072 -0.023868939
000100 05 4d 49 3c 30 97 bd bc 3f ef 27 bd 0a 3a 25 3d
       0.012286429 -0.02314338 -0.040999647 0.040338553
000110 94 9b 4d 3d 97 98 17 3d c8 2c 43 bd 61 8d 6a bc
       0.0501972 0.037010755 -0.04765013 -0.014315934
000120 d6 fe af 3c 1a 15 39 3d dd 55 cf 3d f4 7e 44 3d
       0.02148382 0.04518614 0.10123799 0.047972634
000130 6b 49 20 3e 66 2f 62 3d 6f b8 f6 bc 15 ce 29 3d
       0.15653007 0.055220984 -0.030117242 0.0414563
000140 48 9f 8f 3d 6f 16 2a bd 83 65 ec bd 99 ba 7b 3d
       0.07012802 -0.0415253 -0.11542799 0.06145725
000150 18 7a c3 3b 2c e4 12 bd f7 bd 1b be c5 7a 94 3c
       0.0059654824 -0.035862133 -0.15209185 0.018124947
000160 4c f8 b8 bd f5 08 a6 3c 25 bc be 3d a1 91 da 3d
       -0.09031734 0.020267943 0.093132295 0.10672308
000170 30 41 25 3d 83 6e 21 be c8 98 cc 3d 3a 0c 96 bc
       0.04034537 -0.15764813 0.09990078 -0.018316377
000180 86 07 5e 3d bf 23 f3 3d b6 62 b3 bd 75 fe 16 bc
       0.054206394 0.118720524 -0.08759062 -0.009215941
000190 6d 3c e2 bd b5 6b 64 3d 98 6e 24 3c 04 67 19 3c
       -0.110466816 0.05576678 0.010036133 0.00936294
0001a0 06 30 c2 3c 24 cc 29 3d 6f 96 06 bd 61 56 d2 3c
       0.02370454 0.04145445 -0.03285831 0.025675954
0001b0 3d d3 33 bd d1 14 bf 39 d8 79 e9 3d 96 d0 e9 bc
       -0.043902624 0.00036445868 0.11400193 -0.028541844
0001c0 2f 88 11 3c 32 4c 37 3d 37 03 73 3d 02 9d 89 3c
       0.008882566 0.0447504 0.059329238 0.0167985
0001d0 d5 48 9b 3c 02 cc 5b 3c 3f 91 be bd 9d 1a 2f 3c
       0.018955627 0.0134153385 -0.09305047 0.010687497
0001e0 da 90 68 bd b3 a5 95 3c 4f ed f6 bd 98 1a b8 bd
       -0.056778766 0.018267488 -0.12056982 -0.08989447
0001f0 da 97 2d 3d 6f 80 de bd 84 79 c9 3d b9 9e ba 3c
       0.042381145 -0.108643405 0.098376304 0.022780763
000200 88 b0 1b 3d 77 fe 66 3c 2c 2f 87 bd ed be 73 3d
       0.03801015 0.014098755 -0.06600794 0.059508253
000210 cd 97 b4 3c 4b 4d 05 bd 93 f2 98 3c 8d fd 3b bc
       0.02204504 -0.032544415 0.018670356 -0.011474025
000220 f5 ff 09 3d bf 5a cd bd 98 a8 8e 3d 8f 55 5b 3d
       0.033691365 -0.10027074 0.069657505 0.053548392
000230 c7 e2 d5 bd 9d b8 89 3c 6d 41 bb 3d 20 90 c9 3c
       -0.10443645 0.016811663 0.09143338 0.024604857
000240 af 4e b4 3d 05 7e 0f 3d d7 78 04 bd 1e c0 4e bd
       0.0880407 0.03503229 -0.032341804 -0.050476186
000250 ec b2 ee bc 7f ad 90 3c d4 3f 20 bd 89 06 61 3d
       -0.029138051 0.017660854 -0.03912337 0.054937873
000260 06 89 f8 3a 35 42 20 bd 57 f9 5c bd f7 92 7b bd
       0.0018961735 -0.03912564 -0.053948727 -0.061419453
000270 b6 0e aa 3d b8 7f 8b 3c 08 a4 fe 3b 32 5a 3e bb
       0.08303587 0.017028674 0.007771019 -0.002904546
000280 4d 4b 07 bc d4 99 8a 3d 3d a8 01 bc 57 c0 93 3d
       -0.008257699 0.06767622 -0.007913646 0.0721442
000290 e5 fe 94 3d ae c0 05 bc 30 78 b8 3c 0e e4 94 bd
       0.0727518 -0.008163614 0.022518247 -0.072700605
0002a0 91 3e 25 3d ea a8 bd bc 24 8b bd bc be 59 54 bd
       0.04034287 -0.023151834 -0.023137636 -0.051843397
0002b0 6c bf 7e bd 04 cc 43 3d 4d 4b 3f bd b2 fd a0 bd
       -0.062194273 0.047801986 -0.04670267 -0.078608885
0002c0 ed 14 dd bd 12 ef 9a 3d 0f 11 de bd 93 26 a1 3c
       -0.10795007 0.0756513 -0.108430974 0.019671714
0002d0 a7 32 fc 3d b2 0d 11 3d 5d 13 81 bd 98 9d 58 bc
       0.12314349 0.03541345 -0.063025214 -0.013221167
0002e0 a7 11 14 3c ae 4d 58 bb 3f 75 a5 3d 8d d4 bb bd
       0.009037412 -0.0033005285 0.080790035 -0.091714
0002f0 f7 74 ef 3c 5c e0 98 bc 0a 8d 53 bc 3d 27 09 bc
       0.029230578 -0.01866167 -0.012912044 -0.008371172
000300 11 88 98 3c d8 16 f0 3b a2 14 c9 bd 98 90 73 bc
       0.018619569 0.007326942 -0.098183885 -0.014866017
000310 11 f6 90 3c 22 16 8b bc 12 c7 3e 3d 44 08 35 bd
       0.017695459 -0.016978327 0.046576567 -0.044197336
000320 a0 c2 4d 3d 24 f5 56 bd 0c e6 84 bd 28 fb a4 3d
       0.050234437 -0.052479878 -0.064891905 0.08055717
000330 fb 8c 9c 3c f8 fc 7a bc 91 ca a6 3d 36 67 e3 ba
       0.019110193 -0.0153191015 0.08144105 -0.0017349485
000340 b8 de d0 bd 9e 37 aa bc c4 c5 01 bd 93 97 98 3d
       -0.1019873 -0.020778473 -0.031682745 0.074507855
000350 3d 95 bd bd f3 03 74 3b ce 54 ec bd 2c b8 1a bd
       -0.092569806 0.00372338 -0.11539613 -0.037773296
000360 d6 33 13 bb 3b 0f 01 be 3c 67 9c 3d 1f 02 42 3d
       -0.0022461317 -0.12603466 0.07636878 0.047365304
000370 54 15 a0 bd ad 67 fc 3c 62 1e c9 3d 54 9f 9f 3d
       -0.07816568 0.030811155 0.09820248 0.07794061
000380 fa a4 a1 bc f7 50 ef 3a 1c f5 ad bd d2 d2 d9 3c
       -0.019731987 0.0018258382 -0.084940165 0.026589785
000390 88 49 2e 3d 1a 06 ce 3b 9a 85 78 3d 0e a9 7b bb
       0.042550594 0.0062873485 0.060674287 -0.0038400325
0003a0 7c 1c f2 bd fb 4c 62 bd d0 3b 1a be 16 ac c3 3b
       -0.11821839 -0.055249196 -0.15061879 0.005971442
0003b0 0b 77 ab 3b 08 83 ff bd 7d 05 5e bd a8 f6 ce bc
       0.005232697 -0.12476164 -0.054204453 -0.0252641
0003c0 53 bb 84 3d 5b 32 a0 3d 4c 1b 0b 3c ca a5 23 3c
       0.06481042 0.078221045 0.008490395 0.009988258
0003d0 26 9e d8 bc 43 13 41 3c ac d2 80 bd 43 84 98 bd
       -0.026442599 0.0117843775 -0.062901825 -0.07447102
0003e0 83 a0 d4 bc 85 34 6d bd c1 ef 46 bd 3e 46 d4 3d
       -0.025955444 -0.057911415 -0.04856849 0.1036496
0003f0 c2 f8 bb 3d 22 a5 50 bd 1e 37 4c 3d 7e 5c cd bd
       0.09178306 -0.050938733 0.04985725 -0.10027407

network_body._body_endoder.seq_layers.2.bias f4 [256]
000000 b1 f2 db ba 6c a3 37 3a 30 70 05 bc 7c a9 cc 3b
       -0.0016780702 0.0007005248 -0.008144423 0.00624579
000010 8e 52 0d bc fb 12 ee b8 85 ba bf 3b e3 3d 30 bb
       -0.00862564 -0.0001135226 0.0058510923 -0.0026892356
000020 d1 ca 55 3a 21 33 d9 ba 54 e1 60 3a 10 8a d6 bb
       0.0008155527 -0.0016571024 0.00085784984 -0.00654722
000030 52 c1 d1 3b 71 44 ca 3a 1b 10 b0 ba 56 2f f8 bb
       0.0064012194 0.0015431774 -0.0013432534 -0.0075740023
000040 ec 22 82 bb 50 e2 a1 ba ee aa cd bb 7e 09 9a 3b
       -0.003971448 -0.0012350772 -0.00627648 0.0047008386
000050 d1 39 72 3b 71 f8 7d bb 37 51 50 ba 23 11 ab 3a
       0.003696073 -0.003875282 -0.0007946672 0.0013051372
000060 ca 42 88 39 87 7f 30 bb 6c de 7c 3b fa 58 ee 3b
       0.00025989703 -0.002693148 0.0038584722 0.0072737904
000070 cc f8 76 38 5c 4b 59 3b 41 96 16 bb 72 39 08 3b
       5.888268e-05 0.003315649 -0.0022977742 0.0020786193
000080 4e 04 44 3b 07 78 14 3c 28 42 80 ba 60 8c d9 ba
       0.0029909792 0.00906182 -0.0009785341 -0.0016597621
000090 c9 55 0d b9 2f 5d 15 bb ae bc 22 3b 10 8c f6 bb
       -0.00013478765 -0.0022791137 0.00248317 -0.007524021
0000a0 9e c7 66 ba 18 99 92 3b a6 3c ff ba 1e a9 c2 bb
       -0.0008803549 0.0044738166 -0.0019473031 -0.0059405705
0000b0 bb a1 b5 bb 94 4d 0a 3b b1 b2 d7 3b 68 1c 31 bc
       -0.0055429614 0.002110337 0.006582581 -0.010809995
0000c0 79 c4 ab bb 6c ff 82 ba 47 6c 03 bc 1a 46 03 bb
       -0.005241927 -0.0009994335 -0.008021421 -0.0020030797
0000d0 ef cf ba 39 67 69 a2 3a 62 48 04 bb 8e 68 bf ba
       0.00035631607 0.0012391031 -0.0020184745 -0.0014603303
0000e0 25 cd 2d ba c8 fd ad 3a b3 18 25 bb 77 0e 2f bb
       -0.0006629995 0.0013274485 -0.0025191724 -0.0026711503
0000f0 11 22 89 3b 5a 2d 05 bb 3e b0 48 3b ae 7d 9f bb
       0.0041849692 -0.002032122 0.0030622627 -0.004867277
000100 f3 93 2e bb 55 1e 05 3b 3c 63 9b 3a 8d 41 7c ba
       -0.0026638478 0.0020312269 0.0011855136 -0.0009622805
000110 92 29 13 bb 4c 1b 9d 3a 20 b8 ad 3a f5 23 de 3b
       -0.0022455198 0.0011986285 0.0013253726 0.0067791888
000120 b0 c1 9f bb f3 b3 c8 bb a8 ce 8f 3b 76 a7 f8 3a
       -0.0048753843 -0.0061249672 0.004388649 0.0018970806
000130 3a 9c 00 bb 8d cc c7 ba 93 31 cd 3b 0e b0 ca 38
       -0.0019624368 -0.0015243456 0.006262013 9.664903e-05
000140 a9 46 48 39 76 af 4f 3a bb 2d 53 3b d3 a1 1f bb
       0.0001909981 0.0007922569 0.0032223302 -0.002435793
000150 32 11 b4 bb a5 6a bd bb 8f 17 95 bb 35 ac d5 3b
       -0.005495214 -0.0057805353 -0.0045499275 0.006520773
000160 66 20 43 3b 95 11 97 3b e5 37 92 3b f9 f2 b2 b9
       0.002977395 0.0046102502 0.0044622296 -0.00034131834
000170 66 44 43 bb dd bf de ba 87 09 29 bb 01 80 09 3b
       -0.0029795407 -0.0016994436 -0.0025793032 0.0020980837
000180 c4 93 9e bb d8 ce 41 bb 33 44 45 bb ff 9a 86 bb
       -0.0048393924 -0.0029572751 -0.0030100464 -0.0041078324
000190 65 fb 75 3b b3 9f 2c bb 58 54 05 bb b3 17 be ba
       0.0037533876 -0.0026340305 -0.0020344462 -0.0014502913
0001a0 75 dc 1a bc f7 9f c0 3a d2 48 c0 bb 05 25 0a bb
       -0.009451975 0.0014696111 -0.005868056 -0.0021079194
0001b0 e1 a2 01 3c d8 73 e9 3b f7 4b 04 ba 13 6e 28 b9
       0.0079123685 0.0071244054 -0.000504672 -0.00016062734
0001c0 c4 c1 06 ba be f7 5b bb 13 de 82 3b 26 97 5e 38
       -0.00051405677 -0.0033564414 0.0039937585 5.3069693e-05
0001d0 41 52 70 b9 76 ba 21 3b a2 f7 27 ba e3 9d 00 39
       -0.00022918826 0.002467779 -0.00064074446 0.00012265849
0001e0 02 d5 54 3a b2 c4 fc ba 9b e2 5c 3b 82 b9 6c 3a
       0.0008118899 -0.0019284694 0.0033704403 0.00090303284
0001f0 61 bf d4 ba 3e 31 9b b9 98 f0 da bb 0b 00 5b 3b
       -0.0016231352 -0.00029600592 -0.006681513 0.0033416774
000200 de fc a1 3a 35 bc 4d bb 78 0a 5c 3b 6c e9 1a bc
       0.0012358685 -0.0031392698 0.0033575576 -0.009455066
000210 0d ba 56 39 bc 27 f3 3a 53 cb 8c 39 7a 8e 33 3b
       0.0002047794 0.001855127 0.0002685437 0.0027398155
000220 ef 3d 7c bb f0 10 14 bc 57 62 d0 3a dd c6 64 bb
       -0.0038489064 -0.009037241 0.0015898448 -0.003490857
000230 e6 71 7c bb 07 81 a9 ba e5 68 bc bb cd ab 03 3c
       -0.0038520037 -0.001293213 -0.005749809 0.008036566
000240 59 1d 51 bb af 48 12 bb 6b 6f 19 bb bc 5d d1 3b
       -0.0031908362 -0.0022321155 -0.0023412358 0.006389348
000250 0d 4b c0 bb f0 4b 22 bb 92 f6 b9 bb d2 82 e6 3a
       -0.0058683218 -0.00247645 -0.0056751454 0.0017586595
000260 82 68 a1 bb 3f 34 85 ba 1c d4 4d bb 41 4c b5 3b
       -0.0049257884 -0.0010162665 -0.0031406945 0.005532772
000270 26 84 b5 ba c5 18 9e 3a e3 9e bd ba d1 af 54 bb
       -0.0013848587 0.0012061825 -0.0014466908 -0.0032453428
000280 4d e4 15 3b dd eb b3 bb ad 15 13 39 03 b7 36 3a
       0.0022871674 -0.0054907636 0.00014027087 0.000697002
000290 61 c1 f2 bb e7 de 40 3b 45 1c 8b 3b 72 73 99 bb
       -0.0074083065 0.0029429735 0.0042453134 -0.0046829516
0002a0 55 4f 61 3b 58 57 5c 3a 0b 69 2e bb 7c 97 90 ba
       0.003437956 0.0008405349 -0.0026612903 -0.0011031474
0002b0 5d 69 15 3b da b9 ac 39 0a 1a 7b 3a 02 6d 1d 3b
       0.0022798397 0.00032944867 0.000957877 0.0024021273
0002c0 2b a8 77 bb 87 6b e6 bb 42 c6 ea bb 81 97 c4 3a
       -0.0037789445 -0.007031861 -0.0071647475 0.0014998765
0002d0 83 b2 d6 ba bb df b6 bb c7 e6 8c 3a d4 d7 72 bb
       -0.0016380105 -0.00558087 0.0010749929 -0.0037054913
0002e0 34 76 0a bc 7a ec 05 3b 93 45 4d bb c8 5a 92 bb
       -0.008451033 0.002043514 -0.0031321987 -0.0044663884
0002f0 79 9e 02 bb 4a c9 3c bb 66 01 61 ba 68 a7 2e bb
       -0.0019930883 -0.00288065 -0.0008583277 -0.0026650075
000300 7f d1 4a 3b e2 91 cd 38 56 dc 7e 3b c6 00 c4 bb
       0.0030947623 9.8023345e-05 0.0038888655 -0.0059815375
000310 d6 a6 8f ba f5 1b e4 ba a1 3c 86 3a 92 4b 9c 3a
       -0.0010959755 -0.0017403351 0.0010241457 0.0011924377
000320 31 31 13 3b 2f 3f 8d 3b 30 34 14 3c 8b b1 09 bc
       0.002245974 0.0043105106 0.009045646 -0.008404146
000330 46 a8 0e bb 59 b0 8b ba cf 35 60 bb 2d 14 af bb
       -0.002176778 -0.0010657414 -0.003421176 -0.0053429813
000340 11 89 11 bc 31 72 ee 3a f5 2c 02 bb ff b0 65 3b
       -0.008882777 0.0018191991 -0.0019863222 0.0035048125
000350 06 78 9b bb 3c ba d8 bb 49 f4 fa bb 9a ec 5b 3b
       -0.0047445325 -0.0066139977 -0.0076585156 0.0033557774
000360 78 ea e7 bb bf ea 58 bb df 3c 82 3b 84 cb 21 bc
       -0.0070775114 -0.0033098904 0.0039745416 -0.009875182
000370 93 4e 9b 39 40 c1 2f ba db a7 2e ba 0c 02 9e ba
       0.00029622446 -0.00067045167 -0.00066625857 -0.0012055053
000380 9e d1 6c bb 9d 9c 8e 3b 4f fc 08 bb 9c 9d e1 3a
       -0.0036135684 0.004352166 -0.002090234 0.0017213109
000390 05 45 0c 3b 2d 42 87 bb 74 15 e1 3b 7d d1 ea b9
       0.0021403444 -0.004127762 0.0068690125 -0.0004478804
0003a0 f8 08 36 3b 15 0e b6 38 fd 30 26 bc 7e 0d 82 ba
       0.0027776342 8.681059e-05 -0.010143516 -0.0009922234
0003b0 04 b7 8b 3a a5 25 35 ba 72 4b 6d ba 35 26 aa bb
       0.0010659401 -0.00069102115 -0.0009052075 -0.005192543
0003c0 32 df 30 bb 59 7e 7c b9 a9 4c 99 bb 75 87 96 3b
       -0.0026988504 -0.00024079661 -0.004678328 0.0045937845
0003d0 62 59 de ba ff cf d7 bb 05 61 ec ba 73 4e ec 3a
       -0.0016963894 -0.0065860744 -0.0018034285 0.0018028751
0003e0 aa 5b 74 bb d2 a7 9c 3b f1 66 a2 bb 7d 10 c8 3a
       -0.0037286081 0.004780748 -0.004956119 0.0015263703
0003f0 ca 44 cd ba 77 26 e0 ba 99 a9 fa 38 0c 66 c2 bb
       -0.001566076 -0.0017101307 0.00011952519 -0.005932575

action_model._discrete_distribution.branches.0.weight f4 [2, 256]
000000 9e b8 4a 3b be 1c 31 39 c0 80 fb 3b 41 0f fb ba
       0.0030932794 0.00016890743 0.0076752603 -0.0019154326
000010 73 86 c0 3c 58 f5 32 3a 42 f9 5a bc e9 65 66 3c
       0.02350161 0.000682672 -0.013365092 0.014062383
000020 be 3d 8b 39 f9 8a 3b bb 5f 7b 13 ba 73 d8 34 3c
       0.00026558148 -0.002861677 -0.00056259887 0.011037934
000030 04 88 3f bc ac 68 05 3b 10 d3 5f ba 12 76 50 3a
       -0.0116901435 0.0020356579 -0.00085382257 0.0007952164
000040 a3 a6 ef 3b f1 ba 84 3c 32 81 6d 3c 83 3c d0 3a
       0.007313566 0.016202422 0.014496135 0.0015887175
000050 b4 e8 45 3c cc 8b 0b 3a 5c cb a8 3a 8f 15 8a ba
       0.0120794065 0.00053232606 0.0012877989 -0.0010534989
000060 33 67 91 3a 06 2f ab 3b 52 06 c4 ba e4 44 80 bc
       0.0011093378 0.0052241115 -0.0014955497 -0.01565785
000070 7c fd 9c ba b2 b2 1d bb 9d 9d 7b bb b4 52 05 bb
       -0.00119774 -0.002406281 -0.0038393505 -0.0020343484
000080 1b 28 e4 38 06 de 2d bc f9 bf 21 bb 7b 3c b0 ba
       0.000108793574 -0.010612017 -0.0024681075 -0.0013445759
000090 3f ec aa 3b a0 0f a9 ba 2c 02 8e bb 57 db a6 3b
       0.005216151 -0.0012898333 -0.004333755 0.0050920653
0000a0 4a 35 6b 3b 4f f6 01 bc 7b ad 51 3b f7 bf b5 3c
       0.0035889917 -0.00793226 0.0031994272 0.022186263
0000b0 c1 a1 9d ba e1 0e 3c bb b3 1e 98 bb 94 58 6e 3c
       -0.0012026356 -0.0028695392 -0.0046423315 0.014547486
0000c0 85 9b 02 3c dd b9 9d 3a a1 a8 02 3c 55 5f e9 3b
       0.007971649 0.0012033541 0.007974775 0.00712196
0000d0 2c 36 c6 3b 38 e3 b2 bb a0 5b 33 3a aa 10 7c 3b
       0.0060489383 -0.0054592155 0.00068419613 0.003846208
0000e0 7c f2 9e bb dd 81 a2 3b ee 0e 4b 3c 4a 0d d0 3b
       -0.0048506837 0.0049593286 0.012393696 0.0063492404
0000f0 64 a5 81 bb 4c 19 2a 3b 67 cb 1d bb cf c4 76 3c
       -0.0039564837 0.002595502 -0.0024077536 0.015061571
000100 12 9d 84 3a e5 5a 3f 3a 7c af c7 3a ef 35 78 b9
       0.0010117611 0.0007299616 0.0015234794 -0.00023671215
000110 10 e0 f3 3b 4c d5 3f 3b eb c8 5c bb 5f 96 9f bb
       0.007442482 0.0029271422 -0.0033689092 -0.0048702206
000120 4f c1 26 3b 80 84 81 3c 40 5c 06 bc b3 24 dd 3a
       0.002544481 0.015810251 -0.008200705 0.0016871899
000130 c0 1f e6 3a 8e 67 85 3b d1 d5 82 bb 06 89 0e 3b
       0.001755707 0.0040711826 -0.003992774 0.0021749153
000140 31 08 17 3c fd 4c 95 3b 69 36 9d bb 97 8e 03 3c
       0.009218262 0.004556297 -0.004797746 0.008029602
000150 35 f4 6d 3c d3 2d 82 bb ec 87 2e 3b 47 40 75 bb
       0.0145235555 -0.003972748 0.0026631309 -0.0037422345
000160 8d 30 21 bc 0b 6c 19 bc 3a b4 97 bb b4 69 7a bb
       -0.009838236 -0.009364138 -0.004629639 -0.0038209977
000170 f9 7d 45 bb af a2 82 b9 b9 04 56 3b 29 4d 6b bb
       -0.00301349 -0.0002491674 0.0032656624 -0.0035904145
000180 fb ef c4 3b 79 1c 66 3b 69 fa f6 3a 3b a9 83 3a
       0.006010053 0.0035112186 0.0018842939 0.0010044941
000190 13 05 fa ba e0 49 cc 3b 12 53 fa bb da a8 64 3b
       -0.0019074999 0.0062343925 -0.0076392973 0.0034890682
0001a0 14 84 9d 3c 45 36 51 bc 62 80 cb 3b 1f 51 b5 3a
       0.019228019 -0.0127692865 0.006210373 0.001383338
0001b0 89 e2 68 bc f3 8a d4 bb e5 cf 2c 3b b5 d1 52 3c
       -0.014214166 -0.0064862906 0.0026369032 0.012867381
0001c0 1c e4 11 bb 21 2d 54 3c a0 ea 7d 3b e9 95 22 bb
       -0.0022261208 0.012950213 0.0038744584 -0.0024808592
0001d0 ac 91 21 bb e7 f2 e7 b9 b1 e6 87 3b 62 80 cf 3a
       -0.0024653478 -0.0004424073 0.0041473736 0.0015831108
0001e0 17 2c e3 bb ec 1f 51 3b 7c 90 d8 ba 3d 18 93 3a
       -0.006932746 0.0031909896 -0.0016522552 0.0011222434
0001f0 73 1c f7 ba 31 f8 9a bb 12 04 0a 3c 09 e2 ef bb
       -0.0018853083 -0.0047292938 0.008423822 -0.0073206467
000200 80 85 2b 3b 3e e9 60 3c ae 05 2f 3a a1 af 01 3c
       0.0026172101 0.013727484 0.00066765666 0.007915408
000210 30 2c 9d bb d5 eb 51 ba 71 34 81 3b 96 f3 af 3a
       -0.0047965273 -0.0008007859 0.003943019 0.0013424035
000220 6f a5 4d 3c a2 2f c4 3b 9c 30 46 3b 2e d9 6e bb
       0.0125516495 0.0059871236 0.0030241376 -0.0036445367
000230 3d 63 8e 3b 9d 81 1a 3c 57 fa fc ba f9 41 1f bc
       0.004345326 0.009430316 -0.0019300681 -0.009720319
000240 fe 79 66 3c 17 55 4c 3c 4b 7a ed b9 48 c6 cd 3a
       0.014067171 0.012471459 -0.00045295278 0.0015699351
000250 00 bb 34 3c 0c 36 35 3c a3 21 45 3a 3a 61 da bb
       0.011030912 0.011060249 0.0007519966 -0.0066644223
000260 92 d5 be 3b a6 21 09 3c 37 e8 94 3c 49 27 25 bc
       0.0058237994 0.008369839 0.018177135 -0.010080167
000270 49 9a 8a 3b 32 80 cb 3b 5d 9e 55 ba 0b f6 d4 3b
       0.004229818 0.0062103504 -0.0008148903 0.006499057
000280 dd 06 6f 3b e0 42 33 3c 52 ae 46 bc 1b 65 0d 3b
       0.0036472597 0.010941237 -0.012126522 0.0021575156
000290 a2 03 81 3c 28 53 83 bb 79 5d 01 bb b8 2f f9 3b
       0.015748803 -0.0040077157 -0.0019739552 0.0076045655
0002a0 d2 98 6a 3b ac 0b 25 3a f2 05 73 39 ba c5 f9 b9
       0.0035796654 0.000629599 0.000231765 -0.000476403
0002b0 9e 1d b3 bb a4 dc 61 bb bd bc 38 3c a4 63 b5 3b
       -0.005466177 -0.0034463787 0.011275467 0.0055355597
0002c0 02 d1 b9 3b 06 9e 2f 3c f2 91 24 bb 9d 9c 19 bc
       0.0056706676 0.010718828 -0.0025111404 -0.009375718
0002d0 df 61 9a 3a f9 71 08 3c ec c9 e7 ba 7f b5 1d 3c
       0.0011778435 0.008327954 -0.0017684079 0.009625792
0002e0 e8 15 90 3b b0 e9 15 3b 2f 5a 01 3b b8 95 45 3b
       0.0043971427 0.0022874884 0.0019737592 0.0030149054
0002f0 a8 4e 3d 3c b7 f1 0b bb af 51 22 bb 69 c8 15 bb
       0.011554398 -0.002135379 -0.0024767925 -0.002285505
000300 81 98 b6 bb 74 e8 a7 3b e2 03 7b bc 28 5c 9f 3c
       -0.005572379 0.005124146 -0.01532075 0.019453123
000310 f0 1a d0 3b 69 80 c2 3b 67 5b 34 3c da 15 5c bb
       0.0063508675 0.005935718 0.01100812 -0.003358236
000320 67 8d dd bb ae 73 d5 3b 23 a1 4b bc c5 6c 96 3c
       -0.0067612412 0.0065140342 -0.012428555 0.018362412
000330 02 e6 b1 3b 20 6e 60 3c a2 69 ab 39 21 38 51 3b
       0.0054290304 0.013698131 0.00032694364 0.0031924325
000340 55 ae 75 3c e7 b2 a5 3b a0 49 01 3c 94 49 ef ba
       0.014995177 0.005056727 0.007891089 -0.0018256181
000350 8b a5 02 3c 72 51 87 3c 91 3f 91 3b 73 9d 05 bc
       0.007974039 0.016518328 0.0044326265 -0.008155215
000360 35 57 22 3c 66 ac f7 ba ee c9 9b bb 55 20 15 3b
       0.009908487 -0.0018895983 -0.0047542965 0.0022754867
000370 9e 4f 08 3c 07 0a a7 3b 80 71 9d ba eb e1 f5 3b
       0.0083197635 0.005097631 -0.0012011975 0.007503738
000380 2b a2 c8 3b 5f 2d dd 3b 82 5e d4 3b 7e 89 42 bc
       0.0061228476 0.0067497934 0.006480993 -0.011873601
000390 a9 61 7f bc b2 93 4e 3b 31 83 53 bb 41 59 8d 3b
       -0.015587249 0.0031521139 -0.003227424 0.0043136184
0003a0 08 54 2e ba 79 0d a2 3b e5 ff 5d 3c 2f 21 01 3c
       -0.0006650095 0.0049454537 0.01354978 0.007881447
0003b0 b2 96 aa bb d8 f0 3c 3b 84 23 7c 3a f5 40 b9 3b
       -0.0052059526 0.0028830077 0.00096183293 0.0056534954
0003c0 25 26 ab 3c 11 8c b4 3a 0c 5e 02 bb 1f 2d e1 bb
       0.020892212 0.0013774653 -0.0019892482 -0.006871834
0003d0 9f c3 81 3b 15 c9 09 3b 19 de 26 3a 08 de 36 bb
       0.0039600874 0.0021024395 0.00063654926 -0.0027903337
0003e0 f9 05 df 3a a3 24 43 bc 54 2a 3f 3b b9 c4 f4 ba
       0.001701533 -0.01191059 0.0029169517 -0.001867435
0003f0 04 63 45 3b c0 eb 75 3b f0 34 98 38 60 9a 90 3c
       0.0030118832 0.003752455 7.257785e-05 0.017651737

action_model._discrete_distribution.branches.0.bias f4 [2]
000000 4e 54 89 bb 4e 54 89 3b
       -0.004190958 0.004190958

action_model._discrete_distribution.branches.1.weight f4 [3, 256]
000000 cc 07 48 ba 5f a7 ae 3b e9 bb da 3b 26 f3 4c 3b
       -0.00076305564 0.005330011 0.0066752327 0.0031272857
000010 02 83 cc 3b 77 96 ae ba da 86 db ba 0b 2a 61 3b
       0.0062412033 -0.0013319989 -0.0016748563 0.0034357335
000020 f4 a5 9f bb 13 93 16 3a 57 b0 e4 bb 9f 8e 5e 3c
       -0.004872078 0.00057439617 -0.006979029 0.013583808
000030 d3 b0 0e bb 98 a1 9a 3a 15 5d 59 ba 10 bd a9 bb
       -0.0021772876 0.0011797426 -0.00082917634 -0.0051800087
000040 08 eb db 3b 83 7a 98 3b ac 6e 26 3c 71 d5 1e bb
       0.0067113675 0.0046532764 0.010158222 -0.0024236108
000050 73 22 e0 bb 54 79 12 3a f1 d4 8b bb 1f b9 a3 bb
       -0.006840044 0.00055875373 -0.004267328 -0.0049964334
000060 12 69 c5 ba f1 8d f8 ba ad 6e 67 3b b7 7a bb bb
       -0.0015061221 -0.00189632 0.003531377 -0.005721416
000070 62 61 56 bb 5b 0e f2 3b 8c f8 f6 bb 92 92 30 3c
       -0.0032711853 0.007386965 -0.0075369533 0.010777133
000080 5a a8 5e bb a8 12 89 bb 69 d6 28 3c 14 fb 5f bb
       -0.0033974857 -0.004183132 0.010305026 -0.0034176754
000090 f3 c6 21 3c d7 be 95 3b 32 be ca ba ad 01 2f 3c
       0.009874093 0.004569869 -0.001546806 0.010681552
0000a0 7f 46 27 bc 10 f0 15 bc 15 d4 88 ba 25 e2 14 3c
       -0.010209679 -0.009151474 -0.0010439182 0.00908712
0000b0 54 62 d6 3b d9 3e 03 3a a5 b5 8a 3b 02 85 09 3c
       0.0065424833 0.00050066184 0.0042330795 0.008393528
0000c0 bc 79 d8 3b 3e e4 35 3b 6c d2 2b bb 7c 02 90 3a
       0.0066063087 0.002775445 -0.002621795 0.0010987069
0000d0 e7 5d 08 bc 68 14 9e 3b 78 1e 23 3c ee 64 2a 3c
       -0.008323169 0.00482421 0.009955995 0.01040004
0000e0 8a 02 98 bb 7b 68 8a 3b 04 ba 84 bb 52 1d c7 ba
       -0.0046389746 0.004223881 -0.004050495 -0.0015191233
0000f0 c5 ff a5 3b b8 c5 49 bc b1 9b 83 bb 62 03 08 bb
       0.0050658905 -0.012315206 -0.0040163626 -0.002075397
000100 06 d9 67 bb 83 7f c1 bb 7a e2 65 3b ff 1f 7a bb
       -0.0035377159 -0.005905093 0.0035077618 -0.0038166044
000110 78 b5 d2 ba c4 40 94 bb a4 28 1c 3c 7b 66 a6 bb
       -0.001607581 -0.004524322 0.009531174 -0.0050781346
000120 94 ae 96 3b 4b eb 82 b9 68 a0 9f ba 8b 74 1c 39
       0.004598448 -0.0002497084 -0.0012178542 0.00014920735
000130 07 a6 22 bb 57 1f fd ba 0f 08 66 3b b0 a6 5b bb
       -0.0024818198 -0.0019311708 0.0035100018 -0.0033516102
000140 dd 4a 67 3a ff 8c b9 bb f6 02 c0 3b 34 1b 3e 3b
       0.0008823106 -0.00566256 0.005859728 0.0029007914
000150 0d e5 bb 3b 03 1c 2c ba 87 ef bb bb 1e fa 58 3b
       0.005734092 -0.00065654534 -0.005735341 0.0033108066
000160 03 2c 0f bc 50 a9 b4 bb 26 2e 6d bc 03 5d 6f bb
       -0.008738521 -0.0055133477 -0.014476335 -0.0036523945
000170 ae 73 1a 3c 1c 2a 37 bb 85 63 62 ba 78 77 00 bc
       0.009426994 -0.0027948683 -0.00086360454 -0.007840984
000180 20 c8 91 3b 1b f1 a6 bb ed ec 2f b9 32 1b 0b bc
       0.0044489056 -0.00509466 -0.00016777562 -0.008490371
000190 38 42 da bb 36 b8 d9 3b 52 ec 9c ba 6d cc a0 39
       -0.006660726 0.006644274 -0.0011972284 0.00030669887
0001a0 19 5f 15 3c 9e 8b 28 3c 8c 00 6b bb 8a c4 b8 bb
       0.009116911 0.010287194 -0.003585848 -0.0056386637
0001b0 8b c8 03 3c 37 95 5b bb ee 8d c9 bb a8 68 3f bb
       0.008043419 -0.0033505687 -0.0061509525 -0.0029206667
0001c0 9e 19 28 bc b3 c7 fd b9 1d 1c 4f bc 67 2b 8d 3b
       -0.010260014 -0.00048404708 -0.01264098 0.0043081525
0001d0 4b 39 da 3b c9 12 11 3a 20 3f 4e bc 06 a4 f3 3a
       0.006659662 0.000553411 -0.012588292 0.0018588312
0001e0 b5 36 be bb 84 02 b9 bb 6b bb ad bb 1e 1e e4 bb
       -0.0058048614 -0.005646052 -0.005301883 -0.006961598
0001f0 15 5f 53 3b d8 4c 02 3c 64 45 8d 3b 05 7c 90 3b
       0.0032252718 0.007952891 0.0043112505 0.0044093155
000200 45 15 8b b8 50 57 ed bb e5 8d 4d bc 54 18 3c 3c
       -6.631998e-05 -0.0072430745 -0.012546037 0.01148041
000210 85 6b a8 3b 6c 9a f6 bb a4 5d 54 3c 3e 57 0a 3a
       0.0051397705 -0.0075257327 0.012961779 0.00052772823
000220 e5 87 d0 bb 73 5b a5 3b 0c 05 53 bc 51 66 f2 3b
       -0.006363856 0.005046302 -0.012879621 0.007397451
000230 f0 16 fb 3a 15 f3 a9 3a 37 2c fa bb 1b 40 8d 3b
       0.0019156616 0.0012966121 -0.0076346654 0.0043106205
000240 83 e4 a2 3b e6 84 03 3b 3e fb 72 bb 52 7f a1 bb
       0.0049710884 0.0020068227 -0.0037076022 -0.004928508
000250 1b 0c f9 3b 4e 9e b0 3a bc 96 a8 3b e0 50 18 bb
       0.00760032 0.0013474913 0.005144922 -0.0023241565
000260 07 a6 86 ba 92 f3 08 bb b0 03 ff 3b 7d cb 16 bc
       -0.0010272869 -0.0020897132 0.007782422 -0.009203789
000270 0b 7f a0 3a e3 91 17 3b e9 5b a0 3b 47 f3 3a 3c
       0.0012244893 0.0023127727 0.004893769 0.011410541
000280 bf 25 15 3c 59 36 2c 3b fd 46 b7 bb 21 2e 80 bb
       0.009103238 0.002627751 -0.0055931793 -0.003911749
000290 5e 09 c2 3b 3c e6 58 bb 8a 8b b6 bb 47 98 dd 39
       0.005921527 -0.0033096215 -0.0055708336 0.0004226586
0002a0 60 ff 92 bb 7d 4f 67 3b 39 9c f8 ba 50 ca 01 39
       -0.0044860095 0.0035295181 -0.0018967456 0.00012377766
0002b0 3c 70 5f bb c1 aa 38 3c 4c c8 2b ba d0 9f 31 bc
       -0.0034093997 0.01127118 -0.0006552979 -0.010841325
0002c0 33 67 b4 3b f5 33 89 b9 1c fa 55 3a cd 88 e9 39
       0.0055054664 -0.00026169387 0.00081625744 0.00044543148
0002d0 33 72 4d 3b 9c d4 d7 3b 96 62 32 3b 69 4c ae ba
       0.0031348586 0.0065866243 0.0027219406 -0.0013297918
0002e0 5c 0c 83 3b 32 e1 37 3b 8f ee 97 ba 46 88 6f 3c
       0.003999276 0.002805781 -0.0011591482 0.014619892
0002f0 a5 3f 43 bb 27 b8 2e 3c 82 3b aa bb 3b 32 1c 3b
       -0.0029792574 0.0106640225 -0.005195082 0.002383365
000300 5c 4e c5 3b f2 dc 11 3c fe e3 4a 3b f2 b4 18 bb
       0.006021304 0.008902775 0.0030958648 -0.0023301211
000310 30 0a 6c 3b 85 0c 85 ba 74 7f 27 bc b9 f0 9f ba
       0.0036016814 -0.0010150826 -0.010223258 -0.0012202478
000320 70 19 e1 bb 36 88 6a bb 8b 4f 0a 3c 40 52 ce bb
       -0.0068694875 -0.0035786754 0.008441816 -0.006296426
000330 5c 86 37 bc 84 40 9b bb 75 ef c7 bb 53 5c 52 bc
       -0.011201467 -0.0047379155 -0.0061015435 -0.012839395
000340 82 25 af 3b cb 04 ee bb 31 45 49 bb 30 29 9e 3b
       0.0053450475 -0.007263755 -0.0030711407 0.0048266873
000350 86 02 b9 3b 48 8d 07 3c 7c 4e a8 3b 25 de 31 bc
       0.005646053 0.00827343 0.005136309 -0.010856186
000360 6f 34 99 ba c9 42 b3 3b 75 66 c0 3b 48 07 ae bb
       -0.00116886 0.005470608 0.005871589 -0.0053109266
000370 a0 ce 63 bc 45 02 06 bc 9f 34 ff bb cb cb 4b 3b
       -0.013904244 -0.008179252 -0.0077882553 0.0031096812
000380 21 b3 e8 3b 97 2b 58 3b df 32 b4 3b 8c f1 7c 3a
       0.007101432 0.0032984966 0.0054992284 0.00096490304
000390 73 4f aa bb ee 98 64 3a a9 ea 3b bc e9 a7 97 3b
       -0.0051974594 0.0008720298 -0.011469522 0.0046281707
0003a0 c5 59 90 bb ea 5a c5 3b c0 03 9d 3a 62 0f df 3b
       -0.0044052326 0.0060228007 0.0011979267 0.0068072537
0003b0 ec cc 77 bb 0f 96 53 ba 0c 0f 03 bc c8 60 07 bb
       -0.0037811352 -0.00080713717 -0.007999193 -0.0020657051
0003c0 b9 77 5a 3b 42 cf 67 3c 9c e5 40 bb f6 c5 b3 bb
       0.003333552 0.014148535 -0.0029433733 -0.0054862453
0003d0 d3 f3 1e bc 0e f7 df 3b fe f7 3f 3c f6 4a 48 ba
       -0.009701687 0.006834871 0.011716841 -0.00076405646
0003e0 c7 a8 10 bb 5a da 50 bc b5 28 af 3b 53 0f 69 3b
       -0.0022073255 -0.012747372 0.005345429 0.0035562112
0003f0 73 16 d4 3a 2c 0f 0c 3c 88 c7 a3 3b cb 87 87 39
       0.0016181007 0.008548539 0.004998151 0.0002585038

action_model._discrete_distribution.branches.1.bias f4 [3]
000000 86 b5 3c bb 90 ca 8a ba 70 d0 60 3b
       -0.002879472 -0.0010588933 0.0034303926
