results/skillBoat/boat/boat-4222.onnx (onnx, 339354 bytes, 9 tensors)

discrete_act_size_vector f4 [1, 3]
2.0 3.0 2.0
00000000: 0000 0040 0000 4040 0000 0040

network_body._body_endoder.seq_layers.0.weight f4 [256, 58]
-0.004743203 0.21837871 -0.035093736 0.12184855 0.104092546 -0.09493727 0.12673698 -0.022861345
0.041722216 -0.3042543 -0.0037661665 -0.11699204 -0.054183494 0.08995064 0.37219167 -0.039129842
0.27090433 0.18497233 0.13329479 -0.029127823 0.19708882 0.3020317 -0.13225974 -0.038527668
0.21747795 0.06257168 0.009066178 0.15406713 0.04754473 0.18311262 0.08589945 0.10465436
0.2799754 0.007948331 0.04594012 -0.10291411 -0.11656969 -0.20320284 0.015324314 -0.27236566
-0.049926743 -0.10866025 -0.053424567 -0.109427504 0.26886162 -0.005431278 0.02689109 0.12134226
0.10426787 -0.026707187 0.14407314 0.021268863 -0.17157394 -0.2920134 0.1077593 0.029039107
0.22712676 -0.23347433 -0.35515594 0.019044545 0.10805448 0.117069066 -0.16376215 0.07313093
0.031190151 0.099554315 0.0024608362 0.104189396 -0.030561604 -0.03499067 -0.09571419 -0.21589305
-0.058975082 -0.23846896 -0.14784852 0.193593 -0.174523 -0.118870795 -0.06530522 0.044132542
-0.24081491 0.05063623 0.13591035 -0.112078644 0.0046870527 -0.022671448 0.061488964 -0.21481304
-0.016448854 -0.09149145 -0.11929327 -0.17650552 -0.21136183 -0.01354655 -0.0072990092 0.05229851
-0.03481238 -0.07653366 0.05836641 -0.36799186 0.057179913 0.29768264 -0.18428972 0.26276773
-0.06408065 -0.052068852 0.14440615 -0.15054896 0.02202498 0.049042873 -0.21342517 0.16509798
0.039587203 0.24549279 0.041337404 0.26345694 0.114806786 -0.019416034 -0.21933697 0.114087686
-0.28986126 -0.20819634 0.18772787 -0.24353382 0.13779971 -0.034013323 0.066713855 0.011033972
-0.22301951 0.14884266 0.042900316 -0.18283154 0.12622684 0.09999619 0.18800917 -0.050892103
0.19261521 -0.10045558 -0.0014100833 0.027107293 0.25754705 0.002999496 0.22685023 -0.013998813
0.027405905 0.13822053 0.103440434 -0.17663875 0.082818024 0.00050722517 0.08718843 0.004799075
-0.15095516 -0.07038357 0.16232803 0.05885501 -0.22866367 0.080258496 0.013819595 -0.031254467
0.1469319 0.06971977 0.16167863 -0.31607753 0.057816714 0.1782102 -0.12403915 0.039865017
-0.16855446 0.05837522 -0.0016836642 0.013658034 0.052863687 -0.07170759 0.029477142 0.10248933
0.231381 -0.01971889 0.14343719 -0.10825443 0.19655327 0.09865448 -0.17272496 0.10521354
0.19661242 0.22074524 -0.08323408 -0.014775931 -0.0023725242 0.008896542 -0.14982796 0.077373564
-0.085655324 0.0037775298 0.028131485 -0.09456959 0.14947331 -0.04524183 -0.0987046 0.14177431
0.06520768 -0.2686879 -0.009659338 -0.21131486 -0.09058705 0.060798373 -0.054261662 -0.10949278
0.16765362 -0.0053484803 -0.14693539 0.075720966 -0.11634028 0.006467292 -0.11948973 0.1245307
0.21349603 -0.0044818427 -0.19156496 0.19840118 -0.017189894 0.015733814 -0.08206376 0.16628818
0.105085574 -0.03768327 0.040540833 0.16832425 -0.037585575 0.061824646 -0.2315344 0.053755652
-0.02573298 -0.17773908 0.03671767 -0.027597198 -0.012678464 0.17189302 0.15504289 0.08079986
-0.022243118 -0.13784389 0.037319038 0.14040273 -0.06294084 0.12713864 0.13912171 -0.006573236
-0.07436806 0.013752794 -0.2730708 -0.20066953 -0.13697223 0.12705614 0.29437408 0.20523956
00000000: df6c 9bbb ab9e 5f3e 73be 0fbd bc8b f93d
00000010: 792e d53d 796e c2bd 57c7 013e b747 bbbc
00000020: eae4 2a3d 38c7 9bbe cad1 76bb 8699 efbd
00000030: 83ef 5dbd 0b38 b83d e88f be3e 9d46 20bd
00000040: f9b3 8a3e 6369 3d3e 6e7e 083e 799d eebc
00000050: a7d1 493e e6a3 9a3e 196f 07be 30cf 1dbd
00000060: 8ab2 5e3e 9525 803d 4f8a 143c c6c3 1d3e
00000070: 43be 423d e081 3b3e 0dec af3d 0655 d63d
00000080: f058 8f3e b739 023c b52b 3c3d a2c4 d2bd
00000090: 17bc eebd 6814 50be d512 7b3c 8373 8bbe
000000a0: fc7f 4cbd 4489 debd b8d3 5abd 871b e0bd
000000b0: 3ba8 893e ddf8 b1bb b44a dc3c 4a82 f83d
000000c0: 658a d53d 08c9 dabc e987 133e 0a3c ae3c
000000d0: 14b1 2fbe c882 95be e8b0 dc3d 6ce3 ed3c
000000e0: eb93 683e e513 6fbe 00d7 b5be 4e03 9c3c
000000f0: ab4b dd3d e8c1 ef3d 44b1 27be abc5 953d
00000100: 7d82 ff3c 22e3 cb3d fb45 213b 4061 d53d
00000110: 545c fabc 6052 0fbd cd05 c4bd 1113 5dbe
00000120: db8f 71bd 3531 74be 9a65 17be 3e3d 463e
00000130: 28b6 32be 8872 f3bd bebe 85bd 53c4 343d
00000140: 2f98 76be ef67 4f3d 152c 0b3e 7d89 e5bd
00000150: d995 993b 79b9 b9bc dadb 7b3d f3f7 5bbe
00000160: bfbf 86bc df5f bbbd 0850 f4bd ddbd 34be
00000170: 3c6f 58be 59f2 5dbc 872c efbb f636 563d
00000180: 6d97 0ebd aebd 9cbd 9e11 6f3d 6e69 bcbe
00000190: 7c35 6a3d dc69 983e 72b6 3cbe 7e89 863e
000001a0: b73c 83bd 2646 55bd 35df 133e 8229 1abe
000001b0: bb6d b43c 2ee1 483d 218c 5abe 720f 293e
000001c0: 3126 223d 7662 7b3e 6951 293d d4e3 863e
000001d0: d21f eb3d 600e 9fbc df99 60be cea6 e93d
000001e0: b268 94be 6c31 55be bc3b 403e ee60 79be
000001f0: 5e1b 0d3e 8e51 0bbd 46a1 883d d5c7 343c
00000200: 3a5f 64be 366a 183e 3eb8 2f3d 3138 3bbe
00000210: 9c41 013e cdca cc3d 7a85 403e 3d74 50bd
00000220: ec3c 453e a8bb cdbd 8bd2 b8ba 1d10 de3c
00000230: 35dd 833e 3193 443b 6d4b 683e 475b 65bc
00000240: 5982 e03c af89 0d3e 94d8 d33d cae0 34be
00000250: 7f9c a93d 4ef7 043a d98f b23d 8f41 9d3b
00000260: fd93 1abe 4325 90bd 5239 263e f311 713d
00000270: cf26 6abe 915e a43d 956b 623c af04 00bd
00000280: 5175 163e 3dc9 8e3d 158f 253e ead4 a1be
00000290: 38d1 6c3d bc7c 363e 3d08 febd 8049 233d
000002a0: 8a99 2cbe db1a 6f3d 65ae dcba f2c5 5f3c
000002b0: 9887 583d 6edb 92bd 0c7a f13c ede5 d13d
000002c0: 24ef 6c3e 8289 a1bc 33e1 123e 80b4 ddbd
000002d0: 4345 493e 5c0b ca3d d0de 30be 327a d73d
000002e0: c454 493e 0a0b 623e a176 aabd bf16 72bc
000002f0: 5a7c 1bbb cdc2 113c 806c 19be 0876 9e3d
00000300: 0f6c afbd 6f90 773b 0074 e63c b4ad c1bd
00000310: 880f 193e 7f4f 39bd a325 cabd 492d 113e
00000320: 9b8b 853d 7691 89be 3342 1ebc ec62 58be
00000330: b485 b9bd b707 793d 7a41 5ebd c03d e0bd
00000340: 64ad 2b3e 4e42 afbb 3b76 16be 9813 9b3d
00000350: d043 eebd 94eb d33b 08b7 f4bd f409 ff3d
00000360: b49e 5a3e 6cdc 92bb 9b29 44be ae29 4b3e
00000370: d2d1 8cbc 33e4 803c 0b11 a8bd 7347 2a3e
00000380: 1b37 d73d c659 1abd 250e 263d 315d 2c3e
00000390: 55f3 19bd d73b 7d3d 5b17 6dbe e32e 5c3d
000003a0: f8cd d2bc 3c01 36be 4465 163d 8513 e2bc
000003b0: 55b9 4fbc b904 303e 90c3 1e3e 667a a53d
000003c0: 3337 b6bc f326 0dbe d9db 183d bcc5 0f3e
000003d0: 21e7 80bd a230 023e ec75 0e3e 4d64 d7bb
000003e0: 484e 98bd 6653 613c f0cf 8bbe 507c 4dbe
000003f0: 7342 0cbe 011b 023e 33b8 963e 522a 523e

network_body._body_endoder.seq_layers.0.bias f4 [256]
0.0 0.0 0.0 0.0 0.0 0.0 0.0 0.0
0.0 0.0 0.0 0.0 0.0 0.0 0.0 0.0
0.0 0.0 0.0 0.0 0.0 0.0 0.0 0.0
0.0 0.0 0.0 0.0 0.0 0.0 0.0 0.0
0.0 0.0 0.0 0.0 0.0 0.0 0.0 0.0
0.0 0.0 0.0 0.0 0.0 0.0 0.0 0.0
0.0 0.0 0.0 0.0 0.0 0.0 0.0 0.0
0.0 0.0 0.0 0.0 0.0 0.0 0.0 0.0
0.0 0.0 0.0 0.0 0.0 0.0 0.0 0.0
0.0 0.0 0.0 0.0 0.0 0.0 0.0 0.0
0.0 0.0 0.0 0.0 0.0 0.0 0.0 0.0
0.0 0.0 0.0 0.0 0.0 0.0 0.0 0.0
0.0 0.0 0.0 0.0 0.0 0.0 0.0 0.0
0.0 0.0 0.0 0.0 0.0 0.0 0.0 0.0
0.0 0.0 0.0 0.0 0.0 0.0 0.0 0.0
0.0 0.0 0.0 0.0 0.0 0.0 0.0 0.0
0.0 0.0 0.0 0.0 0.0 0.0 0.0 0.0
0.0 0.0 0.0 0.0 0.0 0.0 0.0 0.0
0.0 0.0 0.0 0.0 0.0 0.0 0.0 0.0
0.0 0.0 0.0 0.0 0.0 0.0 0.0 0.0
0.0 0.0 0.0 0.0 0.0 0.0 0.0 0.0
0.0 0.0 0.0 0.0 0.0 0.0 0.0 0.0
0.0 0.0 0.0 0.0 0.0 0.0 0.0 0.0
0.0 0.0 0.0 0.0 0.0 0.0 0.0 0.0
0.0 0.0 0.0 0.0 0.0 0.0 0.0 0.0
0.0 0.0 0.0 0.0 0.0 0.0 0.0 0.0
0.0 0.0 0.0 0.0 0.0 0.0 0.0 0.0
0.0 0.0 0.0 0.0 0.0 0.0 0.0 0.0
0.0 0.0 0.0 0.0 0.0 0.0 0.0 0.0
0.0 0.0 0.0 0.0 0.0 0.0 0.0 0.0
0.0 0.0 0.0 0.0 0.0 0.0 0.0 0.0
0.0 0.0 0.0 0.0 0.0 0.0 0.0 0.0
00000000: 0000 0000 0000 0000 0000 0000 0000 0000
00000010: 0000 0000 0000 0000 0000 0000 0000 0000
00000020: 0000 0000 0000 0000 0000 0000 0000 0000
00000030: 0000 0000 0000 0000 0000 0000 0000 0000
00000040: 0000 0000 0000 0000 0000 0000 0000 0000
00000050: 0000 0000 0000 0000 0000 0000 0000 0000
00000060: 0000 0000 0000 0000 0000 0000 0000 0000
00000070: 0000 0000 0000 0000 0000 0000 0000 0000
00000080: 0000 0000 0000 0000 0000 0000 0000 0000
00000090: 0000 0000 0000 0000 0000 0000 0000 0000
000000a0: 0000 0000 0000 0000 0000 0000 0000 0000
000000b0: 0000 0000 0000 0000 0000 0000 0000 0000
000000c0: 0000 0000 0000 0000 0000 0000 0000 0000
000000d0: 0000 0000 0000 0000 0000 0000 0000 0000
000000e0: 0000 0000 0000 0000 0000 0000 0000 0000
000000f0: 0000 0000 0000 0000 0000 0000 0000 0000
00000100: 0000 0000 0000 0000 0000 0000 0000 0000
00000110: 0000 0000 0000 0000 0000 0000 0000 0000
00000120: 0000 0000 0000 0000 0000 0000 0000 0000
00000130: 0000 0000 0000 0000 0000 0000 0000 0000
00000140: 0000 0000 0000 0000 0000 0000 0000 0000
00000150: 0000 0000 0000 0000 0000 0000 0000 0000
00000160: 0000 0000 0000 0000 0000 0000 0000 0000
00000170: 0000 0000 0000 0000 0000 0000 0000 0000
00000180: 0000 0000 0000 0000 0000 0000 0000 0000
00000190: 0000 0000 0000 0000 0000 0000 0000 0000
000001a0: 0000 0000 0000 0000 0000 0000 0000 0000
000001b0: 0000 0000 0000 0000 0000 0000 0000 0000
000001c0: 0000 0000 0000 0000 0000 0000 0000 0000
000001d0: 0000 0000 0000 0000 0000 0000 0000 0000
000001e0: 0000 0000 0000 0000 0000 0000 0000 0000
000001f0: 0000 0000 0000 0000 0000 0000 0000 0000
00000200: 0000 0000 0000 0000 0000 0000 0000 0000
00000210: 0000 0000 0000 0000 0000 0000 0000 0000
00000220: 0000 0000 0000 0000 0000 0000 0000 0000
00000230: 0000 0000 0000 0000 0000 0000 0000 0000
00000240: 0000 0000 0000 0000 0000 0000 0000 0000
00000250: 0000 0000 0000 0000 0000 0000 0000 0000
00000260: 0000 0000 0000 0000 0000 0000 0000 0000
00000270: 0000 0000 0000 0000 0000 0000 0000 0000
00000280: 0000 0000 0000 0000 0000 0000 0000 0000
00000290: 0000 0000 0000 0000 0000 0000 0000 0000
000002a0: 0000 0000 0000 0000 0000 0000 0000 0000
000002b0: 0000 0000 0000 0000 0000 0000 0000 0000
000002c0: 0000 0000 0000 0000 0000 0000 0000 0000
000002d0: 0000 0000 0000 0000 0000 0000 0000 0000
000002e0: 0000 0000 0000 0000 0000 0000 0000 0000
000002f0: 0000 0000 0000 0000 0000 0000 0000 0000
00000300: 0000 0000 0000 0000 0000 0000 0000 0000
00000310: 0000 0000 0000 0000 0000 0000 0000 0000
00000320: 0000 0000 0000 0000 0000 0000 0000 0000
00000330: 0000 0000 0000 0000 0000 0000 0000 0000
00000340: 0000 0000 0000 0000 0000 0000 0000 0000
00000350: 0000 0000 0000 0000 0000 0000 0000 0000
00000360: 0000 0000 0000 0000 0000 0000 0000 0000
00000370: 0000 0000 0000 0000 0000 0000 0000 0000
00000380: 0000 0000 0000 0000 0000 0000 0000 0000
00000390: 0000 0000 0000 0000 0000 0000 0000 0000
000003a0: 0000 0000 0000 0000 0000 0000 0000 0000
000003b0: 0000 0000 0000 0000 0000 0000 0000 0000
000003c0: 0000 0000 0000 0000 0000 0000 0000 0000
000003d0: 0000 0000 0000 0000 0000 0000 0000 0000
000003e0: 0000 0000 0000 0000 0000 0000 0000 0000
000003f0: 0000 0000 0000 0000 0000 0000 0000 0000

network_body._body_endoder.seq_layers.2.weight f4 [256, 256]
-0.12990078 0.051355608 -0.0059280507 -0.09680937 -0.041349262 -0.026030863 -0.054597165 -0.044920642
-0.022789782 0.10325439 -0.127393 -0.04146778 -0.051483463 -0.0043662963 0.038428247 0.025040591
0.10809673 -0.0073781065 -0.034925856 0.073555544 -0.13406512 0.04589229 -0.0010703941 -0.07235408
-0.09172999 -0.027388645 0.030872481 0.10182563 0.0104740495 0.057852272 -0.1552565 -0.07440029
-0.047046095 -0.02894795 0.02946944 0.003611226 -0.0006255584 -0.0580858 0.058461785 0.028332358
0.03250464 0.00541105 0.032056984 0.010545261 -0.09198039 -0.0747562 0.08034692 -0.06469663
0.059388775 0.05423219 -0.028262874 0.031453446 -0.045534547 -0.015315554 0.0031546783 0.048520286
0.012775842 -0.07287237 -0.031413052 -0.115208395 0.010949796 6.848955e-05 -0.11477708 0.05607962
-0.16173346 -0.12494408 0.024792543 0.0048865667 -0.036105428 -0.08014447 -0.013733532 0.059100546
-0.027990986 0.0008169614 0.05412671 -0.11721516 0.07222416 -0.014206979 0.02368855 -0.11075527
0.015317683 0.03944515 -0.0049926457 0.09466978 -0.00639152 0.10591052 0.07565781 0.025522564
0.015256217 0.12632409 -0.08368716 -0.047744717 0.03622952 -0.00022623033 0.043921612 0.04369673
-0.054578234 0.105509184 -0.09632032 0.04700807 0.0012614504 -0.04969057 -0.15637924 0.08290699
0.05623204 -0.040235236 0.044773746 -0.03344982 -0.027257882 -0.033890147 0.016887497 -0.05611889
-0.010690192 -0.013127073 0.018578824 -0.061156783 -0.036832895 0.047805175 0.10454148 -0.11016196
-0.02083034 -0.07630192 0.027971368 -0.10669542 -0.01793137 -0.026829649 0.029873047 -0.06953371
0.039778825 -0.17185326 -0.036823787 -0.02592706 -0.051131446 -0.011801015 0.10339977 0.038040917
-0.061730828 0.10381191 0.0076450137 -0.03357318 -0.058803715 -0.021427682 0.07428727 -0.055512026
-0.077033736 -0.061508242 0.012168098 -0.0084721055 -0.1312119 -0.010706057 -0.011189549 0.11149009
0.011920522 0.034347046 0.0018077075 0.11612366 -0.077258766 -0.033279646 -0.036120925 -0.034651265
-0.014074394 0.04472014 0.10977637 -0.016903402 0.1311757 0.053913005 0.016676016 0.00066044915
0.028564643 -0.032094195 0.06600665 0.007720571 -0.003067571 -0.022916546 -0.021910097 -0.05912799
0.08935694 0.051322065 0.026752755 -0.11794781 -0.17360543 0.034607165 0.0039483192 -0.04385911
0.12730479 -0.105099976 -0.016128613 -0.06887377 0.019279614 -0.02502767 -0.0068988334 0.06396151
0.055023894 0.099443205 -0.04595478 -0.049332988 0.14178646 -0.042629864 -0.05106971 0.07724264
-0.031250887 -0.037952267 -0.026503395 0.085730605 0.104978435 -0.048861235 0.031946454 -0.011095101
-0.038404305 -0.021564785 -0.037667215 0.054396387 0.035345264 0.0858585 0.13901351 0.0759522
-0.04117361 0.0068959086 0.03302437 0.006185238 -0.020975374 -0.056323204 0.028621282 -0.036629166
0.06671759 -0.023606077 -0.02087838 -0.081598826 0.040946007 0.06396988 -0.028247418 -0.10502162
0.034578457 -0.021864267 0.054389752 -0.04396961 0.028731106 -0.06924503 0.08475743 -0.06300895
0.005865821 0.010767493 0.0025267268 0.03537737 -0.0007907016 -0.0059397523 0.014904478 0.09571042
-0.01214037 -0.047266416 -0.03781265 0.018685812 -0.062303625 0.04095208 0.032295037 0.033451565
00000000: b604 05be 425a 523d 1840 c2bb fe43 c6bd
00000010: d85d 29bd ad3e d5bc 47a1 5fbd b5fe 37bd
00000020: a3b1 babc 0a77 d33d 5073 02be 1eda 29bd
00000030: 53e0 52bd 2613 8fbb f066 1d3d ed21 cd3c
00000040: d261 dd3d 0bc4 f1bb 6a0e 0fbd 4aa4 963d
00000050: 5e48 09be 8ef9 3b3d 774c 8cba 602e 94bd
00000060: efdc bbbd 275e e0bc 49e8 fc3c f589 d03d
00000070: 599b 2b3c 81f6 6c3d 8ffb 1ebe 2e5f 98bd
00000080: 68b3 40bd 4024 edbc e569 f13c 52aa 6c3b
00000090: 83fc 23ba 60eb 6dbd a075 6f3d 4319 e83c
000000a0: 9623 053d 2d4f b13b 2f4e 033d 08c6 2c3c
000000b0: 3760 bcbd c719 99bd ed8c a43d ab7f 84bd
000000c0: a541 733d 9322 5e3d 8b87 e7bc 54d5 003d
000000d0: 6f82 3abd 17ee 7abc b8be 4e3b 35bd 463d
000000e0: c451 513c 1c3e 95bd f9aa 00bd 61f2 ebbd
000000f0: c666 333c 0ca2 8f38 3f10 ebbd beb3 653d
00000100: 759d 25be afe2 ffbd bb19 cb3c 7e1f a03b
00000110: 49e3 13bd c922 a4bd 9c02 61bc 6a13 723d
00000120: 5a4d e5bc 5a29 563a f8b3 5d3d 800e f0bd
00000130: 43ea 933d 64c4 68bc 7d0e c23c a9d3 e2bd
00000140: 05f7 7a3c 3d91 213d 5999 a3bb 3be2 c13d
00000150: f56f d1bb 9de7 d83d 7bf2 9a3d b214 d13c
00000160: 36f5 793c 1a5b 013e 2c64 abbd f78f 43bd
00000170: 6865 143d 3e38 6db9 26e7 333d 58fb 323d
00000180: 6d8d 5fbd 3315 d83d 9743 c5bd 898b 403d
00000190: 4057 a53a 5788 4bbd e121 20be 24cb a93d
000001a0: 9153 663d b4cd 24bd ad64 373d ae02 09bd
000001b0: ec4b dfbc 65d0 0abd a657 8a3c ecdc 65bd
000001c0: ea25 2fbc ef12 57bc 9e32 983c 897f 7abd
000001d0: 17de 16bd 5ccf 433d d819 d63d 989c e1bd
000001e0: 64a4 aabc 2e44 9cbd 3624 e53c 2183 dabd
000001f0: cfe4 92bc dac9 dbbc 52b8 f43c b167 8ebd
00000200: 1fef 223d 4dfa 2fbe 8ad4 16bd fc64 d4bc
00000210: 356f 51bd 0b59 41bc 42c3 d33d cbd0 1b3d
00000220: 77d9 7cbd 579b d43d 0683 fa3b 0884 09bd
00000230: 2adc 70bd 1b89 afbc ed23 983d 9460 63bd
00000240: ddc3 9dbd 11f0 7bbd b45c 473c 96ce 0abc
00000250: 6a5c 06be 7568 2fbc 5f54 37bc eb54 e43d
00000260: 4b4e 433c 7daf 0c3d 99f0 ec3a 3ed2 ed3d
00000270: d839 9ebd 3d50 08bd 89f3 13bd 7cee 0dbd
00000280: 4998 66bc 772c 373d 6fd2 e03d 0179 8abc
00000290: ec52 063e e2d3 5c3d 249c 883c fe21 2d3a
000002a0: 6600 ea3c 3475 03bd 7f2e 873d d8fc fc3b
000002b0: 4d09 49bb 7bbb bbbc ce7c b3bc 3130 72bd
000002c0: c500 b73d 1637 523d 9828 db3c 9f8e f1bd
000002d0: 9fc5 31be 3ec0 0d3d e760 813b 9ca5 33bd
000002e0: 305c 023e a83e d7bd 2720 84bc b10d 8dbd
000002f0: 48f0 9d3c d406 cdbc 9c0f e2bb 41fe 823d
00000300: bc60 613d e1a8 cb3d 143b 3cbd 6311 4abd
00000310: 7830 113e a79c 2ebd 792e 51bd 6431 9e3d
00000320: ee00 00bd d673 1bbd a61d d9bc 8793 af3d
00000330: effe d63d b822 48bd 49da 023d 3ac8 35bc
00000340: d54d 1dbd a2a8 b0bc f048 1abd bfce 5e3d
00000350: 32c6 103d 95d6 af3d 8f59 0e3e d48c 9b3d
00000360: a9a5 28bd 13f7 e13b 9044 073d 89ad ca3b
00000370: 8cd4 abbc 29b3 66bd 2e77 ea3c 7708 16bd
00000380: 3ba3 883d 8861 c1bc 2309 abbc 491d a7bd
00000390: 00b7 273d a402 833d 2167 e7bc 9315 d7bd
000003a0: 24a2 0d3d b11c b3bc cac7 5e3d 7a19 34bd
000003b0: 7f5d eb3c 57d0 8dbd 4e95 ad3d d60a 81bd
000003c0: 1336 c03b 246a 303c 7197 253b dce7 103d
000003d0: 1647 4fba 41a2 c2bb e931 743c d303 c43d
000003e0: 67e8 46bc 6e9a 41bd 70e1 1abd fd12 993c
000003f0: 1632 7fbd 5ebd 273d cd47 043d 8204 093d

action_model._discrete_distribution.branches.0.weight f4 [2, 256]
-0.0030066192 0.009449148 -0.006575355 0.0025636612 -0.01278159 -0.0073504546 0.0018129062 -7.769918e-05
0.0030413838 0.001671087 -0.00087779574 0.0005730534 -0.00071325386 -0.003963218 0.0038754605 -0.0019122245
-0.0019684082 0.005985049 0.008036628 0.0021620465 -0.0009221715 -0.008427536 -0.0055899075 -0.0041412213
-0.002827082 0.0017600987 -0.0026061337 0.0032374156 -0.007804829 0.0028090775 0.00841591 0.00010381944
0.0009931984 0.015092062 0.006366057 0.0066015082 0.0040143873 0.0039471025 0.0026416045 0.0013139787
0.005093248 -0.007832251 0.0011851428 -0.017531037 0.008205543 -0.004481202 -0.0052493806 0.0039170557
0.007735756 -0.0021139842 -0.0145542845 0.0033173673 -0.0026899157 0.010185108 -0.0035425841 0.0033762474
-0.005593998 -0.012085828 0.006705928 -0.007919974 -0.0054378337 -0.012035717 0.0019693181 -0.0001880898
0.004192005 0.0034878426 -0.008243735 -0.00917895 0.0061314586 -0.0066813505 0.008192336 -0.0028467404
-0.0061139544 -0.0072907372 -0.0031243388 -0.005226255 0.014610588 0.006166251 -0.0010618487 0.0017851618
0.006121822 0.007136047 0.008245065 0.0022479557 0.0027040737 0.0059202267 -0.0015362698 -0.004982898
-0.00021069504 0.0012211632 0.0012154512 -0.012190799 -0.0010189954 0.0017553497 0.0026428055 0.0017016439
-0.0004695261 0.00086429773 -0.0016433689 -0.005933557 -0.006707763 -0.00084851636 0.0031604439 -0.0038577777
-0.006356071 0.0014435396 0.0077858916 0.0030394762 -0.0037146197 0.008657896 -0.005800206 0.0042945244
0.0049908888 -0.010120985 -0.013211242 -0.006809832 -0.009538178 0.00078908866 0.012230824 -0.008013326
-0.017955942 0.0008658254 0.005731714 -0.010823493 -0.0036229752 0.009014613 -0.005388385 -0.0042802724
-0.01041936 -0.0012166873 0.00093352265 -0.00028101835 0.0077622845 0.0021557666 -0.0026037863 0.0014078568
-0.0054265945 -0.008821232 -0.00066845905 0.0031928879 -0.0049313125 -0.0074441694 0.008654149 0.010859592
-0.0032516283 -0.00042049072 0.0055241194 0.00054754934 -0.005394156 0.00092978973 -0.0089884335 -0.0024184121
0.0062077004 -0.0060051503 0.00036304156 0.005267366 0.0003938054 -0.00031298047 0.00847382 0.0066741593
0.0013085332 0.0008704194 -0.0022103204 0.0008951866 -0.0068893917 -0.009588218 0.003069001 0.0023064397
0.00061553327 -0.011111919 0.0050722295 0.007847375 -0.0057635657 0.0046767155 0.0072843614 0.007696315
0.009082911 0.008157252 0.003917984 0.0147074675 0.0040924414 7.3034986e-05 -0.007183891 -0.008019762
-0.004206532 -0.007033313 -0.01087779 0.0021325436 -0.004937812 -0.0034473427 0.0036714 -0.0017053757
0.0042550676 -0.0072549805 0.012027931 -4.9204722e-05 0.002270105 -0.0015156098 0.002188336 -0.0014134641
-0.0013520918 -0.0036343683 -0.0022115882 0.0045035263 0.003334247 0.009528483 0.001276406 -0.005496862
-0.0031464768 -0.00095260405 -0.0018583391 0.0037435293 -0.00033377248 -0.0009478597 -0.013674638 0.002223676
-0.003554914 -0.0011102607 -0.00051704154 -0.0064908424 0.0029691178 0.0037138362 -0.0032082119 0.015790118
0.0066723796 -0.0039725425 -0.0030548829 0.004365916 0.0018817208 0.002955796 0.0072385357 -0.0027931498
-0.00456364 -0.0012036775 0.004126896 -0.010993819 -0.009103651 0.00064351136 -0.00025386317 -0.0015217358
0.002125465 0.012803781 0.002046663 -0.00016010363 -0.004194041 0.0029377071 -0.004719958 -0.0129603585
0.011202978 0.0040236437 0.00810491 -0.00088669325 0.008090687 0.0009017973 0.0050183176 -0.008165833
00000000: b30a 45bb 99d0 1a3c 1376 d7bb 1903 283b
00000010: e069 51bc 15dc f0bb 0a9f ed3a 6ef2 a2b8
00000020: f451 473b 6008 db3a e01b 66ba f638 163a
00000030: a8f9 3aba e2dd 81bb 70fb 7d3b 9ba3 faba
00000040: 6900 01bb 3b1e c43b 10ac 033c 1fb1 0d3b
00000050: e2bd 71ba a613 0abc 8b2b b7bb 15b3 87bb
00000060: 9146 39bb 1db3 e63a abcb 2abb d22a 543b
00000070: a7bf ffbb 8018 383b e3e2 093c a3b9 d938
00000080: 352e 823a b244 773c 5b9a d03b 7751 d83b
00000090: 1f8b 833b b256 813b c51e 2d3b cf39 ac3a
000000a0: 43e5 a63b d752 00bc cb56 9b3a 409d 8fbc
000000b0: 8b70 063c 0cd7 92bb ff02 acbb a55a 803b
000000c0: 3a7c fd3b c58a 0abb 1875 6ebc 3068 593b
000000d0: 4c49 30bb 70df 263c b32a 68bb 0844 5d3b
000000e0: db4d b7bb a303 46bc 67bd db3b c7c2 01bc
000000f0: db2f b2bb 7531 45bc ad0f 013b f939 45b9
00000100: 165d 893b 4a94 643b bb10 07bc 4f63 16bc
00000110: 67ea c83b 3bef dabb 2639 063c 6190 3abb
00000120: 9157 c8bb 23e7 eebb b5c1 4cbb 0141 abbb
00000130: 3f61 6f3c 430e ca3b bb2d 8bba 17fc e93a
00000140: 9199 c83b 80d5 e93b 4f16 073c 7052 133b
00000150: d436 313b 76fe c13b a95c c9ba 9447 a3bb
00000160: 05ee 5cb9 700f a03a c64f 9f3a ebbb 47bc
00000170: d08f 85ba c313 e63a eb32 2d3b b209 df3a
00000180: ba2a f6b9 0a92 623a 4f66 d7ba 496e c2bb
00000190: cbcc dbbb f86e 5eba 731f 4f3b c5d2 7cbb
000001a0: 9746 d0bb 2735 bd3a cb20 ff3b f331 473b
000001b0: fa70 73bb d9d9 0d3c a80f bebb 15b9 8c3b
000001c0: 9c8a a33b 7dd2 25bc f773 58bc 0325 dfbb
000001d0: 0546 1cbc d8da 4e3a cb63 483c 534a 03bc
000001e0: 5718 93bc 8ff8 623a 1ad1 bb3b 0555 31bc
000001f0: 706f 6dbb 07b2 133c 0d91 b0bb 8741 8cbb
00000200: f7b5 2abc 4079 9fba a5b7 743a a555 93b9
00000210: c35a fe3b c347 0d3b 49a4 2abb d687 b83a
00000220: 93d1 b1bb ee86 10bc 873b 2fba c53f 513b
00000230: d996 a1bb 38ee f3bb 22ca 0d3c 6eec 313c
00000240: 4519 55bb 4f75 dcb9 ac03 b53b 6a89 0f3a
00000250: 76c1 b0bb 22bd 733a 3944 13bc 397e 1ebb
00000260: f769 cb3b dac6 c4bb 9d56 be39 de99 ac3b
00000270: ab77 ce39 8717 a4b9 c7d5 0a3c e8b2 da3b
00000280: 1783 ab3a db2c 643a 06db 10bb f5aa 6a3a
00000290: 68c0 e1bb e717 1dbc 4b21 493b a327 173b
000002a0: bd5b 213a c40e 36bc f234 a63b 4792 003c
000002b0: 4bdc bcbb 223f 993b a7b1 ee3b 5f31 fc3b
000002c0: 7dd0 143c ffa5 053c 6f62 803b 97f7 703c
000002d0: e319 863b 5c2a 9938 d866 ebbb 5265 03bc
000002e0: f3d6 89bb b577 e6bb c238 32bc 25c2 0b3b
000002f0: 5fcd a1bb d0ec 61bb df9b 703b ea86 dfba
00000300: 186e 8b3b 30bb edbb cd10 453c 2b61 4eb8
00000310: 0bc6 143b 6da7 c6ba 306a 0f3b fc43 b9ba
00000320: ac38 b1ba 952e 6ebb 4bf0 10bb 5192 933b
00000330: 6283 5a3b 5b1d 1c3c 144d a73a 051f b4bb
00000340: 1f35 4ebb 2db8 79ba 8393 f3ba 0056 753b
00000350: 2ffe aeb9 ca79 78ba 970b 60bc 18bb 113b
00000360: 8ff9 68bb 2b86 91ba 128a 07ba 22b1 d4bb
00000370: 8895 423b d563 733b dd40 52bb 475a 813c
00000380: faa3 da3b 1a2c 82bb 6e34 48bb f50f 8f3b
00000390: 13a4 f63a 07b6 413b 3d31 ed3b 470d 37bb
000003a0: 968a 95bb b7c4 9dba ea3a 873b 6b1f 34bc
000003b0: 7b27 15bc 51b1 283a f018 85b9 fb74 c7ba
000003c0: 634b 0b3b f3c6 513c 4f21 063b 7ee1 27b9
000003d0: 2a6e 89bb 8c86 403b e1a9 9abb af57 54bc
000003e0: b28c 373c c5d8 833b 75ca 043c fa70 68ba
000003f0: cd8e 043c 9866 6c3a b370 a43b fcc9 05bc

action_model._discrete_distribution.branches.0.bias f4 [2]
0.0 0.0
00000000: 0000 0000 0000 0000

action_model._discrete_distribution.branches.1.weight f4 [3, 256]
0.009247786 0.0016021418 -0.0059845075 -0.002259722 0.00032068128 0.006260486 -0.0030276095 -0.007127942
0.008626039 0.006694142 -0.0039166976 0.010459335 -0.00036421602 0.009345348 0.0051001427 0.005822684
0.0051319245 0.003382096 0.00089319557 -0.0035182547 -0.01000272 -0.00032220758 -0.0039127055 -0.0062080673
-0.0004170647 0.009581662 0.0033415982 -0.0033696417 -0.003638021 -0.006237228 -0.018039871 -0.0019134613
0.004615923 -0.005342857 0.0005750225 0.003492304 -0.0040405705 0.0006146568 0.007034469 -0.001372028
-0.0025716017 -0.0048017357 0.000698783 0.011150281 -0.000979924 0.011793552 0.0069179684 -0.0024272406
-0.005138868 0.008429967 -0.0056805974 -0.013227329 -0.000870585 0.006145104 -0.00077225297 0.009175786
0.003966713 -0.0023154365 0.013118765 0.0044952836 -0.010108636 0.0044542546 0.0050644497 -0.0056803958
-0.0019500287 -0.00096824346 0.005983647 0.0075481976 0.0065599694 -0.005686782 -0.010104935 -0.0040721726
0.0033543017 -0.00088989985 0.0027889924 -0.004361342 -0.002975614 -0.0011298404 0.0040175654 0.0091067515
0.0044178567 -0.017192787 -0.00415259 0.006412419 -0.0065503307 -0.0063734436 0.0004077479 -0.004753134
-0.0059983893 -0.0054232352 -0.0060764137 -0.00088413246 0.011649185 -0.0043387595 -0.008161948 -0.0018695202
0.008512403 -0.006924137 0.0011770144 0.007498485 0.004035387 0.009020266 -0.0036209226 -0.00043952937
-0.0038780475 0.004158381 0.006415011 0.0023089813 0.002073298 -0.0045577553 -0.0035459392 0.0163545
-0.00089979183 -0.0009036112 -0.006722162 -0.00788205 -0.0014352971 -0.0029564437 0.0030367656 0.010576849
-0.0068351603 0.012051202 0.003617045 -0.0058744447 -0.0010955656 -0.0034208097 0.0071901693 -0.005829551
-0.0026426772 -0.0028233083 0.0027801963 -0.011351276 0.004787455 -0.0059793955 -0.00016710054 -0.0014497255
-0.009841341 -0.003305285 -0.00722881 0.005631657 -0.00056678144 -0.010299367 0.0021801807 0.0018784747
0.0003411421 0.0063319965 -0.0028530932 0.009701928 0.003125978 -0.0026305127 -0.0008121542 -0.009013597
-0.0034063992 0.0041464963 0.003550927 -0.0027716171 -0.0040226746 -0.010956871 0.0006369125 0.0024244913
-8.263685e-05 -0.002831125 0.008553664 0.0070252777 0.00840716 -0.0028923112 0.00052991847 -0.0052696094
0.008493562 -0.0044476674 -9.615812e-05 -0.0070184455 -0.002331547 -0.005430595 -0.0036673471 -0.0068945037
-0.009911139 0.005510295 -0.0005327965 -0.0026504907 -0.0027710292 -0.0023936692 0.008576356 -0.004216619
0.0074833594 0.008991041 -0.009571836 0.00017670372 0.0065817162 0.0010954301 -0.0021914337 0.0013843764
0.0018759022 0.010522372 -0.017505769 -0.0005214605 -0.006003598 -0.008109401 -0.0025446697 0.0113393655
-0.009487236 0.0005033519 -0.008459467 0.00032072116 0.0014582356 0.00037008626 -0.00070011726 0.0047858
0.0023851076 0.0022019108 -0.009778748 -0.0016185949 0.0041856486 -0.0035779828 -0.008619106 -0.0050096232
-0.0011149476 -0.00043303907 -0.0021731681 -0.0031566091 0.008516196 0.003221349 -0.009214037 0.00027665074
-0.0142905405 0.007384 -0.00439236 -0.0062766685 0.0002782021 -0.01219434 0.0056423685 -0.015707815
-0.0027849583 -0.0037543313 0.0070559033 0.0054962505 -0.0052535227 0.009499853 -0.003723558 -0.0041752737
-0.0048456057 0.00041318755 0.0056333705 -0.0023656334 -0.0032176066 -0.0046887766 -0.0012373099 0.0076628774
-0.0059824428 -0.0073329345 -0.0067425007 0.0033796665 0.000111661146 0.016072718 0.0010036349 0.00032024778
00000000: 0784 173c f5fe d13a b019 c4bb d817 14bb
00000010: 1d21 a839 c324 cd3b dc6a 46bb 8391 e9bb
00000020: 3b54 0d3c 885a db3b a457 80bb a15d 2b3c
00000030: 3ff4 beb9 3b1d 193c 191f a73b 37cc be3b
00000040: b429 a83b 28a6 5d3b 5725 6a3a 8592 66bb
00000050: 73e2 23bc f8ed a8b9 2736 80bb 0b6d cbbb
00000060: 7aa9 dab9 67fc 1c3c b7fe 5a3b 35d5 5cbb
00000070: dd6b 6ebb a961 ccbb 5ac8 93bc 1bcd faba
00000080: 2b41 973b 2213 afbb 1bbd 163a 23df 643b
00000090: c366 84bb eb20 213a 6781 e63b 9fd5 b3ba
000000a0: 5188 28bb e157 9dbb 892e 373a abaf 363c
000000b0: cb70 80ba be39 413c 20b0 e23b 5712 1fbb
000000c0: f363 a8bb d81d 0a3c 4e24 babb 70b7 58bc
000000d0: f837 64ba de5c c93b 0571 4aba 0956 163c
000000e0: 33fb 813b 94be 17bb 17f0 563c 2c4d 933b
000000f0: b19e 25bc fff4 913b aff3 a53b 9d22 babb
00000100: 1b98 ffba b8d1 7dba 7812 c43b df56 f73b
00000110: 03f5 d63b 2f58 babb 2b8f 25bc dc6f 85bb
00000120: d8d3 5b3b 2b48 69ba 87c7 363b 97e9 8ebb
00000130: 8502 43bb 2717 94ba c8a5 833b 7c34 153c
00000140: abc3 903b e3d7 8cbc 7312 88bb 451f d23b
00000150: 28a4 d6bb 52d8 d0bb ffc6 d539 2ec0 9bbb
00000160: 238e c4bb 65b5 b1bb a71c c7bb 20c5 67ba
00000170: 39dc 3e3c 272c 8ebb b1b9 05bc b00a f5ba
00000180: 9b77 0b3c dfe3 e2bb 0d46 9a3a dab5 f53b
00000190: 483b 843b bdc9 133c 004d 6dbb a270 e6b9
000001a0: d726 7ebb 0743 883b 0335 d23b 4752 173b
000001b0: 2be0 073b 3959 95bb fd62 68bb dff9 853c
000001c0: 02e0 6bba 52e0 6cba 9545 dcbb b723 01bc
000001d0: 9420 bcba e5c0 41bb 7904 473b 854a 2d3c
000001e0: 7bf9 dfbb 6872 453c f20b 6d3b 6a7e c0bb
000001f0: 1599 8fba aa2f 60bb 839b eb3b d105 bfbb
00000200: c430 2dbb 4107 39bb f433 363b b4fa 39bc
00000210: 15e0 9c3b ceee c3bb b637 2fb9 b704 beba
00000220: 933d 21bc 7b9d 58bb a7df ecbb c389 b83b
00000230: 0f94 14ba adbe 28bc 5de1 0e3b 2737 f63a
00000240: 51db b239 a37c cf3b f6fa 3abb d6f4 1e3c
00000250: 35dd 4c3b ae64 2cbb bfe6 54ba c4ad 13bc
00000260: e53d 5fbb 55df 873b abb6 683b 05a4 35bb
00000270: a4d0 83bb 7384 33bc 79f6 263a 37e4 1e3b
00000280: 524d adb8 658a 39bb ab24 0c3c 4d34 e63b
00000290: 2fbe 093c ee8c 3dbb 3aea 0a3a b0ac acbb
000002a0: 9528 0b3c bdbd 91bb 7fa8 c9b8 fdfa e5bb
000002b0: decc 18bb 22f3 b1bb e057 70bb 4aeb e1bb
000002c0: 5462 22bc b48f b43b 5eab 0bba dbb3 2dbb
000002d0: 289a 35bb 1bdf 1cbb d883 0c3c 902b 8abb
000002e0: f836 f53b 294f 133c 31d3 1cbc 8b49 3939
000002f0: 70ab d73b 8994 8f3a 289e 0fbb f773 b53a
00000300: d5e0 f53a 0766 2c3c 4268 8fbc 9fb2 08ba
00000310: d5b9 c4bb 4bdd 04bc 79c4 26bb bfc8 393c
00000320: 5a70 1bbc 60f3 033a 9499 0abc 7726 a839
00000330: 4422 bf3a 2308 c239 1388 37ba 33d2 9c3b
00000340: 774f 1c3b ef4d 103b 0b37 20bc 0827 d4ba
00000350: c427 893b 977c 6abb 2737 0dbc c427 a4bb
00000360: 6f23 92ba 8509 e3b9 b66b 0ebb 1ddf 4ebb
00000370: 8487 0b3c 451d 533b 79f6 16bc 6f0b 9139
00000380: df22 6abc 7bf5 f13b c9ed 8fbb 83ac cdbb
00000390: a7db 9139 c5ca 47bc 9ee3 b83b adad 80bc
000003a0: d983 36bb 3a0b 76bb 3535 e73b e419 b43b
000003b0: be25 acbb 45a5 1b3c f006 74bb bcd0 88bb
000003c0: e3c7 9ebb 18a1 d839 2398 b83b be08 1bbb
000003d0: 7bde 52bb 4fa4 99bb 3b2d a2ba e018 fb3b
000003e0: 5e08 c4bb 1d49 f0bb 32f0 dcbb 657d 5d3b
000003f0: 9f2b ea38 efaa 833c 668c 833a eee6 a739

action_model._discrete_distribution.branches.1.bias f4 [3]
0.0 0.0 0.0
00000000: 0000 0000 0000 0000 0000 0000

action_model._discrete_distribution.branches.2.weight f4 [2, 256]
-0.012581798 -0.0062940023 -0.01176349 0.004952667 -0.010448945 -0.0016784801 -0.004707725 -0.007446552
0.005931021 0.011801954 0.00042050006 -6.7654684e-05 0.008182172 -0.0017410899 0.012027655 -0.0051073856
0.007326793 0.010990861 0.0031346497 -0.005435455 0.0042934776 -0.001482395 0.015666734 -0.007994524
0.007925624 -0.00080736185 -0.017901814 0.0050703855 -0.0005246648 -0.0010580568 0.00039761767 0.009161024
-0.0024500152 0.0073149265 -0.002181107 -0.0035876848 0.00017651115 -0.0033424278 0.00201792 -0.0008313299
0.004523433 -0.0012399359 0.004275845 -0.0103223035 0.0004480211 0.00033037853 -0.006766055 0.007808401
-0.0060145864 0.00037512043 -0.00537816 -0.010946657 0.008567798 0.0018075794 0.002265377 -0.0052889497
-0.0009635398 0.0073993006 0.006713753 0.0036568062 0.00050084875 0.00885371 -0.0035569523 0.005141068
0.009075019 0.010553474 0.01817025 -0.0006237344 0.0003690564 -0.005525183 -0.0073529067 0.0025720382
-0.010355528 -0.0077323676 0.007054699 -0.0060831173 -0.014094631 0.010682122 0.01166392 -0.0016440839
0.0001969707 -0.0038960723 0.00035918085 -0.0005320968 0.0070550144 0.0068542 0.006496572 -0.003052917
0.013000913 0.0037410546 -0.009494207 0.00858942 -0.007162077 0.007356757 0.00015513341 -0.007355181
0.0039142715 -0.007076991 -0.004863164 0.010996821 0.0019511328 -0.005910511 0.008817349 -0.0003481133
-0.005603933 -0.00056000904 -0.0036574174 0.006945564 0.0021127302 0.0029059856 0.0072385035 -0.007220357
-0.0076541714 0.0026338648 0.0013838662 0.0005872929 0.006684804 -0.006534821 -0.0010282964 -0.005990524
0.003976021 -0.0018004306 -0.0026445684 -0.0017528253 -0.0049849204 0.003940017 -0.0058825086 -0.0041565937
0.0026571963 0.006932016 0.0004800083 -0.0013826113 -0.0013663521 -0.01532072 -0.0054845987 0.0053902697
0.0014632944 -0.0023146812 0.003959743 0.0019781704 -0.0051352764 0.00124557 -0.0069065588 -0.0020307738
0.011655974 0.0012540678 -0.004140477 -0.007324421 0.010756432 -0.00411651 -0.00015595458 -0.005218093
0.0024601778 0.0035851903 0.00040510102 -0.011135447 0.000105814535 -0.0075803595 -0.010527625 -0.0049301176
0.009787592 -0.007872212 -0.001306586 0.00045314245 0.0128995655 0.006302369 0.009093452 0.0053935195
-0.0016101272 0.0048703062 -0.008174868 -0.0069394126 -0.010743969 0.008186231 -0.0013298745 -0.011458225
0.00036937883 -0.0063127377 -0.008985951 -0.004866085 0.010723687 -0.0053660017 0.0031323738 0.013741106
-0.0044125915 0.0044781542 0.00806416 0.0073064044 0.008305412 0.0061550415 -0.0053330334 0.00035990958
-0.0024583635 -0.00031504477 -0.00051638554 -0.005416336 0.0075474842 -0.003569831 -0.0047497298 0.00027309218
0.0005201076 0.0033996042 -0.009788569 -0.010836101 0.0051093446 -0.008957622 -0.009610873 -0.010292263
-0.0028050512 0.006750218 0.0013585335 0.0047882404 -0.003401693 -0.0072097555 0.005456406 0.009894139
0.0033000577 0.004037645 -0.007099613 -0.0052979006 -0.0048241797 0.0064120055 -0.001235596 0.0041578235
0.004471665 0.006088 0.011614927 -0.001303788 -0.007785288 0.0021509205 0.007001304 -0.0073415623
-0.0033729118 -0.0039924667 -0.0033251685 -0.0015914524 0.0069860364 0.004499082 -0.0032181125 0.00820073
-0.013500759 -0.008474889 0.00024663887 0.0045925067 -0.0058825137 0.0021324037 -0.0052193734 -0.004666223
0.00021167021 0.0038215828 -0.012096876 -0.010316701 0.00417008 -0.011730828 0.0012976172 -0.008129381
00000000: e323 4ebc eb3d cebb a7bb 40bc fb49 a23b
00000010: 0d32 2bbc 7200 dcba 4243 9abb 3502 f4bb
00000020: 0359 c23b fc5c 413c 9076 dc39 d5e1 8db8
00000030: 840e 063c 4835 e4ba a40f 453c db5b a7bb
00000040: 9815 f03b 0313 343c b26e 4d3b e71b b2bb
00000050: 4db0 8c3b ec4c c2ba 8657 803c 77fb 02bc
00000060: 7ada 013c 23a5 53ba d3a6 92bc 7a25 a63b
00000070: a989 09ba 7fae 8aba 5777 d039 1f18 163c
00000080: 6f90 20bb 0db2 ef3b e7f0 0ebb 5d1f 6bbb
00000090: da15 3939 a20c 5bbb 143f 043b 9bed 59ba
000000a0: 4e39 943b 5885 a2ba 631c 8c3b e11e 29bc
000000b0: 60e4 ea39 a836 ad39 c8b5 ddbb 9ddd ff3b
000000c0: 0216 c5bb d0ab c439 473b b0bb 9b59 33bc
000000d0: f35f 0c3c 4dec ec3a b876 143b ed4e adbb
000000e0: 1096 7cba d575 f23b 0bff db3b 07a7 6f3b
000000f0: 644b 033a 270f 113c c21b 69bb 6776 a83b
00000100: 63af 143c 7ae8 2c3c c7d9 943c 1b82 23ba
00000110: e97d c139 980c b5bb a7f0 f0bb a48f 283b
00000120: 3caa 29bc cd5f fdbb 1b2b e73b e354 c7bb
00000130: 2bed 66bc 1104 2f3c 071a 3f3c 4d7e d7ba
00000140: eb89 4e39 3f55 7fbb 7050 bc39 697c 0bba
00000150: c02d e73b 3299 e03b 32e1 d43b 7313 48bb
00000160: c801 553c 7b2c 753b 978d 1bbc a3ba 0c3c
00000170: dbaf eabb f310 f13b 4fab 2239 bb03 f1bb
00000180: 4a43 803b 1ae6 e7bb 2d5b 9fbb 032c 343c
00000190: 27bd ff3a f6ac c1bb a476 103c fa82 b6b9
000001a0: 32a1 b7bb 92cd 12ba 48b1 6fbb 9d97 e33b
000001b0: bb75 0a3b 5972 3e3b f830 ed3b bf98 ecbb
000001c0: d8cf fabb eb9c 2c3b d862 b53a 8ff4 193a
000001d0: 330c db3b 0d22 d6bb e7c7 86ba 284c c4bb
000001e0: 4849 823b 6dfc ebba 7f50 2dbb 0fbf e5ba
000001f0: 8b58 a3bb 421b 813b 0fc2 c0bb 0934 88bb
00000200: 5b24 2e3b f725 e33b a0a9 fb39 bd38 b5ba
00000210: 2b17 b3ba c203 7bbc 26b8 b3bb dca0 b03b
00000220: 03cc bf3a e8b1 17bb bbc0 813b 31a4 013b
00000230: d245 a8bb 6542 a33a 6a50 e2bb bb16 05bb
00000240: b3f8 3e3c 885f a43a d7ac 87bb b201 f0bb
00000250: bf3b 303c cae3 86bb bd87 23b9 89fc aabb
00000260: ef3a 213b 83f5 6a3b bd63 d439 7371 36bc
00000270: bfe8 dd38 aa64 f8bb 0f7c 2cbc d38c a1bb
00000280: 235c 203c 73fa 00bc c041 abba c093 ed39
00000290: b358 533c 1a84 ce3b b4fc 143c 1fbc b03b
000002a0: e70a d3ba 1797 9f3b e2ef 05bc 0364 e3bb
000002b0: 7907 30bc 8b1f 063c 2f4f aeba 47bb 3bbc
000002c0: 30a9 c139 15db cebb cf39 13bc ae73 9fbb
000002d0: 67b2 2f3c 49d5 afbb 8348 4d3b 6022 613c
000002e0: 8097 90bb 7bbd 923b 8a1f 043c 906a ef3b
000002f0: 6c13 083c 3bb0 c93b bac0 aebb 3fb2 bc39
00000300: 7f1c 21bb 982c a5b9 0c5e 07ba 857b b1bb
00000310: e350 f73b d3f3 69bb 9fa3 9bbb d02d 8f39
00000320: d557 083a e5cb 5e3b 3c60 20bc e789 31bc
00000330: 4a6c a73b fdc2 12bc ec76 1dbc e1a0 28bc
00000340: f3d4 37bb ef30 dd3b d210 b23a ace6 9c3b
00000350: f0ee 5ebb d03f ecbb a7cb b23b 071b 223c
00000360: c845 583b 394e 843b dfa3 e8bb 039a adbb
00000370: 2714 9ebb cd1b d23b b9f3 a1ba 5a3e 883b
00000380: 0b87 923b d87d c73b 894c 3e3c dee3 aaba
00000390: bb1b ffbb 75f6 0c3b 326b e53b 7d91 f0bb
000003a0: 120c 5dbb 3dd3 82bb 12eb 59bb 4898 d0ba
000003b0: 1feb e43b 096d 933b f8e6 52bb 5b5c 063c
000003c0: 4a32 5dbc 43da 0abc 4f4f 8139 bd7c 963b
000003d0: 1ac2 c0bb ccbf 0b3b 4707 abbb 1ee7 98bb
000003e0: caf3 5d39 8573 7a3b fa31 46bc 6107 29bc
000003f0: 2ba5 883b a932 40bc cf14 aa3a 1831 05bc
