results/skillBoat/boat/boat-999972.onnx (onnx, 340257 bytes, 11 tensors)

discrete_act_size_vector f4 [1, 3]
000000 00 00 00 40 00 00 40 40 00 00 00 40
       2.0 3.0 2.0

network_body._body_endoder.seq_layers.0.weight f4 [256, 58]
000000 bd 59 94 3d f9 85 0b bd 5d 27 c1 bd 0e 16 fa bd
       0.07243679 -0.034063313 -0.09431336 -0.12211238
000010 61 cf 45 bc 14 31 5d bd 06 36 a2 be 91 76 42 3c
       -0.012073369 -0.054001883 -0.31681842 0.011869089
000020 53 5b 15 bc b3 1a 90 3d 02 b2 a6 3b 9c ab 27 3c
       -0.009116012 0.070363425 0.005087138 0.010233786
000030 3b 45 b8 3c 6b 67 2a be 39 9b 73 3e df 41 fd bc
       0.02249395 -0.16641013 0.23789681 -0.030915199
000040 e7 68 1f bd a5 b8 a7 bd 7c 0c 24 3e 21 91 9c bd
       -0.038918402 -0.08189515 0.16020387 -0.07644869
000050 99 5d 2f be 36 6f 05 3c 4b fa e7 3d 3c 81 6a be
       -0.17125548 0.008144191 0.113270365 -0.22900862
000060 28 9c c6 3d 98 9c 03 3d 7b 39 73 3d d9 f2 02 be
       0.09697753 0.03213176 0.05938099 -0.12787952
000070 8d 05 c2 3e 6e 36 da 3e 79 3b a3 be 57 52 a9 3c
       0.3789486 0.42619652 -0.31881312 0.020669146
000080 f7 70 7b 3d 37 3f 39 bd 4e 53 8b 3d 8d 75 7e 3e
       0.06138703 -0.045226302 0.068029985 0.2484953
000090 c8 1a f3 bd 1f 9e 87 3d fd 94 ba bd 1a ff 68 3e
       -0.118703425 0.06621956 -0.091104485 0.22753564
0000a0 ee 6c 78 bc 4b cc b5 3e 14 ee d8 3d d7 ec 3b bd
       -0.01516269 0.35507426 0.10592285 -0.045880165
0000b0 d4 7b 40 3c 2e cd 9c 3d e0 17 ee 3c a6 58 c8 bd
       0.011748273 0.076563224 0.029064119 -0.09782533
0000c0 b6 37 b4 3d 65 77 9f be 9a 7b f4 bb 91 68 2c be
       0.087996885 -0.31145778 -0.0074610235 -0.16836764
0000d0 e3 41 fc 3d ae 56 05 3d a0 ae c0 bd 97 69 2c be
       0.123172544 0.032553367 -0.09408307 -0.16837154
0000e0 cf 5e 4a bd a8 e1 14 3d 3b a3 37 3e d9 9f 0b bc
       -0.049406823 0.036348015 0.17933361 -0.008521997
0000f0 59 95 b0 3d f7 af 4c 3e 3f 36 e3 bd 85 a0 2d 3d
       0.08622236 0.19989 -0.11094331 0.04238941
000100 46 54 11 3e 32 cf b1 3d 2f e7 6c be f6 34 27 3d
       0.14192304 0.086820975 -0.23135065 0.04082199
000110 70 40 d3 be 82 11 14 be a2 79 17 3e c7 01 bc 3d
       -0.412601 -0.14459804 0.14792493 0.091800265
000120 f1 22 24 3e c6 21 55 bd 06 54 3a be 7b 88 36 3e
       0.16028954 -0.052034162 -0.18196115 0.178255
000130 d4 62 33 3c ab cc bd bd ab 60 19 3e 70 69 b4 3c
       0.010948855 -0.09267553 0.14978282 0.022022933
000140 21 36 cf bd 5f e2 7d 3d cc 5b a6 3e 3b 0d 1d bd
       -0.10117746 0.061983462 0.3249191 -0.038342696
000150 19 f0 21 bd f6 8d bd 3d 94 09 02 bd d7 6a 97 3d
       -0.039535616 0.092555925 -0.031747416 0.07393425
000160 a7 3f 1a 3e 98 38 20 3e ee 6e 20 bc 8e dd e0 3c
       0.15063344 0.15646589 -0.009792073 0.027449396
000170 2a 39 71 3d 2b ba c4 3d 8e 22 fb bd f1 a1 cc 3c
       0.058892407 0.09605821 -0.1226245 0.024979563
000180 53 96 44 be b8 f8 34 3b 34 1e 57 3e 68 50 31 be
       -0.19197969 0.0027614068 0.21007615 -0.17315829
000190 11 04 90 3d 13 66 31 bd 66 d0 ed bd 15 f5 83 bd
       0.070320256 -0.043310236 -0.116120145 -0.0644323
0001a0 13 7d 13 be ac 09 37 be 59 d2 2c 3e 71 7e 0c 3e
       -0.14403181 -0.17874783 0.16877116 0.13720109
0001b0 90 1f 85 3d 2a fc a7 3d 39 c8 c9 bd 94 64 b6 3d
       0.06500161 0.08202393 -0.098526426 0.089059025
0001c0 30 2f 6f 3d 16 22 80 be 41 8a 4d bd 7c 79 bb bd
       0.05839461 -0.25026006 -0.050180677 -0.09154031
0001d0 44 45 86 bc 0f 74 da 3c b8 91 95 3d f6 29 5e bc
       -0.01639045 0.02666667 0.07303184 -0.013559809
0001e0 27 b3 a9 3d 33 56 a8 3d 09 38 54 3d 19 9c e3 3d
       0.08286124 0.08219566 0.05181125 0.11113758
0001f0 7e 47 94 3c 94 ec 77 bd 17 38 7c 3c 47 ea 42 bd
       0.018100496 -0.060528353 0.015394232 -0.047586706
000200 26 3e 69 3d 6b 9a 8a bd aa 2a 14 3e 11 7c 3b 3e
       0.056944035 -0.06767734 0.144694 0.18309046
000210 bb d8 2d be 22 57 e8 bd d7 e0 f3 bb da 91 70 3e
       -0.16977207 -0.11344744 -0.0074425745 0.23493138
000220 b9 ad 77 bd aa 89 b7 bd 6d 20 b7 3d 76 b7 80 be
       -0.06046841 -0.08961804 0.089417316 -0.2513997
000230 d3 06 d7 3d a7 8a 68 bd 2e 87 25 be a9 b4 b5 bc
       0.104993485 -0.056772854 -0.16164848 -0.022180872
000240 f9 d3 7c bd 2c f4 19 3c 4e 9f 33 bd fb d4 64 be
       -0.06172559 0.009396594 -0.043853097 -0.2234687
000250 74 19 07 3e 1f c5 29 be 53 4d 15 be 5e 7c 0c 3e
       0.13193303 -0.16579102 -0.14580278 0.13719317
000260 e3 99 c2 bc 4a 17 09 bd 99 d1 0d 3d b5 71 0a be
       -0.02375502 -0.033469476 0.034623716 -0.13519938
000270 f5 87 48 3d 41 26 42 be 6f b1 a5 be 2a 35 b8 3d
       0.048957784 -0.18959905 -0.32361934 0.08994515
000280 32 7d e8 3d 62 87 93 3e bd 27 da bd a1 95 c6 3d
       0.11352004 0.28814226 -0.10652111 0.09696508
000290 48 70 56 bd 18 2c 34 3e f1 50 88 3e e0 83 20 3d
       -0.052353173 0.17594945 0.26624253 0.039188266
0002a0 af 09 18 bd 76 70 13 be b4 ee 10 3e ae 97 c3 bc
       -0.03711861 -0.14398369 0.14153558 -0.023876037
0002b0 82 1a d6 3d 7f a6 a5 be f8 59 39 bc fe ca 00 3e
       0.10454275 -0.3235359 -0.011312954 0.12577435
0002c0 d3 6e 30 bd 08 44 2c 3d 25 5f 31 bd 03 e3 34 3d
       -0.04307444 0.042057067 -0.043303628 0.044161808
0002d0 b1 24 bc 3b 36 fa fc 3d 9e 68 75 be b2 02 12 3d
       0.0057416786 0.123524114 -0.2396569 0.0356471
0002e0 64 60 de bc 10 c0 51 3d ad 5f 19 3e 15 0c bb bd
       -0.027145572 0.051208556 0.14977904 -0.09133164
0002f0 f8 6a d4 bd 69 db 3e 3d 2d 30 25 3d 13 ee fd 3d
       -0.10371965 0.046595965 0.040329147 0.12398925
000300 88 ae d3 3c 54 df 6b bd 02 6d 8a bc d6 fa 47 3d
       0.025840059 -0.05758603 -0.016897682 0.0488232
000310 9f ca 10 3d fa 64 57 3d 25 3e ab 3d bb 71 9a 3c
       0.035349485 0.052586533 0.083614625 0.018853059
000320 5b 2b a5 bc a0 be cf bd b9 86 bb 3d e7 87 41 3e
       -0.020162275 -0.10143781 0.09156556 0.18899499
000330 a4 62 2f 3c 93 9b 8e 3b 2d fd f4 3d d6 86 87 be
       0.01070467 0.004352042 0.11962352 -0.2647006
000340 49 87 3c 3c 9c 94 30 bd a4 f7 ca be 36 ec f9 bd
       0.011506864 -0.043110475 -0.3964206 -0.12203257
000350 b5 1a 3c bd e8 c7 82 3e 13 b0 c0 bd e8 7c 95 3e
       -0.045923907 0.2554314 -0.094085835 0.29196858
000360 07 47 4b be fa a5 88 3d 87 9e d1 3b 82 41 36 be
       -0.19851314 0.066722825 0.0063970718 -0.17798427
000370 53 b6 00 3e a0 14 37 3e cd 9b 3b 3e 0f 57 1c 3e
       0.12569551 0.17878962 0.18321152 0.15267585
000380 46 16 ce 3a 32 81 0e 3e 1c c4 11 3e 3d 6e 75 3e
       0.0015723191 0.13916472 0.14234966 0.23967834
000390 ce 0e 20 3e 11 fb 37 3e b0 7c d2 bd e9 f8 f6 3d
       0.15630648 0.17966868 -0.102776885 0.120591946
0003a0 62 15 5b bb 9e d7 2b 3d 2e ed b5 bd 17 76 7a bd
       -0.0033429493 0.041953675 -0.08883129 -0.061147776
0003b0 45 bd af bd 7c 8c 0c be 40 c2 b1 3e 85 98 78 3c
       -0.08581022 -0.13725466 0.34718513 0.015173082
0003c0 27 30 24 3e d3 a8 f4 be 92 a6 07 be 14 07 40 3e
       0.16033994 -0.47785053 -0.13247135 0.187527
0003d0 fe 87 23 bd 5d ba 05 be 9c 79 cb 3d 95 04 af 3d
       -0.039924614 -0.13059373 0.099353045 0.08545796
0003e0 27 00 15 3e 84 41 03 3e b2 db 4d 3e 49 6c 10 bd
       0.1455084 0.12817961 0.20103338 -0.03525952
0003f0 1c 8c b2 bd 62 58 39 bd e2 a1 b0 3d 74 31 39 bd
       -0.0871813 -0.045250304 0.08624627 -0.045213178

network_body._body_endoder.seq_layers.0.bias f4 [256]
000000 45 70 5d 3c a9 93 ec ba e9 50 da bb 6d 5e 94 3c
       0.013515537 -0.0018049377 -0.0066624773 0.018111432
000010 48 58 06 3c da 28 09 bd 28 7c 8d bc db 05 f9 bb
       0.008199759 -0.033486225 -0.017271116 -0.007599575
000020 c3 9a fa bc 6a 64 b4 3c a3 2e a9 bb cf fd 3b bc
       -0.030591374 0.022020537 -0.0051630302 -0.011474087
000030 c3 08 07 3d 76 6a 86 bb 11 fd 05 ba 20 d4 c1 bb
       0.03296734 -0.0041020466 -0.0005111257 -0.00591518
000040 4a 22 ac 3b 88 f6 8a bc 0b d0 84 bb 42 27 1b bc
       0.005253111 -0.016963258 -0.004053121 -0.009469809
000050 90 7e b1 3c 05 62 c3 bb 60 9e 61 3b 0a da e5 bc
       0.021666795 -0.0059626126 0.0034426674 -0.02805807
000060 63 d0 5f bc 49 73 be 3c 1c 18 65 bb d7 5b 2d bb
       -0.013660523 0.023248332 -0.0034956997 -0.0026452446
000070 93 a9 e1 3a db 26 4d bc bd c8 c9 bc 3e 05 90 bc
       0.0017216675 -0.012521471 -0.024631852 -0.017580625
000080 19 29 f2 bc cb 65 45 bc d4 0f 24 3d 76 3e ad 3c
       -0.029560613 -0.012048195 0.040054157 0.021147948
000090 8f 05 24 bc d5 5a 14 bc 03 29 3c bc b0 c8 6a bb
       -0.010011091 -0.009054859 -0.011484387 -0.0035825185
0000a0 1a f5 1a 3b 23 a0 b1 bb 5b 28 e2 bc eb da df 3b
       0.0023644627 -0.005420701 -0.027607134 0.006831517
0000b0 89 5e 56 bc 69 04 d1 bc 90 6b a2 3c c6 6b c1 bb
       -0.013084062 -0.025514798 0.01982668 -0.00590274
0000c0 70 fd c0 3c d9 6d 0b 3d 7f 7f a7 bb ef 7d 1a 3b
       0.023558348 0.034040306 -0.0051116343 0.0023573597
0000d0 b7 31 2c bc e6 a4 fa ba 03 9f 96 bb d7 af 6e bc
       -0.0105099 -0.001912263 -0.0045965924 -0.014568291
0000e0 4f a3 b0 bc ad ff cc bb 1f 40 27 3c fc a6 16 3a
       -0.021562247 -0.006256065 0.010208159 0.00057469285
0000f0 56 c9 a2 bc 20 df 03 bd 42 98 d8 bb f6 c3 00 bc
       -0.019871395 -0.03219521 -0.0066099474 -0.007859221
000100 78 1f d2 3c b1 9b bf bb c7 f1 53 b9 31 68 cd bc
       0.025649771 -0.0058474173 -0.00020212597 -0.025074096
000110 69 cb 88 bc 19 6a 25 3d 14 1f 33 3d 95 47 2e 3c
       -0.016698556 0.040384386 0.04373081 0.010637184
000120 5b bc 53 bc 76 a4 9c 3c 7e c2 f4 3c 6a 69 cf bc
       -0.012923325 0.01912139 0.029877897 -0.02531882
000130 c8 35 05 bc 9f bf cd b8 13 c5 90 bc ac 61 6c bc
       -0.008130498 -9.810854e-05 -0.017672097 -0.014427584
000140 2e c1 14 3c b8 0c 52 3d 55 13 09 bc e6 e1 0a 3d
       0.009079261 0.05128166 -0.0083664255 0.03390684
000150 43 f3 25 3d 00 74 cc 3c 28 29 de 3c 65 8b 65 bc
       0.040515196 0.024957657 0.027119234 -0.014010285
000160 a4 16 22 3c eb 29 d5 bc 32 93 9d 3b 45 b4 80 3c
       0.009893093 -0.026020965 0.004808807 0.01571096
000170 00 1c 82 bc ed e4 32 3c 35 8a a4 bc e7 7f 0c bc
       -0.015882492 0.010918838 -0.020085433 -0.008575416
000180 03 79 0a 3c c8 f1 6e bc 8b 06 31 3b 20 ef 27 3c
       0.008451703 -0.014584012 0.0027011957 0.010249883
000190 33 6e 81 bc 7a 64 3a 3a b5 c3 08 3d f6 c5 a9 bc
       -0.015799617 0.0007110309 0.033389766 -0.020724278
0001a0 8f ce b1 3a 23 8c ce 3c a4 ec b4 ba 30 53 47 bc
       0.0013565588 0.025213307 -0.0013803435 -0.01216583
0001b0 46 a2 85 3c e9 2c 19 3d 2e 5b 3c bc c1 35 8b bb
       0.01631273 0.037396345 -0.011496348 -0.0042483513
0001c0 a8 ed 07 3d a9 78 b3 ba e1 70 c6 3c 19 b5 cb bc
       0.03318563 -0.0013692576 0.024223747 -0.024866628
0001d0 fe 30 08 3c 25 b4 78 bc f5 e3 05 3d c5 16 cd 3c
       0.008312462 -0.015179669 0.0326881 0.025035271
0001e0 b9 01 7f 3c 8b 6c 16 3c ae 2c a1 3c 4b 59 b3 bc
       0.015564376 0.009181152 0.019674625 -0.021893164
0001f0 a5 e1 3a 3a 84 70 6a bc 89 a2 18 bc 63 14 5c bc
       0.00071289606 -0.014309052 -0.009316095 -0.013432595
000200 99 53 a9 bc 38 d4 a9 3a 77 8c ca bc ea d7 a8 bc
       -0.020669745 0.0012956923 -0.024725182 -0.020610768
000210 fe b9 ee 3c 74 23 d5 3b 87 d8 97 bc cb bd 93 bb
       0.029141422 0.0065044705 -0.018535865 -0.004508709
000220 73 ab 6f 3d 10 60 c8 3c e3 75 58 bc a9 6e 21 bc
       0.058513116 0.024459869 -0.0132117 -0.009853044
000230 45 48 c8 bc a4 3c 88 3b 38 ab af 3c 52 cb 02 3d
       -0.024448523 0.0041576196 0.021443948 0.031932183
000240 cf 28 f1 3b 4a b4 f5 3a ee 18 01 bb a3 82 f9 bc
       0.007359601 0.0018745747 -0.0019698697 -0.0304578
000250 ef f9 ef 3c 1b 15 e3 3c 46 c7 dd bc bf ce 60 bc
       0.029293982 0.027720025 -0.02707256 -0.013721167
000260 21 6f bd bc f5 a7 9f bc e0 4d b1 bb 00 f8 91 3c
       -0.02312428 -0.019489268 -0.0054108948 0.01781845
000270 fd c0 35 3c 98 ab dc bb 92 a8 84 bc 40 ba d0 3b
       0.011093375 -0.0067343228 -0.016193662 0.006369859
000280 4d 79 9f 3a 59 43 f7 3c 36 3d d2 bb 43 9a c1 3c
       0.0012166888 0.030183481 -0.0064159883 0.023633128
000290 33 d5 f7 3c ee f5 37 bc fb 42 c2 bc 87 5d 4d bc
       0.030253028 -0.011228068 -0.02371358 -0.012534506
0002a0 b7 59 c6 3b b4 1b 9a 3c d0 bd 03 3c a0 f5 92 bc
       0.0060531753 0.018812038 0.00804086 -0.017939389
0002b0 91 72 82 3c a1 b6 30 3d 98 9e 04 3c 67 b1 89 3c
       0.01592377 0.04314292 0.008094452 0.016808225
0002c0 ce cc fd 3c c7 23 3d 3c 49 f0 f9 3a 80 ca 88 3c
       0.030981448 0.0115441745 0.0019068803 0.016698122
0002d0 82 72 85 3d 6a 96 8b 3c c2 0d 7f 3c c5 3d 52 bc
       0.06515981 0.017039496 0.015567245 -0.01283211
0002e0 e4 db ff ba 1a 69 23 bc 2f aa 8e bc 97 03 0e 3d
       -0.0019520489 -0.009973789 -0.017415134 0.034671392
0002f0 85 fb 47 3c 34 d1 0d 3c a5 d0 4a 3d c3 f3 d7 3c
       0.012205963 0.008655835 0.049515385 0.026361352
000300 f8 72 bb 3c 84 72 df 3a b5 a3 8b ba 30 c6 40 3c
       0.02288197 0.0017047678 -0.0010653647 0.011766002
000310 92 8b a0 bc f2 0b 6d bc 59 44 e0 bb ec 1a 13 bd
       -0.019597802 -0.01446818 -0.006844085 -0.035914347
000320 df fb bd ba 50 8b eb 3c 83 b4 0c bb 2b 9d 53 bc
       -0.0014494619 0.028752953 -0.0021469898 -0.01291589
000330 22 ac 34 3d bd 3b 9c 3c bc b2 eb bc 33 7e 84 bc
       0.04410947 0.019071454 -0.02877175 -0.016173458
000340 ea d2 93 3b b9 46 35 3c ec fb ca ba eb a9 88 bc
       0.004511227 0.011064225 -0.0015486456 -0.016682586
000350 66 43 9b 3b 5e 43 54 3b 6c 61 a6 bc 9b b3 d9 3c
       0.004738259 0.0032388787 -0.020310126 0.0265749
000360 0c b9 7d bc 34 28 98 bb 44 54 2a bc 0c e2 7f bb
       -0.015486013 -0.0046434645 -0.010396067 -0.0039044647
000370 a8 0a 9a bc af 04 4f bb 3b d3 1f bc 4a 94 b9 3c
       -0.01880391 -0.0031588485 -0.009754951 0.022653718
000380 c4 d0 c7 3c a8 64 f0 3b ac 89 90 3a c5 81 11 3b
       0.02439154 0.007336218 0.0011027358 0.0022202593
000390 0c 42 23 3d dd cf 79 bc 4a 0b 13 3c 71 85 8c 3c
       0.03985791 -0.015247312 0.0089748595 0.017153474
0003a0 29 14 79 bc 92 bc 9d 3c 0d 0f 66 3c ec a6 b1 bc
       -0.01520256 0.019254956 0.014041674 -0.02168604
0003b0 5a 89 25 bc 7a c2 c9 3c 51 69 11 bc 00 5e a6 bc
       -0.010103548 0.024628866 -0.008875207 -0.020308495
0003c0 24 0c 59 3c 2e 66 eb bb 68 46 24 bc d3 84 54 3b
       0.013247523 -0.0071838116 -0.010026552 0.0032427802
0003d0 e7 b2 0a 3a c5 86 b1 bc be 75 37 bc f8 95 e8 bc
       0.0005290941 -0.021670708 -0.0111975055 -0.028391823
0003e0 5a c7 2a bb 9b 01 66 3c 09 78 1f 3c 93 81 f3 3c
       -0.0026058764 0.014038469 0.009733208 0.029724872
0003f0 c3 db 39 bc 5b 5f d3 3c 57 7e 80 3a ee f9 53 bc
       -0.011343899 0.025802305 0.0009803277 -0.012938006

network_body._body_endoder.seq_layers.2.weight f4 [256, 256]
000000 56 c0 00 3d b4 75 ec bc a9 19 72 bd ac 77 b0 bc
       0.031433426 -0.028864719 -0.059106503 -0.021541439
000010 a3 2b 15 3d ff ca 99 bd e0 a0 a5 bc cd df b6 bd
       0.03641857 -0.075094216 -0.020218313 -0.08929405
000020 66 21 cd bd 63 2e ea 3b 41 ba bf 3d 31 cb 2d bd
       -0.10016136 0.007146643 0.09361697 -0.042430107
000030 da ef 30 3d f0 8a a0 bc d6 06 7b bd 25 ab 96 bd
       0.04319749 -0.0195975 -0.061285816 -0.07356862
000040 b7 ad ce 3c fd 32 20 bd c4 94 39 bc 0b 95 f9 bd
       0.025229318 -0.039111126 -0.011326972 -0.12186631
000050 b2 b1 bb 3d ed 55 29 bd 8e 35 a8 3d 63 af ed 3c
       0.09164752 -0.04134171 0.0821334 0.029014295
000060 bf 4f e0 bd a4 c2 0e be fb 48 c6 3d cd 8e 98 3d
       -0.1095271 -0.13941437 0.09681889 0.07449112
000070 b5 1d 2f 3d 50 ce d3 3b 12 8f 37 bd 44 a7 4c 3d
       0.04275294 0.0064638034 -0.044814177 0.049964204
000080 c2 50 53 3d a5 d1 39 3d da 67 ea 3d a1 8c 85 3d
       0.05159069 0.04536595 0.11445589 0.065209635
000090 b6 e5 5e 3d 66 42 12 3c e5 a9 4b 3b 3a 63 37 3d
       0.05441829 0.008926963 0.0031076607 0.044772364
0000a0 bb 0f 1c be c8 80 67 bb 6f 8c a7 3c ab 15 65 bd
       -0.15240376 -0.0035324562 0.020452706 -0.055928867
0000b0 fd 97 d5 bd f8 99 98 bd 66 03 8e bd 10 57 57 bc
       -0.1042938 -0.07451242 -0.06934242 -0.013143316
0000c0 4a f9 b0 3d 72 ad 91 3d 71 7d fe bc 79 14 82 bc
       0.08641298 0.0711316 -0.031065674 -0.015878903
0000d0 3a 99 f3 3a 24 f9 da 3c 19 a3 97 3d f9 6c 74 bd
       0.0018585094 0.026730128 0.07404155 -0.059674237
0000e0 43 ba d9 bd 82 bb bc 3d 40 29 d4 bd 74 97 67 3b
       -0.1063123 0.09215452 -0.1035943 0.0035338076
0000f0 11 c0 b6 bc 25 a5 f2 bc ce 09 8f bd c5 95 e5 bc
       -0.022308381 -0.029619763 -0.06984292 -0.028025517
000100 68 dd 8f bd 56 75 c0 bd 65 23 01 3e b5 40 0e bd
       -0.07024652 -0.0939738 0.12611158 -0.03472968
000110 1b 11 41 3c 63 fc ce 3d 32 db 3c 3c 16 a3 b1 bc
       0.011783863 0.10106733 0.01152687 -0.02168421
000120 b4 0d 02 be ed 3e b2 bc 54 c0 8f 3d 80 6f f2 bd
       -0.1270054 -0.021758521 0.070191056 -0.11837673
000130 c0 55 a3 bd be 6e 8a bd fb 78 13 3d 09 d2 d6 bb
       -0.0797534 -0.06759404 0.036004048 -0.0065558
000140 68 e0 ed 3d e7 39 37 3d fc f9 3c 3c 72 a2 b6 bc
       0.11615068 0.044732954 0.01153421 -0.022294257
000150 2f a0 61 3d 52 79 7a 3c c2 f9 5c bd 3b 6d 39 3d
       0.055084404 0.015287714 -0.053949125 0.045270186
000160 82 ea ce 3d 84 83 92 bd 1c 4e 09 3d 76 17 4e bd
       0.101033226 -0.07153991 0.033521757 -0.050315343
000170 1f ab d3 bd 3f 21 91 bc 57 0e 41 3c 89 fe e8 bd
       -0.10335373 -0.017716048 0.011783204 -0.11376674
000180 31 d1 69 3d 21 06 18 bd 87 bb e6 3d f7 bb 54 bc
       0.057084266 -0.03711522 0.11266237 -0.012984267
000190 f7 a3 2c 3e ba 11 2a 3c cd 60 5a bd 79 92 8c bd
       0.16859423 0.010380203 -0.053314973 -0.06863875
0001a0 f0 79 3b 3d 82 a4 9f bd 28 92 c7 3c 95 7c 6c 3d
       0.045770586 -0.07795049 0.024361685 0.057736
0001b0 c2 bc a6 bc 73 ef 0c 3c bd 4e 87 bc 30 62 70 3b
       -0.020353679 0.008602011 -0.016517038 0.0036679618
0001c0 9d 86 b7 bd 30 28 0e bd 67 10 2e 3e a5 d0 65 bd
       -0.08961222 -0.034706295 0.16998444 -0.056107182
0001d0 6e dd d9 bd db d7 82 bd 2c 8e 33 bd 4b ab 9b 3d
       -0.106379375 -0.063888274 -0.043836758 0.07601031
0001e0 62 50 7b 3b e8 2d d4 3d 47 b6 ac bc 01 d7 ba bc
       0.0038347472 0.103603184 -0.02108301 -0.0228076
0001f0 76 8c f9 3d 1f 9f a9 bd 10 0e e7 bd fa 0d 8c b8
       0.12184994 -0.08282303 -0.11281979 -6.6783236e-05
000200 b2 11 0c bc 5a 67 aa 3d e0 52 87 bb 32 d4 19 3d
       -0.008549141 0.08320494 -0.0041297525 0.03755588
000210 d3 40 e2 3c e8 de d1 3d 9e 81 25 bd eb 9f b6 3d
       0.027618801 0.10247594 -0.040406816 0.08917221
000220 da 91 0c bd 20 cf 22 3d 01 56 a6 bc cc 75 f9 bc
       -0.034318782 0.03974831 -0.020304682 -0.030451678
000230 15 76 81 bd a9 1a c9 3d 51 c5 95 3d e6 4b 88 3d
       -0.063213505 0.09819538 0.07313026 0.066551015
000240 87 4d ea bd 2f 8b e8 bb 82 ae 31 bc 2d 50 21 3d
       -0.114405684 -0.00709667 -0.010844829 0.039383102
000250 c7 16 ac bc 55 dd a6 3d 43 84 c1 bd 1a 90 91 bd
       -0.021006955 0.081476845 -0.09449055 -0.07107563
000260 24 29 37 bd 9b d4 53 3d ad 76 e6 bc 77 b4 23 3d
       -0.04471697 0.05171643 -0.02813276 0.039967027
000270 fa ed df 3d 5e 7c 07 3a df 57 d7 3d 3f 0b eb bb
       0.10934062 0.00051683735 0.10514807 -0.0071729715
000280 23 66 fd 3d 55 34 61 3c e2 12 63 bd ec 77 38 3d
       0.12372997 0.013745387 -0.05543793 0.04503624
000290 f5 89 3d 3d 5c c4 c8 bd 9a 2d e2 bd ec 71 c6 bc
       0.046274144 -0.098030776 -0.11043854 -0.024224244
0002a0 fc 8e 92 b9 d4 68 bb 3b ca fc 50 bd f1 d7 41 3d
       -0.00027953822 0.0057192836 -0.05102233 0.04732508
0002b0 31 3d 0f bd 69 d6 93 3d b0 48 cf 3c 5f aa c9 3d
       -0.034970466 0.0721863 0.025303215 0.09846949
0002c0 bf df 0f bc 08 ee 06 3d 61 a9 81 3d 0f 26 d5 3c
       -0.008781373 0.032941848 0.063311346 0.026019124
0002d0 78 4d 9e 3c 1f 09 aa 3d 9e aa 19 bd 45 90 69 bd
       0.01932405 0.08302521 -0.03751623 -0.05702235
0002e0 24 79 f8 bc d8 7c b1 bd a4 15 35 3d 5b 6c 50 bd
       -0.030331202 -0.0866639 0.04421009 -0.050884586
0002f0 6e 28 0d 3d 3e cc 99 3d 50 ac 87 3b 3c 19 0c 3e
       0.034462385 0.07509659 0.0041404143 0.13681501
000300 ae 7b b0 3d a4 5c e3 bd 26 54 e8 3d 96 e5 1c 3d
       0.0861734 -0.11101654 0.11344175 0.038304888
000310 9d eb 05 bd c1 c7 cc 3b f1 2e 6b bd eb ae 46 bd
       -0.0326954 0.0062493985 -0.057417814 -0.04850666
000320 f8 6e bd 3d 42 2f 21 bd 88 1a f2 bc 14 d9 e7 bb
       0.09249681 -0.03935171 -0.029553667 -0.0070754383
000330 dc 5c 9e bd e6 a9 8d 3b 68 b6 02 bc b9 be 59 bd
       -0.07732555 0.004323232 -0.007978059 -0.053160403
000340 a9 3c 04 3d 55 19 a3 3d 2c 46 93 bd 31 4e 6a 3c
       0.032284413 0.07963816 -0.071911186 0.014300869
000350 8a b0 22 3e 41 af a3 bd a8 a7 ac bd 03 75 85 bd
       0.15887657 -0.079924114 -0.084304154 -0.06516459
000360 a1 31 c6 bc dc 24 9d 3c f4 dd c2 bc 2b bf 03 bd
       -0.024193587 0.019182615 -0.023787476 -0.032164734
000370 62 bf 3e bd bd bc 02 bd 07 b8 8e bc 00 4a c0 3b
       -0.046569236 -0.031918276 -0.017421735 0.0058681965
000380 1d d6 94 bd 36 ce 21 3a b5 9c 13 bc f4 ed 21 3d
       -0.07267401 0.00061723904 -0.00900953 0.03953357
000390 46 c0 a1 3d 53 40 ba bb 91 47 74 3a a8 55 55 3d
       0.078980014 -0.0056839376 0.00093185256 0.05208364
0003a0 72 ae 2b bd 74 13 e9 bc cc 95 29 3c ce 48 c3 3d
       -0.04191441 -0.028451659 0.010350656 0.09535371
0003b0 14 c0 84 3c f2 17 b3 3d 11 31 3c be 31 c2 52 bc
       0.016204871 0.087448016 -0.18378092 -0.012863682
0003c0 10 7a ff 3d c5 66 cb 3c 19 02 18 bc c1 04 81 3b
       0.124744534 0.024829278 -0.009277844 0.0039373343
0003d0 50 36 4f 3c a8 5d 05 bb 88 f1 c1 bd 8d 26 57 3d
       0.012647226 -0.0020350013 -0.094698966 0.052527
0003e0 03 51 5f bd ca 4e da bd ba 24 24 be 56 75 36 bd
       -0.05452062 -0.10659559 -0.16029635 -0.044545494
0003f0 5d 13 11 3d 3e 2a f5 3d b9 18 a1 3c 89 84 8c 3d
       0.035418857 0.11970948 0.019665109 0.068612166

network_body._body_endoder.seq_layers.2.bias f4 [256]
000000 6d 5f e0 3c 6a 89 90 bc 56 43 d4 bb cc 5a ef 3b
       0.027389253 -0.01764365 -0.0064777536 0.007304525
000010 db 64 b3 bb 88 88 9d bc 92 4e d7 3c 6d d7 03 bc
       -0.0054746694 -0.019230142 0.026282582 -0.008046967
000020 78 c9 66 bc 09 80 15 3c 52 b7 5b 3c b1 fa 01 3d
       -0.01408612 0.009124764 0.013410406 0.03173322
000030 b5 d3 33 bc 19 61 33 3c fe 8d 27 bc 2c 5f b6 bb
       -0.010975768 0.010948443 -0.010226725 -0.0055655446
000040 44 26 06 bc d8 41 4c bc 0c 90 1c 3d 4a 5d 8d 3c
       -0.008187834 -0.01246687 0.03822331 0.017256398
000050 ec 8c af 3b 93 da b8 3b cc 96 3b b9 4d c4 37 3c
       0.0053573754 0.0056412905 -0.00017889886 0.011216235
000060 c5 73 63 bc a1 be 24 3c 81 79 24 bc 98 9e 29 bc
       -0.013882582 0.010055215 -0.010038734 -0.010352753
000070 84 31 f5 bb af fc 48 bc ca 40 13 3c 68 b9 c2 ba
       -0.0074827094 -0.012267276 0.008987615 -0.0014856281
000080 02 73 9f 3c b2 77 a1 bc b9 12 23 bc a1 d3 27 3b
       0.01946402 -0.019710395 -0.009953194 0.0025608318
000090 bc d3 26 3a 5d 14 5f 3c 7a 99 1e bc d6 7b 99 bb
       0.00063639483 0.013615695 -0.009680146 -0.004683952
0000a0 50 9c 21 bc 61 63 23 3c 19 1a c1 3b 72 f3 d2 3c
       -0.009863928 0.009972424 0.0058930037 0.02575085
0000b0 a7 d2 d9 3a 6b c4 c6 bc 01 ba 31 bc 9b 17 ea bb
       0.0016618565 -0.024263581 -0.010847569 -0.0071439273
0000c0 4e 80 aa bc 3f 5b ba ba 61 23 5e bb 8d 82 b7 3c
       -0.020813134 -0.0014217867 -0.00338956 0.022401119
0000d0 79 04 09 3b a7 f8 0d 3b 45 09 55 3a 5f d6 64 3c
       0.0020907207 0.00216631 0.00081266864 0.013967126
0000e0 36 c4 79 bc f5 34 76 bc db e0 89 bb 53 fd 8a bc
       -0.015244534 -0.015027274 -0.004207713 -0.016966498
0000f0 29 c5 3b bc 0c 9a 2a 3c c9 3e 96 3a 66 4c 84 3c
       -0.011460581 0.010412704 0.0011462803 0.01614971
000100 b6 64 7e bc 57 0d 0c bc dd ff b4 bb af c4 33 3c
       -0.015526941 -0.008548102 -0.0055236653 0.010972186
000110 87 fc ff 3c c3 06 0b 3d 05 3a 8a 3c 43 10 45 bc
       0.031248344 0.033941995 0.016873369 -0.012027803
000120 77 0a 85 3c 97 68 2b bc 72 d8 84 bb 0f 1d 17 bc
       0.016240342 -0.010461948 -0.0040541226 -0.009223237
000130 d0 a0 f7 bc 9a 63 4d 3c ec 31 56 bc 04 6f ad 3c
       -0.030228049 0.012535954 -0.013073426 0.0211711
000140 cb 28 92 bc 12 34 18 3c 6a 45 14 3c cc 8d 01 3d
       -0.017841717 0.009289758 0.009049753 0.03162937
000150 ee 36 29 3c 71 4c 96 bc 7e 99 44 3b e5 cf a7 bb
       0.010328038 -0.018346997 0.0029998715 -0.0051212185
000160 ae 0e 35 bc 27 87 e8 3c d9 71 21 bc 15 92 0b 3d
       -0.011050863 0.028384758 -0.009853804 0.03407486
000170 5e ad 97 bc d6 5c 93 bb fb 5a be bc ff ea ac 3b
       -0.018515285 -0.004497151 -0.023236742 0.005277037
000180 8d 2a d4 bb 19 ed 4b 3c 5a 92 e3 bc 8e a2 87 bc
       -0.006474799 0.012446665 -0.027779747 -0.016557004
000190 c8 22 8a 3a e2 a9 30 bb cc ef 84 bc 5a 8d 5d ba
       0.001053893 -0.0026956727 -0.016227625 -0.0008451544
0001a0 ec 50 32 bb 46 62 62 bc 51 72 9f 3c 99 bb 00 3b
       -0.0027208878 -0.0138173755 0.01946369 0.0019643067
0001b0 34 b1 bb bc 5e 61 c2 bc 93 e2 48 bc f7 72 b3 3c
       -0.022911645 -0.023728069 -0.012261051 0.021905405
0001c0 b8 cf 85 bc 3d 19 af 3c 50 46 53 bb 0b ee 24 bc
       -0.0163344 0.02137434 -0.0032237954 -0.0100665195
0001d0 c4 17 e5 bc 03 dc c6 3b 42 eb 8b ba 78 59 03 3c
       -0.027965434 0.006068708 -0.0010674971 0.0080169365
0001e0 5f 3e 6d bb 35 35 4f bc 34 31 d7 3c c5 2a 78 bc
       -0.0036200506 -0.012646963 0.026268579 -0.015146916
0001f0 0c 88 b3 3c 6e 88 b1 3c 23 93 4e bc cf 39 fb 3c
       0.021915458 0.0216715 -0.012608322 0.030667214
000200 8d 60 40 bc 60 70 a3 bc 5d 51 33 bb c0 06 f0 3c
       -0.0117417695 -0.019951046 -0.0027361729 0.029300094
000210 e7 f9 2e bb b3 45 c5 3b 4b 5b 93 bc d0 96 5e 3c
       -0.0026699246 0.0060202717 -0.017987868 0.013585761
000220 c4 e7 e2 ba 1e 89 40 bb 68 d1 bc bb 9c 80 8a 3c
       -0.0017311503 -0.0029378603 -0.005762268 0.016907029
000230 6f 7a a3 3b 98 e6 50 bc 24 8c e4 bc e9 63 03 bc
       0.0049889605 -0.01275029 -0.027898856 -0.008019426
000240 38 9c 48 bc 24 53 62 bc 21 59 94 bb cc 1d 46 3c
       -0.012244277 -0.013813768 -0.0045272266 0.012092065
000250 44 59 c2 3c 65 35 b4 bc 7a 13 98 bc 8f fb d4 3c
       0.023724206 -0.021998117 -0.018563975 0.025998859
000260 13 92 a3 bc 3f 68 1f bb 9a f4 c4 bb 7d c3 f4 bb
       -0.019967115 -0.002432361 -0.006010604 -0.007469593
000270 a3 55 0b 3b fa eb 52 3c 20 fa 01 bb f5 61 6c 3c
       0.002126076 0.012873644 -0.0019832924 0.014427652
000280 68 82 ea 3a 54 00 32 3b 05 59 12 bb 04 80 94 3b
       0.0017891647 0.002716084 -0.0022330892 0.004531862
000290 1a 09 5e bc 09 9f cf 3c 02 4a 15 bc 0c ac f5 bb
       -0.013551975 0.025344389 -0.009111883 -0.007497316
0002a0 73 a3 ad bc d6 a3 c1 bb 28 0d 69 bc f5 29 a8 bc
       -0.021196103 -0.0059094233 -0.014224328 -0.02052782
0002b0 27 b3 5c 3b de 1e 8a bc 2a 9b b4 bc 9e f5 47 bc
       0.003367612 -0.016860422 -0.022046644 -0.012204556
0002c0 04 d3 6a bc c9 6b d3 bc 18 0c 69 3c dd 5b 7b bc
       -0.014332537 -0.025808232 0.014224075 -0.015341726
0002d0 21 78 32 3c d5 f1 49 bc a4 c1 07 3c 6a 3f 24 3c
       0.010892899 -0.012325724 0.008285914 0.010024885
0002e0 eb bf b1 bc c8 fd b9 3c bd 88 61 bc 5b b3 b2 3c
       -0.021697959 0.02270402 -0.013765511 0.021814039
0002f0 01 2a 16 bc c4 85 51 3c b4 fa 1a 3b 3e b6 cb ba
       -0.009165288 0.01278824 0.0023647966 -0.0015541983
000300 73 2a 25 3c 5a 03 af bc 6d 3a 0f 3c eb 40 10 bc
       0.010080921 -0.021363903 0.008741957 -0.00880454
000310 e3 5a 2c bb e2 ff e3 bb c6 7a 87 3c 0f da 26 bb
       -0.002629929 -0.006957994 0.016538035 -0.0025459563
000320 6a e8 cf 3a f9 dc 4a bc 16 fb 6d 3b a6 23 0a 3c
       0.0015862111 -0.012381786 0.003631299 0.008431351
000330 4d 20 46 bc a8 d3 96 3c 9f e5 d2 3b b3 c9 31 3c
       -0.012092662 0.018411472 0.0064360644 0.0108513115
000340 8c d9 a3 3c a4 4f 4b bc 1a 58 97 bb 37 b8 2b bc
       0.020001195 -0.0124091245 -0.004618657 -0.010480932
000350 ba 95 0c 3b ab bf 75 bc 3b cf 97 3c 0a 79 9d bc
       0.0021451549 -0.0149993105 0.018531432 -0.019222755
000360 9a 11 ab 3b b0 39 ea bc 15 f5 49 3c 92 8b 42 bc
       0.005220604 -0.02859196 0.0123264985 -0.0118740965
000370 9f 79 6f bc 44 4f a0 3c 4c 07 e4 3a 3c 84 4c bc
       -0.014616399 0.019569047 0.0017397194 -0.012482699
000380 b1 1b fa 3c 21 4a c9 bc cc 6a c9 bb a0 ef 62 3b
       0.030530782 -0.02457148 -0.0061467644 0.003462769
000390 cb fc bc 3b 9b 12 06 bc 65 be f6 3c a9 c4 9a 3c
       0.00576744 -0.008183147 0.030120084 0.018892603
0003a0 06 06 7b bc ae 62 41 bc f9 7a 8d bc 14 39 9f bc
       -0.01532126 -0.011803312 -0.017270552 -0.019436397
0003b0 d5 73 86 bc f3 7a 43 bc 9b 14 0a bc 6d a6 c2 b9
       -0.016412655 -0.011931169 -0.008427764 -0.0003712656
0003c0 60 a7 25 bc 36 e4 9d 3b 02 90 bd bb 14 89 d8 bc
       -0.010110706 0.0048184646 -0.0057849893 -0.026432551
0003d0 3d 1b 83 3b 78 b0 b1 3c a4 e2 b5 3c aa c8 ba 3b
       0.00400105 0.021690592 0.022202797 0.0057001906
0003e0 4c f7 1a bc 15 1c a2 bc 17 91 b9 3b 80 b6 90 3b
       -0.009458374 -0.019788781 0.005663048 0.004416287
0003f0 a4 35 db 3a 7d 97 2a 3c af 3d f0 bb dd 11 c5 bc
       0.001672436 0.010412094 -0.007331572 -0.02405637

action_model._discrete_distribution.branches.0.weight f4 [2, 256]
000000 6e b6 ac bc a8 24 84 3c a7 57 f3 3c 44 f6 f1 bb
       -0.021083083 0.01613076 0.029704882 -0.0073840935
000010 de ed 03 3c bc 92 bf 3c 2f 28 53 bc f4 f2 9b 3c
       0.008052317 0.023385398 -0.0128879985 0.019036748
000020 30 21 14 3c 13 b7 a1 bb a9 2e 9f 3b 8e d3 64 bc
       0.009041116 -0.004935154 0.0048578572 -0.013966454
000030 55 4f a4 3b 40 af b6 3b de 61 72 bb fe e4 ab bb
       0.00501434 0.0055750906 -0.0036984603 -0.005245804
000040 b1 c0 98 3c a2 1e 77 3c de 2a f5 bc 88 73 60 bb
       0.01864657 0.015082987 -0.029927667 -0.003424855
000050 c1 7f 09 bc 38 44 84 bb ef 89 44 3b 7a 9b 19 3b
       -0.008392275 -0.0040364526 0.0029989441 0.0023438619
000060 29 29 43 3c 5e 3d 88 3c 67 b6 98 3a 16 c8 a0 3c
       0.011911669 0.016630825 0.001165104 0.019626658
000070 3c 98 18 3b 4f b2 19 3b 26 0f c9 bb 45 31 9c 3b
       0.0023284098 0.0023452227 -0.006135839 0.0047666156
000080 90 2a 25 3c 64 6a 0a 3d a4 f0 a6 bb 2c be ee 3c
       0.0100809485 0.03379287 -0.0050946046 0.029143415
000090 ce a7 9d 3c aa ae 81 bc 29 b9 63 39 2b c7 df b9
       0.019245055 -0.015830357 0.00021717385 -0.00042682266
0000a0 f8 64 bd 3c ce 72 19 3b 32 fb 0a bc 91 34 00 bd
       0.023119435 0.0023414376 -0.008482741 -0.03130013
0000b0 b5 37 1d bb 90 d7 1d 3c 0f 80 63 3c 9e 3d e4 3c
       -0.0023989503 0.009633914 0.013885512 0.027861413
0000c0 a8 90 9d 3c 13 5a 5e 3c 84 43 45 bc dd 91 72 3b
       0.019234017 0.01357128 -0.012040023 0.003701321
0000d0 84 b6 e4 bb 7c 5c 0f 3c 9f 59 17 3a 3d e6 fa ba
       -0.0069797654 0.008750077 0.00057735475 -0.0019142103
0000e0 5a 27 e9 38 a4 5d 9d 3c 02 7d 39 bb 2d 60 b4 3c
       0.000111176356 0.01920969 -0.002830327 0.022018516
0000f0 a2 83 f4 3c 88 19 18 bc 90 2b 07 3c 17 3c b8 bb
       0.029847924 -0.009283431 0.008250132 -0.0056223976
000100 c1 2c a3 3c d7 66 f5 3b 78 4f ef bb f4 dd 12 bc
       0.019918801 0.007489066 -0.0073031746 -0.008964051
000110 9b 70 da bc 86 bb c3 bc 80 ff 0f bc 22 4b c8 3c
       -0.026665023 -0.02389313 -0.008788943 0.024449889
000120 99 27 0a bc 19 d7 17 3b 63 e2 0b bc 6c ab 92 3c
       -0.008432292 0.002316898 -0.0085378615 0.017904006
000130 da c6 1c 3c f2 72 b8 bb 6b 7a 4a 3c 9c 65 cb bb
       0.009568894 -0.005628937 0.012358288 -0.006207181
000140 3b e9 22 3c d5 f5 f7 bb e8 ef 0c bc 61 48 d8 bc
       0.009943302 -0.0075671473 -0.00860212 -0.0264017
000150 58 7c 6a 3a 54 90 db 3c a2 cb 1b 3c d5 53 52 39
       0.000894492 0.02680222 0.009508999 0.0002005839
000160 6b 0e b6 3c 2a 79 77 bc 09 a0 1a 3c 33 0d c8 bc
       0.022223672 -0.015104571 0.009437569 -0.024420356
000170 6c ca f5 3c 7a 20 27 bb 63 b5 b6 3a be fa 90 bb
       0.030003749 -0.0025501535 0.0013939556 -0.004424422
000180 d5 e5 40 bc 16 e4 47 bc 03 9a a4 3c 99 bc 05 3d
       -0.011773546 -0.012200376 0.02009297 0.032650564
000190 2a 64 31 bc d6 d0 89 bb 98 62 be 3b 81 ce 06 3c
       -0.010827104 -0.0042058034 0.005810093 0.008227945
0001a0 10 41 80 bb f5 c5 96 3c da 4c a8 bc 1a 7a 0d bc
       -0.003914006 0.01840494 -0.020544458 -0.008635068
0001b0 f1 2b 92 3b fb 06 e5 3c e1 f8 d8 3b 0f 55 a4 3c
       0.0044608046 0.02795743 0.0066214656 0.02006009
0001c0 16 23 c4 ba 5f 1b 5b bc 02 8c 30 b9 ae 54 b9 3c
       -0.001496407 -0.013373225 -0.00016836825 0.022623386
0001d0 ba 1f b4 3c ac be 9b bc 95 a9 e1 bb 90 8e da bb
       0.021987785 -0.019011818 -0.006886671 -0.006669827
0001e0 e4 b6 c2 3b ca 83 a7 3a 17 47 95 bc 03 61 d5 3c
       0.0059422124 0.0012780365 -0.018222375 0.026047235
0001f0 1a 01 be 3b ee f5 b3 ba 31 c1 dc 3c bc 9b 15 bd
       0.005798471 -0.0013729909 0.02694759 -0.036525473
000200 7b f0 c3 3c a1 67 da 3c 35 88 41 bb e5 1b 6e bc
       0.023918381 0.026660742 -0.0029530649 -0.014533018
000210 64 6d df ba 85 83 02 bc 8c c3 48 bb 96 65 92 bc
       -0.0017046151 -0.007965927 -0.0030634133 -0.017870706
000220 6a 86 ac bb 3b f5 8d 3b 84 c1 80 3b 13 45 74 bc
       -0.005265047 0.0043322123 0.003929319 -0.014909047
000230 82 9b e8 bb e3 f8 b4 3c 20 5d a2 3c 89 0a 16 3b
       -0.007098616 0.022091335 0.019819796 0.0022894463
000240 5f a8 73 3c 74 0e f3 3c 5b 70 a5 bb 00 70 d0 bb
       0.014871686 0.029669978 -0.005048794 -0.0063610077
000250 13 6a 4f bb e0 0b 83 3c 8d 8f 8f 3c a6 ad b5 bb
       -0.0031648919 0.015996873 0.017524505 -0.005544382
000260 43 d0 be bb 95 ac b5 bb e3 88 da 3a aa 36 a5 3b
       -0.0058231666 -0.005544255 0.0016672875 0.005041917
000270 ad 07 9c 3b d8 31 ed bb fb d1 a5 bb af 5e 64 bb
       0.004761657 -0.007238608 -0.005060432 -0.0034846475
000280 b6 12 09 bc f0 ed 58 3b 8f 8d cd 3b 26 66 cf bb
       -0.008366277 0.0033100806 0.0062729786 -0.0063293157
000290 8f ef 89 3c d6 d7 09 bc 54 7d 96 3a 08 98 01 b7
       0.016837863 -0.008413276 0.0011481442 -7.724397e-06
0002a0 5f 9c bc 3c 26 f5 a8 3c 59 60 90 3c 98 14 34 3c
       0.023023782 0.020624708 0.017624067 0.010991238
0002b0 ad 34 17 bc 20 76 c6 3c 26 b3 83 3c 75 a3 65 3c
       -0.0092288675 0.024226248 0.016076636 0.014016022
0002c0 2b f3 ec 3c 28 57 b5 3c 6a ed 81 bc 8b 4b a1 3c
       0.028924545 0.022136286 -0.015860278 0.019689342
0002d0 0d 26 c1 3b ad a1 77 bb 21 e2 c2 ba fb cf 82 bc
       0.0058944286 -0.0037785575 -0.0014868417 -0.015968313
0002e0 6f 2d b0 3c 10 58 16 bc 12 fb 41 3c b4 f7 83 bc
       0.02150604 -0.009176269 0.011839645 -0.016109325
0002f0 04 d6 8d ba d5 05 8a bc b9 4e 83 3a d4 16 04 bc
       -0.0010821228 -0.016848484 0.0010017968 -0.008062083
000300 b2 fa a9 3a d8 b1 a1 3c e6 53 24 3b 12 e3 b2 3c
       0.001296839 0.019738123 0.0025074421 0.021836791
000310 d4 7a 01 bc e8 2b 91 bb af ef 53 ba a7 bd 01 3b
       -0.00790282 -0.004430283 -0.0008084727 0.001979688
000320 fa ea d7 3b 76 ba 57 3c b3 58 ff bb 29 06 53 bb
       0.0065892907 0.013167014 -0.007792556 -0.0032199717
000330 f2 ed be 3c 4d 13 34 bc 1e 62 e6 bb b1 ab 89 b8
       0.02330682 -0.01099093 -0.0070307394 -6.564649e-05
000340 5f e7 ff bb 81 32 f1 3c 8d 88 ce bb 98 2b dc 3b
       -0.007809564 0.029443027 -0.006302899 0.006719064
000350 42 5c 35 bb af 56 b6 3c d7 25 0d bc fa 7c bd 3c
       -0.0027673398 0.02225813 -0.008614979 0.023130883
000360 83 8b 8b 3b d8 d9 b5 3c 93 6d 29 bc de 91 04 bb
       0.0042585745 0.022198603 -0.010341066 -0.0020228545
000370 87 51 63 3c 1f 85 50 bc 6c 21 27 3b ff 6c a6 3c
       0.013874418 -0.012727051 0.0025502099 0.020315645
000380 19 7c be bc 93 6a ed 3c 1b ef 7b 3b ee e1 66 3b
       -0.023252534 0.028981483 0.0038442079 0.003522988
000390 63 eb 03 3c 9f f8 ff b9 15 ab 10 3b 4a 1b f2 bc
       0.008051726 -0.00048822627 0.002207463 -0.029554028
0003a0 0d d2 f1 39 67 d1 94 3c 9a df 4d 3c 05 13 da 3c
       0.00046123602 0.018166257 0.012565518 0.026620397
0003b0 81 22 8c 3c 2c fe 0e bb 29 be e1 bb 99 c8 b0 bb
       0.017106296 -0.0021818979 -0.006889124 -0.005395007
0003c0 fd f3 01 3c 0b b7 c5 bb eb 7f b8 ba 7a 05 26 3c
       0.0079317065 -0.0060337833 -0.0014076208 0.010133142
0003d0 12 f5 d3 bb 71 bc 92 3a 01 30 b1 bb f4 ab 82 3a
       -0.0064684236 0.0011195076 -0.005407334 0.0009969459
0003e0 78 cb e7 3c 1c d7 14 3d 5b 23 5a bb c3 ba aa 3c
       0.028295264 0.036337957 -0.0033285234 0.020841008
0003f0 89 9f b1 3b 95 09 05 bc 21 6b 57 39 60 bc 91 3c
       0.0054206294 -0.00811996 0.00020543906 0.01779002

action_model._discrete_distribution.branches.0.bias f4 [2]
000000 c1 dc ad bc bf dc ad 3c
       -0.021223428 0.021223424

action_model._discrete_distribution.branches.1.weight f4 [3, 256]
000000 0c 61 03 3b b3 f0 8a 3b 19 4e 4f 3a 51 7b 0f bc
       0.0020046858 0.0042401194 0.0007908061 -0.008757428
000010 82 1c 68 3c 5e 40 9d 3b 48 4c 56 3c a3 0e 84 bc
       0.014166953 0.004798933 0.01307971 -0.01612026
000020 43 4a 4e 3a ba ae be 39 4a a8 c3 3c 77 78 0b 3b
       0.0007869342 0.00036369805 0.023883957 0.002128152
000030 94 4c 6e 3b 1a bc 57 bc 5a 15 5b 3b c0 3a 5a bb
       0.0036361562 -0.0131674055 0.0033429475 -0.0033299178
000040 e1 c9 48 3c 26 15 3b bb 02 ea 20 3c b1 83 90 3c
       0.012255163 -0.002854654 0.009821417 0.01764092
000050 d5 55 82 bb e5 ae f7 3a 4f 83 a8 bb 15 23 94 bb
       -0.003977517 0.0018896727 -0.0051426063 -0.0045207837
000060 cc df 1e 3c 1b 36 9e 3a 5f f1 a1 ba 88 f9 56 bb
       0.009696912 0.0012070568 -0.0012355259 -0.003280254
000070 e6 93 87 bb 3c fb cb bb b7 40 1d 3c ea 40 8c bb
       -0.004137504 -0.006225018 0.009597949 -0.0042801993
000080 29 67 5e bc d7 0b 82 bb 45 68 f3 3b d5 f2 73 bc
       -0.0135744 -0.0039686966 0.0074282014 -0.014889439
000090 d9 80 b2 bb 65 91 e3 3b 2d e0 1a ba c2 d7 01 3c
       -0.0054474887 0.0069448226 -0.00059080386 0.007924976
0000a0 f7 74 02 ba e7 11 e9 39 d7 c9 c6 ba 3b 4f 43 3b
       -0.00049765356 0.0004445456 -0.0015166354 0.0029801864
0000b0 f7 de c3 3a 10 6b 71 3b f7 74 ae 3b 91 78 a3 ba
       0.0014943768 0.0036837496 0.005324002 -0.0012471845
0000c0 04 1a c9 3a 84 63 85 bb 05 ba 04 3c b8 7e ab bb
       0.0015342836 -0.004070701 0.008100991 -0.005233612
0000d0 cf 38 ef 3b 12 47 07 bc e0 1a 7a 3b ae aa a2 bb
       0.0073004733 -0.008256691 0.0038162991 -0.0049641943
0000e0 ce 3f 00 3b 31 d7 35 bc 40 b9 8e b9 05 98 18 bc
       0.001956928 -0.011098669 -0.00027222373 -0.009313588
0000f0 39 9a 8a 3b e9 78 83 3b 96 4b 12 bc 74 aa 0b 3c
       0.0042298106 0.0040122163 -0.008929154 0.008524526
000100 68 e6 10 3a 92 09 cd bb 75 94 e7 3a 65 fd ac ba
       0.0005527497 -0.0062572444 0.0017668145 -0.0013198076
000110 46 45 3e 3c 77 dc 92 3c 17 87 26 3c 64 fd 9a bb
       0.011613196 0.017927391 0.010164044 -0.0047299135
000120 e3 26 d4 3b e3 ad dc ba cf 60 a6 bb b0 d1 4e bb
       0.006474362 -0.001683649 -0.0050774585 -0.003155809
000130 b0 c3 0f bc 00 3f 03 bc 4f 3a 1c 3c 71 29 bc bc
       -0.008774683 -0.008010626 0.009535386 -0.02296898
000140 6e 8d 82 bb 70 b7 0d bb d6 6c ef 3b 76 fe 5e 3c
       -0.003984145 -0.002162423 0.0073066754 0.013610473
000150 6d f9 ca bb a1 a9 9c bb f5 62 ec 3a 56 a8 8a bb
       -0.0061942847 -0.0047809635 0.0018034863 -0.004231493
000160 f2 2b f4 bb e0 11 90 3a 22 1f cd bb 6a 27 b1 3c
       -0.0074515278 0.0010991655 -0.006259815 0.02162524
000170 f6 84 c5 ba 94 62 c6 3b b5 55 8e 3a 22 d1 c1 bb
       -0.0015069533 0.006054232 0.0010859283 -0.005914823
000180 64 2a 25 3c 9a 80 dd bb e7 85 b7 3a 13 e9 15 bc
       0.0100809075 -0.0067597153 0.0014001698 -0.0091498075
000190 67 96 b9 ba f4 54 87 3b cd 84 9c 3b fd e1 19 39
       -0.0014159203 0.0041300002 0.0047765733 0.00014675404
0001a0 d2 26 27 3b 62 3e 1d bc 75 a2 4b 3b c3 3b 4a 3c
       0.0025505316 -0.009597393 0.0031072174 0.01234335
0001b0 e1 20 e6 3b c8 f3 d3 bb 1b 39 bf 39 15 c6 cf bc
       0.0070229624 -0.00646827 0.00036472906 -0.025363008
0001c0 11 52 a7 3b 75 e4 55 3b 99 f9 68 3c d9 1c d0 3a
       0.0051062186 0.0032637392 0.014219665 0.0015877738
0001d0 78 77 5a 3a 2e 6d 4f 3b 91 c9 8b 3a 7c 8c 09 3a
       0.0008333842 0.003165077 0.001066493 0.0005247069
0001e0 69 f9 0a 3c d0 eb 95 bb 9f 32 6d bb 7a 1c 25 3b
       0.008482316 -0.00457523 -0.0036193503 0.0025193975
0001f0 94 ab 71 bc c8 be 24 3a d0 35 ed bb 1f 9d ed 3c
       -0.01475038 0.0006284532 -0.007239081 0.029005585
000200 39 dd d3 ba 46 8d d8 bb 86 ad 97 bb 39 42 c8 bb
       -0.0016163952 -0.006608638 -0.00462884 -0.00611141
000210 e7 1f 60 3c 04 ac 27 bb 3b 6f 5b 3b ab b2 62 3b
       0.013679481 -0.0025584707 0.0033483047 0.0034591358
000220 d8 3b d0 3b 3d ce 95 3b 11 4e 7a bb d9 e8 f7 3b
       0.00635479 0.0045717047 -0.0038193504 0.0075655994
000230 be 4b c3 3b 79 09 cf 3b bf 69 20 bb 95 ef 25 bc
       0.005959957 0.006318268 -0.0024477092 -0.010127922
000240 dd fb c5 3b ce 4a b0 3a 99 ed 03 bc 67 15 09 3c
       0.0060419873 0.0013450028 -0.008052253 0.008366919
000250 89 3b 9a 3c 33 a5 ea bb 67 27 2c bb 92 33 91 3b
       0.018827217 -0.0071608066 -0.0026268603 0.0044311965
000260 ff 03 be bb d2 d8 84 3b 55 7e 56 3c f1 04 f4 ba
       -0.005798816 0.0040541673 0.013091643 -0.0018617195
000270 34 4a d1 bb fe 6c 1b 3a ee d1 51 bc 35 20 ca bc
       -0.0063870195 0.0005929022 -0.012806399 -0.02467356
000280 31 66 26 ba 03 22 21 bb 42 c8 56 3b 99 48 b2 bb
       -0.0006347625 -0.0024586923 0.0032773172 -0.005440783
000290 58 c5 b4 3a ad 44 0f 3b 43 6f 83 3b 44 44 8a 3b
       0.0013791723 0.0021861002 0.004011066 0.0042195637
0002a0 3a aa b8 bb 55 7e 30 3c 57 71 28 bc 30 63 00 bc
       -0.005635527 0.010772307 -0.010280929 -0.007836148
0002b0 6c 93 48 3c 7c d9 4f 3b 21 b8 ae b9 da ee 5a 3b
       0.012242179 0.0031715324 -0.00033325053 0.0033406527
0002c0 b7 ca 03 3b 0b bd 3e 3b 89 c0 ae 3b 58 22 2e ba
       0.002010984 0.0029104378 0.0053330106 -0.0006642691
0002d0 6d 1e ca 3a d8 d7 18 bc 4d 2d ac ba 0a d8 08 3c
       0.0015420445 -0.009328805 -0.0013136059 0.008352289
0002e0 b0 1e 4d 3a 36 22 0f b9 49 1e 45 3b 32 19 97 3c
       0.0007824702 -0.00013650287 0.0030077866 0.018444631
0002f0 00 04 c9 3a b6 b2 f0 bb 9d 36 8c b9 15 b9 ae 3b
       0.0015336275 -0.0073455228 -0.0002674357 0.005332122
000300 27 22 92 ba ac fb b3 3b b2 49 c5 bb 3e b0 4b 3c
       -0.0011149094 0.005492648 -0.006020748 0.012432156
000310 89 79 f7 3b 38 ba d7 bb e8 e8 c7 bb 33 ca 2b bc
       0.00755233 -0.0065834783 -0.0061007626 -0.01048522
000320 e0 60 09 3c c0 62 b2 bb f2 de 90 3b ac 9a e4 bb
       0.008384913 -0.005443901 0.0044211084 -0.006976446
000330 d6 f5 d3 bb 94 07 73 bb 2a 20 3c 3c f5 1b e4 ba
       -0.006468515 -0.0037083374 0.011482278 -0.0017403351
000340 e7 ba 9c b9 89 c6 03 bc 03 18 5c 3b 4b 90 a6 3b
       -0.00029893892 -0.00804294 0.0033583648 0.005083119
000350 49 22 e4 3b 5c 9b c1 3b 26 10 ef 3b 0c 82 53 bc
       0.006962095 0.005908413 0.007295626 -0.012909424
000360 79 c5 f3 bb c3 7b 86 3b df 04 9a 3a d3 1d 1d bc
       -0.007439312 0.004104109 0.0011750719 -0.00958963
000370 9c 76 9a 39 93 0e 89 bc 0c f9 20 3b 80 9e 4e bb
       0.0002946154 -0.016730582 0.0024562506 -0.0031527579
000380 fc 40 7e 3b e4 e6 85 bb 27 dc 0f bc 5e a0 0d ba
       0.0038796058 -0.004086362 -0.008780516 -0.000540262
000390 00 d3 3d 3c fd fa 4c bb 03 19 11 bc 98 ef 6d 3b
       0.011585951 -0.003127753 -0.008856061 0.003630614
0003a0 0b 17 a6 bb 2d c3 31 bc 00 a0 70 bb 97 30 d4 3a
       -0.005068665 -0.010849756 -0.0036716461 0.0016188797
0003b0 21 7f d3 3a 0b 43 87 3b dc df a1 bc 78 cc f2 37
       0.001613591 0.004127865 -0.019760065 2.8943861e-05
0003c0 53 2e 03 bb 2b 2c 11 3c c2 a1 42 bc 03 4f 88 bb
       -0.0020016625 0.008860628 -0.011879386 -0.0041598096
0003d0 0b d1 28 3c e0 2a 60 bc e9 66 a8 3b 72 f0 ca 39
       0.010303746 -0.013682097 0.005139221 0.00038707588
0003e0 cd 03 63 3b 30 7b da 3a d3 76 96 bb e1 6a 8d 39
       0.0034639717 0.0016668793 -0.0045918017 0.00026973247
0003f0 9a de 9a bb f8 81 0d 3c 00 76 9e 3a eb e8 e1 bb
       -0.004726243 0.008636944 0.001208961 -0.006894221

action_model._discrete_distribution.branches.1.bias f4 [3]
000000 1f ae 91 ba 70 ba 10 bc af ab 2c 3c
       -0.0011114514 -0.008833513 0.010538979
