results/skillBoat/boat/boat-18813.onnx (onnx, 339354 bytes, 9 tensors)

discrete_act_size_vector f4 [1, 3]
00000000: 0000 0040 0000 4040 0000 0040
2.0 3.0 2.0

network_body._body_endoder.seq_layers.0.weight f4 [256, 58]
00000000: e904 0bbd dc72 d5bd 3413 bb3d 4f60 0e3e
00000010: 4146 03be 8baf d93d c912 d1bd 7c74 4dbd
00000020: 2bfa 273c 1985 1fbe 076b b6bd e900 883c
00000030: 581c 8ebe 9176 23be e1ad d8bc 75ee 93bd
00000040: 66dc d1bd 9d43 1fbd 7f0f 13bc 0ee6 b1bc
00000050: f8f3 013c ea11 3a3c 0daa 34be 045b 1f3e
00000060: 0f4b f23d 269a 973d 09d9 3ebe a56b cc3d
00000070: cdf8 b63d dbec 003e 2e9b 7a3e f48b 99bc
00000080: 64ae 99bd 342a 633d a4e4 59bd a08a 5d3c
00000090: 2d50 46bd aaec 47bc 5d1d 48be 5799 5abe
000000a0: 5b4d e9bd beca 90be 8853 aa3d f15f 11be
000000b0: 9851 a4bd 7d8c 58bd aecf 413d 7de9 d5bd
000000c0: 3298 5e3d 6e8a 0d3d eaef bcbd 8192 603d
000000d0: eedb ef3d a0a0 163e 008d 22be 878d e43d
000000e0: 98bb 03be 15e7 0bbc 7d8e 28be 100b 243e
000000f0: 2320 c5bc 12e4 5fbe f9b5 d9bc fb27 7cbe
00000100: 5646 533e e8fc bdbc 3aa7 51bd 0806 a13e
00000110: 6654 2ebe 7a0b 4dbe 7563 bd3d 11a1 03bd
00000120: 9fd5 983d 0da9 763d b269 bcbd cd49 483d
00000130: f347 8b3e d0ee a9bd 7be5 00be c4ef 9dbd
00000140: b190 c73d 5ef1 24bd c409 d7bd 1d0e d7be
00000150: 989d 18bd 4656 8abc 5913 27be 9615 42be
00000160: 39db 023e aecc ec3d 2a76 a2bd ea80 71bc
00000170: 8a66 c63d de7a 2a3d a36e ccbc a937 55be
00000180: 7d82 473d 5756 6c3c 4af4 b7bc cf6b d53d
00000190: e53a 30be 33f6 033d 8a0c adbd e08e 05be
000001a0: 39d8 1cbe 21b3 4f3e b6bb 1bbe 0956 d03d
000001b0: c86b 963d 2a5c 9dbd 9f0d 63bd d7ef 943d
000001c0: 0d1d 923c 2877 1a3e 3731 53bd 6f71 87bd
000001d0: e85d a43c b97f 173e 335c 293e 1836 f8bc
000001e0: 1bc7 2d3e 8b52 9c3c a5f4 173e 328b 85bc
000001f0: bd59 863e 3247 aabc 36c7 2b3e 1632 013d
00000200: cc67 e53c 9850 0b3e fc3e 003e 91c6 3a3e
00000210: ce93 433e dddd 85bd bab9 08be 532d 233e
00000220: 1011 343d 78c3 92bd 909c 523c 43f0 333d
00000230: 75bf dcbd ca78 61be 1022 35be 9db3 943c
00000240: 5e2e 26bd df5c 333d ad04 94be 78e2 06bd
00000250: 5d6e 503e 23e6 04be 9482 443e 4879 f6bc
00000260: dcd0 77bd 5731 383c a7b6 e43c a95c 273d
00000270: fd82 513e 15d4 203d f883 dabd b744 01be
00000280: d464 9a3d fa52 cebd def1 47be b05f 0e3e
00000290: d784 77bd 3e06 e7bd f05e 873d c898 17bd
000002a0: 9a9b 8cbd 957a 8dbd 026b 753d 9e53 123e
000002b0: 98e4 af3d 12ef 123d 0a22 843d 5955 aabd
000002c0: 5d2d 8fbd b558 60be 5cd2 11bc ff65 053e
000002d0: a92b a43d 86c1 87bd ad39 cd3d d040 f13c
000002e0: 2220 903c 2aff 693e 852f 3dbd a60c bc3c
000002f0: 9a97 023e a174 c33d 20a6 e2bb eab6 263e
00000300: 200a 16be 2e21 3dbd 46f0 47bd 11b4 30be
00000310: 1b75 89bc c029 0cbd ef05 b33d 916f 2abe
00000320: 27c7 533e 5a01 413d 3416 13bd c068 3dbe
00000330: 8b63 723d 2169 36be 267c 64bd e17d e5bd
00000340: b2a6 13be f275 823c bee2 7abd af3d 98bd
00000350: 4249 90be 10aa d93c 2bec 4abd bbaf 8fbd
00000360: b6e2 f33d 1510 a1bd b28f 5cbe 4765 343d
00000370: 5fe7 1ebe 9bba 00bd 198b 333d 2d85 003e
00000380: f65b b63c 0c33 bb3d 427d 983c 7a2b d03d
00000390: 4f6d 143e 5d8f 153e 591a aabd db99 aabd
000003a0: 2f6f db3d efd9 513e 19f7 cdbd 23c8 6fbd
000003b0: d4de 07bd f781 57be a9b8 713c 6c65 e0bd
000003c0: 3532 75bd a6b3 e53c 32a7 cf3b 9019 173d
000003d0: e1d4 cc3c 3148 5c3d fc76 453e 2377 61bb
000003e0: e008 43bd 8012 253d 7048 1dbe 6df9 873d
000003f0: a492 29bd fd3b b13d 9f7c 3b3e 3410 9b38
-0.03394023 -0.10422298 0.09134522 0.13903926 -0.12819768 0.10629185 -0.10208661 -0.050159916
0.010252516 -0.15578116 -0.089071326 0.016601996 -0.27756 -0.15963198 -0.0264501 -0.072232164
-0.10247116 -0.03888284 -0.0089758625 -0.021716144 0.007931702 0.01135681 -0.17642994 0.15562063
0.118307225 0.07402448 -0.1863748 0.09981469 0.08934174 0.12590353 0.24473259 -0.018743493
-0.075039655 0.05546017 -0.053196564 0.01352182 -0.048416305 -0.012202421 -0.19542451 -0.21347557
-0.113917075 -0.2827968 0.083167136 -0.14196755 -0.08023375 -0.052868355 0.0473172 -0.10444925
0.054344364 0.034555845 -0.092254475 0.054827217 0.1171187 0.14709711 -0.158741 0.11159807
-0.1286453 -0.008538981 -0.16460605 0.16019845 -0.024063176 -0.21864346 -0.02657603 -0.24624626
0.206323 -0.023191884 -0.05118487 0.31449914 -0.17024383 -0.20023909 0.092474855 -0.032136027
0.0746262 0.060219813 -0.09199847 0.048898507 0.2720333 -0.08297503 -0.1258754 -0.07711747
0.097443946 -0.04026925 -0.104999095 -0.42002955 -0.037259668 -0.016886842 -0.16315974 -0.18953547
0.1277894 0.11562477 -0.07932694 -0.014740208 0.096875265 0.04162108 -0.0249551 -0.20822014
0.048708428 0.014424882 -0.022455353 0.104209535 -0.17209966 0.032217216 -0.08449657 -0.13042784
-0.15316857 0.20283176 -0.15208325 0.1017266 0.073447764 -0.076835945 -0.055432912 0.07272308
0.017836118 0.15084517 -0.051560607 -0.066134326 0.02006431 0.14794816 0.16539077 -0.030299231
0.16970484 0.019082328 0.14839418 -0.016301725 0.2624034 -0.020785902 0.16775212 0.031541906
0.028003596 0.13604963 0.12524027 0.1823981 0.19099352 -0.06536458 -0.13352099 0.15935259
0.043961585 -0.07166189 0.01285471 0.043930303 -0.10778705 -0.22018734 -0.17688775 0.018152053
-0.040571563 0.04378974 -0.28909817 -0.03293082 0.203546 -0.12978415 0.19190437 -0.030087128
-0.06050192 0.011242232 0.027919127 0.040859852 0.20460124 0.039264757 -0.10669702 -0.12623869
0.07538763 -0.1007442 -0.19525859 0.1390369 -0.06042942 -0.112804875 0.06609905 -0.037010938
-0.06865616 -0.06908146 0.059916504 0.1428971 0.08588523 0.035872526 0.06451805 -0.0831706
-0.06991074 -0.21908839 -0.008900251 0.1302719 0.0801614 -0.066287085 0.100207664 0.02944985
0.017593447 0.22851244 -0.046187896 0.02295525 0.12753144 0.095437296 -0.0069167763 0.16280714
-0.146523 -0.04617422 -0.048813127 -0.1725619 -0.016779473 -0.034219503 0.08741366 -0.16644122
0.2068144 0.04712043 -0.035909846 -0.1849699 0.059176963 -0.17813541 -0.05578246 -0.1120565
-0.14419058 0.015925381 -0.061251394 -0.0743364 -0.2818089 0.02657035 -0.049541634 -0.0701594
0.11908476 -0.078643955 -0.2153919 0.044041898 -0.15517949 -0.03142796 0.043833826 0.12550803
0.022260647 0.09140596 0.018614415 0.101645425 0.14494823 0.1460547 -0.08305807 -0.08330127
0.10714566 0.20493291 -0.10056896 -0.058540475 -0.03317149 -0.21045671 0.014753499 -0.10956845
-0.059862334 0.028039765 0.00633707 0.036889613 0.025003852 0.053779785 0.1928367 -0.0034403286
-0.047615886 0.040300846 -0.15359664 0.06639371 -0.041399613 0.0865402 0.18309258 7.393994e-05

network_body._body_endoder.seq_layers.0.bias f4 [256]
00000000: 0000 0000 0000 0000 0000 0000 0000 0000
00000010: 0000 0000 0000 0000 0000 0000 0000 0000
00000020: 0000 0000 0000 0000 0000 0000 0000 0000
00000030: 0000 0000 0000 0000 0000 0000 0000 0000
00000040: 0000 0000 0000 0000 0000 0000 0000 0000
00000050: 0000 0000 0000 0000 0000 0000 0000 0000
00000060: 0000 0000 0000 0000 0000 0000 0000 0000
00000070: 0000 0000 0000 0000 0000 0000 0000 0000
00000080: 0000 0000 0000 0000 0000 0000 0000 0000
00000090: 0000 0000 0000 0000 0000 0000 0000 0000
000000a0: 0000 0000 0000 0000 0000 0000 0000 0000
000000b0: 0000 0000 0000 0000 0000 0000 0000 0000
000000c0: 0000 0000 0000 0000 0000 0000 0000 0000
000000d0: 0000 0000 0000 0000 0000 0000 0000 0000
000000e0: 0000 0000 0000 0000 0000 0000 0000 0000
000000f0: 0000 0000 0000 0000 0000 0000 0000 0000
00000100: 0000 0000 0000 0000 0000 0000 0000 0000
00000110: 0000 0000 0000 0000 0000 0000 0000 0000
00000120: 0000 0000 0000 0000 0000 0000 0000 0000
00000130: 0000 0000 0000 0000 0000 0000 0000 0000
00000140: 0000 0000 0000 0000 0000 0000 0000 0000
00000150: 0000 0000 0000 0000 0000 0000 0000 0000
00000160: 0000 0000 0000 0000 0000 0000 0000 0000
00000170: 0000 0000 0000 0000 0000 0000 0000 0000
00000180: 0000 0000 0000 0000 0000 0000 0000 0000
00000190: 0000 0000 0000 0000 0000 0000 0000 0000
000001a0: 0000 0000 0000 0000 0000 0000 0000 0000
000001b0: 0000 0000 0000 0000 0000 0000 0000 0000
000001c0: 0000 0000 0000 0000 0000 0000 0000 0000
000001d0: 0000 0000 0000 0000 0000 0000 0000 0000
000001e0: 0000 0000 0000 0000 0000 0000 0000 0000
000001f0: 0000 0000 0000 0000 0000 0000 0000 0000
00000200: 0000 0000 0000 0000 0000 0000 0000 0000
00000210: 0000 0000 0000 0000 0000 0000 0000 0000
00000220: 0000 0000 0000 0000 0000 0000 0000 0000
00000230: 0000 0000 0000 0000 0000 0000 0000 0000
00000240: 0000 0000 0000 0000 0000 0000 0000 0000
00000250: 0000 0000 0000 0000 0000 0000 0000 0000
00000260: 0000 0000 0000 0000 0000 0000 0000 0000
00000270: 0000 0000 0000 0000 0000 0000 0000 0000
00000280: 0000 0000 0000 0000 0000 0000 0000 0000
00000290: 0000 0000 0000 0000 0000 0000 0000 0000
000002a0: 0000 0000 0000 0000 0000 0000 0000 0000
000002b0: 0000 0000 0000 0000 0000 0000 0000 0000
000002c0: 0000 0000 0000 0000 0000 0000 0000 0000
000002d0: 0000 0000 0000 0000 0000 0000 0000 0000
000002e0: 0000 0000 0000 0000 0000 0000 0000 0000
000002f0: 0000 0000 0000 0000 0000 0000 0000 0000
00000300: 0000 0000 0000 0000 0000 0000 0000 0000
00000310: 0000 0000 0000 0000 0000 0000 0000 0000
00000320: 0000 0000 0000 0000 0000 0000 0000 0000
00000330: 0000 0000 0000 0000 0000 0000 0000 0000
00000340: 0000 0000 0000 0000 0000 0000 0000 0000
00000350: 0000 0000 0000 0000 0000 0000 0000 0000
00000360: 0000 0000 0000 0000 0000 0000 0000 0000
00000370: 0000 0000 0000 0000 0000 0000 0000 0000
00000380: 0000 0000 0000 0000 0000 0000 0000 0000
00000390: 0000 0000 0000 0000 0000 0000 0000 0000
000003a0: 0000 0000 0000 0000 0000 0000 0000 0000
000003b0: 0000 0000 0000 0000 0000 0000 0000 0000
000003c0: 0000 0000 0000 0000 0000 0000 0000 0000
000003d0: 0000 0000 0000 0000 0000 0000 0000 0000
000003e0: 0000 0000 0000 0000 0000 0000 0000 0000
000003f0: 0000 0000 0000 0000 0000 0000 0000 0000
0.0 0.0 0.0 0.0 0.0 0.0 0.0 0.0
0.0 0.0 0.0 0.0 0.0 0.0 0.0 0.0
0.0 0.0 0.0 0.0 0.0 0.0 0.0 0.0
0.0 0.0 0.0 0.0 0.0 0.0 0.0 0.0
0.0 0.0 0.0 0.0 0.0 0.0 0.0 0.0
0.0 0.0 0.0 0.0 0.0 0.0 0.0 0.0
0.0 0.0 0.0 0.0 0.0 0.0 0.0 0.0
0.0 0.0 0.0 0.0 0.0 0.0 0.0 0.0
0.0 0.0 0.0 0.0 0.0 0.0 0.0 0.0
0.0 0.0 0.0 0.0 0.0 0.0 0.0 0.0
0.0 0.0 0.0 0.0 0.0 0.0 0.0 0.0
0.0 0.0 0.0 0.0 0.0 0.0 0.0 0.0
0.0 0.0 0.0 0.0 0.0 0.0 0.0 0.0
0.0 0.0 0.0 0.0 0.0 0.0 0.0 0.0
0.0 0.0 0.0 0.0 0.0 0.0 0.0 0.0
0.0 0.0 0.0 0.0 0.0 0.0 0.0 0.0
0.0 0.0 0.0 0.0 0.0 0.0 0.0 0.0
0.0 0.0 0.0 0.0 0.0 0.0 0.0 0.0
0.0 0.0 0.0 0.0 0.0 0.0 0.0 0.0
0.0 0.0 0.0 0.0 0.0 0.0 0.0 0.0
0.0 0.0 0.0 0.0 0.0 0.0 0.0 0.0
0.0 0.0 0.0 0.0 0.0 0.0 0.0 0.0
0.0 0.0 0.0 0.0 0.0 0.0 0.0 0.0
0.0 0.0 0.0 0.0 0.0 0.0 0.0 0.0
0.0 0.0 0.0 0.0 0.0 0.0 0.0 0.0
0.0 0.0 0.0 0.0 0.0 0.0 0.0 0.0
0.0 0.0 0.0 0.0 0.0 0.0 0.0 0.0
0.0 0.0 0.0 0.0 0.0 0.0 0.0 0.0
0.0 0.0 0.0 0.0 0.0 0.0 0.0 0.0
0.0 0.0 0.0 0.0 0.0 0.0 0.0 0.0
0.0 0.0 0.0 0.0 0.0 0.0 0.0 0.0
0.0 0.0 0.0 0.0 0.0 0.0 0.0 0.0

network_body._body_endoder.seq_layers.2.weight f4 [256, 256]
00000000: c7ea 49bc e44c 5dbc fd56 8f3c 04f7 5abd
00000010: 1501 40bc 4cd3 69bc 9c41 bfbb 952f b3bc
00000020: f860 2b3d 4be1 8d3d a9dd e7bd 1a11 acbd
00000030: c57e f13d decc ce3c 03ab 973d 551f 1f3e
00000040: b748 183e 1aae 2dbd a390 c8bd 5326 863c
00000050: cb4a 093d 4876 743d ed2a ef3c 81c6 d3bd
00000060: 3d77 133d 140b 183e bab8 6fbd e9d3 d63d
00000070: 4d6a 273d 446c a93d 6482 38bd 538a 24bd
00000080: 0671 053c 8988 3b3d 54df 11bd f0d1 ca3c
00000090: 4207 033d f4f1 d2bc b78a 21bd 1ea9 2d3d
000000a0: 3bd3 e83d 11f0 2a3b b39b 14bd c515 09bd
000000b0: af76 023e 46e2 c73d f8ab f6bd 8d29 c7bc
000000c0: 0f34 52bd 5c84 733d 348d 1dbd def5 ddbd
000000d0: 18b2 213d 7ab0 c73c 87af c7bd 33de 343d
000000e0: d370 0fbd 897d 95bc 9289 88bd 5647 a1bd
000000f0: fb8a 283d 2fd4 b3bb 79cc 9cbd 231e 99bc
00000100: 049f 783c 61f4 ddbd 6a92 f3bd b4e3 35be
00000110: 7a18 ee3a 566b 17bd 6f25 5cbd 4f32 1bbc
00000120: 909d 0cbd c054 143d 5c0b afbd b021 d83c
00000130: 2f55 483c 4d3f ba3d a036 d13b 2171 733c
00000140: 8a65 d5bc c25d c3bb 6d64 0b3d eb5a 673d
00000150: 51f1 443d fc5b c53b 201c 963d 3951 b63d
00000160: fd9f 1e3c 3339 9f3c 160f 88bc 7729 a13d
00000170: 668c 083d ecc5 9a3c c69c 98bc 2d67 8dbd
00000180: 8243 19bd 07a1 3e3d 51a3 9dbd 89b0 713d
00000190: b44e 29bd 2ebc 8e3c da5c 39bd f70e 3fbd
000001a0: 9c78 853d 193f 603c 46b4 43bd a963 ccbc
000001b0: 2832 1fbd 494c 1b3d 29fe 653c 46d5 aabd
000001c0: 457e 223d 09a7 ba3d 2ac7 8e3a 860f 5fbd
000001d0: 93da 833c 1780 80bd 2a0b 14bd 913e 5bbc
000001e0: 5a59 b93b a77f ffbc f61f 173c d2c7 3ebe
000001f0: 8232 c8bd 8fbb f83c fd20 1a3d 90f8 383c
00000200: cfc9 7ebd 5718 c03d 023c d7bc 28bd 4c3c
00000210: 9995 c23d 6e2b bb3c ead6 03bd 9484 50bb
00000220: fec7 9f3c cff0 f7ba fc4d 19be 2bd9 25bd
00000230: 4c21 d1bc a635 4cbd 8be8 95bb 660f 22bd
00000240: 14f2 043c eb8b a13c 1259 dabc bf6e 283d
00000250: 98ca 4dbb 1f96 0b3d 9fed 3ebc fc1e 1b3d
00000260: b477 063b 7758 74bd b72b 053d f06f d33c
00000270: 3436 5fbb 6c0e 3e3a f24d 64bd 2896 9a3d
00000280: b6c4 ea3d 47f5 58bd 5ec3 063d 4a43 17be
00000290: 79ba 813d 2b46 02bd bc7e 853a 9fc2 88bd
000002a0: 831f 27bd 3de5 263e 2167 bb3b c293 1abd
000002b0: 76fa e3bd 4e84 89bd d67d acbd a5bb 8fbd
000002c0: 7e33 05bd 6366 bb39 da9e 34bd ee48 5cbd
000002d0: bdcc 743d 8983 dcbd 4d8b fbbd 28cb b43c
000002e0: dcb9 99bc 4dab 163e 5d9d f9bd adb8 20bd
000002f0: 0795 0c3c be66 9abd c780 f43c a65c 8abb
00000300: 2af0 a53d 9780 033e 8545 e5bd 0fe6 0fbe
00000310: b499 3fbd e3fc 923c 0eba cf3c aa66 dd3d
00000320: 3f83 a13d e075 c33d 8157 843d 7398 7bbb
00000330: 3233 6ebd 316d 453d de35 1fbc 6102 643c
00000340: 183f 5b3d 614a 7e3d 214b a8bd 2b66 a33c
00000350: 7150 873d 70c6 16bd 3dc7 80bd 62bf aebc
00000360: 9270 2f3e 3f52 6fbd 8f5f 58bc e143 5b3d
00000370: 403e 02bd 81cf ebbb 49f3 65bd d57f ed3c
00000380: 0d34 91bd 5761 8c3a 3997 a93c 6f9c dc3d
00000390: 0035 303b e019 1a3d b4e4 a4bd 2351 98bc
000003a0: b165 32be c8a9 f43c 8668 933b 958d 9f3d
000003b0: 052d 613d 5c55 1b3d 0ed4 7a3d 71d8 bcbd
000003c0: c6e3 a63d 0112 083d 7397 193d bbb2 fe3d
000003d0: 2fe6 05bd 7ce7 8e3c 3779 953d 9017 5a3d
000003e0: 9ba0 9c3c 1cf1 8fbd 3840 a8bd 37b3 89bd
000003f0: 3e2d 373d 46e7 cabd d17d e4bc fe18 3ebd
-0.012324042 -0.013507102 0.017497534 -0.05345823 -0.011719008 -0.0142715685 -0.0058366787 -0.021873275
0.041840523 0.06927737 -0.11321575 -0.08401699 0.117917575 0.025244173 0.07405665 0.15539296
0.14871489 -0.042402364 -0.09793212 0.016375696 0.033518594 0.059683114 0.029195273 -0.10340596
0.036002386 0.14847976 -0.05852578 0.104896374 0.04087286 0.08272603 -0.045046225 -0.04017098
0.008144623 0.045784507 -0.035613373 0.02475831 0.031989343 -0.025750138 -0.03943893 0.04239761
0.11368414 0.0026083032 -0.0362813 -0.033468027 0.12740587 0.09759955 -0.12044519 -0.024311805
-0.05131918 0.0594524 -0.03846474 -0.10837911 0.039476484 0.024376143 -0.09750276 0.04415722
-0.035019707 -0.018248336 -0.066668645 -0.078749344 0.041148167 -0.0054879407 -0.076561876 -0.018691128
0.015174631 -0.10837627 -0.11893161 -0.17762643 0.0018165254 -0.036967598 -0.053746637 -0.009472444
-0.03432995 0.036213636 -0.085470885 0.026383251 0.012227341 0.09094105 0.0063846856 0.014858515
-0.026049394 -0.0059621045 0.03403132 0.05648319 0.0480817 0.0060229283 0.07329583 0.08902211
0.009681699 0.019436454 -0.016608756 0.07869237 0.03333702 0.018893205 -0.018629443 -0.06904445
-0.037417896 0.046540286 -0.07697166 0.059006248 -0.041334823 0.017423715 -0.045254566 -0.04664513
0.06517145 0.013686919 -0.047779344 -0.024949865 -0.038866192 0.037914548 0.014037647 -0.0834146
0.0396712 0.09113891 0.0010893096 -0.054458164 0.016095435 -0.06274431 -0.03614346 -0.013381616
0.0056564035 -0.031188799 0.009223929 -0.18630913 -0.097752586 0.030362872 0.037629116 0.011289731
-0.06220418 0.093796425 -0.026273731 0.01249627 0.0950119 0.022847857 -0.03218738 -0.0031817304
0.019504543 -0.0018916371 -0.14971155 -0.04049031 -0.025528572 -0.04985585 -0.0045748404 -0.039565466
0.008114357 0.019720038 -0.0266538 0.04112124 -0.0031401273 0.034078714 -0.011653333 0.037871346
0.0020518126 -0.05965468 0.032512393 0.025810212 -0.0034059407 0.0007250074 -0.055738397 0.07548171
0.11463301 -0.05296829 0.03290116 -0.14771762 0.06334395 -0.0318052 0.0010184865 -0.06677746
-0.040801536 0.16298385 0.005719081 -0.03773857 -0.11131756 -0.06714688 -0.08422439 -0.07018212
-0.03251981 0.00035743703 -0.044096805 -0.05378049 0.059765566 -0.10767276 -0.12282429 0.022069529
-0.018765382 0.14713784 -0.12188218 -0.03923862 0.008580453 -0.07539128 0.029846562 -0.0042224703
0.08102448 0.12842022 -0.111949004 -0.14052604 -0.046777442 0.017942851 0.025357272 0.10810597
0.07886361 0.09543967 0.064620025 -0.0038390427 -0.058154292 0.048199836 -0.009717433 0.013916583
0.053526968 0.062082652 -0.08217455 0.019946178 0.0660714 -0.03681034 -0.06288002 -0.021331493
0.17132786 -0.058428045 -0.013206377 0.05353153 -0.031797647 -0.0071963673 -0.056140218 0.02899162
-0.07090006 0.0010710162 0.020701991 0.10772025 0.002688706 0.037622333 -0.08051434 -0.018593377
-0.17421605 0.029866114 0.004498544 0.077906765 0.054974575 0.037923202 0.061237387 -0.092209704
0.08148913 0.033220295 0.03749795 0.12436434 -0.032690223 0.017444365 0.072985105 0.053245127
0.019119551 -0.0702841 -0.08215374 -0.06723636 0.04472088 -0.09907393 -0.027892025 -0.046410553

action_model._discrete_distribution.branches.0.weight f4 [2, 256]
00000000: d745 153a 6ef6 84bb 1c61 16ba 4c3e 9aba
00000010: c5c3 ddba 722d 8abc 6849 e7bb 7b62 b53b
00000020: 7e72 b53b 9dda 51bb b28c 04ba 0013 fd3b
00000030: f736 cf39 93c1 fbbb b1c9 32bc aced 83bc
00000040: 6706 933b 4797 96bb 0094 2e3c f74f adba
00000050: 08b9 683c 8dbc 88bb 7773 dcba 9848 62bb
00000060: d752 0c3b 9fd7 2c3c aa39 423b 837f 913a
00000070: ce77 013c 7862 0abb 03fc f33b bd43 663a
00000080: b7e9 ed3b 9f30 953b d0bf a9bb e3d6 1b3b
00000090: 23a4 213b be0d 023b 52f0 c03a afd3 de39
000000a0: 0cae c23b 537e 3e3c cb68 593c 5eb5 2539
000000b0: 3bf1 2c3b 0a62 82bb 6a25 8a3b fbf3 673b
000000c0: 8271 d4bb a35f 393b c394 1ebb 6680 883b
000000d0: b989 a1ba 4bbf 2a3b 4071 efbb 3786 6f3c
000000e0: bb08 a9bb 5b01 1f3b c38d 1cba 6cf4 163b
000000f0: cd9a 833b 30bd 6d3b 6a25 6e3b 0685 213b
00000100: 0bc2 91ba 9b0b d0ba 2212 463c 0caf 093b
00000110: 6bc7 283c 8f6c 3abb 73fa 0f3c 99cf 98bb
00000120: 97fd 7abc 4d9d b9bb 2f71 e4bb 1207 653c
00000130: ca70 603b 98a4 76ba 4ab5 8c3b 282b dab9
00000140: 40bb 5c3a 14b8 943b 3220 d33a c79a e23b
00000150: 9bdc e43a 9d71 693b e376 2f3c 30b5 a83b
00000160: 7bcf 7b3b b6d0 9eba 28cd aabb 5317 c2bb
00000170: 5263 a13b ffe8 a8bb 40d6 12bb 43d9 b0bb
00000180: 6845 7dbb 9b10 8cbb 67aa 94bb 6aee 5b3b
00000190: ef61 f1bb 9750 f1ba cb7d 7f3b 304c 653b
000001a0: b5be f53b a997 c63b 3cf1 963a a2c3 f83b
000001b0: 337e e03b ab71 a03b e9fd a73b 849a 9f3a
000001c0: 6204 9ebb 8bc7 8ebb f84d 53bb e374 e6bb
000001d0: a5d0 ab3b 10a5 f63b 1ca8 b03b f630 a4bb
000001e0: 7e32 c63b dbda 56bb 6065 7abb f2ec ac3b
000001f0: efff af3b 1f86 c33a 9397 94bb 2b1e 58bc
00000200: 625c eebb 8076 f3ba 9f88 163c 4dc5 c4bb
00000210: 2caf 8e3b d411 c1bb 673c 12bb fae9 86b8
00000220: 9f2f a53b 7bc5 433b 80dd d93b 674e cfb9
00000230: c345 b4bb fe31 8c3b bfc3 a2bb 98fb 96bb
00000240: 4bc7 b839 a3e7 2739 43d2 f13a cece 3039
00000250: 6097 663c 21e2 88b9 c5b0 fdba da0a 39bb
00000260: 81c8 caba 1e2b 183a 350a 523c 970c 54bc
00000270: 5bd7 6b3c 2133 b03b 55c6 61bb 0982 383a
00000280: 72f4 8fbb 9b8a 763b 1624 05bb 45fc 883b
00000290: 37f8 64bb 53a1 c73b 8faf da3b 5097 50bc
000002a0: 9509 253c af1e 203b d431 c0bb e8f7 b83a
000002b0: ef24 35bc bf0a 77bb 1824 ab3a c8e3 113c
000002c0: 8a1d 58bc 352a e53b 9a20 11bc 23b7 03bc
000002d0: 99f5 0b3c 5a47 5d3b e3d8 0a3b 7768 303c
000002e0: 1d1c 933a 4af7 823a 0bc6 193b 4dbb d3bb
000002f0: 7be6 6d3c be54 caba 9d1b e83b fde5 97bb
00000300: 462e 233b 2afb 453b 3c83 b9bb 979f 4fbc
00000310: add4 d83b bd98 c33b 6042 d53b 9afd 55bb
00000320: 2a67 6ebc b50a 0fbb e0a6 52bc 69d2 c23b
00000330: 9471 ab3b 6b17 d93b c063 9a3a 23c0 1d3b
00000340: 08b2 c9bb 03a0 4eba 0bc9 17bc 1197 83bb
00000350: 8305 b93a cb34 0c3b 152f 133b 3386 f2b9
00000360: 380b e5ba a413 a4ba fa16 753c 2cc7 81bb
00000370: 56ed b7bb df81 02bc a3f0 3bba 0fe1 a7b9
00000380: 7f30 dcbb 4b53 00bb cbe8 88bb e847 163c
00000390: eb00 fdba b4ed 86bb 4f3f 36bc f3c1 013c
000003a0: 9756 6ebc b755 e03a 7814 67bb 07fe 85b9
000003b0: f8a0 45bb 862c 8db7 e215 1abc 0926 41bb
000003c0: cac7 fcbb 7802 dabb b358 87bb a80e 753a
000003d0: d28a d9ba 6534 0a3c ca1d 4a3c 27c5 693b
000003e0: d2e9 04bb df3e 9eb9 3974 223c 83b3 a5bb
000003f0: 8f72 6b3b df81 42bb c254 ebb9 bf96 953b
0.0005694306 -0.004057697 -0.00057365163 -0.0011767833 -0.0016919306 -0.016867373 -0.0070583113 0.0055354214
0.00553733 -0.0032021173 -0.00050563656 0.0077232122 0.0003952307 -0.007682988 -0.010912345 -0.016104542
0.004486847 -0.0045956704 0.010655403 -0.0013222684 0.014204271 -0.0041728676 -0.0016819079 -0.0034528133
0.002141168 0.010549455 0.0029636421 0.0011100624 0.007902099 -0.002111582 0.0074458136 0.00087838975
0.007260527 0.004552915 -0.0051803365 0.0023779206 0.0024664483 0.0019844617 0.0014720059 0.00042500856
0.005941158 0.011626798 0.0132696135 0.00015803191 0.0026388902 -0.0039789723 0.004215886 0.0035393226
-0.0064832577 0.0028285764 -0.0024197556 0.004165697 -0.001232437 0.002605396 -0.0073072016 0.014619402
-0.0051585115 0.0024262283 -0.0005972052 0.002303387 0.0040162564 0.0036276095 0.0036338218 0.0024645939
-0.0011120451 -0.0015872599 0.012089284 0.0021008877 0.010301451 -0.0028446054 0.008787739 -0.0046634194
-0.01531925 -0.0056645037 -0.0069715003 0.0139787365 0.0034246915 -0.00094086817 0.0042940723 -0.00041612354
0.00084202364 0.0045385454 0.0016107617 0.0069154236 0.0017460765 0.0035620697 0.010709497 0.0051485524
0.0038423229 -0.0012116644 -0.005212445 -0.0059231906 0.00492517 -0.0051547284 -0.0022405535 -0.0053969934
-0.0038646106 -0.0042744405 -0.004536915 0.0033558854 -0.007366411 -0.0018410858 0.003898489 0.0034988038
0.0074995407 0.00606056 0.0011515985 0.0075916806 0.0068509816 0.004896363 0.005126704 0.0012176787
-0.0048223 -0.0043572835 -0.0032242518 -0.007032977 0.005243378 0.007527001 0.005391134 -0.0050107194
0.0060484996 -0.0032784257 -0.0038207397 0.0052772695 0.005371086 0.001491729 -0.0045346706 -0.013190786
-0.0072741965 -0.0018574744 0.009187846 -0.0060049654 0.004354378 -0.005892018 -0.0022313835 -6.4331995e-05
0.0050410773 0.0029872346 0.0066487193 -0.0003954053 -0.0055014803 0.0042784205 -0.0049671824 -0.004607629
0.000352437 0.00016012652 0.0018449504 0.00016861709 0.014074177 -0.0002610842 -0.001935505 -0.0028235228
-0.0015471132 0.0005804765 0.012819816 -0.012942455 0.014394606 0.005377189 -0.003445049 0.000703842
-0.004393154 0.0037619236 -0.0020315698 0.0041804635 -0.0034937987 0.0060922294 0.0066737602 -0.012731388
0.010073085 0.0024432351 -0.005865315 0.0014111968 -0.011056169 -0.0037695614 0.0013057021 0.008904405
-0.013190636 0.006993557 -0.0088578705 -0.008039269 0.008542442 0.0033764453 0.0021186403 0.010767094
0.0011223588 0.0009991911 0.002346399 -0.006461537 0.014520283 -0.0015436632 0.00708337 -0.004635571
0.0024899407 0.003020952 -0.0056613963 -0.0126723265 0.00661715 0.0059691356 0.0065081567 -0.003265238
-0.014550963 -0.002182645 -0.012857169 0.005945493 0.0052320454 0.006625106 0.0011778995 0.0024070821
-0.006155256 -0.000788212 -0.009264241 -0.0040158113 0.0014116023 0.0021393772 0.0022458483 -0.00046257823
-0.0017474657 -0.001251806 0.014959091 -0.0039605107 -0.0056130094 -0.007965534 -0.00071693416 -0.00032020404
-0.0067196484 -0.0019580896 -0.0041781417 0.009172417 -0.0019302642 -0.004117692 -0.011123492 0.007919776
-0.014547012 0.0017115389 -0.0035260003 -0.00025557002 -0.003015576 -1.6829243e-05 -0.009404631 -0.0029472134
-0.0077142464 -0.0066531263 -0.004130447 0.0009348192 -0.0016597158 0.008435343 0.012336204 0.003567049
-0.002028097 -0.0003018295 0.009915405 -0.0050568 0.0035926437 -0.002967946 -0.00044885842 0.0045650895

action_model._discrete_distribution.branches.0.bias f4 [2]
00000000: 0000 0000 0000 0000
0.0 0.0

action_model._discrete_distribution.branches.1.weight f4 [3, 256]
00000000: 7392 9d3b c822 a73b 4033 9bbb 83cf 7c3a
00000010: 4fb4 8fbb eeed 22bb d896 edbb 353f 15bb
00000020: 3b7a 473c 02d8 1d38 9bdc baba dbec 213c
00000030: 72ed 9abb 552b 32bc 60af d5bb 9997 8e3a
00000040: d88d 9c3b 2849 0d3b 88c9 3ebb 17aa 18bc
00000050: 70f5 60bb 4982 92ba 4299 8cbb 1382 823b
00000060: f2a9 9bbb dda2 583c 5919 113c f410 933c
00000070: e78a a6ba 42bb 0e3c 5345 523c 8ed5 82bc
00000080: e029 ce3b 6a20 1d3b 5864 4abc 75e0 ab3b
00000090: b13b c7b9 53bf d7bb 231b d1bb 47c7 4fba
000000a0: 9893 6a3c 506c 593b 6307 e939 7d65 a43b
000000b0: f84b ed3b ef80 153c 9837 743a cfe5 d73b
000000c0: ff46 8d3b 3900 b5bb dfa6 20bc 5bcc 3ebb
000000d0: 64d7 403b dae4 41bc 8e16 a4bb ff63 f2ba
000000e0: 4d1e 71b9 9346 ac39 a5cc a8bb 7962 b7ba
000000f0: 6904 40ba 3e35 30bc 030c a8ba 0a92 37ba
00000100: c908 013a 9318 d93a 2d10 d93a 60ce e23b
00000110: aef9 9eba 7e05 2a3b 3f46 38bb fc88 14bc
00000120: 1b39 9fbb ef03 21bc eaab 883a d372 013c
00000130: 02d0 70ba 9cd7 833b 7fe7 3eb9 a2a0 883a
00000140: 2701 153b 4aba dbb9 9a25 3bbb 1ae6 24bb
00000150: a527 e13b 2570 edb9 d07d c4bb 0f5a 8a3b
00000160: e8fb fd3a 8229 0039 7392 adb8 f780 6cbb
00000170: 5dac 54bc 6272 debb f73c 90ba 7ad4 033b
00000180: a56d 203a bb77 85bb 3ad3 dbba 3b23 df3b
00000190: c3a2 7ebb 5d23 a63b 4447 bbb9 afd8 2fba
000001a0: 8db4 d2bb 34b3 23bb a452 adbb 3bbe fa3a
000001b0: affb 12bc bb6c 733c 5a3c c23a 6bb9 06bc
000001c0: 25c5 3f3c 7fc5 c5ba d534 86ba ff38 5d3c
000001d0: d0a6 fcb9 058b 5dbc 23e4 d83b 002e b5bb
000001e0: f23b d8bb af02 a6bb 3b1a 823a 8e72 8d3a
000001f0: de45 c137 e932 cb3b 6c29 38bb f35d aabb
00000200: 3238 7e3c f3c3 983b 0d6d 7bbb 5f9d 643b
00000210: f383 27bc 7629 c03b f301 c93b 4e40 1c3b
00000220: 5369 a5bb 122a 5f3b 0d79 e0bb 5520 1fbb
00000230: 325f 6cbb 8a01 28bc 07af 4c3a bda3 f03a
00000240: 009a 213b d760 c9bb 4368 373c a2ef 1bbb
00000250: 5dc4 25bc e0e3 f8bb c22d 63bb 6302 37bc
00000260: 068c 0f3c ed66 3f3c 6069 403b 10a8 e7ba
00000270: 53d7 19bc fc95 233b 1311 643c 97d9 bdbb
00000280: 4a3b 07bc d0fb d6bb b3e7 4238 8773 7d3a
00000290: 7e79 363b 00f4 57bc 2a8c 613b 5745 c33b
000002a0: 937f dcbb f2f6 f8bb 2329 ae3b e9c3 3fb9
000002b0: 63e4 4eba c3fc d0bb 6607 983b 97e4 993a
000002c0: 9c92 063b d031 413a fa3e 773b 9434 a53b
000002d0: e3fb bbbb 4201 0fbc 063c 0a3b eccb 3a3a
000002e0: 95fb c43b ab9f 1abb dc7d 093b 177b ba3b
000002f0: 3d7b e3ba 5be1 ae38 9217 cabb 43f5 523c
00000300: 9106 b0bb aaf6 e8ba a232 93bc 30ab c8bb
00000310: e245 eabb dfca d43b 1ba7 8aba a37b b83b
00000320: e80a 93b9 daef 923b 43e2 debb 8cda 80bb
00000330: ae55 493b 2b56 183b 4810 4539 6718 c83a
00000340: 555f 983b a2de fbba 876f 67bc 0be2 30bb
00000350: ba1b 4abb 8df8 cb3a 94ba 4bbb 450d f9bb
00000360: 9b79 efba 4bf0 0eb8 a540 f43b f3f8 74ba
00000370: 385d 58bb 2c4d caba 2a69 a03b 7953 a33b
00000380: 1658 04bb 1af0 793b 0bcf 8fba 139a 873c
00000390: 4946 b2bb d08c 4b3b 5707 da3b 8b3c bb3a
000003a0: b734 12bc 08f0 483c 5966 4abc 3b02 133b
000003b0: b573 003c 8a2d 1bbb 0fed ac3a ad1d 6dbb
000003c0: 6d89 0bbc 2735 1dbc 5a75 cf3b 0df0 68ba
000003d0: 2244 413a 17c9 cb3a ce81 9dbb a7e9 a0bb
000003e0: 9b85 53bb 7540 e8bb ffa7 d4bb e3a7 acbb
000003f0: 8793 a2bb fe75 abbb f2b9 e6bb d7eb eebb
0.004808718 0.005100582 -0.004736334 0.0009643959 -0.004385508 -0.0024861055 -0.007250648 -0.002277327
0.012175138 3.763289e-05 -0.0014256419 0.009883131 -0.0047280127 -0.010874589 -0.0065211505 0.001087892
0.0047776513 0.0021558497 -0.0029111821 -0.009317896 -0.003432598 -0.0011177744 -0.0042907307 0.003982791
-0.0047504837 0.013222423 0.008856141 0.01795242 -0.0012706191 0.008711638 0.012833911 -0.015970971
0.006291613 0.002397562 -0.012353025 0.005245263 -0.0003800071 -0.006584087 -0.006381409 -0.0007926118
0.014317416 0.0033176132 0.00044446727 0.005016981 0.007241722 0.009124978 0.00093161454 0.0065886746
0.004311442 -0.005523708 -0.00980541 -0.0029113505 0.0029425258 -0.011834348 -0.0050075715 -0.0018492936
-0.00022994839 0.00032858978 -0.0051513487 -0.0013991139 -0.0007324876 -0.010754881 -0.0012820963 -0.00070026575
0.00049222686 0.001656311 0.0016560607 0.0069215745 -0.0012128854 0.0025943215 -0.0028118042 -0.009065863
-0.0048591024 -0.009827598 0.0010427211 0.007900911 -0.0009186269 0.0040235054 -0.00018206051 0.0010423849
0.0022736283 -0.0004190973 -0.0028556348 -0.0025161565 0.006871181 -0.00045287717 -0.0059964433 0.0042221616
0.0019377442 0.00012222494 -8.276561e-05 -0.0036087611 -0.012980548 -0.006788538 -0.0011004497 0.002011566
0.0006119854 -0.004073111 -0.0016771324 0.0068096197 -0.0038854338 0.0050701336 -0.00035720516 -0.00067080086
-0.0064302147 -0.002497864 -0.0052893925 0.001913018 -0.008971139 0.014857466 0.0014819012 -0.008222918
0.011704718 -0.0015088766 -0.0010239134 0.013502358 -0.0004818947 -0.013521914 0.006618993 -0.0055291653
-0.006598943 -0.005066238 0.000992603 0.0010791586 2.3039927e-05 0.0062011373 -0.0028100861 -0.005199188
0.015516328 0.004662031 -0.003836456 0.003488384 -0.01022433 0.0058643175 0.0061342656 0.002384204
-0.005047956 0.0034052175 -0.006850368 -0.0024280746 -0.0036067483 -0.010254273 0.00078080635 0.0018359345
0.0024658442 -0.0061455774 0.0111942915 -0.0023793955 -0.010117617 -0.007595524 -0.0034664725 -0.011170003
0.0087614115 0.011682254 0.0029359683 -0.0017673988 -0.009389716 0.0024961224 0.013920086 -0.005793761
-0.008253882 -0.00656078 4.646899e-05 0.0009668399 0.002784341 -0.013180733 0.003441582 0.0059591937
-0.006729075 -0.0075977976 0.0053149625 -0.00018288162 -0.00078923086 -0.006377788 0.004639554 0.0011741099
0.0020534163 0.00073697884 0.0037726746 0.005041668 -0.0057368143 -0.008728327 0.0021092906 0.00071257236
0.006011436 -0.0023593705 0.002097956 0.005690943 -0.0017355453 8.338942e-05 -0.0061673606 0.012875858
-0.0053718765 -0.0017773707 -0.01796848 -0.0061239228 -0.007149444 0.0064939107 -0.0010578366 0.005629973
-0.0002804615 0.004484159 -0.006801875 -0.003932303 0.0030721235 0.002324472 0.00018793449 0.0015266062
0.0046500363 -0.001921613 -0.014125711 -0.00269902 -0.003083928 0.0015561745 -0.003108655 -0.007600459
-0.0018270494 -3.407923e-05 0.0074539953 -0.00093449577 -0.0033014547 -0.0015434376 0.004895349 0.004984316
-0.0020194105 0.0038137496 -0.0010971738 0.01655296 -0.0054405075 0.0031059273 0.006653707 0.0014285011
-0.008923701 0.012264259 -0.012353503 0.002243175 0.007840087 -0.0023678266 0.0013193208 -0.0036181018
-0.008516652 -0.009595192 0.006331128 -0.0008885868 0.00073725183 0.00155476 -0.0048067337 -0.004910666
-0.003227568 -0.007087762 -0.0064897533 -0.005269037 -0.0049614343 -0.0052325716 -0.0070412094 -0.007291298

action_model._discrete_distribution.branches.1.bias f4 [3]
00000000: 0000 0000 0000 0000 0000 0000
0.0 0.0 0.0

action_model._discrete_distribution.branches.2.weight f4 [2, 256]
00000000: c396 a3ba 951a bd3b 6547 d33b 9321 00bb
00000010: 3f66 0d3b 4d48 c0bb 32bc 053c 14f9 23bb
00000020: 08c7 b93b 9363 193b 9bb2 8bbc b310 793b
00000030: f6e2 3b3c 7e0d 883a 1068 68bb 0aea 623b
00000040: d2d7 633b 3580 683b 409e 15bc 6300 f13b
00000050: 709f ec3a 077a 773a 029f f4ba 9fa5 823b
00000060: 1df1 66ba 6f17 29bc 5d23 5f3b 6294 e03b
00000070: 9571 c838 8a08 533c 0c0d 0e3b bf0b 02bb
00000080: 850f 493b 5d7d fd3b dada f13b 6c29 92bb
00000090: e7e5 163c ff3c a63b ab8d 27bc 33d6 7a3b
000000a0: 0f09 f33b 7dbc feba 395a 36ba 3219 22bb
000000b0: f6cb 043c 2ed1 9a3b 166b bf39 10ab b5bb
000000c0: b15e 0bba 5a03 32ba 7f59 d63b 310a 023b
000000d0: 4211 603b 2d21 c73b fbc6 fc3b c718 82bb
000000e0: 36af 85bb cc8c c6bb 5a57 31bc 0d7b 853b
000000f0: 8199 9fbb aa90 d9ba d12b b5b9 9ce6 34ba
00000100: e9f5 8c3b 987b 25ba e8d6 d73a 5aa7 6d3b
00000110: ce5f 32bb 4d9f a13a 95f5 7fbb 3563 a9bb
00000120: ff06 afbb 9102 bebb 121d dd3b d3d5 163c
00000130: 3fca bdbb 7ee7 2c3c 11e9 c7bb 3717 48bc
00000140: f80a 9cbb 800f 72bc e2ef 52bb 2f83 beb9
00000150: af86 fabb 8670 c63b 05a5 dfbb 0231 d139
00000160: fb78 9a3b 4df2 78bc 0079 febb 4814 4cbb
00000170: db31 0bbb 07d8 f33b 838c 953b 3d49 193c
00000180: 1d24 99bc ca18 58bb 9e49 953b e74a adbb
00000190: 67cd c2ba 11fb c03b 78dd 5eba 6f56 25bb
000001a0: 2d63 4338 28f3 12bb 5dc9 203c 534a 8a3a
000001b0: 9f19 2a3b 569f b13b 8eba 45bb 95f8 13bb
000001c0: 82e2 643b aeaf 443b 8231 79bb 322f 4ebb
000001d0: 73dd 6c38 a712 683c 9df6 783c 92aa c73a
000001e0: 1af5 e5ba 7730 9b3b 53d1 cb39 95d0 643b
000001f0: 278c d03a 4b4e 36bb 5ebb 92bb ce47 403c
00000200: ab0f b2ba 6f98 66ba 7f3a 913b fd12 fe3b
00000210: 5115 4a3b 024c 3cbc f4d1 a6ba 3d24 b1bb
00000220: 1276 c3b9 8b17 083c 070f 293c 9a15 4d3b
00000230: 2173 20ba f801 3fba 3a3d 1a3c a276 b43a
00000240: 1bd1 46bc a5d6 4ebb dc18 04bb ea92 06bc
00000250: 95eb 4c3b 277f 3b3b 42b4 55bb 507b 3bbb
00000260: d284 b9bb 6bbd 93bb fb6e 34bb 619a a5bb
00000270: 3239 33b9 50d8 d23a 8f8f 1d3c 27be 663b
00000280: 2389 61bb c3fc 123c 9f16 6bba e702 18bc
00000290: cc7c 87bb 2342 553a 9f11 313b c4c3 21bb
000002a0: 80a8 5dbb 9271 dd3b 2b1d 66ba 2a71 ad3b
000002b0: 2391 c43b 0138 8e3a 258c 793b 0b43 b63b
000002c0: 816c 153c ab43 a3bb 12de 11bc 4f63 c3bb
000002d0: 7b1e 9d37 72ee a73b efb8 0cbb 4fa2 28bb
000002e0: b8a3 efb9 cdfe f2bb f496 86bb eae7 cb3b
000002f0: 5c56 01bb e705 08ba d25c 45bb 19b4 b0bb
00000300: 2bed 62bc 9391 573b 88f3 98bb ab34 6cbc
00000310: 7ba6 f5b9 32af 7c3a 3d38 5fbb af65 cbbb
00000320: 63fc 49bb 8431 843b d12f c739 3579 53bc
00000330: 65e0 863c 7f99 e33b a88b 60bc 47f2 073c
00000340: 60bf 463b 6084 a1bb c9fb 3c3a df51 18bc
00000350: 7897 f5bb 1c0e 9238 2329 b5bb 054c 1f3c
00000360: 2fb4 3d3c a096 c3bb 903b 7d3a fb2d a53a
00000370: f350 c6bb 581b 85bb 3245 44bc e3f5 5d3b
00000380: 851e 79bb 033a 093c a6ac 003c ff9b 3ebc
00000390: 4c38 29bc ef35 a5bb b858 7eba 73f4 a93b
000003a0: 6a7b f53a 2b93 7abb 21d5 333b b036 d1ba
000003b0: a6a1 9fb9 fffd 9cbb b5af 10bc 2654 bcb9
000003c0: 3399 5aba 4728 4f3b 6f1b bbbb 95fa 6c3b
000003d0: 6424 1ebb 7872 f23b 571a afbb dbd1 7c3b
000003e0: 67b2 e33b a23d f93b c3ed c93b 27ac 08bb
000003f0: b5a8 d9b8 f248 13ba 038c c53b 07bf 523b
-0.0012480844 0.005770991 0.00644772 -0.0019551262 0.0021575836 -0.005867994 0.008162545 -0.0025020288
0.0056694783 0.0023405298 -0.01705294 0.0038004338 0.011467686 0.0010379998 -0.0035462417 0.0034624361
0.003476609 0.0035476808 -0.009131968 0.0073547824 0.0018052887 0.0009440486 -0.0018663111 0.0039870287
-0.00088097324 -0.010320528 0.0034048178 0.006853626 9.5578995e-05 0.012880454 0.0021675257 -0.0019843427
0.0030679416 0.0077358917 0.0073808255 -0.0044605043 0.009210086 0.0050731893 -0.010226647 0.0038274645
0.0074168514 -0.0019434836 -0.0006956193 -0.0024734256 0.008105269 0.004724643 0.00036510144 -0.005544074
-0.00053165393 -0.00067906606 0.0065414305 0.00198425 0.0034189974 0.006076953 0.00771415 -0.003970239
-0.0040797247 -0.0060592648 -0.010824049 0.0040735067 -0.004870594 -0.0016598899 -0.00034555656 -0.00069008186
0.0043017757 -0.00063126674 0.0016467245 0.003626308 -0.0027217749 0.00123308 -0.003905629 -0.005169297
-0.00534141 -0.005798646 0.00674785 0.009206253 -0.005791932 0.010553239 -0.0061007817 -0.012212566
-0.0047620498 -0.014774203 -0.0032186438 -0.00036337363 -0.00764545 0.0060558943 -0.006825092 0.000399001
0.004714129 -0.015194488 -0.007765889 -0.0031140018 -0.0021239433 0.007441524 0.0045638694 0.00935584
-0.018693978 -0.003297376 0.004555895 -0.00528847 -0.001486224 0.0058893044 -0.00085016293 -0.002522852
4.6583988e-05 -0.0022422764 0.009813634 0.0010550715 0.0025955213 0.0054206057 -0.003017101 -0.0022578586
0.0034925048 0.003001194 -0.0038023894 -0.0031461236 5.6473025e-05 0.014164603 0.015195516 0.0015233329
-0.001754436 0.004736002 0.00038875136 0.0034914364 0.0015910909 -0.0027817662 -0.0044779023 0.01173587
-0.0013584992 -0.0008796518 0.004432022 0.0077537284 0.003083546 -0.011492731 -0.0012727366 -0.0054059313
-0.00037281268 0.008306394 0.010318524 0.0031293393 -0.0006120671 -0.0007286365 0.009414012 0.0013768265
-0.012134816 -0.0031561044 -0.002015642 -0.008213738 0.0031268348 0.0028609724 -0.0032608663 -0.0028607436
-0.0056615854 -0.0045086644 -0.002753197 -0.005053804 -0.00017092077 0.0016086195 0.009616747 0.0035208554
-0.0034414015 0.008971396 -0.00089679094 -0.009278036 -0.00413475 0.00081351603 0.002701856 -0.0024683336
-0.0033822358 0.0067579234 -0.000877815 0.005293031 0.005998747 0.0010850431 0.0038077917 0.0055621914
0.009120108 -0.004982432 -0.008903043 -0.0059627662 1.8730052e-05 0.0051248604 -0.0021472534 -0.002573151
-0.00045707612 -0.0074156285 -0.0041073505 0.0062227147 -0.0019735312 -0.0005188868 -0.003011514 -0.005392563
-0.013850491 0.0032893165 -0.004667703 -0.014416854 -0.0004685408 0.0009639143 -0.003406062 -0.00620719
-0.00308206 0.004034223 0.00037991864 -0.012907316 0.016464422 0.0069457884 -0.013705172 0.0082975095
0.003032647 -0.0049291104 0.000720915 -0.009296863 -0.007494863 6.9644506e-05 -0.0055285855 0.009722714
0.011578604 -0.0059688836 0.00096600596 0.0012602204 -0.0060521304 -0.0040620975 -0.011979388 0.0033868484
-0.0038012576 0.0083756475 0.007853663 -0.011633872 -0.010328364 -0.00504183 -0.0009702551 0.0051866113
0.0018728797 -0.0038234692 0.0027440267 -0.0015961733 -0.0003044728 -0.004791021 -0.008830954 -0.0003592085
-0.00083388685 0.00316097 -0.0057100574 0.00361601 -0.0024130577 0.0073988996 -0.005343716 0.0038577232
0.0069487575 0.007606224 0.0061623766 -0.0020854564 -0.000103787905 -0.00056184747 0.0060286536 0.0032157318
