results/skillBoat/boat/boat-2625.onnx (onnx, 339354 bytes, 9 tensors)

discrete_act_size_vector f4 [1, 3]
0	0x40000000	2.0
1	0x40400000	3.0
2	0x40000000	2.0

network_body._body_endoder.seq_layers.0.weight f4 [256, 58]
0	0xbd8c12f2	-0.06839551
1	0x3e46a966	0.19400558
2	0xbbff5592	-0.007792183
3	0xbe007969	-0.12546314
4	0xbe4cc76e	-0.19997951
5	0x3d88299a	0.0664856
6	0x3dca40b4	0.098756224
7	0xbeb83043	-0.3597432
8	0x3d603604	0.054739013
9	0xbd1d15bb	-0.038350802
10	0x3d430da9	0.04762045
11	0x3e22381b	0.15841715
12	0x3d840ceb	0.064477764
13	0x3dcb65ad	0.099315025
14	0xbe7847dc	-0.24246162
15	0xbdb123e8	-0.08649427
16	0xbad2cb7e	-0.0016082374
17	0xbe1ce414	-0.1532138
18	0x3ca63676	0.02028964
19	0x3dbc04cb	0.09180602
20	0x3e4513a1	0.19245769
21	0x3daf85b9	0.085704274
22	0xbdee1cf8	-0.11626619
23	0x3e02f81e	0.12789962
24	0x3e70a238	0.23499382
25	0x3dad5b39	0.08464665
26	0xbd464d09	-0.04841331
27	0xbd2c096d	-0.042001177
28	0x3cf9d71a	0.030498076
29	0x3cf4a25e	0.029862579
30	0xbd84fb19	-0.064932056
31	0xbe35d5bc	-0.17757314
32	0x3d057ebb	0.032591563
33	0x3ddcec7f	0.107872956
34	0xbbbf4173	-0.0058366596
35	0xbd75089f	-0.059822675
36	0xbeb87d1a	-0.36032945
37	0x3d3fd99c	0.046838388
38	0x3e4bc5b5	0.19899638
39	0x3e3eaf9f	0.18621682
40	0xbdab685c	-0.08369514
41	0xbd045ecc	-0.032316968
42	0xbcc88aeb	-0.024480304
43	0xbd51b4a6	-0.05119767
44	0xbe925ad7	-0.2858493
45	0x3e8a72c6	0.2704069
46	0xbe0658cc	-0.13119811
47	0xbd9ad3cf	-0.075599305
48	0x3c4c1804	0.012456898
49	0x3de8b9f5	0.113635935
50	0x3cff2888	0.031147256
51	0x3e4de92b	0.20108478
52	0xbd058455	-0.032596905
53	0x3dfecb3f	0.1244111
54	0x3ca804bf	0.020510076
55	0xbeb2340d	-0.34805337
56	0x3e0df70d	0.13863774
57	0xbb1a396d	-0.0023532764
58	0xbe822c8e	-0.25424618
59	0x3dfc9137	0.12332385
60	0xbd84f4ce	-0.06492005
61	0xbdebb564	-0.11509207
62	0xbce0f402	-0.027460102
63	0x3ea30822	0.31842142
64	0xbd8999a6	-0.06718759
65	0x3da2f874	0.07957545
66	0x3e392819	0.18081702
67	0x3dfb038c	0.12256536
68	0xbe4e9090	-0.20172334
69	0xbd7ad9e0	-0.061242938
70	0x3d417a41	0.04723573
71	0x3dde71c7	0.10861545
72	0x3cd63df1	0.026152583
73	0x3e0a1877	0.13485895
74	0x3e6cf4e9	0.23140301
75	0x3e364a10	0.1780169
76	0x3e1e0375	0.15431006
77	0xbb994b5b	-0.0046781725
78	0x3e4c06eb	0.19924514
79	0x3b5fc58b	0.0034144844
80	0x3e591e0a	0.21202865
81	0xbe03fa06	-0.12888345
82	0xbd39150c	-0.045186087
83	0xbc92c346	-0.01791538
84	0x3e01c521	0.12672855
85	0x3da4f71a	0.080549434
86	0xbe8cf8b4	-0.27533495
87	0x3e11105f	0.14166401
88	0xbcad30bc	-0.021141402
89	0xbe11aacc	-0.1422531
90	0x3d462fc8	0.04838541
91	0xbdacda9d	-0.08440135
92	0x3ddaf883	0.10691931
93	0xbdf06777	-0.11738484
94	0xbe375303	-0.1790276
95	0xbea5d548	-0.32389283
96	0x3ee97434	0.45596468
97	0x3aca2c6d	0.0015424617
98	0xbdd3b564	-0.10337332
99	0xbdad2d70	-0.08455932
100	0xbdbc15ac	-0.09183821
101	0xbe597adb	-0.21238272
102	0xbe45e138	-0.19324195
103	0xbe22487c	-0.15847963
104	0x3d0a5117	0.03376874
105	0xbeb9e55d	-0.36307803
106	0x3d8a5886	0.06755166
107	0x3e2542cf	0.16138767
108	0x3bc08bdd	0.005876048
109	0xbe2670d4	-0.16253978
110	0xbc4d29d9	-0.012522184
111	0xbbc514f3	-0.00601446
112	0xbddfe5a5	-0.10932473
113	0xbdfc5d1c	-0.12322447
114	0x3d8a1a9d	0.06743357
115	0x3cbe9953	0.02326647
116	0x3d9227b1	0.07136477
117	0xbc9e5eaf	-0.019332258
118	0x3d8d2315	0.06891457
119	0xbdc05d8f	-0.09392845
120	0x3d339d3c	0.043851122
121	0x3e03a2ca	0.12855068
122	0x3e1a04ce	0.15040895
123	0xbe98d740	-0.29851723
124	0x3dd478ae	0.1037458
125	0x3d81c77c	0.06336877
126	0xbe8e79a0	-0.27827168
127	0x3d6432a7	0.05571237
128	0x3e250ce9	0.16118206
129	0xbec071a7	-0.3758671
130	0x3db7908e	0.089631185
131	0xbd526411	-0.051364962
132	0xbc8dc84c	-0.017307423
133	0xbd60e38a	-0.0549045
134	0x3de2aa18	0.11067599
135	0x3dd9948e	0.10624038
136	0x3e172e9f	0.14763878
137	0xbda05535	-0.07828752
138	0xbc5dfff4	-0.0135497935
139	0x3e40c20e	0.18824026
140	0xbd1a5250	-0.037676156
141	0x3d369ace	0.044581227
142	0xbe02c0b2	-0.1276882
143	0x3ddb02aa	0.106938675
144	0x3d77245e	0.060337417
145	0x3deba827	0.11506682
146	0x3c9aa0be	0.018875476
147	0x3ce82ad0	0.028340727
148	0xbd633877	-0.05547377
149	0xbce010ff	-0.027351854
150	0x3ca55795	0.020183364
151	0x3e162496	0.14662394
152	0x3dddcc16	0.10829942
153	0x3dea2e52	0.11434616
154	0x3dc3b5ef	0.095561855
155	0x3d67266c	0.056433126
156	0x3ddda7bc	0.108230084
157	0xbb1c6ee4	-0.0023869807
158	0x3bb3a7a4	0.005482631
159	0x3dc87a07	0.097889
160	0x3b935fff	0.0044975276
161	0x3e83ef80	0.25768661
162	0x3d647a16	0.055780493
163	0x3be0af1f	0.0068568136
164	0xbd00b1a2	-0.031419404
165	0x3be49d6e	0.006976775
166	0xbcd9e5ce	-0.026598837
167	0x3dcb16eb	0.09916481
168	0x3d25525c	0.040361747
169	0xbc0a20b5	-0.0084306495
170	0x3d226204	0.039644256
171	0xbd0f4668	-0.034979254
172	0xbc96578d	-0.018352294
173	0x3c7b6ce9	0.01534579
174	0x3d1ac4fe	0.037785523
175	0xbe6ecc0d	-0.23320027
176	0xbdf05667	-0.1173523
177	0x3bada835	0.005299593
178	0xbe084669	-0.1330811
179	0x3e0acd3d	0.13554855
180	0x3e639d4d	0.22227974
181	0xbe1f04b2	-0.15529135
182	0xbd4e6674	-0.050390676
183	0x3e67934f	0.22614788
184	0xbd58112a	-0.052750744
185	0x3d294e73	0.04133458
186	0x3deb9a09	0.11503989
187	0xbe08cfce	-0.13360521
188	0x3df1dd00	0.118097305
189	0xbe19a1a7	-0.15003072
190	0x3d05d2df	0.032671805
191	0xbc8dbd11	-0.017302068
192	0x3e0f3949	0.13986696
193	0x3d8b6cd8	0.0680787
194	0x3cf04ca3	0.029333418
195	0x3db4fe82	0.08837606
196	0xbe54d3cc	-0.20783919
197	0x3be14855	0.0068750777
198	0xbe5bd994	-0.21469718
199	0x3d6134eb	0.054982107
200	0x3dc30d08	0.0952397
201	0xbe7487ed	-0.23879977
202	0x3d4b3d79	0.04961917
203	0x3c11adf9	0.008891576
204	0x3c0a795e	0.008451788
205	0xbdb001a9	-0.08594067
206	0xbdd99679	-0.106244035
207	0xbd7152a0	-0.058916688
208	0xbd59f231	-0.053209487
209	0xbcbf3916	-0.02334265
210	0xbce2cab5	-0.027684549
211	0xbdf40300	-0.11914635
212	0xbda4949c	-0.080361575
213	0xbe9530e1	-0.29138854
214	0x3de44b1d	0.11147139
215	0x3db1bea4	0.0867894
216	0x3e53298e	0.2062132
217	0x3e009c13	0.12559538
218	0x3e03c82f	0.12869333
219	0xbe1e874e	-0.15481302
220	0x3e05d7d9	0.1307062
221	0xbe5a8202	-0.21338657
222	0x3ccfb181	0.025353195
223	0xbdd867c0	-0.10566664
224	0x3dd9c9a1	0.10634161
225	0xbe6198dc	-0.22030967
226	0xbe810758	-0.25200915
227	0x3e1fa71b	0.1559109
228	0x3de6d32b	0.11270746
229	0xbcd1ad28	-0.025595263
230	0xbdbde6d0	-0.092725396
231	0x3d19829c	0.037478074
232	0x3cbdce7d	0.02316975
233	0xbdca8df3	-0.09890356
234	0xbdc0d9b2	-0.09416522
235	0x3d7d7298	0.061876863
236	0x3c5b6621	0.013391049
237	0xbd022d9a	-0.03178177
238	0xbdbf5c3d	-0.09343765
239	0xbdd8322f	-0.10556447
240	0x3de394b1	0.11112345
241	0xbdd480c4	-0.103761226
242	0x3e70b16a	0.23505178
243	0x3d30e97d	0.04319142
244	0x3d675047	0.056473043
245	0x3eaea727	0.34111902
246	0xbe8d0dd5	-0.27549616
247	0xbe50f14e	-0.2040455
248	0x3c66430d	0.014054072
249	0xbd93692b	-0.071977936
250	0x3d42272e	0.047400646
251	0xbd0bd66a	-0.034140028
252	0x3b48b51e	0.0030625532
253	0x3c646984	0.0139411725
254	0x3df1b7a2	0.11802603
255	0x3df26191	0.118350156

network_body._body_endoder.seq_layers.0.bias f4 [256]
0	0x00000000	0.0
1	0x00000000	0.0
2	0x00000000	0.0
3	0x00000000	0.0
4	0x00000000	0.0
5	0x00000000	0.0
6	0x00000000	0.0
7	0x00000000	0.0
8	0x00000000	0.0
9	0x00000000	0.0
10	0x00000000	0.0
11	0x00000000	0.0
12	0x00000000	0.0
13	0x00000000	0.0
14	0x00000000	0.0
15	0x00000000	0.0
16	0x00000000	0.0
17	0x00000000	0.0
18	0x00000000	0.0
19	0x00000000	0.0
20	0x00000000	0.0
21	0x00000000	0.0
22	0x00000000	0.0
23	0x00000000	0.0
24	0x00000000	0.0
25	0x00000000	0.0
26	0x00000000	0.0
27	0x00000000	0.0
28	0x00000000	0.0
29	0x00000000	0.0
30	0x00000000	0.0
31	0x00000000	0.0
32	0x00000000	0.0
33	0x00000000	0.0
34	0x00000000	0.0
35	0x00000000	0.0
36	0x00000000	0.0
37	0x00000000	0.0
38	0x00000000	0.0
39	0x00000000	0.0
40	0x00000000	0.0
41	0x00000000	0.0
42	0x00000000	0.0
43	0x00000000	0.0
44	0x00000000	0.0
45	0x00000000	0.0
46	0x00000000	0.0
47	0x00000000	0.0
48	0x00000000	0.0
49	0x00000000	0.0
50	0x00000000	0.0
51	0x00000000	0.0
52	0x00000000	0.0
53	0x00000000	0.0
54	0x00000000	0.0
55	0x00000000	0.0
56	0x00000000	0.0
57	0x00000000	0.0
58	0x00000000	0.0
59	0x00000000	0.0
60	0x00000000	0.0
61	0x00000000	0.0
62	0x00000000	0.0
63	0x00000000	0.0
64	0x00000000	0.0
65	0x00000000	0.0
66	0x00000000	0.0
67	0x00000000	0.0
68	0x00000000	0.0
69	0x00000000	0.0
70	0x00000000	0.0
71	0x00000000	0.0
72	0x00000000	0.0
73	0x00000000	0.0
74	0x00000000	0.0
75	0x00000000	0.0
76	0x00000000	0.0
77	0x00000000	0.0
78	0x00000000	0.0
79	0x00000000	0.0
80	0x00000000	0.0
81	0x00000000	0.0
82	0x00000000	0.0
83	0x00000000	0.0
84	0x00000000	0.0
85	0x00000000	0.0
86	0x00000000	0.0
87	0x00000000	0.0
88	0x00000000	0.0
89	0x00000000	0.0
90	0x00000000	0.0
91	0x00000000	0.0
92	0x00000000	0.0
93	0x00000000	0.0
94	0x00000000	0.0
95	0x00000000	0.0
96	0x00000000	0.0
97	0x00000000	0.0
98	0x00000000	0.0
99	0x00000000	0.0
100	0x00000000	0.0
101	0x00000000	0.0
102	0x00000000	0.0
103	0x00000000	0.0
104	0x00000000	0.0
105	0x00000000	0.0
106	0x00000000	0.0
107	0x00000000	0.0
108	0x00000000	0.0
109	0x00000000	0.0
110	0x00000000	0.0
111	0x00000000	0.0
112	0x00000000	0.0
113	0x00000000	0.0
114	0x00000000	0.0
115	0x00000000	0.0
116	0x00000000	0.0
117	0x00000000	0.0
118	0x00000000	0.0
119	0x00000000	0.0
120	0x00000000	0.0
121	0x00000000	0.0
122	0x00000000	0.0
123	0x00000000	0.0
124	0x00000000	0.0
125	0x00000000	0.0
126	0x00000000	0.0
127	0x00000000	0.0
128	0x00000000	0.0
129	0x00000000	0.0
130	0x00000000	0.0
131	0x00000000	0.0
132	0x00000000	0.0
133	0x00000000	0.0
134	0x00000000	0.0
135	0x00000000	0.0
136	0x00000000	0.0
137	0x00000000	0.0
138	0x00000000	0.0
139	0x00000000	0.0
140	0x00000000	0.0
141	0x00000000	0.0
142	0x00000000	0.0
143	0x00000000	0.0
144	0x00000000	0.0
145	0x00000000	0.0
146	0x00000000	0.0
147	0x00000000	0.0
148	0x00000000	0.0
149	0x00000000	0.0
150	0x00000000	0.0
151	0x00000000	0.0
152	0x00000000	0.0
153	0x00000000	0.0
154	0x00000000	0.0
155	0x00000000	0.0
156	0x00000000	0.0
157	0x00000000	0.0
158	0x00000000	0.0
159	0x00000000	0.0
160	0x00000000	0.0
161	0x00000000	0.0
162	0x00000000	0.0
163	0x00000000	0.0
164	0x00000000	0.0
165	0x00000000	0.0
166	0x00000000	0.0
167	0x00000000	0.0
168	0x00000000	0.0
169	0x00000000	0.0
170	0x00000000	0.0
171	0x00000000	0.0
172	0x00000000	0.0
173	0x00000000	0.0
174	0x00000000	0.0
175	0x00000000	0.0
176	0x00000000	0.0
177	0x00000000	0.0
178	0x00000000	0.0
179	0x00000000	0.0
180	0x00000000	0.0
181	0x00000000	0.0
182	0x00000000	0.0
183	0x00000000	0.0
184	0x00000000	0.0
185	0x00000000	0.0
186	0x00000000	0.0
187	0x00000000	0.0
188	0x00000000	0.0
189	0x00000000	0.0
190	0x00000000	0.0
191	0x00000000	0.0
192	0x00000000	0.0
193	0x00000000	0.0
194	0x00000000	0.0
195	0x00000000	0.0
196	0x00000000	0.0
197	0x00000000	0.0
198	0x00000000	0.0
199	0x00000000	0.0
200	0x00000000	0.0
201	0x00000000	0.0
202	0x00000000	0.0
203	0x00000000	0.0
204	0x00000000	0.0
205	0x00000000	0.0
206	0x00000000	0.0
207	0x00000000	0.0
208	0x00000000	0.0
209	0x00000000	0.0
210	0x00000000	0.0
211	0x00000000	0.0
212	0x00000000	0.0
213	0x00000000	0.0
214	0x00000000	0.0
215	0x00000000	0.0
216	0x00000000	0.0
217	0x00000000	0.0
218	0x00000000	0.0
219	0x00000000	0.0
220	0x00000000	0.0
221	0x00000000	0.0
222	0x00000000	0.0
223	0x00000000	0.0
224	0x00000000	0.0
225	0x00000000	0.0
226	0x00000000	0.0
227	0x00000000	0.0
228	0x00000000	0.0
229	0x00000000	0.0
230	0x00000000	0.0
231	0x00000000	0.0
232	0x00000000	0.0
233	0x00000000	0.0
234	0x00000000	0.0
235	0x00000000	0.0
236	0x00000000	0.0
237	0x00000000	0.0
238	0x00000000	0.0
239	0x00000000	0.0
240	0x00000000	0.0
241	0x00000000	0.0
242	0x00000000	0.0
243	0x00000000	0.0
244	0x00000000	0.0
245	0x00000000	0.0
246	0x00000000	0.0
247	0x00000000	0.0
248	0x00000000	0.0
249	0x00000000	0.0
250	0x00000000	0.0
251	0x00000000	0.0
252	0x00000000	0.0
253	0x00000000	0.0
254	0x00000000	0.0
255	0x00000000	0.0

network_body._body_endoder.seq_layers.2.weight f4 [256, 256]
0	0x3be7e4c9	0.007076834
1	0x3bc7586e	0.0060835397
2	0x3d7197ec	0.058982775
3	0xbc157eb6	-0.0091244485
4	0x3dc76a55	0.09737078
5	0x3cb74677	0.022372467
6	0xbd2c0e73	-0.042005967
7	0xbd1102d3	-0.035403084
8	0x3c9f5f58	0.019454643
9	0xbda24e8b	-0.07925137
10	0x3c602e6e	0.013682945
11	0x3c361ae4	0.01111481
12	0x3d221ca1	0.039578084
13	0x3d664956	0.056222282
14	0x3cee6288	0.029099718
15	0xbc73022a	-0.014832059
16	0x3d109b93	0.035304617
17	0x3d9bd3eb	0.076087795
18	0xbd7af2b0	-0.0612666
19	0xbc53a9ee	-0.012918932
20	0x3a27857b	0.00063904346
21	0xbd275c3d	-0.04085945
22	0x3d80ff4d	0.06298695
23	0xbbd34651	-0.0064475914
24	0xbe3a34db	-0.18184225
25	0xbd499a4c	-0.049219415
26	0x3c61ee23	0.013789686
27	0xbd599343	-0.053118955
28	0x3b8b552c	0.0042520966
29	0xbcac9e28	-0.021071509
30	0x3ddeb3af	0.10874116
31	0xbb308326	-0.002693364
32	0xbd013d84	-0.031552806
33	0x3cc094ca	0.023508448
34	0xbdd32642	-0.103100315
35	0xbbec3544	-0.007208498
36	0x3db334fb	0.087503396
37	0xbdec062c	-0.11524615
38	0x3da7a471	0.081856616
39	0xbd10d2a4	-0.035357133
40	0x3d902d67	0.0703991
41	0x3d1ffac7	0.03905752
42	0x3c639532	0.013890551
43	0x3d3f7fe8	0.04675284
44	0x3bb8dc76	0.0056415154
45	0x3cbd51fd	0.023110384
46	0xbd98ab44	-0.07454541
47	0x3d96cb62	0.07363011
48	0x3ce257a2	0.027629677
49	0x3d98453c	0.074350804
50	0x3ce99840	0.028514981
51	0x3d38f80c	0.04515843
52	0xbc3fe4e8	-0.01171229
53	0xbdb22353	-0.08698144
54	0xbd252434	-0.04031773
55	0x3cdc6a67	0.026906205
56	0xbdd68b4b	-0.10475787
57	0x3c9cbae9	0.019132094
58	0x3c03058b	0.007996927
59	0x3c615e91	0.013755457
60	0xbbf7a9c7	-0.007558081
61	0xbd0b58d0	-0.034020245
62	0xbd67ca6d	-0.056589533
63	0xbd2da50e	-0.042393737
64	0x3daab7ee	0.08335863
65	0x3c42bd08	0.011885889
66	0xbc8c5f82	-0.017135385
67	0x3cfe9b9c	0.03108006
68	0x3e0a8f7e	0.135313
69	0x3d0aaaa6	0.03385415
70	0xbd3a219f	-0.04544222
71	0x3d1867c3	0.03720833
72	0x3da1fbbf	0.07909345
73	0x3d7e653c	0.062108263
74	0xbd794437	-0.06085607
75	0x3cd89889	0.026439922
76	0x3d17e6fd	0.037085522
77	0x3cdf3863	0.027248567
78	0x3cc7eb2c	0.02440413
79	0x3d414259	0.047182415
80	0x3d7fc7d5	0.062446434
81	0x3d34c27a	0.04413078
82	0xbca18b76	-0.01971982
83	0xbd27e41b	-0.040989023
84	0xbd3cec56	-0.046123825
85	0x3c4781b1	0.012176917
86	0x3d800427	0.06250792
87	0x3cbb23c6	0.022844207
88	0xbd14bad5	-0.03631099
89	0xbd47f4a1	-0.04881728
90	0xbbaed543	-0.0053354814
91	0xbce2ea90	-0.027699739
92	0x3c850a0a	0.016240139
93	0x3d829ecc	0.06377944
94	0x3cb2bec5	0.021819482
95	0x3d9e121f	0.077183
96	0xbdd18ee1	-0.1023233
97	0xbd74f9cc	-0.059808537
98	0x3d3d9022	0.046280034
99	0x3d19d5e9	0.037557516
100	0xbc87259c	-0.016497426
101	0xbd8d402b	-0.06897005
102	0x3cd6956c	0.026194297
103	0x3dd54f0a	0.10415466
104	0x3d245fcc	0.04013042
105	0xbd644180	-0.05572653
106	0xbcd077f1	-0.025447818
107	0x3d890e50	0.06692183
108	0xbda826fe	-0.08210562
109	0xbbbde901	-0.0057955985
110	0xbb17841c	-0.0023119515
111	0x3cad9260	0.021187961
112	0x3d1434d8	0.03618321
113	0x3dae788c	0.08519086
114	0x3c52794e	0.012846304
115	0xbe36ba70	-0.17844558
116	0xbd653eaa	-0.055967964
117	0xbdadf192	-0.084933415
118	0x3d809615	0.06278626
119	0x3ce3f991	0.027828963
120	0x3bd38396	0.0064548953
121	0x3d007423	0.031360757
122	0xbe11b54c	-0.14229316
123	0xbc8f7f39	-0.01751672
124	0x3d3274ea	0.04356853
125	0xbd871284	-0.065953285
126	0x3df29c19	0.118461795
127	0x3cdd868e	0.0270417
128	0xbcacb5e9	-0.021082835
129	0xbd023ad9	-0.031794403
130	0xbc7c399f	-0.015394597
131	0x3da191e7	0.07889157
132	0x3cc705c8	0.024294749
133	0xbcd854b4	-0.026407577
134	0x3d7ad39d	0.061236966
135	0x3b67d694	0.0035375701
136	0xbcd25c63	-0.025678819
137	0x3d00935a	0.031390525
138	0xbd075d30	-0.033047855
139	0xbdb6f18e	-0.08932792
140	0x3c65c1e8	0.014023282
141	0x3d8ca81c	0.06868002
142	0xbd839533	-0.06424942
143	0x3c3352a3	0.010944995
144	0xbd9a8a66	-0.07545929
145	0x3c974382	0.018464807
146	0x3c495604	0.012288574
147	0x3dc83f52	0.097777024
148	0x3d544154	0.051820114
149	0xbc38a78c	-0.011270415
150	0xbc00a345	-0.0078514265
151	0xbd7e4120	-0.062073827
152	0xbdc0516f	-0.09390532
153	0xbdafe2a2	-0.08588149
154	0x3c66a2c0	0.014076889
155	0xbb4fb5b6	-0.0031694002
156	0xbcdb7cb8	-0.026792869
157	0xbc86f8ab	-0.016475996
158	0xbc2de59a	-0.010613823
159	0xbc9f49ca	-0.019444365
160	0x3d355d17	0.04427823
161	0x3d5dfbb9	0.05419514
162	0x3ddce0cd	0.10785065
163	0xbc8ca2c6	-0.01716746
164	0xbc72255d	-0.014779416
165	0x3da7d15b	0.08194228
166	0xbdafa74d	-0.08576832
167	0xbd02f837	-0.031974997
168	0xbddeb71b	-0.10874768
169	0x3d376f83	0.04478408
170	0xbdc03b81	-0.093863495
171	0x3c4aa9e8	0.01236961
172	0xbd630915	-0.055428583
173	0xbd422b6c	-0.04740469
174	0x3e17f974	0.14841253
175	0x3d65cca8	0.05610338
176	0xbbcc4a50	-0.0062344447
177	0xbcaa25b3	-0.02076993
178	0xbcc49709	-0.0239978
179	0xbb6951ee	-0.0035601812
180	0xbdcad1ed	-0.099033214
181	0x3dfd0c10	0.12355816
182	0xbd14bb27	-0.036311295
183	0xbd2d7129	-0.042344246
184	0xbd993a82	-0.074818626
185	0x3d9a4b08	0.07533842
186	0x3d575a4b	0.052576344
187	0xbc28890b	-0.01028658
188	0x3d0bd8d2	0.034142323
189	0x3a27021e	0.000637086
190	0xbe04252e	-0.12904808
191	0x3d2157a0	0.039390206
192	0xbd6b0fb7	-0.057388034
193	0x3dc0dd5f	0.09417223
194	0xbd8c57f0	-0.0685271
195	0x3d1ade66	0.037809752
196	0x3cd961a2	0.026535813
197	0x3cb03494	0.021509446
198	0x3cd99d8d	0.026564384
199	0x3b07a7f6	0.0020699478
200	0xbcde9f96	-0.027175706
201	0xbd26902e	-0.040664844
202	0xbc8f05d2	-0.01745883
203	0x3d09b625	0.033620972
204	0x3d3b45b4	0.04572077
205	0xbd9bd636	-0.07609217
206	0xbdda6264	-0.10663298
207	0xbd3df366	-0.0463747
208	0x3d218d8f	0.03944164
209	0xbdad213f	-0.08453607
210	0x3b0a7ec0	0.0021132678
211	0x3d9e4797	0.077284984
212	0xbdc929ff	-0.09822463
213	0xbbff6d65	-0.0077950233
214	0x3d920656	0.07130115
215	0xbd03cf43	-0.032180082
216	0x3d5880d9	0.052857254
217	0x3dba9d8b	0.0911208
218	0xbdf37c75	-0.11888973
219	0xbd93b514	-0.07212272
220	0x3a2444df	0.0006266366
221	0x3b066820	0.002050884
222	0x3d0ea559	0.034825657
223	0x3db812a7	0.08987933
224	0x3d0935d2	0.033498593
225	0xbc8b406b	-0.01699849
226	0x3d9e905a	0.077423766
227	0x3c92d9d2	0.01792613
228	0xbbd2ded0	-0.0064352527
229	0x3c00242c	0.007821124
230	0x3cd1683c	0.025562398
231	0xbd06ed0f	-0.03294092
232	0xbd6ba309	-0.05752853
233	0xbd9dceaa	-0.07705434
234	0x3d5e1bd2	0.05422575
235	0xbafa8e54	-0.0019115903
236	0x3df40cb1	0.11916483
237	0xbdc724bf	-0.09723806
238	0xbac0b622	-0.0014702717
239	0x3c94aa9c	0.01814776
240	0xbd453146	-0.048142694
241	0x3d4f98b6	0.050682746
242	0x3d765556	0.060139976
243	0xbc98030e	-0.018556144
244	0x3cd519cf	0.026013283
245	0x3d05878b	0.032599967
246	0x3b0323f9	0.0020010455
247	0xbc97f5c5	-0.01854981
248	0x3cc0102a	0.023445208
249	0x3d80712f	0.06271588
250	0xbb74e7ae	-0.0037369537
251	0xbc2bc13c	-0.010483082
252	0xbdd69b92	-0.104788914
253	0x3db81879	0.08989043
254	0xbce53ada	-0.027982164
255	0x3e22aa84	0.15885359

action_model._discrete_distribution.branches.0.weight f4 [2, 256]
0	0xbbadd863	-0.0053053363
1	0x3aa35c7f	0.0012463479
2	0xbc111ab3	-0.008856463
3	0xbab20f40	-0.0013584867
4	0xbad9c170	-0.0016613435
5	0x3b194ef1	0.0023393
6	0xbbbd3d82	-0.0057751546
7	0x3ad03490	0.0015884805
8	0x3b2a5cab	0.0025995176
9	0x3addf108	0.0016932795
10	0x3b3080d7	0.0026932263
11	0x3b52f128	0.0032187197
12	0x3baafd93	0.0052182167
13	0x3b73084d	0.0037083805
14	0x3994f2de	0.0002840971
15	0x3c1b1408	0.009465225
16	0xb804cb7b	-3.166076e-05
17	0x3c0d5764	0.008626793
18	0x390405ab	0.00012590612
19	0xbb41d26f	-0.002957489
20	0xbae76085	-0.0017652666
21	0x3a0bc3ae	0.0005331588
22	0xbb67d8c5	-0.0035377007
23	0x3b190c99	0.0023353456
24	0x3aeedd77	0.0018223961
25	0x3b289886	0.0025725677
26	0xbba783cf	-0.0051121484
27	0xbb593d9b	-0.0033148292
28	0x3ba3b540	0.004995972
29	0xbbe1bab7	-0.006888713
30	0x3a006f33	0.00048993825
31	0xbb3a0339	-0.0028383269
32	0x3b6ea0bd	0.0036411725
33	0x3ba794af	0.00511416
34	0xbb895287	-0.004190746
35	0x39ca496e	0.00038583152
36	0xbbee2ccd	-0.0072685243
37	0x3c24021f	0.010010271
38	0x3ba5a82c	0.005055448
39	0xbc6f1fb0	-0.014594957
40	0xbb168f39	-0.002297355
41	0x3b92361e	0.0044620177
42	0xbb0198cd	-0.0019774914
43	0xbc0dee55	-0.00866278
44	0x3c921ef8	0.017837033
45	0x3b400c05	0.002930404
46	0xb9fe872f	-0.00048547375
47	0xbbb8764a	-0.0056293355
48	0xbb259457	-0.002526542
49	0xb9c68fc3	-0.00037872614
50	0x3a1caeda	0.00059769826
51	0x3b89fe80	0.004211247
52	0xbb6b6f5f	-0.0035924537
53	0x3b9dee4c	0.004819667
54	0xbbbcfab5	-0.0057671913
55	0x3c0c7e61	0.008575053
56	0xbb29858a	-0.002586695
57	0xba8fc48f	-0.0010968613
58	0xbc011093	-0.007877487
59	0x398ff6ad	0.00027458873
60	0xbc326c85	-0.010890131
61	0xbb27110b	-0.0025492336
62	0x3b2e27e3	0.0026574067
63	0xbacf525d	-0.0015817393
64	0xbc0144e7	-0.007889963
65	0xba501b88	-0.0007938673
66	0xb9828b47	-0.00024899302
67	0xbc08f7bb	-0.008359845
68	0x3babfc7f	0.0052486057
69	0xbb6db30f	-0.0036270057
70	0x3ba17bd3	0.004928091
71	0x3c64f9ff	0.013975619
72	0xbbd5690a	-0.006512766
73	0xbbecb162	-0.007223294
74	0x3c23cd7f	0.009997725
75	0x3b656b62	0.0035006632
76	0xbc233be3	-0.009963009
77	0xbc241f03	-0.010017159
78	0x3bf51e27	0.007480401
79	0xbc3bb525	-0.011456762
80	0x3a4a7ecb	0.0007724582
81	0xbb681b35	-0.0035416607
82	0x3c8179c5	0.015805135
83	0xbc05b553	-0.008160907
84	0xbbe20bc8	-0.006898377
85	0xbac097b0	-0.0014693644
86	0x3aa9aa94	0.0012944513
87	0xbc119459	-0.0088854665
88	0xbc09dda1	-0.008414657
89	0x3c2e8834	0.010652591
90	0x3acb0cd1	0.001549149
91	0xbbbc08c9	-0.005738352
92	0x3bcf7a70	0.0063317344
93	0x3c335c8a	0.010947356
94	0xbbbd19cb	-0.005770897
95	0x3b984444	0.00464681
96	0x3bf70ad7	0.007539134
97	0x3b999548	0.004686985
98	0x397553da	0.00023396258
99	0x3bd18f0d	0.006395227
100	0xbbbb17bb	-0.005709616
101	0xbad0d777	-0.0015933354
102	0x3bc4f0c8	0.0060101487
103	0xbb515860	-0.0031943545
104	0x3c72e103	0.014824155
105	0x3b8782b7	0.0041354555
106	0xbc0dd805	-0.00865746
107	0xbb9f8614	-0.0048682783
108	0x3c30067f	0.010743736
109	0x3bc96e17	0.006147157
110	0x3b88a317	0.0041698324
111	0x3bf757c8	0.007548306
112	0x3bf6549d	0.007517411
113	0xba1eb295	-0.00060538325
114	0xbb5dbec8	-0.0033835638
115	0x3be337e5	0.0069341534
116	0xbb92a62c	-0.0044753756
117	0x3c54ff2b	0.01300029
118	0xbaee403d	-0.0018177103
119	0x3b74463f	0.0037273315
120	0xbb2d00cb	-0.0026398178
121	0x3be47c83	0.0069728508
122	0x3c08414a	0.008316347
123	0x3c26e643	0.010186735
124	0x3c1c41f0	0.009537205
125	0x3a6ad365	0.0008957892
126	0xbb211c42	-0.0024583493
127	0x3ab3be3b	0.0013713309
128	0xbc48ced4	-0.012256343
129	0xbb123ff9	-0.0022315963
130	0xbc6a2be0	-0.014292687
131	0x3b7b9a4b	0.0038391526
132	0xba85f04e	-0.0010218711
133	0xbbd5ce93	-0.0065248697
134	0x3a136a49	0.00056234427
135	0xbb1b6bef	-0.0023715456
136	0xbb18438f	-0.0023233627
137	0xbb209587	-0.0024503188
138	0x3a074c7f	0.000516124
139	0xbb10ab7c	-0.002207487
140	0xbb727feb	-0.0037002515
141	0x3c08c2f8	0.008347265
142	0x3b041ef2	0.0020160046
143	0xba8d5eb1	-0.0010785667
144	0x3b8ebcc9	0.004356001
145	0xbaffcf00	-0.0019516647
146	0xbb49e90d	-0.0030809075
147	0xbb3f84e0	-0.0029223487
148	0x3bb3f65f	0.005492016
149	0x3c296927	0.010340012
150	0xbb2b51a3	-0.0026141189
151	0x3b2b239e	0.0026113759
152	0xbc8601db	-0.016358307
153	0xbca5a4b5	-0.02022014
154	0x3b8a07e4	0.0042123664
155	0x3af091f3	0.0018354043
156	0xbaccf460	-0.0015636794
157	0x3a92a848	0.0011189068
158	0xbae5c18f	-0.0017528998
159	0xba19d234	-0.00058678095
160	0xbaa787c3	-0.0012781549
161	0xba88907b	-0.0010419035
162	0x3b813842	0.003943474
163	0xbb48323b	-0.0030547518
164	0x39b13307	0.0003379809
165	0x399f9651	0.00030438838
166	0x3be15280	0.00687629
167	0xbc5a4592	-0.013322251
168	0x3b98cb03	0.0046628728
169	0x3b96ea57	0.004605572
170	0xbbaa7be8	-0.005202759
171	0xbab7e80f	-0.0014030951
172	0xbb5719a0	-0.003282167
173	0x3b76261a	0.0037559331
174	0x3b12d8cb	0.002240705
175	0xb9910ea7	-0.00027667472
176	0xbc2a10ad	-0.010379952
177	0x3b555802	0.0032553677
178	0x3bdb7238	0.0066969655
179	0xbb4ef985	-0.003158183
180	0x3c4f40e2	0.012649747
181	0x3c4e2ab3	0.0125834225
182	0xbbf3d152	-0.0074407244
183	0x3ba9a68f	0.005177326
184	0xbb5545e2	-0.0032542874
185	0x393f444e	0.00018240625
186	0x3c58b740	0.013227284
187	0x3baa1bf7	0.005191322
188	0x3b16fe39	0.0023039712
189	0x3a3581ef	0.00069239637
190	0xbbef59b5	-0.007304395
191	0xbc2b1e03	-0.010444167
192	0x3aef3cea	0.0018252407
193	0xbaf33947	-0.0018556499
194	0xbbd317b3	-0.006442034
195	0xbbe463cf	-0.006969906
196	0xbb22e672	-0.0024856594
197	0xbba6b6bb	-0.005087701
198	0xbb9f2579	-0.004856762
199	0xbb40be0c	-0.0029410152
200	0x3bd0bd5f	0.006370231
201	0xbbc27d2a	-0.005935331
202	0xbba5d995	-0.005061338
203	0xbba3ea1a	-0.0050022723
204	0x3b989dec	0.0046574976
205	0x3be40c93	0.006959507
206	0xbc1ad5ed	-0.009450418
207	0x395a6bd0	0.00020830263
208	0x3b0c6404	0.0021421919
209	0x3c11cd2d	0.008899015
210	0x3c4fe600	0.012689114
211	0x3bbd441a	0.0057759406
212	0xbc5e094d	-0.013552022
213	0x3c21579f	0.009847551
214	0x3bb19838	0.005419757
215	0x3c0c75af	0.00857298
216	0x3b9487ea	0.004532804
217	0x38df7a1b	0.000106562125
218	0x3ba8fb48	0.005156908
219	0xbb5defcf	-0.003386486
220	0xbb8efbf4	-0.0043635312
221	0xbc04277b	-0.0080660535
222	0x3bd5deb7	0.006526794
223	0xbb279bdb	-0.0025575075
224	0x3aa50a04	0.0012591486
225	0x3c11e822	0.008905442
226	0x3c034dcb	0.008014153
227	0xbb9f7b60	-0.0048670024
228	0x3bb1a0d2	0.0054207826
229	0xbb89a32b	-0.0042003593
230	0x3c58fd75	0.013244023
231	0xbb79fa50	-0.0038143583
232	0x3b00e57c	0.0019668033
233	0x3bef385d	0.00730042
234	0x3bda3f23	0.0066603585
235	0xbb8b7531	-0.0042559137
236	0xbb8ce2be	-0.0042994907
237	0x3a9d0f4b	0.0011982707
238	0xb88ec85f	-6.80841e-05
239	0x3a1103d4	0.00055318815
240	0xbbb6b79e	-0.005576088
241	0xbbccc2dc	-0.006248815
242	0x3b7543eb	0.0037424515
243	0xba83871d	-0.0010034774
244	0x3bd73e5a	0.006568712
245	0x3a0ba9be	0.0005327723
246	0xbc021daf	-0.007941647
247	0xbb860d77	-0.0040909606
248	0xbb90b072	-0.004415565
249	0x3b974996	0.0046169264
250	0xbb4a79a7	-0.0030895264
251	0x3c05c26b	0.008164029
252	0xbbb0cb95	-0.0053953626
253	0xbc0caa8f	-0.008585586
254	0x3afb0338	0.001915074
255	0xbc46a768	-0.012124874

action_model._discrete_distribution.branches.0.bias f4 [2]
0	0x00000000	0.0
1	0x00000000	0.0

action_model._discrete_distribution.branches.1.weight f4 [3, 256]
0	0x3bf1f22d	0.007383606
1	0xbc1d5c8f	-0.009604587
2	0x3b65554b	0.0034993466
3	0x3b898035	0.0041961917
4	0x3b7fa92b	0.0039010744
5	0x3a14b41b	0.000567259
6	0x3af67277	0.0018802424
7	0xba905fd9	-0.0011014893
8	0x3b8cafac	0.0042934027
9	0x3b2bb2db	0.0026199135
10	0x3c08c986	0.008348828
11	0x3b4f612d	0.0031643615
12	0xbb004fed	-0.001957889
13	0xbc3ce9d8	-0.011530362
14	0x3bed8a8b	0.0072491816
15	0xbbed5e63	-0.007243918
16	0xbb299a0d	-0.0025879175
17	0x3bd0d825	0.0063734227
18	0x3ab194fe	0.0013548431
19	0x3b1c1cec	0.002382095
20	0xbb019f7c	-0.0019778898
21	0xbbb44006	-0.0055007963
22	0xbad5225f	-0.0016260854
23	0xbc0b5f94	-0.008506674
24	0x3baa1107	0.005190018
25	0x3b3bdb16	0.002866452
26	0x3c00e36d	0.0078667225
27	0x3b39d292	0.002835427
28	0x3c0a3316	0.008435031
29	0x3c2ad58f	0.010426893
30	0xb8c5b87a	-9.4280535e-05
31	0x3b4cbd39	0.0031240715
32	0xbc48f19f	-0.012264638
33	0x3aa2c6ee	0.0012418905
34	0xbb9b5b99	-0.004741144
35	0xbc444946	-0.01198036
36	0x3c0f62de	0.008751599
37	0x3bdb91cf	0.0067007313
38	0x3b808a12	0.0039227093
39	0x3c084332	0.008316802
40	0xba895997	-0.001047897
41	0xbb3c3c8c	-0.0028722612
42	0x3b6ef068	0.0036459211
43	0xbb1b1d6f	-0.0023668667
44	0xbb345dac	-0.0027521653
45	0x3b7aa18a	0.0038243257
46	0xb989c6cd	-0.00026278794
47	0xbc1d2d1a	-0.009593273
48	0x3c05453a	0.008134181
49	0xbab00940	-0.0013430491
50	0xbb8682cb	-0.004104947
51	0xbb1147b3	-0.002216798
52	0xbb49f5b5	-0.0030816619
53	0xbb56b4fb	-0.0032761681
54	0x39b09c27	0.00033685678
55	0xbac17c03	-0.001476169
56	0xba814c57	-0.000986467
57	0xbaad0e32	-0.0013203083
58	0xbc0783b8	-0.00827115
59	0xba7f1c90	-0.0009731734
60	0xbc64919f	-0.013950734
61	0xbb8affad	-0.0042419047
62	0xbbdb1d02	-0.0066868076
63	0xbc1612d3	-0.0091597615
64	0xbbc224e4	-0.005924808
65	0x3c0b78a4	0.00851265
66	0x3be49c97	0.006976675
67	0x3baf935a	0.005358142
68	0xbb960c8e	-0.0045791334
69	0xbaf2535d	-0.0018487979
70	0x3b8658cb	0.0040999404
71	0x3c3ac575	0.0113996165
72	0x39a306e0	0.00031094905
73	0xba4f553d	-0.0007909125
74	0x3c215c83	0.009848717
75	0xbba4527a	-0.005014715
76	0x3c00581e	0.007833509
77	0xbb727db3	-0.0037001192
78	0x3bd8fb00	0.0066217184
79	0x3b3c21ff	0.0028706787
80	0xbb4bb9ca	-0.003108608
81	0xbb280b48	-0.002564149
82	0xbbd56f93	-0.006513545
83	0x3c2f6ee7	0.0107075935
84	0xbbca87b8	-0.0061807297
85	0x3bbb51f7	0.005716558
86	0x3ab9a9f2	0.0014165028
87	0xba0a842b	-0.0005283977
88	0x3b0832cc	0.002078223
89	0xbb8bb5ab	-0.0042636
90	0x3c47c7b7	0.012193612
91	0x3bc4b2a5	0.0060027414
92	0x3ad6ae68	0.0016378881
93	0x3a35cb1d	0.0006934868
94	0xba5db777	-0.00084578193
95	0x3b082ec3	0.0020779825
96	0x3a5ea09d	0.0008492561
97	0xbc122156	-0.008919081
98	0xbc100aa3	-0.0087915985
99	0x3c616998	0.013758086
100	0x3a0aebd4	0.00052994234
101	0x3bfd8d33	0.0077377795
102	0xbc067c33	-0.008208322
103	0x3b6715f3	0.0035260885
104	0xba82e129	-0.0009985316
105	0x3b10907b	0.0022058773
106	0x3bb56a43	0.005536349
107	0x3ba101d8	0.00491355
108	0x3c48e53f	0.012261688
109	0x3b7d5095	0.0038652767
110	0xbc0aeaa7	-0.008478797
111	0xbc54adb8	-0.012980871
112	0x3bc7f764	0.0061024893
113	0xbb9a4bcf	-0.004708744
114	0xbc027c50	-0.007964209
115	0x3c046cef	0.008082612
116	0x3c4d8d9a	0.0125459675
117	0x3bad10d6	0.005281548
118	0x3b4e14df	0.0031445546
119	0x3ad2db6b	0.001608712
120	0x3b50cf4f	0.0031861847
121	0xbb82dc1f	-0.0039935256
122	0xbc0239e7	-0.007948375
123	0x3b000cb3	0.001953882
124	0xbaf6a78b	-0.0018818242
125	0xbbb736c4	-0.0055912454
126	0xbbad006e	-0.0052795922
127	0xbbcadbcf	-0.006190754
128	0xbb309a84	-0.0026947567
129	0xbb6dc8f0	-0.0036283098
130	0xbbfafcb3	-0.0076595186
131	0xbbcea25b	-0.0063059754
132	0x3b90f941	0.0044242446
133	0x3b1509eb	0.0022741507
134	0x3b1fd373	0.0024387508
135	0x3a8173d3	0.0009876437
136	0xbc631d43	-0.013861957
137	0x3be9dffb	0.0071372963
138	0xbb76724a	-0.0037604743
139	0xb9f07d7a	-0.00045869855
140	0xb9905f8e	-0.00027537014
141	0x3bd9b090	0.0066433623
142	0xbc0b76ac	-0.00851218
143	0x3c0bf013	0.008541125
144	0x3aa747e9	0.001276252
145	0xb94b68a3	-0.00019398569
146	0x3c05f39f	0.00817576
147	0x3b078412	0.0020678085
148	0xba703868	-0.00091636786
149	0xbb046704	-0.0020203004
150	0xbb125a70	-0.0022331737
151	0xbc02183e	-0.00794035
152	0x3b8a6b3f	0.0042242105
153	0xbc806898	-0.015674874
154	0x3c03f8a9	0.008054891
155	0xbb097bad	-0.0020978258
156	0xbae28235	-0.0017281236
157	0x38512cd3	4.987123e-05
158	0xba3fb894	-0.0007313576
159	0xba4421b3	-0.0007481828
160	0x38c95133	9.5995514e-05
161	0xba75b9ba	-0.0009373684
162	0x3bc91a07	0.006137136
163	0xbac44df5	-0.0014976846
164	0xbbcc477a	-0.0062341066
165	0xbc78aabd	-0.015177426
166	0x3c0abe84	0.008468274
167	0x3b8d1812	0.004305848
168	0x3a8a9ac1	0.0010574685
169	0xbc114c32	-0.008868264
170	0x3b00e2e4	0.0019666487
171	0x3be88065	0.007095384
172	0xbac03bcf	-0.0014666262
173	0x3b00ea69	0.001967097
174	0xbc449233	-0.011997747
175	0xb99edc72	-0.00030300353
176	0x3be3191f	0.006930485
177	0x3b7cae0a	0.0038555884
178	0x3b3c7218	0.0028754529
179	0xbba9a834	-0.005177522
180	0x3bb39729	0.005480666
181	0xbc4e75c3	-0.012601319
182	0xba035543	-0.00050099584
183	0xbab58da7	-0.001385142
184	0xbb96b5b3	-0.004599297
185	0xbbdfd848	-0.0068312027
186	0x3b3acb2d	0.002850245
187	0xba16e4a1	-0.0005756114
188	0xbaf7770d	-0.0018880084
189	0x3bf3e5db	0.0074431724
190	0x3bd744cf	0.006569482
191	0xbc055dbc	-0.008140024
192	0x3bde5752	0.0067853117
193	0xbb7154f7	-0.0036824325
194	0xbbcf1d60	-0.0063206404
195	0xbb1379df	-0.002250306
196	0xbb697d95	-0.0035627831
197	0xbb48c097	-0.003063237
198	0x3b66faef	0.0035244783
199	0x3b545222	0.0032397588
200	0x3bb7d46b	0.005610039
201	0x3be29d1d	0.006915702
202	0xbb3e6142	-0.002904967
203	0xbb3b9e7c	-0.00286284
204	0xbb02d1df	-0.0019961519
205	0xbb23ab20	-0.0024973825
206	0x3a9c331b	0.0011917086
207	0x3b9f1e11	0.004855879
208	0x3b1a3ad6	0.0023533604
209	0xbbd64e0f	-0.006540067
210	0x3b6a2c6a	0.003573204
211	0x3a3d4c2b	0.0007221128
212	0xbabc0d94	-0.0014347308
213	0xbba1132e	-0.0049156165
214	0x3ba11a13	0.0049164384
215	0x3b903632	0.004400992
216	0x3b8a7396	0.0042252047
217	0x3a356750	0.0006919997
218	0x3b79c122	0.00381095
219	0xbac4da66	-0.0015018701
220	0xbc1174dc	-0.008877959
221	0x3c050836	0.008119633
222	0xbae56be0	-0.0017503463
223	0x3b9b6dd7	0.0047433185
224	0xbb183109	-0.0023222587
225	0xba2e4da0	-0.000664914
226	0x3b5cc55f	0.0033686978
227	0x3ba1b967	0.0049354318
228	0xbb4422aa	-0.0029927888
229	0x3aa20fe1	0.0012364351
230	0x3c508315	0.012726565
231	0xbbc93fdb	-0.0061416454
232	0x3b088ee7	0.002083713
233	0xbad0f443	-0.0015941936
234	0xbb9e73f3	-0.0048355996
235	0x3b557c7b	0.0032575417
236	0xbb4aaf99	-0.0030927418
237	0x3bb89ac9	0.005633686
238	0xbc53df97	-0.012931726
239	0x3c27384f	0.010206296
240	0xbc268a66	-0.010164833
241	0x3b305003	0.002690316
242	0xbae4cad8	-0.0017455472
243	0x3a83ece8	0.001006511
244	0xbbe417cf	-0.006960846
245	0xbb426ae5	-0.0029665765
246	0x3bee3bb5	0.007270301
247	0x3c116df5	0.008876313
248	0x3a87ec7a	0.0010370158
249	0xbc1714f1	-0.009221301
250	0xbb447bd4	-0.0029981034
251	0x3ad21c1f	0.0016030109
252	0xbb59b8c5	-0.0033221703
253	0xbc257eab	-0.010101001
254	0x3b26b8f4	0.002543983
255	0xbb89ca03	-0.00420499

action_model._discrete_distribution.branches.1.bias f4 [3]
0	0x00000000	0.0
1	0x00000000	0.0
2	0x00000000	0.0

action_model._discrete_distribution.branches.2.weight f4 [2, 256]
0	0x3b82b34d	0.0039886595
1	0xba30517f	-0.0006726011
2	0xbbc43d82	-0.0059887776
3	0x3bde2f0d	0.0067805112
4	0x3b76b392	0.0037643653
5	0xbacae7fb	-0.0015480513
6	0xbae0ff43	-0.0017165918
7	0xbb39795d	-0.0028301098
8	0x3c0e6f5b	0.008693541
9	0x3c4d6a53	0.012537557
10	0x3c5c3dbf	0.013442456
11	0xb9896e98	-0.00026213075
12	0x3b2c72c3	0.002631352
13	0xbaefdb8a	-0.0018299681
14	0xbb1f0fdc	-0.0024270928
15	0x3ab8bbc6	0.0014094047
16	0x3a0d490f	0.000538961
17	0x3b9c6baf	0.004773579
18	0xbb8b2022	-0.004245774
19	0x3c0937cd	0.00837512
20	0xbc2e3240	-0.010632098
21	0x3c1b6b9a	0.009486103
22	0x3b63a743	0.0034737147
23	0x3bad1b58	0.0052828006
24	0x3aef517b	0.0018258536
25	0xbb74f167	-0.0037375332
26	0x3b87f3b9	0.004148927
27	0x3bc040b7	0.0058670896
28	0x3a5f0f43	0.0008509049
29	0x3b268188	0.0025406796
30	0xbbfe2c7f	-0.007756769
31	0x3c0d28ce	0.008615686
32	0x3b37d9a5	0.002805331
33	0xb91071ec	-0.0001377535
34	0x3b1c4423	0.0023844324
35	0xbbf8778f	-0.007582612
36	0xbc3cdedb	-0.011527742
37	0xbc05b5e7	-0.008161045
38	0x3ab93303	0.0014129583
39	0xbba559de	-0.0050461134
40	0x3c109b8a	0.008826146
41	0xbbb40dcc	-0.005494809
42	0x3c1d8949	0.009615251
43	0xb9e85b73	-0.00044318623
44	0x3c0e718a	0.008694062
45	0x3948b0c4	0.00019139337
46	0x3bc1f847	0.0059194895
47	0xbae62112	-0.0017557463
48	0x3afede3a	0.0019444891
49	0xbb8e6cf3	-0.004346484
50	0x3bb0ad37	0.0053917426
51	0xbc380800	-0.011232376
52	0x38b3a84c	8.566733e-05
53	0x3b790dc5	0.0038002592
54	0xbbcf7cba	-0.0063320072
55	0x3bb697e1	0.0055723046
56	0x3ae9afa7	0.0017828838
57	0x3b7ab5cb	0.003825533
58	0xbb9efc8c	-0.0048518833
59	0x3a439f23	0.0007462373
60	0xbc2c3539	-0.010510736
61	0x3b2519af	0.002519231
62	0xbb1769e2	-0.0023103883
63	0xbb43e2fa	-0.0029889927
64	0x39ed6d50	0.00045285607
65	0xbbaeba13	-0.0053322404
66	0x3c6533a0	0.013989359
67	0xbb2a261d	-0.0025962659
68	0xbb063584	-0.0020478675
69	0xbc34b2a9	-0.011028924
70	0x3b6a24a5	0.0035727408
71	0xba2d99f8	-0.00066223694
72	0x3a1c779b	0.00059687503
73	0xb9d42b0a	-0.00040467858
74	0xbc644de5	-0.013934587
75	0xbab1821c	-0.0013542804
76	0xba8251ef	-0.0009942631
77	0x3ab92a53	0.0014126993
78	0xbb88bc21	-0.0041728173
79	0xbc18f42a	-0.009335557
80	0x3b619e90	0.0034426786
81	0xbb2907e1	-0.002579205
82	0xba3e8e86	-0.00072691625
83	0xbb3ca2df	-0.0028783602
84	0xbb797540	-0.0038064271
85	0x3af70042	0.0018844681
86	0xbba9df93	-0.005184123
87	0x3ba4228d	0.0050090016
88	0xbb1ea291	-0.0024205784
89	0xbbe8d3ab	-0.007105311
90	0xbbcbd846	-0.00622085
91	0xbb425390	-0.0029651858
92	0x3c04298b	0.008066545
93	0xbb03445f	-0.0020029766
94	0xbc15ee53	-0.009151059
95	0x3c3fa76d	0.011697632
96	0x3bbeb161	0.005819485
97	0x3c03e3db	0.00804993
98	0x3ab3d19f	0.0013719088
99	0xbac6081e	-0.001510862
100	0x3b92880f	0.004471786
101	0xbb87403d	-0.004127531
102	0x3a46abc8	0.0007578698
103	0x3c4f6eb8	0.012660675
104	0xba828a71	-0.0009959472
105	0x3baf5051	0.0053501506
106	0xbb8ca2d2	-0.0042918706
107	0x3be74ba5	0.007058578
108	0xba057873	-0.00050914957
109	0xbc039030	-0.008029982
110	0x3c142eea	0.009044388
111	0x3a459579	0.0007537227
112	0xbbb5b7ab	-0.0055455766
113	0xbbf66cfa	-0.0075203152
114	0x3b8f76e6	0.0043781875
115	0x3c22d5ef	0.009938701
116	0xbb463d5f	-0.0030248982
117	0xbc0c58ee	-0.008566124
118	0x3b8639a6	0.0040962277
119	0x3bb891e7	0.0056326273
120	0x3c937c22	0.018003527
121	0x3a314e6f	0.00067637017
122	0xbc1a1288	-0.009403832
123	0xbb8f339f	-0.0043701674
124	0x3b744998	0.003727531
125	0xbc088f27	-0.008334911
126	0xbb1400d3	-0.00225835
127	0xbbd4a8a0	-0.006489828
128	0x3a964d27	0.0011467085
129	0x3b1af393	0.0023643717
130	0xb9f472f0	-0.00046624942
131	0xbbcefd73	-0.0063168346
132	0xbc824f2b	-0.01590689
133	0x3bee48af	0.007271848
134	0xbbecd867	-0.0072279456
135	0x3c1315a6	0.008977329
136	0xba29f2f1	-0.00064830395
137	0x3a952bd5	0.0011380861
138	0x3b75a9dd	0.003748528
139	0xbb12fe2f	-0.0022429337
140	0xbc160cd6	-0.009158334
141	0xbbee6108	-0.0072747506
142	0x3b2d8eab	0.0026482742
143	0x3bad90e3	0.005296813
144	0x3c011725	0.007879053
145	0x3c3992f3	0.011326539
146	0xbc0da518	-0.008645318
147	0xbb4e360b	-0.0031465318
148	0x3bec211a	0.0072060945
149	0xbb8be30f	-0.004269011
150	0xbacc47e7	-0.0015585393
151	0xbad52ad5	-0.0016263375
152	0xbc1684d6	-0.009186944
153	0xbc0941bb	-0.008377488
154	0x3bfe4715	0.0077599385
155	0xbbb7c4e2	-0.005608187
156	0xbbf81cef	-0.0075718085
157	0x3b37165b	0.002793691
158	0xbb7d34ad	-0.0038636134
159	0x3b2d5807	0.0026450173
160	0x3a5dd57b	0.0008462292
161	0x3c003302	0.007824661
162	0x3c1379f6	0.009001246
163	0xbb92f12d	-0.004484317
164	0xbacc19c7	-0.0015571647
165	0x3be75322	0.0070594708
166	0x3a15a8ce	0.0005709053
167	0xba45550f	-0.00075276283
168	0xbc141dc3	-0.009040299
169	0xbb276be4	-0.0025546486
170	0xbb1cf9a5	-0.002395251
171	0xbb7d9472	-0.0038693217
172	0xbc34777d	-0.011014816
173	0xbc1a45d3	-0.009416061
174	0x3b5da428	0.0033819769
175	0x3b376cbe	0.00279884
176	0x3c50dd75	0.012748112
177	0xbbbf5388	-0.005838815
178	0x3b94620b	0.004528289
179	0x3bd046b5	0.006356085
180	0x3bd77e33	0.0065763234
181	0xbb7d980b	-0.003869536
182	0xbbfa8da7	-0.007646281
183	0x3b6d9942	0.003625468
184	0xba0d274f	-0.00053845806
185	0xbc234a8f	-0.009966507
186	0xbc178f11	-0.009250418
187	0xbbfec4b2	-0.0077749128
188	0x3ba306a6	0.004975158
189	0x3bc7ec9f	0.0061012055
190	0xbb57d940	-0.0032935888
191	0xbbd654b0	-0.0065408573
192	0x3b1b50fe	0.0023699398
193	0x3c5def9a	0.013545895
194	0x3bcadf33	0.006191158
195	0x3c110b09	0.008852729
196	0x3c47c6e7	0.012193418
197	0xbbcfd8d7	-0.006342988
198	0xbba99310	-0.005175002
199	0x3adcdd3a	0.0016850599
200	0x3b057f06	0.0020369901
201	0xbafcd613	-0.0019289873
202	0x380e5504	3.3934615e-05
203	0x3be680d2	0.0070343995
204	0x3b90a15f	0.004413768
205	0x3be70232	0.0070498222
206	0xbbdf070a	-0.006806259
207	0xbad0ed13	-0.0015939794
208	0xbbc4cb0c	-0.0060056504
209	0x3ab67f4d	0.0013923437
210	0x3bf2f0fa	0.0074139806
211	0xbc52e2ca	-0.012871454
212	0xbc122103	-0.008919003
213	0xbbe72f52	-0.0070552016
214	0xbbe710c5	-0.0070515596
215	0xbab05979	-0.0013454399
216	0xbb0bebdf	-0.0021350307
217	0xb8305c7e	-4.204781e-05
218	0x3c20b594	0.009808917
219	0x3c0b369c	0.008496907
220	0x3c1f5cbe	0.009726701
221	0xbbcdbe55	-0.006278793
222	0xbbe7ab6d	-0.007069996
223	0x3af3e080	0.0018606335
224	0xbc4762f2	-0.0121695865
225	0x3babd34e	0.0052436953
226	0xbc0a1547	-0.0084279245
227	0x3b7bca87	0.0038420276
228	0xbc1f5998	-0.009725951
229	0x3c000d03	0.007815602
230	0xbb96710f	-0.0045911144
231	0xbbd7b262	-0.006582544
232	0xbb885264	-0.0041602124
233	0xbbe79353	-0.007067123
234	0x3b284929	0.0025678372
235	0xba9b208b	-0.001183526
236	0x3b6d2c4a	0.0036189728
237	0x3c6845ab	0.014176766
238	0xba33e7cb	-0.0006862848
239	0x3b81bff6	0.003959651
240	0x3b6b394a	0.0035892301
241	0xbb860b2b	-0.004090687
242	0x3a4b31a0	0.000775123
243	0xbb87a95f	-0.0041400637
244	0x3b21b649	0.00246753
245	0xbb6c5b3f	-0.003606513
246	0x3a6935ca	0.000889626
247	0x3c33739e	0.010952858
248	0x3c59f3eb	0.0133027835
249	0xba8aea28	-0.0010598348
250	0x3bc99dab	0.0061528287
251	0x3c6fc000	0.014633179
252	0x3c6c3bef	0.014418586
253	0xbbafcead	-0.005365214
254	0x3b9a6eba	0.0047129067
255	0xbc3e9b57	-0.011633716
