results/skillBoat/boat/boat-5499981.onnx (onnx, 340257 bytes, 11 tensors)

discrete_act_size_vector f4 [1, 3]
2.0 3.0 2.0
00000000: 0000 0040 0000 4040 0000 0040

network_body._body_endoder.seq_layers.0.weight f4 [256, 58]
-0.041688353 0.102849916 0.124042824 -0.041071948 -0.44321734 -0.08628094 0.009304332 -0.101097226
-0.044213273 -0.011170203 -0.009356702 -0.21602605 -0.11191158 0.0010179162 -0.21050313 0.19424692
-0.066702075 0.28577325 -0.1628578 -0.117167585 -0.12430575 -0.118035525 0.091739826 0.14352062
-0.24865021 0.049977675 -0.0130873285 -0.024251685 -0.11481775 -0.012758553 0.01735058 0.15349203
0.20948875 0.04812582 0.10761134 0.024513187 0.11720566 -0.22531116 -0.09331023 -0.083947085
-0.15287611 0.006710247 -0.10049696 -0.0050245076 0.028131174 0.0029456492 -0.11448474 -0.02015783
-0.14112736 0.11261151 -0.12347392 -0.077298604 -0.22303095 -0.2514383 -0.16615033 0.11294819
-0.03443297 -0.107230306 0.14419107 -0.0055648573 -0.0012132174 -0.01751049 -0.09834405 -0.063133
0.0071853288 -0.12759887 0.18053411 0.030881472 0.116995655 -0.13665035 -0.18545304 0.110734165
-0.026651297 0.17203234 -0.23263867 0.05303163 -0.17114091 -0.22987126 0.13282885 -0.064069755
-0.08281936 -0.09193344 -0.030664887 -0.11409231 -0.027618999 -0.10319175 0.110455155 -0.11686321
0.03157443 0.040705673 -0.25996694 0.11540354 -0.00023089371 -0.018966664 0.043860983 0.30382967
0.033170283 0.16156754 0.28093985 0.12947233 0.19871016 0.014952452 0.04530744 0.1892369
0.034892794 -0.0885609 -0.079789996 -0.07713716 -0.194593 -0.05522326 -0.1371897 -0.049871087
-0.17181242 0.11227875 -0.054660898 -0.11058159 0.10436685 0.073978074 -0.07914365 -0.041040495
-0.03152644 -0.005564628 -0.207128 -0.15771908 -0.15221381 -0.07245997 -0.12485147 -0.12402527
0.04467009 -0.22155242 0.21498717 0.06824751 -0.14578314 0.024358917 -0.29599324 -0.30749026
0.10945067 0.028901586 -0.11048025 0.056635704 -0.23509619 -0.23507878 -0.2025371 -0.3082293
-0.19895916 -0.09630086 -0.080521904 0.1105855 -0.07817964 0.102483824 0.13616043 -0.104241304
-0.010123708 0.07512478 0.006394493 -0.15369001 0.3207059 -0.02809405 -0.0370942 0.07739659
0.02879393 -0.3086029 -0.16375193 -0.13820964 -0.109034486 0.08548728 -0.14500351 -0.010072653
0.048745804 0.026603233 0.20951355 0.019818736 0.3067635 0.18849932 -0.045192428 0.10462976
0.04642142 0.08219496 0.0820034 0.1766486 -0.088870764 0.2231065 0.20476429 0.032315597
0.10679432 -0.07570956 -0.111282624 -0.058642462 -0.16841513 0.18855882 0.1284441 0.28809056
0.040754665 0.016475488 -0.037457775 0.118916735 0.034447923 -0.10695597 -0.20075007 0.19304268
-0.10908663 0.20945081 0.33406365 -0.073057674 -0.101243 0.24716651 -0.0896551 -0.06443281
-0.0138255665 0.2225204 -0.119605646 -0.008087559 0.3019652 0.10921973 0.18697669 -0.023430333
-0.23028192 -0.12051004 0.09747372 0.16755928 0.15768328 0.14616308 -0.07894884 0.07630079
-0.15653649 -0.17738785 -0.0044743796 -0.031191325 -0.11994773 0.19579713 -0.03230949 0.003910955
0.12381786 0.06090663 -0.056857888 0.02241471 -0.07314704 -0.057820115 0.20440657 -0.117891744
-0.12685613 0.166837 0.16410224 0.16158459 -0.08987334 0.13661169 -0.039437793 -0.061403263
0.026256261 0.18179981 0.043063134 0.04580633 0.117194764 -0.026289353 -0.18720709 -0.22526167
00000000: 68c1 2abd faa2 d23d 2a0a fe3d 0f3b 28bd
00000010: 62ed e2be 10b4 b0bd 3271 183c 100c cfbd
00000020: fa18 35bd 3a03 37bc da4c 19bc ef35 5dbe
00000030: e631 e5bd 9a6b 853a 228e 57be aae8 463e
00000040: 199b 88bd df50 923e 32c4 26be 8ff5 efbd
00000050: 0394 febd 9cbc f1bd 17e2 bb3d 12f7 123e
00000060: 299e 7ebe 64b5 4c3d 3c6c 56bc 78ab c6bc
00000070: 9225 ebbd 4009 51bc ce22 8e3c 042d 1d3e
00000080: 3884 563e 941f 453d 5663 dc3d e1cf c83c
00000090: 8509 f03d f8b7 66be 6f19 bfbd 73ec abbd
000000a0: 8e8b 1cbe a2e1 db3b 5ad1 cdbd a0a4 a4bb
000000b0: 5973 e63c cb0b 413b fa76 eabd 0922 a5bc
000000c0: b183 10be dda0 e63d e5df fcbd bb4e 9ebd
000000d0: 3a62 64be 85bc 80be 5023 2abe 6151 e73d
000000e0: 9609 0dbd 909b dbbd d3a6 133e 6859 b6bb
000000f0: d204 9fba 2972 8fbc 9b68 c9bd e04b 81bd
00000100: e872 eb3b 47a9 02be efdd 383e 24fb fc3c
00000110: 6b9b ef3d 12ee 0bbe 67e7 3dbe 98c8 e23d
00000120: d253 dabc 3f29 303e d538 6ebe b237 593d
00000130: 903f 2fbe 5f63 6bbe 4904 083e 0137 83bd
00000140: 329d a9bd 9947 bcbd ee34 fbbc 3ba9 e9bd
00000150: 3d41 e2bc 3256 d3bd 5036 e23d fb55 efbd
00000160: 3154 013d feba 263d 631a 85be b158 ec3d
00000170: 0f1c 72b9 fa5f 9bbc 93a7 333d 908f 9b3e
00000180: 90dd 073d f671 253e 59d7 8f3e 6594 043e
00000190: ad7a 4b3e 21fb 743c 4b94 393d 51c7 413e
000001a0: bfeb 0e3d 6b5f b5bd f068 a3bd 16fa 9dbd
000001b0: 6343 47be c931 62bd 757b 0cbe a045 4cbd
000001c0: 98ef 2fbe 67f2 e53d 1be4 5fbd 9a78 e2bd
000001d0: 49be d53d d181 973d 1116 a2bd 141a 28bd
000001e0: de21 01bd 7c57 b6bb 5d19 54be 1c81 21be
000001f0: f0dd 1bbe e565 94bd 21b2 ffbd f600 febd
00000200: fcf7 363d a3de 62be 9925 5c3e 5ac5 8b3d
00000210: 2d48 15be 5a8c c73c 6d8c 97be 5d6f 9dbe
00000220: ac27 e03d 05c3 ec3c 7843 e2bd d7fa 673d
00000230: 0ebd 70be 7eb8 70be e365 4fbe 3bd0 9dbe
00000240: f3bb 4bbe 6339 c5bd abe8 a4bd a77a e23d
00000250: a61c a0bd 0ae3 d13d a46d 0b3e 777c d5bd
00000260: e9dd 25bc 05db 993d e588 d13b ea60 1dbe
00000270: 9033 a43e 7e25 e6bc 16f0 17bd 1a82 9e3d
00000280: 3fe1 eb3c 3301 9ebe 96ae 27be d486 0dbe
00000290: 794d dfbd f413 af3d cd7b 14be c507 25bc
000002a0: aea9 473d 06ef d93c b88a 563e e75a a23c
000002b0: 1b10 9d3e f705 413e b21b 39bd 2148 d63d
000002c0: 6324 3e3d d555 a83d 66f1 a73d 5fe3 343e
000002d0: e001 b6bd 0876 643e bbad 513e 5c5d 043d
000002e0: fbb6 da3d 9d0d 9bbd 25e8 e3bd 1433 70bd
000002f0: 0475 2cbe 9015 413e da86 033e 9b80 933e
00000300: 5dee 263d 9af7 863c 536d 19bd 9e8a f33d
00000310: 4419 0d3d bb0b dbbd 6d91 4dbe fbac 453e
00000320: d068 dfbd 467a 563e 640a ab3e 439f 95bd
00000330: 7d58 cfbd 3819 7d3e 189d b7bd 59f5 83bd
00000340: a184 62bc 63dc 633e cef3 f4bd ae81 04bc
00000350: 2f9b 9a3e 98ae df3d d176 3f3e f8f0 bfbc
00000360: 06cf 6bbe f8cd f6bd 4da0 c73d a994 2b3e
00000370: ba77 213e c6ab 153e eeaf a1bd 9743 9c3d
00000380: 1a4b 20be 29a5 35be d19d 92bb f384 ffbc
00000390: 28a7 f5bd 0b7f 483e f556 04bd 7827 803b
000003a0: 3894 fd3d 3b79 793d d1e3 68bd 0e9f b73c
000003b0: 1ece 95bd c9d4 6cbd f54f 513e 3a71 f1bd
000003c0: 93e6 01be 52d7 2a3e 6b0a 283e 6e76 253e
000003d0: 840f b8bd efe3 0b3e 8689 21bd fd81 7bbd
000003e0: 5f17 d73c bb29 3a3e f862 303d 6b9f 3b3d
000003f0: cf03 f03d c55c d7bc 37b3 3fbe ffaa 66be

network_body._body_endoder.seq_layers.0.bias f4 [256]
-0.016258271 -0.016603434 -0.019715348 0.055404067 -0.0027998923 -0.028971953 -0.00816931 -0.0142025715
-0.0083353 -0.028451495 0.00026792867 -0.0086550135 0.036167644 0.0007000808 -0.005560968 -0.013163842
0.0067606866 -0.00671996 -0.0067020706 0.040689357 -0.0039773076 -0.012569711 0.020948552 -0.0012007579
-0.016368892 -0.020765731 -0.012030152 0.0047316565 -0.039559443 0.015899492 -0.009671035 -0.020356229
-0.00783667 -0.012642864 -0.00770016 0.00763 -0.01259941 -0.020508468 0.0088134315 0.0019687049
0.029664094 -0.008280026 -0.003959811 -0.0069789765 -0.013856241 -0.010459764 0.0013656555 0.026550483
0.05986925 0.0022681782 -0.0013598662 0.026356379 0.03935766 0.042562336 0.0047368924 -0.029988784
0.02231668 0.009615978 0.044555184 0.018292235 -0.009326345 0.04510051 0.016857415 0.03102668
-0.00388256 -0.03503152 0.0076545123 -0.016627489 -0.013288909 0.0027355156 0.017997356 0.017551107
0.014489344 0.0011921613 0.025019133 -0.0232071 0.0061117616 0.0026713489 -0.0040172427 -0.011707338
-0.027858036 -0.0034159438 0.02389705 0.037400838 -0.009810086 0.007418342 0.0046782107 0.011653249
0.008493778 0.002235623 -0.0007929269 -0.005472984 0.02774604 -0.009170227 0.014426313 0.024470553
0.0014675059 -0.0069302665 -0.009914345 -0.022708185 0.013394596 0.047057547 0.03719682 0.00091112
-0.011859939 -0.00932694 -0.014312631 0.03288998 -0.0196338 -0.00083731057 -0.030370237 -0.009579858
-0.0024909782 0.025580462 0.0017738728 -0.008114951 -0.0024293503 -0.012452022 0.0073827244 -0.0115579255
0.004429668 -0.00048750124 -0.0048242174 -0.012178607 -0.00081276294 0.015010058 -0.0065022144 -0.03203244
0.0024516475 0.015041234 -0.025492039 -0.015260063 -0.005365821 -0.005492706 -0.021234732 0.011030245
0.008945807 0.010981135 0.015310927 0.009754247 0.017791416 0.0022705395 0.01309915 -0.007544441
0.0027922322 -0.036404546 -0.011445327 -0.006848811 0.021133816 -0.034060575 -0.006997574 0.013626136
0.012083238 -0.026414288 -0.006339497 -0.0093876375 0.047093857 0.0515056 -0.025363807 0.0041230405
0.0083814375 0.019305773 0.008972468 0.020160148 -0.00077275507 0.04274094 0.013438256 0.00483119
0.023675626 0.005076226 0.02543494 -0.0030343153 0.005573618 -0.0023447052 0.028465122 -0.021475283
0.026621297 0.016052304 0.0009166392 -0.026918635 0.022315754 -0.012619551 0.0001835536 0.013446839
-0.032377627 0.0070496476 -0.02371052 0.0002922092 0.0050485437 -0.005034616 -0.011865388 0.035061274
0.008922542 0.030776491 0.006929576 0.05081714 -0.023240888 0.006743188 -0.013221987 0.012849234
-0.032807726 -0.0009821112 -0.022548687 0.004307377 -0.001378677 -0.0023864785 0.00348601 -2.4342726e-05
-0.020529937 0.040699296 0.048834585 -0.011452942 0.007263298 0.0048815473 -0.003283335 -0.015438503
-0.031491447 -0.024421304 0.010225661 0.02606506 0.047724895 -0.011632374 -0.007211161 0.009608406
0.00071061257 0.0040215547 -0.0066277813 -0.0038515993 -0.030926915 -0.005668961 -0.023411196 0.028158385
-0.01590973 0.010049952 -0.025108408 -0.01819232 0.017187735 0.026401615 0.0065785055 -0.01962013
0.006972638 0.020287342 -0.006137353 0.024019744 -0.0071390313 0.01166624 -0.006243425 -0.01595124
0.0029035732 -0.00038019117 0.012590967 0.001534447 0.013620007 0.006607123 -0.0020099839 0.024230571
00000000: 1130 85bc ed03 88bc 1582 a1bc 60ef 623d
00000010: 667e 37bb 9756 edbc 92d8 05bc e7b1 68bc
00000020: c890 08bc 1c13 e9bc c778 8c39 c2cd 0dbc
00000030: 8624 143d a185 373a c838 b6bb 28ad 57bc
00000040: c088 dd3b 1c33 dcbb 0b9d dbbb e2a9 263d
00000050: 1354 82bb 30f1 4dbc 4c9c ab3c c062 9dba
00000060: 0e18 86bc e51c aabc 1d1a 45bc 030c 9b3b
00000070: 1509 22bd a73f 823c 4373 1ebc 1bc2 a6bc
00000080: 6065 00bc 0424 4fbc a051 fcbb 1405 fa3b
00000090: c16d 4ebc 6001 a8bc 3666 103c 6305 013b
000000a0: 1d02 f33c f2a8 07bc 4dc1 81bb e6af e4bb
000000b0: 4905 63bc 6e5f 2bbc cbff b23a 6680 d93c
000000c0: 7539 753d b7a5 143b 8a3d b2ba 55e9 d73c
000000d0: 7f35 213d d855 2e3d ef37 9b3b 0aab f5bc
000000e0: 78d1 b63c 568c 1d3c 7f7f 363d 99d9 953c
000000f0: 87cd 18bc 50bb 383d 9018 8a3c aa2b fe3c
00000100: 8c72 7ebb 367d 0fbd b4d2 fa3b 5f36 88bc
00000110: b9b9 59bc 5646 333b 316f 933c 57c7 8f3c
00000120: b764 6d3c 4c42 9c3a edf4 cc3c d11c bebc
00000130: 2c45 c83b cc11 2f3b 13a3 83bb 22d0 3fbc
00000140: 8936 e4bc 07de 5fbb bfc3 c33c 9f31 193d
00000150: 7cba 20bc 9015 f33b ad4b 993b 45ed 3e3c
00000160: 7d29 0b3c 8883 123b 6cdc 4fba b856 b3bb
00000170: aa4b e33c b83e 16bc 585c 6c3c 7876 c83c
00000180: 5459 c03a 4a17 e3bb c76f 22bc 8406 babc
00000190: 0275 5b3c 6abf 403d b15b 183d 3ad8 6e3a
000001a0: 3150 42bc 06d0 18bc 877f 6abc a5b7 063d
000001b0: 10d7 a0bc f67e 5bba 01cb f8bc d6f4 1cbc
000001c0: ae3f 23bb 1e8e d13c 4b81 e83a 92f4 04bc
000001d0: bc35 1fbb 9103 4cbc c8ea f13b 745d 3dbc
000001e0: c026 913b 4f97 ffb9 7814 9ebb c888 47bc
000001f0: 990f 55ba bfec 753c 8710 d5bb 7334 03bd
00000200: d2ab 203b 826f 763c aed4 d0bc 5805 7abc
00000210: c5d3 afbb 28fc b3bb 76f4 adbc 33b8 343c
00000220: 6f91 123c 38ea 333c afda 7a3c 47d0 1f3c
00000230: 4ebf 913c 55cd 143b d19d 563c 5c37 f7bb
00000240: e2fd 363b ef1c 15bd 2e85 3bbc fe6b e0bb
00000250: d320 ad3c 1a83 0bbd e84b e5bb 2840 5f3c
00000260: c6f8 453c c762 d8bc 8ebb cfbb 9bce 19bc
00000270: 7de5 403d 89f7 523d c2c7 cfbc 921a 873b
00000280: 4c52 093c 2427 9e3c 4201 133c e526 a53c
00000290: b792 4aba 2011 2f3d 222c 5c3c f64e 9e3b
000002a0: 63f3 c13c 7856 a63b ef5c d03c 5ddb 46bb
000002b0: e6a2 b63b a0a9 19bb b02f e93c efec afbc
000002c0: e814 da3c 1f80 833c 9e4a 703a 7884 dcbc
000002d0: 87cf b63c 3cc2 4ebc 4b78 4039 2150 5c3c
000002e0: 679e 04bd bb00 e73b 903c c2bc a833 9939
000002f0: 416e a53b 6cf9 a4bb 0b67 42bc 699c 0f3d
00000300: db2f 123c fb1e fc3c 7f11 e33b a225 503d
00000310: ad63 bebc f6f5 dc3b 08a1 58bc 9885 523c
00000320: 6561 06bd 2fba 80ba 06b8 b8bc e624 8d3b
00000330: b9b4 b4ba 7766 1cbb 8b75 643b 9b33 ccb7
00000340: 662e a8bc 4eb4 263d c606 483d 1fa5 3bbc
00000350: f600 ee3b 63f5 9f3b 382d 57bb c6f1 7cbc
00000360: 2dfd 00bd 300f c8bc 8889 273c 6586 d53c
00000370: 2e7b 433d b695 3ebc 9a4b ecbb 936c 1d3c
00000380: 6748 3a3a 3fc7 833b dc2d d9bb 1d6b 7cbb
00000390: 715a fdbc b1c2 b9bb d6c8 bfbc 6aac e63c
000003a0: 1f55 82bc 8ea8 243c 26b0 cdbc 0f08 95bc
000003b0: 4bcd 8c3c 3348 d83c 8190 d73b 65ba a0bc
000003c0: ba7a e43b a431 a63c d91b c9bb 0ec5 c43c
000003d0: 89ee e9bb c223 3f3c a595 ccbb 2dac 82bc
000003e0: e049 3e3b 6554 c7b9 584a 4e3c 7f1f c93a
000003f0: 7326 5f3c 9180 d83b efb9 03bb 317f c63c

network_body._body_endoder.seq_layers.2.weight f4 [256, 256]
-0.022745593 -0.1470721 0.057019975 0.059630934 0.056705363 0.0064296178 -0.07628957 0.117958516
-0.06475025 -0.11276045 0.038481213 -0.07702182 -0.0060093077 0.019253936 -0.010648443 0.012734286
0.06823466 0.04883178 -0.043185737 -0.145806 0.053049114 0.0074782223 0.04663098 -0.055483144
-0.015758393 0.14204566 0.022180056 0.042583182 0.04605879 -0.027317762 0.057704184 0.06435457
0.00080527796 -0.0053405333 -0.07570419 -0.12855868 -0.08192201 -0.042865295 -0.092135504 -0.0018317864
0.04404097 0.058328345 0.113575846 0.005718381 -0.0013937409 -0.0104625905 -0.094963215 0.109922886
0.050178453 -0.044575788 -0.029593125 0.024365 -0.037295137 0.07818383 -0.04018583 -0.07951613
0.13527252 -0.04098774 -0.024089428 0.07558261 0.06758729 0.09579686 0.102291875 0.01201055
-0.0009967872 0.040366784 0.0556465 -0.091114774 0.034400523 -0.02512126 0.048763636 0.027229311
-0.0050619375 -0.01501856 0.03847949 0.023713179 0.09186949 0.0012543586 -0.117050715 0.025023624
-0.06675588 0.021371953 -0.06550975 -0.09073178 0.061838403 -0.015237861 -0.0874636 -0.0413959
-0.023550984 0.035236377 0.13296483 -0.0011478289 -0.0063084993 0.00728242 -0.044736993 -0.019342573
-0.037324775 -0.13835031 -0.088689946 -0.0033068121 -0.0625788 0.08117617 0.08243802 -0.15334545
-0.031103296 0.04485738 0.11794275 -0.032149326 -0.0071269707 -0.009110996 -0.01584408 -0.0865596
-0.0027828163 0.10271545 -0.07454106 -0.027426686 -0.14887306 0.10191932 0.05054764 -0.0609651
0.021705873 0.048308983 -0.11877207 0.043709345 -0.07690799 0.033051386 -0.032053728 -0.0414284
0.028475774 -0.011981077 0.04252078 -0.043063156 0.09435264 -0.0008106592 0.07122172 0.007302685
-0.00046191117 0.08816142 -0.12007841 0.009580316 -0.07506474 -0.0045817657 0.07383699 0.0034071892
0.07927707 0.07843814 0.055266663 -0.009291953 -0.12037483 0.089181736 0.06995624 0.09187754
-0.07228531 -0.016739717 -0.10163522 -0.012438124 -0.0019905316 0.09442 -0.055114012 -0.049065955
-0.010589946 0.059957266 0.07711306 -0.047240343 -0.02007383 -0.086311616 -0.048293162 0.06380395
-0.009675304 0.052591033 0.10054506 0.055291474 0.00031119367 -0.0063748593 0.07942236 0.028381111
0.04245232 0.034500487 0.084059775 -0.0084485235 -0.1015329 -0.022767272 0.079280935 0.07719587
-0.031859014 0.011686916 0.023163768 0.08329539 0.042588387 -0.03177645 0.046474796 0.038842574
-0.05584783 -0.07641935 -0.044080477 -0.02650233 0.035675373 0.05750164 0.07611281 0.01619648
-0.0026711696 0.06676775 -0.062052596 0.031675383 0.033475216 0.025203025 -0.13127387 0.09548708
0.00857545 -0.031176077 -0.007140828 0.015739977 -0.0896201 0.037519094 0.010734713 -0.02216781
-0.06890188 -0.06882066 -0.06423115 -0.0016988119 0.103779465 0.05751456 -0.09777421 -0.11845771
-0.017281994 -0.04640039 0.120205715 0.024530655 -0.090396844 -0.024812898 -0.058174163 0.04939534
-0.041801814 -0.028159507 0.10055323 -0.016708493 -0.00040474202 -0.10802413 -0.08839645 0.008089101
-3.2754004e-05 0.15636249 0.063501105 -0.046063382 -0.03086808 0.09050995 0.015750626 -0.013797746
0.095915206 -0.017460834 -0.08777864 0.004417069 -0.051929746 -0.011617975 -0.04985715 0.09528789
00000000: f754 babc 129a 16be c78d 693d 913f 743d
00000010: e243 683d 8baf d23b b53d 9cbd 3c94 f13d
00000020: c79b 84bd f3ee e6bd 7a9e 1d3d 9ebd 9dbd
00000030: bae9 c4bb 6eba 9d3c cf76 2ebc 77a3 503c
00000040: 9dbe 8b3d d503 483d 87e3 30bd 2b4e 15be
00000050: 074a 593d e00b f53b 2000 3f3d 4b42 63bd
00000060: bf17 81bc 6b74 113e f3b2 b53c b46b 2e3d
00000070: 24a8 3c3d 80c9 dfbc 395b 6c3d 54cc 833d
00000080: 4a19 533a a4ff aebb cc0a 9bbd e3a4 03be
00000090: bac6 a7bd 8593 2fbd 8ab1 bcbd 8d18 f0ba
000000a0: 4e64 343d b4e9 6e3d 749a e83d 4261 bb3b
000000b0: 2fae b6ba 496b 2bbc 137c c2bd 401f e13d
000000c0: ec87 4d3d 1a95 36bd 486d f2bc 1c99 c73c
000000d0: c9c2 18bd d81e a03d e699 24bd 5ad9 a2bd
000000e0: e184 0a3e c3e2 27bd 3157 c5bc 0ecb 9a3d
000000f0: 356b 8a3d 2531 c43d 677e d13d e6c7 443c
00000100: a1a6 82ba a457 253d 96ed 633d 629a babd
00000110: 90e7 0c3d 1acb cdbc 61bc 473d 0110 df3c
00000120: 9cde a5bb 6810 76bc ab9c 1d3d 2442 c23c
00000130: 1226 bc3d 4a69 a43a 49b8 efbd 58fe cc3c
00000140: 4fb7 88bd 3c14 af3c fa29 86bd 95d1 b9bd
00000150: 444a 7d3d 39a8 79bc 1e20 b3bd bf8e 29bd
00000160: feed c0bc 0554 103d ef27 083e bf72 96ba
00000170: 87b7 cebb 5ea1 ee3b 233e 37bd 5174 9ebc
00000180: dde1 18bd b4ab 0dbe 13a3 b5bd 1ab7 58bb
00000190: 5029 80bd b13f a63d 44d5 a83d 9706 1dbe
000001a0: 57cc febc 5fbc 373d f88b f13d 03af 03bd
000001b0: 5d89 e9bb 4946 15bc 72cb 81bc 2946 b1bd
000001c0: e95f 36bb 7a5c d23d fca8 98bd eead e0bc
000001d0: 2e72 18be 14bb d03d 0b0b 4f3d 8ab6 79bd
000001e0: 84d0 b13c a4df 453d c53e f3bd 9208 333d
000001f0: f081 9dbd e460 073d c54a 03bd d3b0 29bd
00000200: 0746 e93c 474c 44bc 452a 2e3d fe62 30bd
00000210: f53b c13d 6b82 54ba b1dc 913d 5d4b ef3b
00000220: ab2c f2b9 f98d b43d abeb f5bd c2f6 1c3c
00000230: 8bbb 99bd a322 96bb d937 973d 264b 5f3b
00000240: 045c a23d 2da4 a03d 4c5f 623d 473d 18bc
00000250: 1487 f6bd eaa4 b63d 3845 8f3d 4b2a bc3d
00000260: 520a 94bd bb21 89bc 2026 d0bd 46c9 4bbc
00000270: 9473 02bb 465f c13d 3bbf 61bd 62f9 48bd
00000280: 7481 2dbc c095 753d 74ed 9d3d 177f 41bd
00000290: df71 a4bc 25c4 b0bd 0dcf 45bd a5ab 823d
000002a0: 2b85 1ebc b269 573d 92ea cd3d 5079 623d
000002b0: b527 a339 32e4 d0bb 31a8 a23d 817f e83c
000002c0: 7ce2 2d3d 6250 0d3d 8827 ac3d ad6b 0abc
000002d0: 7bf0 cfbd 6e82 babc 0b5e a23d de18 9e3d
000002e0: 997e 02bd 7b7a 3f3c f1c1 bd3c c696 aa3d
000002f0: 2971 2e3d 0628 02bd 5b5c 3e3d 6419 1f3d
00000300: b2c0 64bd c081 9cbd bb8d 34bd 6a1b d9bc
00000310: 5720 123d d786 6b3d 08e1 9b3d 7bae 843c
00000320: ca0e 2fbb 88bd 883d dd2a 7ebd 0cbe 013d
00000330: 4f1d 093d 9376 ce3c a86c 06be bb8e c33d
00000340: 0b80 0c3c f964 ffbc 9bfd e9bb 20f1 803c
00000350: be8a b7bd 9fad 193d a6e0 2f3c 4499 b5bc
00000360: 6e1c 8dbd d9f1 8cbd 9f8b 83bd abaa deba
00000370: 548a d43d 6394 6b3d d83d c8bd f599 f2bd
00000380: f892 8dbc 560e 3ebd 6a2e f63d 83f4 c83c
00000390: fb21 b9bd 6b44 cbbc 0848 6ebd c552 4a3d
000003a0: 6138 2bbd c4ae e6bc daee cd3d 40e0 88bc
000003b0: 8e33 d4b9 c13b ddbd 3309 b5bd 2688 043c
000003c0: 5861 09b8 7d1d 203e de0c 823d f5ac 3cbd
000003d0: 0edf fcbc 485d b93d 7507 813c f10f 62bc
000003e0: 316f c43d 060a 8fbc 4ac5 b3bd 0fbd 903b
000003f0: 49b4 54bd 5259 3ebc 0337 4cbd 4c26 c33d

network_body._body_endoder.seq_layers.2.bias f4 [256]
-0.006599784 -0.020632539 -0.0245812 -0.019530378 -0.0017041152 0.00037996727 -0.010765418 -0.0043192264
-0.014767368 0.000704141 -0.009213788 0.013843088 -0.0021893915 -0.021931354 0.0027969233 -0.002407433
0.008858052 -0.004972958 0.02215693 -0.013245363 -0.010674548 0.0104224365 -0.02348745 0.0015488734
-0.011326845 0.040706877 -0.015195045 0.01817322 -0.008553989 -0.019906387 0.015453394 0.00034633683
0.018956665 -0.00068805297 0.009766494 -0.020307021 -0.016197635 0.0025966752 -0.0050827684 -0.008400475
-0.0006114937 -0.012460285 0.005806391 -0.026022581 -0.017441625 -0.005977609 0.014749868 -0.010235111
0.017101752 0.0059488406 0.011850442 -0.015577435 0.0047946987 -0.011032705 0.026344426 0.011069197
-0.018381592 0.034080207 -0.010569268 -0.022286924 -0.025669273 -0.009814613 -0.012501757 -0.005129082
0.0045343135 -0.021515511 0.0057139057 0.0097012315 0.0072866622 -0.019725919 -0.018453557 0.003764163
-0.02429304 0.030334366 0.0081113195 0.008922653 0.013592113 -0.013072554 0.020380205 -0.017159568
-0.003259697 0.012921654 0.0146599375 -0.014815943 -0.0069119027 -0.011776689 -0.014607596 -0.008827787
0.0072811055 -0.019081341 -0.003963644 0.006732923 0.013067176 3.2673115e-06 0.006400369 -0.0039129457
0.017526165 -0.0114488695 -0.002470305 0.027653765 -0.020090494 -0.008455772 0.018175254 0.023258805
0.02582963 0.0016572147 0.006614806 0.014529272 -0.005698372 0.0053790673 0.01015548 0.0054771043
-0.005225674 0.013237525 -0.025947886 0.0052226433 -0.00019665327 -0.0012772693 0.016704107 -0.009213115
-0.0044102995 -0.00946856 -0.013600167 0.0009370596 -0.0034404579 -0.014263135 -0.00793559 -0.017818542
0.0013814158 -0.010522298 0.02883952 -0.016933503 -0.017335827 0.015892329 0.023991475 0.0065476974
-0.014046879 2.8548531e-05 0.0016415435 0.0073996913 -0.0081089875 -0.008565864 -0.005910788 0.007466326
0.010060753 -0.015842386 -0.00804236 -0.008895461 -0.007575598 -0.023130603 -0.000541364 0.0050622714
-0.01251788 -0.0087589035 -0.008824644 0.006531343 -0.013641393 0.0063070096 0.00768544 0.0010100444
-0.010578331 -0.012143109 -0.017700376 -0.017436974 0.0024344989 -0.0015973586 -0.0138184335 -0.0063206158
-0.0065759933 -0.009708643 -0.012741284 -0.003281561 0.026567759 0.010797464 0.008593282 0.0024652525
-0.016454758 -0.013937283 0.006205094 -0.0090216845 -0.003261106 0.030307747 0.00041946868 0.011399503
-0.0009946136 -0.020884125 -0.010811101 0.0001578344 -0.0038323158 0.008729013 0.0068045156 -0.025639066
-0.033490207 -0.00045134107 0.027070977 0.027513225 0.0049084546 0.015958851 -0.0046093496 -0.00046967468
-0.028736852 -0.0025617613 -0.016816514 0.005345089 -0.0009944786 0.0038583996 -0.0051589822 0.0025284507
0.0003887023 -0.011682749 0.0042083543 -0.016737109 -0.016121464 -0.016267247 0.007212949 -0.012614571
-0.009263004 -0.008065615 -0.012137758 0.022382384 -0.006202472 -0.035168212 -0.014936171 -0.023243379
0.024019208 -0.0060116895 -0.0066531715 0.0040156883 0.020140372 0.0057787453 0.010811963 -0.021182055
-0.0033100587 0.013025154 -0.00022967554 0.0016275307 -0.021107363 0.012335628 0.0042847246 -0.016777234
-0.020008327 0.023939192 0.022710213 -0.022983653 0.025677536 0.0091238 0.009393791 -0.009822071
-0.020229626 0.0020161856 -0.009673303 -0.00773054 0.007186717 -0.012913519 -0.014001318 -0.010338971
00000000: 0043 d8bb 9205 a9bc 835e c9bc 2cfe 9fbc
00000010: 9e5c dfba 5836 c739 7061 30bc 4c88 8dbb
00000020: d5f2 71bc 1a96 383a 6ef5 16bc 1fce 623c
00000030: e57b 0fbb 62a9 b3bc 964c 373b 06c6 1dbb
00000040: 5d21 113c 32f4 a2bb 7382 b53c 1403 59bc
00000050: 4de4 2ebc dec2 2a3c c168 c0bc 9103 cb3a
00000060: 3b94 39bc 41bc 263d a3f4 78bc 01e0 943c
00000070: 0826 0cbc b812 a3bc 3b30 7d3c 8b94 b539
00000080: 024b 9b3c 745e 34ba a503 203c e95a a6bc
00000090: e7b0 84bc fb2c 2a3b 5a8d a6bb 25a2 09bc
000000a0: a64c 20ba 3926 4cbc 8a43 be3b 4f2d d5bc
000000b0: bde1 8ebc d2df c3bb 6ea9 713c 2bb1 27bc
000000c0: f918 8c3c 7eee c23b 5b28 423c 7f38 7fbc
000000d0: d91c 9d3b 85c2 34bc 44d0 d73c 945b 353c
000000e0: fe94 96bc b097 0b3d b92a 2dbc 1193 b6bc
000000f0: 5e48 d2bc 78cd 20bc 2bd4 4cbc dc11 a8bb
00000100: 9494 943b 4c41 b0bc b73b bb3b eaf1 1e3c
00000110: f4c4 ee3b 4098 a1bc ea2b 97bc 2db0 763b
00000120: 3302 c7bc c77f f83c 57e5 043c 5230 123c
00000130: 74b1 5e3c 442e 56bc 63f4 a63c 3992 8cbc
00000140: a4a0 55bb 58b5 533c 3c30 703c 92be 72bc
00000150: 3e7d e2bb 04f3 40bc b354 6fbc 6ca2 10bc
00000160: 5796 ee3b 7950 9cbc 75e1 81bb da9f dc3b
00000170: b517 563c fc43 5b36 30ba d13b 2b38 80bb
00000180: 0893 8f3c 0a94 3bbc d7e4 21bb 268a e23c
00000190: d294 a4bc 148a 0abc 45e4 943c 4089 be3c
000001a0: a998 d33c e636 d93a 04c1 d83b 2f0c 6e3c
000001b0: 69b9 babb e342 b03b 2c63 263c 4879 b33b
000001c0: 213c abbb 34e2 583c a990 d4bc b522 ab3b
000001d0: b634 4eb9 0c6a a7ba 0dd7 883c 9bf2 16bc
000001e0: 4684 90bb 0522 1bbc 3cd3 5ebc 01a5 753a
000001f0: 4e79 61bb edaf 69bc 4704 02bc 31f8 91bc
00000200: 9f10 b53a b765 2cbc db40 ec3c 21b8 8abc
00000210: dd03 8ebc a130 823c c589 c43c 118e d63b
00000220: e124 66bc 817b ef37 0f29 d73a 1c79 f23b
00000230: 8fdb 04bc d657 0cbc 49af c1bb 15a8 f43b
00000240: dbd5 243c e4c7 81bc 1ac4 03bc 45be 11bc
00000250: b93c f8bb 647c bdbc 53ea 0dba 69e1 a53b
00000260: cb17 4dbc 8181 0fbc 3d95 10bc e004 d63b
00000270: 2680 5fbc 08ab ce3b 25d6 fb3b 7763 843a
00000280: bc50 2dbc e4f3 46bc 6100 91bc fcd7 8ebc
00000290: 1d8c 1f3b 765e d1ba b666 62bc 2b1d cfbb
000002a0: 6e7b d7bb 0011 1fbc d2c0 50bc 750f 57bb
000002b0: a1a4 d93c d9e7 303c d6ca 0c3c 1390 213b
000002c0: 21cc 86bc 3459 64bc 1a54 cb3b b0cf 13bc
000002d0: 48b8 55bb f447 f83c 22ec db39 fbc4 3a3c
000002e0: b25d 82ba 2f15 abbc 0b21 31bc 5980 2539
000002f0: 9727 7bbb 2204 0f3c 6af8 de3b 0509 d2bc
00000300: 072d 09bd f9a1 ecb9 f4c3 dd3c 6a63 e13c
00000310: 1ad7 a03b 23bc 823c 070a 97bb ab3e f6b9
00000320: 8c69 ebbc 39e3 27bb c9c2 89bc db25 af3b
00000330: 2a59 82ba 34dd 7c3b ae0c a9bb 5db4 253b
00000340: bdca cb39 0069 3fbc 3ce6 893b 431c 89bc
00000350: 2911 84bc e442 85bc 9a5a ec3b 58ad 4ebc
00000360: dbc3 17bc a425 04bc 72dd 46bc 435b b73c
00000370: 1b3e cbbb 8b0c 10bd d7b6 74bc e668 bebc
00000380: eec3 c43c b5fd c4bb d902 dabb 0996 833b
00000390: 6cfd a43c a15b bd3b a924 313c fd85 adbc
000003a0: 92ed 58bb 7567 553c 0fd5 70b9 de52 d53a
000003b0: 59e9 acbc 601b 4a3c e066 8c3b 6970 89bc
000003c0: 81e8 a3bc 201c c43c c50a ba3c 3748 bcbc
000003d0: b259 d23c fe7b 153c 6ae8 193c c0ec 20bc
000003e0: 9ab8 a5bc fb21 043b c67c 1ebc 7850 fdbb
000003f0: 8d7e eb3b 3993 53bc c965 65bc ca64 29bc

action_model._discrete_distribution.branches.0.weight f4 [2, 256]
-0.008448542 0.0436211 0.043436617 0.030110883 -0.002694602 0.0013490594 -0.0043837237 -0.0070237294
0.030980946 -0.0069840504 0.018633729 -0.007842501 0.004041548 0.026997834 -0.011469036 0.021047495
-0.013375102 0.002370134 -0.017039072 0.03428665 0.0004231683 -0.023085525 0.029997742 -0.016790215
0.04338297 -0.014971729 0.041800134 -0.020788517 0.0013831409 0.029355185 -0.032428987 -0.0040982356
-0.022201791 -0.018530557 -0.026727721 0.036319777 0.028396452 -0.012936058 0.010029645 0.01564582
0.006410912 -0.0067072175 -0.0043598516 0.03837322 0.02768291 0.00096871564 -0.013145862 0.04357717
-0.024918213 -0.009583682 -0.01635614 0.021239413 -0.007356653 0.03873259 -0.021735243 -0.009920401
0.035717033 -0.033244252 -0.0035404055 0.033238433 0.01666638 0.023844888 0.016002247 0.009804896
-0.0005872506 0.03834305 -0.0040430673 -0.0142014045 0.0008136147 0.03638525 0.039037738 -0.011813963
0.042593133 -0.03522354 -0.008974025 -0.013292749 -0.020564886 0.023277372 -0.012165335 0.02430126
-0.008191697 -0.024433814 -0.018441191 0.037377022 -0.0065603857 0.036586266 0.02900136 0.006298028
-0.022921318 0.028601306 0.014726424 -0.018570991 9.755286e-05 0.017325541 -0.01156338 -0.0021716503
-0.0148130385 0.0025871058 -0.012454272 -0.024158312 0.035970047 0.0024325317 -0.027272396 -0.042120196
-0.023208763 -0.008874943 -0.013037518 -0.022743395 -0.011383485 -0.01354602 -0.0107625695 -0.014190224
-8.615275e-05 -0.020774135 0.034642868 -0.011028442 -0.012213241 -0.012505463 -0.024236606 0.0050830166
-0.0036590202 0.051846128 0.04887582 -0.005135453 -0.0012120046 0.057191003 -0.009466261 0.042850465
0.017661726 0.010028061 -0.034363266 0.017697899 0.02500236 -0.014498339 -0.008550184 -0.008789558
0.008518892 -0.0027230498 -0.011205071 -0.008470998 0.026197992 0.0039438116 0.03452487 -0.008223383
-0.01888975 0.028326157 0.01890057 0.0058840797 0.0007093065 0.041555036 -0.008725695 -0.009952479
0.04736713 0.0022320037 -0.0038137664 -0.012260504 0.0048368676 -0.0073096687 -0.020336824 -0.0069495626
0.013369746 0.02895333 0.040997438 0.038834598 -0.007985459 -0.008071864 0.009475471 0.012104402
-0.0075006173 0.010765661 0.01780418 -0.02039241 -0.042303115 -0.016652947 -0.017046165 0.00028429207
0.03583708 0.025564723 -0.0070885457 0.018800598 -0.0060547655 -0.022142027 -0.00050376577 -0.022193205
-0.009272454 -0.0020346548 0.009547594 0.0064581097 -0.002266275 -0.0147805875 -0.00941996 0.04017955
0.043687966 0.004310153 -0.016950117 -0.029847447 0.008906341 -0.022273617 0.0003060716 -0.0051382435
0.015622549 -0.010349171 0.026656663 -0.0059135417 -0.011500038 -0.018084299 0.00032404784 -0.0030076173
0.0028247612 0.04008935 -0.013297427 0.016924419 0.04564423 0.022725426 -0.010699121 0.044439673
-0.005079796 0.041116957 0.015920738 -0.029210491 -0.007930757 0.0277064 0.039294314 0.027451921
-0.029714746 0.004636912 -0.01161713 -0.0098969 -0.013389731 -0.013711325 -0.012926038 0.033640333
-0.009602199 -0.013863552 -0.007974014 -0.0078006582 -0.0027054285 -0.010620591 0.04276885 0.03188528
0.03921692 -0.016022854 -0.009955951 0.024095366 -0.015857184 -0.008165206 -0.01494457 0.021495102
0.039946333 -0.009951181 0.01653928 -0.0016674934 -0.012853374 0.043041214 0.017356597 0.049338527
00000000: c16b 0abc 0aac 323d 98ea 313d 19ab f63c
00000010: eb97 30bb ecd2 b03a 57a5 8fbb 5027 e6bb
00000020: c1cb fd3c 76da e4bb c3a5 983c d57d 00bc
00000030: f66e 843b 902a dd3c a0e8 3bbc cc6b ac3c
00000040: 3e23 5bbc 4054 1b3b 8695 8bbc 2970 0c3d
00000050: b0dc dd39 db1d bdbc d3bd f53c a28b 89bc
00000060: 57b2 313d fc4b 75bc 9e36 2b3d ae4c aabc
00000070: 824a b53a 497a f03c 42d4 04bd 7e4a 86bb
00000080: 88e0 b5bc 65cd 97bc 18f4 dabc 0cc4 143d
00000090: ad9f e83c c3f1 53bc 6153 243c aa2b 803c
000000a0: a112 d23b 38c8 dbbb 16dd 8ebb 3d2d 1d3d
000000b0: 45c7 e23c 68f1 7d3a be61 57bc fa7d 323d
000000c0: 4821 ccbc e004 1dbc 50fd 85bc 47fe ad3c
000000d0: 1410 f1bb 10a6 1e3d 1c0e b2bc 2d89 22bc
000000e0: 064c 123d 202b 08bd 2606 68bb 0625 083d
000000f0: ef87 883c 5b56 c33c 2517 833c b7a4 203c
00000100: b8f1 19ba 9a0d 1d3d b57b 84bb 02ad 68bc
00000110: c248 553a b308 153d 09e6 1f3d 5a8f 41bc
00000120: 2376 2e3d 8f46 10bd ca07 13bc d5c9 59bc
00000130: b177 a8bc 30b0 be3c 1d51 47bc 7013 c73c
00000140: 7836 06bc 6c29 c8bc fb11 97bc a618 193d
00000150: 81f8 d6bb 7bdb 153d 4394 ed3c b05f ce3b
00000160: 7dc5 bbbc 494d ea3c 1947 713c 3122 98bc
00000170: 4b95 cc38 4bee 8d3c 5574 3dbc 3f52 0ebb
00000180: 63b2 72bc 6f8c 293b 010d 4cbc a7e7 c5bc
00000190: 5455 133d 1c6b 1f3b 5c6a dfbc 3a86 2cbd
000001a0: 4e20 bebc 3568 11bc 509b 55bc 5b50 babc
000001b0: cc81 3abc 20f0 5dbc 7d55 30bc 1d7e 68bc
000001c0: e8ac b4b8 852e aabc aee5 0d3d a3b0 34bc
000001d0: 0c1a 48bc b7e3 4cbc d98b c6bc 6f8f a63b
000001e0: 2ccc 6fbb 9b5c 543d 0332 483d 4d47 a8bb
000001f0: 20dc 9eba 1d41 6a3d 6018 1bbc f883 2f3d
00000200: 53af 903c bd4c 243c 7fc0 0cbd 2ffb 903c
00000210: c0d1 cc3c 718a 6dbc 1216 0cbc 1402 10bc
00000220: d392 0b3c 3275 32bb 7995 37bc f1c9 0abc
00000230: 2c9d d63c 173b 813b f369 0d3d 5ebb 06bc
00000240: adbe 9abc 420c e83c 5ed5 9a3c 3dcf c03b
00000250: c1f0 393a 9d35 2a3d 38f6 0ebc b90f 23bc
00000260: 0904 423d cf46 123b 62f0 79bb 48e0 48bc
00000270: 967e 9e3b f285 efbb 6999 a6bc 28b9 e3bb
00000280: c70c 5b3c 892f ed3c eeec 273d 0711 1f3d
00000290: 71d5 02bc da3f 04bc 023f 1b3c 8b51 463c
000002a0: bdc7 f5bb 7462 303c 12da 913c fc0d a7bc
000002b0: 0846 2dbd c36b 88bc 66a4 8bbc 090d 9539
000002c0: e7c9 123d 1c6d d13c 0847 e8bb b603 9a3c
000002d0: 0e67 c6bb 3263 b5bc 260f 04ba 86ce b5bc
000002e0: 7eeb 17bc d857 05bb 836d 1c3c 8d9e d33b
000002f0: c985 14bb 472a 72bc 2d56 1abc 5093 243d
00000300: 27f2 323d 2f3c 8d3b f9da 8abc a282 f4bc
00000310: e7eb 113c 2977 b6bc 3c78 a039 b65e a8bb
00000320: b8f5 7f3c 928f 29bc 135f da3c 62c6 c1bb
00000330: a86a 3cbc 8625 94bc f7e4 a939 721b 45bb
00000340: a11f 393b bb34 243d 74dd 59bc 14a5 8a3c
00000350: 72f5 3a3d ac2a ba3c 5e4b 2fbc 6006 363d
00000360: 6b74 a6bb 416a 283d 356c 823c d74a efbc
00000370: 01f0 01bc 88f8 e23c 13f3 203d dae2 e03c
00000380: 576c f3bc 3df1 973b c655 3ebc 9b26 22bc
00000390: 9a60 5bbc 77a5 60bc bcc7 53bc 72ca 093d
000003a0: 8b52 1dbc f423 63bc 70a5 02bc aa9c ffbb
000003b0: 8f4d 31bb fd01 2ebc 642e 2f3d 249a 023d
000003c0: eca1 203d 5c42 83bc 491e 23bc a563 c53c
000003d0: ede6 81bc 5bc7 05bc 12da 74bc 7f16 b03c
000003e0: c49e 233d 470a 23bc 627d 873c cb8f daba
000003f0: f596 52bc fc4b 303d 6c2f 8e3c 3217 4a3d

action_model._discrete_distribution.branches.0.bias f4 [2]
-0.024693588 0.024693603
00000000: 354a cabc 3d4a ca3c

action_model._discrete_distribution.branches.1.weight f4 [3, 256]
-0.0022836884 0.012212427 0.010376889 0.0047176657 -0.007331509 0.0029093456 0.0040058945 -0.00016962425
0.00941742 0.0037881716 0.0025129004 -0.0075051994 -0.015808007 0.013540101 0.004585911 0.0086967535
-0.0064621754 0.011154139 -0.012954654 0.019422248 0.009364644 0.012696172 0.014012277 -0.0024292497
0.01418601 -0.017567439 0.014568838 -0.004955801 0.0028403737 0.008756196 -0.0055081435 -0.014063806
-0.0024745818 0.0046549984 -0.0068149925 0.012893579 -0.0050448216 0.00899519 -0.00358633 -0.004396521
-0.0071673384 0.0026929819 -0.0023200419 0.014374321 3.5111304e-06 0.0014121312 -0.003511852 0.012571393
-0.017763244 -0.013609171 0.00398085 0.020211093 0.010942334 0.011772484 0.004670276 -0.0015032656
0.020011166 -0.019080818 0.003289056 0.0032942393 0.001897437 0.0050976393 0.00032492197 -0.013572245
0.0039725066 0.0050121956 -0.00082908414 -0.0024082034 0.004581247 0.008944256 0.012395413 -0.0037876912
0.008415308 -2.074002e-05 0.0062554767 0.0002689843 -0.0018070202 0.0074294955 -0.010431991 0.012996574
0.0015479417 -0.011370642 -0.0046734386 0.019646443 0.00571046 0.016373571 0.0049327454 0.0038088835
0.001630766 0.0047316654 0.00018112522 0.0017107632 -0.0030737927 0.009092948 0.0010573267 0.0020269884
-0.015437805 -0.001020056 0.0029114457 -0.009845198 -0.00065512187 -0.0077085667 -0.005429928 -0.00976587
-0.008075756 -0.010768634 -0.0044949194 0.0014302164 0.0077640833 0.0010918303 0.00033808884 0.0036595608
0.005500583 -0.008761746 0.014833183 -0.0028358588 0.008985702 0.008276945 0.00600084 0.0014581966
0.0050230836 0.008859645 0.019767247 0.0045067156 0.009396051 0.01511709 0.00767163 0.014093437
-0.0046604425 -0.0020800058 -0.006598275 0.0074671316 0.0033717388 0.0057772878 -0.011900613 -0.0077838576
0.0021326973 -0.005054436 -0.008716396 0.0041818265 0.00047934667 -0.0027112027 0.007338294 0.0002741524
0.014114752 0.0012812376 0.0062047713 0.0002782609 0.0070485305 -0.0014612892 -0.00046761075 -0.0071762777
0.005542453 -0.004826947 0.0024312348 -0.0038677175 -0.00020240541 -0.01092771 -0.00089695223 0.0052071484
0.0032753828 0.016842593 0.0064332564 0.019558365 0.00053108 -0.0044364873 0.015350421 -0.0054526622
-0.0049409056 0.0044010323 0.009865599 -0.0030998285 -0.007450264 0.0013911903 -0.00037624905 0.0010872289
0.008723134 0.02045364 0.0053995745 0.007489526 0.0026388806 -0.012124305 -0.012747906 -0.0044201324
0.012936905 0.006267218 0.005560421 0.0044414625 -0.0062387823 0.010411161 -0.018812131 0.00798722
0.014579593 -0.0015225033 0.009576738 -0.0033506823 0.010791809 -0.013195712 0.004579297 -0.0029380491
0.0076754023 -0.012919622 0.016817858 0.0030997433 0.008559887 -0.0052181277 0.00038579004 -0.0039610798
-0.0011116001 0.017811706 0.009493518 -0.0007684288 0.018167982 0.01121622 0.0031181606 0.0126473475
-0.0073376936 0.011987926 0.018320475 -0.0027525248 0.0060298727 0.006357176 0.021728545 0.0136005245
-0.0052894284 0.0030888233 -0.0063303653 -0.00611257 -0.010124268 -0.0053882683 0.0012451333 0.013912542
0.001022327 0.0066928663 -0.0023664723 -0.006421876 -0.0004195787 -0.012713277 0.01996838 0.021292165
0.025148472 -0.010414462 -0.0044180206 0.009964436 -0.0020625845 -0.0059111733 -0.0050076167 0.0012715658
0.0060323766 -0.0057135597 -0.011776935 -0.0055821394 0.0023492223 0.016980827 0.012068187 0.0053441683
00000000: efa9 15bb a216 483c d403 2a3c a696 9a3b
00000010: 283d f0bb b8aa 3e3b e143 833b 2add 31b9
00000020: 864b 1a3c f942 783b 79af 243b 2dee f5bb
00000030: cb7f 81bc 4dd7 5d3c 6945 963b d47c 0e3c
00000040: a8c0 d3bb dabf 363c c23f 54bc 681b 9f3c
00000050: 2a6e 193c 9b03 503c c093 653c 0c34 1fbb
00000060: 706c 683c 97e9 8fbc 23b2 6e3c 4664 a2bb
00000070: 9025 3a3b 2676 0f3c a87d b4bb e16b 66bc
00000080: 982c 22bb f588 983b 4d50 dfbb 973f 533c
00000090: 084f a5bb 9060 133c a208 6bbb b110 90bb
000000a0: fedb eabb bd7c 303b d80b 18bb 4682 6b3c
000000b0: c3a0 6b36 4317 b93a 1927 66bb 3ef8 4d3c
000000c0: 3984 91bc 00f9 5ebc ca71 823b bc91 a53c
000000d0: 7a47 333c 60e1 403c 1d09 993b 3909 c5ba
000000e0: 75ee a33c 604f 9cbc 348d 573b 2ae4 573b
000000f0: 6cb3 f83a 190a a73b 4a5a aa39 1f5e 5ebc
00000100: cd2b 823b 583d a43b e556 59ba f3d2 1dbb
00000110: 491e 963b ee8a 123c 2116 4b3c ea3a 78bb
00000120: 5ce0 093c dbfa adb7 befa cc3b 7606 8d39
00000130: 89d9 ecba 2073 f33b f1ea 2abc 95ef 543c
00000140: 4ee4 ca3a ee4b 3abc a523 99bb 94f1 a03c
00000150: cf1e bb3b de21 863c dea2 a13b 769e 793b
00000160: 6dbf d53a 160c 9b3b 6eec 3d39 b03b e03a
00000170: af71 49bb 97fa 143c ff95 8a3a 39d7 043b
00000180: d9ee 7cbc 66b3 85ba f4cd 3e3b c14d 21bc
00000190: 7cbc 2bba 2598 fcbb 8aed b1bb 0701 20bc
000001a0: 2d50 04bc ed6e 30bc 1e4a 93bb 1976 bb3a
000001b0: da69 fe3b bf1b 8f3a 8441 b139 3ed5 6f3b
000001c0: 3c3e b43b 6d8d 0fbc e106 733c d1d9 39bb
000001d0: c438 133c 069c 073c b2a2 c43b f520 bf3a
000001e0: ae98 a43b 0b28 113c ecee a13c 12ad 933b
000001f0: e5f1 193c acad 773c 4c62 fb3b 29e8 663c
00000200: a0b6 98bb b550 08bb 5836 d8bb d7ae f43b
00000210: 64f8 5c3b 674f bd3b cafa 42bc bb0f ffbb
00000220: b9c4 0b3b af9f a5bb 37cf 0ebc b407 893b
00000230: d250 fb39 6fae 31bb 1276 f03b 1dbc 8f39
00000240: 9041 673c 33ef a73a 6551 cb3b 8ce3 9139
00000250: 5cf7 e63b bb88 bfba a729 f5b9 fb26 ebbb
00000260: 779d b53b 5e2b 9ebb 5a55 1f3b 8879 7dbb
00000270: ca3c 54b9 230a 33bc 7221 6bba baa0 aa3b
00000280: cea7 563b 7af9 893c 11ce d23b dd38 a03c
00000290: 2d38 0b3a f45f 91bb 5580 7b3c 3fac b2bb
000002a0: 52e7 a1bb 8936 903b 52a3 213c 7e26 4bbb
000002b0: 5821 f4bb 9a58 b63a 4b43 c5b9 5981 8e3a
000002c0: 7aeb 0e3c 648e a73c eaee b03b b36a f53b
000002d0: 12f1 2c3b 05a5 46bc 98dc 50bc c2d6 90bb
000002e0: 50f5 533c 3c5d cd3b 3134 b63b b089 913b
000002f0: b36e ccbb 9393 2a3c e61b 9abc d4dc 023c
00000300: 3fdf 6e3c bc8e c7ba c0e7 1c3c 1f97 5bbb
00000310: 21d0 303c d432 58bc ed0d 963b 498c 40bb
00000320: f181 fb3b d2ac 53bc 9bc5 893c 1025 4b3b
00000330: c53e 0c3c d4fc aabb dd43 ca39 f2cb 81bb
00000340: 1cb3 91ba dbe9 913c b38a 1b3c 6270 49ba
00000350: 05d5 943c 3dc4 373c 0e5a 4c3b d236 4f3c
00000360: 0971 f0bb 0269 443c d214 963c b463 34bb
00000370: 3d96 c53b dc4f d03b 1000 b23c bcd4 5e3c
00000380: f152 adbb db6d 4a3b f46e cfbb f44b c8bb
00000390: 42e0 25bc 1290 b0bb be33 a33a 6ef1 633c
000003a0: 9aff 853a d54f db3b d116 1bbb 9a6e d2bb
000003b0: e6fa dbb9 594b 50bc ba94 a33c e86c ae3c
000003c0: 2b04 ce3c 6ba1 2abc 0bc5 90bb e041 233c
000003d0: 6d2c 07bb 84b2 c1bb ef16 a4bb abaa a63a
000003e0: 3eab c53b d038 bbbb 0cf4 40bc 61ea b6bb
000003f0: 69f5 193b 601b 8b3c a5b9 453c 221e af3b

action_model._discrete_distribution.branches.1.bias f4 [3]
-0.0060657733 0.0034733452 0.0034221145
00000000: 65c3 c6bb 10a1 633b 8e45 603b

action_model._discrete_distribution.branches.2.weight f4 [2, 256]
0.007730653 0.0019102503 0.01480947 0.012292653 -0.016566157 -0.0025765859 8.257663e-05 -0.011949978
0.014727368 -0.0061821546 0.00013236917 0.005280169 -0.027645007 -0.0013328544 -0.0010262558 0.0045504635
0.0039633554 0.0023009866 -0.0053756214 0.00921332 -0.0017841104 -0.0048755854 -0.0006834863 -2.5635638e-05
0.0034380623 0.010040778 -0.0058437274 0.0012915067 -0.008674889 0.010622466 0.0005467638 -0.0060611307
-0.008261063 -0.003961658 -0.017055059 0.016897596 -0.0025081672 -0.0029188523 -0.001688606 -0.0040239384
-0.016787572 -0.0006782008 -0.014159376 -0.00014094826 -0.00080325705 0.0006061683 -0.0086015025 0.0036816762
-0.013560537 -0.015436077 0.010619483 -0.007913333 0.013408985 -0.0031527164 -0.0014289438 -0.0066052577
0.0037521 -0.0063647116 -0.002670257 -0.00050622947 0.0014565857 0.003950588 -0.0064882236 0.013442089
-0.0052370727 -0.00028609505 -0.0071656383 -0.013462912 0.0016590917 0.0052433684 0.010297773 0.0020027985
0.014481704 0.0030579094 -0.009746475 -0.015924128 -0.0051627588 0.0008393162 0.000606415 0.0047951406
-0.009822118 -0.011610626 -0.0009082339 0.0042738137 -0.00052352715 -0.0019679728 0.0015791863 0.0025467675
-0.0070556817 0.0042616255 -0.0006663111 -0.0042123552 0.0011880234 -0.0014192456 -0.0026797957 -0.009631888
-0.010091313 0.0022006687 0.009364299 0.00063062814 0.0032313683 -0.0010727516 -0.009319672 -0.003337578
-0.00912254 0.0043236683 -0.008567054 -0.0010443769 0.0001689529 0.0019192151 -0.0007247795 0.005554377
0.0020765213 -0.009944432 0.008143892 -0.011585866 -0.015793273 0.0006622162 -0.013061233 0.002509968
-0.003826626 0.0054032616 0.0087165795 -0.009790516 0.00064225943 0.017517097 0.0012647405 0.003081692
0.0001845525 0.0014775454 -0.019984517 0.0073921066 0.00462232 -0.0077222036 -0.007894382 -0.0011263834
-0.008096197 0.0054064672 -0.0010756342 0.00042249667 -0.005937064 -0.014989695 -0.0020673478 -0.008045224
-0.0067232563 -0.0051215487 -0.0020340895 0.0016994585 -0.0009095523 0.0036062582 -0.005481301 0.004916372
0.003607783 -0.015816094 -0.0013413603 -0.019021306 -0.00077008875 -0.0070356177 -0.0024102633 0.0003549778
-0.010937352 0.0005999177 -0.0012503703 -0.007983712 2.7598446e-05 -0.0027153587 -0.00015249023 0.013950302
-0.01703157 0.00086164824 0.018236002 -0.002925035 -0.0017869719 0.006009897 -0.004158979 0.0022019448
-0.0010935371 0.005331067 0.0010691001 0.0009357673 -0.011042668 0.006552926 -0.013927628 -0.007823097
0.016214823 0.00019427126 0.006268516 0.0025171177 -0.00617041 -0.0021086193 -0.0068916203 0.0100880135
0.0038467317 0.0027173634 -0.004831351 -0.010592442 -0.012634742 -0.013005738 0.006432168 -0.0054676356
-0.014077721 -0.00478683 0.0065571833 0.005298061 -0.0031287463 -0.015582429 -0.0073496806 -0.005681736
-0.0021528562 0.00683884 -0.007274083 0.005175591 0.005000943 -0.0063170176 -0.0017756225 -0.0046082903
-0.00440062 0.015788775 0.0034761205 -0.010495356 0.0054737017 -0.00038989238 0.0025495656 0.001763967
0.00079169526 0.0006537233 -0.010340048 -0.011220736 -0.0051906626 -0.0045824777 -0.014159857 0.0075608674
-0.0079262545 -0.017074147 -0.0074972734 -0.0091141295 -0.0049014594 -0.00016383431 0.0070416727 0.0017120878
0.0031978497 0.009695295 -0.01007142 -0.00878243 -0.00054884277 -0.021751009 0.0010634194 -0.0038871279
0.014681175 -0.0006918932 0.008916531 -3.52807e-05 -0.0093427785 -0.005353029 -0.0072663203 -0.00043508745
00000000: 6b51 fd3b 5d61 fa3a 6ba3 723c 2067 493c
00000010: c0b5 87bc f0db 28bb fe2c ad38 d7c9 43bc
00000020: 0f4b 713c ac93 cabb 94cc 0a39 4505 ad3b
00000030: c877 e2bc 2cb3 aeba 6e83 86ba 0e1c 953b
00000040: 09df 813b 26cc 163b fb25 b0bb 77f3 163c
00000050: d0d8 e9ba 60c3 9fbb fd2b 33ba 1d0c d7b7
00000060: 1d51 613b 1382 243c bd7c bfbb c647 a93a
00000070: 1f21 0ebc da09 2e3c b354 0f3a 739c c6bb
00000080: 6959 07bc ccd0 81bb 0db7 8bbc d46c 8a3c
00000090: 1060 24bb 374a 3fbb 3754 ddba 3edb 83bb
000000a0: 1786 89bc 49c9 31ba bafc 67bc 83cb 13b9
000000b0: ab91 52ba 44e7 1e3a 51ed 0cbc 4748 713b
000000c0: 042d 5ebc 99e7 7cbc 57fd 2d3c eda6 01bc
000000d0: 5cb1 5b3c ce9d 4ebb 664b bbba eb70 d8bb
000000e0: cbe5 753b 128f d0bb 7aff 2ebb 7cb4 04ba
000000f0: e8ea be3a ef73 813b 2a9b d4bb 353c 5c3c
00000100: c09b abbb 07ff 95b9 bbcd eabb 8c93 5cbc
00000110: e175 d93a 90d0 ab3b feb7 283c 6241 033b
00000120: ab44 6d3c 3567 483b aeaf 1fbc 5173 82bc
00000130: 5c2c a9bb 8f05 5c3a d2f7 1e3a 8e20 9d3b
00000140: f3ec 20bc 7f3a 3ebc 8c16 6eba 590b 8c3b
00000150: 503d 09ba 1bf9 00bb b3fc ce3a abe7 263b
00000160: 5933 e7bb 1ba5 8b3b 62ab 2eba cc07 8abb
00000170: 73b7 9b3a fb05 baba 839f 2fbb 11cf 1dbc
00000180: 0956 25bc 1839 103b b76c 193c bd50 253a
00000190: 5dc5 533b 929b 8cba 8ab1 18bc 44bb 5abb
000001a0: b576 15bc 8fad 8d3b d45c 0cbc 79e3 88ba
000001b0: f328 3139 2c8e fb3a 21ff 3dba 7e01 b63b
000001c0: 3f16 083b f9ed 22bc f56d 053c a5d2 3dbc
000001d0: e560 81bc 9498 2d3a c8fe 55bc 467e 243b
000001e0: 22c8 7abb d80d b13b fccf 0e3c 6768 20bc
000001f0: 4d5d 283a 0480 8f3c a6c5 a53a 36f6 493b
00000200: 6f84 4139 32aa c13a 92b6 a3bc 7c39 f23b
00000210: d576 973b 8a0a fdbb 7057 01bc 28a3 93ba
00000220: e9a5 04bc bc28 b13b 4bfc 8cba 8b82 dd39
00000230: b48b c2bb 5697 75bc 577c 07bb 1dd0 03bc
00000240: c34e dcbb aad2 a7bb 5c4e 05bb 5dc0 de3a
00000250: 066f 6eba f956 6c3b 7c9c b3bb 8419 a13b
00000260: 8e70 6c3b c190 81bc 95d0 afba 92d2 9bbc
00000270: c8df 49ba 0a8b e6bb 82f5 1dbb 501c ba39
00000280: 9432 33bc cc43 1d3a 77e3 a3ba 1dce 02bc
00000290: 3683 e737 29f4 31bb c9e5 1fb9 cf8f 643c
000002a0: cb85 8bbc 3ce0 613a ab63 953c f2b1 3fbb
000002b0: d438 eaba acee c43b 0b48 88bb 814e 103b
000002c0: 0455 8fba 3bb0 ae3b 0c21 8c3a 484e 753a
000002d0: 4eec 34bc edb9 d63b b530 64bc 722c 00bc
000002e0: f3d4 843c 4bb5 4b39 2068 cd3b 3af6 243b
000002f0: 2731 cabb c330 0abb 1ad3 e1bb 3248 253c
00000300: 7319 7c3b cb15 323b 4f50 9ebb ec8b 2dbc
00000310: f301 4fbc 0516 55bc f0c4 d23b da29 b3bb
00000320: 3ea6 66bc d7da 9cbb a4dd d63b 5b9b ad3b
00000330: a70b 4dbb 724d 7fbc 97d5 f0bb db2d babb
00000340: ef16 0dbb 5918 e03b 6e5b eebb 0198 a93b
00000350: f3de a33b fcfe cebb 01bc e8ba 2401 97bb
00000360: 1333 90bb 7657 813c a0cf 633b b7f4 2bbc
00000370: bd5c b33b 786a ccb9 9d16 273b e934 e73a
00000380: c589 4f3a a15e 2b3a 4e69 29bc 2ed7 37bc
00000390: 6f16 aabb 9c28 96bb bffe 67bc 27c1 f73b
000003a0: 1fdd 01bc 15df 8bbc b0ab f5bb 6e53 15bc
000003b0: 6c9c a0bb f0ca 2bb9 d5bd e63b 2268 e03a
000003c0: 0493 513b 04d9 1e3c 9902 25bc 2ee4 0fbc
000003d0: 37e0 0fba 2c2f b2bc 6f62 8b3a 2fbf 7ebb
000003e0: 5089 703c 2b60 35ba a416 123c 5dfa 13b8
000003f0: 7412 19bc 7668 afbb 501a eebb 731c e4b9

action_model._discrete_distribution.branches.2.bias f4 [2]
-0.00505915 0.0050591542
00000000: 3ac7 a5bb 43c7 a53b
