results/hybridBoat/boat/boat-4500068.onnx (onnx, 340257 bytes, 11 tensors)

discrete_act_size_vector f4 [1, 3]
00000000: 0000 0040 0000 4040 0000 0040
2.0 3.0 2.0

network_body._body_endoder.seq_layers.0.weight f4 [256, 58]
00000000: 5e51 51be 68a8 993e a5e1 3b3d 7e12 0d3e
00000010: 0445 083d 444f 46be a63a 70be d780 bebd
00000020: e1b9 fa3d b3db 453e c5d4 6fbd e437 d6bd
00000030: 371e aebd 3791 b53d b3f2 19be e0f7 413e
00000040: 79e2 17be 9483 3c3e 900f e83d 1ae1 d83d
00000050: b0aa bebd 0fcf cebd dbcb 1f3d 98a3 34be
00000060: a02f bdbb ae2f a1bc 17e2 dbbd 75ec cbbc
00000070: 32bf bdbd 7baa 133e c0a2 febb 042b b6bd
00000080: df05 533e 1f75 21bc 177e 12be 2813 0c3e
00000090: 471e c7bd 0d62 6dbe 9fe2 7b3c ed93 f2bd
000000a0: 394e 94be 807d 533d 477b 2dbe 57e4 7abe
000000b0: daec be3d abcb d8ba c5cc 88bd 018e d7bc
000000c0: 17f1 4ebe 01ef 2c3e dc8a 613d 9cf1 343d
000000d0: cb96 0c3e 5969 1c3e 3afe 423d d991 f0bd
000000e0: b05a 8d3d 9140 b0bb 4151 1fbe 8087 f13d
000000f0: 7dc1 db3c 1aaa 38be 8940 7abe 7a9f 033e
00000100: 7253 42be 3c5f d83d 0d9c 7cbd 5c7d 60be
00000110: 7177 5e3e 6c59 febd e752 0c3e fc6f 26be
00000120: bd71 863d 4dc1 8bbe d2e2 e0bd 368a c5bd
00000130: cc4c 493e 8732 dfbc a69c d139 a631 353c
00000140: 1f4e 833c 5bb5 8a3d 85db e23d 5bde 093e
00000150: d5b8 253e b3f3 e4bd 71ae 0cbe 9790 93be
00000160: 5cfc d3bb 81b0 0e3d 374a a63d 15fc 19be
00000170: 7040 89bc 3847 a73d 16e2 bf3d 9fc1 303d
00000180: ef29 04be 8b6f 6abd 7d86 d73d ccdb 16be
00000190: 1ca0 823e 1068 70bd 4bdc 2fbc 316d 433d
000001a0: a6c9 4f3d 6aa7 0ebd 2547 a3bc 2c5d 10be
000001b0: fdc0 1e3d 1ca4 56be 609d 19be 93e3 86bc
000001c0: f6a7 f7bd 12ac ae3d 4015 a8bd d304 c9bd
000001d0: 5d1b c5bd 8f6c 223d bfc0 c1bd 151e 3cbb
000001e0: 1f61 88bc 7460 dfbc 664c d3bc fe39 b1bd
000001f0: 5802 d83c 5491 153e 36d6 2f3d 0f99 58bd
00000200: a774 483d 334d 1f3e 30bb abbc 35dd 953d
00000210: 4ee2 823e 3965 fa3c 1be9 a7bc 6098 c8bb
00000220: cd05 853e cd3b 543e f2a0 8d3d 283b 363d
00000230: 7563 9cbd e3e3 893d 7410 3a3e 7322 6a3d
00000240: 79dc 493d 7f85 2abe 4a1d a03d 34e0 cd3d
00000250: 594e 8e3d 55be cc3d 15ab d83d f6c1 263c
00000260: e2e4 e13d 5fdc 2a3d 7567 50be 524c 2a3e
00000270: 58cc 7bbd ec4f bebd d761 f73d aefc 9f3d
00000280: 4cd1 4abd af1b 053d 072c 303c 3bad f33c
00000290: 1891 6a3e fbaf 263e 3aad 82bd 8d1d 343e
000002a0: b8d5 30bc 4f32 5b3d f9cf fa3c 9fcb 84bc
000002b0: 8670 693e 27f8 0cbd 8d17 9cbd d512 863d
000002c0: 3d59 313e 3267 263e 618d b8bc 447f 813d
000002d0: 4963 92bd b27b f7bc 3539 8e3e e323 153e
000002e0: be8b b0be 1255 bd3d 8c13 9f3d cc08 fabd
000002f0: 26c1 c23c 36de 6bbc 5b28 aa3e 6af6 013e
00000300: 64df 06be 76e7 08be f243 49be fab5 9d3c
00000310: 0211 d13d e3b8 a1bd f406 03be c8d7 eb3d
00000320: ef67 29be ed7b f93d 457e 3fbd 8061 323e
00000330: 0491 83bc 057e a33e 1b3e a03e 594a 01bd
00000340: 6f29 febd e7a2 103e 2ba1 a03d 8739 b3bd
00000350: a566 613c a2fa 883d a0bf 4f3e db62 99bd
00000360: 77d4 803d ebd7 8bbc 2bd5 b93d 8d2e 28be
00000370: e105 4e3c 0022 a3bc a35f 8bbd 34c2 683e
00000380: ada2 1a3e c88a 7e3e bb33 0abe 0920 463d
00000390: 2f22 7dbe 32a5 4a3e 9d5a c7bd 9954 113d
000003a0: 4e67 86be 927d 7f3d 56e1 61bc f37d 433d
000003b0: 36cc df3c 351e 4fbd 65fb 28be 4575 263b
000003c0: 3bae e9bc 57a6 7f3e b711 3eba 323a 80bd
000003d0: 424a 913e 323f 1a3e 2f81 433e 8800 5a3d
000003e0: 7176 413d 1eb2 75bc f3df 823c 19e3 d0bc
000003f0: 5e85 a4bd 5a10 763e 9e3e 84bc c647 4b3c
-0.20441195 0.30011296 0.04586949 0.13776585 0.033268943 -0.19366175 -0.23459873 -0.09301918
0.12242485 0.1932209 -0.058552522 -0.10459879 -0.08501857 0.08865588 -0.15033989 0.18942213
-0.14832486 0.18409568 0.11331093 0.1058981 -0.093099 -0.10098087 0.03901277 -0.17640531
-0.0057734996 -0.019676056 -0.107364826 -0.024893025 -0.09264983 0.14420502 -0.007770866 -0.08894923
0.20607708 -0.009854584 -0.14305912 0.13679183 -0.09722572 -0.23181935 0.015373855 -0.11844621
-0.2896593 0.051633358 -0.16941558 -0.24501167 0.093225196 -0.001654019 -0.06679682 -0.02631283
-0.20209156 0.16888048 0.055064067 0.04417573 0.13729398 0.15274562 0.04760573 -0.11746568
0.06902063 -0.0053787907 -0.1555834 0.11793423 0.02682566 -0.18033639 -0.2443868 0.12853804
-0.18977144 0.105650395 -0.06167226 -0.21922821 0.21725251 -0.124193996 0.137035 -0.16253656
0.065646626 -0.27295914 -0.109807625 -0.09645502 0.19658202 -0.027245773 0.000399803 0.0110592
0.016028462 0.06772872 0.11077026 0.13463728 0.16183789 -0.111792944 -0.13738419 -0.2882125
-0.0064692926 0.034836296 0.08119624 -0.15037568 -0.016754359 0.08167881 0.09369294 0.0431534
-0.12906621 -0.057235282 0.105236985 -0.14732283 0.2551278 -0.05869299 -0.010733674 0.047711555
0.050729416 -0.034827627 -0.019931385 -0.14098042 0.038758267 -0.2096104 -0.1500144 -0.016465938
-0.12092583 0.085289136 -0.08207178 -0.09815373 -0.0962436 0.03965431 -0.094605915 -0.0028704454
-0.016647873 -0.027267672 -0.025793266 -0.08653639 0.026368305 0.1460622 0.042928897 -0.052880343
0.048939373 0.15556793 -0.020963281 0.073175825 0.25563282 0.030565845 -0.020496896 -0.00612168
0.25980988 0.20725937 0.069154635 0.04449001 -0.076361574 0.06732919 0.18170339 0.05716176
0.049282525 -0.16652487 0.078180864 0.10052529 0.069485374 0.099972405 0.10579506 0.01017808
0.11029984 0.04171407 -0.20351966 0.16630676 -0.061474174 -0.09292588 0.12079208 0.07811867
-0.049516007 0.032497104 0.010752684 0.029745689 0.22906911 0.16278069 -0.063806966 0.17589398
-0.010793142 0.053514775 0.030616747 -0.016210375 0.2279683 -0.034416344 -0.076216795 0.06546561
0.17319198 0.16250303 -0.022528352 0.06323102 -0.071478434 -0.03021035 0.2777802 0.14564471
-0.34481615 0.092447415 0.077674 -0.12208709 0.023773741 -0.014396241 0.33233914 0.12691656
-0.13171154 -0.13369545 -0.19654825 0.019251812 0.10208322 -0.078965925 -0.12795621 0.115157664
-0.16543554 0.1218184 -0.04675128 0.17420006 -0.01606036 0.31932083 0.31297383 -0.031565044
-0.124102466 0.14124642 0.0784324 -0.08751207 0.0137573825 0.066884294 0.20287943 -0.07489558
0.062905245 -0.017070731 0.09073862 -0.16424008 0.012574644 -0.019913673 -0.06805351 0.22730333
0.15101118 0.24857628 -0.13496296 0.048370395 -0.24720071 0.1978958 -0.0973408 0.03548107
-0.2625069 0.062375613 -0.013786634 0.047727536 0.027319055 -0.050565917 -0.1650215 0.0025399488
-0.028525462 0.24965797 -0.00072505645 -0.062611 0.28376967 0.1506317 0.19092248 0.053223163
0.047232095 -0.01499608 0.015975928 -0.025498914 -0.0803325 0.24029675 -0.01614314 0.012407249

network_body._body_endoder.seq_layers.0.bias f4 [256]
00000000: 446b 1fbc 2135 1abc 129b 793c 162c 513c
00000010: 4e31 643c d047 e33c d6c1 933c 70aa 03bd
00000020: 0f49 5d3c fd9b 88bc d51c afbc ce3f 2e3d
00000030: 515c 6b3d 5734 c3bc ebf2 633d bdef 443c
00000040: efb4 02bc 4b23 2ebc 3090 cebb 1552 023d
00000050: bbd0 7d38 8813 5f3b a5ab 8b3b 4d75 d23c
00000060: 30f5 0bbc ee76 843c 1699 29bb 6f9b 163c
00000070: f2a3 323d 7a08 a7bb 0341 3d3c 1dec a6bc
00000080: e336 e0ba 4be5 ca3b a6dd 523c a6d2 31bc
00000090: 9d4e e53c 73e8 1cbc 9231 c43c 1401 ba3c
000000a0: 7afa 743b b9fc 8cbc bf80 d63b be3b 333a
000000b0: 624d 37bc 4b24 243b 5556 2a3c f755 163d
000000c0: 9731 de3b 410a 063d 9be0 8f3c 37ed 0cbc
000000d0: 856d 073d 2f68 38bc 7e85 253c ad7c 083c
000000e0: 137d 2f3d c9a6 b7bc c7d3 833c f923 eabc
000000f0: e758 9f3c 6390 02bb 2d56 843c 5411 273d
00000100: 2fcc 663c b4fa e1bb 0be4 94bc 3ccd e1bb
00000110: a34a 82bc 0f9a 573d 6fce a5bc 9057 3bba
00000120: 2dc8 b0ba d5a6 063d fbdd 69bc f6d3 383c
00000130: ce8e 823d 9678 a3bc 0f08 de3b 3f76 d8bc
00000140: a251 3b3c d4ee 42bc efb6 9ebc a308 a0bb
00000150: f8f1 09bc 4874 40bc fcb4 523c a145 fe3b
00000160: a7f2 06bc 2c6b 563d 3996 14bd 65f4 a3b9
00000170: 06c6 b2bc d8ee 2abc 4da1 b3bc d472 d03b
00000180: 295a d2bb 2bbb 423c 3c97 b03c 6602 dbb8
00000190: 9db0 07bb c760 f2bb 7dd6 2bbc 8595 babc
000001a0: 5228 69bb a158 c63c cb33 f1bc 6b8d 99bb
000001b0: ac96 33bc 33ba 9b3c 8410 003c ac27 5dbc
000001c0: 93f7 9f39 b108 f9bb deb6 84bc 63bf 73bc
000001d0: 1c62 c43b 669b a73b 7a5c 3f3d 7eb4 80bc
000001e0: 775d 85bb e73d f53a 165f 64bc ba09 903c
000001f0: 0e4b 8c3c ecc8 f83b a3ad 9bbc e440 753c
00000200: 8b97 68bc 3f3a fc3b 7dbe c0ba d2ce 463c
00000210: 147f da3c 4978 783c 212a 7abb 6904 813c
00000220: fb14 543c 4452 95bb 1777 3abc ca34 16bb
00000230: 02ae 07bd d7c1 3b3c ab80 43bb 43a1 e53a
00000240: fadf f03c 4c35 c5bb 244a 0e3d b6fb 373d
00000250: 1c78 0cbc 9673 e93c 7620 88bc 6135 44bc
00000260: 014e 413c 3ac3 6bbc d34b 58bc 41e0 0ebc
00000270: b6c5 b83a 98a3 bbbc 406e 43bc 1dee a9bc
00000280: bfe7 f13b 69c3 323c 90a1 063c 68a3 3ebb
00000290: 65af 603c 8029 0abc bbd4 31bc 527c 843b
000002a0: 397f f53c b4b8 713c 81f9 57bc d59a a1bb
000002b0: 892a 253d df5b 673b d5af 553d 72ec f63b
000002c0: 17f7 fbbc 07c8 89bc 7467 42bc 95e1 90bb
000002d0: 1ea8 4b3c d0cb a0bc 36bf 97bc 62d8 863d
000002e0: 075b 02bd 1be4 79bb 9d4b 13bd 539b 29bc
000002f0: da29 353c e0ca 7a3d 74db 023c daf1 5abc
00000300: 7db3 c4bb 95ad 18bd e688 f6bb 946b 23bc
00000310: 3c47 743c 935f 86bc c8a1 893b b700 7a3c
00000320: 0a86 cb3c 80a9 f2bb 9cec 12bc 8531 a8bc
00000330: 6a28 6e3d 9151 c03b e14e a7ba 6009 30bc
00000340: efdc bb3b 3d31 58bb 6380 a53b e04d b73b
00000350: d07a a4bc b685 a1bc fcc4 213d ef68 e43b
00000360: 7011 b5bc a566 ddbb 77d5 cb3a b58b 753c
00000370: 5d5c 31bc 0680 653c 070a d13a 58c1 853b
00000380: adcb 013c 1413 f93c c63b 333c 59de 8a3b
00000390: 2575 d7bb 08ec fd3c 8ce3 10bc 0faa d9bc
000003a0: c293 14bc d5a0 b5ba e2ec bb3a b103 2dbc
000003b0: c82e 343d 1838 f4bb e6ab 543b 47cb 30bc
000003c0: 6d18 88bc f268 efbc 58d7 623c 4f3b a33c
000003d0: fcb9 1a3d 9c11 8abc e23b ac3c 7332 173d
000003e0: 20fc 0ebd 38c1 f23c f167 12bc 3397 21bc
000003f0: f1ef 46bc d721 0a3c 7221 81bb c5fb d03b
-0.009730164 -0.009412081 0.015234726 0.012766859 0.013927771 0.027744204 0.018036764 -0.032144964
0.013506188 -0.016675944 -0.021376053 0.042541318 0.057461087 -0.023828669 0.055651587 0.012020049
-0.007977708 -0.010628532 -0.0063038096 0.03181656 6.0514296e-05 0.003403874 0.004262405 0.025690699
-0.008542344 0.016169991 -0.00258786 0.009192332 0.04361338 -0.005097446 0.0115511445 -0.02037626
-0.0017106201 0.0061918846 0.012870228 -0.010853445 0.027991587 -0.009576905 0.023949418 0.022705592
0.003738074 -0.017210351 0.0065461094 0.00068372104 -0.011187883 0.0025046046 0.01039656 0.036703076
0.006780814 0.032724623 0.017563155 -0.008601478 0.03306343 -0.011255308 0.010102628 0.008330506
0.04284389 -0.022418397 0.016092194 -0.028581606 0.019451572 -0.0019922487 0.016154373 0.04078801
0.014086767 -0.006896341 -0.018175146 -0.006890921 -0.01590473 0.052637156 -0.020240037 -0.0007146532
-0.0013487391 0.032873947 -0.014274116 0.011281004 0.06374894 -0.01995496 0.006775863 -0.026423572
0.011433037 -0.011897761 -0.019374339 -0.004883842 -0.008419506 -0.011746474 0.012860533 0.0077597653
-0.008236564 0.0523483 -0.036276076 -0.0003127187 -0.02182294 -0.010432921 -0.0219275 0.006361345
-0.0064194393 0.011885445 0.02155649 -0.000104431805 -0.0020704635 -0.0073967907 -0.01048815 -0.022776375
-0.0035577011 0.024212183 -0.029443642 -0.004686048 -0.010961216 0.019009685 0.007816438 -0.013498228
0.000305113 -0.007599913 -0.01620048 -0.014877173 0.005993141 0.0051149605 0.046719052 -0.015711065
-0.00406998 0.0018710465 -0.013938686 0.017582763 0.017125633 0.007592311 -0.019003695 0.014969084
-0.014196287 0.007697373 -0.0014705207 0.012134271 0.026671924 0.015165397 -0.0038172083 0.015749173
0.012944455 -0.004556926 -0.011380932 -0.0022919648 -0.03312493 0.011459789 -0.002983133 0.0017519373
0.029403675 -0.0060183164 0.034738675 0.044917785 -0.008573558 0.028497498 -0.016617041 -0.011975617
0.011798383 -0.014389807 -0.013201672 -0.0087204585 0.0014097008 -0.022905156 -0.011928141 -0.020743424
0.0073823626 0.010910847 0.00821723 -0.0029089097 0.013713692 -0.008432746 -0.010853942 0.0040431404
0.029967891 0.014753509 -0.013182045 -0.0049317875 0.040323768 0.0035302562 0.05216964 0.0075355107
-0.03075747 -0.016819013 -0.011865485 -0.0044214227 0.012430219 -0.019628435 -0.018523794 0.065842405
-0.03182509 -0.0038130346 -0.035960782 -0.010351974 0.0110573415 0.061228633 0.007986892 -0.013363326
-0.006002842 -0.037274916 -0.007523644 -0.009974379 0.014909562 -0.016402995 0.004200194 0.0152589595
0.024844188 -0.00740546 -0.008967545 -0.020531425 0.05814401 0.0058690985 -0.0012764597 -0.010744423
0.0057331244 -0.0032988333 0.0050507053 0.005594 -0.020078093 -0.019717079 0.0394945 0.006970517
-0.022103041 -0.006756621 0.0015551288 0.014986922 -0.010825244 0.014007574 0.0015948423 0.0040818863
0.007922095 0.030404605 0.010939544 0.0042379317 -0.006575244 0.030996338 -0.008843314 -0.026570348
-0.009068431 -0.0013857136 0.0014337564 -0.010559962 0.043989927 -0.007452976 0.0032451092 -0.010790653
-0.01661321 -0.029224847 0.013845287 0.019925741 0.037775025 -0.0168541 0.021024648 0.036913346
-0.034908414 0.02963315 -0.008935914 -0.009862709 -0.012142167 0.00843092 -0.0039407546 0.0063776695

network_body._body_endoder.seq_layers.2.weight f4 [256, 256]
00000000: 5c08 b33d f7a1 0e3d 5b10 9b3d 51f4 a4bd
00000010: 7494 70bc 0eeb 09bd 0592 093d 5595 1cbd
00000020: 63da d33c d451 1f3d 5343 13bc fcb8 ae3d
00000030: 0fda 0a3e 06b9 10bd 5b43 0dbc fc6a 80bd
00000040: f65c 673d 5376 f4bc d6cc 2abd 8c0a 91bd
00000050: 5d96 1b3e 523f cc3c a706 763d 6749 0a3d
00000060: b594 abbd 3be9 133d 30b9 2dbe 1e56 c03d
00000070: dbb2 47bc 9da9 9d3b bfce a03c 04f2 4dbd
00000080: 82b0 59bd 0b6c 243d fc64 493b 97e4 0dbc
00000090: 9789 ff3b 9230 a0bd bf59 36bd ce81 a8bd
000000a0: 9800 d23d d7df 8ebc 8785 04be 12ae adbd
000000b0: a8c5 10bd 0db4 9cbd e9d6 cebd 958d 933d
000000c0: 6919 a5bd 8884 573d fecc 823d 3b0b 9c3d
000000d0: a04d 1dbe dfbc a1bd 15c0 5abd 02ec 203d
000000e0: 7dc9 b8bc 038b 73bd 30a7 1c3d 8c65 d8bc
000000f0: 396e da3d 1af1 90bc e685 5dbc 7006 273d
00000100: d993 123c 6a03 db3d 5f83 89bc a4ba d5bd
00000110: fa5d 243d d0a3 67bc ea55 2d3c 2a96 b33d
00000120: cd64 06be c032 c43d 7146 02bd d920 253c
00000130: e4be 413c 5ad9 553c 8caf 86bd 66a1 913d
00000140: fa8b 8bbd 7960 79bb d7a6 90bd 7a56 80bc
00000150: d360 a0bc 5f9d 163d 5656 f33c b352 85bc
00000160: f582 63bd 185e 5abd 1a92 933d 8463 6fbd
00000170: 8c3e 093d 1ff8 8abd 6eac f0bc 3eeb a13d
00000180: 59da 72bd a332 8c3d 2ef4 7f3d 8047 5d3b
00000190: d535 b73b 34fb 36bd b4e3 f0bd 0abf 8dbc
000001a0: 4557 263d c734 57bd e411 02be 8810 c63b
000001b0: a605 8dbd 1efb a9bc 4755 07bd 1d9a bf3d
000001c0: a5fc 01bc c01b 7b3d 2369 803d 5030 53bc
000001d0: 8c6c 57bc ebc4 de3d bfc2 943d eb69 a9bd
000001e0: d7af e73d 4080 23bd e6a1 d73c 73e5 62bd
000001f0: c5ba febc 1e48 25bd fda0 ecbc be70 bd3c
00000200: bdde 623d 6510 24bc f52c e5b8 b916 973c
00000210: d503 e7bc 3507 26bd 1616 01bd 62bc 03bc
00000220: 80ff 563d 3951 44bd 1326 12bc 0f75 4bbb
00000230: a09f ffbc 4b0d 9f3c eded 4a3d 5782 1a3e
00000240: 11b8 123e b1fd 343d c814 adbc 0717 193d
00000250: 57d2 61bd dbd5 d6bc 405e 473d 549a a7bd
00000260: 6070 dbbd bdf4 9cbd aa77 89bd 19dd 733c
00000270: 6d99 9d3a 7815 a1bd a73d a33d 5b73 873c
00000280: e1fd b4bd 8f23 b23c 5f13 c63d 0088 373c
00000290: e21b c3bc 14b4 62bd 556c c4bd 98d2 623d
000002a0: 24a3 143a b5c0 c73c 5519 c0bd d299 983c
000002b0: c0e7 fc3d 3395 09bd 6bf5 4cbc 4bd1 193c
000002c0: a824 cf3c 361a 14ba aa6c 03be 062f ac3d
000002d0: fb80 6e3c 7b09 773d e8a9 07be afad 093d
000002e0: adc6 d7bd c43b 0dbe e857 353d a21a c9bb
000002f0: 3f8c 343d 6647 2e3b 3549 aebd 4dc7 ca3d
00000300: 6fec a0bd 6a7a 693c fb22 d23d 4dbf 4abd
00000310: a6a5 073d cd01 04bd 98de 113e 9436 99bc
00000320: 198e 7ebc a43b 0abc 0780 4c3d 3998 f93d
00000330: 89ae de3d dd03 b83b 36c9 6f3d e4cc e0bd
00000340: 66c4 7fbd a801 cb3b 2340 13bc 554c 19bd
00000350: 09cc 07be 5bc8 54bd 8335 cd3c f5d6 4c3d
00000360: b919 4c3c 5842 db3d 13f5 06be 9165 09bc
00000370: 03ac 0fbe 9a39 84bd 4125 30bd d083 45bb
00000380: 6716 69b9 d31a f8bd b182 82ba c6cf acbd
00000390: 5fa6 f6bc cbb4 dc3d 97ad 3f3c fc5b 68bd
000003a0: df4e cabc 99ec 433d 1962 183d 504b fd3d
000003b0: 06a9 773d f185 593a 290e a2bd 48be 9e3d
000003c0: 73a4 103d 7bc0 8dbd a079 50bc 91ef bebd
000003d0: 0a20 12bd 54cb 2c3c 5c72 293d 31e2 bfbd
000003e0: 785a 61bc 19d7 f5bc 6ab9 093c ea2a dbbb
000003f0: 387f d7bc 7458 123d 5406 5dbd 2e19 a4bd
0.08741829 0.03482243 0.07571479 -0.08054412 -0.0146838315 -0.03367143 0.03358652 -0.03822835
0.02586097 0.038896397 -0.008988219 0.08531377 0.13559745 -0.035332702 -0.008622016 -0.06270406
0.05648514 -0.029841578 -0.041699253 -0.0708209 0.15194078 0.024932537 0.060064938 0.03376141
-0.08377973 0.036111098 -0.16965175 0.093914255 -0.012188639 0.0048114792 0.019629834 -0.050279632
-0.053146847 0.0401421 0.0030730357 -0.008660457 0.0077983844 -0.07821764 -0.044519182 -0.08227883
0.102540195 -0.01744072 -0.12941562 -0.08480467 -0.03534475 -0.076515295 -0.100995846 0.07204739
-0.08061487 0.052616626 0.063867554 0.076193295 -0.15361643 -0.078973524 -0.05340584 0.039287575
-0.022557015 -0.059458744 0.03824538 -0.026415609 0.106655546 -0.017693091 -0.013520693 0.040777624
0.008946382 0.106940106 -0.016786275 -0.104359895 0.040128686 -0.014138177 0.010579566 0.08768876
-0.1312439 0.09579992 -0.03180546 0.010078632 0.011825297 0.013052309 -0.06576452 0.071108624
-0.06813808 -0.0038051887 -0.07063072 -0.015666235 -0.01957742 0.036771175 0.029704254 -0.016274786
-0.055544812 -0.05331239 0.07205601 -0.058444515 0.033506915 -0.067856066 -0.029379096 0.07906197
-0.059290264 0.06845596 0.062488727 0.003376454 0.005591134 -0.04467316 -0.11762181 -0.017303009
0.04061057 -0.052540567 -0.12702137 0.006044451 -0.06885843 -0.020749625 -0.03304031 0.09355567
-0.00793377 0.06130576 0.06270053 -0.012889937 -0.013148438 0.10877403 0.07263707 -0.082721554
0.11312836 -0.03991723 0.026322316 -0.0553946 -0.031094918 -0.04035198 -0.028885359 0.023125049
0.0553882 -0.010013674 -0.00010927945 0.018443452 -0.02820007 -0.040534217 -0.031515203 -0.008040519
0.052489758 -0.047929022 -0.00892021 -0.0031045114 -0.031204045 0.019415518 0.04954331 0.15088783
0.14328028 0.04418725 -0.021128073 0.037375476 -0.055132236 -0.026225021 0.04867387 -0.08183733
-0.10714793 -0.076638676 -0.06712277 0.014884257 0.0012023874 -0.07865423 0.079707436 0.016534498
-0.08837486 0.021745471 0.096716635 0.0112018585 -0.023817006 -0.055347517 -0.09590975 0.05537662
0.0005670062 0.024383882 -0.09379832 0.018628035 0.1234889 -0.033589553 -0.012509684 0.009388278
0.025286034 -0.00056496577 -0.12834421 0.084074065 0.0145571185 0.060311776 -0.13248408 0.033612903
-0.10535941 -0.1379233 0.044273287 -0.006137208 0.04407906 0.002659285 -0.08510057 0.09901295
-0.07857596 0.014250377 0.10260578 -0.049498845 0.03311696 -0.03222828 0.14245069 -0.018702783
-0.015536808 -0.008437071 0.049926784 0.12187237 0.10873134 0.005615695 0.0585415 -0.1097658
-0.06244316 0.006195266 -0.008987459 -0.03742631 -0.13261427 -0.051948886 0.02504993 0.050009686
0.012457305 0.107060134 -0.13179426 -0.008386032 -0.14030461 -0.06456299 -0.043004278 -0.003013838
-0.00022228957 -0.12114491 -0.0009957162 -0.08438067 -0.030108629 0.10776671 0.011699102 -0.056728348
-0.024695812 0.04783306 0.03720293 0.1236788 0.060463928 0.0008297852 -0.07912857 0.07751137
0.03531308 -0.06921478 -0.01272431 -0.093230374 -0.035675086 0.010546524 0.041368827 -0.093693145
-0.01375448 -0.030009793 0.008406023 -0.0066884654 -0.02630578 0.035728887 -0.053961113 -0.08012615

network_body._body_endoder.seq_layers.2.bias f4 [256]
00000000: 8e3e 413b 399d b63b 85a2 763c 0740 81bb
00000010: 77d9 d13b b86b 85b9 410f 0abc f674 a3bb
00000020: bb94 6dbc 3482 863b 59fb 0039 9693 1abb
00000030: feb9 36bb 41d4 babb f43c 42bc 6026 babc
00000040: afa9 053c c364 153a 9bd2 c63c 8a50 0f3b
00000050: 6dc1 983c 9cfd 8aba 94f3 d1b9 59a1 0e3b
00000060: bb0b b63c f715 073c eba0 b43c 2e16 373a
00000070: 547f 2abc 7b9f a13c e84b c4ba 5d3d 9e3c
00000080: cb37 8e3b cc7b 873b 71f1 133c 9571 2b3c
00000090: 1c28 bcbb aad8 31bc 3bc1 a8bc e796 f5bb
000000a0: 2351 34ba 962a d43c 01d4 bb3c 939c 5fbc
000000b0: 6182 353c 8cc4 27bc 105f b9bb b425 09bc
000000c0: f7b3 b73c 2dc0 fdbb a926 913c 726c ba3b
000000d0: 2cd5 983b e05a 6e3b a83d 47bc 4b15 683b
000000e0: 7849 b13b 9a6a 4a3b 4f5a 09bc 79b2 69bc
000000f0: 6a81 38bb 0987 d83b f5f4 15bc 1941 a2bc
00000100: 1979 8bbc 465a 50bc 89f4 043b c24c c03b
00000110: 1483 27bb 2133 35bc d003 aebb e503 ff3b
00000120: dc26 64bc 0670 893b 768a a43b f6c8 5c3c
00000130: 60ad 25bc f2b9 9ebc 03f6 88bc cae2 03bc
00000140: 61ad d5bb 094d b3bb 0ae5 553b 9187 153c
00000150: d08d 9a3c 5442 613c ca82 2c3b 9cc8 e83b
00000160: 1691 e83c 9cdf 62bc 7a3b 403b 58db 44bb
00000170: 1783 8bbc c38c cabb 0013 90bc 6a6e 033d
00000180: 302b 5e3b 2205 a63b 9b75 843c 1c6d ba3c
00000190: a48d a939 f829 4cbc 9549 4cbc 7c78 2ebc
000001a0: 18fb a7bb 6f26 0abc 6bc1 42bc f844 10bc
000001b0: b0c8 80bc 6113 d63c f1c9 4dbb 3e32 8d38
000001c0: a354 ebbb b81d 4bbc 6a6b 27bc ee1d 10bc
000001d0: 2e43 9b3c fc93 f23b aa33 3dbc 6050 fdba
000001e0: 3216 0a3d 2c95 883b f1b7 7e3c 94f7 b53b
000001f0: 9598 113c 33f7 00bc a8e9 27bc 8ce9 493c
00000200: 39a4 ac3c 9182 d33c f35e b53c 9d4d f1b9
00000210: b243 2abc c64e e73b 025c 093c 7e11 36bc
00000220: ec90 66bc e37c 8f3b 7187 b33b 1411 e53b
00000230: eea2 bbbc 1fe7 8ebc 47e8 143c caae f63c
00000240: 5dfc 003b 4d35 7fbc da1c 523b 86d6 31bc
00000250: 55e8 453c f36e eebb 15e7 88bc c39f 4abc
00000260: 5284 5dbc 5d21 38bb 3cf2 0cbc 56bf 953c
00000270: e0ee 59bc 7db5 b83b 1eaf e93c ec31 fd3c
00000280: 90c1 6c3c aa0f e03c a423 42bb fca3 6c3b
00000290: 1a42 65bb 5783 763b afb6 82bc 955d e3b9
000002a0: c9b8 5d3b e1fa 6abc cd35 c3bb ebd1 f13b
000002b0: 1e41 32bc e53b 81bc 72e6 aa3c 3775 1ebb
000002c0: 1a00 24bb 4395 093b 467d 33bc 7a6b ae3c
000002d0: b460 b5bb 8bae 273c 2a3e c03c 3b26 c4bb
000002e0: a855 993c 234f 003c dcd3 b5bb cef2 063c
000002f0: 990e 533c f7cd 7d3c 2931 c3bb 69c6 fcbb
00000300: c16d 44bc 68f3 083c 643b 493c 1d70 22bc
00000310: 6a16 073b 0fce 77bb 19c8 77bc c45f 07ba
00000320: 10a2 42bc 8618 78bb 66cb 273b c6cc e73b
00000330: f5c0 92bc a422 2cbc 8d75 223c a69c f13c
00000340: b333 82bb 44d8 cb3c b361 203d 998f ff3a
00000350: bf6e e23c 9076 713c c1db 233c 29a4 793b
00000360: d069 8a3b 28e1 7bbb 1f9e 413b 2939 183b
00000370: 2006 c43b 37eb 62bc 20e3 69bc 80f4 6d3b
00000380: 9868 46bc 6def 68bc ebb1 ec3b 68e9 b43c
00000390: fc1c 08bc 6593 673c 2b88 48bc 632e 4c3b
000003a0: 7428 113d 3bf1 a1bc 980b 74bc c1bc 38bc
000003b0: 7ad9 df3c 2f93 48bc 28b6 2f3b 9d36 f9bb
000003c0: 8504 e1ba d226 8e3c f8f3 29bc 20fd 6c3c
000003d0: c1c5 c73c c0cf 61bc e4a7 25bc bad5 ddbb
000003e0: 0463 b03b bb2c bd3c f136 973c 5619 ca3c
000003f0: 6988 7abb c630 aabc f27d 88ba d8d0 53bb
0.0029486748 0.0055729416 0.015053396 -0.0039444 0.0064040977 -0.00025447994 -0.008426488 -0.004988308
-0.014500792 0.004104877 0.00012300666 -0.0023586503 -0.0027881856 -0.005701572 -0.011855353 -0.022723377
0.0081581315 0.00056989136 0.024270346 0.0021868073 0.01864692 -0.0010604146 -0.00040045066 0.0021763651
0.02222239 0.008244983 0.022049388 0.0006984201 -0.010406334 0.019729367 -0.0014976235 0.01931637
0.004340147 0.004134631 0.009029732 0.010464092 -0.005742086 -0.010854879 -0.020599952 -0.0074947956
-0.00068785454 0.025899213 0.02292824 -0.01364817 0.011078448 -0.0102397315 -0.0056570843 -0.0083708055
0.022424681 -0.0077438564 0.01771863 0.005689197 0.004664084 0.0036370084 -0.012160696 0.0035413082
0.0054103695 0.0030886293 -0.008383348 -0.014263743 -0.0028153309 0.0066078943 -0.009152641 -0.019806432
-0.017025517 -0.012716835 0.0020287356 0.0058685252 -0.0025560306 -0.011059553 -0.005310513 0.0077824467
-0.01392528 0.0041942624 0.0050213886 0.013475647 -0.010112137 -0.019375775 -0.01671887 -0.008049676
-0.0065209125 -0.00547183 0.0032637739 0.00912656 0.01886645 0.013748724 0.0026323074 0.0071039926
0.028389495 -0.013847258 0.0029332326 -0.0030037966 -0.017030282 -0.006181331 -0.017587185 0.03208772
0.0033900253 0.00506653 0.01616936 0.022757106 0.00032339722 -0.012461178 -0.012468715 -0.010648843
-0.0051263683 -0.008432015 -0.011886935 -0.008805506 -0.015720695 0.026132287 -0.0031400884 6.732762e-05
-0.0071817203 -0.012397222 -0.010218481 -0.008796198 0.018952932 0.007402895 -0.011547962 -0.0019326322
0.033712573 0.0041681733 0.015546785 0.0055531953 0.008886476 -0.007871437 -0.010248579 0.012323748
0.021074401 0.025819095 0.022140002 -0.00046024928 -0.010392116 0.007058951 0.008383753 -0.011112569
-0.014072638 0.0043789013 0.0054787924 0.0069905613 -0.02290484 -0.017444192 0.009088582 0.030112643
0.001968167 -0.015576673 0.0032060654 -0.010854369 0.012079318 -0.00727641 -0.016711751 -0.012367192
-0.013520317 -0.0028096058 -0.008602675 0.018279713 -0.013301581 0.0056368695 0.028525885 0.030907594
0.014450446 0.02735122 -0.0029623294 0.0036108484 -0.0034982027 0.0037614906 -0.015956251 -0.00043366538
0.0033832064 -0.014342041 -0.0059573413 0.0073797605 -0.010879783 -0.01577563 0.020861838 -0.0024178752
-0.0025024475 0.0020993508 -0.0109551605 0.021291483 -0.0055352096 0.010234485 0.023467142 -0.0059860027
0.018717602 0.007831368 -0.0055489372 0.0082366 0.012881898 0.015491 -0.005956788 -0.007714082
-0.011989058 0.008358814 0.012282226 -0.009914425 0.0020612725 -0.003781203 -0.015123391 -0.00051641115
-0.011879459 -0.0037856414 0.0025603413 0.0070739714 -0.017914275 -0.010506306 0.009915722 0.029493641
-0.003973448 0.024883397 0.039155673 0.0019497751 0.027640698 0.01473774 0.010001124 0.0038092232
0.0042240396 -0.0038433764 0.002954371 0.002322743 0.0059821755 -0.013850025 -0.014275342 0.0036309063
-0.012109898 -0.01421724 0.007223358 0.022083953 -0.008307692 0.014134263 -0.012239496 0.0031155578
0.03543897 -0.019768348 -0.014895342 -0.011275471 0.02732538 -0.012242123 0.0026811454 -0.0076053874
-0.0017167485 0.017352495 -0.010373108 0.014464647 0.024386289 -0.013782442 -0.010110829 -0.006769863
0.0053828973 0.023092618 0.018458815 0.024670284 -0.003822828 -0.02077521 -0.0010413511 -0.0032320525

action_model._discrete_distribution.branches.0.weight f4 [2, 256]
00000000: a2eb cc3a 5317 a4bb 0f3a 823c d917 863c
00000010: 6b75 d93a 4788 ce3c 27f6 e03c 64d4 df3b
00000020: 0545 a33c 806c e4bb 0bf9 1abc 81d5 cc3b
00000030: 78c5 c03b f733 91ba ec9b 853c e8a3 cb3c
00000040: 4fdc 28bc 7fcc 2bbc 8e7e c6bc cf7a 44bb
00000050: 4b35 09bd a21c c73c 7e7a ddbb 6c19 0a3d
00000060: c333 86bc 9e0b 0abc 9e4c 61bc 7494 b8bb
00000070: 261b 9e3c ff69 65bc e97f 373d 72ad 77bc
00000080: bd20 3cbc 860a a9bb d1d9 d9bb 7cea 6bbc
00000090: d90c 1f3d 7dab 8c3c 8899 a53c b576 f93c
000000a0: ca39 cc3c 0489 4bbc aa8c fdbc 10bd b43c
000000b0: 78fd a2bb 9d50 823c f810 0f3c d172 a03c
000000c0: 3430 f2bc e758 013c 0205 e6bb 6342 38bc
000000d0: 4353 e7ba 94c2 45bc c9f8 fb3c b797 0cbc
000000e0: cc40 c0bb 069a 4abb a736 303d d7a3 9e3c
000000f0: abd9 81bb 48c2 22bc f0c6 173d 2fae d73c
00000100: f052 943c fe6a 0d3d 9089 43bc 05ee aeba
00000110: 5d84 72bb ed19 913c 9b59 0c3d 8d6f 15bc
00000120: fa0b 823c 95e7 083b 6d14 8cbc b82f 90bc
00000130: 2505 073d 137d 0e3d 21af 893c 9962 d23b
00000140: f8f7 363c d363 4fbb 6cf6 80bc ae46 b53a
00000150: 1427 e0bc 8962 78bc 8021 82bc 8645 b6bb
00000160: 65d0 aabc 012b b03c 8088 d63c 7cbf 523a
00000170: 9a58 cd3c 9f25 033d 747f 403c aa24 58bc
00000180: 113a d6bb f464 00bc 6345 40bc d0a5 f7bc
00000190: 110d 7ebb ad31 1c3d 4468 393b bc0c c63c
000001a0: 75fb d5bb 27f4 913c a2ef a53c bb79 e23c
000001b0: 8c98 943c 40cc c9bc ddb9 e6ba 7d33 3f3d
000001c0: aae8 97ba 68a0 303d 8e28 c13c 629e ab3c
000001d0: fb73 92bc 744a 2cbc def3 1539 62bf bbba
000001e0: 5fd0 94bc 6684 16bc 1193 eebb 08c6 2abc
000001f0: 569f b73a 4317 ceba 91af 983b 3a6e 0ebc
00000200: 4922 66bc fb64 cfbb 8f87 69bc 99a4 96bb
00000210: bee8 9b3b 0ce3 11bc 7ca7 b7bb 1dbc 773b
00000220: 4b07 a73c a051 89bb 1e67 50bc 366e 93bb
00000230: 9d4f 013b b5c3 a43b 76b1 4abc 946d dcbc
00000240: 2991 34bc 890d f53c 29df 87bc b30b 103d
00000250: d2a8 1dbb 795f 473c 58ab 333c b707 95ba
00000260: 28f2 c83c 9872 cc3c 6436 853c 21c6 7fbc
00000270: 3552 0d3c 4d71 84bb 1cf8 f2bc 75eb 9cbc
00000280: 0b80 1abc ac6d 85bc d0a1 473c 06af 973c
00000290: 4acb 0fbc b790 f7b9 c678 b53c f305 00bc
000002a0: 54eb eebb 7477 923c af02 9e3a 463f b7bb
000002b0: f970 7d3c a375 983c b078 b7bc c5a7 07bc
000002c0: aa77 c0bb 8ccf 993c 20b2 14bb 5e39 06bb
000002d0: 92b5 463c 7210 81bc c885 b63b 135d 0b3c
000002e0: 6d19 acbc d005 b0bb 0604 af3c bc7d 42bc
000002f0: 8bd1 dbbc 5763 b7bc b2a2 4a3a b82c 29bb
00000300: d18b bd3c a1f9 2ab9 ebe6 433b 12cf 863c
00000310: 992b b63c 38bf 2e3d b319 173d be78 f83a
00000320: 89ea 133d c6f1 113d 79fd 15bc a755 8ebb
00000330: a53c c8bb c2e7 553c 8d53 39bc a408 90bc
00000340: b9cd 683b d5da 38bc 81a8 a6bc 9a5a 953b
00000350: c626 c9bb 2a57 13bc 125c 82bc c295 8cba
00000360: 90ed abbb ecde fe3c faf7 03bc 746e 8bbb
00000370: a78e 213b 2447 f13b f7eb f33c 7acc 17bc
00000380: 9e38 793b 87dd 10bb f931 5dbc b447 fbbc
00000390: c12a 143d 68f6 2dbc 33ef 263c 737d e63c
000003a0: 6dcb acbc 9f7b 043d 2cf0 4d3b da74 f5bb
000003b0: 13ad e3bc 39be dd3c 03fe 0fbc 0c06 013d
000003c0: 0f60 37bb 3eef 683b 208e b7bb de15 88bb
000003d0: 7235 e0bc f35f 2f3c 5d0f ff3c 7d61 df3c
000003e0: 584a 65bc ed8f 7abc 9a9a a3bc e110 15bd
000003f0: f592 443c f4c1 0c3d 2fd1 80bc 6633 2ebb
0.0015634189 -0.0050076633 0.015896825 0.016368793 0.0016590779 0.025211466 0.027461125 0.006830739
0.019930372 -0.006970942 -0.0094587905 0.0062510376 0.005882915 -0.0011078109 0.0163097 0.02485843
-0.010306432 -0.010485767 -0.024230268 -0.0029980426 -0.03349809 0.024305645 -0.006758987 0.03371565
-0.016382104 -0.008425621 -0.013751177 -0.0056329314 0.019300055 -0.014002322 0.04479972 -0.015117036
-0.011482415 -0.005158725 -0.00664828 -0.014399167 0.03883061 0.017171616 0.020214811 0.030452112
0.0249299 -0.012422804 -0.030950863 0.022062808 -0.0049740635 0.01590758 0.008732073 0.019585999
-0.029564 0.007894731 -0.00701964 -0.011246297 -0.0017648715 -0.012070317 0.030758278 -0.0085810935
-0.0058670994 -0.003091456 0.04302087 0.019365234 -0.0039627156 -0.009934016 0.037054956 0.026328174
0.018105954 0.034525864 -0.011934653 -0.0013346082 -0.0037005164 0.017712558 0.034265142 -0.009120834
0.015874851 0.0020889987 -0.017099584 -0.01760088 0.03296389 0.03478725 0.01680714 0.006420445
0.011167519 -0.0031645193 -0.015742503 0.0013830268 -0.027362384 -0.015160211 -0.015885115 -0.005562487
-0.020851323 0.02150488 0.026188135 0.00080393977 0.025066663 0.0320183 0.011749137 -0.013192335
-0.006537684 -0.007836569 -0.011735293 -0.030230433 -0.0038765112 0.038133312 0.0028290907 0.024175994
-0.00653022 0.017816616 0.020255867 0.027645936 0.018139146 -0.024633527 -0.0017602999 0.046679962
-0.0011589725 0.043121725 0.023578908 0.020949546 -0.01787757 -0.010515798 0.00014300595 -0.0014324004
-0.018165765 -0.00918684 -0.0072807153 -0.010423191 0.0014009278 -0.0015723485 0.004659601 -0.008693272
-0.01404626 -0.0063291765 -0.014253511 -0.0045972583 0.0047579696 -0.00890423 -0.0056046825 0.0037801333
0.02038922 -0.0041906387 -0.012719898 -0.004499222 0.001973129 0.005028213 -0.012371412 -0.02690772
-0.011020937 0.02991368 -0.016585903 0.035167407 -0.0024056924 0.012168759 0.0109661445 -0.0011370097
0.024529532 0.024956986 0.016261287 -0.015611202 0.008625557 -0.004041827 -0.029659323 -0.019155243
-0.009429942 -0.016287647 0.012184575 0.018516075 -0.008776495 -0.00047219332 0.022152316 -0.007813918
-0.007291237 0.017879225 0.0012055243 -0.0055922596 0.015468829 0.018610781 -0.022396415 -0.0082797455
-0.00587364 0.018775724 -0.0022689179 -0.002048097 0.012128251 -0.015754912 0.005570147 0.008506077
-0.021008218 -0.0053717867 0.021364223 -0.011870798 -0.026833316 -0.022386236 0.0007729932 -0.0025814008
0.023137959 -0.00016305457 0.0029892277 0.01645616 0.022237586 0.04266283 0.036889743 0.0018956882
0.036112342 0.035630964 -0.009154671 -0.0043437066 -0.006110745 0.013055744 -0.011311424 -0.017582245
0.003552301 -0.011282642 -0.02034402 0.0045579197 -0.0061386554 -0.0089929495 -0.015913043 -0.0010725784
-0.0052468255 0.031112157 -0.008054728 -0.0042551104 0.0024651678 0.007363217 0.029775603 -0.00926506
0.0038028131 -0.0022104697 -0.013500684 -0.03067384 0.036173586 -0.01061783 0.0101888655 0.02813599
-0.021093095 0.032344457 0.0031423671 -0.0074907364 -0.02779249 0.027068244 -0.008788588 0.031499907
-0.002798084 0.003554299 -0.0056016594 -0.0041529974 -0.027369235 0.010704028 0.031135255 0.027268166
-0.013994776 -0.015293104 -0.01997118 -0.03639305 0.011997928 0.034364656 -0.015724747 -0.0026580929

action_model._discrete_distribution.branches.0.bias f4 [2]
00000000: d2c7 b5bc d4c7 b53c
-0.022190008 0.022190012

action_model._discrete_distribution.branches.1.weight f4 [3, 256]
00000000: 1d09 eeba b57f 35bc 5087 eabc ca68 6dbc
00000010: 3ed9 febb 1496 5dbb 4b57 033c 0644 34bc
00000020: 2b08 223b ee98 313b 020c 66bc 5435 ad38
00000030: 0243 25bc a3f5 373b 7e6b 5abb 87a8 e9ba
00000040: 6476 d3ba 9585 6a3b 4aa9 99bc e402 0fbb
00000050: a9c0 f839 2707 05bc f995 58bc acaa 09bb
00000060: c302 bbbb 23ff 853b 853b 29bc f270 1c3b
00000070: 4279 6dbb ea41 4fbc e604 0fbc cc2a 53bc
00000080: 4645 06bc 77fb 4c3a ae95 213a 5328 ddba
00000090: 7b8f 82bc e0e5 05ba bb3c 80b9 2c35 6b3b
000000a0: c9c1 04bc 8240 85bb 68a8 2d3c 5c68 d9bb
000000b0: 35f0 c7ba a1c7 033c 547d 03bc 6626 e7bb
000000c0: f4b6 04bc f4cb 4fbc 1e9a 503c 3c89 cbbb
000000d0: dcdd 7abb 2d42 4ebb 5397 6bbc f8d4 b8bb
000000e0: 646f f4ba a8d6 a33b a925 85bb 0ba4 fabb
000000f0: a922 76bc a807 283a db66 37bb a81b 77ba
00000100: e2e4 25bb 5739 9cbb 8dda 8bbb bbc5 4dbc
00000110: 2000 7fba 1cd7 2f3c 7247 5abb da53 a7bb
00000120: 3223 b43b 9ee3 303a 0271 7bbc 9764 00bc
00000130: 86cb 3ebc b838 1dbb 5af3 333a 7576 943b
00000140: 34f9 1cbc 5521 4ebb 31b3 e83a 7300 6fbb
00000150: 6582 143b 13d8 5bbb 59ac be3b 5ff8 263b
00000160: ef9e bebb 8fed eebb 06ea 4e3b e332 883b
00000170: 07f3 90bb b3bc 73bb 450c 6ebb fd59 833c
00000180: 9219 e339 d043 2dbb de3b 68bb 0e60 073b
00000190: ec3f 0fbc 2a02 57bb c260 7e3c 0060 c43b
000001a0: 2e44 623b 4a94 92bb 97d6 bcbb 50d3 05bc
000001b0: e9e3 41bb ac2f 9ebb 09bc 1d3c 9b63 69bb
000001c0: 26d0 6b3b 97ae fdbb 5304 19bc 7cea 52bb
000001d0: 0973 4f3b b29f b0ba 7e69 8cbb 4ae4 6bba
000001e0: 3379 5cbb 99a8 b63a 0630 18bc 85ec 123b
000001f0: af1d 18bc 214a aaba 95bf 20bc 607b 6dbb
00000200: 6988 97bb 1a3a 233c d2ac 9c3b 6c09 b8bb
00000210: 52f0 02bc f6f5 17bc 35f3 b1bb 6903 163c
00000220: 2300 ad3a 0925 113b dd96 77ba e60c 973b
00000230: 0e47 743a a393 df3b c733 fabb 6e60 98bb
00000240: b0cb 193b e71e 0cbc 083b ca3a 743d 01bc
00000250: 53f1 02bc 2680 67bb 02ee b6bb 4aca ef3b
00000260: ab8d e0bb 53b6 733c 71ad 47bb 0512 903a
00000270: 62f0 a639 55ad 5a3b d766 2e3b ce2b 32bc
00000280: 8837 7abc 6e18 4bbc b6d0 98bb f3be 25bc
00000290: 044a c6bb ba1e 47bc 299f 84bb 1a64 16bc
000002a0: 319e 93bb 6201 813b e822 49ba c877 e53b
000002b0: 05ce 19bc 3ee8 1cbb 692f 6db9 c8fc bb3b
000002c0: 0062 8b3b f51c 2fbc 9d83 24bc bfba 03bc
000002d0: fa7a d93b 68d0 b3bb cae4 83bc d3ff 8f3a
000002e0: f2aa 913b 4022 0eba b864 d33b d5d8 c4bb
000002f0: cb83 563b 5152 2fba 336b a83c 30b6 5e3b
00000300: 459d 4039 7d64 92ba c426 6cbc 9b7a 5fbc
00000310: f5e2 0e3b 684a 1bbb 6125 0cbc 944b d33b
00000320: bac4 0bbc 3253 903b 557a c6ba 3a04 b8b9
00000330: fe7c b8ba 003b 333b 7dd1 8fbb 1477 9dba
00000340: 7e0e b7ba 43fb 5dbb be32 793c 56ee 3b3c
00000350: dedb ebbb 5af2 bbbb af0a d8bb e656 c2bb
00000360: f764 82bb 60c1 47bc 8fa6 5e3b b1de 883b
00000370: 14d4 063a 8179 a63b f2e0 4bbb 2310 813b
00000380: 93ce e83b 8b4a e03a ca1a eb3a 3e10 623b
00000390: 5221 9dbc 7628 e0bb 4373 e5bb a39e 92bc
000003a0: d37d de39 1ba7 e9bb d834 2e3b a6a2 513b
000003b0: ca5f 8d3b b51c cc3b dae9 de3a 87d0 c63b
000003c0: 97a9 90bb 5b59 68bc 9023 2aba 2556 f6bb
000003d0: a13d 603b c47e 9aba fb9d d0bb 3e90 17bc
000003e0: 233b 35bb 6286 9eba d59b 78bc 7ab0 e53b
000003f0: 5a8c 243c 2f4a 24bc 85dc fcbb ea5b c63b
-0.0018160675 -0.011077811 -0.028628975 -0.014490316 -0.007777362 -0.0033811377 0.008016418 -0.011002546
0.0024724107 0.002709921 -0.014040949 8.259216e-05 -0.010086777 0.0028069995 -0.003332823 -0.0017826714
-0.0016133306 0.0035785188 -0.018757481 -0.0021821791 0.0004744579 -0.008119381 -0.01321935 -0.002100627
-0.0057071163 0.0040892526 -0.010329132 0.0023871032 -0.0036235605 -0.0126499925 -0.008729195 -0.012888622
-0.008195227 0.00078194536 0.00061639666 -0.001687298 -0.015937557 -0.00051078014 -0.0002445931 0.0035889847
-0.008102843 -0.004066528 0.010599233 -0.006634755 -0.0015254082 0.008043201 -0.008025486 -0.007054138
-0.00810026 -0.012682904 0.012732057 -0.006211428 -0.003827921 -0.003147255 -0.01437934 -0.005640622
-0.001864892 0.0049999543 -0.0040633273 -0.00764895 -0.015022912 0.0006409832 -0.002798489 -0.00094264233
-0.0025313427 -0.0047675776 -0.0042679966 -0.01255935 -0.00097274967 0.010732438 -0.0033306745 -0.0051064314
0.0054973597 0.0006747785 -0.015346767 -0.0078364825 -0.011645203 -0.0023990106 0.00068645703 0.0045307227
-0.009580899 -0.0031452973 0.0017753599 -0.0036468774 0.002266073 -0.0033545538 0.0058188853 0.002547763
-0.005817286 -0.007291503 0.0031572594 0.004156457 -0.0044235024 -0.003719133 -0.0036323231 0.01603412
0.00043315865 -0.0026438124 -0.0035436074 0.0020656618 -0.0087432675 -0.0032807686 0.015525999 0.0059928894
0.0034525502 -0.004473244 -0.005762886 -0.008168057 -0.0029585308 -0.0048274603 0.009627351 -0.0035612348
0.003598222 -0.00774176 -0.00933941 -0.003218322 0.003165426 -0.0013475327 -0.0042850366 -0.00089985563
-0.0033641576 0.0013935744 -0.009288793 0.0022418809 -0.009284421 -0.0012992063 -0.009811302 -0.0036236867
-0.0046244157 0.009962583 0.004781344 -0.0056163576 -0.007991867 -0.00927495 -0.005430604 0.0091560865
0.0013198893 0.0022147319 -0.00094447826 0.004609692 0.00093184493 0.0068230196 -0.007635567 -0.004650167
0.0023467354 -0.00855229 0.001542897 -0.007888187 -0.0079921065 -0.0035324185 -0.005582572 0.007317816
-0.0068528256 0.014875012 -0.003046837 0.0010991698 0.00031841086 0.0033367474 0.002661159 -0.010874702
-0.015272029 -0.012395961 -0.004663552 -0.010116327 -0.006051304 -0.012153322 -0.0040472937 -0.0091791395
-0.004504942 0.0039369324 -0.0007672743 0.0070028044 -0.009387498 -0.0023942138 -0.00022619743 0.005736921
0.004253626 -0.010688056 -0.010041145 -0.008040129 0.0066369744 -0.0054874904 -0.016100306 0.0010986276
0.004445427 -0.0005421974 0.0064512156 -0.0060072937 0.0032732363 -0.00066879863 0.02055893 0.0033983104
0.00018369134 -0.0011168864 -0.014413539 -0.013640071 0.0021802757 -0.0023695473 -0.008553834 0.0064482186
-0.00853079 0.004404449 -0.0015142659 -0.00035098364 -0.0014075337 0.00273484 -0.0043889866 -0.0012013637
-0.0013966111 -0.0033871687 0.015209852 0.011470398 -0.007197841 -0.0057356777 -0.0065930705 -0.0059307693
-0.003979321 -0.0121921 0.0033973788 0.0041769375 0.00051432964 0.0050804024 -0.003110942 0.003938691
0.0071047037 0.0017112059 0.0017937061 0.0034494544 -0.019180927 -0.006840761 -0.0070022657 -0.01789791
0.00042436886 -0.007130516 0.002658179 0.0031987815 0.0043143975 0.006229008 0.0017006949 0.006067339
-0.004414748 -0.01418146 -0.00064902846 -0.0075175934 0.0034216421 -0.0011787047 -0.006366489 -0.009250699
-0.0027653656 -0.0012094493 -0.015173872 0.007009563 0.010043228 -0.010027452 -0.0077167177 0.0060534375

action_model._discrete_distribution.branches.1.bias f4 [3]
00000000: 8292 61ba f5b7 dbb7 829c 5a3a
-0.00086049 -2.6192496e-05 0.00083393615

action_model._discrete_distribution.branches.2.weight f4 [2, 256]
00000000: 13c6 07bc b2ce 003c 12cf 5cba 6de4 c1bb
00000010: 51a3 87bc 423d ca3c 88cb 0c3c 6e01 c73c
00000020: f4d0 623b 6907 633a e738 a2ba 61b2 1bbc
00000030: 471a a6bc 2c3e 2c3c 2662 4b3c afd6 143b
00000040: d0e0 3a3b 1720 623b 4526 93bc ad4c 6ebb
00000050: 2c71 77bc 7214 da3c f40b 31bc 0fc9 413c
00000060: 8d0b 5f3b 92b2 0a3a 3f58 aabb c2f6 203c
00000070: dd83 b03c d533 95bc 1a3d d93c 7b53 673b
00000080: b4d2 95bc c06c e9ba a4cc 8dbc 831e 33bc
00000090: c1b5 9c3c 8805 383c 8766 853b c989 ac3c
000000a0: 205d 843c 4f40 49bc afc6 03bc 4899 c53c
000000b0: db15 0fbd 4837 773c 2d3d 43bc 4981 033c
000000c0: 00d5 d9bc be46 19bc 3b7b 5dbb 9aec 3d3b
000000d0: c356 9aba 8aa1 7e3c 094d a9bb 0aa5 fcbb
000000e0: a4d8 13bb de44 353c a9bf 703c ca02 193c
000000f0: f71a 8bbc 92ac 873c dc83 c23c 5fab 723c
00000100: ebe5 853c 620f a63c 1451 f4bb 4cac ddbb
00000110: b871 a3bb 05a5 683c a0e2 653a 4802 c5bb
00000120: fa9d 4c3c c494 67bb 9729 25bc 7d6a 5eba
00000130: 3d4d 273c c547 f73b a83c 233c 2f0e 923c
00000140: 9c9c 6e3c 1311 9f3b c197 1abb ffb2 dc3a
00000150: c8b2 353c b59d 4ebc 46a7 e2bb 62ee 8fbc
00000160: 4574 10bc 2fe0 383c 8def 4d3c d0a4 58bb
00000170: 5563 8e3c b28b 8f3c 5622 003d 8e93 e4bc
00000180: 7f8f 97bc a7cd 9b3b 68f9 8bbc 2307 01bc
00000190: 4789 7fbc dbdd a23c 2442 5fbb 9d95 673c
000001a0: a311 253b 2bb8 9b3b 5960 7b3c 918f 123c
000001b0: ffc6 933b 2347 2bbc 8ca3 53bc a8ca 0b3c
000001c0: a5af a2bc b277 d03c b6cf 233c 5f1d 663c
000001d0: 1fd9 54bb 5089 8cbc 110d e1bb d7ee 9c3b
000001e0: d0a4 07bd c3bf 853a f7f2 fdbb 08e0 bf3b
000001f0: 8821 29bb 70b0 69bc 7a93 74bb db97 eb3a
00000200: 763a c3bb 3673 95bc 5880 ee3a c371 043c
00000210: 8bc4 78bb 8672 88bb f0c4 3b3b cdda 23bc
00000220: d2b0 a53c 148e b3bb 2505 ff3b 33fd 55bc
00000230: 59c0 923b 3907 9b3b 969c 62bc 5fbc 85bc
00000240: 5613 a63b 89e3 013d 0b18 823b c900 113b
00000250: 0aab 8abc 8e0d 0d3c 2251 c03c 39e8 14bb
00000260: 6d19 243b c7bd 703c d485 843c b25f 26bc
00000270: 306f 2cbb 38f8 4a3b 00eb 89bc e1f6 03bd
00000280: cd47 cfbb 8044 14bb 1a8d 4dbb 0e1d 7e3c
00000290: c652 853b 8cdd dbbc dd55 6b3c 219a 6fbc
000002a0: 4f49 68bb a5b4 913c a96f d83c cc8b f9bb
000002b0: c7a0 f9bb 90f8 d13c 35cd 523c 44a6 283b
000002c0: f778 f6ba 6d38 3a3c 69ab c23a 5750 88bc
000002d0: aaab 043c 5610 d43b a5f1 e7bc ecc1 a7ba
000002e0: 3189 a33b 2408 f53a 707f 6e3c 4b43 963b
000002f0: 9c2f 1c3b 0697 0aba 18ed 243c 9ff2 173c
00000300: 4711 973b 4f64 f8bb b2a5 88bb 9b93 a13c
00000310: 43b0 6f3c 35bc 613c fb66 3b3c 4db1 40bb
00000320: bea1 8c3c 3d8c 883c 67b8 463a 5cb4 90ba
00000330: 6a89 743b 2cc2 8a3c bca7 a6bc 49e8 63bc
00000340: 9167 fdbb c49d afbc 39e6 edbc a30a dcbb
00000350: 0bbc 9ebc 196f 8dbb 04cd 2e3b cdd6 c03b
00000360: 6101 fabb a742 b63c e0e5 0a3c e9f3 9fbb
00000370: cd97 ec3a 884f 443c 8653 303c 8cf5 91bb
00000380: 279f 163c d686 7b3b 540d 9e3b 996c 5cbb
00000390: ccdb 973c 165a 8eba e3fe 58ba 583a 983c
000003a0: a1e7 0ebd bfe0 133c 4648 7a3c dc1e f7bb
000003b0: 07a7 71bc 131f ae3c abd1 05bc 8514 893c
000003c0: d5cb 043a e38f 97bc 0193 103b 8c91 27bc
000003d0: 2dce 15bb 791b 8c3c fe74 513c 51b4 7f3c
000003e0: eae1 30bb 7810 e8bc e228 86bb a355 97bc
000003f0: 71b1 08b8 e7f9 953c bcbc 29ba 456f 4b3c
-0.008286971 0.00786178 -0.000842319 -0.005917123 -0.016557368 0.024687413 0.0085934475 0.024292674
0.003460941 0.0008660467 -0.0012376577 -0.009502978 -0.020276202 0.01051287 0.012413537 0.002271097
0.0028515346 0.003450399 -0.017962584 -0.003636162 -0.015102666 0.026621077 -0.0108060725 0.011827721
0.0034033984 0.0005290891 -0.005198508 0.009824457 0.021547252 -0.018213192 0.026518393 0.003529756
-0.018288948 -0.0017808899 -0.017309494 -0.0109325675 0.019129636 0.0112317875 0.00407106 0.021061795
0.016157687 -0.012283399 -0.008042975 0.024120942 -0.034932952 0.015088864 -0.011916441 0.008026429
-0.026590824 -0.009355245 -0.0033795375 0.0028980137 -0.0011775125 0.015541444 -0.005166654 -0.007710104
-0.0022559548 0.0110637825 0.014694133 0.009339044 -0.016980631 0.01656178 0.023744516 0.014811366
0.016344985 0.020271007 -0.0074559543 -0.006764924 -0.0049879216 0.0141995 0.00087694265 -0.006012235
0.012488836 -0.0035336474 -0.010080717 -0.0008484496 0.010211286 0.0075463974 0.009963192 0.017829029
0.014563706 0.0048543303 -0.0023588988 0.0016838013 0.011089988 -0.0126108425 -0.006916913 -0.017569724
-0.008816783 0.011283918 0.01256932 -0.003305722 0.01738135 0.017522667 0.031282745 -0.02790239
-0.018501041 0.0047547403 -0.0170867 -0.007875237 -0.015596694 0.01988118 -0.0034066522 0.014134792
0.0025187514 0.004752179 0.015342795 0.008945362 0.004509806 -0.010453972 -0.012917411 0.008532204
-0.019859144 0.0254477 0.009998253 0.014045089 -0.0032478047 -0.01715532 -0.0068680127 0.004789214
-0.03311616 0.0010204244 -0.007749911 0.005855564 -0.002580734 -0.014263257 -0.0037319348 0.0017974334
-0.005957897 -0.018243413 0.0018196208 0.0080837635 -0.0037958946 -0.004164043 0.002865132 -0.010000897
0.020225916 -0.0054795835 0.0077825957 -0.013060856 0.004478496 0.0047310856 -0.013831278 -0.016325174
0.005068223 0.031711135 0.0039701513 0.0022125712 -0.01692726 0.008609189 0.023476187 -0.0022721423
0.002503957 0.014693684 0.016177095 -0.0101546515 -0.002631139 0.0030970704 -0.01683569 -0.032217864
-0.006325698 -0.0022623837 -0.003136462 0.015509857 0.0040687053 -0.02683904 0.014363733 -0.01462415
-0.0035444086 0.017786333 0.026420431 -0.007615542 -0.007618043 0.02563122 0.012866308 0.0025733868
-0.0018804361 0.011365992 0.001485211 -0.016639872 0.0080975685 0.006471674 -0.028313467 -0.0012798882
0.0049907197 0.0018694443 0.014556751 0.0045856587 0.0023832088 -0.00052867865 0.010066293 0.009274154
0.004610214 -0.007580317 -0.004170143 0.019723704 0.014629426 0.013777782 0.011438127 -0.0029402555
0.017166968 0.016668433 0.00075805787 -0.0011040079 0.003731335 0.016938291 -0.020343654 -0.013910362
-0.0077332933 -0.021437533 -0.029040443 -0.006715135 -0.019376775 -0.0043162224 0.0026672492 0.0058849812
-0.007629559 0.02224858 0.008477658 -0.0048813713 0.0018050611 0.011981852 0.010762101 -0.0044543203
0.009193218 0.003837993 0.004823366 -0.0033634065 0.018537425 -0.0010860588 -0.0008277727 0.018582508
-0.034888867 0.009025752 0.01527602 -0.0075415205 -0.014749295 0.021255052 -0.0081676645 0.016733417
0.0005065774 -0.018501228 0.0022060277 -0.010227572 -0.0022858486 0.017102944 0.012784241 0.015606956
-0.0026990124 -0.028328165 -0.004094229 -0.018473452 -3.2590182e-05 0.01830764 -0.0006474962 0.012416665

action_model._discrete_distribution.branches.2.bias f4 [2]
00000000: 3ac8 e9bb 39c8 e93b
-0.0071344646 0.007134464
