results/hybridBoat/boat/boat-4913.onnx (onnx, 339354 bytes, 9 tensors)

discrete_act_size_vector f4 [1, 3]
0	0x40000000	2.0
1	0x40400000	3.0
2	0x40000000	2.0

network_body._body_endoder.seq_layers.0.weight f4 [256, 58]
0	0x3c74fd8a	0.014953027
1	0x3e20ec76	0.15715203
2	0x3cf176b3	0.029475546
3	0xbe396268	-0.18103945
4	0xbb6f0b78	-0.0036475342
5	0x3cf38dc2	0.029730681
6	0xbe048387	-0.12940799
7	0xbe31fbbc	-0.17381185
8	0x3d2dbc5f	0.042415973
9	0x3e0aa7bf	0.13540553
10	0x3e001238	0.1250695
11	0x3d49d20c	0.049272582
12	0x3dfd5fc8	0.123717844
13	0x3d446dc2	0.047956236
14	0x3e92afd6	0.28649777
15	0xbcde30c6	-0.027122866
16	0x3e77b25a	0.2418913
17	0xbd122705	-0.035681743
18	0xbd1daf0a	-0.03849701
19	0x3e1ef0b5	0.1552151
20	0x3cb511fe	0.022103306
21	0xbd3d66a8	-0.04624048
22	0x3c1206c7	0.008912749
23	0x3e27b77e	0.1637859
24	0xbe4bae48	-0.19890702
25	0xbb8a74a7	-0.004225332
26	0x3ddd163d	0.10795257
27	0xbd61277a	-0.05496929
28	0x3dce8775	0.1008443
29	0x39c8419d	0.00038195858
30	0xbec663ff	-0.38748166
31	0x3df6ae8e	0.120450124
32	0xbe383a0c	-0.17990893
33	0x3e5c3616	0.21505007
34	0x3e8e5341	0.27797893
35	0x3e5443db	0.2072901
36	0x3d2b0233	0.041750144
37	0x3d80aff4	0.062835604
38	0x3db1bfea	0.08679183
39	0x3e3b3673	0.1828249
40	0xbe689b03	-0.22715382
41	0xbe6d6ff6	-0.23187241
42	0x3d8c33c4	0.06845811
43	0x3d96626c	0.07342991
44	0x3da7ab47	0.081869654
45	0xbe50a2af	-0.20374559
46	0x3dcf6151	0.101259835
47	0xbda5a6e1	-0.0808847
48	0xbcc82891	-0.024433406
49	0xbe5cdff6	-0.2156981
50	0x3c81da94	0.015851296
51	0x3d35409b	0.044251066
52	0x3e75b062	0.23993066
53	0x3d266341	0.040622
54	0xbd08ba83	-0.033380996
55	0x3e1fc918	0.15604055
56	0xbe35ded0	-0.17760777
57	0x3d4c90dc	0.049942836
58	0x3e3b7fa2	0.18310407
59	0x3dbaceb7	0.09121459
60	0x3e567b96	0.20945582
61	0x3c98f5a6	0.018671822
62	0xbe0a9ab1	-0.13535573
63	0xbda1541e	-0.07877372
64	0xbd8f8465	-0.07007674
65	0xbeadb917	-0.33930275
66	0xbdfc8b3b	-0.123312436
67	0xbd9c2cdc	-0.07625744
68	0xbdf92a40	-0.12166262
69	0x3e0839a0	0.13303232
70	0x3e71a1b6	0.23596844
71	0xbd5a15af	-0.053243335
72	0x3ddbeb26	0.107382104
73	0x3d28c177	0.041200127
74	0x3d966eef	0.07345378
75	0xbd2e4fbd	-0.042556513
76	0xbdaedb52	-0.08537926
77	0x3d56c00a	0.052429236
78	0x3e122735	0.14272769
79	0xbc803e5d	-0.015654737
80	0xbc8ed289	-0.017434375
81	0x3e11bf11	0.14233042
82	0xbca693b9	-0.020334112
83	0xbd9b6145	-0.07586912
84	0x3be8ff87	0.0071105394
85	0x3da492c1	0.080358036
86	0x3e2b6432	0.1673744
87	0xbd0a685f	-0.033790942
88	0xbdca7067	-0.0988472
89	0xbba5bd88	-0.0050579943
90	0x3d8a1880	0.06742954
91	0x3c6bd774	0.01439463
92	0xbe21dcc2	-0.15806869
93	0x3e11f0c4	0.14252001
94	0x3e624273	0.22095661
95	0x3d5d9935	0.054101188
96	0x3da3fe5b	0.08007499
97	0xbe6cb3f6	-0.23115525
98	0xbe987b2a	-0.29781467
99	0x3e5ed834	0.21762162
100	0x3da146ca	0.0787483
101	0x3e4ec0a1	0.2019067
102	0x3dbb3c29	0.09142334
103	0xbe3c6ff9	-0.18402089
104	0xbd93aecd	-0.07211075
105	0xbe82034a	-0.25393134
106	0xbdf0e11e	-0.11761688
107	0x3d8e427d	0.069462754
108	0x3c390b98	0.011294268
109	0x3cbf8915	0.023380795
110	0x3dc781ad	0.097415306
111	0xbc8d760e	-0.017268207
112	0x3d5e4733	0.05426712
113	0x3e131391	0.14362933
114	0xbdc24873	-0.09486475
115	0xbde1d2f2	-0.11026563
116	0xbe1f839a	-0.15577546
117	0x3d043f9a	0.032287218
118	0x3e9fced8	0.31212497
119	0x3dfa84f3	0.12232389
120	0xbda0c195	-0.07849423
121	0xbe42b3af	-0.19013856
122	0xbe7dce56	-0.24785742
123	0x3e9b7514	0.3036276
124	0x3dcf2c59	0.101158805
125	0xbe500816	-0.20315585
126	0x3dd76459	0.10517187
127	0xbe4ec268	-0.20191348
128	0x3e260527	0.16212903
129	0x3d4bb02d	0.04972856
130	0xbe2d8747	-0.16946135
131	0xbdb8b22e	-0.0901836
132	0xbe01512c	-0.12628621
133	0xbe0f173b	-0.13973705
134	0x3bd5b829	0.0065221977
135	0x3cd727b2	0.026264045
136	0x3d1eb7bc	0.03874944
137	0x3e740489	0.23829855
138	0x3db300f4	0.08740416
139	0xbd909f71	-0.07061661
140	0xbe74e951	-0.23917128
141	0x3c015cc3	0.007895651
142	0x3e1c84a8	0.1528498
143	0xbcb311a9	-0.021859007
144	0xbda74e3f	-0.08169221
145	0xbde49dc4	-0.11162904
146	0xbe14db1e	-0.14536712
147	0xbdf1294a	-0.117754534
148	0xbd9271ff	-0.07150649
149	0x3d9581ce	0.07300149
150	0x3e2289b2	0.15872839
151	0xbdcbb72d	-0.099470474
152	0xbe2a315d	-0.16620393
153	0x3d384ce4	0.044995204
154	0x3e096168	0.13416064
155	0xbce3c54a	-0.027804036
156	0x3e7795ce	0.2417824
157	0xbd715441	-0.05891824
158	0xbdd5c7fe	-0.10438536
159	0xbe059eeb	-0.13048904
160	0xbe2e0818	-0.16995275
161	0xbd948a6a	-0.07252963
162	0x3c872fc5	0.01650227
163	0xbd5f9827	-0.054588463
164	0xbe19cec5	-0.15020283
165	0x3dc8985b	0.097946845
166	0x3e457c9a	0.19285813
167	0xbd893cbc	-0.06701037
168	0xba3a25cf	-0.0007100971
169	0x3ded4cd6	0.11586921
170	0x3e6174da	0.22017232
171	0xbd6cf545	-0.057851095
172	0x3cfaa317	0.030595345
173	0xbea9c1a4	-0.3315555
174	0x3e411b45	0.18858059
175	0x3d5489f6	0.051889382
176	0x3e675a18	0.22592962
177	0x3cbd995c	0.023144417
178	0x3e3ddee0	0.18542051
179	0x3e0f716f	0.14008115
180	0x3e2bc483	0.16774182
181	0xbe473142	-0.19452384
182	0x3d89022a	0.06689866
183	0x3daaad36	0.083338186
184	0xbcccc715	-0.024997273
185	0xbd82222b	-0.06354173
186	0x3d2245a7	0.039617207
187	0x3deef5bc	0.11667964
188	0x3d20a4b3	0.03921957
189	0xbde8f6d8	-0.11375207
190	0x3d96d4da	0.07364817
191	0x3df0a4bb	0.1175017
192	0x3da2eca8	0.07955295
193	0xbd9e9a6b	-0.07744297
194	0xbd8faa16	-0.07014863
195	0xbcab145e	-0.020883735
196	0xbc717969	-0.014738419
197	0xbe7e2a0d	-0.24820729
198	0xbd049f90	-0.032378733
199	0xbdb58039	-0.08862347
200	0x3e70f5d8	0.23531282
201	0xbe0e0432	-0.13868788
202	0x3cd2cbc1	0.025731923
203	0x3b06bbdd	0.0020558753
204	0x3e03174b	0.12801854
205	0xbd994f91	-0.07485879
206	0x3db12a9e	0.08650707
207	0x3c855e87	0.016280426
208	0xbe2fbc29	-0.17161621
209	0xbd841b4f	-0.06450521
210	0x3e577157	0.2103933
211	0x3e83fbd3	0.25778064
212	0xbd549811	-0.051902834
213	0xbdb53e96	-0.08849828
214	0x3ccf2bc5	0.025289426
215	0xbdc1f230	-0.09470022
216	0x3e7e696c	0.24844903
217	0xbc3748b1	-0.011186765
218	0xbe94126c	-0.28920305
219	0xbca37a2d	-0.019955719
220	0x3dbc3f08	0.0919171
221	0xbc109f77	-0.008827082
222	0xbdbdb6e4	-0.09263399
223	0xbe6058ec	-0.21908921
224	0x3cdac21e	0.02670389
225	0xbeb30338	-0.34963393
226	0x3e598f2c	0.21246022
227	0xbd24044c	-0.04004316
228	0xbe649bc2	-0.22325042
229	0x3d1a5fd5	0.03768905
230	0xbce7b021	-0.028282227
231	0xbdb2a4fa	-0.08722873
232	0xbde52d39	-0.11190266
233	0x3e7ad99a	0.24497071
234	0x3d86dd08	0.06585127
235	0x3deca723	0.11555316
236	0xbe233f8e	-0.15942213
237	0xbcd62491	-0.026140483
238	0x3bd78609	0.0065772575
239	0x3e8fb23b	0.28065667
240	0x3ceea852	0.029132996
241	0xbd0165a7	-0.031591084
242	0xbc86c633	-0.01645193
243	0x3d5d5050	0.05403167
244	0xbe79e8a1	-0.24405147
245	0xbe42816e	-0.18994686
246	0xbd2744f4	-0.040837243
247	0xbda85bee	-0.08220659
248	0xbd0d8840	-0.034553766
249	0x3dabb0c8	0.08383328
250	0x3e0f787a	0.14010802
251	0x3db6d53e	0.089273915
252	0xbe4b6d54	-0.19865924
253	0xbd803c5e	-0.06261514
254	0xbe4cba9a	-0.19993058
255	0xbd59088a	-0.05298666

network_body._body_endoder.seq_layers.0.bias f4 [256]
0	0x00000000	0.0
1	0x00000000	0.0
2	0x00000000	0.0
3	0x00000000	0.0
4	0x00000000	0.0
5	0x00000000	0.0
6	0x00000000	0.0
7	0x00000000	0.0
8	0x00000000	0.0
9	0x00000000	0.0
10	0x00000000	0.0
11	0x00000000	0.0
12	0x00000000	0.0
13	0x00000000	0.0
14	0x00000000	0.0
15	0x00000000	0.0
16	0x00000000	0.0
17	0x00000000	0.0
18	0x00000000	0.0
19	0x00000000	0.0
20	0x00000000	0.0
21	0x00000000	0.0
22	0x00000000	0.0
23	0x00000000	0.0
24	0x00000000	0.0
25	0x00000000	0.0
26	0x00000000	0.0
27	0x00000000	0.0
28	0x00000000	0.0
29	0x00000000	0.0
30	0x00000000	0.0
31	0x00000000	0.0
32	0x00000000	0.0
33	0x00000000	0.0
34	0x00000000	0.0
35	0x00000000	0.0
36	0x00000000	0.0
37	0x00000000	0.0
38	0x00000000	0.0
39	0x00000000	0.0
40	0x00000000	0.0
41	0x00000000	0.0
42	0x00000000	0.0
43	0x00000000	0.0
44	0x00000000	0.0
45	0x00000000	0.0
46	0x00000000	0.0
47	0x00000000	0.0
48	0x00000000	0.0
49	0x00000000	0.0
50	0x00000000	0.0
51	0x00000000	0.0
52	0x00000000	0.0
53	0x00000000	0.0
54	0x00000000	0.0
55	0x00000000	0.0
56	0x00000000	0.0
57	0x00000000	0.0
58	0x00000000	0.0
59	0x00000000	0.0
60	0x00000000	0.0
61	0x00000000	0.0
62	0x00000000	0.0
63	0x00000000	0.0
64	0x00000000	0.0
65	0x00000000	0.0
66	0x00000000	0.0
67	0x00000000	0.0
68	0x00000000	0.0
69	0x00000000	0.0
70	0x00000000	0.0
71	0x00000000	0.0
72	0x00000000	0.0
73	0x00000000	0.0
74	0x00000000	0.0
75	0x00000000	0.0
76	0x00000000	0.0
77	0x00000000	0.0
78	0x00000000	0.0
79	0x00000000	0.0
80	0x00000000	0.0
81	0x00000000	0.0
82	0x00000000	0.0
83	0x00000000	0.0
84	0x00000000	0.0
85	0x00000000	0.0
86	0x00000000	0.0
87	0x00000000	0.0
88	0x00000000	0.0
89	0x00000000	0.0
90	0x00000000	0.0
91	0x00000000	0.0
92	0x00000000	0.0
93	0x00000000	0.0
94	0x00000000	0.0
95	0x00000000	0.0
96	0x00000000	0.0
97	0x00000000	0.0
98	0x00000000	0.0
99	0x00000000	0.0
100	0x00000000	0.0
101	0x00000000	0.0
102	0x00000000	0.0
103	0x00000000	0.0
104	0x00000000	0.0
105	0x00000000	0.0
106	0x00000000	0.0
107	0x00000000	0.0
108	0x00000000	0.0
109	0x00000000	0.0
110	0x00000000	0.0
111	0x00000000	0.0
112	0x00000000	0.0
113	0x00000000	0.0
114	0x00000000	0.0
115	0x00000000	0.0
116	0x00000000	0.0
117	0x00000000	0.0
118	0x00000000	0.0
119	0x00000000	0.0
120	0x00000000	0.0
121	0x00000000	0.0
122	0x00000000	0.0
123	0x00000000	0.0
124	0x00000000	0.0
125	0x00000000	0.0
126	0x00000000	0.0
127	0x00000000	0.0
128	0x00000000	0.0
129	0x00000000	0.0
130	0x00000000	0.0
131	0x00000000	0.0
132	0x00000000	0.0
133	0x00000000	0.0
134	0x00000000	0.0
135	0x00000000	0.0
136	0x00000000	0.0
137	0x00000000	0.0
138	0x00000000	0.0
139	0x00000000	0.0
140	0x00000000	0.0
141	0x00000000	0.0
142	0x00000000	0.0
143	0x00000000	0.0
144	0x00000000	0.0
145	0x00000000	0.0
146	0x00000000	0.0
147	0x00000000	0.0
148	0x00000000	0.0
149	0x00000000	0.0
150	0x00000000	0.0
151	0x00000000	0.0
152	0x00000000	0.0
153	0x00000000	0.0
154	0x00000000	0.0
155	0x00000000	0.0
156	0x00000000	0.0
157	0x00000000	0.0
158	0x00000000	0.0
159	0x00000000	0.0
160	0x00000000	0.0
161	0x00000000	0.0
162	0x00000000	0.0
163	0x00000000	0.0
164	0x00000000	0.0
165	0x00000000	0.0
166	0x00000000	0.0
167	0x00000000	0.0
168	0x00000000	0.0
169	0x00000000	0.0
170	0x00000000	0.0
171	0x00000000	0.0
172	0x00000000	0.0
173	0x00000000	0.0
174	0x00000000	0.0
175	0x00000000	0.0
176	0x00000000	0.0
177	0x00000000	0.0
178	0x00000000	0.0
179	0x00000000	0.0
180	0x00000000	0.0
181	0x00000000	0.0
182	0x00000000	0.0
183	0x00000000	0.0
184	0x00000000	0.0
185	0x00000000	0.0
186	0x00000000	0.0
187	0x00000000	0.0
188	0x00000000	0.0
189	0x00000000	0.0
190	0x00000000	0.0
191	0x00000000	0.0
192	0x00000000	0.0
193	0x00000000	0.0
194	0x00000000	0.0
195	0x00000000	0.0
196	0x00000000	0.0
197	0x00000000	0.0
198	0x00000000	0.0
199	0x00000000	0.0
200	0x00000000	0.0
201	0x00000000	0.0
202	0x00000000	0.0
203	0x00000000	0.0
204	0x00000000	0.0
205	0x00000000	0.0
206	0x00000000	0.0
207	0x00000000	0.0
208	0x00000000	0.0
209	0x00000000	0.0
210	0x00000000	0.0
211	0x00000000	0.0
212	0x00000000	0.0
213	0x00000000	0.0
214	0x00000000	0.0
215	0x00000000	0.0
216	0x00000000	0.0
217	0x00000000	0.0
218	0x00000000	0.0
219	0x00000000	0.0
220	0x00000000	0.0
221	0x00000000	0.0
222	0x00000000	0.0
223	0x00000000	0.0
224	0x00000000	0.0
225	0x00000000	0.0
226	0x00000000	0.0
227	0x00000000	0.0
228	0x00000000	0.0
229	0x00000000	0.0
230	0x00000000	0.0
231	0x00000000	0.0
232	0x00000000	0.0
233	0x00000000	0.0
234	0x00000000	0.0
235	0x00000000	0.0
236	0x00000000	0.0
237	0x00000000	0.0
238	0x00000000	0.0
239	0x00000000	0.0
240	0x00000000	0.0
241	0x00000000	0.0
242	0x00000000	0.0
243	0x00000000	0.0
244	0x00000000	0.0
245	0x00000000	0.0
246	0x00000000	0.0
247	0x00000000	0.0
248	0x00000000	0.0
249	0x00000000	0.0
250	0x00000000	0.0
251	0x00000000	0.0
252	0x00000000	0.0
253	0x00000000	0.0
254	0x00000000	0.0
255	0x00000000	0.0

network_body._body_endoder.seq_layers.2.weight f4 [256, 256]
0	0xbd31f303	-0.043444645
1	0x3d774bfb	0.060375195
2	0x3deb0f2f	0.114775054
3	0xbd415320	-0.047198415
4	0xbdbe1e8c	-0.0928317
5	0xbdea9ebe	-0.11456059
6	0xbd947a3f	-0.07249879
7	0xbdc92d68	-0.09823114
8	0xbd0a38f9	-0.03374574
9	0x3ae90817	0.00177789
10	0xbd56850a	-0.05237297
11	0xbdf6d391	-0.12052072
12	0xbc838686	-0.016055357
13	0xbd9ac299	-0.07556648
14	0xbd7a1492	-0.061054774
15	0xbb8daa4b	-0.004323279
16	0x3da6be0b	0.081417166
17	0xbd62c642	-0.055364855
18	0xbdb26750	-0.087111115
19	0xbd26885f	-0.040657397
20	0x3d01132c	0.031512424
21	0xbd91dba1	-0.07121969
22	0x3d9fa24d	0.07794628
23	0xbda91e21	-0.082577
24	0xbe1f494d	-0.15555306
25	0xbd95dac7	-0.07317119
26	0xbc243670	-0.010022745
27	0x3d1ef938	0.038811892
28	0x3ce00f5c	0.027351074
29	0xbb942f46	-0.004522237
30	0x3d9aa40e	0.07550822
31	0xbba66452	-0.005077877
32	0x3ccf6cfe	0.025320526
33	0xbc070016	-0.008239767
34	0xbdbabd47	-0.09118133
35	0xbd85b734	-0.06529084
36	0x3d59eab0	0.05320233
37	0xbccb9865	-0.02485294
38	0xbd09e794	-0.033668116
39	0x3b48a496	0.003061568
40	0x3db15487	0.086587004
41	0xbc231795	-0.009954353
42	0xbb46a68e	-0.0030311677
43	0xbad62f63	-0.0016341027
44	0x3c2577ca	0.010099361
45	0xbd794799	-0.060859296
46	0xbe01e5af	-0.12685274
47	0xbcdfdf29	-0.02732809
48	0x3db4996e	0.08818327
49	0x3dc36b52	0.09541954
50	0xbdc03425	-0.09384946
51	0xbdb328ef	-0.08748042
52	0x3d85c529	0.06531746
53	0x3d801670	0.062542796
54	0x3d2a37d5	0.04155715
55	0x3c5e9624	0.013585601
56	0xbceb941a	-0.028757144
57	0x3cdc7497	0.026911063
58	0x3e1fb17d	0.1559505
59	0x3c88c4cc	0.016695403
60	0xbd919e8d	-0.07110319
61	0xbd221a60	-0.039575934
62	0xbe42ec9e	-0.19035575
63	0x3d9d3e78	0.076779306
64	0xbc88638c	-0.01664903
65	0xbd02b790	-0.03191334
66	0xbdf0ad13	-0.11751761
67	0xbcd91181	-0.026497604
68	0xbb51ff87	-0.0032043175
69	0x3d215685	0.039389152
70	0x3ce4247e	0.027849432
71	0xbdc856fe	-0.097822174
72	0x3cb6ec99	0.022329615
73	0xbd88120d	-0.06644068
74	0xbd2c04a7	-0.041996624
75	0xbd3ecdf9	-0.04658315
76	0xbd78d36a	-0.060748495
77	0xbc90b680	-0.017665148
78	0x3d9d67f0	0.0768584
79	0xbded9405	-0.11600498
80	0xbb9ed5ba	-0.0048472555
81	0x3c7e9e40	0.015540659
82	0x3e39e3f5	0.18153365
83	0x3dc76f8f	0.09738075
84	0xbd895e2b	-0.06707414
85	0x3e0f8e3f	0.14019106
86	0x3df5c98e	0.12001334
87	0x3cb8a766	0.02254076
88	0xbbc2616e	-0.0059320247
89	0x3c614fdf	0.013751953
90	0xbdd4141d	-0.10355399
91	0x3d8589b0	0.065204024
92	0x3cc74a30	0.024327368
93	0xbd557fd4	-0.05212386
94	0xbd853be9	-0.065055676
95	0xbe0b6d8b	-0.13616006
96	0xbe02f870	-0.12790084
97	0xbd172cc1	-0.036907915
98	0xbcd52f17	-0.02602343
99	0xbc384c73	-0.011248696
100	0x3c8cc669	0.017184453
101	0x3d159944	0.03652312
102	0xbd8d8661	-0.06910396
103	0xbc97f22c	-0.018548094
104	0x3d999a58	0.07500142
105	0xbd136846	-0.035988115
106	0x3ce736ad	0.028224314
107	0xbdd84a2e	-0.10561024
108	0xbe06bf37	-0.1315888
109	0xbde1b7d4	-0.110213906
110	0xba131aee	-0.0005611618
111	0xbbef48f6	-0.007302399
112	0x3b0e0ed3	0.0021676316
113	0x3d632d89	0.055463348
114	0xbcd2910b	-0.025703928
115	0xbd40a368	-0.047030836
116	0x3c1afe4b	0.009460042
117	0xbd2bd438	-0.041950434
118	0x3d23fd45	0.04003646
119	0xbce8e90d	-0.02843144
120	0x3d399026	0.045303486
121	0xbd81394b	-0.06309756
122	0x3c87009a	0.016479779
123	0xbda744cd	-0.081674196
124	0x3d99bd65	0.07506827
125	0xbd60dac2	-0.054896124
126	0x3cfe5dac	0.031050526
127	0x3d41adf5	0.04728504
128	0x3c9e2923	0.019306725
129	0xbda5090b	-0.080583654
130	0x3da43cff	0.080194466
131	0xbc2cb59b	-0.010541345
132	0x3c8fedf2	0.017569516
133	0x3e2cb465	0.1686569
134	0x3d28c699	0.041205022
135	0x3b107e80	0.0022048056
136	0xbc910469	-0.017702298
137	0x3d8a7748	0.06761032
138	0xbd0fae6a	-0.035078444
139	0x3e3cddce	0.18443987
140	0xbd53a1b1	-0.051667873
141	0x3c14af23	0.009074959
142	0xbd643056	-0.05571016
143	0x3cb91ccc	0.02259674
144	0x3d26817a	0.040650822
145	0xbd0023e3	-0.031284224
146	0xbdc0a889	-0.094071455
147	0x3d55637b	0.052096825
148	0x3d648233	0.05578823
149	0xbd2df79e	-0.042472474
150	0x3d919d7a	0.071101144
151	0x3e24da38	0.16098869
152	0xbd6dc774	-0.05805154
153	0x3d01de52	0.03170616
154	0x3e3110ce	0.17291567
155	0xbd6cbc54	-0.05779679
156	0xbd17b400	-0.037036896
157	0xbd567cc8	-0.052365094
158	0xbd1c7c84	-0.038204685
159	0x3d8e77a0	0.069564104
160	0xbdcb139f	-0.09915852
161	0x3c8e11f0	0.017342538
162	0xbc5464e1	-0.0129635045
163	0xbd87ee1d	-0.066372134
164	0xbc3722b7	-0.01117771
165	0xbcf6f561	-0.030146303
166	0xbd75649f	-0.059910413
167	0x3d5d6ef7	0.054060902
168	0xbdd8867a	-0.10572524
169	0xbd264492	-0.040592737
170	0xbd80f646	-0.06296973
171	0xbdefcd5e	-0.117090926
172	0xbd2d845c	-0.042362556
173	0xbdc8823c	-0.09790465
174	0xbc159aad	-0.009131116
175	0x3d9526ed	0.07282815
176	0x3b540461	0.0032351243
177	0x3d3b1656	0.045675598
178	0x3d912db5	0.07088796
179	0x3cfb73c2	0.030694846
180	0x3c59e0e8	0.013298251
181	0xbd7205db	-0.059087615
182	0xbdaf1ea1	-0.08550764
183	0x3b7db855	0.0038714607
184	0x3c9b2354	0.018937744
185	0xbda421fc	-0.080142945
186	0x3d522322	0.051303037
187	0xbdfb28b8	-0.12263626
188	0x3b6654dd	0.0035145797
189	0xbc603f18	-0.013686918
190	0xbca614bb	-0.020273557
191	0x3d946fa6	0.07247858
192	0x3dccb276	0.09994976
193	0xbbba799b	-0.005690766
194	0x3d7436dd	0.059622634
195	0xbca346a2	-0.019931141
196	0x3cda4864	0.026645847
197	0xbdd7bbe5	-0.10533885
198	0xbcdfde0e	-0.027327564
199	0x3d737e81	0.059446815
200	0x3b249a94	0.002511655
201	0x3d483e7c	0.048887715
202	0xbc8cb20f	-0.017174749
203	0xbae9357b	-0.0017792428
204	0x3e2f0135	0.17090304
205	0xbdac501c	-0.08413717
206	0xbda2eab9	-0.07954926
207	0x3dc61288	0.09671503
208	0xbd310428	-0.043216854
209	0xbd6f782c	-0.058464214
210	0xbdd18ad3	-0.10231557
211	0x3d5520ad	0.052033115
212	0xbd5b43a2	-0.053531297
213	0xbb763a57	-0.0037571394
214	0xbbfb7129	-0.007673402
215	0xbcc3ff12	-0.023925338
216	0xbd2a71d2	-0.041612454
217	0x3d1fe38b	0.03903536
218	0x3d1e0750	0.038581192
219	0x3d25cf5e	0.040480964
220	0x38a84c4b	8.025075e-05
221	0x3c79650f	0.015221848
222	0xbd980c16	-0.0742418
223	0xbc35d51b	-0.011098172
224	0xbd23ab6f	-0.039958414
225	0xbd23f1e5	-0.04002561
226	0xbcaaf4fb	-0.020868769
227	0xbc38ca4e	-0.011278702
228	0xbdcfea8a	-0.10152157
229	0xbc43da2b	-0.011953871
230	0x3d6a856f	0.05725616
231	0xbd875bea	-0.06609328
232	0xbda85d93	-0.08220973
233	0xbdb0bed9	-0.08630151
234	0x3d4b3982	0.04961539
235	0x3dd7eb29	0.105429
236	0x3d8b177d	0.067915894
237	0x3d1e2f42	0.038619287
238	0x3c375e1d	0.011191872
239	0x3b12e35b	0.0022413346
240	0xbd5ab369	-0.053393755
241	0x3d3b673d	0.045752753
242	0xbc0e7181	-0.008694054
243	0x3d7d48f1	0.06183714
244	0x3d8ab122	0.06772067
245	0x3cbf39e3	0.023343032
246	0xbcf04192	-0.029328141
247	0x3b45b4dc	0.0030167615
248	0x3ddc2c20	0.10750604
249	0x3d63bb72	0.055598684
250	0xbd24d8fb	-0.04024599
251	0x3d835271	0.06412209
252	0xbcb2d38a	-0.021829385
253	0x3d9810d8	0.07425088
254	0xbda3da1f	-0.08000588
255	0x3c62e6bc	0.013848957

action_model._discrete_distribution.branches.0.weight f4 [2, 256]
0	0x3941392f	0.00018427217
1	0x3c2b1a38	0.010443263
2	0xbab8c794	-0.0014097565
3	0xba87aa0e	-0.0010350363
4	0x3b649750	0.0034880228
5	0xbc24f822	-0.010068925
6	0x3af2538d	0.0018488035
7	0x3c605ad7	0.013693533
8	0x3bcb3d33	0.006202364
9	0x3c7685b3	0.015046525
10	0xbbe2d45d	-0.0069222883
11	0xbb997792	-0.0046834433
12	0xbb425227	-0.0029651017
13	0x399b22f7	0.00029589955
14	0xbc0bb209	-0.008526334
15	0xba0b74b7	-0.0005319821
16	0xbb93d793	-0.0045117824
17	0x3baa1fe9	0.0051917923
18	0xb99809df	-0.00028999054
19	0x373a7240	1.1113065e-05
20	0x3bff43a8	0.0077900477
21	0x3adccd3d	0.0016845834
22	0xb946e04f	-0.00018966313
23	0x3b304151	0.00268944
24	0xbb3a3dc3	-0.002841816
25	0xb81b6569	-3.7049325e-05
26	0xbb8fbdcb	-0.0043866388
27	0x3b9c057b	0.0047613955
28	0x3a2f5f03	0.0006689878
29	0x3c13a051	0.00901039
30	0xbbec594b	-0.007212793
31	0x3c50bd6d	0.012740475
32	0xba1ba96b	-0.0005938026
33	0xbc52951f	-0.012852936
34	0xbb87e362	-0.004146979
35	0xba1d3067	-0.0005996287
36	0xbbf0cad8	-0.0073483996
37	0xbbe4d7ca	-0.006983732
38	0xbbf84e6a	-0.007577707
39	0xbbde17f0	-0.006777756
40	0xbb74a2a2	-0.0037328382
41	0xbaa09711	-0.0012252053
42	0xbbc0d43a	-0.0058846744
43	0xbb9caf6a	-0.004781653
44	0x3a4981c7	0.000768688
45	0xbb12107b	-0.0022287655
46	0xbb4b7c8b	-0.0031049575
47	0xb9bcd0bf	-0.00036013682
48	0x3b2256c6	0.002477096
49	0xb9b1d884	-0.00033921388
50	0x3b79807d	0.003807097
51	0x3bbd4767	0.005776334
52	0x3b3f0a85	0.0029150557
53	0x3ba41324	0.0050071646
54	0x3b5beaef	0.003355678
55	0xb9e6a22f	-0.00043989855
56	0xbb8d1ccb	-0.004306411
57	0x3b79d89a	0.003812349
58	0x3b2a2c5d	0.0025966384
59	0xbb549b5a	-0.003244123
60	0xbb8f4675	-0.004372413
61	0x3c018547	0.007905311
62	0xbbe1e1e2	-0.0068933824
63	0xbc7f6073	-0.01558696
64	0x3b15d6d3	0.002286364
65	0x3ae21f97	0.0017251846
66	0xba0a756e	-0.00052817806
67	0xbbbd97dc	-0.0057859253
68	0xbc5522d2	-0.01300879
69	0xbba3ebf3	-0.0050024926
70	0x3b19c3f4	0.0023462744
71	0x3b4cc0da	0.0031242878
72	0xbbad14c3	-0.005282016
73	0xb9832e5a	-0.00025020802
74	0x3a37bd07	0.0007009063
75	0xbb66aaa8	-0.0035196934
76	0xbbd10ec7	-0.0063799354
77	0xb96c258b	-0.000225207
78	0x3aa61e9c	0.0012673917
79	0xbb81d9db	-0.003962738
80	0x3c06d4a5	0.008229409
81	0xbbc50351	-0.0060123582
82	0xbc3fc556	-0.011704763
83	0x3c07aef9	0.008281463
84	0xbc2a6c1d	-0.010401753
85	0xbbca018f	-0.0061647366
86	0x3c237bc3	0.009978238
87	0x3c22eb95	0.009943862
88	0x3c1d9202	0.0096173305
89	0xba9b3a73	-0.0011842981
90	0xbc5eae5a	-0.013591373
91	0x3c0427ee	0.008066161
92	0xba65fe7d	-0.00087735784
93	0xba5e7ad5	-0.00084869313
94	0xbc2f5d45	-0.0107033895
95	0x3bac6b9c	0.0052618515
96	0x3bf6a0a5	0.0075264745
97	0xbb36a3d8	-0.0027868655
98	0x3b1ab703	0.0023607619
99	0xbc05b129	-0.008159914
100	0xbc49d52e	-0.012318892
101	0x3b408fab	0.0029382508
102	0x3ab5be31	0.0013865886
103	0x3b0ab908	0.0021167416
104	0x3aa10941	0.0012286083
105	0x3c28136f	0.01025854
106	0xbada2d57	-0.0016645592
107	0xbc819ab1	-0.015820833
108	0xbab71926	-0.0013969287
109	0x3b868f97	0.0041064727
110	0xbb43d9ac	-0.0029884381
111	0x39f09fb0	0.00045895344
112	0xbb3a7176	-0.0028448976
113	0x3a7500b8	0.00093461154
114	0x3a717c63	0.00092119555
115	0xba997726	-0.0011708483
116	0xbb8f4784	-0.004372539
117	0xbbed6833	-0.0072450875
118	0x3b1ce8e7	0.0023942532
119	0xbc2f3157	-0.010692916
120	0xbc3c93db	-0.011509861
121	0xb92c2686	-0.0001641755
122	0x3c047e63	0.008086774
123	0x3ba28d01	0.0049606566
124	0xbc2eaef7	-0.010661832
125	0xbb434e9f	-0.00298015
126	0xbbd12d53	-0.006383577
127	0xbc09dfe1	-0.008415193
128	0xba442607	-0.0007482473
129	0xbc3089a6	-0.010775005
130	0x3b7dfa50	0.0038753934
131	0x3c524458	0.012833677
132	0x3bacc1b4	0.0052721146
133	0x3b93395d	0.004492922
134	0xbc4e25bd	-0.01258224
135	0xbbbc079e	-0.0057382127
136	0x3bf5a855	0.0074968734
137	0x3ae4d2f0	0.0017457884
138	0xbb34323a	-0.0027495758
139	0xba142cbb	-0.00056524173
140	0xbaa7660c	-0.0012771501
141	0xb9d891f8	-0.00041307486
142	0x3c24cafb	0.01005816
143	0xbb512d43	-0.0031917847
144	0xbc518e4b	-0.012790273
145	0xbab60624	-0.0013887328
146	0x3b86d4a2	0.0041147033
147	0xbba97c7e	-0.0051723113
148	0x3975a363	0.00023425887
149	0xbabd65f5	-0.0014449941
150	0x396daeda	0.00022667219
151	0x3ba6d627	0.005091447
152	0x3bb1152b	0.0054041347
153	0xbbb325b5	-0.0054671415
154	0xbb23da3e	-0.0025001909
155	0x3bd14572	0.0063864524
156	0xbb491aa1	-0.0030686038
157	0xbc3572fb	-0.011074777
158	0x3aedcfbd	0.0018143576
159	0xbc0c730c	-0.008572351
160	0xba2b5b80	-0.0006536767
161	0x3b3eb5ac	0.0029099984
162	0x3ca26ca5	0.019827196
163	0x3b10eeea	0.002211506
164	0x3bf1b1e0	0.0073759407
165	0xba8a8f44	-0.0010571261
166	0x3950ed60	0.00019924855
167	0xbc29ee59	-0.010371768
168	0xba27f0d2	-0.00064064295
169	0xbbba7c43	-0.0056910827
170	0xbc76ace5	-0.01505587
171	0xbaa218bb	-0.0012366989
172	0x3c081453	0.008305627
173	0x3b4cf922	0.0031276424
174	0x3b99af29	0.00469007
175	0x3ab681a1	0.001392413
176	0xb9949da9	-0.00028346226
177	0xbc14eb6a	-0.00908933
178	0x3b03a73c	0.0020088693
179	0xbbbf21cf	-0.0058328877
180	0x3bd89ce7	0.006610501
181	0x3b05d9ce	0.002042401
182	0x3bd2e178	0.0064355694
183	0x3b223df4	0.0024756165
184	0xbc1ff26c	-0.009762388
185	0xbb5acb12	-0.00333852
186	0x3a32ea0b	0.0006825036
187	0x39b407cb	0.00034338082
188	0x3891eb93	6.958018e-05
189	0x3aa6a6a4	0.0012714458
190	0xbc4fea33	-0.012690115
191	0x3bfb7918	0.0076743476
192	0x37e79922	2.7608654e-05
193	0x3beac432	0.0071645016
194	0x3bb10920	0.005402699
195	0x3bb418b0	0.005496107
196	0x3b194a8b	0.0023390378
197	0x3994353f	0.0002826843
198	0x3bed22b3	0.0072368025
199	0xbb9fcf84	-0.0048770327
200	0x3b81a283	0.0039561405
201	0x3bea43f3	0.0071492135
202	0x3b1eed8b	0.0024250473
203	0xbbabbcbc	-0.0052410048
204	0x3aca1ada	0.0015419379
205	0x3b0ae980	0.0021196306
206	0x3b3d908f	0.0028925275
207	0x3b9bf24b	0.004759108
208	0xbbe2c83f	-0.006920844
209	0x3c25011f	0.010071068
210	0xb89f58a1	-7.598219e-05
211	0x3aa1aca8	0.0012334781
212	0xbc69352d	-0.0142338695
213	0xbbc13bdf	-0.00589703
214	0x3bf0d20b	0.007349258
215	0xbabc8e7a	-0.0014385723
216	0x3bef5375	0.00730365
217	0x3c2e320c	0.010632049
218	0xbbbfaaa5	-0.0058492
219	0xbbb81df0	-0.005618803
220	0x3ba5cc6f	0.005059771
221	0xbb197887	-0.0023417787
222	0xbc2b6c5b	-0.010462846
223	0x3b0b358c	0.0021241633
224	0x3682c41b	3.8971316e-06
225	0x391f1268	0.00015170278
226	0xba0f7660	-0.00054726563
227	0x3b5ea115	0.0033970524
228	0x3bdb76d7	0.0066975164
229	0xb903e7e7	-0.00012579524
230	0x3bc3c2b1	0.0059741368
231	0x3c144e65	0.009051894
232	0xbc0718be	-0.008245645
233	0x3c7d4df8	0.015460484
234	0x3ad46067	0.0016203047
235	0x3c6f68f8	0.014612429
236	0x3ba8aac3	0.0051473095
237	0xbbd00020	-0.006347671
238	0xbbaff44b	-0.005369698
239	0xbbe0a5f7	-0.006855722
240	0xb94f13c7	-0.00019748426
241	0x3b5794c7	0.0032895075
242	0xbb98b5c3	-0.0046603396
243	0xbbae6253	-0.0053217798
244	0xbc07160e	-0.008245004
245	0xb9a0b618	-0.00030653249
246	0xbbf5f300	-0.0075057745
247	0x3bc8e3d1	0.0061306735
248	0xbc46c98c	-0.012133013
249	0x38237230	3.8968574e-05
250	0xbc19f3d1	-0.009396509
251	0xbb64178b	-0.0034804072
252	0xbb15a2af	-0.0022832563
253	0xbb62093f	-0.0034490374
254	0x3b362193	0.0027791008
255	0xbab44f2b	-0.0013756504

action_model._discrete_distribution.branches.0.bias f4 [2]
0	0x00000000	0.0
1	0x00000000	0.0

action_model._discrete_distribution.branches.1.weight f4 [3, 256]
0	0xbc2c0212	-0.0104985405
1	0x3c8c998f	0.017163066
2	0x3c1ff39b	0.00976267
3	0xbc30fe49	-0.010802814
4	0x3adbb852	0.0016763306
5	0xbb89a52a	-0.0042005973
6	0x3b8b3f73	0.004249507
7	0xbad75c57	-0.0016430718
8	0x3bab3adb	0.005225522
9	0x3c1f3e58	0.009719454
10	0x3c207960	0.009794563
11	0xbb8c4f77	-0.004281934
12	0x3a6d113d	0.0009043401
13	0x3bb9fd55	0.0056759515
14	0x3aee0e4b	0.0018162219
15	0xbbb58ee4	-0.0055407155
16	0xbbefec28	-0.007321853
17	0x3c6cc5b8	0.014451437
18	0xb748295b	-1.1930558e-05
19	0xb8fe6e7d	-0.00012132244
20	0x3c57ce50	0.013171747
21	0xbb7f40d7	-0.003894856
22	0x3c89d06c	0.016823016
23	0x394cd11d	0.00019532857
24	0x3c2aec47	0.0104323095
25	0xbb05009e	-0.0020294557
26	0xbb278171	-0.002555933
27	0xbb964354	-0.004585663
28	0x3bae23c1	0.005314321
29	0xbbb5d613	-0.0055492013
30	0x3bd51562	0.006502793
31	0x3c0fa931	0.008768366
32	0xbb4d3d83	-0.0031317181
33	0xbbf8eb03	-0.007596375
34	0x3b6f67fb	0.0036530483
35	0x3a767e33	0.00094029604
36	0xbbb6c3d7	-0.005577545
37	0x3c7d847b	0.01547348
38	0xb9b87f4f	-0.00035190067
39	0xbc336d2c	-0.010951322
40	0x3c07c65b	0.008287038
41	0xbbcc8697	-0.0062416303
42	0xb9c44f02	-0.000374429
43	0xbb700b77	-0.0036627927
44	0xbbb765f8	-0.0055968724
45	0xbaf77b7f	-0.0018881409
46	0x3bf1a48b	0.0073743514
47	0x3bcd2b8b	0.0062612942
48	0xbbdfee30	-0.006833814
49	0x3b8122a7	0.0039408985
50	0x3a026701	0.0004974455
51	0x3b1469ea	0.0022646138
52	0xbbe8840b	-0.007095819
53	0xb882fb24	-6.245662e-05
54	0xba03e466	-0.00050312874
55	0x3bb01f39	0.005374816
56	0xbc228118	-0.009918474
57	0xbc25779b	-0.010099317
58	0x3b287bb0	0.002570849
59	0x3bce7ce2	0.0063015083
60	0xbbdc9720	-0.0067318827
61	0xba959327	-0.0011411653
62	0x3b826693	0.003979513
63	0x3bc08a94	0.005875895
64	0xb9a30cfe	-0.00031099463
65	0x3b60f69a	0.0034326673
66	0x3bdb43b0	0.0066914186
67	0x3ab3cc1d	0.0013717447
68	0xbc200092	-0.009765761
69	0xbc14a293	-0.009071964
70	0xbb9425c8	-0.0045211054
71	0xba9362ab	-0.0011244615
72	0xbb8b3864	-0.0042486656
73	0x3afec0f0	0.0019436162
74	0xbb6f0003	-0.0036468513
75	0xbc0714e7	-0.00824473
76	0x3af7d78f	0.0018908846
77	0xbbe9f4ca	-0.007139777
78	0x3c12e483	0.008965614
79	0x3bfb4563	0.0076681837
80	0x3bd04acd	0.006356573
81	0x3be29a42	0.0069153616
82	0xba796cef	-0.00095148286
83	0x3b40120a	0.0029307627
84	0x3aab1225	0.0013051672
85	0x3c773075	0.015087237
86	0x3c59fda0	0.013305098
87	0x3bef8c40	0.0073104203
88	0xbb31fc6f	-0.0027158519
89	0x39e8e593	0.00044421534
90	0xba95696b	-0.0011399215
91	0x3b21582f	0.0024619212
92	0xba6da812	-0.0009065877
93	0x3adc2ed8	0.0016798628
94	0x3c6dfadb	0.014525141
95	0x3c28f18b	0.010311495
96	0xbbcc47ab	-0.0062341294
97	0xbbac0a25	-0.0052502328
98	0xbc13f036	-0.009029439
99	0xbb1a6dd3	-0.0023563995
100	0x3c319df5	0.010840883
101	0x3b6c711d	0.0036078163
102	0x3bfc2e13	0.007695922
103	0x3bc2e92a	0.0059482055
104	0x3bd2ef83	0.0064372434
105	0xba044da3	-0.0005046969
106	0xbbf81082	-0.0075703273
107	0x3bcb6a13	0.0062077134
108	0x3c177da3	0.009246263
109	0xbb079ba2	-0.002069213
110	0x3bfadf6a	0.0076560276
111	0x3b87036d	0.0041202814
112	0x3bae5681	0.0053203707
113	0x3ac94f4d	0.0015358716
114	0xbbb65c66	-0.005565214
115	0x3ba20753	0.004944721
116	0x3c6d1e1b	0.01447251
117	0xbc019edf	-0.007911413
118	0x3b9ca8d6	0.004780869
119	0xbba77ba2	-0.0051111737
120	0x3b0f55f9	0.0021871312
121	0xbbbbe6bf	-0.005734294
122	0x3a55c792	0.00081550435
123	0x3b04ce6b	0.0020264636
124	0x3bb04cd6	0.0053802533
125	0xbbc1ac05	-0.005910399
126	0xbbe16a28	-0.00687911
127	0xbb2033a1	-0.0024444836
128	0xbb6e207d	-0.0036335282
129	0x3b368997	0.0027853006
130	0xbb3ece4c	-0.0029114662
131	0xbc851281	-0.016244175
132	0x39e98c35	0.00044545686
133	0x3c0f2ba5	0.008738433
134	0x3ba94eeb	0.0051668785
135	0xbc05e58f	-0.008172407
136	0xbb90da2a	-0.0044205384
137	0xbc292b04	-0.010325197
138	0xbb5349ed	-0.0032240108
139	0xbbc992b1	-0.00615152
140	0x3b8fcb33	0.004388237
141	0x3bffb492	0.007803508
142	0xbb823299	-0.003973317
143	0x39ce9c33	0.0003940776
144	0x3b94f808	0.004546169
145	0xbaee7723	-0.0018193464
146	0xbbb509de	-0.005524858
147	0x3c5d1db5	0.013495852
148	0x39a9bd93	0.00032375436
149	0x3b5ac185	0.0033379507
150	0x3bafb08b	0.0053616217
151	0xbb3c57ea	-0.0028738924
152	0xbb372443	-0.0027945198
153	0x3bd873c3	0.0066055967
154	0x3bf2aad7	0.0074056196
155	0x3b6b03cf	0.0035860424
156	0x3b66134d	0.003510672
157	0x39e919ad	0.00044460353
158	0xbb1a0783	-0.0023503012
159	0x3b86df44	0.004115971
160	0xbb8b0e7a	-0.004243669
161	0xb9e6c2b0	-0.00044014072
162	0x3aef23df	0.0018244943
163	0xbc08589b	-0.008321906
164	0x3b416265	0.002950811
165	0x3c2ec26c	0.010666471
166	0xbadafb93	-0.0016707055
167	0xbb75f802	-0.0037531857
168	0xbaf17d0b	-0.0018424107
169	0x3bc90883	0.006135048
170	0xba91c7bf	-0.0011122151
171	0x3c592942	0.013254466
172	0xba268368	-0.00063519785
173	0xbc4ee6c0	-0.012628257
174	0xbc115208	-0.008869655
175	0xbbbf9f1f	-0.005847826
176	0xba0b4007	-0.000531197
177	0xbbef39d0	-0.007300593
178	0x3bf91a3f	0.0076020057
179	0xbb9ad0b5	-0.004724587
180	0xbc24d1ad	-0.010059756
181	0xbb42b21e	-0.0029708217
182	0x3bb2ecf4	0.005460376
183	0x3b286937	0.0025697479
184	0xbb24b34f	-0.002513129
185	0xbb5a5b83	-0.0033318705
186	0xbb341833	-0.0027480244
187	0xbbc5a733	-0.0060318946
188	0xbc49725e	-0.012295334
189	0x3ba09261	0.004900262
190	0x3b03ad96	0.002009248
191	0x3be0192f	0.0068389396
192	0x3b9bf204	0.004759075
193	0x3b6b9c78	0.0035951417
194	0x3b6341b7	0.003467662
195	0x3c2f23c3	0.010689679
196	0xbba7fd83	-0.0051266565
197	0x3c43b8f3	0.011945951
198	0xbb93dfa8	-0.004512746
199	0x3c043b79	0.00807082
200	0xbb0513c6	-0.0020305975
201	0x3c05f410	0.008175865
202	0xbc41f083	-0.011837128
203	0xbc293475	-0.010327448
204	0x3b6e0843	0.0036320842
205	0x3c1670db	0.00918218
206	0xbab2ef6a	-0.0013651673
207	0x3be3e177	0.0069543677
208	0xba204c60	-0.00061148964
209	0xbb70b7ad	-0.0036730573
210	0x3a0c6105	0.0005355033
211	0xbb9be15f	-0.004757091
212	0xbbe28818	-0.0069131963
213	0x3c639de8	0.013892628
214	0x3b945093	0.0045262068
215	0x3bc6c724	0.00606622
216	0x3bea317a	0.0071470113
217	0x3b8d13c4	0.0043053348
218	0xbbb90cc1	-0.0056472723
219	0x3b8cdae3	0.0042985543
220	0xbb95c233	-0.0045702695
221	0xbc547087	-0.012966282
222	0x3c0c53ff	0.008564948
223	0xbc1723bf	-0.009224831
224	0xbbb1e3df	-0.0054287757
225	0xbb21f2cf	-0.0024711376
226	0xbbeec9b0	-0.0072872266
227	0x3b4cdee0	0.0031260774
228	0xbb8c828b	-0.004288023
229	0xbbe714c0	-0.007052034
230	0xbb2d9d0b	-0.002649131
231	0x3ab232f9	0.0013595513
232	0x3b33bc13	0.0027425333
233	0x3a8e1041	0.0010838584
234	0xbc629f53	-0.013831931
235	0xbb78e732	-0.00379796
236	0xbb55dcd0	-0.0032632835
237	0xbc201493	-0.00977053
238	0x3ae9326b	0.0017791515
239	0xbbda02ff	-0.006653189
240	0xbb2e895d	-0.0026632168
241	0xbb92ddaa	-0.004481991
242	0x3be55ee8	0.006999839
243	0xbaf9337d	-0.0019012537
244	0x3b9e462f	0.004830144
245	0xbb27cef5	-0.0025605534
246	0x3ac7e578	0.0015250882
247	0xbaf2e86f	-0.0018532405
248	0x3ba6b8bb	0.0050879396
249	0x3bf0a9e8	0.007344473
250	0xbb329707	-0.0027250664
251	0xbaebf53b	-0.0018002162
252	0xbaa83edd	-0.0012836118
253	0xbb918270	-0.004440598
254	0x3be76da3	0.0070626303
255	0xbb6724df	-0.003526978

action_model._discrete_distribution.branches.1.bias f4 [3]
0	0x00000000	0.0
1	0x00000000	0.0
2	0x00000000	0.0

action_model._discrete_distribution.branches.2.weight f4 [2, 256]
0	0xbc947e4b	-0.018126627
1	0x3bab152e	0.0052210307
2	0xbbf4d355	-0.007471482
3	0x397755ab	0.0002358767
4	0x3b9f0e8d	0.0048540295
5	0xbc3207ac	-0.010866087
6	0x3b8ed232	0.0043585533
7	0x3bb1b21f	0.005422845
8	0xbb919b58	-0.0044435672
9	0xbc7b2ac7	-0.015330023
10	0xba890577	-0.0010453899
11	0xbb85ae23	-0.0040795966
12	0xbb85cbf7	-0.0040831524
13	0xbb9e2d6e	-0.004827193
14	0xbc2a24e0	-0.010384768
15	0xbb85b20d	-0.004080063
16	0xbbb25546	-0.0054422943
17	0x3b937eea	0.0045012133
18	0x3b4bef7b	0.0031118083
19	0xbc4e967d	-0.012609121
20	0xbb7c7b0b	-0.0038525488
21	0x3bff033d	0.0077823685
22	0x381a71eb	3.6822556e-05
23	0x3b3bd285	0.0028659415
24	0xbc75a480	-0.014992833
25	0x3b8f7810	0.0043783262
26	0xb999365e	-0.0002922294
27	0xbb3da6f4	-0.0028938623
28	0x3c162e6f	0.009166344
29	0x3b4958fe	0.003072321
30	0xbb8edaa4	-0.00435956
31	0xbbb2a504	-0.0054518003
32	0xbbac925f	-0.005266472
33	0x39a45838	0.00031346246
34	0xba8c12a7	-0.0010686711
35	0x3b79a02d	0.0038089857
36	0xbadae07f	-0.0016698985
37	0xbad1221b	-0.0015955599
38	0xbbd4c938	-0.0064937137
39	0x3a98d880	0.0011661202
40	0xba5ffc6f	-0.00085443904
41	0x3c07cc23	0.008288416
42	0x3be34415	0.0069356062
43	0x3c7526c0	0.014962852
44	0x3b173858	0.0023074355
45	0x3c232242	0.009956898
46	0xbb673ff3	-0.003528592
47	0x3b316e96	0.002707397
48	0xbbf6d89f	-0.0075331475
49	0x3b749cb5	0.003732485
50	0x3c212ae7	0.009836889
51	0xbbf68043	-0.007522614
52	0xbc2df1d8	-0.010616742
53	0x3b637765	0.0034708616
54	0xbbc43e96	-0.005988906
55	0xbc78fd8f	-0.015197172
56	0x3aebe19f	0.0017996317
57	0xbbd3d6ed	-0.00646483
58	0xbb9424b2	-0.004520976
59	0x3bf2751b	0.007399214
60	0xbbaffa26	-0.005370396
61	0x3bbfcf3f	0.005853563
62	0xbacbe73f	-0.0015556588
63	0xba1bd016	-0.0005943788
64	0x398fa71f	0.000273996
65	0xbbf7f3b5	-0.007566894
66	0xbb89b0ef	-0.0042020003
67	0x3bab281d	0.0052232877
68	0xbb604da7	-0.0034225972
69	0xbabee29f	-0.0014563388
70	0x3c90494c	0.017613076
71	0xbbf6d5af	-0.0075327973
72	0x3b702d3f	0.0036648063
73	0x3bc2fafa	0.005950329
74	0xbc88236f	-0.016618459
75	0xbb86b8a7	-0.0041113677
76	0x3b247902	0.002509654
77	0x3c3be426	0.011467969
78	0x3bb29ab5	0.0054505714
79	0x3b16f577	0.0023034492
80	0xbc35e66f	-0.011102303
81	0xbaa8d652	-0.0012881255
82	0xbb9b6180	-0.0047418475
83	0xbb6b96fd	-0.003594815
84	0xbb4f245d	-0.0031607368
85	0xba23030b	-0.000621841
86	0x3b807439	0.003920105
87	0x3a941bef	0.0011299829
88	0x39ee5105	0.00045455262
89	0xbbc64888	-0.006051127
90	0x3c3f2b37	0.011668018
91	0x3b9f3b53	0.004859367
92	0xbb2a33ed	-0.0025970892
93	0xba2aefd1	-0.0006520721
94	0x3beef928	0.0072928853
95	0xbc2cc09b	-0.010543968
96	0x3abe1c2d	0.0014504247
97	0x3c210319	0.009827399
98	0xbc26ebad	-0.010188025
99	0xbc3d9190	-0.011570349
100	0x3ba1a51d	0.004933013
101	0xbc1fd7cb	-0.009756039
102	0x3ba9f6c7	0.005186889
103	0xb9f1b3d8	-0.00046101096
104	0xbb88d2f5	-0.0041755387
105	0x38f3d800	0.00011627376
106	0x3c115221	0.008869679
107	0x39d6f0c2	0.0004099664
108	0xbbe8e837	-0.0071077603
109	0x3aef980b	0.0018279565
110	0x3b99aa18	0.004689466
111	0xbb1a0816	-0.0023503355
112	0x3bb59369	0.0055412543
113	0xbb17a063	-0.002313637
114	0x3c4484da	0.011994565
115	0x3c3cc7d7	0.011522255
116	0xbabe9819	-0.0014541178
117	0xbbb8bb59	-0.005637568
118	0x3bb90a6b	0.005646994
119	0xbbc227ce	-0.0059251552
120	0x3ad4944a	0.001621851
121	0x3beb7daf	0.0071866135
122	0xbb07c98b	-0.0020719494
123	0xbc1290cb	-0.008945654
124	0x3afd01dd	0.0019302923
125	0x3bb8f4e0	0.0056444257
126	0x3c61dbc0	0.013785303
127	0x3a70386d	0.00091636815
128	0xbb3e89b7	-0.0029073784
129	0xbb9fe706	-0.004879835
130	0xbb51fec2	-0.0032042717
131	0xbc757bc8	-0.014983125
132	0xb99c16c1	-0.00029771592
133	0x3c2d55e8	0.010579564
134	0x3b1f9ca9	0.0024354851
135	0xbb9f34bb	-0.004858581
136	0xbb7e184f	-0.0038771813
137	0x3ba5f951	0.005065121
138	0x3c7d9975	0.015478482
139	0xbc7c7bbd	-0.015410361
140	0x3bc3aa9a	0.005971265
141	0xbb978984	-0.0046245474
142	0x3c241ec8	0.010017104
143	0x3ab2d18f	0.0013642776
144	0x3b757922	0.0037456234
145	0x3b0fc1f6	0.0021935678
146	0x3aeed743	0.0018222112
147	0x3bd1e112	0.0064050043
148	0xbbaba1d5	-0.0052377977
149	0xba187e5b	-0.0005817168
150	0xba66a497	-0.00087983295
151	0xbc110321	-0.008850844
152	0xbbaeb59b	-0.0053317077
153	0x3ba9174b	0.0051602474
154	0xba7cd09d	-0.0009644123
155	0xbb25b07c	-0.0025282195
156	0x3b32139b	0.002717233
157	0x3ba77b65	0.0051111453
158	0xbb1e4ae1	-0.0024153518
159	0x3c1bea24	0.009516273
160	0x3bdafdbf	0.006683081
161	0x39affcd3	0.0003356697
162	0x3bd9c7c7	0.00664613
163	0xbc123bf3	-0.008925426
164	0xbc0b3952	-0.008497553
165	0xbb124967	-0.0022321583
166	0xbb7dc968	-0.0038724784
167	0xbb7c2470	-0.0038473867
168	0xbc0c8871	-0.008577452
169	0xbb69540d	-0.0035603077
170	0x3b294890	0.0025830604
171	0x3b1174f1	0.0022194947
172	0xbc2ee7b3	-0.010675359
173	0x3c3c22e8	0.011482932
174	0x39179e44	0.0001445944
175	0x3ba83d3b	0.0051342524
176	0xbc7533a8	-0.014965929
177	0xbc0103e8	-0.0078744665
178	0x3c446e4b	0.0119891865
179	0x3c08092b	0.008302967
180	0x3b7a9193	0.0038233742
181	0x3be7929b	0.0070670373
182	0xbc00a235	-0.007851173
183	0xbc21fe71	-0.009887324
184	0xbc8a9260	-0.0169155
185	0xbc2639b4	-0.010145593
186	0xbbec5620	-0.0072124153
187	0x3c426cd3	0.011866766
188	0x3c381ec5	0.011237805
189	0x384c8039	4.8756807e-05
190	0xbbf2ba8b	-0.0074074916
191	0xbc169ac0	-0.009192169
192	0x3bec0643	0.007202895
193	0xbb02b152	-0.0019942117
194	0xbb1e109f	-0.0024118794
195	0x3bc8557b	0.0061137057
196	0xb9b94ad9	-0.00035341716
197	0xb9996188	-0.000292551
198	0x3ba9d28a	0.005182569
199	0xbbac3ae4	-0.0052560437
200	0x3c86239e	0.016374405
201	0x3b1007b7	0.0021977255
202	0x3bf28f5d	0.007402344
203	0xbc16bed8	-0.009200774
204	0x39e9cc0b	0.00044593247
205	0x3ba5256d	0.005039862
206	0x3bbcbc38	0.005759742
207	0xbc334cb6	-0.010943582
208	0x3c1c8c85	0.009554987
209	0xbb8a83d4	-0.004227141
210	0x3b892143	0.0041848733
211	0x3a8a7ea1	0.0010566303
212	0xbbe6b252	-0.0070403004
213	0x3b8ff928	0.0043937154
214	0xbb38b068	-0.0028181318
215	0xbba4ac97	-0.005025457
216	0x3bbbea1a	0.005734694
217	0x3c339463	0.010960671
218	0xbc13a197	-0.009010694
219	0xbb12357f	-0.0022309718
220	0x3bbb455f	0.005715057
221	0xb982a2a3	-0.00024916706
222	0x3ca54e57	0.020178957
223	0xbabb87cd	-0.001430744
224	0x3c3d9b41	0.01157266
225	0x3bd4b2a3	0.0064910217
226	0xbb075a7a	-0.0020653293
227	0xbc2e1d5e	-0.010627119
228	0x3b37eaa5	0.0028063443
229	0xbbc0891b	-0.0058757192
230	0x3b384723	0.0028118573
231	0x3a8219d9	0.0009925916
232	0xb9c2af89	-0.00037133347
233	0x3965e02a	0.0002192265
234	0xbaa16a70	-0.0012315046
235	0x3c6641c0	0.014053762
236	0xbbadac0a	-0.0053000497
237	0xbb986630	-0.0046508536
238	0x3a65c5b5	0.00087651174
239	0xbbb27155	-0.005445639
240	0xbc088f79	-0.008334988
241	0xbc332584	-0.010934237
242	0xba28f3ff	-0.00064450497
243	0xba8c0115	-0.0010681475
244	0xbabd8af3	-0.0014460966
245	0x3ac00703	0.0014650527
246	0xbbb1fc22	-0.005431668
247	0x3b14f74b	0.0022730406
248	0x3b1c0384	0.0023805806
249	0x3b4ac185	0.00309381
250	0xbc012123	-0.007881436
251	0x39d39f0f	0.00040363564
252	0xbc00328b	-0.00782455
253	0x3b67f8c3	0.0035396076
254	0x3a7393d8	0.0009291745
255	0x39cac80d	0.00038677492
