results/boat-agent-poca/boat/boat-2999995.onnx (onnx, 328993 bytes, 11 tensors)

discrete_act_size_vector f4 [1, 3]
0	0x40000000	2.0
1	0x40400000	3.0
2	0x40000000	2.0

network_body._body_endoder.seq_layers.0.weight f4 [256, 47]
0	0x3d066d29	0.032818947
1	0xbdc31dc2	-0.0952716
2	0xbe0fa302	-0.14027026
3	0xbdc3fb93	-0.09569468
4	0x3c14d754	0.009084541
5	0x3d46c414	0.04852684
6	0x3e8a191a	0.26972276
7	0x3e2984dc	0.16554588
8	0xbd8c7a14	-0.06859222
9	0xbdaf7b3d	-0.08568428
10	0x3e13008f	0.14355682
11	0xbe0d306c	-0.13788003
12	0x3d86e02f	0.065857284
13	0x3d4e3eb8	0.050352782
14	0xbcdb1336	-0.026742559
15	0x3d46cee7	0.04853716
16	0xbc2c290a	-0.010507831
17	0x3cc4c676	0.024020415
18	0xbe8b8d9e	-0.27256483
19	0xbe0e598f	-0.13901351
20	0xbe0a705c	-0.13519424
21	0x3dfd2365	0.123602666
22	0x3e0196d8	0.12655199
23	0xbe82574c	-0.25457227
24	0xbd273a81	-0.040827278
25	0x3e2167e8	0.15762293
26	0xbd8f0e56	-0.06985156
27	0xbe232f10	-0.15935922
28	0xbe29252d	-0.16518088
29	0xbe0f4f14	-0.1399501
30	0x3e694371	0.22779633
31	0x3cd02292	0.02540711
32	0x3d6d7466	0.057972334
33	0x3e1dbe50	0.1540463
34	0x3dc0aeea	0.09408362
35	0xbe157eee	-0.14599201
36	0x3d34a3b3	0.04410143
37	0x3c9e1249	0.019295828
38	0xbc2169c9	-0.009851881
39	0xbe2138fe	-0.15744397
40	0x3dfb7d57	0.12279766
41	0x3c8a7cb7	0.016905172
42	0xbea6b8db	-0.3256291
43	0xbe7d96d8	-0.24764574
44	0x3e6da47c	0.23207277
45	0xbe15deae	-0.14635727
46	0x3cf148d4	0.029453672
47	0xbd81f2d7	-0.06345146
48	0xbd77e10b	-0.060517352
49	0x3cf0e06c	0.029403888
50	0xbd5b7674	-0.053579763
51	0xbba03044	-0.004888566
52	0xbe46b80a	-0.19406143
53	0x3d727c58	0.059200615
54	0x3cfe9c27	0.031080319
55	0xbe1c6c41	-0.1527567
56	0xbded18c5	-0.1157699
57	0xbd38a0d7	-0.045075264
58	0xbe38970d	-0.18026371
59	0xbdb22a3c	-0.08699462
60	0xbba00eb8	-0.004884567
61	0xbcedac96	-0.02901296
62	0x3e5646e9	0.20925488
63	0xbe08e2ce	-0.13367769
64	0x3e1f88de	0.15579554
65	0xbd926c88	-0.07149607
66	0x3c9e0927	0.019291474
67	0x3e908444	0.2822591
68	0xbe6567ee	-0.22402927
69	0x3ddd8b57	0.108175926
70	0xbe172f91	-0.14764239
71	0xbd6b01ab	-0.057374638
72	0x3e730684	0.23732954
73	0x3d28f465	0.041248698
74	0xbc3c141a	-0.011479402
75	0x3e4a4dd9	0.19756259
76	0x3d1744a9	0.036930714
77	0x3e89db2b	0.26925024
78	0xbe8e5b2a	-0.27803928
79	0xbe869131	-0.26282647
80	0xbd55d79c	-0.052207574
81	0xbdd3b79a	-0.103377536
82	0x3caa6840	0.020801663
83	0xbc227e0f	-0.00991775
84	0xbdbcf39a	-0.09226151
85	0x3d7cd660	0.06172788
86	0x3d8e64ff	0.06952857
87	0xbcf29e5f	-0.029616533
88	0x3e434549	0.19069399
89	0xbcb3cc77	-0.021948082
90	0xbcb5f006	-0.022209179
91	0xbc26f367	-0.010189868
92	0xbe16d08e	-0.14727995
93	0x3e1cdcf3	0.1531866
94	0x3b0a8bf6	0.0021140552
95	0xbd2a52d8	-0.041582912
96	0x3d634b4f	0.05549174
97	0xbd82edcf	-0.06393015
98	0xbd95d39e	-0.073157534
99	0xbd88b905	-0.06675915
100	0x3e8706d0	0.26372385
101	0xbd3ec971	-0.04657883
102	0xbe183a23	-0.14865927
103	0x3d7a309c	0.061081514
104	0xbe853169	-0.2601426
105	0xbe1d3208	-0.15351117
106	0x3e1a367f	0.15059851
107	0xbc92a9f6	-0.01790331
108	0x3d5b65fa	0.05356405
109	0xbd2ea426	-0.042637013
110	0x3d0e4256	0.03473123
111	0xbe82a061	-0.25512984
112	0xbe13c16d	-0.14429255
113	0x3be8ac6b	0.007100632
114	0x3ebc8aff	0.36824796
115	0x3dce5442	0.10074665
116	0xbe610f96	-0.21978602
117	0x3e126a3a	0.14298335
118	0xbcc79fd5	-0.024368206
119	0x3dea15dc	0.114299506
120	0x3d39704f	0.04527312
121	0xbd7babd9	-0.061443184
122	0x3e50aaa6	0.20377597
123	0xbe25a4af	-0.16176103
124	0xbe0267ae	-0.12734863
125	0x3e149f19	0.14513816
126	0x3e27ea40	0.16397953
127	0xbe239236	-0.15973744
128	0x3e98fa5d	0.29878512
129	0xbe3d14f3	-0.18465023
130	0xbdfeae77	-0.1243562
131	0x3e2f493f	0.17117785
132	0x3d3a30a2	0.045456536
133	0xbe14fa98	-0.14548719
134	0xbd502c0f	-0.050823268
135	0x3d93d989	0.07219226
136	0x3e2c159b	0.16805117
137	0xbdff8c53	-0.124779366
138	0xbd1877ab	-0.0372235
139	0x3da53fa8	0.08068782
140	0x3d69b65a	0.05705867
141	0x3e512788	0.20425236
142	0xbd9b02e1	-0.075689085
143	0xbdf50725	-0.11964253
144	0xbd6c7ba4	-0.0577351
145	0x3db8c91f	0.09022736
146	0xbc8fe04f	-0.017563013
147	0xbed3edb6	-0.41392297
148	0xbe5de24d	-0.21668358
149	0x3c692b40	0.014231503
150	0x3d56d4e0	0.052449107
151	0x3e937eba	0.28807622
152	0xbd0c2bd8	-0.0342215
153	0x3e7f9e12	0.24962643
154	0x3d7cd23d	0.061723936
155	0xbdc2b791	-0.09507669
156	0xbdff01c5	-0.124515094
157	0x3e493eec	0.19652909
158	0xbe733fda	-0.23754826
159	0x3e5a589e	0.21322867
160	0x3def717e	0.11691569
161	0xbe093f6d	-0.13403101
162	0xbd835b26	-0.064138696
163	0xbe0ba1f8	-0.13636005
164	0xbd97ba5c	-0.07408592
165	0xbdb05687	-0.08610254
166	0xbec9c737	-0.394098
167	0x3e3759ff	0.17905425
168	0xbc02c85d	-0.007982341
169	0x3d74ed3f	0.059796568
170	0x3d889d33	0.06670608
171	0x3ecc2fef	0.3988032
172	0xbdccf62e	-0.100078925
173	0xbdc4ba0e	-0.096057996
174	0x3dc843de	0.0977857
175	0xbe62afd0	-0.2213738
176	0xbe0dea18	-0.13858831
177	0x3e5c86e4	0.21535832
178	0x3d9c19e5	0.076221265
179	0x3e63f29f	0.22260521
180	0xbe19ea38	-0.15030754
181	0xbd97fd92	-0.074214116
182	0xbc0503a2	-0.008118542
183	0xbd50dc22	-0.050991185
184	0xbd82efdf	-0.06393408
185	0x3d6ea4ce	0.05826264
186	0x3e59f426	0.21284541
187	0x3d872aa7	0.06599932
188	0xbd80f91c	-0.06297514
189	0xbe0d9f9f	-0.13830422
190	0xbcfc3696	-0.030787747
191	0xbe7950fa	-0.24347296
192	0x3e313fdb	0.17309515
193	0x3df699a7	0.120410256
194	0xbc939c7b	-0.018018952
195	0xbe3e3cd1	-0.18577887
196	0x3e8e166d	0.27751485
197	0xbbac10d3	-0.005251029
198	0x3e026caf	0.12736772
199	0x3dcb470f	0.09925663
200	0x3e09b3f8	0.13447559
201	0xbd138d4d	-0.036023427
202	0xbd0450c4	-0.032303587
203	0xbd5410b2	-0.051773734
204	0xbd473039	-0.048629973
205	0x3e29aad4	0.16569072
206	0x3d5975a9	0.053090725
207	0xbe38aa9c	-0.18033832
208	0x3d9edc19	0.07756824
209	0xbdb04735	-0.08607332
210	0x3e43890f	0.19095252
211	0x3dddbdc0	0.108272076
212	0x3df5ccd4	0.120019585
213	0x3ddc5caf	0.107598655
214	0x3d6d8528	0.057988316
215	0xbd9802bc	-0.074223965
216	0x3cbbf8a4	0.02294571
217	0x3d94109d	0.07229731
218	0x3e4a1d5d	0.19737764
219	0xbda9dbe5	-0.08293895
220	0x3dd3fc41	0.10350848
221	0x3eaa43a1	0.33254722
222	0x3d9669cc	0.07344398
223	0xbe352d79	-0.17693128
224	0xbe0298de	-0.12753627
225	0x3e030c11	0.12797572
226	0x3db5eace	0.08882676
227	0x3e2b3124	0.16717964
228	0x3dfd6092	0.12371935
229	0x3e20ca28	0.15702116
230	0xbe26a0ca	-0.16272274
231	0x3d968861	0.07350231
232	0x3d08efa0	0.03343165
233	0x3da0469f	0.0782597
234	0xbea41551	-0.32047513
235	0xbe47764c	-0.1947872
236	0x3e4b58ed	0.19858141
237	0x3e83e715	0.2576224
238	0xbe096f40	-0.13421345
239	0xbe6e3bfb	-0.23265068
240	0x3de5c1e9	0.11218626
241	0xbe83a4a7	-0.25711557
242	0xbd068006	-0.032836936
243	0x3db4172e	0.08793484
244	0x3ee1c9d9	0.4409931
245	0x3d5bcf2f	0.053664383
246	0x3dd8dff8	0.10589594
247	0xbe640add	-0.22269769
248	0x3dbc674b	0.09199389
249	0xbdc85cee	-0.0978335
250	0x3e4c136a	0.19929281
251	0x3e9280ce	0.28613895
252	0x3d8f54fa	0.0699863
253	0xbe428cfe	-0.18999097
254	0x3e2f2617	0.17104374
255	0xbe348769	-0.1762978

network_body._body_endoder.seq_layers.0.bias f4 [256]
0	0xbb862bb3	-0.004094565
1	0x3af42d87	0.0018629291
2	0xbb9bdbbc	-0.004756419
3	0x3b29825c	0.0025865054
4	0xbc7e3657	-0.015515885
5	0x3c9f23d9	0.019426273
6	0xbcce2f26	-0.025168967
7	0x3b8de41d	0.0043301717
8	0xbb039b5c	-0.0020081615
9	0xbc1ba2d6	-0.009499272
10	0x3cba0447	0.022707118
11	0x3c8bfabf	0.017087338
12	0x3cbc3c8c	0.02297809
13	0x3a12c3d9	0.00055986416
14	0xbbf9c9e4	-0.007622944
15	0xbcb4cb31	-0.022069545
16	0xba61303a	-0.0008590255
17	0xbcc52cb7	-0.024069173
18	0xb90588dd	-0.00012734854
19	0xbba9a970	-0.005177669
20	0x3c52bc4c	0.012862276
21	0xba8cd55b	-0.0010744737
22	0x3c41ef24	0.011836801
23	0x3bc4fcf9	0.006011602
24	0x3c1b86e0	0.009492606
25	0x3cb2f43e	0.02184498
26	0x3cf0a5ee	0.029375996
27	0x3c96b58a	0.018397111
28	0x3c814ca9	0.015783625
29	0x397af501	0.00023933129
30	0xbc8ed40f	-0.017435102
31	0xbbe70d1f	-0.0070511247
32	0xbab10fd8	-0.001350875
33	0xbbffde76	-0.007808502
34	0xbc3a3a67	-0.011366463
35	0xbc32918a	-0.010898957
36	0x3cddecf1	0.027090522
37	0x3d0b6272	0.03402943
38	0xbc23def7	-0.010001889
39	0xbb8c15de	-0.0042750677
40	0xbb6bc81c	-0.0035977429
41	0xbca684d9	-0.020327019
42	0xbb240ad0	-0.0025030859
43	0x3caf2649	0.02138056
44	0xbc10b704	-0.008832697
45	0xb9931087	-0.0002805034
46	0x3be9229d	0.007114722
47	0xbb1fcbe9	-0.0024383015
48	0xb65b8599	-3.2711307e-06
49	0xbbf287d0	-0.007401444
50	0x3bb054f8	0.005381223
51	0x3af6bb17	0.0018824068
52	0x3a6433ff	0.0008705258
53	0xbc280cf5	-0.010256995
54	0xbbb16793	-0.0054139583
55	0x3d2d3a58	0.04229197
56	0x3b24f6ba	0.0025171475
57	0xbab1a6e8	-0.001355377
58	0xb9c60289	-0.00037767392
59	0xbc8e1b17	-0.017346902
60	0xba6de9b5	-0.00090756576
61	0x3c576642	0.013146939
62	0xbbc673b8	-0.006056275
63	0x3b82fc4f	0.0039973627
64	0xbc6c6b2d	-0.01442985
65	0xbc4cbeec	-0.012496691
66	0xbc93218c	-0.017960332
67	0x3d15db49	0.03658608
68	0xbc9e45cf	-0.019320397
69	0xbc29cf4e	-0.010364367
70	0x3cb56a33	0.022145366
71	0x3c380c6d	0.011233431
72	0x3b71b65f	0.0036882383
73	0x3b9ed7a5	0.004847484
74	0x3c602f84	0.013683204
75	0xbb3af68d	-0.0028528303
76	0xbcaca528	-0.021074846
77	0x3ac51c6e	0.001503838
78	0xbc5a4483	-0.0133219985
79	0x3bc8aaef	0.0061238925
80	0xbc389c70	-0.011267766
81	0xbc1e6027	-0.009666479
82	0x3b091efe	0.0020923014
83	0xbb9cc882	-0.0047846446
84	0xbd158225	-0.03650107
85	0xb8432449	-4.6525416e-05
86	0x3cf750ff	0.03018999
87	0xbab875e4	-0.001407322
88	0xbc104b69	-0.008807042
89	0xbc1a73a5	-0.009426986
90	0x3c92178a	0.01783349
91	0x3d0e9b71	0.03481621
92	0x3cb48a23	0.022038525
93	0x3c4190e6	0.011814332
94	0x3b3b13e0	0.0028545782
95	0x3c9c09cf	0.019047646
96	0xbb5f47d7	-0.003406992
97	0x3cb82bcc	0.022481821
98	0xbc60db66	-0.013724184
99	0x3bb4b288	0.0055144466
100	0x3c89c5d7	0.01681797
101	0xbc809f0d	-0.015700841
102	0x39693dae	0.00022243589
103	0xbb43310e	-0.0029783878
104	0x3c1bbda5	0.009505664
105	0x3c201443	0.009770456
106	0xbba606ad	-0.005066714
107	0xbcdcba66	-0.02694435
108	0xbc193446	-0.009350842
109	0xbc9e1dd1	-0.019301327
110	0x3c694ba9	0.01423923
111	0xbcd51ad1	-0.026013764
112	0x3d1ab543	0.03777052
113	0xbbdd6190	-0.006756015
114	0x3c311ad1	0.010809616
115	0x3cc2718b	0.023735782
116	0xbca89764	-0.020580001
117	0x383c0969	4.4831457e-05
118	0x3bc48250	0.00599698
119	0xbbb13571	-0.005407982
120	0xbba96de7	-0.005170572
121	0x3ce466ef	0.027881114
122	0xbac9fcd1	-0.0015410428
123	0xbbc926e4	-0.0061386693
124	0xbb908e03	-0.0044114604
125	0x3b8107a8	0.0039376803
126	0xbd2762fb	-0.04086588
127	0x3d4d1155	0.050065357
128	0x3c0920c8	0.008369632
129	0xbb66d1a3	-0.0035220168
130	0x3d0eda63	0.03487624
131	0x3ba80639	0.005127695
132	0x3a04438c	0.00050454657
133	0x3c7ce333	0.015435028
134	0xbba4b227	-0.00502612
135	0xbb227886	-0.0024791076
136	0x3b845378	0.0040382706
137	0xbc2d7a88	-0.010588296
138	0xbb87ff20	-0.0041502863
139	0x3be55f95	0.0069999197
140	0xbcbdf923	-0.023190087
141	0xbc5df195	-0.013546367
142	0xbc6ed527	-0.014577187
143	0x3c8efbe8	0.017454103
144	0x39c7b0d8	0.00038087997
145	0x3ba645bd	0.0050742314
146	0xbb8f5260	-0.0043738335
147	0xbcf9b8c3	-0.030483609
148	0x3b16d818	0.0023016986
149	0x3c217ea9	0.009856858
150	0x3d1aa7a5	0.037757535
151	0x3a949203	0.0011335019
152	0x3c09c5aa	0.008408943
153	0x3c9f2411	0.019426377
154	0xbce60f15	-0.028083364
155	0xba29274d	-0.00064526947
156	0x3c272aa8	0.010203041
157	0xbbccb38f	-0.006246991
158	0x3cbb8813	0.022892034
159	0xbc2a4223	-0.010391745
160	0xbbe51dc1	-0.0069920723
161	0x3a90fccd	0.0011061669
162	0xbbdec163	-0.006797956
163	0x3c2fbe52	0.010726528
164	0xbc6b7c52	-0.014372902
165	0x3a4f82ce	0.0007915915
166	0x3c041633	0.008061933
167	0xbc9368aa	-0.017994244
168	0x3c1302d9	0.008972847
169	0xbae891f5	-0.0017743694
170	0xbc4db9d9	-0.012556517
171	0x3b9dbfc6	0.004814121
172	0x3d288374	0.04114099
173	0xbbe4bcf7	-0.006980534
174	0xbc3d7bc0	-0.011565149
175	0xbbaf73d3	-0.0053543835
176	0x3a731df3	0.0009274177
177	0xbb4a886a	-0.0030904063
178	0x3cfcdbd5	0.030866543
179	0xbbb8b4be	-0.0056367805
180	0xbce34418	-0.02774243
181	0xbbdf6ee2	-0.006818638
182	0x3bfbbaa5	0.007682162
183	0xbc1694fa	-0.009190792
184	0xbc77ceac	-0.015124958
185	0xbc440d7d	-0.0119661065
186	0xbb955786	-0.0045575527
187	0x3ba4c5d1	0.0050284644
188	0xbd0e7a5b	-0.034784656
189	0xbbbe7af5	-0.0058129975
190	0x3c243f0b	0.010024796
191	0x38afea74	8.3883206e-05
192	0xbb47f70f	-0.0030512249
193	0x3cccb996	0.024990838
194	0x3cbdff63	0.023193067
195	0x3d0985f7	0.033575024
196	0x3a8d37d4	0.0010774084
197	0xbb5d3f98	-0.0033759829
198	0xbcc7f9d8	-0.024411127
199	0x3bb3b091	0.005483695
200	0xbc2042e9	-0.009781578
201	0x3bab43b9	0.005226579
202	0xbbe69427	-0.007036704
203	0x3ca665fd	0.020312304
204	0xbbc33b72	-0.005958014
205	0x3bae9bf4	0.0053286497
206	0xbce0d7ea	-0.027446706
207	0xbc92f2bd	-0.017938012
208	0x3bff1b91	0.0077852686
209	0xbd055018	-0.032547086
210	0xbc77989c	-0.0151120685
211	0x3aef2bf3	0.0018247351
212	0xbc4c7cca	-0.012480924
213	0xbc407dfa	-0.011748785
214	0xbaa0b1ea	-0.0012260054
215	0xbc7ee1e4	-0.015556786
216	0x3d3bedb8	0.045881003
217	0xbc00e108	-0.007866152
218	0xbc13e59a	-0.009026909
219	0xbb7a8d50	-0.0038231201
220	0x3c54d496	0.012990138
221	0x3bdbe681	0.006710828
222	0x3bf1388a	0.0073614763
223	0x3a99b688	0.0011727372
224	0x3c2e30df	0.010631769
225	0xb9892b69	-0.0002616302
226	0x3c3632a9	0.011120477
227	0xbadc5e54	-0.001681278
228	0xbc2c3873	-0.010511505
229	0xbc16ef05	-0.00921226
230	0xbba3902c	-0.004991552
231	0x3c86d1d3	0.016457474
232	0x3caab1d9	0.020836757
233	0xbc583bd0	-0.013197854
234	0xbcbddeda	-0.023177553
235	0x3cd6b6a3	0.026210135
236	0x3ac6f5e0	0.0015179478
237	0x3b8808c2	0.0041514346
238	0x3c73836b	0.014862875
239	0x3c9720ea	0.018448312
240	0x3c51a5b9	0.012795859
241	0xbc6f2083	-0.014595154
242	0xbc5ec2c4	-0.01359624
243	0x3b344a12	0.002750997
244	0xbbaf2f8a	-0.0053462433
245	0xb9df79e1	-0.0004262468
246	0x3c689d40	0.014197648
247	0x3bf22e28	0.007390756
248	0xbc34ef4c	-0.011043381
249	0xbb0e8565	-0.002174699
250	0xbb03e1ff	-0.0020123718
251	0x3c282b07	0.010264165
252	0x3b5a52d4	0.003331353
253	0x3b9d9010	0.0048084334
254	0xbc124f8c	-0.008930098
255	0xbc04fede	-0.008117406

network_body._body_endoder.seq_layers.2.weight f4 [256, 256]
0	0x3dd95c68	0.10613328
1	0xbd2e5814	-0.042564467
2	0xbd1b9f0a	-0.03799347
3	0x3d88b731	0.06675566
4	0x3c3544a4	0.0110637285
5	0xbbc43dbc	-0.0059888046
6	0x3de64ba7	0.11244898
7	0xbcf7d1bb	-0.030251374
8	0xbc8c4fc9	-0.017127888
9	0x3d0d7ee6	0.034544848
10	0xbd4e4064	-0.050354376
11	0xbca43795	-0.020046035
12	0x3cdc8b18	0.026921794
13	0xbc58b870	-0.013227567
14	0x3b935f50	0.004497446
15	0xbcca3ffe	-0.024688717
16	0xbd872726	-0.06599264
17	0x3d7e4ace	0.062083058
18	0x3de86a6f	0.113484256
19	0x3c486092	0.012230055
20	0x3d12910a	0.03578285
21	0xbc140fb2	-0.009036945
22	0xbc152299	-0.009102487
23	0xbd25dc68	-0.0404934
24	0xbd1a77e4	-0.037711993
25	0x3d8618ed	0.06547723
26	0x3dcded66	0.10055046
27	0xbcf773f0	-0.03020665
28	0xbbbaf61d	-0.0057056085
29	0xbd29c05a	-0.041443206
30	0xbdd59e58	-0.10430592
31	0x3d83c44f	0.06433927
32	0x3bd70600	0.0065619946
33	0xb9ba406c	-0.00035524683
34	0xbe0a936e	-0.13532802
35	0x3d315e7e	0.043303005
36	0xbc90534f	-0.01761785
37	0x3c5c8adb	0.01346084
38	0x3dad75ca	0.08469732
39	0x3d30814d	0.04309206
40	0x3e0be6e0	0.1366229
41	0xbdc0ad9d	-0.09408114
42	0x3d05808e	0.032593302
43	0xbe216e4d	-0.15764733
44	0xbdb31455	-0.087441124
45	0xbdda1db4	-0.10650197
46	0xbd0488e0	-0.032357097
47	0x3e063536	0.13106236
48	0x3e134a1b	0.14383738
49	0xbcc558dd	-0.024090225
50	0xbbb1292a	-0.0054065185
51	0xbe10ef16	-0.14153704
52	0xbc24760c	-0.01003791
53	0x3cbd633e	0.023118611
54	0xbdf986a7	-0.12183886
55	0x3df3840b	0.118904196
56	0xbdcb31d0	-0.0992161
57	0x3d8b0159	0.067873664
58	0xbdb993e2	-0.090614095
59	0xbde2f43f	-0.110817425
60	0x3d6202c6	0.055178426
61	0x3db185a2	0.086680666
62	0xbd17ead0	-0.03708917
63	0x3d90734e	0.070532426
64	0x3de81318	0.11331767
65	0xbdd705dc	-0.104991645
66	0xbd2758e2	-0.04085625
67	0x3d35414d	0.04425173
68	0x3cc0f461	0.023554029
69	0x3c6bf56d	0.014401776
70	0xbd12900f	-0.035781916
71	0x3d244e8c	0.04011397
72	0xbd5d195e	-0.05397927
73	0x3d048b63	0.032359492
74	0x3d34b3f7	0.04411694
75	0x3d627f0c	0.055296943
76	0xb78da8b1	-1.6887063e-05
77	0x3d22b341	0.03972173
78	0xbca169cc	-0.019703768
79	0x3da8355b	0.08213302
80	0xbc8837a2	-0.01662809
81	0x3c4a75c4	0.012357179
82	0x3d203fb2	0.039123245
83	0xbd296c91	-0.041363303
84	0x3d2cbdf5	0.042173345
85	0xbc1f5e82	-0.009727122
86	0x3db65c17	0.089042835
87	0xbc1dd08b	-0.00963224
88	0xbd0b8269	-0.034059916
89	0xbdbd5210	-0.09244168
90	0x3d8eea7c	0.06978318
91	0x3d59d837	0.053184714
92	0xbd34403d	-0.044006575
93	0x3db26f62	0.08712651
94	0x3d0dc611	0.03461272
95	0x3cf9831d	0.030458027
96	0xbdc220f3	-0.09478941
97	0x3cf936bf	0.030421613
98	0x3e187fe7	0.14892541
99	0xbd0d5749	-0.03450707
100	0x3d1266aa	0.03574244
101	0xbd8aae07	-0.06771474
102	0xbceb1c21	-0.028699936
103	0x3c188d2d	0.009311003
104	0xbcb309c3	-0.02185524
105	0xbd1c15c2	-0.038106687
106	0xbd2810ba	-0.041031577
107	0xbcc00c19	-0.023443269
108	0x3cd6db6f	0.026227681
109	0xbdd5d93f	-0.10441827
110	0x3e07d8b3	0.13266258
111	0xbce49218	-0.027901694
112	0x3e27e95d	0.16397615
113	0xbd9f79ab	-0.07786878
114	0xbd95d864	-0.07316664
115	0xbcbcba8f	-0.023038177
116	0x3d27e220	0.040987134
117	0xbd4b5dd2	-0.04965002
118	0x3d906ef9	0.07052416
119	0xbe0786c7	-0.13235007
120	0xbd1fcc03	-0.03901292
121	0x3d38a319	0.045077417
122	0x3daa2d6a	0.08309443
123	0x3cc00bd8	0.023443148
124	0xbceb4732	-0.028720472
125	0x3d058bc6	0.032604
126	0x3d5d79d5	0.054071266
127	0x3dfc44ab	0.12317785
128	0x3e211089	0.15728964
129	0xbd0f3406	-0.034961723
130	0x3d2469c6	0.040139936
131	0x3d7105e4	0.05884351
132	0x3daef1d6	0.0854222
133	0x3d53959c	0.05165635
134	0xbd85d873	-0.06535425
135	0xbd33219b	-0.04373322
136	0x3ce4ec76	0.027944785
137	0x3d169ad0	0.036768734
138	0x3b48be3e	0.0030630971
139	0xbc4d446f	-0.012528523
140	0xbca9aef5	-0.020713309
141	0x3c09846f	0.008393391
142	0xbcc3892e	-0.023869123
143	0x3d58f668	0.052969366
144	0xbd60a239	-0.054842208
145	0xbd2d6d95	-0.042340834
146	0x3cade116	0.021225493
147	0xbdb26e6b	-0.08712467
148	0x3d032593	0.032018255
149	0xbd2bfa56	-0.041986786
150	0x3dcf7699	0.101300426
151	0x3d6752f4	0.056475595
152	0x3dfcc542	0.123423114
153	0x3d59fa58	0.053217262
154	0xbd9bec7b	-0.076134644
155	0x3c910186	0.017700922
156	0x3de8658e	0.11347495
157	0x3cde775e	0.027156528
158	0x3dea1d6d	0.11431394
159	0x3d4b5547	0.049641874
160	0xbc96e8d5	-0.01842157
161	0xbdcd3cf6	-0.10021393
162	0x3ce8c32c	0.028413378
163	0xbdf1bccc	-0.11803588
164	0xba9f8ab4	-0.0012172074
165	0x3c1fb2ae	0.00974719
166	0xbd7ec1c8	-0.062196523
167	0x3d15cd69	0.036572848
168	0xbd2f54ab	-0.042805355
169	0x3cd1a5f9	0.025591837
170	0x3d1f25a6	0.038854264
171	0x3d2bec8b	0.04197363
172	0xbd8b5c2a	-0.06804688
173	0x3d3168dc	0.043312892
174	0xbdbb5c6d	-0.09148488
175	0x3c9f4559	0.019442247
176	0xbb837b54	-0.0040125046
177	0xbdfc3a28	-0.1231578
178	0x3d3b2902	0.045693405
179	0x3da16ef6	0.07882492
180	0x3ca258d5	0.019817749
181	0x3ccc37eb	0.024929008
182	0xbd8e2ab4	-0.06941739
183	0xbcc0d94e	-0.023541119
184	0xbcae4030	-0.021270841
185	0xbda5a420	-0.08087945
186	0xbdc3b7aa	-0.095565155
187	0x3b965917	0.004588257
188	0xbe11d4b0	-0.1424129
189	0x3c5f8361	0.013642163
190	0x3caced06	0.021109115
191	0xbdbb78aa	-0.09153874
192	0x3dc0fbaa	0.09423001
193	0x3c6daf39	0.014507108
194	0x3de70eed	0.11282144
195	0x3cef7396	0.02922992
196	0x3d0caf68	0.034346968
197	0x3d853c5c	0.06505653
198	0x3d91caaa	0.07118733
199	0xbd41b4d7	-0.047291603
200	0x3c58ac69	0.0132247
201	0xbdac5e05	-0.0841637
202	0x3d1848c2	0.037178762
203	0xbd5aacdd	-0.05338751
204	0xbde0064a	-0.109386995
205	0x3da3595e	0.0797603
206	0x3cc8bde9	0.024504619
207	0xbd595a84	-0.053064838
208	0x3c19340b	0.009350787
209	0x3d6ac23a	0.057314135
210	0x3c4f5f64	0.01265702
211	0xbd6ed0ba	-0.058304526
212	0xbd2a2caa	-0.0415465
213	0x3d1f9060	0.038956046
214	0x3cc38c5a	0.023870636
215	0xba3abb4e	-0.00071232475
216	0x3c701122	0.014652522
217	0x3c8b7b04	0.017026432
218	0xbd18edea	-0.037336268
219	0x3d0b4733	0.034003448
220	0x3ce45374	0.027871825
221	0xbd06c371	-0.03290123
222	0xbd10243c	-0.035190806
223	0xbe06de71	-0.13170792
224	0x3cf84782	0.030307535
225	0x3cbd3714	0.023097552
226	0xbd99ade4	-0.0750387
227	0x3c2b6e98	0.010463379
228	0xbd9d8c5d	-0.07692788
229	0x3d60aad4	0.054850414
230	0x3dabe799	0.08393783
231	0xbdce200d	-0.10064707
232	0xbde04ee0	-0.10952544
233	0xbd98f421	-0.07468439
234	0x3c9ba610	0.019000083
235	0xbc62702b	-0.013820688
236	0xbd77f6e4	-0.060538188
237	0xbd84d027	-0.064850144
238	0xbe0b1908	-0.13583767
239	0xbe217625	-0.15767725
240	0xbcb869e8	-0.022511438
241	0xbdbd4285	-0.09241203
242	0x3c81133e	0.015756246
243	0xbda5b5e9	-0.08091337
244	0xbd7d251d	-0.061802972
245	0xbcabb169	-0.02095862
246	0x3daea28a	0.085270956
247	0xbd4e7768	-0.050406843
248	0xbd86a2c1	-0.065740116
249	0x3db07698	0.0861637
250	0x3d079de0	0.033109546
251	0x3d325823	0.043541085
252	0x3de56258	0.11200398
253	0xbd9190f5	-0.071077265
254	0xbd6da15b	-0.05801521
255	0xbc7e6604	-0.015527252

network_body._body_endoder.seq_layers.2.bias f4 [256]
0	0x3c413d56	0.011794409
1	0x3bce0274	0.0062869135
2	0x3b113936	0.0022159345
3	0x3cb2ebf0	0.02184102
4	0xbc35f251	-0.011105136
5	0x3b616888	0.003439458
6	0x3be51cad	0.006991944
7	0xbca0f279	-0.01964687
8	0xbc1b39cb	-0.009474228
9	0x3b31da71	0.0027138258
10	0xbc358f22	-0.011081489
11	0xbb434eba	-0.0029801563
12	0xbb059fcc	-0.0020389436
13	0xbc21ff06	-0.0098874625
14	0x3bd3552f	0.0064493637
15	0xbc857102	-0.016289238
16	0x3c0f6572	0.008752214
17	0x3ca73c5c	0.020414524
18	0x3c79e960	0.015253395
19	0xbbb769a1	-0.0055973087
20	0xbb4cbe8f	-0.0031241511
21	0x3c957e99	0.018248843
22	0xbaaf4487	-0.0013371863
23	0x3caea1bb	0.021317353
24	0x3b42e643	0.0029739297
25	0xbc4e92b2	-0.012608217
26	0x39aca399	0.00032928286
27	0xba18df8f	-0.00058316527
28	0xbad80ccc	-0.0016483306
29	0x3cd78a2a	0.026310999
30	0xbc486e11	-0.012233273
31	0x3c717be1	0.014739008
32	0x3c77bc08	0.015120514
33	0xbb09b485	-0.002101214
34	0x3c99d1ea	0.018776853
35	0x3c81b986	0.015835535
36	0x3c3d66e5	0.0115601765
37	0x3cb281ad	0.02179035
38	0x3cac7ad3	0.02105466
39	0x3ccdfafa	0.025144089
40	0xbb1c151d	-0.0023816295
41	0xbc325a49	-0.0108857835
42	0xbc8483c6	-0.016176116
43	0xbc7a42f5	-0.015274753
44	0x3c6c7732	0.014432715
45	0x3c7b1e3b	0.015327032
46	0x3c4e91c2	0.012607994
47	0x3a0edb04	0.0005449506
48	0xbb55c2e0	-0.0032617375
49	0xbc5162e1	-0.012779922
50	0x3cabef5d	0.02098816
51	0x3c895853	0.01676575
52	0xbc4e8900	-0.0126059055
53	0x3ce65192	0.028115068
54	0xbad58943	-0.0016291518
55	0xbc0e5388	-0.008686908
56	0x3c4d191d	0.0125181945
57	0xbbb97304	-0.005659463
58	0x3c91cfff	0.017799376
59	0x3cb2155a	0.021738697
60	0xbc7cb143	-0.015423122
61	0x3a9520b7	0.0011377548
62	0xbc1da01c	-0.009620693
63	0x3bbf3b69	0.0058359397
64	0xbb4c3c0b	-0.0031163718
65	0xbba2d33b	-0.0049690283
66	0xbc0bff72	-0.00854479
67	0xbb78fcc6	-0.0037992462
68	0xbc6f551e	-0.014607696
69	0x3cf3c478	0.02975677
70	0x3b517476	0.0031960285
71	0x3bba9a5f	0.005694672
72	0x3d1330d5	0.03593524
73	0x3cabf67f	0.020991562
74	0xbc409671	-0.011754618
75	0x3c8ec4cc	0.017427824
76	0xbb463f5e	-0.0030250172
77	0x3c8b846a	0.017030913
78	0xbc1347ca	-0.008989284
79	0xbabe9a64	-0.0014541862
80	0x3ca1b29d	0.01973849
81	0xbbbe7193	-0.005811879
82	0xbbce9716	-0.006304632
83	0xbc254c57	-0.010089002
84	0x3a99dff8	0.0011739722
85	0xbb47a601	-0.0030463936
86	0x3c0af453	0.008481103
87	0xbb714d56	-0.0036819777
88	0xbc1e9682	-0.009679439
89	0x3bd7b350	0.006582655
90	0x3ce46a4b	0.027882716
91	0xbb8df8cb	-0.004332637
92	0x3a73efa9	0.00093054265
93	0xba302076	-0.0006718704
94	0x3c68d72a	0.014211455
95	0x3cc1cdc5	0.023657689
96	0xbafe60ce	-0.0019407512
97	0xbbc7dab7	-0.006099071
98	0x3cba9161	0.0227744
99	0x3c2a5957	0.010397277
100	0x3c613ea1	0.013747842
101	0xbb169bbf	-0.0022981015
102	0x3b97e268	0.004635144
103	0xbba4cae4	-0.0050290693
104	0x3ab04c3d	0.0013450455
105	0xbc790879	-0.015199774
106	0x3d01cca5	0.031689305
107	0xbc36e796	-0.011163613
108	0xbc319931	-0.010839746
109	0xbb0ed3db	-0.0021793756
110	0xbc0197fe	-0.007909773
111	0xbc1208d6	-0.008913239
112	0x3ccc8c4f	0.024969248
113	0x3be9e2e6	0.007137644
114	0xbc65326f	-0.013989075
115	0x3c831403	0.016000753
116	0x3cf2d8dc	0.029644422
117	0x3c7c07cd	0.015382719
118	0x3ae2677a	0.001727327
119	0x3b82793d	0.003981738
120	0x3b33162e	0.0027326453
121	0x3b9161e7	0.0044367197
122	0x3ae8ea2d	0.0017769985
123	0xbb8fe986	-0.004391852
124	0xbc57b9bd	-0.013166842
125	0xbc902eca	-0.017600436
126	0xba9c27df	-0.0011913738
127	0xbc75c179	-0.014999741
128	0xbb6ea949	-0.003641682
129	0x3cac5aad	0.021039331
130	0x3ccdec56	0.025137108
131	0x3c2688cf	0.010164454
132	0x3cb7a553	0.0224177
133	0x3baff60b	0.005369907
134	0xbb28e907	-0.002577366
135	0xbc535b30	-0.012900159
136	0x3aaabf06	0.00130269
137	0xbb87e9bb	-0.004147736
138	0xbbc423a3	-0.0059856935
139	0x3c500fcd	0.01269908
140	0x3c663140	0.014049828
141	0xbb9d18b8	-0.0047942065
142	0xbbd5d5af	-0.006525717
143	0x3c4e9fcc	0.012611341
144	0xbb47841b	-0.0030443731
145	0x3c9da329	0.01924284
146	0xbb187607	-0.002326371
147	0x3c27d39c	0.010243323
148	0x3b3e5fbb	0.002904876
149	0xbbf2fb69	-0.0074152243
150	0xbc886929	-0.016651707
151	0xb95f8426	-0.00021316166
152	0x3cff2857	0.031147165
153	0x3cddd919	0.02708106
154	0x3be85a7b	0.0070908642
155	0x3c85d1d2	0.016335402
156	0x3c8b03dc	0.016969614
157	0x3bd9c24c	0.0066454764
158	0xbc9f0e8c	-0.019416116
159	0xbc264e16	-0.010150453
160	0x3c409acc	0.011755656
161	0x3bb56781	0.0055360203
162	0xbc1f1504	-0.0097096
163	0x3be03c8c	0.0068431552
164	0x3cdc5d41	0.026899936
165	0xbb83d503	-0.0040231957
166	0xbbf8b1f9	-0.0075895754
167	0x3c911ccb	0.017713925
168	0x3c8d698f	0.017262248
169	0xbb515b5b	-0.0031945321
170	0x3c6eaab3	0.014567065
171	0xbb87fd59	-0.0041500744
172	0xbc2b1147	-0.010441131
173	0x3c995b0e	0.018720176
174	0x3a0a0bea	0.00052660576
175	0xbc29cd50	-0.010363892
176	0x3ca05523	0.019571846
177	0xbaf2b845	-0.0018518051
178	0xbbd1ed47	-0.0064064595
179	0xbc7281a6	-0.014801418
180	0xbc123191	-0.00892295
181	0x3c96bd54	0.018400826
182	0xbb9402bd	-0.004516928
183	0x3c6433e8	0.013928391
184	0xbad9e095	-0.0016622717
185	0x3c9444ff	0.018099306
186	0xbc2681b6	-0.010162761
187	0xbb532540	-0.0032218248
188	0x3c41a9bd	0.011820254
189	0xba4254f8	-0.0007413174
190	0x3c762367	0.015023089
191	0xbaf4f18d	-0.001868771
192	0x3cb5005f	0.022094904
193	0x3b8debab	0.0043310723
194	0x3ca1902b	0.019722065
195	0xbc2b7bb8	-0.010466509
196	0xbc96ce52	-0.018408928
197	0x3cac5ee3	0.02104134
198	0xbc79159c	-0.015202906
199	0x3c135241	0.008991779
200	0x3b026391	0.0019895772
201	0xbb08c896	-0.0020871512
202	0x3c0bea3e	0.008539734
203	0x3c3d68c7	0.011560625
204	0x3ac64522	0.0015126804
205	0x3cbece6f	0.023291795
206	0x3c6c7784	0.014432792
207	0xbbec3ec3	-0.00720963
208	0xbc7a83b2	-0.015290188
209	0xba818d3c	-0.000988401
210	0x3c5affb5	0.013366629
211	0x3b84c8d2	0.00405226
212	0x3c625f7c	0.013816711
213	0xbc0b10ea	-0.008487919
214	0xbc1eb9b5	-0.009687831
215	0xbc1a1a7e	-0.00940573
216	0xba0c56ec	-0.00053535285
217	0xbc1e1f1a	-0.00965097
218	0x3cc702f6	0.024293404
219	0x3cbe3beb	0.02322193
220	0x3b9b4950	0.004738964
221	0xbade7d70	-0.0016974639
222	0x3b3b005f	0.0028534157
223	0xba87c6fb	-0.0010358983
224	0xbc0397b0	-0.008031771
225	0xbba4b6c6	-0.005026671
226	0x3ccfc275	0.025361279
227	0x3ca0772f	0.019588081
228	0xbb75f8a4	-0.0037532235
229	0x3c31e5ac	0.010857981
230	0x3bf20c17	0.007386695
231	0x3c71582c	0.0147304945
232	0x3bb011fe	0.0053732386
233	0xbc276704	-0.010217432
234	0x3caceeb1	0.02110991
235	0x3c483495	0.012219568
236	0x3c88e794	0.016711988
237	0x3c084169	0.008316376
238	0x3c81c19b	0.015839389
239	0x3bc5e90f	0.0060397456
240	0x3b706616	0.0036681942
241	0xbbc2c228	-0.0059435554
242	0x3c17c473	0.009263146
243	0x3c971b8d	0.018445754
244	0xbc3f11af	-0.011661931
245	0x3c076962	0.008264871
246	0x3b07a419	0.0020697175
247	0x3cc1117d	0.02356791
248	0x3c89525a	0.016762901
249	0xbbef59d6	-0.0073044105
250	0x3be3292e	0.0069323992
251	0xbbcced70	-0.0062538907
252	0xbaa8ce0e	-0.0012878792
253	0x3c9848ae	0.018589344
254	0xbc22cc02	-0.009936335
255	0xbab6529c	-0.0013910118

action_model._discrete_distribution.branches.0.weight f4 [2, 256]
0	0xbcbe9d13	-0.023268258
1	0xbc70c398	-0.014695071
2	0xbb2a399f	-0.0025974286
3	0xbcac30cb	-0.02101936
4	0x3b83d26d	0.0040228874
5	0xbc9f6780	-0.019458532
6	0x3c928744	0.017886765
7	0x3be87f52	0.007095256
8	0x3c2e7b88	0.010649569
9	0x3c4b8183	0.012421015
10	0xb9a74ec5	-0.0003191141
11	0x3c835260	0.01603049
12	0x3c858cb0	0.016302437
13	0x3bbe6280	0.005810082
14	0x3acc5b8d	0.0015591249
15	0x3c318285	0.010834341
16	0x3c5231d8	0.0128292665
17	0x3d12f9b5	0.03588267
18	0xbceac4ba	-0.02865826
19	0x3c21f39e	0.009884743
20	0xbbf38c09	-0.007432465
21	0xbd13a9c7	-0.036050584
22	0x3c846ce0	0.016165197
23	0x3bbf98ad	0.005847058
24	0xbc9f23a3	-0.019426173
25	0x3c9393dc	0.01801484
26	0x3c45b2d0	0.012066558
27	0x3c133b8f	0.008986368
28	0x3bf9d9fe	0.0076248636
29	0x3b7ae6d8	0.0038284566
30	0x3caa8b55	0.020818392
31	0x3c3729a2	0.01117936
32	0x3cb24ae7	0.021764232
33	0x3c316e49	0.010829517
34	0xbcb98d6a	-0.02265044
35	0x3d0a0510	0.033696234
36	0x3a036d8a	0.0005013576
37	0x3cf51546	0.02991737
38	0xbc9d556a	-0.019205768
39	0xbce43d69	-0.027861314
40	0x3b16a581	0.0022986832
41	0x3c586878	0.013208501
42	0xbab12d7d	-0.0013517585
43	0x3c34fdc8	0.011046834
44	0xbcbfb0ce	-0.023399737
45	0x3bdf9abd	0.006823866
46	0x3c927881	0.017879726
47	0xbb5e8e8b	-0.0033959474
48	0x3c069b9d	0.008215812
49	0xba83a3c0	-0.0010043308
50	0xbca7d987	-0.020489467
51	0x3d10825e	0.035280578
52	0x3c81b656	0.015834015
53	0x3cdaafa5	0.026695082
54	0xbbef713d	-0.0073072
55	0xbc15f735	-0.009153177
56	0xbc57068e	-0.013124121
57	0xbc712c20	-0.014719993
58	0x3b50ab32	0.0031840322
59	0xbcc08a7e	-0.023503538
60	0x3c0321b8	0.008003645
61	0x3b772938	0.0037713777
62	0x3cc0b602	0.023524288
63	0xbc0037a8	-0.0078257695
64	0xbbf77a9b	-0.0075524575
65	0x3c354959	0.011064851
66	0x3c0865c2	0.008325042
67	0x3a3a2555	0.00071009
68	0xbaf2e840	-0.0018532351
69	0x3c912433	0.017717456
70	0x3bec77c6	0.0072164265
71	0x3c372752	0.011178808
72	0xbd22d834	-0.03975697
73	0xbc8f5bd0	-0.017499834
74	0x3be864a9	0.0070920778
75	0x3d0d3041	0.034469847
76	0x3c174c4f	0.009234502
77	0xbaf04932	-0.0018332361
78	0xbc6ef006	-0.014583593
79	0xbb21bb67	-0.002467835
80	0x3bbfc56e	0.005852393
81	0x3b220977	0.002472488
82	0x3cbaebce	0.022817519
83	0x3bebf713	0.0072010844
84	0x3c15fe47	0.009154863
85	0x3ca7e3d5	0.020494381
86	0x3c849513	0.016184365
87	0xbb6d7e3f	-0.0036238579
88	0x3ca286b8	0.01983963
89	0xbc4acea7	-0.012378371
90	0x3b89b53a	0.004202512
91	0x3c32fa20	0.010923892
92	0xbc5c0230	-0.013428256
93	0xbc09eb4c	-0.008417916
94	0x3b855cd0	0.004069902
95	0xbc8eb954	-0.017422356
96	0x3adb5bcb	0.001673573
97	0xbaf45643	-0.0018641431
98	0xbd0aed99	-0.033917997
99	0x3c950198	0.018189237
100	0xbc9e4dd0	-0.019324213
101	0xbbe920d4	-0.007114509
102	0xbc41b5e0	-0.011823148
103	0x3c0812e7	0.008305288
104	0xbbdf6f94	-0.006818721
105	0x3ac1fc9c	0.0014800015
106	0x3c343aa6	0.011000311
107	0x3c4b4883	0.012407425
108	0x3be38dd5	0.006944398
109	0xbb72dd17	-0.003705805
110	0x3c019d44	0.00791103
111	0x3bf2039c	0.007385684
112	0xbd2db154	-0.04240544
113	0x3ba5f6e9	0.0050648344
114	0x3c05a16d	0.008156163
115	0xbc6ac8c3	-0.014330092
116	0x3b296b9b	0.0025851491
117	0xbc1921ac	-0.009346407
118	0xb9c087eb	-0.0003672236
119	0x3bb26c27	0.0054450217
120	0xbc689c41	-0.01419741
121	0xbc35f8b0	-0.011106655
122	0x3c072aa6	0.008249914
123	0x3bccaf94	0.0062465165
124	0x3c469104	0.012119535
125	0x3c2121ef	0.009834751
126	0xbb743e2b	-0.00372685
127	0x3ac3af72	0.0014929606
128	0x3c3e3c07	0.011610991
129	0x3bfa67f7	0.007641788
130	0xbb4b61b9	-0.003103359
131	0xbc98017e	-0.018555399
132	0x3caebbd5	0.0213298
133	0x3c81b4f4	0.015833355
134	0xbb9456e4	-0.0045269597
135	0x3c5087ba	0.012727672
136	0xbc3889ae	-0.011263294
137	0x3b05c066	0.0020408868
138	0xbbaa8794	-0.0052041505
139	0x3c8cb776	0.017177325
140	0xbcc17aa5	-0.023618052
141	0x3c14c41d	0.00907996
142	0xbc4a3d04	-0.012343649
143	0x3a516fab	0.0007989357
144	0x3c45a4a3	0.012063178
145	0x3c007dd6	0.007842502
146	0xbb0f88d4	-0.0021901624
147	0x3acf44dd	0.001581337
148	0xbc10a54e	-0.008828474
149	0x3c87fdcf	0.016600518
150	0x3bddf7ea	0.0067739384
151	0xbbc44642	-0.0059898207
152	0x3c48e2d8	0.012261115
153	0xbc733d71	-0.014846192
154	0xbb576863	-0.0032868616
155	0x3cd0cc07	0.025487913
156	0x3c9a6bc9	0.018850224
157	0x3c91ce3c	0.017798536
158	0x3c74f936	0.014951995
159	0x3bba5dac	0.005687436
160	0x3c2223ff	0.009896277
161	0xbc7691a0	-0.015049368
162	0x3ca44344	0.020051606
163	0x3c68674a	0.014184782
164	0x3d31cc87	0.043407943
165	0xbc849c42	-0.01618779
166	0x3c942779	0.018085228
167	0xbc628f39	-0.013828092
168	0xbd19bfd8	-0.037536472
169	0x3c2c36fa	0.010511154
170	0xbd123976	-0.03569933
171	0x3ac8f9da	0.0015333251
172	0xba6c22c8	-0.00090078684
173	0xbcb219b0	-0.021740764
174	0x3c64180a	0.013921747
175	0x3bdb9342	0.006700904
176	0x3c66ca06	0.014086252
177	0x3b383eb7	0.0028113553
178	0xbc8957ff	-0.016765593
179	0xbb969c42	-0.004596264
180	0xbbe9b008	-0.0071315803
181	0x3c6164a6	0.013756907
182	0x3c596888	0.013269551
183	0xbd1b5956	-0.037926994
184	0x3c3deb6c	0.0115917735
185	0x3c1ae84e	0.0094548
186	0x3bd5f378	0.006529268
187	0x3c57a8b9	0.013162785
188	0xbce87f93	-0.028381145
189	0xbc236138	-0.009971909
190	0xbb031b53	-0.00200053
191	0x3ac080d5	0.0014686832
192	0x3cfec035	0.03109751
193	0x3b99dfe1	0.004695878
194	0x3c0f5f85	0.008750801
195	0x3c28ff9a	0.010314846
196	0x3c0a8303	0.008454087
197	0xbcd5fc9e	-0.026121434
198	0x3bd9b63f	0.00664404
199	0xbc53bb3f	-0.012923061
200	0x3b91f033	0.004453683
201	0x3a6813ab	0.00088530284
202	0x3bb722a1	0.005588845
203	0x3d19c271	0.03753895
204	0xbc72ea77	-0.014826409
205	0xbc10e727	-0.0088441735
206	0x3b7d87c3	0.0038685657
207	0x3c05d04b	0.008167337
208	0x3bf4b6f8	0.0074681006
209	0xbbd917c3	-0.006625147
210	0xbc6ff051	-0.014644698
211	0x3c8c766a	0.017146308
212	0x3cb040f1	0.021515341
213	0x3be5aa1e	0.007008805
214	0xbb881228	-0.004152555
215	0xbab2aabd	-0.0013631206
216	0x3bedb796	0.007254551
217	0x3b9f4c38	0.004861381
218	0x3cb53ed2	0.022124682
219	0x3c8dfbfe	0.017332073
220	0x3c80d91f	0.015728531
221	0x3c69dd1b	0.014273907
222	0xbc0d53ef	-0.008625968
223	0xbb792122	-0.0038014133
224	0x3c5b6135	0.013389875
225	0xbc5e438c	-0.013565909
226	0x3c98c692	0.018649373
227	0xbae3a093	-0.001736658
228	0x3b04aea8	0.0020245705
229	0x3c9d5a43	0.01920808
230	0x3cf43fed	0.029815638
231	0xbc13dbd7	-0.009024582
232	0xbc090268	-0.00836239
233	0x3b860b54	0.004090706
234	0x3d1628ba	0.036659934
235	0xbc9b8953	-0.01898638
236	0xbb9c1542	-0.0047632763
237	0x3cd00b99	0.025396155
238	0xbc0df5fc	-0.008664604
239	0xbca525f8	-0.020159706
240	0xbc39da6c	-0.01134358
241	0xbc3d5243	-0.011555257
242	0xbc3f4aed	-0.011675579
243	0xbac21834	-0.0014808238
244	0x3aea4bac	0.0017875335
245	0xbc4cc567	-0.012498236
246	0x3b78c108	0.0037956852
247	0xbba13cf5	-0.0049205967
248	0x3b91a14b	0.0044442764
249	0x3c20c444	0.009812418
250	0xbcf47580	-0.029841185
251	0x3c713649	0.014722415
252	0xbb9e5597	-0.0048319804
253	0xbcf21603	-0.029551512
254	0x3c7c4c41	0.01539904
255	0xbcb7fbd3	-0.022458946

action_model._discrete_distribution.branches.0.bias f4 [2]
0	0xbc0feefa	-0.008785004
1	0x3c0feef8	0.008785002

action_model._discrete_distribution.branches.1.weight f4 [3, 256]
0	0xbc4d1778	-0.012517802
1	0x3b1539c7	0.0022770034
2	0x3b8b535f	0.004251882
3	0xbc244318	-0.010025762
4	0x3b673aae	0.0035282779
5	0xbaa66529	-0.0012694943
6	0xbc5945a9	-0.013261237
7	0x3c044542	0.008073153
8	0x3c3c885c	0.01150712
9	0xbc1ae7e8	-0.009454705
10	0x3a1f8045	0.00060844823
11	0xbbc2bbad	-0.005942783
12	0xb90ace88	-0.00013237644
13	0x3c4e8549	0.01260502
14	0xbba62b38	-0.00507107
15	0x3c0f4bb6	0.008746078
16	0x3b997c12	0.00468398
17	0xbc12941b	-0.008946444
18	0xbc49b68c	-0.012311589
19	0xbbeb000b	-0.007171636
20	0x3bf659fe	0.007518052
21	0xbbe86d9c	-0.0070931446
22	0x3a718f5f	0.00092147844
23	0xbcb02714	-0.021503009
24	0xbb5dd4c5	-0.0033848744
25	0x3c6a9cf8	0.014319651
26	0xbafb710b	-0.001918347
27	0x3ad7f4db	0.0016476171
28	0xbbca1dd0	-0.0061681047
29	0xbc88b6aa	-0.016688664
30	0x3c062a8f	0.008188858
31	0xbbaeb452	-0.0053315545
32	0x3bc8a5a8	0.0061232634
33	0xbb06d75b	-0.002057514
34	0xbc9503ab	-0.018190226
35	0x3b482d16	0.0030544451
36	0xbc837972	-0.01604912
37	0xbbbfdbc3	-0.005855055
38	0xbc2c3d20	-0.01051262
39	0xbbb920c3	-0.0056496575
40	0x3b5a053c	0.003326728
41	0x3c720254	0.014771063
42	0x3b82084d	0.0039682747
43	0x3bb7ec7f	0.0056129093
44	0xbc2b7505	-0.010464911
45	0xbcaa3124	-0.020775385
46	0xbb0d4999	-0.002155876
47	0xba518ede	-0.0007994006
48	0xbb229fb7	-0.0024814436
49	0xbad33919	-0.0016115039
50	0xbc45ec46	-0.012080258
51	0x3bd48a22	0.0064861933
52	0x3b9582cd	0.004562712
53	0xbc9aef7e	-0.018913027
54	0xbc041ebe	-0.00806397
55	0x3c88285d	0.01662081
56	0xbc09fe10	-0.00842239
57	0xbad3d58b	-0.0016161663
58	0x3c6786af	0.014131232
59	0xbc1d68b1	-0.00960748
60	0x3be96b9c	0.0071234237
61	0x3b675cc7	0.0035303102
62	0x3becd9ac	0.007228097
63	0xbc7bfc9e	-0.015380053
64	0x3b952410	0.004551418
65	0x3c7bd1c3	0.015369835
66	0xbbcf7734	-0.006331349
67	0xbbbe3657	-0.0058048177
68	0x3adb42a6	0.0016728237
69	0xbce1ae54	-0.027548946
70	0xba7686f3	-0.0009404264
71	0xbc0b0bfe	-0.008486746
72	0xbcc3435c	-0.02383583
73	0xbcc8ab8b	-0.02449586
74	0xbacd4e7d	-0.001566365
75	0x3c62da04	0.013845924
76	0xbb605b15	-0.0034233977
77	0xbcc7f697	-0.024409575
78	0xbc25792d	-0.010099691
79	0x3b3dae8c	0.002894315
80	0xbc7580e0	-0.0149843395
81	0xbbbd7609	-0.005781893
82	0x3c0f931f	0.008763104
83	0x3c24b3a0	0.010052592
84	0x3b827c7a	0.003982124
85	0x3c19db88	0.009390719
86	0x3c6ca4ba	0.014443571
87	0x3b89a365	0.0042003863
88	0x3c1fb0b5	0.00974672
89	0xbc1cb8ae	-0.009565515
90	0xbcc809f1	-0.024418803
91	0x3b7b6325	0.0038358655
92	0x3bf944b0	0.007607065
93	0x3c29838d	0.010346306
94	0xbc09515f	-0.008381217
95	0xbc93e4b3	-0.018053388
96	0xbbbd8737	-0.005783941
97	0x3b6475cd	0.0034860254
98	0xbbb1db00	-0.005427718
99	0x3cab1773	0.020885205
100	0xbaa083c8	-0.0012246305
101	0x3c48c543	0.012254062
102	0x3bfabe87	0.007652107
103	0xbb1f3a40	-0.0024296194
104	0xbb774d1d	-0.0037735172
105	0x3bf238cd	0.007392025
106	0xbc0c1a44	-0.008551184
107	0x3c764d0a	0.015033016
108	0x3a29a52c	0.0006471451
109	0x3b956940	0.004559666
110	0x3bb95c7f	0.0056567783
111	0x3b0df6b1	0.0021661932
112	0xbc63cd19	-0.01390388
113	0xbc967fe3	-0.018371528
114	0x3c5103df	0.012757271
115	0x3bd89ff1	0.0066108634
116	0xbc9eb81c	-0.0193749
117	0xbc1fdd95	-0.009757419
118	0x3c199c94	0.00937571
119	0xbc2b0b25	-0.010439669
120	0xb801dc1c	-3.096099e-05
121	0xbb7af13a	-0.0038290755
122	0x3aac2702	0.0013134184
123	0xbba45b27	-0.005015749
124	0x3b84f717	0.0040577757
125	0x3c0921ad	0.008369845
126	0xbc160b9f	-0.009158044
127	0x3b178da9	0.0023125208
128	0x3ba284df	0.004959687
129	0x3c2dd4b8	0.010609798
130	0xbcbd71d9	-0.023125576
131	0x3adf560e	0.0017039196
132	0xbc9a19c4	-0.018811114
133	0x3babe363	0.0052456125
134	0xbb453f43	-0.0030097521
135	0x3a584be9	0.00082510576
136	0x3aa5f495	0.0012661392
137	0x3c12034a	0.008911917
138	0x3c602ef8	0.013683073
139	0x3b1f1620	0.0024274662
140	0xbc4c22b9	-0.01245945
141	0x3be87268	0.0070937164
142	0xbb500d7e	-0.0031746323
143	0xbb62d127	-0.0034609528
144	0x3be3a35d	0.0069469647
145	0xbc014f50	-0.007892445
146	0x3b3e70a0	0.002905883
147	0xbc0bdb3c	-0.008536156
148	0x3b58ad54	0.0033062296
149	0x3be0921a	0.006853354
150	0xb9c92cc5	-0.00038371063
151	0x3c02ea1d	0.007990387
152	0xbcbd4f36	-0.02310906
153	0xbcc7a76f	-0.02437183
154	0xba9cf506	-0.0011974878
155	0x3c8f1237	0.01746474
156	0xbc8a9855	-0.01691834
157	0xbc2ea476	-0.010659328
158	0x3c214580	0.00984323
159	0x3bb6a521	0.005573884
160	0x3bc92523	0.0061384602
161	0xbc26f95e	-0.01019129
162	0x3ca1bcdc	0.019743375
163	0x3ca08601	0.019595148
164	0x38c63df6	9.452917e-05
165	0x3a45bbb2	0.00075429224
166	0x3cd31a31	0.025769325
167	0xbc8dc2e2	-0.017304841
168	0xbc401445	-0.011723583
169	0x3bb46275	0.005504901
170	0xbb05e294	-0.002042924
171	0x3b5917bc	0.003312572
172	0xbbefa4de	-0.007313355
173	0xbc418777	-0.0118120825
174	0xbb305559	-0.002690634
175	0x3b014a4e	0.0019728127
176	0x3a55c031	0.0008153944
177	0xbb8935b0	-0.0041873083
178	0xbbabe152	-0.005245366
179	0x3b1685ae	0.0022967863
180	0xb91a76e2	-0.00014730872
181	0x3bf3ab1d	0.00743617
182	0x3b684c67	0.003544593
183	0xbc9909fc	-0.018681519
184	0x3b9f7460	0.004866168
185	0xbc681fcb	-0.014167736
186	0x3b93b776	0.004507954
187	0x3899face	7.3423245e-05
188	0xbc1f6ea9	-0.009730973
189	0x3c9a8e6b	0.018866738
190	0xbc46404f	-0.012100293
191	0x3c70f50e	0.014706863
192	0xbc5d5780	-0.013509631
193	0x3a319938	0.00067748455
194	0xbc449c33	-0.012000131
195	0x3b406cc7	0.0029361711
196	0x3c4d5c30	0.012534186
197	0xbc96d1c5	-0.018410573
198	0x3c2afc50	0.010436133
199	0xbc1c152c	-0.009526532
200	0x3c89a9fb	0.016804686
201	0xbc2bd06a	-0.0104867015
202	0x3bf6eae0	0.0075353235
203	0x3bcc370c	0.006232148
204	0x3b28743d	0.002570405
205	0xbc55a7b1	-0.013040469
206	0xbcac7821	-0.021053376
207	0x3c92cd22	0.01792008
208	0x39ddd2fa	0.00042309595
209	0x3b747e10	0.0037306584
210	0xbc898219	-0.016785668
211	0xbc1c73b8	-0.009549074
212	0xbc6f2b1a	-0.014597679
213	0x3c243f61	0.010024876
214	0x38ee3774	0.00011359053
215	0x3c31bf8e	0.010848893
216	0xbb016009	-0.001974108
217	0x3aeb3a80	0.0017946512
218	0xbcb3c9a6	-0.02194674
219	0xbca6c899	-0.020359324
220	0x3b2435ad	0.0025056407
221	0x3b1555e5	0.0022786793
222	0xbaf84208	-0.0018940577
223	0x3a02f713	0.00049959234
224	0x3becbca3	0.0072246357
225	0x3c07ddef	0.008292659
226	0xbc9e7e72	-0.019347403
227	0xbc838f4a	-0.016059536
228	0xba6032c1	-0.0008552485
229	0x3b0faa69	0.002192164
230	0x3c57fba7	0.013182557
231	0x3bd1c77d	0.0064019547
232	0xbb36a505	-0.0027869355
233	0x3c095020	0.00838092
234	0x3c81bc0a	0.015836734
235	0xbc80f81c	-0.015743308
236	0xbc670f01	-0.014102698
237	0x3bf72181	0.007541836
238	0xbb9a9672	-0.0047176415
239	0xbb09fd30	-0.0021055453
240	0xbbbd510a	-0.005777483
241	0x3c2c3a14	0.010511894
242	0xbc39dd8f	-0.011344328
243	0xbb477866	-0.0030436753
244	0x3c293f95	0.010330101
245	0xbb990e3b	-0.004670886
246	0x3ab51f3c	0.0013818513
247	0xbc65a16c	-0.014015537
248	0xbb211c2a	-0.0024583437
249	0x3be733e2	0.0070557455
250	0xbc44ecdf	-0.012019365
251	0x3c35a4f9	0.011086696
252	0x3b48fd03	0.0030668385
253	0xbc97cd73	-0.018530583
254	0x3c50122b	0.012699644
255	0xbb6b3505	-0.0035889756

action_model._discrete_distribution.branches.1.bias f4 [3]
0	0x38820573	6.199898e-05
1	0x3be08c42	0.0068526575
2	0xbba1a772	-0.004933291

action_model._discrete_distribution.branches.2.weight f4 [2, 256]
0	0x3be646df	0.0070274915
1	0x3b29c433	0.0025904297
2	0xbae0a20c	-0.0017138137
3	0xbb6f0828	-0.0036473367
4	0x3c048a5c	0.008089628
5	0x3c12a0c2	0.00894946
6	0x3c85745b	0.016290834
7	0x3c9d79ff	0.019223211
8	0x3c5f2fd0	0.013622239
9	0xbbf284b6	-0.0074010743
10	0x3b8a339d	0.0042175786
11	0xbad8bea9	-0.0016536313
12	0x3c944fd9	0.01810448
13	0x3b844daf	0.004037581
14	0xbcbfab26	-0.02339704
15	0x3c7ef323	0.015560898
16	0xbc89c567	-0.016817762
17	0xbce526a9	-0.027972536
18	0xbbc0430f	-0.005867369
19	0xbbe2136a	-0.006899287
20	0x3bd37072	0.0064526135
21	0x3b778f32	0.003777456
22	0xba7f18e5	-0.00097311876
23	0xbcf25e24	-0.029585905
24	0x3c57f621	0.01318124
25	0x3c8e6647	0.017382754
26	0x3bbd5f47	0.00577918
27	0xbc259e18	-0.010108493
28	0xbc714f7a	-0.014728421
29	0xbc35809d	-0.011078027
30	0x3cc5e47e	0.024156805
31	0xbb583346	-0.0032989546
32	0xbc8f1f13	-0.017470872
33	0xbbceefe4	-0.0063152183
34	0xbbbb0ec4	-0.0057085473
35	0xbc66be23	-0.014083418
36	0xbc2beb34	-0.0104930885
37	0xbcbc1a09	-0.022961633
38	0xbc3c5ece	-0.011497213
39	0x3b692728	0.0035576317
40	0xbc04f1c8	-0.008114286
41	0x3bbd8118	0.0057832114
42	0x3b41dd25	0.0029581275
43	0x3b1a4766	0.0023541092
44	0x3b3c650a	0.0028746747
45	0xba8557fb	-0.0010173315
46	0xbb093bea	-0.0020940253
47	0x3ba95d42	0.005168588
48	0xbbbbcc0c	-0.0057311114
49	0x3c0e7dc2	0.008696975
50	0xbc8dbf46	-0.01730312
51	0xbd170db3	-0.0368783
52	0x3c98d3fd	0.018655771
53	0xbd248d3b	-0.04017375
54	0xb9adcf80	-0.0003315173
55	0x3bf3102e	0.0074177003
56	0x3c4cb6f8	0.012494795
57	0x3b3ae6d5	0.0028518934
58	0xbba9f89c	-0.0051871073
59	0xbc86d104	-0.016457088
60	0x3ca91bee	0.0206432
61	0x3cd6d9bc	0.02622687
62	0x3ca6e2ff	0.020371912
63	0x3b9cd011	0.0047855456
64	0xbbb4769e	-0.0055073043
65	0x3cd37f52	0.025817547
66	0x3c034db5	0.008014132
67	0x3b9bfac0	0.0047601163
68	0x3ca33cc7	0.019926442
69	0xbc8dd886	-0.01731516
70	0xba0b7073	-0.00053191854
71	0x3c26039f	0.010132699
72	0xbbfb3d14	-0.007667193
73	0xbc8b7c00	-0.017026901
74	0x3c41254c	0.011788677
75	0xbbddb82f	-0.006766341
76	0x3c9370fb	0.01799821
77	0xbcd4f3b1	-0.025995107
78	0x39c13c27	0.00036856646
79	0x3c85cf42	0.01633418
80	0xbc12cd1c	-0.008960035
81	0xbb317d25	-0.0027082649
82	0x3c882a16	0.01662163
83	0x3b5248d5	0.0032086868
84	0x3b84e056	0.0040550632
85	0x3c1c1533	0.009526539
86	0xbb87b2fc	-0.0041412096
87	0x3b84178a	0.0040311264
88	0x3cb722da	0.022355486
89	0xbc2394e5	-0.00998423
90	0xbcdae960	-0.02672261
91	0x3cb80a4b	0.022465846
92	0xbbb6bea3	-0.005576925
93	0x3b12cc19	0.0022399484
94	0xbcac75a2	-0.021052185
95	0xbb6c893c	-0.003609254
96	0x3c58f586	0.013242131
97	0x3c276b10	0.010218397
98	0x3bab6f5a	0.00523178
99	0xbb34c885	-0.002758534
100	0x3be47bde	0.006972774
101	0x3c8d2c97	0.017233176
102	0x3c7c27e4	0.01539037
103	0x3b8356af	0.004008136
104	0xbabbe158	-0.0014334125
105	0x3c08f0e4	0.008358214
106	0xbc8a8a17	-0.01691155
107	0x3c6fc3d7	0.014634094
108	0x3b0eae07	0.002177121
109	0x3b493306	0.0030700578
110	0x39d5b38a	0.00040760293
111	0x3a0dd13f	0.0005409903
112	0x3b79cf49	0.0038117936
113	0x3b07198e	0.0020614597
114	0x3c823f23	0.015899247
115	0x3c414c0e	0.011797918
116	0xbcbd7b2c	-0.023130022
117	0xba4afedb	-0.0007743665
118	0x3cd23ebb	0.025664678
119	0xbc92c36b	-0.017915448
120	0x3b6e48f0	0.0036359392
121	0x3a85455a	0.0010167763
122	0x3c352a73	0.011057484
123	0xbb338462	-0.0027392139
124	0x3ce6baf7	0.028165324
125	0x3c91980a	0.017772693
126	0x3bb71912	0.0055877054
127	0xba983ff6	-0.0011615742
128	0x3b9829cd	0.004643655
129	0x3b098c76	0.0020988262
130	0xbcc9b42c	-0.024622045
131	0xbc8ac52f	-0.016939728
132	0xbc3f090b	-0.011659871
133	0x3cb564bf	0.022142766
134	0x3ba3c3a8	0.0049976893
135	0x3bf94268	0.007606793
136	0x3bf62969	0.0075122607
137	0x3c66b466	0.014081096
138	0x3bd9be5b	0.0066450066
139	0xbc7c27ba	-0.015390331
140	0xbb43def0	-0.002988752
141	0x3cada5d3	0.021197235
142	0x3b04e90c	0.0020280508
143	0xbcacaf33	-0.021079635
144	0x3c8cff1c	0.01721149
145	0xbcbbaaf0	-0.022908658
146	0x3a7e4fbb	0.0009701212
147	0xbbb4e8e5	-0.0055209273
148	0x3bca01cc	0.006164765
149	0xbad2f53c	-0.0016094814
150	0x3c0139e3	0.007887336
151	0x39cd801d	0.000391961
152	0xbc5ef259	-0.013607585
153	0xbbd1cf33	-0.006402874
154	0xbbfdc1cd	-0.00774405
155	0x3b3374f0	0.0027382933
156	0xbc9b1351	-0.01893011
157	0x3bf809c6	0.0075695245
158	0x3c0add6a	0.008475641
159	0x3ba107b8	0.00491425
160	0xbad45d65	-0.001620215
161	0xbbe81127	-0.007082123
162	0x3c86f239	0.016472923
163	0xbc22d99b	-0.0099395765
164	0xbcc9db8d	-0.024640823
165	0x3c594148	0.013260193
166	0x3c3410c7	0.010990328
167	0xbc607c59	-0.013701522
168	0xbc358e40	-0.011081278
169	0x3cbc3bf3	0.022977805
170	0xbb11b78a	-0.0022234642
171	0x3c9506fc	0.018191807
172	0x3a9ef1f0	0.0012126546
173	0xbbbc47d5	-0.0057458677
174	0x3ada1877	0.0016639371
175	0x3bac512f	0.0052587013
176	0xbcdaf4e2	-0.026728097
177	0x3c47c3f3	0.012192714
178	0x3bc35509	0.0059610647
179	0x3b4a059e	0.0030826102
180	0x3c49f39c	0.012326147
181	0xbc9dd3bf	-0.019266007
182	0x3cede430	0.029039472
183	0xbac4e7f2	-0.0015022738
184	0xbbdce99d	-0.006741716
185	0xb9b95102	-0.00035346305
186	0xbc158291	-0.009125368
187	0x3c6a75b5	0.01431029
188	0xbb9d2dc8	-0.0047967173
189	0xbbab76a8	-0.005232651
190	0xbb79b182	-0.0038100188
191	0x3cc51054	0.024055637
192	0xbd00591d	-0.031334985
193	0xbc688cad	-0.014193696
194	0xbc9cca3c	-0.019139402
195	0x3c3f7648	0.011685915
196	0x3cbaf3c4	0.022821315
197	0xbc5c7b72	-0.013457166
198	0x3bb33ea6	0.0054701148
199	0xbbe73c5f	-0.0070567573
200	0x3c017b13	0.007902878
201	0x3b1a4240	0.0023538023
202	0x3cb2d86e	0.021831717
203	0xbd21e0e0	-0.039521098
204	0x3c25e82e	0.010126157
205	0xbba52bde	-0.0050406298
206	0x389984d1	7.3203475e-05
207	0xbb6cd576	-0.0036137975
208	0x3c4b42a5	0.012406026
209	0x3b5b16be	0.0033430303
210	0xbbe3a0ed	-0.006946674
211	0xbca4a754	-0.02009932
212	0xbb2c16bc	-0.0026258668
213	0x3ca4ab79	0.020101296
214	0x3bec354a	0.007208501
215	0xb9d6ca2e	-0.00040967896
216	0x3cc61d6a	0.024183948
217	0x3c586400	0.013207436
218	0xbcce6e79	-0.025199162
219	0xbc8a6973	-0.016895985
220	0x3ab03e8b	0.0013446374
221	0x3c684853	0.0141774
222	0xbbb2f639	-0.005461481
223	0x3a494b25	0.0007678739
224	0x3c6394af	0.013890429
225	0x3bf05b94	0.0073351357
226	0xbd27e792	-0.040992327
227	0xbccd006b	-0.025024613
228	0x3c4e407d	0.012588617
229	0xbc524d8d	-0.012835872
230	0xbb4bdff8	-0.0031108838
231	0x3bb8bd2d	0.005637786
232	0xb937adf7	-0.00017517047
233	0x3ca5c633	0.02023611
234	0xbc5e2d32	-0.01356058
235	0xbc0d766b	-0.00863419
236	0xbc42c143	-0.0118868975
237	0x3cc75a44	0.024335034
238	0x3b5de863	0.0033860437
239	0x3c4ac703	0.01237655
240	0x3bf0856e	0.007340125
241	0x3bdd6d08	0.0067573823
242	0xbc247031	-0.010036514
243	0xbc0355ab	-0.00801603
244	0x3c608fd6	0.013706168
245	0xbc175ef9	-0.009238952
246	0xbbc81076	-0.006105478
247	0xbce22a62	-0.0276081
248	0xbc82ff04	-0.015990742
249	0x3c7a2711	0.015268103
250	0xba8cff66	-0.0010757267
251	0x3cb66f18	0.02226977
252	0x39bcf4f1	0.0003604065
253	0xba201802	-0.0006107093
254	0x3cc8c622	0.02450854
255	0x39fe2876	0.000484768

action_model._discrete_distribution.branches.2.bias f4 [2]
0	0xbc1c63d8	-0.009545289
1	0x3c1c63d7	0.009545288
