results/boat-agent-ppo-60/boat/boat-4500109.onnx (onnx, 328993 bytes, 11 tensors)

discrete_act_size_vector f4 [1, 3]
0	0x40000000	2.0
1	0x40400000	3.0
2	0x40000000	2.0

network_body._body_endoder.seq_layers.0.weight f4 [256, 47]
0	0xbe073c44	-0.13206583
1	0x3e805157	0.25062057
2	0xbe22f83e	-0.1591501
3	0x3ddf08ea	0.10890372
4	0xbc22f83f	-0.009946882
5	0x3c4afd5a	0.012389505
6	0x3d232c9a	0.039837457
7	0xbcb98cf0	-0.022650212
8	0x3e605945	0.21909054
9	0x3e045eb5	0.12926753
10	0x3da14bdc	0.07875797
11	0xbe070bf5	-0.13188155
12	0x3e44fbe6	0.19236717
13	0x3d778376	0.060428105
14	0x3ea149ce	0.3150162
15	0x3e2ac720	0.16677523
16	0xbc9217a7	-0.017833544
17	0x3e4a2707	0.1974145
18	0xbdeed347	-0.11661392
19	0xbe16cd60	-0.14726782
20	0x3c503d9d	0.012710002
21	0x3cc2e9ac	0.023793064
22	0x3db61d6c	0.088923305
23	0x3e57aa11	0.21060969
24	0x3e8f83e7	0.2803032
25	0xbe3a7661	-0.1820922
26	0x3e6bd329	0.2302977
27	0xbdfd5fc4	-0.123717815
28	0x3d4315dd	0.047628272
29	0x3e093079	0.13397397
30	0x3c6984a0	0.014252812
31	0xbd21f655	-0.03954156
32	0x3e9df914	0.30854094
33	0x3d89f379	0.06735892
34	0xbc833c7c	-0.016020052
35	0xbde71039	-0.11282391
36	0x3e64ebcc	0.22355574
37	0x3c78f665	0.015195464
38	0xbd60fe10	-0.054929793
39	0xbde39959	-0.11113233
40	0x3dd153c3	0.102210544
41	0xbb614e90	-0.0034379102
42	0xbd51dace	-0.05123406
43	0x3db7a3db	0.089668
44	0xbcc607b3	-0.024173593
45	0x3d0b8c31	0.034069244
46	0x3e6ea7eb	0.23306243
47	0xbd196ed2	-0.037459202
48	0xbda95e2c	-0.08269915
49	0x3bc1885a	0.005906147
50	0x3d5bc60e	0.053655677
51	0xbe91b622	-0.2845927
52	0x3d60d88f	0.054894026
53	0xbe038f58	-0.1284765
54	0xbe1679db	-0.14694922
55	0x3d4257c5	0.047446985
56	0xbdbea9c2	-0.093097225
57	0xbe17ea5e	-0.14835498
58	0x3dbfd63c	0.09367034
59	0xbe9d2654	-0.30693305
60	0x3e46b616	0.19405398
61	0x3e8b85d8	0.27250552
62	0x3e1a934e	0.15095255
63	0x3e4c1aa7	0.19932042
64	0x3dd0b5e4	0.10190943
65	0xbe9793be	-0.29604906
66	0xbccae47e	-0.024767157
67	0xbee8919b	-0.45423588
68	0xbe02a8dc	-0.12759727
69	0xbe1e7ffe	-0.15478513
70	0xbe1af7ce	-0.15133592
71	0x3e085e81	0.133173
72	0xbe00ae4b	-0.12566487
73	0x3e8f4184	0.27979672
74	0xbe3d7b30	-0.18504024
75	0xbe398c68	-0.18119967
76	0xbe356a46	-0.17716321
77	0xbca976ec	-0.02068659
78	0x3e61dc2e	0.22056648
79	0x3d15a351	0.036532704
80	0xbedccbd4	-0.4312426
81	0x3d45b9fa	0.048273064
82	0xbdee9351	-0.11649192
83	0xbe1cc870	-0.15310836
84	0x3db43116	0.08798425
85	0x3e010474	0.12599355
86	0x3c2afe49	0.010436603
87	0xbbce4cff	-0.0062957997
88	0xbdbe0aa9	-0.09279377
89	0xbda6c125	-0.08142308
90	0x3e8b4d0e	0.27207226
91	0x3d574980	0.05256033
92	0xbeccdd43	-0.4001256
93	0xbda86ce4	-0.08223894
94	0x3c7231d0	0.014782384
95	0x3c6a08fa	0.014284367
96	0xbd1ddbc6	-0.03853967
97	0x3e7c0cc0	0.24614239
98	0x3c3a0de4	0.011355851
99	0x3d1a614c	0.037690446
100	0x3dd308df	0.103044264
101	0x3eb8b86c	0.36078203
102	0x3d57a2d7	0.05264553
103	0xbcac38cc	-0.021023177
104	0xbddf56a4	-0.10905197
105	0xbd744ae0	-0.05964172
106	0x3babccba	0.005242911
107	0xbc64e6d1	-0.013971047
108	0xbe264a2a	-0.16239229
109	0xbe25d116	-0.16193041
110	0xbe02515b	-0.12726347
111	0x3e4fe4e6	0.20302162
112	0x3d126f47	0.035750654
113	0xbd776353	-0.060397457
114	0x3e44c8ab	0.19217174
115	0x3e711b40	0.23545551
116	0xbda6f98c	-0.08153066
117	0xbc3a865f	-0.011384576
118	0x3e00e71c	0.12588161
119	0x3d60bfe5	0.054870505
120	0x3e53af03	0.2067223
121	0xbe667987	-0.22507297
122	0x3e5393a4	0.20661789
123	0xbde5216e	-0.11188017
124	0xbe07e611	-0.13271357
125	0x3e41dd00	0.18931961
126	0xbe24a234	-0.160775
127	0xbdef4f2d	-0.116850235
128	0x3d65e009	0.05612186
129	0xbe3326f3	-0.17495327
130	0x3e689289	0.22712149
131	0x3dbef131	0.09323347
132	0xbb702fec	-0.0036649657
133	0xbe0221b1	-0.12708165
134	0x3db8ca64	0.09022978
135	0xbd23853a	-0.039921977
136	0xbdea67c6	-0.114455745
137	0x3da21159	0.07913465
138	0x3dc27576	0.0949506
139	0x3e6b6c61	0.22990562
140	0xbdff4163	-0.124636434
141	0x3dab64f4	0.08368865
142	0x3d803509	0.06260116
143	0x3e6d0141	0.2314501
144	0xbdde059d	-0.108409144
145	0xbd847bc8	-0.06468922
146	0xbde1ffe1	-0.11035133
147	0xbe359007	-0.17730723
148	0x3e2afa9a	0.1669716
149	0xbe430e70	-0.19048476
150	0x3d5158ab	0.05110995
151	0x3da9cadc	0.082906455
152	0xbd4a7111	-0.049424235
153	0xbd881d3c	-0.06646201
154	0xbe001237	-0.12506948
155	0x3eb2c486	0.3491556
156	0x3d97dfff	0.07415771
157	0x3d4cf8fc	0.050042138
158	0xbe7354e4	-0.23762852
159	0x3d40ba15	0.04705246
160	0xbd9b61f8	-0.075870454
161	0x3d82042f	0.06348454
162	0x3d896fac	0.06710753
163	0x3e639a76	0.22226891
164	0x3e3045de	0.17214152
165	0x3b03eab7	0.0020128915
166	0xbdbae8d8	-0.09126443
167	0xbea62108	-0.32447076
168	0x3e4e85b9	0.20168199
169	0x3e55da05	0.20883949
170	0xbe57d3b1	-0.21076848
171	0x3e93f60a	0.2889865
172	0x3e90f00b	0.28308138
173	0xbd7f4295	-0.062319357
174	0x3e4800ec	0.19531602
175	0x3df6a9f8	0.12044138
176	0x3d61c34d	0.055117894
177	0xbec9bd51	-0.3940225
178	0xbe1e6a8c	-0.15470332
179	0x3e421c5c	0.1895613
180	0xbd465498	-0.04842052
181	0xbe31ec62	-0.17375329
182	0x3e487d33	0.1957901
183	0x3e107bc7	0.14109717
184	0xbda50185	-0.080569305
185	0xbefe22fc	-0.49636066
186	0xbe72ae01	-0.2369919
187	0x3dcfabf2	0.10140218
188	0xbdf8164e	-0.12113629
189	0xbe34de41	-0.17662908
190	0x3d1f526c	0.038896963
191	0xbd8f106c	-0.06985554
192	0xbd55896a	-0.052133
193	0xbc9aaa68	-0.018880084
194	0xbdf36609	-0.11884696
195	0x3e14113a	0.14459696
196	0x3ddb1875	0.10698024
197	0x3d06b2f1	0.032885496
198	0x3db20989	0.08693225
199	0x3d8f4efe	0.069974884
200	0x3e5e90e7	0.21734963
201	0x3e3c8c06	0.1841279
202	0xbe638563	-0.22218852
203	0xbc85ab4e	-0.016317036
204	0xbb7e3cb7	-0.0038793513
205	0xbdf5bfe7	-0.11999493
206	0xbdc42f9e	-0.09579395
207	0xbdf93b8e	-0.12169562
208	0x3d58e89d	0.052956212
209	0xbe088962	-0.13333657
210	0xbea7c35a	-0.3276623
211	0x3d2a65b3	0.041600894
212	0x3e4bd2c1	0.19904615
213	0xbc94065a	-0.018069435
214	0xbcd4065a	-0.025881935
215	0x3e3759bf	0.17905329
216	0xbcf82fa3	-0.030296152
217	0x3cdf163a	0.027232278
218	0xbdebe849	-0.11518914
219	0xbd6873da	-0.05675111
220	0x3d2f8134	0.042847827
221	0xbd83e7f2	-0.064407244
222	0xbd9a2bae	-0.075278625
223	0x3d42809f	0.047485944
224	0xbd8edc89	-0.069756575
225	0xbddbbd7b	-0.107295
226	0x3e106174	0.14099675
227	0x3e5220ca	0.2052032
228	0x3cfb5d2d	0.030684078
229	0x3e8a251c	0.26981437
230	0x3e6ffd7d	0.23436542
231	0xbd999daf	-0.07500779
232	0x3d1f3dec	0.038877413
233	0xbe346771	-0.17617585
234	0xbe2e7b87	-0.1703931
235	0xbe4fb8b6	-0.20285305
236	0xbe4239e9	-0.18967403
237	0xbe31eeb1	-0.1737621
238	0xbd9c97de	-0.07646154
239	0xbe7f12b9	-0.24909486
240	0x3e8577fc	0.26068103
241	0x3d1bd113	0.038041186
242	0xbd66967a	-0.05629585
243	0xbe16efd2	-0.14739922
244	0x3e459bb9	0.19297685
245	0x3d660566	0.056157492
246	0x3e06776d	0.13131495
247	0x3c8bd6a7	0.017070128
248	0x3e28bc1d	0.1647801
249	0x3c44788c	0.011991631
250	0xbbf7a6d0	-0.0075577274
251	0xbd89831a	-0.06714459
252	0x3ce7c245	0.028290877
253	0x39e07709	0.00042813297
254	0x3b7d8a13	0.0038687035
255	0x3d0e95c7	0.034810808

network_body._body_endoder.seq_layers.0.bias f4 [256]
0	0x3af97549	0.0019032146
1	0xbc3bbd2b	-0.011458675
2	0x3cc27aee	0.023740258
3	0xbc48888d	-0.0122395875
4	0xbc90b24a	-0.01766314
5	0x3d68ac27	0.056804802
6	0x3c08e4c2	0.008355321
7	0xbab1a77f	-0.0013553946
8	0xbd0f6a51	-0.0350135
9	0x3c290a26	0.010317361
10	0xb9a9fd82	-0.0003242307
11	0x3ba8fefe	0.0051573506
12	0x3a93c56f	0.001127405
13	0x3b9c6eb3	0.0047739386
14	0xbb852894	-0.004063675
15	0x3b9ac95d	0.0047237114
16	0xbbf43134	-0.0074521545
17	0x3b8d2f13	0.00430859
18	0xbc5d861e	-0.013520746
19	0xbada63d8	-0.0016661836
20	0xbc89d64d	-0.01682582
21	0x3be73ea3	0.0070570274
22	0x3bd46fe5	0.0064830654
23	0x3b8ddf32	0.0043295855
24	0xbcaa98b1	-0.020824762
25	0xbd45708e	-0.048203044
26	0xbb4a9290	-0.0030910112
27	0x3c605092	0.013691084
28	0xbb3bd5a7	-0.0028661282
29	0x3ca61878	0.02027534
30	0x3bd6846a	0.0065465467
31	0x3c971719	0.018443631
32	0x3b925fca	0.0044669854
33	0x3ce31dca	0.027724165
34	0x3b369647	0.0027860568
35	0xbd19b4ed	-0.03752606
36	0x3d0ee579	0.03488681
37	0x3cc02680	0.023455858
38	0x3cb80995	0.022465507
39	0x3ba2dc1d	0.004970087
40	0xbc375a1e	-0.011190919
41	0xbcc13d6b	-0.023588857
42	0xbc04654d	-0.008080793
43	0xbb3d9006	-0.0028924956
44	0xbd29e929	-0.041482124
45	0xbcd21ea7	-0.025649382
46	0x3cf40956	0.029789608
47	0xbcafc3b2	-0.02145562
48	0xbaf42602	-0.001862705
49	0x3c4a8a21	0.012362034
50	0xbc7591de	-0.014988391
51	0xbcac8c26	-0.021062922
52	0xbc2f8028	-0.010711707
53	0x3ca80e8a	0.020514745
54	0xbc7a11d1	-0.015263037
55	0xbd3796cc	-0.044821545
56	0x3cd00dde	0.025397237
57	0x3cc74c04	0.02432824
58	0xbbfd8b50	-0.0077375546
59	0x3cad4bec	0.021154366
60	0x3cf0b90c	0.029385112
61	0x3d22e760	0.039771438
62	0x3ccbc595	0.024874488
63	0xbd0c2613	-0.034215998
64	0xbd297253	-0.041368794
65	0x3c387649	0.01125867
66	0x3b77c407	0.003780605
67	0xbabb3fa8	-0.0014285939
68	0x3cb88912	0.022526298
69	0xbc89fcab	-0.016844114
70	0xbbaf9d5f	-0.0053593363
71	0xbc48f249	-0.0122647965
72	0x3d7a907d	0.06117295
73	0x3c0b1af5	0.008490314
74	0xbc604523	-0.0136883585
75	0xbc73da5d	-0.014883605
76	0xbc006b79	-0.0078381235
77	0x3c7b974b	0.015355895
78	0xbc2d4619	-0.010575795
79	0x3b4ba65e	0.0031074504
80	0xbd047356	-0.032336555
81	0xbb532ec5	-0.0032223922
82	0x3bd6cfa6	0.0065555153
83	0x3ce1cdb4	0.027563907
84	0xbad80f33	-0.0016484022
85	0x3d160b5f	0.036631938
86	0xba8494b1	-0.0010115114
87	0xbba84439	-0.005135086
88	0xbbd9378f	-0.0066289376
89	0xba696edb	-0.00089047634
90	0x3c5cdc9e	0.013480334
91	0x3cdf382a	0.02724846
92	0xbc9276ca	-0.017878909
93	0xbd019386	-0.03163483
94	0x3cb05eac	0.021529518
95	0x3d20b829	0.03923813
96	0xbd0c3705	-0.03423216
97	0x3cd47952	0.025936756
98	0xbd0c146c	-0.034199163
99	0x3c882d36	0.01662312
100	0x3c22b53d	0.009930906
101	0xbbfd3bda	-0.007728082
102	0x3d057b4f	0.0325883
103	0x3bae0fea	0.0053119557
104	0xbc41137e	-0.011784432
105	0x3d22600e	0.039642386
106	0xbb859bf1	-0.0040774276
107	0x3ca7566f	0.020426957
108	0x3c21d23b	0.009876783
109	0xbc8073f2	-0.015680287
110	0xba3edf17	-0.0007281168
111	0xbc9d4282	-0.019196752
112	0x3a3986b3	0.00070772617
113	0xbbe52626	-0.006993073
114	0xbc8264fd	-0.015917296
115	0xbcd62025	-0.026138375
116	0xbbebd7f9	-0.007197377
117	0x3d1b58d9	0.03792653
118	0xbcb0d678	-0.021586642
119	0x3d37afa7	0.04484525
120	0xb92cb903	-0.0001647212
121	0xbb4190e5	-0.0029535827
122	0x3c4c04f7	0.012452356
123	0xbc48205c	-0.012214746
124	0x3cb343cc	0.021882914
125	0xbc55cd73	-0.013049471
126	0x3d067a8e	0.03283172
127	0x3bc338c8	0.0059576966
128	0xbb519453	-0.0031979277
129	0xbcc98628	-0.024600103
130	0xbb286c9a	-0.0025699497
131	0x3c10a0d8	0.008827411
132	0xbbea7397	-0.0071548927
133	0x3cab1bce	0.020887282
134	0x3bc779b5	0.0060875067
135	0xbc1343a3	-0.008988294
136	0xbc1ad48b	-0.009450088
137	0x3ad206cb	0.0016023753
138	0xbca903c2	-0.020631675
139	0xbd68c2fa	-0.05682657
140	0x3c043f21	0.008071692
141	0xbb68fabf	-0.0035549847
142	0xba426cfc	-0.00074167526
143	0xbd10cd05	-0.03535177
144	0x3c420191	0.011841194
145	0x3b8d8209	0.00431848
146	0xbcbbe3e1	-0.02293581
147	0xbd1deff4	-0.038558915
148	0xbc417a0b	-0.0118088825
149	0x3c8d42c7	0.017243756
150	0xbcd0ea98	-0.025502488
151	0x3c3a1665	0.011357878
152	0xbc30a136	-0.010780623
153	0x3d643878	0.055717915
154	0xbd16ddae	-0.036832504
155	0xbc2c389a	-0.010511542
156	0x3cf8403c	0.030304067
157	0x3ca18dcc	0.019720934
158	0x3d049a1c	0.032373533
159	0xbc86645a	-0.016405273
160	0x3c99a7fb	0.018756857
161	0xbd47b21c	-0.048753843
162	0x3cc39221	0.02387339
163	0xbb10aa2e	-0.0022074091
164	0x3d43470d	0.04767518
165	0x3cdb6148	0.026779786
166	0x3ce989b7	0.02850805
167	0x3ce47e8a	0.02789237
168	0x3cdd6691	0.027026447
169	0x3ae064c7	0.0017119878
170	0x3d23c997	0.039987173
171	0x3bc59715	0.0060299733
172	0xbbde7bc8	-0.006789658
173	0xbc6e12db	-0.014530863
174	0xbc0690b2	-0.008213209
175	0xbca40075	-0.02001975
176	0x3c9819cb	0.018566987
177	0x3ba5c558	0.0050589256
178	0xba156538	-0.00056989817
179	0x3d0c43fe	0.03424453
180	0xba4654db	-0.0007565745
181	0xbd59a620	-0.053136945
182	0x3ca19147	0.019722594
183	0xbcc5bae0	-0.02413696
184	0x3c42731e	0.011868266
185	0xbc83b220	-0.016076148
186	0xbc8684fb	-0.016420832
187	0x3c6b7f78	0.014373653
188	0x3c035478	0.008015744
189	0x3b803c84	0.003913464
190	0xbc32af6b	-0.010906081
191	0x3d22ee2d	0.039777923
192	0x3d377dd6	0.04479774
193	0xbb45a945	-0.0030160707
194	0xba2b5f11	-0.00065372983
195	0x3d204df0	0.039136827
196	0x3b0abfbb	0.002117141
197	0xbc1c4fb9	-0.009540492
198	0x3ba1ace6	0.004933941
199	0x3cdb9c03	0.02680779
200	0xbbffb934	-0.0078040604
201	0x3c61919b	0.013767625
202	0xbc4cf4d3	-0.0125095425
203	0xbd01e843	-0.031715643
204	0xbb684d71	-0.003544655
205	0xbc429d20	-0.011878282
206	0xba2046f9	-0.00061140914
207	0x3c0d1bd9	0.008612596
208	0xbceee405	-0.029161463
209	0xbc2cddef	-0.01055096
210	0x3c7066e5	0.0146729695
211	0xbc302b50	-0.010752514
212	0x3ce93202	0.028466228
213	0x3c5c9cb0	0.013465092
214	0xbb10a2a2	-0.0022069593
215	0xbbde577d	-0.0067853318
216	0xbcb1af4f	-0.021690039
217	0x3c2ad298	0.010426186
218	0x3baefec6	0.00534043
219	0x3c8153b5	0.015786985
220	0xbba2d86a	-0.004969646
221	0xbc7ab0cc	-0.015300941
222	0xbcf3cab2	-0.029759739
223	0xbc752bad	-0.014964026
224	0xbcd8a728	-0.026446894
225	0x3b99e7fc	0.004696844
226	0xbc5dbd66	-0.013533926
227	0x3cf15c8a	0.029463071
228	0xbb18b2b7	-0.0023299882
229	0xbc08d3b4	-0.008351255
230	0xbc429a5e	-0.011877624
231	0x3cc7b846	0.02437986
232	0x3c5d678e	0.013513459
233	0xbc4ee78e	-0.012628449
234	0xbc9bbdb7	-0.019011362
235	0xbd3835f5	-0.044973332
236	0xbc559fb2	-0.013038563
237	0xbc66327d	-0.014050123
238	0x39fc2c2b	0.00048098093
239	0xbb914438	-0.004433181
240	0x3cab17d1	0.02088538
241	0xbbee9ea0	-0.007282093
242	0xbc140e11	-0.009036557
243	0xbb332abe	-0.0027338709
244	0x3d36d38a	0.044635333
245	0xba4b510b	-0.0007755912
246	0x3c8474a7	0.016168905
247	0xbd3d64a8	-0.04623857
248	0xbd170813	-0.036872935
249	0x3c3ed080	0.01164639
250	0x3c084c62	0.008318992
251	0x39591b75	0.00020704961
252	0xbc23f053	-0.010006028
253	0x3c311fc4	0.010810796
254	0x3bdd7c98	0.0067592375
255	0xbd0d2ce9	-0.034466658

network_body._body_endoder.seq_layers.2.weight f4 [256, 256]
0	0x3d3c1f30	0.04592818
1	0xbd84ce9f	-0.06484722
2	0xbdb4c890	-0.08827317
3	0x3d450725	0.048102517
4	0xbcae7773	-0.021297192
5	0x3dc66a78	0.09688276
6	0xbdbff89d	-0.09373591
7	0xbde437e6	-0.11143474
8	0x3c8dcfe6	0.017311048
9	0x3d41640c	0.047214553
10	0x3d8ac824	0.06776455
11	0xbd8f79ac	-0.07005629
12	0x3e240dac	0.1602084
13	0x3c821448	0.015878811
14	0x3d5592a3	0.052141797
15	0x3d4d4de8	0.050123125
16	0xbdb05eab	-0.086118065
17	0xbcaf85a5	-0.021426031
18	0x3d57523b	0.052568655
19	0xbc17eb0d	-0.009272349
20	0xbd371f0c	-0.044707343
21	0x3d5ffa01	0.05468178
22	0x3c22d276	0.009937873
23	0xbbeb9973	-0.0071899234
24	0xbc96318a	-0.018334169
25	0xbd771fc7	-0.06033304
26	0xbc2b60c8	-0.010460086
27	0xbca37ed3	-0.019957935
28	0x3d09d63e	0.033651583
29	0xbda9c62e	-0.08289753
30	0xbc4b7b1c	-0.012419488
31	0xbd5548aa	-0.05207125
32	0x3cb9c55e	0.02267712
33	0x3c859545	0.016306529
34	0xbbcf31e9	-0.0063230884
35	0x3d151c11	0.03640372
36	0x3db53aef	0.08849131
37	0x3d2ad939	0.041711066
38	0x3d54a8f0	0.051918924
39	0xbd6194bc	-0.055073485
40	0xbc879f1c	-0.016555361
41	0x3d5ebd0d	0.05437951
42	0x3dfaf090	0.12252915
43	0x3da508df	0.08058333
44	0x3b2963c8	0.0025846828
45	0x3cba5018	0.02274327
46	0xbb0e498f	-0.0021711325
47	0x3d54d640	0.051962137
48	0xbc873c16	-0.016508143
49	0xbdc71545	-0.09720854
50	0xbe06f0ee	-0.13177845
51	0x3d478b70	0.048716962
52	0x3ca04bcb	0.01956739
53	0x3c4af893	0.012388366
54	0x3d9bb71b	0.07603284
55	0xbcd93520	-0.02651459
56	0xbe1a91f7	-0.15094744
57	0x3c87f776	0.01659749
58	0x3c4cd7b2	0.012502598
59	0x3bf8cc5e	0.007592722
60	0x3da86e91	0.08224214
61	0x3dddbdbb	0.10827204
62	0xbd0dae19	-0.03458986
63	0xbd99650c	-0.07489976
64	0xbda7fac7	-0.08202129
65	0x3e140d11	0.1445811
66	0x3c6b15fe	0.014348505
67	0xbc8bfb51	-0.01708761
68	0x3c8136cb	0.015773198
69	0xbd3c5929	-0.045983467
70	0x3d4b8eeb	0.049696844
71	0xba9024a2	-0.0010997246
72	0xbc7e7cc4	-0.015532676
73	0x3d81476f	0.06312453
74	0xbc87e212	-0.01658729
75	0xbd34cb20	-0.044139028
76	0xbde99b49	-0.114065714
77	0xbb71c3ae	-0.0036890316
78	0xbc7db6e1	-0.015485496
79	0x3c8977ed	0.016780818
80	0xbd38a2e6	-0.045077227
81	0xbd8a2d7e	-0.06746958
82	0x3cdacdcb	0.026709458
83	0xbdcacd41	-0.0990243
84	0xbc35bd30	-0.011092469
85	0x3d88adac	0.0667375
86	0xbd41710d	-0.047226954
87	0xb8eac57f	-0.00011194776
88	0x3bac642f	0.0052609663
89	0x3ca325b6	0.019915443
90	0xbd7faa0e	-0.062418036
91	0xbe0c8a35	-0.13724597
92	0x3d531f5a	0.05154357
93	0x3d30270f	0.043006
94	0x3c944923	0.01810128
95	0xbd87dedf	-0.06634306
96	0xbd27da3a	-0.0409796
97	0x3d5a4cd8	0.05329594
98	0xbcb1c35d	-0.021699602
99	0x3d35a5eb	0.044347685
100	0x3c7fac79	0.0156050855
101	0x3d1f5b36	0.038905345
102	0x3e25cccd	0.16191407
103	0x3db7c21b	0.089725696
104	0x3dae12b4	0.08499661
105	0x3d6a7560	0.057240844
106	0xbcdb0de2	-0.026740018
107	0x3cc2de4d	0.023787642
108	0x3df53a5b	0.11974021
109	0xbd87cdf5	-0.0663108
110	0x3cc351e6	0.023842763
111	0x3d105e32	0.03524608
112	0xbe039d52	-0.12852982
113	0x3e2fb48a	0.17158714
114	0x3d0558f1	0.032555524
115	0xbd138846	-0.036018632
116	0x3c8b3c17	0.016996427
117	0xbdaeeb7c	-0.08541009
118	0x3b1bc4e5	0.0023768481
119	0xbc9297b0	-0.017894596
120	0xbd4cd07b	-0.05000351
121	0xbd2051f0	-0.03914064
122	0xbdde1eac	-0.10845694
123	0x3ded96f1	0.116010554
124	0x3d2276fd	0.039664257
125	0xbc5d602f	-0.0135117015
126	0xbba328b2	-0.0049792165
127	0xbcad6b86	-0.021169435
128	0x3b3298ee	0.0027251798
129	0x3d07c9e0	0.033151507
130	0x3d344395	0.044009764
131	0xbb3426fb	-0.0027489054
132	0xbd80f907	-0.06297498
133	0x3dcae320	0.09906602
134	0x3d5c140e	0.053730063
135	0xbd0d4fa8	-0.034499794
136	0x3d7842d3	0.060610604
137	0x3d9a6e9c	0.07540628
138	0xbc2b8e9d	-0.010471013
139	0x3c1abad3	0.009443956
140	0x3dba89d8	0.09108323
141	0xbdf27038	-0.1183781
142	0x3cecf8a5	0.028927157
143	0xba349c6c	-0.0006889764
144	0xbde46c81	-0.11153508
145	0xbdb87c61	-0.090080984
146	0xbd5e9440	-0.0543406
147	0xbdfe7ec2	-0.12426521
148	0xbdd31f3d	-0.103086926
149	0xbb541c7d	-0.0032365613
150	0x3d6e7dd6	0.058225475
151	0xbc6ffa11	-0.014647023
152	0xbc0d0b4c	-0.00860865
153	0xbcf7c377	-0.030244572
154	0xbddac17a	-0.10681434
155	0x3d097b9c	0.03356515
156	0x392eec04	0.00016681856
157	0x3daa5bbb	0.083182774
158	0x3d14c363	0.036319148
159	0xbd200997	-0.039071646
160	0xbc81c6d4	-0.015841879
161	0x3dd28bab	0.10280546
162	0x3d92e55f	0.07172655
163	0xbdae844d	-0.08521328
164	0x3d0c5cda	0.034268238
165	0x3cc0385a	0.02346437
166	0xbcd0a7cd	-0.025470639
167	0xbbac3b97	-0.005256127
168	0x3e452006	0.19250497
169	0xbd29f07e	-0.041489117
170	0xbc187cd3	-0.009307104
171	0x3d677f77	0.056518044
172	0xbdea1940	-0.11430597
173	0xbd500d64	-0.05079402
174	0x3d372496	0.044712625
175	0xbd26af21	-0.04069436
176	0x3c9adee2	0.018905107
177	0x3d803a41	0.06261111
178	0xbcabe634	-0.020983793
179	0x3caa0a0b	0.020756742
180	0x3d89072f	0.06690823
181	0xbd8779e9	-0.066150494
182	0xbdaf951e	-0.08573364
183	0x3c7e8cd7	0.0155365085
184	0xbcabe0d8	-0.020981237
185	0x3d871ecf	0.06597673
186	0x3cb0e38f	0.021592883
187	0x3cf9a1f7	0.030472739
188	0xbc49f678	-0.012326829
189	0xbc759029	-0.014987984
190	0x3d8d0217	0.06885164
191	0xbd63264c	-0.055456445
192	0x3d9e1605	0.07719044
193	0xbb1792d5	-0.002312829
194	0x3e00696d	0.12540217
195	0x3bd15f9b	0.006389571
196	0x3d01f32c	0.031726047
197	0x3d5bbe7e	0.053648464
198	0xbda29404	-0.07938388
199	0x3c898b41	0.016790034
200	0x3c951305	0.018197546
201	0xbd014426	-0.031559132
202	0xbd414e0b	-0.04719357
203	0x3b34a290	0.0027562715
204	0x3dd5c7ad	0.10438476
205	0xbc9cfab4	-0.019162513
206	0x3d98537c	0.074377984
207	0x3c3e2a37	0.0116067445
208	0xbd0c7ef4	-0.03430076
209	0xbcd227ab	-0.02565368
210	0xbca912bc	-0.020638816
211	0x3d4b5d2b	0.0496494
212	0x3d778fff	0.06044006
213	0x3c8438d4	0.016140379
214	0xbd70d5cf	-0.058797654
215	0xbc3ec1bc	-0.01164287
216	0xbdb1b243	-0.08676579
217	0x3cd2582d	0.025676811
218	0xbe13e35a	-0.14442196
219	0xbcb799c0	-0.02241218
220	0xbce3982a	-0.027782518
221	0x3dc21075	0.09475795
222	0xbd939427	-0.07205992
223	0x3cd3d955	0.025860468
224	0x3d045a3a	0.03231261
225	0x3d31f060	0.04344213
226	0x3d8f1c9f	0.06987881
227	0xbc2a3513	-0.01038863
228	0xbc80d2ff	-0.01572561
229	0xbc89f14a	-0.016838688
230	0x3c7aa3ae	0.015297813
231	0xbce393d6	-0.027780455
232	0xbdca1aba	-0.09868379
233	0xbe49d4ba	-0.19710055
234	0x3cc1ece9	0.023672538
235	0x3d189931	0.03725547
236	0x3de71ede	0.11285184
237	0xbc32b100	-0.010906458
238	0x3d895c33	0.06707039
239	0x3e1b4545	0.15163143
240	0x3c9a42ba	0.018830646
241	0x3dd7e9f2	0.105426684
242	0xbb852b13	-0.0040639727
243	0xbd1d17a3	-0.03835262
244	0x3d9990fc	0.07498357
245	0x3d27afb5	0.04093905
246	0x3c9af0ee	0.018913712
247	0x3c76295d	0.01502451
248	0x3d6b5acb	0.057459634
249	0x3d89a398	0.06720656
250	0xbc04fa64	-0.008116338
251	0xbc55ba5b	-0.013044919
252	0x3d0889e4	0.033334628
253	0xbb9ed7de	-0.0048475107
254	0x3c8cd999	0.017193602
255	0xbd19f1e2	-0.037584193

network_body._body_endoder.seq_layers.2.bias f4 [256]
0	0xba055a75	-0.00050870265
1	0xbbbc24a3	-0.005741672
2	0x3b8b9645	0.004259857
3	0x3bdc64e2	0.0067258934
4	0x3c2e33ab	0.010632436
5	0x3c351011	0.011051194
6	0x3bb211a9	0.005434234
7	0x3b82f7fd	0.0039968477
8	0xba106207	-0.0005507771
9	0xbc419bee	-0.011816962
10	0xbb2982ac	-0.002586524
11	0xbb16f1c5	-0.002303229
12	0xbcd419ca	-0.025891203
13	0x3b63874c	0.0034718094
14	0xbc569663	-0.013097378
15	0x3ca44cd9	0.020056175
16	0x3c05a421	0.008156807
17	0xbbc68edc	-0.0060595106
18	0xbb128cf1	-0.002236184
19	0xbccc56cd	-0.024943734
20	0xbbb179bf	-0.0054161246
21	0x3cdcc984	0.026951559
22	0xbc891d7f	-0.016737698
23	0x3c5eb45c	0.013592806
24	0x3c28af0a	0.010295639
25	0xbcba821d	-0.022767121
26	0xbcf32436	-0.029680353
27	0x3c321930	0.010870263
28	0x3af0afd7	0.0018362951
29	0x3b0707e5	0.002060407
30	0x3b834782	0.004006327
31	0x3c7ad705	0.015310054
32	0x3c7e3a01	0.015516759
33	0x3bc28e78	0.0059373938
34	0x3c803cc7	0.01565398
35	0x3c98c097	0.018646521
36	0x3c96a24b	0.018387934
37	0xbd0b55c7	-0.03401735
38	0x3ce530a5	0.027977297
39	0x3b021289	0.0019847474
40	0xbaa86f54	-0.0012850561
41	0x3c7f1795	0.015569587
42	0x3cbd8ea5	0.023139307
43	0xbbf1c57f	-0.0073782797
44	0x3abb5d3d	0.0014294755
45	0xbc9c13f8	-0.01905249
46	0x3cbfe683	0.023425346
47	0xbc9def4c	-0.019279145
48	0x3c971cd3	0.018446362
49	0x3a3226f0	0.0006795963
50	0xbcc77576	-0.024348002
51	0x3b1f5644	0.0024312893
52	0xbb9148a4	-0.0044337083
53	0xbcecd4ef	-0.028910128
54	0xbbd527db	-0.0065049953
55	0x3c86581f	0.016399441
56	0x3bc81d2d	0.0061069936
57	0x3b0922ce	0.0020925286
58	0xb9b5e4c3	-0.0003469345
59	0x3b8781c4	0.0041353423
60	0xbbb84a08	-0.0056240596
61	0x3ab919d0	0.0014122073
62	0x3d007990	0.03136593
63	0xbb102d42	-0.0021999632
64	0x3b68c2a4	0.0035516405
65	0x3c4dc781	0.0125597725
66	0xba40ba65	-0.00073519937
67	0x3c9878d4	0.018612303
68	0x3ba0786d	0.0048971684
69	0x3cf4f24d	0.029900694
70	0x3ba1f2a7	0.0049422565
71	0xbb3b2ba8	-0.0028559957
72	0xbb1a0047	-0.00234987
73	0xbb8ee953	-0.0043613105
74	0x3bb1ba5a	0.005423826
75	0x3c014bda	0.00789162
76	0x3b76d3eb	0.0037662934
77	0x3c030c59	0.007998549
78	0xbc4d7685	-0.012540464
79	0x3c048949	0.008089372
80	0xbb4d7f22	-0.0031356295
81	0x3c91a8a5	0.017780611
82	0xbb21ffc8	-0.0024719108
83	0x3cf414fb	0.02979516
84	0x3af76267	0.0018873931
85	0xbc9ab92d	-0.018887127
86	0x3bb6bde6	0.005576837
87	0x3c09ac1f	0.008402853
88	0x3bc3704e	0.0059643155
89	0x3a7368a8	0.00092853094
90	0x3c290d51	0.010318116
91	0xbc799be7	-0.015234924
92	0xbcfdb016	-0.030967753
93	0x3b6ea797	0.003641581
94	0x3b685aae	0.003545444
95	0x3aefe87b	0.0018303538
96	0x3bbf43e0	0.0058369488
97	0x3bf8aecb	0.0075891963
98	0xbb0442d8	-0.0020181444
99	0xbaaa4ac6	-0.0012992255
100	0x3c1f8599	0.009736442
101	0xbb50b3ab	-0.0031845372
102	0x3b6239e0	0.003451936
103	0xbb76400b	-0.0037574794
104	0x3cb1d338	0.021707162
105	0x3b12a67d	0.0022377067
106	0x3c1eceff	0.009692906
107	0x3c6b86b9	0.014375382
108	0x3c0aae70	0.008464441
109	0x3bd461ea	0.006481399
110	0x3b0400ca	0.0020142072
111	0xbb7d1e98	-0.0038622972
112	0x3c852868	0.016254619
113	0x3ae43c8c	0.0017413064
114	0x3baee114	0.00533689
115	0x3b60b2ee	0.0034286338
116	0xb95275d0	-0.00020071049
117	0xbb6c7511	-0.003608052
118	0x3c88e5a6	0.016711067
119	0x3bb90404	0.0056462307
120	0x3c3548be	0.011064706
121	0x3ac74f61	0.0015206152
122	0xbc9f96bd	-0.019481057
123	0x3c1ac228	0.0094457045
124	0x3a292552	0.00064523995
125	0xbb7c8cb7	-0.003853602
126	0x3bf3236c	0.007419994
127	0xbb87669e	-0.004132106
128	0xbc8f8ffe	-0.017524716
129	0x3a9a2b51	0.0011762177
130	0xbc5c981a	-0.013463998
131	0x3d0fa8f5	0.03507324
132	0x3beaf73a	0.007170585
133	0x3cc596f0	0.024119824
134	0x3c8967be	0.016773101
135	0xbbf9b6d2	-0.007620671
136	0xbbef6c2c	-0.0073065963
137	0x3bd1856b	0.0063940785
138	0xbaf88317	-0.0018959966
139	0xbb320149	-0.002716141
140	0x3ac785bc	0.0015222351
141	0xbcc83e66	-0.024443816
142	0x3c2ae281	0.010429979
143	0xbb49ce6a	-0.0030793198
144	0xbb55a6cc	-0.003260064
145	0x3c07dc0d	0.00829221
146	0xbb935d19	-0.004497182
147	0xbc550733	-0.013002205
148	0xbc9a2767	-0.018817617
149	0xbb84115b	-0.0040303892
150	0x3cc6d6be	0.024272319
151	0xbc4db216	-0.012554666
152	0xbcc11060	-0.023567379
153	0x3b14950c	0.0022671847
154	0x3c21ef06	0.009883648
155	0x3bbea063	0.0058174594
156	0xbc2580a5	-0.010101472
157	0x3c0b61cd	0.008507204
158	0xbc5206b3	-0.01281898
159	0xbb9158ab	-0.004435619
160	0x3be93a9e	0.0071175834
161	0x3c70d172	0.014698373
162	0x3c2c20cc	0.010505866
163	0x3d01f69b	0.031729322
164	0xba7615c3	-0.0009387398
165	0xba974288	-0.0011540214
166	0x3a117401	0.0005548597
167	0x3c23f268	0.010006525
168	0xbb64d334	-0.0034915926
169	0xbbbd8faa	-0.0057849484
170	0x3c0f457b	0.008744593
171	0x3c34fe07	0.011046893
172	0xbcf393dc	-0.02973359
173	0x3d1d81d5	0.038453896
174	0x3be2d085	0.00692183
175	0xbc1b1051	-0.009464339
176	0xbd240ea8	-0.04005304
177	0x3c7b92c9	0.0153548205
178	0x3b83e0e0	0.00402461
179	0x3c16fd85	0.009215717
180	0x39f5a078	0.000468496
181	0x3b16718c	0.0022955863
182	0xbd00d311	-0.03145129
183	0xbcca6037	-0.024704082
184	0x3b0e85b4	0.0021747174
185	0xbcb5d5b4	-0.022196628
186	0xbb80eb23	-0.0039342805
187	0x3a85bdc7	0.0010203653
188	0x3c63e3d1	0.013909296
189	0x3b664d19	0.0035141169
190	0x3ba8de71	0.00515347
191	0xbc137b38	-0.009001546
192	0xbbd6c937	-0.0065547484
193	0x3ca8b6e3	0.02059502
194	0x3b271cfd	0.0025499456
195	0xbb6f4165	-0.0036507484
196	0x3d27cf2f	0.04096907
197	0x3d0a1783	0.03371383
198	0xbcaa573e	-0.020793553
199	0x3bcbc574	0.0062186066
200	0x3bdf6c46	0.006818327
201	0x3c0f16dd	0.008733478
202	0xbd394427	-0.04523101
203	0xbc837c1d	-0.016050393
204	0xbbbd59cf	-0.0057785283
205	0x3c80c498	0.015718743
206	0x3c7c13f7	0.015385619
207	0xbc9f1db9	-0.019423353
208	0xbb851f8d	-0.004062599
209	0x3c333004	0.010936741
210	0xbb4b7c5e	-0.003104947
211	0xbbd7fe5f	-0.0065916027
212	0x3c60cd97	0.013720891
213	0xbcd053dd	-0.025430614
214	0xb9c28b85	-0.00037106514
215	0x3d20b7ce	0.03923779
216	0xbc15bdf8	-0.00913953
217	0x3c8f940d	0.01752665
218	0x3b696cfe	0.0035617943
219	0x3cb52ea4	0.022116967
220	0x3c3e50cf	0.011615946
221	0xb90bb2a5	-0.00013322623
222	0x3cb5f108	0.02220966
223	0xbc4bac1b	-0.01243117
224	0xbabb8e4d	-0.0014309377
225	0x3c05d83f	0.008169233
226	0x3b53ce69	0.0032319075
227	0xbb16c4f3	-0.0023005574
228	0x3bf271ff	0.0073988433
229	0x3c335759	0.010946118
230	0xbb5df65c	-0.0033868765
231	0x3c107ea8	0.00881926
232	0xbd0992fd	-0.033587445
233	0xba866901	-0.0010254682
234	0x3d2397da	0.03993974
235	0x3bbd0539	0.005768445
236	0x3c2bfe77	0.010497681
237	0x3c7827e1	0.015146227
238	0x3c8c9b6b	0.017163953
239	0x3d02d83f	0.03194451
240	0x3c979e60	0.018508136
241	0x3c8a796e	0.016903605
242	0x3c55def7	0.013053647
243	0x37943104	1.76658e-05
244	0xbc3a96fb	-0.011388536
245	0x3d1fcfa1	0.03901637
246	0xbc0dc0ec	-0.008651953
247	0x3b3ba0e1	0.0028629827
248	0x3996e411	0.00028780152
249	0xbd0622a3	-0.032747876
250	0x3bee6fd6	0.0072765155
251	0x3c845e24	0.016158171
252	0xbc4a3c7a	-0.01234352
253	0x3a47e1cd	0.00076248945
254	0x3ca6f680	0.020381212
255	0x3b19e5f6	0.0023483015

action_model._discrete_distribution.branches.0.weight f4 [2, 256]
0	0x3c0f94ea	0.008763531
1	0xbc22996e	-0.009924276
2	0x3b4253b0	0.0029651932
3	0xbc98d7b1	-0.018657537
4	0xbd0c7acd	-0.0342968
5	0xbb8a1055	-0.0042133727
6	0xbcb18ccc	-0.021673582
7	0x3b66ac67	0.0035197975
8	0xbbd16bef	-0.0063910405
9	0xbb8edb00	-0.004359603
10	0x3b8f8c0c	0.0043807086
11	0xbbb22115	-0.0054360726
12	0xbc197903	-0.00936723
13	0x3b96164b	0.0045802942
14	0x3aef4928	0.0018256055
15	0xbc409e22	-0.011756452
16	0x3c8ddca1	0.017317118
17	0xbc454f49	-0.012042829
18	0xbc433cbe	-0.011916338
19	0xbb3d87e1	-0.0028920101
20	0xba198a23	-0.0005857071
21	0xbd6ec2b4	-0.058291152
22	0xbc29a107	-0.010353333
23	0xbd5253ca	-0.05134944
24	0xbc945d53	-0.018110907
25	0x3abd11fd	0.0014424917
26	0x3b871231	0.0041220416
27	0x3c61e6d1	0.013787941
28	0x3ae7baef	0.0017679612
29	0x3c6f351e	0.0146000665
30	0xbd186813	-0.037208628
31	0xbd307c9f	-0.043087598
32	0xbd2433d2	-0.040088482
33	0x3bfced19	0.007718694
34	0x3d072c8e	0.033001475
35	0xbb7bec0c	-0.0038440255
36	0xbd09e3e9	-0.033664618
37	0xbc78abef	-0.015177711
38	0xbd51e1e0	-0.0512408
39	0x3b9d0a70	0.004792504
40	0xba42ae43	-0.000742648
41	0xbd0a1308	-0.033709556
42	0x3cbe7961	0.023251237
43	0xbc72f6ea	-0.014829377
44	0xbbe6e38f	-0.00704617
45	0xbc903a29	-0.017605858
46	0x3c74de24	0.014945541
47	0xbb858048	-0.00407413
48	0x3cde6d5e	0.02715176
49	0xbaa11daf	-0.0012292172
50	0xbc8dac6c	-0.017294131
51	0x3b48a0ae	0.003061335
52	0xbc39f97c	-0.011350986
53	0xbc8c9740	-0.017161965
54	0xba5a6939	-0.00083317194
55	0x3d633e22	0.055479176
56	0x3b89b894	0.0042029116
57	0x3be08f42	0.006853015
58	0xbba3e7f8	-0.005002018
59	0x3b43af4c	0.0029859124
60	0x399580f5	0.00028515575
61	0x3b9ee221	0.004848734
62	0x3b128c57	0.002236148
63	0x39c7ec5a	0.00038132333
64	0xbc2283b4	-0.009919096
65	0x3cab3b43	0.020902282
66	0x3b3d2e87	0.0028866844
67	0xbc36dc51	-0.011160926
68	0xbbe30a51	-0.00692872
69	0x3d131d28	0.035916477
70	0xbba87289	-0.005140607
71	0x3b39be22	0.0028342088
72	0xbb7c0945	-0.0038457674
73	0xb9864b12	-0.00025614403
74	0xbc6b7615	-0.014371415
75	0xbbd919fe	-0.006625413
76	0xbc4df0b1	-0.012569592
77	0xbb11bb25	-0.002223679
78	0x3b2cd482	0.0026371782
79	0xbc4442e6	-0.01197884
80	0x3938e75a	0.00017633793
81	0x3d49b737	0.049246993
82	0xba9362f8	-0.0011244705
83	0x3d874374	0.066046625
84	0x3b9c0c42	0.0047622034
85	0xbb21558f	-0.0024617647
86	0xbc7cc8d7	-0.015428743
87	0xbc44bc14	-0.012007732
88	0xbcd24b55	-0.025670687
89	0x3c26a8b5	0.010172059
90	0xbce79ff3	-0.028274512
91	0xbc644f93	-0.013934988
92	0xbbf35b2d	-0.0074266405
93	0x3becca24	0.0072262455
94	0xbbeed3d7	-0.007288437
95	0x3c744590	0.014909163
96	0x3979e476	0.00023831599
97	0x3c444a23	0.011980566
98	0x3b7be689	0.003843697
99	0xbbfa966e	-0.007647327
100	0xbc794e89	-0.015216478
101	0x3b6f63d0	0.0036527999
102	0x3a44bba0	0.0007504765
103	0xbbbe9e41	-0.005817205
104	0xba0ef757	-0.00054537266
105	0x3b11d40b	0.0022251632
106	0x3be5c63e	0.0070121577
107	0x3c998de0	0.01874441
108	0x3cdfef97	0.027335925
109	0x3af8e1c0	0.0018988177
110	0xba1a7a78	-0.0005892883
111	0x3b528a72	0.0032125977
112	0xbd3d9e12	-0.046293326
113	0x3bed706d	0.007246068
114	0xbcba8b61	-0.02277154
115	0xbb530238	-0.0032197367
116	0xbc15ac45	-0.009135311
117	0x3bd15349	0.006388102
118	0xbd329cc2	-0.043606527
119	0x3b665a5d	0.0035149076
120	0x3bd64ae8	0.0065396912
121	0xbb487ccf	-0.003059197
122	0xbcaa3541	-0.020777347
123	0x3c96ae7f	0.018393753
124	0xbc032396	-0.00800409
125	0xbc0fdd4c	-0.008780789
126	0x3c675b01	0.014120818
127	0x3bb595f1	0.005541556
128	0xbbe7320f	-0.007055528
129	0xbba2fdaa	-0.004974087
130	0xbaec462a	-0.0018026282
131	0xbca87d3b	-0.020567527
132	0xbc09c394	-0.008408446
133	0xbb37e2d2	-0.002805878
134	0xbaaa1176	-0.0012975174
135	0x3b5123bc	0.0031912168
136	0xbadd7a23	-0.0016897361
137	0x3c4d5bdb	0.012534107
138	0xba6ebe2e	-0.00091073185
139	0xbb35afff	-0.002772331
140	0x3c317c97	0.010832927
141	0xbb02376e	-0.0019869464
142	0xbb748e2c	-0.0037316186
143	0xbbbfb8b7	-0.005850877
144	0x3b8f8301	0.0043796306
145	0xbc3ed77e	-0.011648057
146	0xbb176c97	-0.0023105496
147	0x3b7d62ad	0.0038663552
148	0xbc3e1246	-0.011601036
149	0xbc51d5ff	-0.012807368
150	0xbd177595	-0.03697737
151	0x39b1bb90	0.00033899816
152	0xbbde004d	-0.006774938
153	0xbc740c1e	-0.014895467
154	0xbab10588	-0.0013505677
155	0x3c8aa3b7	0.016923768
156	0xbc79927a	-0.015232677
157	0x3ce52e3e	0.027976152
158	0x3b78b124	0.003794738
159	0xbcb34f16	-0.021888297
160	0x3b9ae19b	0.0047266013
161	0x3d1ca5cc	0.038244054
162	0x3bc4ed58	0.006009739
163	0xbcab6422	-0.02092177
164	0x386d78ac	5.6617588e-05
165	0x3b9def9a	0.0048198225
166	0xbbf94bc0	-0.007607907
167	0xbc1f2704	-0.009713892
168	0x3b0c9b02	0.0021454697
169	0x3c6ea2d6	0.01456519
170	0xbd3d6f6b	-0.046248835
171	0x3c38418e	0.011246098
172	0xbc72d121	-0.014820368
173	0xbc3f37ac	-0.011670988
174	0x3827bfa7	3.9994393e-05
175	0x3a81dc75	0.000990762
176	0xbc94813d	-0.018128032
177	0xbc1514b9	-0.009099179
178	0xbb21bd85	-0.0024679613
179	0x3bda5cc4	0.0066638906
180	0x3a63f75f	0.0008696224
181	0xbc665b5c	-0.014059868
182	0xbc53deae	-0.012931509
183	0xbb4b12b9	-0.0030986501
184	0xbbadbcfc	-0.0053020697
185	0xbc2ad981	-0.010427834
186	0xbc284173	-0.010269511
187	0x3b0359e4	0.0020042593
188	0x3b1f9316	0.0024349145
189	0xbb81bb6a	-0.003959109
190	0xbc5be94f	-0.013422324
191	0x3b207bf9	0.0024487956
192	0xbb064ed5	-0.0020493765
193	0xbd27825e	-0.040895812
194	0xbc274846	-0.010210102
195	0xbb17c57e	-0.0023158486
196	0xbcff9147	-0.031197203
197	0xbda18d74	-0.07888308
198	0xbc631241	-0.013859333
199	0x3c0d80ce	0.008636666
200	0x3c740da6	0.014895832
201	0xbcf1547f	-0.029459236
202	0xbc85a7c3	-0.016315347
203	0xbc03c426	-0.008042371
204	0x3b842626	0.004032868
205	0xbd04342a	-0.03227631
206	0xbd150c10	-0.036388457
207	0xbc26769f	-0.010160117
208	0xbc88cc28	-0.016698912
209	0x3b3ff6bb	0.002929135
210	0x3ba2b478	0.004965361
211	0xbb925ebe	-0.0044668606
212	0xbc94be94	-0.018157281
213	0x3bd73c6b	0.0065684817
214	0x3c407d0c	0.0117485635
215	0x3d604b17	0.05475911
216	0x3c9b24b0	0.018938392
217	0x3c8519c6	0.016247641
218	0x3bd165df	0.006390318
219	0xbd233117	-0.039841738
220	0xbbd313d5	-0.006441573
221	0x3a2fbf84	0.0006704258
222	0xbd4c82bb	-0.04992936
223	0xbb826b04	-0.0039800424
224	0xb9c7ad39	-0.000380853
225	0xbc8a1384	-0.016855009
226	0x3bce5c1a	0.0062976005
227	0x3afe98cc	0.0019424199
228	0x3c7eb140	0.015545189
229	0xbd1f5b3c	-0.038905367
230	0x3bc780c3	0.0060883476
231	0xbc60226d	-0.013680083
232	0xbc2f4f98	-0.010700129
233	0xbb681e6a	-0.0035418519
234	0xba02c9be	-0.00049891684
235	0x3998f630	0.00029175123
236	0xbc0c9aa3	-0.00858179
237	0xbb7a3afc	-0.003818213
238	0x3c9f8af4	0.019475438
239	0x3d59db60	0.053187728
240	0xbd0fec84	-0.03513767
241	0x3d27af9c	0.04093896
242	0xbc12980e	-0.0089473855
243	0xbc0e21b0	-0.008675024
244	0x3b8dccdc	0.0043273997
245	0x3c429874	0.011877168
246	0xba35aa36	-0.00069299655
247	0x3c08e9e0	0.008356541
248	0xbba2b6b8	-0.0049656294
249	0xbc3a0567	-0.011353827
250	0xbd0a35d4	-0.03374274
251	0x3c5a8a16	0.013338586
252	0x3ac13e88	0.0014743367
253	0x3bb6eeff	0.00558269
254	0xbcba95a2	-0.022776429
255	0xbc9d79ec	-0.019223176

action_model._discrete_distribution.branches.0.bias f4 [2]
0	0x3b8350fc	0.004007457
1	0xbb8350fe	-0.0040074578

action_model._discrete_distribution.branches.1.weight f4 [3, 256]
0	0x3a7419da	0.00093117135
1	0x3ba52337	0.0050395983
2	0x3aa52072	0.001259817
3	0xbb3b201c	-0.0028553074
4	0xba808e10	-0.0009807963
5	0xbc82b773	-0.015956616
6	0xba2ef7d0	-0.00066745
7	0xbc166b72	-0.00918089
8	0x3c61802e	0.013763471
9	0x3b2a13d7	0.0025951767
10	0xbadcfd82	-0.0016860219
11	0xbaedc5a3	-0.0018140565
12	0x3c9fbf79	0.019500481
13	0x3c084b81	0.008318783
14	0x3cc60462	0.024172012
15	0xbc6c6786	-0.014428979
16	0x3c20ed2e	0.009822173
17	0xb95db599	-0.00021143853
18	0x3b109f11	0.0022067467
19	0x3c73d15e	0.01488146
20	0x3bb6d6c3	0.005579801
21	0x3bfe8733	0.007767582
22	0x3c13efa6	0.009029305
23	0xba5cfe2b	-0.0008430208
24	0x3cab480b	0.020908376
25	0x3c21cc14	0.009875316
26	0x3bc8118d	0.006105608
27	0xba8ca4be	-0.0010730249
28	0xbc86d0e9	-0.016457038
29	0xbc2a3ce8	-0.010390498
30	0x3a526297	0.0008025555
31	0x3c7ad6b5	0.015309979
32	0xbbbf2dc1	-0.0058343117
33	0xbc081108	-0.008304842
34	0xbc104af5	-0.008806934
35	0xbbc78d14	-0.006089816
36	0x3ba340bf	0.0049820836
37	0x3c1fe53e	0.009759245
38	0xb99dfbea	-0.00030133064
39	0xbc0fd432	-0.008778619
40	0x3bb089aa	0.0053875046
41	0xbaf7ca47	-0.0018904888
42	0xbc4cea74	-0.01250707
43	0x3c626901	0.01381898
44	0xbb11b1cc	-0.002223122
45	0x3c720722	0.014772208
46	0xbbd64097	-0.0065384614
47	0x3c12696c	0.008936267
48	0xbb37848f	-0.0028002595
49	0x3bc4bbf0	0.006003849
50	0x3c16a528	0.00919465
51	0x3ae6e9ff	0.0017617344
52	0x3c71c7eb	0.014757137
53	0x3b875ab1	0.0041306843
54	0x3af5d4a4	0.0018755388
55	0xbb40f24b	-0.0029441293
56	0xbbc98d7b	-0.006150899
57	0xbc144680	-0.009050012
58	0xbb98d03c	-0.0046634953
59	0x3b8833d5	0.0041565695
60	0xbb8dbb5c	-0.0043253135
61	0xbb1ec9df	-0.0024229211
62	0xbcf19325	-0.02948911
63	0xba558cbc	-0.0008146276
64	0x3bc8bb47	0.006125841
65	0xbac90f0f	-0.0015339571
66	0x3b649952	0.0034881425
67	0xbc29d751	-0.010366277
68	0x3b01541b	0.0019733969
69	0xbbd7932a	-0.0065788226
70	0x3b51a558	0.0031989422
71	0xbba297bb	-0.0049619353
72	0x3c47fc0e	0.012206091
73	0xbbc6cdf5	-0.0060670325
74	0x3c24141b	0.010014559
75	0x3bce655d	0.0062987045
76	0xbb5ee461	-0.0034010636
77	0xbb6991d8	-0.0035639908
78	0x3bba17ed	0.0056791217
79	0x3c71911a	0.014744068
80	0x3bcb8cda	0.006211859
81	0xbc555dc9	-0.013022848
82	0x3a97836a	0.001155955
83	0xbb27083b	-0.0025487083
84	0xbb1a54ab	-0.0023549001
85	0x3977e913	0.00023642583
86	0x3b9b2209	0.004734282
87	0x3c777fdb	0.015106167
88	0x3cec7cfe	0.028868195
89	0xbc38f9cb	-0.011290024
90	0x3c87f8c0	0.016598105
91	0x3c1028b9	0.008798772
92	0x3c81e4bb	0.015856137
93	0xbbbad016	-0.0057010753
94	0x3c3063be	0.010765968
95	0x3bc3f10e	0.0059796637
96	0x3c1c1f32	0.009528922
97	0xbc148ebc	-0.009067234
98	0x3c5bfaca	0.013426492
99	0x3b28e463	0.0025770895
100	0x3b682ce1	0.003542714
101	0x3bab49ef	0.0052273194
102	0x3bc1bced	0.0059124143
103	0xbc0edf99	-0.008720302
104	0xbc577a2e	-0.0131516885
105	0xbb3107dd	-0.0027012744
106	0xbcb9bb49	-0.022672312
107	0x3c1decb5	0.009638955
108	0x3b6a524c	0.003575462
109	0xbba46e16	-0.005018006
110	0x3baa5841	0.005198509
111	0x3b3b9400	0.002862215
112	0x3ab12bdf	0.0013517103
113	0xbb4ba341	-0.0031072649
114	0x3baf3ef9	0.005348083
115	0xbc5258ef	-0.012838586
116	0xbc331195	-0.010929485
117	0x3c380d19	0.0112335915
118	0x3c2adef2	0.010429131
119	0xbc265663	-0.010152432
120	0x3afccc6c	0.0019286997
121	0xbc674335	-0.0141151445
122	0x3c59b728	0.013288297
123	0xbc369e20	-0.011146098
124	0xbaf00340	-0.0018311515
125	0x3acd634f	0.0015669855
126	0xbc62cc2a	-0.013842622
127	0xbbaaf9ab	-0.005217751
128	0xb9ef53e5	-0.0004564814
129	0xbb8eab52	-0.004353919
130	0x3c6c730a	0.014431724
131	0xbb7bf58e	-0.0038445923
132	0x3ad707cc	0.0016405522
133	0xbcb31ee1	-0.02186531
134	0xbc10c5ab	-0.00883619
135	0x3b587a2f	0.0033031811
136	0x39defcb5	0.0004253142
137	0xbbff5218	-0.0077917688
138	0xbbec0b16	-0.00720347
139	0x3ab26076	0.001360907
140	0x3c272fce	0.010204269
141	0x3c673666	0.014112091
142	0xbb0963b4	-0.0020963969
143	0x387d7bb8	6.0435123e-05
144	0xbb4c7b64	-0.0031201476
145	0xbc81debd	-0.01585328
146	0x3a703d7f	0.0009164437
147	0x3bdee792	0.0068025077
148	0x3c3c08e1	0.011476726
149	0xbbccd2c2	-0.00625071
150	0x3b36847b	0.002784996
151	0x3b344b0b	0.002751055
152	0x3c636f93	0.013881582
153	0xbbe7310c	-0.0070554074
154	0xbc54298e	-0.012949361
155	0xbb9a9e2a	-0.0047185617
156	0x3cbef4e4	0.023310132
157	0xbc123018	-0.008922599
158	0x3c50ec57	0.01275166
159	0x3c8b9557	0.017038984
160	0xbb435c9a	-0.0029809834
161	0xbc06179d	-0.008184341
162	0xbc53ad9a	-0.012919808
163	0xbc1d3746	-0.009595698
164	0xba27a68e	-0.0006395363
165	0x3c2a2011	0.010383622
166	0xbc8cac60	-0.017172039
167	0x3c8785af	0.016543237
168	0x3b678dd1	0.0035332332
169	0x3bb7bfbc	0.0056075733
170	0x3bfd2cf0	0.0077263042
171	0xbc95a97d	-0.018269295
172	0x3c3cd47e	0.011525271
173	0xbcc5f5e3	-0.0241651
174	0xbb2a3e0f	-0.0025976931
175	0xba467492	-0.0007570471
176	0x3c31fda3	0.010863694
177	0x3b94ae26	0.0045373617
178	0x3bd4cf4e	0.006494439
179	0xbc6edcad	-0.01457898
180	0xbba064fb	-0.0048948503
181	0x3ab7257e	0.0013972966
182	0x3c6c6109	0.014427432
183	0x3c497ebf	0.012298285
184	0x3c7f8a9b	0.015597011
185	0x3c1c086e	0.009523494
186	0x3c78fdc5	0.015197222
187	0xbb922510	-0.0044599846
188	0xbc8185b9	-0.015810834
189	0xbc682209	-0.014168271
190	0x3a9c3fcd	0.001192087
191	0x3b9ae410	0.004726894
192	0x3baee52b	0.0053373775
193	0x3c971e8c	0.018447183
194	0xbb8a98e9	-0.004229654
195	0xbc2344b3	-0.00996511
196	0xbc7f619a	-0.015587235
197	0xbc85b6fe	-0.016322609
198	0x3cbe3fd0	0.023223788
199	0xbc1e9cb5	-0.009680917
200	0xbbb5d128	-0.005548615
201	0xbc0f12ad	-0.00873248
202	0x3c12161c	0.008916404
203	0x3bc2516d	0.005930117
204	0xbbbacb99	-0.0057005403
205	0xbb2f2a67	-0.0026728155
206	0x3ca93a08	0.020657554
207	0x3ca057ef	0.01957318
208	0xbba92ada	-0.005162579
209	0xbb221d0f	-0.0024736559
210	0x3b785da3	0.0037897609
211	0xbb4f015e	-0.0031586508
212	0xbb9e91eb	-0.004839172
213	0x3cb370f7	0.021904452
214	0x3baa8203	0.005203487
215	0xbc82ddc0	-0.01597488
216	0xbb58a6c2	-0.003305838
217	0x3b9b3375	0.0047363588
218	0xbb44ffef	-0.0030059775
219	0xbbd9fb84	-0.0066522975
220	0xbc2be7f1	-0.010492311
221	0xbb658124	-0.00350196
222	0xbcae7fbc	-0.021301143
223	0x3bd5f495	0.0065294006
224	0xbaf43293	-0.0018630795
225	0xbc17d54f	-0.009267165
226	0xbbf514e9	-0.0074792993
227	0x3ac3f324	0.0014949781
228	0xbbbe0a88	-0.0057995953
229	0x3c879f92	0.016555581
230	0xbbe58541	-0.0070044105
231	0xbc274027	-0.010208166
232	0x3ca2fa7a	0.019894827
233	0xbc3763f8	-0.011193268
234	0xbcbe342f	-0.023218242
235	0xbba95df6	-0.0051686717
236	0x39e32328	0.00043323007
237	0x3b293861	0.0025820958
238	0xbbb2ad1c	-0.005452765
239	0xbc9569d8	-0.018238947
240	0x3c3fb8f0	0.011701807
241	0x3c2cac80	0.010539174
242	0xbbb89e68	-0.005634118
243	0xbbea0e95	-0.0071428516
244	0xbb024261	-0.001987599
245	0xbc4edcd5	-0.012625893
246	0xbb20fff6	-0.0024566627
247	0xbb95a09d	-0.0045662657
248	0xbb8ff199	-0.0043928144
249	0x3ce00f4c	0.027351044
250	0xbbcab101	-0.0061856513
251	0xbc6d60c2	-0.014488401
252	0x3beb3d01	0.007178903
253	0x3addadbe	0.0016912741
254	0x3a803807	0.0009782322
255	0x3b4c52a9	0.00311772

action_model._discrete_distribution.branches.1.bias f4 [3]
0	0xbc706095	-0.014671464
1	0x3b766ba8	0.003760079
2	0x3c233710	0.009961858

action_model._discrete_distribution.branches.2.weight f4 [2, 256]
0	0xbc761b0b	-0.015021096
1	0x3cb3c75a	0.021945644
2	0xb9cbba37	-0.00038857918
3	0x3bee5641	0.007273466
4	0x3baa73bf	0.0052017863
5	0x3b88a787	0.0041703614
6	0x3bb30c7d	0.005464135
7	0xbbea4de8	-0.0071504004
8	0xbbdf8772	-0.0068215663
9	0x3bc13571	0.0058962633
10	0xbbd52e8d	-0.0065057934
11	0x3bebf5aa	0.0072009163
12	0x3997cb9d	0.00028952668
13	0x3b86da7f	0.0041154022
14	0x398dfb92	0.0002708105
15	0xb99041c7	-0.00027514828
16	0x3c0d7802	0.008634569
17	0x3b3b5470	0.0028584264
18	0xb9e06478	-0.00042799464
19	0xb9b49ea9	-0.00034450486
20	0xbab8b967	-0.001409334
21	0x3a6e5ca4	0.0009092784
22	0x3b48b7bc	0.0030627092
23	0x3bf89a21	0.007586733
24	0x3c86af50	0.016441017
25	0xbcb829d2	-0.022480879
26	0xbbced6c6	-0.006312224
27	0x3b9610e3	0.00457965
28	0xbbdb06ef	-0.006684176
29	0xbb1e3ba1	-0.0024144428
30	0xbc2a2cd4	-0.010386664
31	0x3bbf079c	0.0058297645
32	0xbbd5747b	-0.0065141297
33	0x3b11d541	0.0022252353
34	0xbc0e28be	-0.008676706
35	0xbc4be46a	-0.012444595
36	0xbb606104	-0.0034237513
37	0xbc6c286f	-0.014413937
38	0x3baff9c6	0.0053703515
39	0xbc3ee19c	-0.011650469
40	0xbc6ff710	-0.014646307
41	0xbc3db387	-0.011578447
42	0x3cfa7e3f	0.030577777
43	0x3c1973ab	0.009365956
44	0xbc861753	-0.016368544
45	0xbc10e148	-0.008842774
46	0x3d363c32	0.044491
47	0xbc1dfa3c	-0.00964218
48	0x3c3ffcfa	0.011718029
49	0x3afbbf33	0.0019206762
50	0x39b4a766	0.00034456997
51	0xbb22ace9	-0.00248223
52	0x3bcfeddd	0.006345494
53	0xbc2af272	-0.01043378
54	0x3c54df5c	0.012992706
55	0xbb92a768	-0.004475523
56	0xbc12f3c3	-0.00896925
57	0x397fb559	0.00024386252
58	0xbc07f0bd	-0.008297143
59	0xbba10236	-0.0049135936
60	0xbbd0d325	-0.0063728266
61	0xbb3920ad	-0.0028248236
62	0x3c49432f	0.012284084
63	0x3c3637d2	0.011121707
64	0x3cb3cb56	0.021947544
65	0x3a08bea7	0.00052163977
66	0xbbd9d90c	-0.0066481885
67	0xbc28d811	-0.0103054205
68	0x3b5da4f9	0.0033820255
69	0x3c63cd8b	0.013903986
70	0x3ad69622	0.0016371647
71	0xb9ebd95e	-0.00044984644
72	0xbbd33b2f	-0.006446264
73	0xbb203e9d	-0.0024451383
74	0x3916e63a	0.00014390881
75	0xbca4b302	-0.020104889
76	0x3b148901	0.0022664669
77	0xbc1656e8	-0.0091759935
78	0x3aa2cd79	0.0012420855
79	0x3ca5b4af	0.020227758
80	0xbb64a113	-0.0034886047
81	0xba8a1dd1	-0.001053745
82	0xbbd7d282	-0.006586374
83	0xbc026edc	-0.007961001
84	0x3c1374b3	0.008999991
85	0xbc114e3a	-0.008868748
86	0xbbb7bb4d	-0.005607045
87	0x3c862276	0.016373854
88	0x3c62565e	0.013814537
89	0x3bc9567c	0.006144343
90	0x3c7cd72d	0.015432161
91	0xbbaf2dde	-0.005346044
92	0xbb8c7756	-0.004286687
93	0xbb861f40	-0.0040930808
94	0x3c41c778	0.011827342
95	0xbc11f5d7	-0.00890871
96	0xbbbc97f1	-0.0057554175
97	0xbb3ab5ee	-0.0028489786
98	0x3c16c06d	0.009201151
99	0xbbcb2aca	-0.006200169
100	0x3c0baf9e	0.008525757
101	0xbb409ca4	-0.002939024
102	0xbb2981a4	-0.0025864625
103	0xbc0f5953	-0.008749324
104	0xbc0e0595	-0.008668323
105	0x3b5ca82e	0.003366958
106	0xbb02c95a	-0.001995644
107	0x3c50a1e1	0.012733907
108	0xbc4b17b5	-0.012395789
109	0x3c4f5e97	0.012656829
110	0xbbc671c4	-0.0060560424
111	0x3b550fcf	0.0032510643
112	0x3b7f29c2	0.0038934802
113	0x3aec763c	0.0018040608
114	0xbb3f65ac	-0.0029204888
115	0x3adb87be	0.0016748828
116	0x3bdd5deb	0.0067555807
117	0x3b60f0eb	0.0034323286
118	0x3ba50924	0.00503649
119	0xbc020154	-0.007934887
120	0xbbb39f78	-0.0054816566
121	0x3bc9dda9	0.006160457
122	0xbc5247a2	-0.012834461
123	0x3c373e0f	0.0111842295
124	0xb9e44869	-0.000435415
125	0xbbcfbb05	-0.006339433
126	0xbbcfb140	-0.0063382685
127	0xbba4e68b	-0.0050323657
128	0xbb7c10fd	-0.0038462274
129	0xbc6f76a5	-0.014615689
130	0x3a1e4c56	0.00060385966
131	0x3c8ae2fb	0.016953936
132	0xbc811dcc	-0.015761279
133	0x3cd86fa2	0.026420418
134	0x3a3341b2	0.00068380975
135	0x3c18a6d5	0.00931712
136	0x3c2af4a4	0.010434303
137	0xbb449688	-0.002999695
138	0xbb6afac1	-0.0035855027
139	0x3c75de95	0.015006681
140	0x3c9d4fc9	0.019203084
141	0xbb0286ec	-0.0019916845
142	0xb87c13f6	-6.0100072e-05
143	0x3a332f43	0.00068353507
144	0x3bb8ec7d	0.005643426
145	0xbb7986b6	-0.0038074679
146	0x3c3b3e52	0.011428433
147	0x3b3ce4d9	0.0028822927
148	0xbc075c5b	-0.008261765
149	0x3c20e6f1	0.009820686
150	0xbb97cf4c	-0.004632866
151	0xbab19787	-0.0013549187
152	0xbbcafa2b	-0.006194373
153	0xbc4c23c2	-0.012459697
154	0xbc84bf92	-0.01620463
155	0x3bd469d7	0.0064823437
156	0x3bdc00fe	0.0067139855
157	0xbc35655d	-0.01107153
158	0x3c824ab6	0.015904766
159	0xbbab3045	-0.00522426
160	0xba819936	-0.0009887579
161	0xbca33170	-0.019921035
162	0xbc16b322	-0.009197982
163	0xbc1e1d89	-0.009650596
164	0xbb7d0b1c	-0.0038611358
165	0xbc1c5438	-0.009541564
166	0xbbf52758	-0.007481497
167	0x3c799746	0.01523382
168	0x3bd24082	0.0064163813
169	0xbbfd576d	-0.007731369
170	0xbc6207f1	-0.013795839
171	0x3c9ec63f	0.01938164
172	0xba01b911	-0.00049485365
173	0x3bb28f86	0.0054492382
174	0xba772c97	-0.00094289467
175	0xbb972ff3	-0.0046138703
176	0xbb8b7315	-0.004255662
177	0x3be583a1	0.007004217
178	0xbc6cf1c0	-0.014461935
179	0xbc07de6b	-0.008292775
180	0xbb948a12	-0.004533061
181	0x3a475655	0.0007604112
182	0xbc93b66f	-0.018031327
183	0xbc42ae24	-0.011882339
184	0x3c2c5c1f	0.01052001
185	0xbbb4a513	-0.0055128424
186	0xbadc97eb	-0.0016829943
187	0x3ad4e938	0.0016243821
188	0xbb7a1299	-0.0038158058
189	0xbbc5f031	-0.006040596
190	0xba7cf428	-0.0009649419
191	0x3b87ccf0	0.0041443035
192	0x3bd58ccd	0.006517029
193	0x3c655296	0.013996741
194	0x3c122002	0.008918764
195	0xbb0e7259	-0.0021735637
196	0x3beafd58	0.007171314
197	0x3bafb9b1	0.0053627123
198	0xbca1aeb9	-0.019736635
199	0xbb50df7a	-0.0031871484
200	0x3a88683c	0.0010407041
201	0x3b9406b3	0.0045174
202	0xbad5738e	-0.0016285048
203	0xbb1330f0	-0.002245959
204	0x3c15a649	0.009133884
205	0x3c5623b3	0.013070035
206	0xb8df7ef7	-0.00010657118
207	0xbc507432	-0.012723016
208	0xbc2850d6	-0.010273179
209	0xbbee914f	-0.0072805057
210	0xbbacaff7	-0.00527
211	0x3b9be074	0.0047569815
212	0x3a2c481e	0.00065720256
213	0xbb6e76f7	-0.0036386827
214	0xbb8762d9	-0.0041316566
215	0x3c97e7be	0.01854312
216	0xbb1088f9	-0.0022054298
217	0xbc160925	-0.009157454
218	0xbb6e0e31	-0.0036324377
219	0x3c4e7eb9	0.012603455
220	0xbbb5b319	-0.0055450317
221	0xbc4fa688	-0.0126739815
222	0x3ba6c9f4	0.0050899927
223	0xbad448f3	-0.0016196057
224	0xbbf9a7eb	-0.0076188943
225	0x3c01e946	0.007929152
226	0x3c0c3b4c	0.008559059
227	0x3a8b2219	0.001061502
228	0xbaea38ad	-0.0017869674
229	0x3b25db12	0.0025307578
230	0xbc04726d	-0.008083922
231	0xbc2193b4	-0.009861875
232	0xbc145a22	-0.009054692
233	0xbb840155	-0.004028479
234	0x3b5bc7fb	0.0033535946
235	0xbafbf786	-0.0019223548
236	0x3c5d1aa4	0.013495121
237	0x3c3b9b0c	0.01145054
238	0x3bd204ed	0.0064092786
239	0x3bfb5226	0.007669705
240	0x3bd3eecb	0.0064676753
241	0x3c2f7632	0.010709332
242	0xbc6129a2	-0.013742836
243	0xbbd975fc	-0.0066363793
244	0xbb0d03ab	-0.002151708
245	0x3bb6fb53	0.0055841594
246	0xbc43dfac	-0.011955183
247	0x3a846747	0.001010158
248	0xbaa90afb	-0.0012896949
249	0xbc2d59d9	-0.010580503
250	0x3b88eb69	0.0041784537
251	0x3c2c3500	0.010510683
252	0x3b4128ab	0.0029473703
253	0x3b324f10	0.002720777
254	0xbabff071	-0.0014643801
255	0x3bc9c728	0.0061577745

action_model._discrete_distribution.branches.2.bias f4 [2]
0	0xbaa2f3ef	-0.0012432317
1	0x3aa2f3fb	0.0012432331
