results/boat-agent-ppo-60/boat/boat-6152306.onnx (onnx, 328993 bytes, 11 tensors)

discrete_act_size_vector f4 [1, 3]
00000000: 0000 0040 0000 4040 0000 0040
2.0 3.0 2.0

network_body._body_endoder.seq_layers.0.weight f4 [256, 47]
00000000: 443c 07be fab4 803e 3ef8 22be faec c73d
00000010: 8b60 1fbc 0f92 573c 3870 173d ebe4 07bd
00000020: 4559 603e 2126 053e dc4b a13d 3642 13be
00000030: 0f21 4a3e 966e 793d f994 a63e 9817 213e
00000040: dee2 93bc fabd 4a3e d37e e0bd 39ca 23be
00000050: 83c1 023d ff28 bc3c 09ed c73d ff88 4e3e
00000060: e23a 8d3e ad0d 39be ccfe 6a3e 865e 0dbe
00000070: 6b3d 403d 9194 093e 3bc8 a33c 1d11 45bd
00000080: 1765 9b3e 6af1 a03d f1fc 15bd 8c52 00be
00000090: 454a 5c3e 5906 993c 1860 27bd ffa9 e2bd
000000a0: e9c6 d43d c177 78bc 110e 38bd 3dae be3d
000000b0: 8ed8 c1bc 8a0a 033d 52ef 6d3e d26e 19bd
000000c0: 0c0d aabd 5a88 c13b 69b5 593d b197 91be
000000d0: 2688 5f3d 2695 05be 1a88 16be c557 423d
000000e0: 4b58 bfbd 5eea 17be db1f be3d e8ff 9dbe
000000f0: ab64 463e a513 8c3e be51 1b3e b9b2 4b3e
00000100: 353b cf3d 696f 95be 39de d4bc fbe3 eabe
00000110: 7462 03be 8219 15be dec9 18be 614b 083e
00000120: e1d2 00be 5cf9 8e3e 3e3b 41be 8cb1 34be
00000130: 83c8 38be b882 76bc ea02 623e 9ce3 103d
00000140: 21fc dabe 1457 133d 4f31 f5bd a554 1ebe
00000150: 62d9 b43d 97de 013e 6b39 253c 5f43 bebb
00000160: 9a43 bebd 68cf a7bd a7b4 8b3e a6ad 553d
00000170: d2b8 cbbe fab4 aabd d031 723c 0733 9f3c
00000180: c6db 1dbd f433 833e 0786 3b3c f03f 2f3d
00000190: 74a3 d33d 45a1 bd3e d7a2 573d 05d4 81bc
000001a0: a456 dfbd 0bcf 47bd e30b 933b ffdb 10bc
000001b0: dc0c 25be 9945 1cbe 0844 02be 513d 553e
000001c0: 558b 123d 9a51 47bd 5c29 3f3e 8904 773e
000001d0: 015d aabd 3353 94ba 4f98 043e 912a 6e3d
000001e0: a9dc 573e 903e 59be 1476 503e 8584 dcbd
000001f0: 88e8 01be 2953 4d3e 1caf 20be 5007 efbd
00000200: 49f1 883d 40bb 26be 44a1 6a3e 73a1 bf3d
00000210: 6125 223b ea8c f9bd 571e c03d 9988 13bd
00000220: dc0f e6bd f2f0 aa3d 0d25 cd3d d148 703e
00000230: 000e f3bd f464 ab3d 8117 803d 4101 6d3e
00000240: 3ee5 ebbd d608 86bd 7a1c e2bd 8b86 33be
00000250: 69d7 243e 700e 43be c91d 513d dcca a93d
00000260: 89a1 69bd 133f 69bd a331 00be cf07 b23e
00000270: 1567 8d3d 9575 4b3d 01ab 73be bc02 6d3d
00000280: 107e adbd edcf b13d 820b 863d 4f69 6b3e
00000290: 2788 2b3e 57b0 b0bb 919e babd 0fa6 a5be
000002a0: 09fc 423e ac21 663e 4dc1 5bbe 3cd7 973e
000002b0: 6b7b 8d3e 11ca 92bd d26e 513e abe2 d23d
000002c0: 37ac 343d cc99 cdbe 431a 1bbe 67ab 4e3e
000002d0: 9b2b 47bd 9d52 35be 9cdf 3c3e 3ccb 153e
000002e0: 1362 a1bd ad33 febe 49e6 7abe 35b4 ce3d
000002f0: 4e16 f8bd 48c6 32be 6c52 1f3d 1973 7fbd
00000300: d686 55bd ba14 8abc c09c f1bd 0b78 1b3e
00000310: 7518 db3d e117 0f3d 8909 b23d 086f 9f3d
00000320: 0a69 5d3e 32d2 3e3e cfad 65be cf04 18bc
00000330: d585 4abb 2375 f1bd ac8d c2bd b317 e8bd
00000340: 849c 523d 202b 06be 6fab a8be f72f 493d
00000350: f0b9 503e 37d8 92bc 17ef c3bc 760e 413e
00000360: bdf4 d2bc 946c da3c a73b e1bd 85ce 50bd
00000370: 0cd3 443d d770 88bd 3b45 85bd 1aad 643d
00000380: ecbf 8abd 817e d4bd 1ceb 0e3e 8462 523e
00000390: bd64 0d3d 3787 8a3e 3cf5 6f3e c87a 95bd
000003a0: 28ae 283d 9595 36be 4eb8 2bbe b6b8 4fbe
000003b0: 3155 41be b1ee 31be b3f1 8ebd 3239 7dbe
000003c0: cce8 853e 0f27 203d 9b39 4dbd d2ef 16be
000003d0: 6380 463e 6605 663d bee6 0d3e f0f1 693c
000003e0: 1f8d 293e c361 8d3c cada ebba a823 8abd
000003f0: 7bf1 ef3c 2560 9cbb 8fd7 453c 8d89 dc3c
-0.13206583 0.25138074 -0.1591501 0.097619966 -0.0097276075 0.013157382 0.036972255 -0.033177298
0.21909054 0.13002826 0.07875797 -0.14380726 0.19739173 0.06089648 0.32535532 0.15731657
-0.018052515 0.19799033 -0.1096169 -0.1599511 0.03192283 0.022968767 0.09762008 0.20169447
0.27583987 -0.18071623 0.2294876 -0.13805589 0.046933573 0.1343558 0.019992938 -0.048112024
0.30350563 0.07858546 -0.036618177 -0.12531489 0.21512707 0.018679785 -0.040863127 -0.110675804
0.103895016 -0.01516527 -0.04493529 0.09310577 -0.023662832 0.031992473 0.23235825 -0.037459202
-0.0830327 0.005906147 0.05315152 -0.28436044 0.0545732 -0.13045177 -0.14700356 0.047446985
-0.093430124 -0.14835498 0.0928342 -0.30859303 0.1937434 0.27358738 0.15167901 0.19892396
0.10118715 -0.29186562 -0.02598487 -0.4587706 -0.12830526 -0.14560512 -0.14920756 0.13310005
-0.12580444 0.2792462 -0.18870255 -0.17645854 -0.18045239 -0.015045814 0.22071424 0.035373315
-0.42770484 0.035971716 -0.119722955 -0.15461977 0.08830525 0.12682568 0.01008449 -0.005806371
-0.09290238 -0.081938565 0.27286264 0.052167557 -0.39789444 -0.083353 0.014782384 0.019433511
-0.03853967 0.25625575 0.011445529 0.042785585 0.103339106 0.370371 0.05264553 -0.01584817
-0.10905197 -0.048781436 0.004487501 -0.008841514 -0.16118187 -0.15260924 -0.12721264 0.20824172
0.03577741 -0.048661806 0.18668121 0.24122824 -0.0831852 -0.0011316299 0.12948726 0.058146063
0.21080269 -0.21215272 0.20357543 -0.107674636 -0.1268636 0.20051254 -0.15691799 -0.116713166
0.066866465 -0.16282368 0.2291308 0.09356966 0.0024741518 -0.1218508 0.09380787 -0.03601894
-0.11233494 0.08346738 0.100168325 0.23465277 -0.11867905 0.08368865 0.06254483 0.2314501
-0.11518334 -0.06544654 -0.11040588 -0.17531793 0.16097797 -0.19048476 0.051053796 0.082906455
-0.057038818 -0.056944918 -0.12518935 0.34771582 0.06904427 0.04967268 -0.23795702 0.057863936
-0.0847131 0.08682237 0.06545164 0.22989391 0.16751157 -0.005392115 -0.091122754 -0.32353255
0.19041456 0.22473782 -0.21460457 0.29656398 0.27633223 -0.07167447 0.20452431 0.1029714
0.04410955 -0.401564 -0.15146737 0.20182572 -0.04862557 -0.17707296 0.18444675 0.14628309
-0.07880034 -0.496488 -0.2450191 0.100929655 -0.12113629 -0.17458451 0.038896963 -0.062365625
-0.052130543 -0.016855586 -0.11797476 0.15182512 0.10698024 0.034934882 0.08693225 0.077848494
0.216221 0.1863487 -0.22429584 -0.00927849 -0.0030902524 -0.1178992 -0.09499678 -0.11332645
0.051418796 -0.13102388 -0.32943293 0.04911801 0.2038343 -0.017925365 -0.023917718 0.18853173
-0.025751466 0.026663102 -0.10997706 -0.050978202 0.048052832 -0.066621475 -0.06507345 0.055829145
-0.067748874 -0.10375691 0.13956875 0.20545393 0.0345199 0.27056286 0.23433393 -0.07298809
0.041181713 -0.17830499 -0.16769525 -0.20285305 -0.18880154 -0.1737621 -0.06979694 -0.2472885
0.26154172 0.03909975 -0.050103765 -0.14739922 0.19384913 0.056157492 0.13857552 0.014278874
0.1655774 0.01725853 -0.0017994281 -0.06745082 0.029289952 -0.0047722035 0.012075319 0.026921058

network_body._body_endoder.seq_layers.0.bias f4 [256]
00000000: 2888 2e3b 8a3c 41bc 53f1 eb3c 8674 49bc
00000010: a017 80bc ac3e 6c3d 5876 203c 1922 8ebb
00000020: 976a 11bd c2ad 323c 175b 24ba e377 b13b
00000030: 28ec 32ba f34f ae3b 259a eb3a d165 ce3b
00000040: ccfb dcbb 5786 963b a7a1 50bc a782 2b3b
00000050: 2aaa 72bc c87a ee3b 9439 f13b 9e80 a63b
00000060: 17bb 99bc eb34 35bd ef0b 97bb b4be 6d3c
00000070: 3c8e 84bb ecba b03c 19ad 9a3b 7fb8 9e3c
00000080: ea75 493b 57d8 e93c f5f7 183b d3d4 0bbd
00000090: 7eea f03c e26f c33c 4fb6 ce3c 00c8 df3b
000000a0: c417 2bbc c2bc b6bc e066 17bc 2a04 86bb
000000b0: 3526 2cbd 149f bdbc 4f98 ed3c 075d a6bc
000000c0: dfba 43bb e32f 483c 0bd2 2abc 8001 b8bc
000000d0: d61d e7bb 1537 bc3c 7e16 24bc 6afc 36bd
000000e0: eb44 e63c 82cc c03c 885f 03bc c096 b23c
000000f0: dff7 d63c 46ce 2a3d 7465 d73c 2901 05bd
00000100: f671 21bd 47c4 443c d92b 733b 011e 433b
00000110: 5da0 b63c 0f7d 63bc b963 d3bb 709f 65bc
00000120: e2eb 723d 168e 123c 3888 75bc 1738 7dbc
00000130: da32 1bbc 73c6 923c 5cff 0fbc 930a 293b
00000140: ed0b e4bc c643 05bb 9e9a f13b 6afb eb3c
00000150: c5f1 a93a 3e19 113d c935 b0ba 795e c9bb
00000160: 753b fabb d53e 38ba 7310 693c d3c3 dc3c
00000170: 77e9 9ebc bca3 14bd b77d c23c b18e 1d3d
00000180: 81d2 00bd d469 e83c d744 0bbd 6196 903c
00000190: 0832 203c 9741 06bc d36f 083d 9df9 e63b
000001a0: 8d5a 66bc 516e 1c3d 0c9c a2bb 1854 b53c
000001b0: 82c0 2d3c 8307 53bc 02cd 683b 0a71 73bc
000001c0: 894d dfb8 d397 76bb 8c54 51bc ce94 c4bc
000001d0: 0272 fcba 36be 263d 24e1 8bbc 8a74 483d
000001e0: badf 13bb 21a1 52bb 047b 3a3c 0a9d 39bc
000001f0: eea6 b53c c94c 38bc aabe 093d 93bb b83b
00000200: a929 8fbb 7d69 d9bc 9446 a9bb 5ab6 fd3b
00000210: 9c54 02bc b90a b23c 3d64 aa3b b6d3 12bc
00000220: 6f49 0dbc 95df 693b 568f a4bc 276a 6abd
00000230: e750 e93b 46b8 69bb 8269 313a 9a20 11bd
00000240: 8162 5d3c dc4b b13b b4e2 c7bc 9f7e 1dbd
00000250: da88 55bc 6ba5 923c a705 debc ea14 423c
00000260: acc7 39bc 5d04 743d c3c1 09bd d520 3dbc
00000270: 8cc3 f53c b29d a23c f105 083d 055f 66bc
00000280: fd1d a03c d59e 4fbd c747 cd3c e032 70bb
00000290: 0841 443d be83 db3c aced f13c 9c0a eb3c
000002a0: dfed ea3c 6ada 533a 0430 273d 0037 723b
000002b0: 63f5 91ba d9aa 83bc 278a 02bc 5e0a b4bc
000002c0: 377f 933c f7a2 7a3b 0862 fc39 3aa3 113d
000002d0: 6003 beba b311 57bd 11de bb3c c34c c6bc
000002e0: dd32 403c fcd6 5fbc 08a3 8fbc 09a4 703c
000002f0: 464f 103c 364a 383b 2da7 47bc 5efd 213d
00000300: 9b14 3f3d 367d 8fbb f9bb d0b9 ad89 2a3d
00000310: 0696 723b f99a 3fbc 63d4 a43b ccb3 ec3c
00000320: 1eb2 75bb c8fe 473c 3a29 35bc 8eef d8bc
00000330: 2659 98bb dba8 2dbc 7b37 4bba c9b3 053c
00000340: b372 01bd 3f25 27bc 912d 6e3c 9c38 22bc
00000350: 45e8 d73c e698 663c 7e5f 68bb 8e02 f7bb
00000360: 4b96 afbc 2e8c 4a3c 4c7e 993b cc8f 7b3c
00000370: 6c8f bcbb 2955 83bc 5047 eabc 254f 87bc
00000380: 740b b7bc 3c05 c43b 5238 7cbc 2591 0b3d
00000390: 9bd1 13bb 01b5 0abc 396e 62bc 94c7 ef3c
000003a0: 4f7a 653c b55a 46bc 9eab a8bc c868 2cbd
000003b0: 1b33 64bc fa22 38bc 41a2 d93a 283d a9bb
000003c0: 035c cb3c 4e80 0fbc 8216 29bc 1720 87bb
000003d0: ed6b 3c3d db80 daba 3b82 8a3c d92c 2ebd
000003e0: 13e1 12bd 66f5 423c 2211 243c d902 833b
000003f0: 1003 2abc a7bd 393c ebd5 e23b c686 08bd
0.0026631448 -0.011794219 0.028801596 -0.012295848 -0.015636265 0.057676956 0.00979384 -0.004337561
-0.035502043 0.010905685 -0.0006269677 0.005415903 -0.0006825351 0.0053195893 0.0017975016 0.0062987586
-0.0067438837 0.0045936513 -0.012733853 0.0026170404 -0.014811078 0.0072778203 0.0073616 0.0050812503
-0.01876597 -0.04423992 -0.004609577 0.014510799 -0.004045276 0.021573506 0.004720342 0.019375084
0.0030740448 0.028545542 0.0023341153 -0.034138512 0.02940869 0.02385706 0.025233416 0.006829262
-0.010442678 -0.022306804 -0.009240836 -0.004089852 -0.042028625 -0.023147143 0.02900329 -0.02030803
-0.0029866023 0.012218448 -0.010426055 -0.022461653 -0.0070531173 0.022975484 -0.010015128 -0.044674315
0.028109035 0.023535017 -0.008018382 0.021800399 0.026241241 0.041700624 0.026293494 -0.03247181
-0.039415322 0.012009687 0.0037104993 0.0029772522 0.022293264 -0.013884797 -0.006451097 -0.014015064
0.059306987 0.008945009 -0.01498609 -0.015455267 -0.009472573 0.017916894 -0.00878891 0.0025793656
-0.027837718 -0.0020334586 0.007373168 0.028806407 0.001296573 0.035424463 -0.0013443764 -0.006145295
-0.0076364824 -0.00070284057 0.014225113 0.026948845 -0.019398434 -0.03628896 0.023741586 0.03846616
-0.031450752 0.028370775 -0.034001198 0.017649831 0.009777553 -0.008194349 0.03330977 0.007048799
-0.014059675 0.038191143 -0.00496245 0.022134826 0.0106049795 -0.012880209 0.0035522585 -0.014858494
-0.00010647911 -0.0037627115 -0.012776505 -0.023996737 -0.0019260051 0.040708743 -0.017075129 0.048939265
-0.0022563771 -0.0032139497 0.011381868 -0.011328945 0.022174325 -0.011248776 0.033629097 0.005637595
-0.00436898 -0.026539559 -0.0051658843 0.0077426853 -0.007954743 0.021733629 0.0051999376 -0.008961609
-0.008623465 0.0035686244 -0.02008788 -0.05723014 0.00712024 -0.0035662814 0.0006767736 -0.035431482
0.013512255 0.0054106545 -0.024400093 -0.038450833 -0.013033116 0.017901143 -0.027102305 0.011845807
-0.011339109 0.059574474 -0.03363205 -0.011543472 0.03000047 0.019850586 0.03320879 -0.01406074
0.01954555 -0.050688583 0.02505864 -0.0036651418 0.04791358 0.026796218 0.029532276 0.028691582
0.028677879 0.00080815575 0.040817276 0.0036959052 -0.0011135753 -0.016072677 -0.007967508 -0.0219776
0.018004997 0.0038244107 0.00048138225 0.035556056 -0.0014496855 -0.052507114 0.022933038 -0.024206525
0.011730877 -0.013662096 -0.017533794 0.0146875465 0.008807963 0.0028120405 -0.012185854 0.03954827
0.04665051 -0.00437894 -0.00039812902 0.041635204 0.003701569 -0.011694663 0.0050302013 0.028894328
-0.00374902 0.012206741 -0.011057192 -0.026481416 -0.004649299 -0.01059934 -0.00077521027 0.00816054
-0.031603526 -0.010201751 0.014537231 -0.009901192 0.026355872 0.01407454 -0.0035457308 -0.0075381463
-0.02143397 0.012362523 0.004684245 0.015354108 -0.005754402 -0.016031818 -0.028598458 -0.016517231
-0.022344328 0.0059820693 -0.015394287 0.034073967 -0.0022555355 -0.008466006 -0.013820224 0.029269971
0.014006211 -0.012106587 -0.020589646 -0.042092115 -0.0139282 -0.011238808 0.0016604142 -0.005164761
0.024824148 -0.008758618 -0.010320308 -0.0041236985 0.046001364 -0.0016670482 0.016907802 -0.04252324
-0.03585918 0.011899328 0.01001385 0.003998142 -0.010376707 0.011336721 0.0069224737 -0.033331655

network_body._body_endoder.seq_layers.2.weight f4 [256, 256]
00000000: c8ee 353d 1ce5 75bd ba3b b1bd 9395 3c3d
00000010: 565b a6bc a40a c33d 9dcb cbbd 7bb5 e7bd
00000020: 6807 a63c 2aa4 4e3d a7fc 883d d636 92bd
00000030: b9fa 223e 73c4 6b3c 7bc4 4e3d 5af9 563d
00000040: faa7 b0bd 6fe6 bebc 005e 583d 281a bebb
00000050: 2723 2dbd 8c66 5a3d 98d9 133c 5798 0dbc
00000060: a224 86bc 06d0 7bbd 0584 45bc f3d3 94bc
00000070: f219 053d c09d abbd 6d2e 6abc e60b 49bd
00000080: 5514 a73c 4062 9c3c 6871 01bc b653 213d
00000090: f0b7 c23d e267 373d 52ee 613d 96e1 5fbd
000000a0: b383 5ebc 71dc 653d 18ff f63d fb86 a23d
000000b0: 1a82 243b 2419 d03c 348e adbb e415 5e3d
000000c0: 31c0 8abc b819 c2bd d329 07be de11 453d
000000d0: b354 a13c 2b26 8b3c 277b a03d 7a5c d4bc
000000e0: d927 20be 2e91 af3c a1ee 353c 407f ae3b
000000f0: d69d aa3d 46a8 d23d 0a65 15bd 10bc 98bd
00000100: fc56 a7bd d4cf 113e 42a2 3c3c 64e0 71bc
00000110: be70 843c bc19 32bd 7619 453d 2e7a fbba
00000120: ad98 a8bc 72da 7b3d 2042 96bc 548f 30bd
00000130: f137 edbd 4f8c 51ba 513d 5ebc c28f 7c3c
00000140: de40 32bd a977 83bd 2599 c83c 59d9 cdbd
00000150: fb1a 21bc 1127 7a3d 9298 48bd be09 c1ba
00000160: 3095 783b b34d 813c caaa 82bd 9048 0ebe
00000170: 39e9 4e3d a3b5 2a3d 62c4 a83c 4a29 84bd
00000180: d1b6 1fbd 5d99 623d 9169 aabc 888c 2e3d
00000190: 5f72 683c 1a2a 1a3d 456d 283e 9646 bb3d
000001a0: cc42 aa3d f9ec 683d 611a e8bc 1c50 9c3c
000001b0: 3769 f13d 09ce 83bd 0c5c de3c 356a 1c3d
000001c0: 2fae 04be 57d5 313e d59d 0d3d 47a9 09bd
000001d0: d510 a43c 33b1 abbd b124 a33b 34d9 9dbc
000001e0: ac27 54bd 512c 12bd b683 e1bd cb0d eb3d
000001f0: 5f6f 233d 8670 3dbc 0a91 66bb 73de b9bc
00000200: ade0 923a 3b36 093d 3f39 2e3d e1ab 8dbb
00000210: 465d 84bd c0b7 c73d 17d6 603d 7de8 05bd
00000220: 1aba 743d c19f 9e3d 6d9f 23bc bfc1 153c
00000230: 070b b73d eaa6 f5bd 4877 e13c 753e 303a
00000240: 91ba eabd 2507 bdbd 7446 63bd 624f fabd
00000250: 5e2d d6bd 747d 9dbb eafa 693d 4eb8 87bc
00000260: f1e1 22bc 02d3 17bd 24eb d7bd 4a43 053d
00000270: 6feb 2cba 9aba a33d 7b70 293d 6e4d 1abd
00000280: 5173 88bc e154 d23d 9e83 993d 412a b1bd
00000290: b8f1 1e3d b1dc b73c 03d0 f7bc 1812 dcbb
000002a0: 2bd8 463e 7182 30bd 1a76 67bc e373 653d
000002b0: a8b2 e1bd e61f 55bd 7801 4a3d 5263 17bd
000002c0: c7ca ad3c 1e7a 783d 8f32 c6bc 78d3 c33c
000002d0: 37d5 853d c38a 84bd 24b9 c2bd 22b0 833c
000002e0: 1a03 bfbc c40c 8c3d edce a63c 6b27 063d
000002f0: ac65 8abc 7fba 6dbc e61f 8b3d 0e6d 6fbd
00000300: 1a0b 943d c012 6abb 3edb fd3d c719 153b
00000310: 7ebf 053d 4030 533d 4a15 a6bd 3a42 433c
00000320: 9f0f be3c dc30 08bd a237 38bd b75d a53b
00000330: 3906 d33d 8e7e 91bc 5b32 953d d654 2a3c
00000340: d3be 08bd 36eb e2bc 8282 b6bc 0ed3 443d
00000350: 1cbf 7f3d a1c2 703c 1b4f 77bd 7dd1 0ebc
00000360: 3ea1 acbd 233c ec3c 3937 15be cc42 c3bc
00000370: 55c3 e6bc 38c3 bf3d ac84 96bd d495 cc3c
00000380: 2d89 123d cb3c 303d b80c 8e3d 41f3 14bc
00000390: 0eed 86bc 8ea4 8fbc 8afb 643c 1ec8 f8bc
000003a0: 16f4 ccbd 0114 49be 7ff6 ba3c 1d3c 233d
000003b0: 2654 e43d 149a 22bc 29d5 863d 6e2f 193e
000003c0: 6c59 633c 0076 d53d 02f4 a5bb 045a 0dbd
000003d0: 30e2 a03d 7653 233d aab3 833c 645e 8e3c
000003e0: 2640 703d 36f6 8c3d 650b 13bc 23ef 30bc
000003f0: 7c21 023d 3590 c3ba 2a35 7e3c d8c8 1abd
0.044417173 -0.06003295 -0.0865397 0.046041083 -0.020307224 0.09523514 -0.099509455 -0.113139115
0.020267203 0.050449528 0.066888146 -0.071393654 0.15915956 0.014390099 0.050480347 0.052483894
-0.08625789 -0.023303239 0.05282402 -0.005801458 -0.042269852 0.053320453 0.009024046 -0.008642278
-0.01637489 -0.061477683 -0.012055402 -0.018167472 0.032495447 -0.08379698 -0.014293295 -0.049083613
0.020395437 0.019089818 -0.007900573 0.039386474 0.095077395 0.044776805 0.05515892 -0.054658495
-0.013581204 0.056118432 0.12060374 0.07935902 0.002510196 0.025402613 -0.005296493 0.054220095
-0.016937347 -0.09477562 -0.13199548 0.048112743 0.019693708 0.016985973 0.078359894 -0.025923003
-0.156402 0.021431532 0.011104257 0.005325228 0.08330886 0.10286002 -0.03647331 -0.07457745
-0.08170888 0.14239436 0.011513295 -0.014762972 0.01616704 -0.043481573 0.048119985 -0.0019186193
-0.020580614 0.061487623 -0.018342078 -0.04310544 -0.115829356 -0.0007993625 -0.013564424 0.015415134
-0.043518893 -0.06419308 0.024487088 -0.100512214 -0.009833093 0.061072413 -0.048973627 -0.0014727635
0.003793072 0.01578412 -0.06380232 -0.13894868 0.050515387 0.04167713 0.020601455 -0.06453188
-0.038992707 0.05532204 -0.020802291 0.04261449 0.014187424 0.037637807 0.16447933 0.091443226
0.08313522 0.05686662 -0.028332891 0.019081168 0.11787646 -0.064357825 0.0271435 0.038187224
-0.12957071 0.17366539 0.03457435 -0.0336087 0.020027557 -0.083834074 0.004978739 -0.01926861
-0.051795647 -0.035686795 -0.1101145 0.1147724 0.039901134 -0.011562472 -0.0035181665 -0.02268908
0.0011205875 0.033498984 0.042535063 -0.004323468 -0.06463103 0.097518444 0.054891672 -0.03269242
0.059747793 0.077453144 -0.009986741 0.009140431 0.0893765 -0.11994727 0.027522698 0.0006723174
-0.11461366 -0.09229878 -0.05548711 -0.12222172 -0.10457872 -0.004806215 0.057124056 -0.016567376
-0.009941564 -0.037066467 -0.105428964 0.032534875 -0.00065963616 0.07994576 0.041367035 -0.0376715
-0.01665655 0.102700956 0.07495807 -0.086506374 0.03880474 0.022444101 -0.030250555 -0.006716024
0.19418399 -0.04309315 -0.014127279 0.05601872 -0.11020404 -0.052032374 0.049317807 -0.036959954
0.021214856 0.060663335 -0.02419403 0.023904547 0.06534808 -0.06471779 -0.09507969 0.016075198
-0.023316909 0.06838372 0.020362342 0.032752436 -0.016894184 -0.014509796 0.067931935 -0.058453612
0.0722868 -0.0035716742 0.12395333 0.002275096 0.032653324 0.051559687 -0.08109529 0.011917645
0.023200808 -0.03324972 -0.04497493 0.005046572 0.10303921 -0.017760541 0.07284995 0.010396203
-0.03338511 -0.027700048 -0.022279028 0.04805284 0.062438115 0.014694841 -0.060378175 -0.008716938
-0.08429192 0.02883727 -0.14571847 -0.023835562 -0.028169313 0.09363407 -0.07349524 0.024973787
0.035775352 0.043026727 0.0693602 -0.009091199 -0.016470458 -0.01753452 0.013975987 -0.03036886
-0.10007493 -0.19636537 0.022822617 0.03985225 0.111488625 -0.00992443 0.06583626 0.14959499
0.0138763 0.10422897 -0.0050644884 -0.034509674 0.07855642 0.039874516 0.016076881 0.017378993
0.058654927 0.068828985 -0.008974885 -0.010799202 0.031770214 -0.0014920296 0.015515605 -0.037789196

network_body._body_endoder.seq_layers.2.bias f4 [256]
00000000: 973b 31bb 51b3 9bbb 6d20 903b 7ea3 e13b
00000010: 65e4 553c 604a 0e3c 9c50 9b3b 80f5 a63a
00000020: 3efd 87b9 e2f3 48bc f9c1 95bb 78cd 8fba
00000030: f81d cbbc b764 7f3b 9c81 56bc b737 ad3c
00000040: a31f 3e3c 4adc babb 9ac5 f4b9 e70f d1bc
00000050: f7e2 b0bb 5b37 e43c 59e5 65bc 0246 6f3c
00000060: 08c7 323c 25d4 c8bc 40ee c2bc 1398 1b3c
00000070: 343f 303a ddee 5c3a 49c9 a83b e847 773c
00000080: 5b90 8b3c d319 803b a01e 853c 68d7 a13c
00000090: 8adb a23c 2207 0bbd ca66 ee3c 756f b539
000000a0: a25e 0bbb 08d2 833c 93f2 d03c 1b5a 13bc
000000b0: 25fb 5d3a 1510 8fbc da40 bd3c 2b6d a1bc
000000c0: c329 a53c edbc 903a 71f3 bfbc 88ca 873a
000000d0: c291 c0bb 54ab ecbc 3e7a 05bc a9bd 8d3c
000000e0: 33b4 d83b e765 2f3b bb5d 44ba 1142 c33b
000000f0: 5bcf d0bb 817b 8bba 558b 003d a7fc 0fbb
00000100: 9848 473b 6500 4b3c 0c71 43ba 4caa 903c
00000110: d9d8 b93b 5fd7 ff3c dfc9 a73b 0549 a3bb
00000120: 00eb 1abb 0438 a2bb e848 953b 443c f63b
00000130: f5d7 683b b85f 003c cc74 45bc fb0b e73b
00000140: a904 a4bb 08d8 863c 6a2b 8fbb 4b8a 003d
00000150: 0a99 983b fb97 9ebc f4f2 af3b 1738 fb3b
00000160: 0afb a63b ec86 4dba 3d61 053c 4942 83bc
00000170: aeb0 cbbc a90b 193b 156b d43a 3912 8838
00000180: cebd 8f3b b1c7 b93b efa0 5abb d896 faba
00000190: c7b3 113c da00 65bb a254 823b 9ef8 7cbb
000001a0: d3ce b83c a544 9d3b e62f 053c 08d0 6d3c
000001b0: 5a9d 0e3c a489 f63b 0f9b 5d3a b5ac a8bb
000001c0: 9279 883c 40f8 043c 3dfb 613b d84b a03b
000001d0: 06b2 f1b8 e8d5 2cbb 4867 913c a78a a63b
000001e0: db0c 413c 683c 383b af37 97bc 40e9 233c
000001f0: 2cde 7a3a e963 9bbb 4132 c13b f8d3 b8bb
00000200: cd33 8abc 654f bd3a 3b03 42bc ed4b 113d
00000210: 6685 d63b 03d2 d93c 8e0e 8d3c a6a2 f0bb
00000220: 4eb4 cdbb 3a6f e33b 3864 7bbb 7db6 37bb
00000230: 05cd 673b 682f c8bc 4f2f 153c 1f1a 64bb
00000240: d9f2 a2bb 399a f33b e081 32bb 4ebb 40bc
00000250: 13b8 a0bc e1d9 98bb 3de7 cf3c 392b 52bc
00000260: 9c73 c1bc ba8f 963a 8b70 183c 442e 8d3b
00000270: b401 5dbb 41fd f33b 8cd3 39bc 56d8 94bb
00000280: c9fd ee3b 94da 5e3c 3d18 2e3c 1273 063d
00000290: 89e7 69ba 90ed 25bb 9fee 603a 7769 173c
000002a0: ff06 aebb bb5b 04bc 602d 0f3c 5323 223c
000002b0: 1137 ecbc b18b 203d d17f d73b 25e2 21bc
000002c0: 51ed 25bd b41f 743c 5d42 573b fe69 fc3b
000002d0: 4d2c 3e3b fd65 833b 0e20 02bd ced4 d1bc
000002e0: 485e 96ba 5d9e b3bc 6886 81bb adfd 9fb7
000002f0: 68df 743c 6d6b 403b c410 b53b 3f37 efbb
00000300: 0255 b9bb 3c96 b23c a77f 043b a434 92bb
00000310: 59a6 2b3d 3e95 103d 1d01 a7bc fd2b 913b
00000320: 2c42 be3b e2ca 213c 49b3 3bbd 9e6b 44bc
00000330: 1b40 0bbc 77af 883c 4122 893c d131 a0bc
00000340: ceeb 11bb 089d 433c 5282 a1bb 85eb 0dbc
00000350: b483 923c 70e5 b1bc 97cb f9ba 15c2 293d
00000360: 0f5b 14bc d458 933c 8686 4f3b fffe ba3c
00000370: e1be 4a3c 71ef d3ba 46b5 ba3c ed57 27bc
00000380: 9768 85bb 7b8c 0a3c a81c cf3a 7694 f8ba
00000390: 445a b63b 00e0 403c 64c3 d3bb 776f 103c
000003a0: f9b3 0cbd 04c5 14ba 45cc 263d 1b83 a63b
000003b0: 5b7d 373c e39e 763c 97c5 8a3c d3b3 093d
000003c0: e728 a33c 180b 953c f9da 663c 11eb 8439
000003d0: cad2 55bc 7991 1f3d e2b7 08bc c578 2f3b
000003e0: 1a3a b2ba 3777 f4bc acd6 153c 80fd 983c
000003f0: 29bb 6cbc 16ae 5339 60c1 a13c d583 413b
-0.0027043575 -0.004751601 0.0043983967 0.006885945 0.013054942 0.008684725 0.004739834 0.001273796
-0.00025937887 -0.012265177 -0.0045702425 -0.0010971269 -0.024794564 0.0038969943 -0.013092425 0.021144731
0.0116042225 -0.00570253 -0.0004668653 -0.025520278 -0.00539815 0.027858427 -0.0140317315 0.0146040935
0.010911711 -0.02451522 -0.023795247 0.009496707 0.0006723285 0.00084279274 0.005150948 0.015092827
0.017036607 0.0039093285 0.016249955 0.019756034 0.019880075 -0.03394235 0.029101748 0.00034606052
-0.0021266122 0.016091362 0.025506293 -0.008993651 0.00084679044 -0.017463723 0.023102213 -0.019705376
0.020161515 0.0011042632 -0.023431512 0.0010360042 -0.0058767507 -0.02889029 -0.008146821 0.017302351
0.0066132783 0.002676362 -0.00074907736 0.0059588035 -0.006372375 -0.0010641665 0.031382877 -0.002197066
0.003040826 0.012390231 -0.0007455505 0.017659329 0.005671602 0.031230627 0.0051205005 -0.00498307
-0.0023638606 -0.0049505252 0.0045558102 0.0075145084 0.003552911 0.007835321 -0.012051772 0.0070509887
-0.0050054383 0.016460434 -0.004369189 0.031381886 0.0046569156 -0.01935958 0.0053695384 0.0076665985
0.005095844 -0.00078402343 0.008140859 -0.016022818 -0.02486452 0.0023352897 0.0016206229 6.4883796e-05
0.00438664 0.005669557 -0.0033360084 -0.0019118441 0.00889296 -0.0034943135 0.003977374 -0.0038600336
0.022559559 0.004799443 0.008129096 0.014514931 0.008704508 0.0075237323 0.00084535865 -0.0051475414
0.016659532 0.008115828 0.0034482025 0.004891854 -0.00011524935 -0.0026372615 0.017749444 0.0050824466
0.01178285 0.0028112177 -0.01845917 0.010004342 0.00095698494 -0.004742135 0.0058958833 -0.005640503
-0.016870404 0.0014443217 -0.0118415905 0.0354728 0.006546664 0.0265894 0.017218854 -0.007343608
-0.0062775975 0.0069407495 -0.0038359296 -0.0028032355 0.0035370004 -0.024436668 0.0091055175 -0.0034805608
-0.0049727974 0.0074341563 -0.0027238056 -0.011763407 -0.019619023 -0.004664645 0.025378818 -0.012827688
-0.023614697 0.0011486926 0.009304176 0.004308494 -0.003372294 0.0074459617 -0.011341941 -0.004542391
0.007293437 0.013601918 0.010625896 0.032824583 -0.0008922746 -0.00253186 0.0008580479 0.009241453
-0.0053108926 -0.008078511 0.008738846 0.009896117 -0.028834851 0.03919572 0.006576516 -0.009880577
-0.040509526 0.014900137 0.0032845952 0.007703065 0.0029018105 0.0040099607 -0.03176885 -0.025614168
-0.001147219 -0.0219261 -0.00395279 -1.9072404e-05 0.014945842 0.0029360906 0.0055256803 -0.007300287
-0.0056558857 0.021800153 0.0020217688 -0.0044618417 0.04190669 0.03529858 -0.020386273 0.0044302926
0.005806228 0.009875031 -0.045825277 -0.011988549 -0.008499171 0.01668523 0.016739966 -0.019555004
-0.0022265795 0.011939295 -0.0049288655 -0.008662109 0.017885067 -0.02171585 -0.0019057867 0.041444857
-0.009054913 0.017986692 0.0031665876 0.02282667 0.012374611 -0.0016169382 0.022791516 -0.010213834
-0.004071306 0.008456345 0.0015801387 -0.0018965143 0.0055649597 0.011772156 -0.0064625014 0.008815638
-0.034351323 -0.00056751096 0.04072215 0.005081547 0.011199321 0.01505253 0.016939921 0.03361876
0.019916965 0.018193766 0.014090293 0.0002535214 -0.013050744 0.038957093 -0.008344622 0.0026774865
-0.0013597638 -0.029842002 0.00914542 0.018675566 -0.014448919 0.0002018738 0.019745529 0.002952804

action_model._discrete_distribution.branches.0.weight f4 [2, 256]
00000000: 6fc0 0a3c 4d09 0bbc 40c2 b73a 9d44 a7bc
00000010: 3feb 1dbd bd6c a4bb f7db afbc cac4 213b
00000020: d727 e8ba 4e9e 7fbb fe52 753b 7c76 acbb
00000030: 0db0 f4bb 7214 533b baae cd3b 3d00 4ebc
00000040: 3e95 aa3c bcc7 3cbc b3d8 59bc 9d3a fe3a
00000050: f8f2 da39 cc4b 73bd 9e77 acbb 5eef 59bd
00000060: fd9c 9cbc 8b28 873b 5858 e73b 044b 643c
00000070: 1a04 bf3a 1dd2 5d3c 24b6 21bd 5c3b 2ebd
00000080: 0dfa 2bbd 0eac ef3b 6110 0f3d 75fc 9fbb
00000090: 754a 10bd b89d 51bc 1334 57bd ab79 9b3b
000000a0: e6c3 8dba fa7f 0bbd 3df3 d03c 2daa 4fbc
000000b0: e741 dcbb f7b4 7cbc c70f 803c dd08 a9ba
000000c0: 5913 f53c 6b12 1bbb 8cff 78bc e8c0 4a3b
000000d0: 28d6 15bc 34ef 53bc 5a8c 5b3a 69e6 6b3d
000000e0: 8eec 623b 38e4 0c3c 40df dbbb 2992 fc3a
000000f0: 31be 97b9 8209 9b3b d068 3f3b ff59 a8ba
00000100: 2db1 07bc 10ea 9f3c c3f2 e73a dca2 33bc
00000110: 0863 f7bb 1a75 1a3d b692 67bb 53eb 3c3b
00000120: a40d 68bb f3e4 c1b9 851f 6dbc 5b41 d2bb
00000130: 9fad 50bc f7b2 51bb a836 b43b 1d25 2cbc
00000140: f451 a33a cc44 4c3d 60ae 80ba 2dfa 8c3d
00000150: 1b26 193c 7519 353a 59db 81bc 9760 4bbc
00000160: 5557 c3bc 6ce2 f43b 85c7 c3bc e686 2dbc
00000170: 6908 74bb e31c f23b a73e 97bb 8d0c 7c3c
00000180: 9abb f43a 735a 423c 6452 363b 61dc f9bb
00000190: 9474 77bc 5c1d 323b 462f 02ba 8a59 9cbb
000001a0: e3b9 3ebb 638b 9b3a f943 bf3b 5649 ae3c
000001b0: 301a f33c 5e1d 503b 37d4 65b9 4e16 113b
000001c0: a230 3ebd bad3 013c 451d b3bc 5758 cdbb
000001d0: 5ddb febb 02e6 083c 3604 34bd 3a87 013b
000001e0: 79f4 a43b 1841 94bb 40db 96bc ec53 8c3c
000001f0: 01b6 25bc 6e8b b4bb 239a 583c f58e c53b
00000200: 1884 07bb 0ca2 a8bb a454 7739 f20c c7bc
00000210: 0516 0ebc 6911 b9bb 8293 47bb 2a16 bb3b
00000220: 5a39 9a39 3096 283c a848 8db9 8869 3dbb
00000230: dd83 683c 28f8 fe3a 0061 93bb 3109 8bbb
00000240: fb5b b03b ff28 47bc f0d9 bcba 1788 793b
00000250: 892d 0dbc 2666 4abc feb6 1abd 8198 e53a
00000260: 8d46 a2ba 3a56 76bc 0c49 17bb fd40 913c
00000270: 7470 72bc ec55 de3c a557 e93b 1d24 8cbc
00000280: 0591 683b 05e7 1d3d 0fa8 c33b 030a b6bc
00000290: 3c40 cfb9 f1d6 b13b 862a fbbb bd46 f3bb
000002a0: a87e ef3a 893b 663c 38da 37bd b6cc 383c
000002b0: 6255 53bc 3e3d 68bc 099c 3ab9 6268 29ba
000002c0: 3212 54bc 41b2 d4bb 787b abba a48b 9f3b
000002d0: a8af 633b a002 6bbc de4f 04bc b4a6 b33a
000002e0: 2d43 91bb 7909 b9bb 2496 d3bb a8ac e03a
000002f0: 65e3 e33a cd11 b2bb 544e 33bc 3fd2 a83b
00000300: 2b21 17bb 444e 2dbd 9992 59bc 97a9 39bb
00000310: 2602 09bd 64f8 a6bd 0250 40bc bcbe 093c
00000320: 1eac 693c 39cd f7bc 6414 69bc cb1b 24bb
00000330: 3bd1 4d3b 091c 13bd 9942 19bd 962e f5bb
00000340: 5385 8ebc ee8f 1d3b 817b c43b e5ca 80bb
00000350: 58ed 9bbc c763 2d3c 8bda 493c 12fe 693d
00000360: 94fe 993c 256c 853c 9300 d23b 8f68 22bd
00000370: 2f8c 1dbc af24 9d3a 3404 58bd 2970 a3bb
00000380: 40eb 00ba ce35 76bc 052a b13b 6327 813a
00000390: e369 783c ae34 1dbd 8f30 c33b 214c 7bbc
000003a0: 5b7a febb 3273 80bb 53ec 0ebb a754 23ba
000003b0: 90b4 e3bb 014b bdbb 63ae ad3c 1ad7 643d
000003c0: 8cb3 15bd ae30 2e3d 0828 1fbc 0699 14bc
000003d0: 5167 873b 9921 713c 9134 11bb 69b5 e43b
000003e0: a852 c2bb 93f9 99bb d13a 1abd 8229 863c
000003f0: b000 e93a ef90 a53b 6a9b b4bc 6082 afbc
0.008468731 -0.008486104 0.0014019683 -0.02041846 -0.038554426 -0.0050178454 -0.021467192 0.0024683946
-0.0017712069 -0.003900427 0.00374335 -0.005263148 -0.007467276 0.0032208231 0.0062769325 -0.012573299
0.020823117 -0.01152223 -0.013296294 0.001939613 0.00041761226 -0.059398457 -0.005263283 -0.053206794
-0.019117827 0.004124706 0.007060092 0.013933901 0.0014573366 0.013538864 -0.039480343 -0.04253708
-0.041986514 0.0073142117 0.03492773 -0.00488239 -0.035227258 -0.012793951 -0.052539896 0.0047447286
-0.0010815829 -0.034057595 0.02550661 -0.01267485 -0.0067217234 -0.015424005 0.015632523 -0.0012896318
0.029916452 -0.00236621 -0.015197646 0.0030937735 -0.009145297 -0.012935448 0.0008375101 0.057592783
0.003462586 0.008599333 -0.006709963 0.0019269633 -0.00028942668 0.004731358 0.002920676 -0.0012844204
-0.008281988 0.01952079 0.001769625 -0.010964122 -0.0075496472 0.037709333 -0.003533525 0.0028826788
-0.003540852 -0.0003698241 -0.014472847 -0.0064164824 -0.012736707 -0.003199754 0.0054996796 -0.010506895
0.0012460337 0.049870297 -0.0009817593 0.06883655 0.009347464 0.00069083954 -0.015851663 -0.0124131655
-0.023845354 0.0074732807 -0.02389885 -0.010591244 -0.0037236458 0.0073886975 -0.004615623 0.015383852
0.0018671632 0.011862385 0.0027820105 -0.007625148 -0.015103478 0.0027178144 -0.0004966151 -0.004771416
-0.0029102496 0.0011867102 0.0058369604 0.021275204 0.029675573 0.0031755785 -0.00021918198 0.0022138539
-0.0464331 0.007924015 -0.021864543 -0.0062666344 -0.007777615 0.008355619 -0.04394933 0.001976444
0.005034026 -0.0045243613 -0.018415093 0.01712986 -0.010114194 -0.0055097854 0.013220343 0.0060290047
-0.00206781 -0.0051462706 0.00023587287 -0.024298165 -0.008672242 -0.0056478274 -0.0030452912 0.0057094293
0.000294159 0.010289714 -0.0002694775 -0.0028902013 0.014191595 0.0019452618 -0.0044976473 -0.004243039
0.0053820587 -0.01215577 -0.0014408212 0.00380755 -0.008616813 -0.012353456 -0.03777217 0.0017516763
-0.0012380645 -0.015035206 -0.002308431 0.017731184 -0.014797319 0.02714058 0.0071210437 -0.017107064
0.003548683 0.038550396 0.005970962 -0.02222157 -0.00039529975 0.0054272343 -0.0076649813 -0.007424204
0.0018272 0.01405228 -0.044885844 0.011279276 -0.012898775 -0.0141747575 -0.0001779647 -0.00064623926
-0.012943791 -0.006490976 -0.0013083061 0.0048689414 0.003474215 -0.014343888 -0.008075682 0.0013706298
-0.004433057 -0.005646881 -0.006457107 0.0017141299 0.0017386494 -0.005434251 -0.010943968 0.0051520164
-0.002306054 -0.042310968 -0.0132795805 -0.0028329843 -0.033449315 -0.081528455 -0.011737825 0.008407291
0.014262227 -0.030249225 -0.014226053 -0.002504098 0.0031405229 -0.03591541 -0.037417028 -0.00748236
-0.017397558 0.0024042088 0.005996168 -0.003930437 -0.019034073 0.010582871 0.012320171 0.057127066
0.01879815 0.016286919 0.00640876 -0.039650496 -0.009615942 0.0011989082 -0.052738383 -0.0049877358
-0.00049178675 -0.0150274765 0.0054066204 0.0009853657 0.015161964 -0.038380317 0.0059567164 -0.015337975
-0.0077660508 -0.0039199824 -0.002180834 -0.0006230571 -0.006949015 -0.0057767634 0.021201318 0.0558692
-0.036548182 0.042526893 -0.009714134 -0.009069687 0.0041321893 0.014717483 -0.0022156576 0.0069796336
-0.0059302635 -0.004698941 -0.037653748 0.016377214 0.0017776694 0.005052678 -0.022046763 -0.021424472

action_model._discrete_distribution.branches.0.bias f4 [2]
00000000: f139 293b f939 29bb
0.002582189 -0.0025821908

action_model._discrete_distribution.branches.1.weight f4 [3, 256]
00000000: dc72 fa3a 42ac ef3b 576f 523b 85ff a13b
00000010: 449a 71b8 25ce 44bc 3812 b239 61b4 e2bb
00000020: fc12 613c 6186 3f3b b930 deba eefd baba
00000030: 18ad 983c 145b 2f3c b725 ca3c 98a9 2dbc
00000040: fa21 153c a72c 203b 64b0 e73a 082c 9b3c
00000050: 6162 bf3b 979a 253c 1e2b 283c cc08 923b
00000060: 858e cd3c 77c4 3c3c 7a3a 253c dd22 3337
00000070: ca54 81bc 0f3f 3abc 823e d43b ba44 8b3c
00000080: 6120 3fbb beb9 e8bb f15d d7bb b6b7 1fbb
00000090: 4cf5 bd3b d0fc 283c 6642 5c3b 20d6 12bc
000000a0: 869c da3b 1ae4 303a 8f27 5dbc 8a9a 373c
000000b0: 2047 deba d5a8 933c 3b4e 9dbb dd60 3e3c
000000c0: fe62 29bb 2aca 0a3c 1b83 003c cfe1 a83a
000000d0: 7d85 7a3c 782c d63b 0fc7 9b3a fb1f 2ebb
000000e0: 38b8 3ebb 8166 0abc 4e44 6f39 5797 3e3b
000000f0: a597 99bb 7e99 83ba d5c6 f8bc d257 62ba
00000100: e5e0 e83b afdc 7939 d027 483b 33a5 36bc
00000110: 8312 823b aa53 abbb 6536 713b 4113 89bb
00000120: 9f74 493c d066 8fbb 67ba 2e3c 0dd4 e93b
00000130: b1fe 9fbb 19dc 07bb 8436 cd3b 9702 503c
00000140: 69f3 c93b 2f6e 6ebc ecd0 7a3a 3686 0bbb
00000150: 32ec 15ba fe3a 703b 1909 d73b 48d0 883c
00000160: 1bd3 ee3c 2210 2cbc b02a 8a3c 22c0 4c3c
00000170: e916 a13c c508 dbbb 7a15 2b3c debe a53b
00000180: 6cff 263c 27d5 0fbc 80b4 6f3c 1a36 3b3b
00000190: 6ac1 863b 37e2 db3b 185a 243c facc dfbb
000001a0: ed5b 2fbc 7de6 36bb 5a5a bebc 3b89 1c3c
000001b0: 6a9a 823b 9ab8 95bb fd29 c53b 70d0 613b
000001c0: 9a10 793b 645c 00bc 5570 a83b 81f8 b0bb
000001d0: 081c 00bc 807a 373c 9d3c 6b3c 0bc8 24bc
000001e0: 4de1 833b ac87 3ebc 20a1 693c 57cc fcbb
000001f0: 89b3 c33b 2340 b73a 3de7 52bc 517f cbbb
00000200: 8023 2a3b c197 9dbb e4ca 803c 10af 303b
00000210: 2c96 423b 61a8 95bc be54 92bb 6f26 9d3b
00000220: 66ad f03a 8b14 cdbb bd6a 06bc 0ffe da3b
00000230: b265 203c dca0 803c 8127 3ebb 881a 413a
00000240: a2fa 5ebb 2616 73bc 7f58 1b3b 0846 a23b
00000250: e5a6 503c 41a8 8bbb 0421 cf3b e829 253b
00000260: cf91 903c d9bc c4bb cd46 4cbc 03f7 bdbb
00000270: 601e bb3c 6c9c 1abc cc83 533c 9b26 ac3c
00000280: 1a1b 8fbb 1bdf 20bc 27d5 40bc dbd2 c2bb
00000290: 1aef 7bb9 4601 213c e120 81bc b211 7e3c
000002a0: 96d6 763b 166a ce3b b09b 0f3c 7e36 83bc
000002b0: 18ea 2b3c fb95 b2bc 2310 22ba 3009 193b
000002c0: ceff 743c 40ce 913b a646 e13b 4eec 46bc
000002d0: 4f43 9dbb 20c8 a03a 3e10 933c a2e6 823c
000002e0: d2ad 523c d671 403c 5ef9 913c 3a31 71bb
000002f0: 15e9 61bc 7ab0 4fbc 32b6 1a3b 1c7a a33b
00000300: ecf3 073c 640f bc3c 1e75 ca3a 3a61 f1bb
00000310: 8215 18bc cb2f 38bc f324 b53c fb34 15bc
00000320: e5ad 41bb 9e00 85bb 7567 0f3c 5d46 0b3c
00000330: 1fe6 89bb 326a d73a cf08 c43c c99f ae3c
00000340: 4ef8 83bb df4b 2b3a 2391 703b 997e b2ba
00000350: 5259 10bc 6112 c63c beee 9d3b b388 6ebc
00000360: 245d 35bb 34df 9f3b 1f0c 6abb 6a12 0abb
00000370: d8b5 dfbb 0fd2 8cbb e52d 7ebc 3693 cd3b
00000380: ed57 8fba c27f 03bc 8b7a c6bb 6482 ae3b
00000390: 590a 9dbb d665 a23c 03d0 d0bb 16c7 23bc
000003a0: 3cd0 ad3c f6c3 1cbc 26be a2bc 166d 98bb
000003b0: d1fc e2ba beb1 2e3c d583 bdbb fcc1 8ebc
000003c0: 4991 8b3c 1001 333c d65a 95bb 2923 babb
000003d0: d9d7 63ba 5474 4dbc e343 beba 903d 1eba
000003e0: e1f7 87bb 4151 053d 3096 93bb c808 64bc
000003f0: 0ccf fc3b c9c5 843b ba41 e43a 4859 103c
0.0019107717 0.007314236 0.003210982 0.0049437904 -5.760255e-05 -0.012012039 0.0003396438 -0.0069184755
0.013737436 0.0029224383 -0.0016951776 -0.0014266351 0.018637225 0.010702867 0.024676187 -0.010599516
0.009102339 0.0024440677 0.001767647 0.018941894 0.005840585 0.010107658 0.010264186 0.004456615
0.025092373 0.01152145 0.010084743 1.0677349e-05 -0.0157875 -0.011367573 0.006477178 0.017000545
-0.0029163586 -0.0071022203 -0.006572478 -0.0024370975 0.005797064 0.010314181 0.0033608912 -0.008962184
0.006671491 0.0006747857 -0.013498201 0.011206279 -0.0016958453 0.018024841 -0.0048005856 0.011619774
-0.0025846357 0.008471051 0.007843758 0.0012884679 0.015290615 0.006536063 0.0011884886 -0.0026569355
-0.0029101502 -0.00844729 0.00022818262 0.0029081905 -0.004687267 -0.0010040251 -0.030368248 -0.0008634302
0.0071068876 0.00023828702 0.0030541308 -0.011147785 0.003969492 -0.0052284794 0.0036806103 -0.0041832034
0.012295871 -0.00437627 0.010664559 0.007135874 -0.0048826565 -0.0020730554 0.0062626023 0.01269593
0.00616305 -0.014552637 0.0009567875 -0.0021289713 -0.0005719095 0.0036656256 0.006562364 0.016700879
0.029153397 -0.010501893 0.016866058 0.01249698 0.019664245 -0.006684395 0.010442132 0.0050581535
0.010192733 -0.008778847 0.014630437 0.0028566183 0.004112412 0.0067103165 0.010031246 -0.006829855
-0.010703069 -0.0027908378 -0.023236442 0.009554203 0.0039856927 -0.0045691254 0.0060169683 0.0034456514
0.003800428 -0.007834528 0.005140344 -0.0054007177 -0.007819183 0.01119864 0.014357713 -0.01005746
0.0040246607 -0.011629026 0.014259607 -0.007714789 0.00597233 0.0013980906 -0.012872514 -0.0062102457
0.00259611 -0.0048093502 0.015721746 0.0026959814 0.002969156 -0.018268766 -0.0044656685 0.0047958414
0.0018362224 -0.0062585524 -0.008204159 0.006683118 0.009789871 0.015701704 -0.0029015245 0.0007366319
-0.00340239 -0.014836824 0.002370387 0.004952196 0.012735103 -0.004262001 0.0063210744 0.002520198
0.017647652 -0.0060039577 -0.012468052 -0.0057972684 0.022841632 -0.009436708 0.012909841 0.021014502
-0.0043672444 -0.0098188175 -0.0117695695 -0.005945546 -0.00024026298 0.009826964 -0.015762748 0.015507149
0.0037664524 0.0062992675 0.008765146 -0.016017195 0.010492824 -0.021800032 -0.0006182214 0.0023351423
0.014953567 0.0044496357 0.006874877 -0.0121413 -0.0047992836 0.0012266673 0.01795208 0.015979115
0.012858825 0.011745891 0.017819103 -0.0036803023 -0.013788481 -0.012676353 0.0023607132 0.004988922
0.008297902 0.022956558 0.0015446281 -0.0073663266 -0.009282472 -0.0112418635 0.022112345 -0.00910687
-0.0029553112 -0.0040589115 0.008752693 0.008500663 -0.004208341 0.0016434847 0.023929982 0.021316426
-0.004027403 0.0006534438 0.0036707602 -0.0013618051 -0.008810358 0.024178686 0.00481972 -0.014558959
-0.0027673924 0.004878903 -0.003571279 -0.0021068105 -0.0068270974 -0.004297502 -0.015513872 0.0062736524
-0.0010936238 -0.008026065 -0.0060570887 0.0053256024 -0.0047924933 0.01982395 -0.006372453 -0.009996196
0.021217458 -0.009568205 -0.01986606 -0.004651676 -0.0017317777 0.010662494 -0.005783538 -0.017426483
0.01703705 0.010925546 -0.0045579476 -0.005680461 -0.00086915266 -0.012539942 -0.0014516081 -0.0006036395
-0.0041494225 0.032548193 -0.0045039877 -0.013918109 0.0077151116 0.004051898 0.0017414608 0.008810349

action_model._discrete_distribution.branches.1.bias f4 [3]
00000000: 8763 6bbc 0b8c 443b fc1b 2e3c
-0.014366991 0.0029990699 0.010626789

action_model._discrete_distribution.branches.2.weight f4 [2, 256]
00000000: e868 75bc 46db aa3c b5a7 9f39 3b99 093c
00000010: e306 0ebb 118a 963b 3492 4d3b 153f 16bc
00000020: 34d2 62ba df5e 9f3b c53b debb d511 093c
00000030: 32e8 613a 7350 d83b 9dd2 113b 71a6 783b
00000040: 0aa7 543c ddf1 fd3b c327 3abb e99a 5b3b
00000050: 0c9a fa3b f1d7 4bba a6e9 e83b eddd ea3b
00000060: e92f 453c fc14 a6bc f488 d0ba 13ba bc3b
00000070: 9a1d ffbb 8589 bfbb f1e9 f8bb 8f29 133c
00000080: f22a 28bc 06f5 2e3b 6df7 ebbb f2c0 0abc
00000090: 6ff1 04bc 9f63 52bc 61b0 f33a 2df0 4ebc
000000a0: 4654 59bc e9b7 63bc fb4d 0d3d 54a3 543c
000000b0: 39a9 8abc 9f04 b6bb 2f77 333d 7b70 e7bb
000000c0: 761f 633c 0f86 953b 306d d539 521a 99bb
000000d0: f06e f13b 78ce 00bc aa97 6b3c f39a a8bb
000000e0: e964 b3bb b8eb da3a 748a f9bb 2f8c 80bb
000000f0: 69ce 03bc dfc7 80b9 931b 363c 4710 863c
00000100: 37c8 f73c 8f16 473a 4360 0fbc c913 5ebc
00000110: ee48 fa3b cd83 863c f7a7 7a3b ee90 31ba
00000120: 2c76 f7bb 3e79 74bb cce8 bbba 44cd a3bc
00000130: fbe5 dcba 4850 0bbc 3a95 563b 936a bd3c
00000140: 2b00 b3ba 2a4a edba ecdc f4bb 8704 08bc
00000150: 308b 4b3c 0f5c f5bb 3030 96bb 147f 703c
00000160: a8a5 b13c c578 9a3b c412 813c b768 77bb
00000170: ed5b b03a c302 c7bb 5c8b 4d3c a44f 15bc
00000180: df60 1dbb 4657 32bb f2ed 373c 3e56 02bc
00000190: 6fbd d13b 078a edba ab4b 97ba 474b bbbb
000001a0: 139e 00bc 5182 773b d35a b1bb 3d07 5c3c
000001b0: 6142 3bbc f4b8 753c fc62 41bb 9a69 b43b
000001c0: 47ae 8d3b a6e5 973a 613e 45bb 742d 8e3b
000001d0: 3493 af3b b1eb 9a3b 0097 e63b 228b 3bbc
000001e0: 5a75 a9bb e6c1 283b c323 32bc 2591 6f3c
000001f0: 9467 8b3b 3d2d d3ba 5ee8 dabb dde8 e9bb
00000200: c99b e9b9 47e0 92bc e8a0 043b 106b 9c3c
00000210: 0c26 7cbc fd37 f63c da17 0c3a 5d77 3b3c
00000220: 2d65 513c 75d2 82bb be82 96bb f353 9f3c
00000230: c684 af3c bc06 a53a a072 8fbb 3909 013c
00000240: 4b90 bc3b 255e d2bb e53e 493c 43d0 683b
00000250: 9c95 c0bb 29c1 343c f934 a6bb c66d 943a
00000260: 5b8c 21bb afd2 55bc cf79 9abc a26d ba3b
00000270: 7d68 d03b a5b6 4cbc 6dac 8e3c 08ae 3ebb
00000280: 1400 a9bb f02c 97bc e85e e1bb 023e 13bc
00000290: d28e 23bb 6ecc 21bc 5636 ecbb 8f5a db3c
000002a0: b2af f53b cac8 f4bb 5b31 4bbc cdfb 9e3c
000002b0: 4f62 ce39 5354 d93a f310 d43a e9a3 ebba
000002c0: 5cdc 0cbb 90b0 4f3c 3d76 5abc 1947 03bc
000002d0: ee67 d4b9 5fcb 3dbb 3b89 7abc 74ce 13bc
000002e0: 7698 173c f9b3 52bb a7b2 5d3a b89f 9439
000002f0: 9d90 dcba 0667 12bc 20c1 e7b9 e018 df3b
00000300: d1d5 513b 414a 533c 4443 393c c275 feba
00000310: 427b 043c 2ea6 913b 26d4 9dbc 09de 96bb
00000320: 8d5c 523b 3199 ae3b ace6 a2ba 563f 8f3a
00000330: c008 133c 82bb 2e3c 8f0a 7aba 80dc 21bc
00000340: 0efb 5dbc 16ac 34bb 3c2e a2bb 552e 943b
00000350: 87dd c7bb 923c 2839 5ab5 9cbb 0b24 ae3c
00000360: a75e 123b 86d0 cbbb ffe1 60bb 9aa7 823c
00000370: ad21 4bbb eae2 6fbc 2e21 543b 0092 caba
00000380: 1257 e2bb 4e95 a23b 9c60 153c 08da 433b
00000390: f679 053a 9cf0 433b fa58 09bc 5a5d 6abc
000003a0: c8e5 00bc 3d5b 6abb 334d 693b 7e6b a4bb
000003b0: bee3 833c 82ae 903c 1956 ec3b 48ab 313c
000003c0: 74f9 c93b a7ce 363c 8b38 41bc 4516 d6bb
000003d0: 9800 06bb 5ea1 b33b 8646 78bc 38cb 9a3b
000003e0: 98a2 b3ba 91ae b1bb 9f77 81ba fbe7 3a3c
000003f0: de20 773b ac0c 913b 2455 01bb 6a0b 013c
-0.014978625 0.02085651 0.00030451795 0.008398349 -0.0021671585 0.0045940955 0.0031367661 -0.009170313
-0.00086525385 0.0048636044 -0.0067820274 0.008366068 0.00086176686 0.006601387 0.002225078 0.0037941004
0.012979278 0.0077497796 -0.0028405047 0.0033509082 0.0076477583 -0.0007776013 0.007107931 0.007167569
0.012035348 -0.020273678 -0.0015909956 0.0057594865 -0.007785511 -0.005845251 -0.0075962474 0.008982076
-0.010264145 0.0026696338 -0.0072011263 -0.008468853 -0.008114203 -0.012841134 0.0018591994 -0.012630505
-0.013264721 -0.013898828 0.034498196 0.012978394 -0.016926395 -0.00555475 0.043814834 -0.0070629693
0.013862481 0.0045631 0.00040707877 -0.004672327 0.007367961 -0.007861726 0.014379421 -0.0051454245
-0.005474676 0.001670233 -0.007615382 -0.003922961 -0.0080448175 -0.00024562978 0.011114973 0.016365184
0.030246837 0.0007594609 -0.008750978 -0.013554522 0.0076380884 0.01642027 0.0038247088 -0.00067736104
-0.007551929 -0.0037303711 -0.0014336347 -0.01999534 -0.0016853207 -0.008503027 0.0032742755 0.023122108
-0.0013656666 -0.0018103768 -0.007472625 -0.008301861 0.012423322 -0.007487781 -0.004583381 0.014678735
0.021685436 0.004714104 0.015756018 -0.0037751624 0.001345513 -0.0060733273 0.012545433 -0.009113226
-0.0024014038 -0.0027212664 0.011226164 -0.007955132 0.006400756 -0.00181228 -0.0011542937 -0.005715761
-0.007850188 0.0037766884 -0.0054124384 0.01342946 -0.0114294 0.01499771 -0.0029508462 0.0055057527
0.004323754 0.0011588826 -0.0030096995 0.0043389145 0.005358124 0.0047278036 0.0070370436 -0.011446746
-0.00517146 0.0025750338 -0.010872784 0.0146220075 0.004254291 -0.0016111505 -0.0066805324 -0.007138355
-0.00044557292 -0.01792921 0.002023751 0.01909402 -0.01538993 0.030055994 0.00053441303 0.011442033
0.01278047 -0.0039923736 -0.0045932224 0.01944921 0.021425616 0.0012590508 -0.004377678 0.007875734
0.0057545057 -0.0064199143 0.012283062 0.0035524524 -0.00587721 0.011032381 -0.005072233 0.0011324219
-0.0024650309 -0.013050719 -0.018856911 0.005689339 0.006360112 -0.012494718 0.017416203 -0.002909543
-0.00515748 -0.018454045 -0.006877769 -0.008986952 -0.0024956954 -0.0098754 -0.007208626 0.02677658
0.007497751 -0.007470225 -0.012401904 0.019407177 0.00039364627 0.0016580917 0.0016179368 -0.0017977926
-0.002149365 0.012676373 -0.013333854 -0.0080125565 -0.00040513225 -0.002896033 -0.015291507 -0.00902139
0.009252658 -0.003215073 0.0008457102 0.0002834776 -0.0016827766 -0.0089356955 -0.00044203643 0.0068083853
0.0032018314 0.0128961215 0.011307541 -0.0019413757 0.008086028 0.004444859 -0.0192662 -0.0046041054
0.0032098622 0.0053283204 -0.0012428365 0.001092891 0.008974254 0.0106648225 -0.00095383165 -0.009879231
-0.013548626 -0.0027568392 -0.004949359 0.004522125 -0.006099406 0.00016044293 -0.004782361 0.021257421
0.002233425 -0.0062199263 -0.0034314392 0.01594906 -0.0030995414 -0.014641503 0.003236841 -0.0015454888
-0.0069073522 0.004961646 0.009117272 0.0029884595 0.0005091721 0.0029898053 -0.00838303 -0.014304483
-0.007867284 -0.0035759949 0.0035598993 -0.005017697 0.016099807 0.017661337 0.007212412 0.010844059
0.0061637703 0.011157668 -0.011793266 -0.0065334165 -0.0020447131 0.005481883 -0.015153533 0.0047239326
-0.0013705073 -0.0054224213 -0.0009877569 0.0114078475 0.00377088 0.0044265594 -0.0019734586 0.0078762565

action_model._discrete_distribution.branches.2.bias f4 [2]
00000000: 84cf ecba 80cf ec3a
-0.0018067216 0.0018067211
