results/boat-agent-decperiod3/boat/boat-2000041.onnx (onnx, 328993 bytes, 11 tensors)

discrete_act_size_vector f4 [1, 3]
000000 00 00 00 40 00 00 40 40 00 00 00 40
       2.0 3.0 2.0

network_body._body_endoder.seq_layers.0.weight f4 [256, 47]
000000 95 80 cd bc 97 63 fc bc 28 ec b0 3d 24 c0 f8 bd
       -0.025085727 -0.030809207 0.08638793 -0.12146023
000010 03 ed 24 bd b0 b3 7a be c0 a3 99 bd 08 d8 6b be
       -0.040265094 -0.24482608 -0.07501936 -0.23031628
000020 a3 96 1e be 59 bd 9a be 28 14 dc 3d e4 28 0a 3e
       -0.15487151 -0.30222586 0.10746032 0.13492161
000030 61 21 e8 3d f8 22 a4 bb c9 16 42 3d 19 ae 00 be
       0.113344915 -0.0050090514 0.04738501 -0.12566413
000040 1d b6 9d 3e bf a6 b9 bd 77 a0 f2 3d 46 48 b7 3d
       0.30803004 -0.090650074 0.118470125 0.08949332
000050 3d af 7d be d7 78 1a bd a6 33 ac bd 7f 9f 78 be
       -0.2477388 -0.037712898 -0.08408289 -0.24279593
000060 4c e9 0c bd 6f f4 d2 bd 51 12 94 bd 83 eb 21 3d
       -0.034402177 -0.10300528 -0.07230056 0.039531242
000070 61 18 4d 3e b6 33 a7 bd 4c d3 51 be ca b3 1a 3e
       0.20028831 -0.0816416 -0.2049076 0.15107647
000080 2b d3 66 3c 20 18 ef 3d a0 8b 4b 3d c8 46 aa be
       0.014088432 0.11674523 0.049693704 -0.33257127
000090 b8 97 94 bd 14 c2 cc bd 4c d3 d0 bd eb bd 13 be
       -0.072555006 -0.09997955 -0.10196552 -0.14427917
0000a0 0c d3 f8 bd 76 db 80 3d 63 24 36 bd d4 1d c6 3d
       -0.12149629 0.06291859 -0.044468295 0.09673658
0000b0 02 60 0a 3d 9d 3b 0a be 72 00 5a bd 54 b0 ae bd
       0.033782966 -0.13499303 -0.05322308 -0.08529726
0000c0 98 cf fd 3d 8c e9 88 3d b1 e5 c6 bd d0 4e 17 3c
       0.12393111 0.066851705 -0.09711779 0.009235099
0000d0 74 5d 50 bb d4 f6 4c be 85 ef 40 be da 5e 82 bd
       -0.0031793984 -0.20016032 -0.1884137 -0.06365748
0000e0 fc a7 03 bc cb 90 10 be bc 85 49 bd b5 e8 89 be
       -0.008035656 -0.14117734 -0.049199805 -0.26935354
0000f0 78 f2 2f 3d 4b 28 c4 bc 26 b3 21 be ce 2d 83 be
       0.042955846 -0.023944994 -0.15790996 -0.25620884
000100 e9 49 59 3c c6 76 10 3d f4 50 39 bd 08 d3 9b bd
       0.01326225 0.03526952 -0.04524322 -0.076086104
000110 b9 65 7d be ce 6f 62 be e0 fe 27 3e a9 da da 3e
       -0.24745835 -0.22112963 0.16405821 0.4274495
000120 69 5e d8 ba 6a 35 fe bd 7a 3b 3a bd 08 f8 ff 3d
       -0.0016507629 -0.12412532 -0.045466878 0.1249848
000130 5e 59 07 3c 25 61 ca 3d dc a0 95 bd aa c5 48 bd
       0.008261053 0.0988181 -0.07306072 -0.049016632
000140 7f f0 f2 bd ae 25 ae bd af a7 a8 bd 50 3b 65 3c
       -0.11862277 -0.085032806 -0.08235108 0.013991192
000150 fe b2 83 3e 9f d3 87 3d d4 7b 84 be b7 fc e6 3d
       0.25722498 0.066321604 -0.25875723 0.1127867
000160 b7 18 d4 bc 22 4d 5b bc 9c 67 98 3c dc 8c 1b be
       -0.025890691 -0.013385089 0.018604092 -0.15190452
000170 90 4f 02 3e 02 a2 25 be c2 bf 08 bd 04 5e 3f 3c
       0.12725663 -0.16175082 -0.033386 0.01168013
000180 90 57 07 3e b1 38 2d be 53 14 95 bb ae 31 40 be
       0.13216996 -0.16916157 -0.004549542 -0.18768951
000190 d4 0b f0 bd 4a 08 c1 3d 7c 20 08 3d 7c 3e 10 3d
       -0.11721006 0.09425409 0.033234105 0.03521584
0001a0 28 4b 55 be 3b d8 76 3d 7d c4 2f be 37 6f 00 3e
       -0.20829451 0.060264807 -0.17164798 0.12542425
0001b0 27 cc a8 bd 0f 63 00 3e 82 90 be bd c9 ae 05 be
       -0.08242064 0.12537788 -0.093049064 -0.13054956
0001c0 c0 28 de 3e ff e2 26 3e 5b 74 8e be df 83 2c 3e
       0.43390465 0.1629753 -0.27823147 0.1684718
0001d0 c7 34 4b bd 8e b4 45 bc 39 e8 46 3d 98 fa 3f 3e
       -0.04961088 -0.012066973 0.04856131 0.18747938
0001e0 d6 26 8a 3e 85 1d 7e bc 6e 6b 88 3e dd bb 21 bd
       0.26982754 -0.015509968 0.26644462 -0.0394858
0001f0 cc fe 5a 3d 2d 7b 1e 3e b7 49 22 3d 0b b6 0b bd
       0.05346565 0.15476675 0.03962108 -0.034109157
000200 99 5b 3e 3d af 21 e4 bd 99 7e 1a bd 98 0f 98 3d
       0.046474073 -0.11139237 -0.03771839 0.07424849
000210 8e 74 05 be 7c cc 7b be bd 46 4b 3e 4a ed 0d bd
       -0.13032743 -0.24589723 0.19851203 -0.034650125
000220 0d 23 bc 3e 10 3a 02 3e ac 2e 68 be a4 67 17 3e
       0.36745492 0.12717462 -0.22674054 0.1478563
000230 d0 b7 6a 3d de 52 91 3a 52 e7 bd 3d e8 01 7a bd
       0.057304204 0.0011087318 0.092726365 -0.061036974
000240 9a 3a 17 3e 39 e1 d4 3d 02 f1 6b 3e 56 f8 f5 bd
       0.14768448 0.1039452 0.23041156 -0.12010257
000250 39 d1 d4 3d 5f dc 03 be 78 e6 64 3d b5 9a 2f be
       0.103914686 -0.12877034 0.055883855 -0.1714886
000260 f5 9a 86 bc cb 6f 5e bd 83 b6 79 be 7d 9a a4 3d
       -0.016431311 -0.054305833 -0.24386029 0.08037279
000270 01 5b 00 bd 37 5b 2f bc 02 90 2c 3d b9 aa 0f be
       -0.031336788 -0.0107029 0.042129524 -0.1402997
000280 e0 f7 0b 3d 45 3f 93 3d d5 8d b5 b8 89 f3 79 3d
       0.03417194 0.07189802 -8.657171e-05 0.06102327
000290 0c 26 e5 3d a8 d4 35 3e 14 75 ce 3b f9 2e a7 3e
       0.111888975 0.17756903 0.006300578 0.32653025
0002a0 3c 15 1d 3c 38 9e aa bc 49 52 05 bc cd 57 03 bd
       0.009587582 -0.020827398 -0.008137294 -0.032066155
0002b0 f9 e0 88 3d ae 86 0b 3d 3c 67 9f be 83 c3 a1 3d
       0.06683535 0.034063987 -0.3113345 0.07898619
0002c0 99 14 02 bd 35 55 18 bd 81 1d a7 3e dd f7 9f 3e
       -0.031757925 -0.037190635 0.32639697 0.31243792
0002d0 aa 56 f3 3d 83 0d ab 3e 54 57 e5 bd 64 06 0f be
       0.11881764 0.33408746 -0.11198297 -0.13967282
0002e0 d8 ff 7d 3d e5 af 82 3c 40 82 34 be b7 79 f1 3c
       0.06201157 0.015953014 -0.17627811 0.029476983
0002f0 ea 2b 80 3c 30 87 46 be 57 c0 1b be ff 95 bf 3d
       0.01564594 -0.19387507 -0.1521009 0.09354781
000300 41 a9 e7 3c 2b c7 b3 3d 8d eb 9b 3e c9 83 c6 be
       0.028278949 0.08778223 0.30453148 -0.3877242
000310 2d 61 11 be b6 71 3e bd 2d b0 38 be 7a 32 b9 3a
       -0.14197226 -0.046495162 -0.18035956 0.0014129423
000320 f0 a9 a5 3e 74 c8 8a be 97 6b 32 be ad da 82 3c
       0.32356215 -0.2710606 -0.17423855 0.015973413
000330 b0 d1 62 bd b7 cc 26 3e 8a c5 1b be f2 24 8c bc
       -0.055375755 0.1628903 -0.15212074 -0.01710746
000340 12 65 c6 bd 55 59 ba be b2 eb 54 be d5 f5 46 bc
       -0.096872464 -0.3639628 -0.20793036 -0.012143572
000350 b8 d7 30 3e b5 41 a4 bd fe ad d2 3d f7 4d 84 3d
       0.1726979 -0.08020345 0.102870926 0.06460183
000360 51 c0 90 bc 4b 6e 83 be 8c 22 ca 3c e7 44 75 3d
       -0.017669829 -0.25670084 0.024674676 0.059880164
000370 86 6a 53 3d c0 ba b6 3d 6f 2b 50 3e 62 b2 9d 3d
       0.05161526 0.089223385 0.20329069 0.077000394
000380 a1 2e 20 3e 7d 9d 44 3e 39 a4 d7 bd 5c 44 21 be
       0.15642788 0.19200702 -0.1052937 -0.15748733
000390 6b 13 1c 3e a2 2f 82 be 9e 31 8e 3b 8e de 5b bd
       0.15241782 -0.25426966 0.004339411 -0.05367904
0003a0 03 85 8b 3e 7c af 9a 3d 7c c0 0b be 70 34 09 3e
       0.27249917 0.07553002 -0.13647646 0.1339891
0003b0 13 d0 81 bd 5e 4b fd 3d ba ea 30 bd f7 17 fd 3d
       -0.06338515 0.12367891 -0.043192603 0.123580866
0003c0 b6 54 a4 3e 19 9e 3c bd 7f 77 fe bd 28 e1 2d 3c
       0.3209588 -0.04604921 -0.12425136 0.010612763
0003d0 30 ec 23 bd 0a a7 0b be 3a 09 13 bd 7b 43 1c be
       -0.040020168 -0.13637939 -0.03589747 -0.15260117
0003e0 4d fa 81 3e 68 41 91 3d e4 bf 10 3d 54 11 dd 3c
       0.25386277 0.070925534 0.03533925 0.026985802
0003f0 9f 1b 15 3d 8d 72 33 3c b7 85 91 3b d5 55 1a 3e
       0.036403295 0.010952604 0.004440989 0.15071805

network_body._body_endoder.seq_layers.0.bias f4 [256]
000000 ca 79 e0 bc fa 17 1c ba 71 ed bf 3b 8d 1e 88 3c
       -0.027401824 -0.00059545005 0.0058571626 0.01661613
000010 ec 51 22 bb 1c 4d 12 3c f7 64 12 3c d7 e4 1d bb
       -0.0024768068 0.008929517 0.008935205 -0.0024092698
000020 b6 ac 00 bd 04 ae 9c bb ba 55 c9 bc 5f 45 cf bc
       -0.03141471 -0.0047814865 -0.02457701 -0.025301633
000030 aa ef 96 bc b4 87 7f 3b af 42 8e 3a 00 fd d3 bb
       -0.018424828 0.0038990797 0.0010853613 -0.006469369
000040 ec 70 cb 3b e6 68 95 39 00 97 2e 3b b5 4c 2a bb
       0.0062085297 0.0002849765 0.0026640296 -0.0025985662
000050 39 89 a4 3c 38 f2 f5 3b bd 3e 64 ba c2 a1 3a 3b
       0.020084964 0.0075056814 -0.00087068585 0.0028477763
000060 90 c2 c2 3c a2 fb 4b bd 8c 4f b2 3c 65 f7 0f 3d
       0.023774415 -0.049800523 0.021766447 0.035148043
000070 c2 b0 d1 bb de 39 fc bb 29 66 33 3d dd 05 03 3d
       -0.006399245 -0.007697328 0.0437986 0.031988014
000080 52 e2 08 3c 06 18 6e 3c 94 2e 87 3c 40 53 42 3c
       0.00835474 0.014532095 0.016501702 0.011860669
000090 d2 dd 9e 3c a8 ed a4 3c 1e eb 1d 3d b9 b1 55 bc
       0.019392882 0.020132855 0.038554303 -0.013042861
0000a0 20 e5 c8 3c fd 46 7a 3c fc 14 32 3c 25 bd ba bc
       0.024523318 0.015275714 0.010869261 -0.02279527
0000b0 53 90 66 3d e5 f0 ef ba 85 07 e1 3b e1 44 81 bc
       0.056289982 -0.0018306045 0.0068673515 -0.015779914
0000c0 09 65 23 3c a4 65 ad bc 54 7a a4 bc 73 3e 8c 3b
       0.009972819 -0.02116663 -0.020077862 0.0042799055
0000d0 f2 d6 a5 ba c0 ce bd b9 e4 27 c1 bc 21 dc 24 bc
       -0.001265256 -0.0003620293 -0.023578592 -0.010062248
0000e0 a8 51 8e 3c 8c 72 db ba 94 55 d4 3b 63 3e 1e 3d
       0.017372921 -0.0016742512 0.0064799283 0.038633715
0000f0 79 8f 23 bd 3e d4 05 3d 1d b9 85 bc 90 25 20 bd
       -0.039931748 0.032673113 -0.01632362 -0.039098322
000100 3a b0 80 3c 30 95 f4 bb c9 e3 6a 3c 1e f4 a9 3c
       0.015709031 -0.0074640736 0.014336535 0.020746287
000110 5e 8d 18 3d 07 5c 87 3a a0 62 37 bc 07 fa 5e 3c
       0.037244193 0.0010327109 -0.011192948 0.013609416
000120 7c 56 40 3c ac 6e b1 3c f3 bc 3a 3d ef 95 10 bc
       0.0117393695 0.021659218 0.045590352 -0.008824809
000130 d0 7d 20 bc 8a 6d 87 bb 89 24 a3 bb 61 12 e0 3c
       -0.009795621 -0.004132931 -0.0049787206 0.027352514
000140 80 0b 82 3c f2 cf 8a 3a 40 27 4b bc 5b 1f 22 3c
       0.015874624 0.0010590537 -0.012399495 0.009895171
000150 14 99 02 bc 4e e5 7d bb de df 0d bd 86 58 de 3b
       -0.007971067 -0.0038741413 -0.034637325 0.006785455
000160 2b 62 c2 3c 9b 0b 02 bc ab 8b fb bb 9b 86 b8 3c
       0.02372845 -0.007937337 -0.007676562 0.022525122
000170 13 57 96 bc 44 29 a0 3a eb 2e a0 3b 12 4b 2d bc
       -0.018352067 0.0012219329 0.0048884056 -0.01057698
000180 05 8d ea 3b 4b 02 a3 bc 28 ea 39 3c 73 d1 7d 3c
       0.007157924 -0.019898554 0.011347331 0.015491831
000190 c4 29 c8 3b b5 d6 b3 ba 80 88 a4 3c 4d 9b a0 3b
       0.0061084945 -0.0013720604 0.02008462 0.004901326
0001a0 bc 57 5e ba 77 d0 29 3c 2e 4b 27 bc 20 46 d7 bc
       -0.00084817014 0.010364643 -0.010210795 -0.026278555
0001b0 fd 30 1b 3c 07 1e 56 bc 79 1f 90 3c ef ff 0f bd
       0.009472129 -0.0130686825 0.017593132 -0.035156187
0001c0 5c 58 34 3b ea dc 00 3c 60 09 bc 3c 8d 25 1f 3c
       0.0027518487 0.00786517 0.02295369 0.009713543
0001d0 e7 41 01 ba 64 44 01 bc af 07 ac 3b 0c 25 ea ba
       -0.00049307797 -0.007889841 0.0052499394 -0.0017863824
0001e0 a3 98 fe bc 34 35 2a bb 66 7d 48 3c b9 a4 ce 3c
       -0.031078642 -0.0025971653 0.012236929 0.02522503
0001f0 0e 5c 4e 3b e2 88 dc 3a 43 9b 0a b8 e4 17 e6 39
       0.0031487974 0.0016825462 -3.3046363e-05 0.00043886818
000200 5e d7 45 3c 3f c5 5f 3c a3 fc f9 bc 61 7c 29 3c
       0.012075273 0.013657867 -0.030515974 0.010344596
000210 aa 62 bc 3b 52 7a c9 bc 22 9e be 3b e2 a3 db 3c
       0.0057490664 -0.02459446 0.0058171907 0.026811544
000220 bb 79 a4 bc f2 3d 09 bd a6 c5 dc bb 40 26 6a bc
       -0.020077577 -0.03350634 -0.0067374287 -0.014291346
000230 31 8f 15 bd 14 ca 51 3c c1 68 0d 3d 5c d3 51 3a
       -0.03651351 0.012804527 0.03452373 0.0008004212
000240 06 d2 81 3d 06 4c 12 3d 51 74 dd 3c c6 9b ec bc
       0.06338887 0.035717033 0.027033003 -0.028882872
000250 0a 4e dd bb 26 5a 91 3a 90 4c ec bc b2 60 87 3b
       -0.0067536877 0.0011089488 -0.028845102 0.0041314
000260 6c 0a b3 3c ef cd 84 3c 50 c8 8a bc 1f 42 ea bc
       0.021855555 0.016211478 -0.01694122 -0.028595982
000270 3e f3 66 3a c6 81 04 b9 5c 03 8a 3c 4c f5 82 3c
       0.00088100496 -0.00012636845 0.016847305 0.015986107
000280 ef 73 37 3d ba 85 f0 3b 79 c8 a0 3b c7 af 44 3b
       0.044788297 0.00734016 0.0049067107 0.0030011998
000290 4e 2c c2 bc 76 5f 9b 3c 2e 51 2d 3c 34 25 80 bb
       -0.023702767 0.018966418 0.010578437 -0.003910685
0002a0 14 9f 70 bc de a5 e5 bc 93 41 a3 3b 1f bb 26 3c
       -0.014686365 -0.028033193 0.0049821823 0.010176449
0002b0 13 c3 b4 3a c5 71 b2 3c 73 be c6 3b c7 b5 35 bc
       0.0013791047 0.021782765 0.006065184 -0.011090702
0002c0 26 28 e7 bc ac d1 23 3b fa 99 09 3c 06 2b cf 3c
       -0.028217386 0.00249968 0.008398527 0.02528907
0002d0 bd 5c be 3c 37 ba 00 3d 63 67 93 3c 4a 95 d4 3c
       0.02323758 0.03142759 0.017993635 0.025950093
0002e0 4c b3 d1 bc e8 5b 0f 3c 06 85 07 bd 36 49 18 3c
       -0.02559819 0.0087499395 -0.033085845 0.009294799
0002f0 b2 d5 60 bc fa 95 3d 3c 95 84 07 3d a1 27 8b 3c
       -0.013722824 0.011571402 0.033085424 0.01698667
000300 45 33 6f bb bc 71 b9 bb 0a 3a e8 bc 07 40 1e bb
       -0.0036499065 -0.00565931 -0.028347988 -0.002414705
000310 85 cf 1a bc 21 0b 65 3c 5b bc bb bb 8e 46 6c 38
       -0.009448891 0.013979704 -0.005729241 5.6332494e-05
000320 e0 c6 1c 3b 37 ff 86 bc 8f fa 17 3a cd aa 97 3b
       0.002392225 -0.016479118 0.0005797529 0.0046285153
000330 9b 69 b9 3c 8e d0 f4 bc 08 e6 51 bc c1 0d ac 3c
       0.022633364 -0.029884603 -0.012811191 0.021002652
000340 13 16 80 3c e8 61 0f 3c bb a2 9d 3c 91 f3 10 bc
       0.015635526 0.00875137 0.019242635 -0.008847133
000350 cb 34 b2 3c af 21 9f 3c fc 64 f2 3c c8 63 13 3c
       0.02175369 0.019425241 0.029589169 0.008995958
000360 98 8b 1c 3b da 62 5d 3d 14 a4 de 3c c9 f3 2e bc
       0.0023886915 0.05404935 0.027177848 -0.01067824
000370 45 cd e6 bb cc 36 3a 3b 74 0f b7 3c fe 98 7d 3b
       -0.007043513 0.002841401 0.022346236 0.0038695927
000380 3d a0 aa bc 19 ed 38 3c c0 c4 92 3c b1 70 01 bd
       -0.02082836 0.011286997 0.017916083 -0.03160161
000390 9a 35 f7 bb 37 48 a7 3c a6 7d c8 bc 46 0b 69 bc
       -0.0075442316 0.020420177 -0.024473976 -0.014223879
0003a0 b4 0a 25 bc d7 ce 19 3d 7b e2 17 bd 71 5c 11 bb
       -0.010073353 0.037550773 -0.037081223 -0.0022180344
0003b0 b2 00 b2 3c 4d 49 c1 3a b7 fe 8f bb 4b ab 8f 3c
       0.021728847 0.0014746577 -0.004394378 0.017537734
0003c0 29 77 2f bd ff 4e 95 3c 00 3c 85 bb 7a 01 46 bc
       -0.04283825 0.018226145 -0.0040659904 -0.012085313
0003d0 37 9a 1d 3c 38 b3 de 3b c6 02 be ba 72 93 19 3c
       0.009619287 0.006796267 -0.0014496676 0.009373533
0003e0 03 b7 c4 bc fa 4c 11 3d 30 af 02 3c 5d 02 b4 3b
       -0.024013048 0.0354738 0.007976338 0.005493446
0003f0 31 6c ec bc e2 ac 57 bc 20 f4 6d 3d 25 05 c9 bc
       -0.028860183 -0.013163777 0.058094144 -0.024538586

network_body._body_endoder.seq_layers.2.weight f4 [256, 256]
000000 dd 83 28 bd 9f c8 b7 bc bf b2 aa 3c 13 87 82 3c
       -0.04114138 -0.02243453 0.020837186 0.015933549
000010 ea ef 28 bd d5 23 74 bd 86 f2 da bc 64 bb 7e 3c
       -0.041244425 -0.059604485 -0.026726972 0.015547607
000020 df b9 89 bd b8 49 9f 3d 9a 9d c1 3d 43 ac 5b bd
       -0.06724905 0.077777326 0.09453888 -0.05363108
000030 60 ec a8 bc 5c 95 fb bb 2a 8d 84 3c 49 4e 89 3d
       -0.020620525 -0.007677717 0.016180594 0.06704385
000040 73 80 86 bb 88 76 1e bd cf 30 95 3c fb 20 dd bc
       -0.004104668 -0.03868726 0.01821175 -0.026993265
000050 b8 6a e9 bc cc 24 1f 3b 5c b3 eb 3b c0 51 52 bc
       -0.02849327 0.0024283407 0.007193012 -0.0128368735
000060 d9 96 27 3d 08 bd 71 bd c1 bf 8a bd be eb 24 be
       0.040915344 -0.059018165 -0.067748554 -0.16105554
000070 36 3d 3b 3d 7f b3 07 bd 76 74 3c 3c 98 53 5e 3c
       0.045712672 -0.033130165 0.011502376 0.013569735
000080 49 13 83 3d 0b 0d ae 3c 8b 24 d9 bd 36 bf c1 bd
       0.06400163 0.021246454 -0.10602673 -0.09460299
000090 8c bd a1 bb 99 22 93 3d 5b 58 17 3d 19 8a d7 bc
       -0.004935926 0.07184333 0.036949497 -0.026310967
0000a0 94 8f 7d bd 8b 75 c2 3d 7f b7 b7 3c 5a b1 02 3e
       -0.061904505 0.09495076 0.022426365 0.12762967
0000b0 0a b7 0c 3e 37 d9 ce bd fa 35 7b bd 12 fd 98 bb
       0.13741699 -0.10100024 -0.061330773 -0.00466884
0000c0 73 52 a7 bd df 72 96 3c f1 ea bc 3c 15 e0 fe bc
       -0.08170023 0.018365322 0.023061248 -0.03111271
0000d0 e5 a5 bf bd 30 31 80 bc 55 8e 99 bd e9 cf c8 3d
       -0.09357814 -0.015648454 -0.07497851 0.09805281
0000e0 17 12 a5 bd 75 2a 6d 3d a2 e7 03 bc e6 2f c2 3c
       -0.08060091 0.05790182 -0.008050831 0.02370448
0000f0 1b df 47 3d 4f 46 eb bc e9 12 b5 3d 1f 40 a3 bd
       0.048796754 -0.02872005 0.088414975 -0.079712145
000100 db 5c 33 bd de 86 c3 b9 25 9b 4d 3c ed 0e 71 3c
       -0.043789726 -0.00037293782 0.012549196 0.014713031
000110 5d b8 cf 3d 8a 04 8c bc 6b 59 0f bd d8 89 1c 3d
       0.101425864 -0.017092008 -0.034997385 0.038217396
000120 e3 a0 0c 3d 88 12 49 be fc a1 99 3c e4 5d ca bd
       0.03433312 -0.19635975 0.018753998 -0.098811895
000130 5f 05 a4 bd 97 cc d3 3c 4b 6d 23 be 2e 4b 6c bd
       -0.08008837 0.025854392 -0.1595966 -0.057688884
000140 ff 42 8b 3d 52 9a 5c bc f5 18 7f 3c 7c ef 24 3d
       0.06799888 -0.013464527 0.015569915 0.040267453
000150 2e 89 91 bc 3e 83 86 be 1f 00 93 3d 72 70 44 bd
       -0.017765608 -0.26272005 0.071777575 -0.0479588
000160 a8 72 d6 3c 41 fb e2 bc 3b 6f 90 3c d1 2e 85 bb
       0.02617772 -0.027707698 0.017631164 -0.004064419
000170 6d 05 8b bd 1f ae 85 bc 8d e3 ae 3d b7 96 70 bd
       -0.06788144 -0.016318379 0.085394956 -0.058737483
000180 b0 10 e9 bc c6 82 df bd 50 62 a0 3b 5e 97 84 3d
       -0.02845034 -0.10913615 0.0048945323 0.064741835
000190 39 df 6c bd ad 52 1d bd ec 62 76 bd e5 4d 40 39
       -0.05783007 -0.038408924 -0.060152933 0.00018339565
0001a0 9a 41 54 3c cd 9b 3e be 81 26 92 3c 19 e8 2a bd
       0.012955094 -0.18614121 0.017840626 -0.04172525
0001b0 5b 26 b5 3d 65 9b b6 3d 80 97 24 3d 3e cd 66 bd
       0.08845206 0.08916358 0.040183544 -0.056348078
0001c0 0c 60 0e 3d c5 3b ba 3d ef 9e fd 3d 74 db 90 3c
       0.034759566 0.090934314 0.1238383 0.017682768
0001d0 91 3a e5 3c 5a d6 e4 bd 02 15 04 3e fc 13 b4 bd
       0.027982028 -0.11173697 0.12898639 -0.08792874
0001e0 62 d7 65 bd f6 a6 cb bd cc ed 3b 3d b7 94 06 3e
       -0.05611361 -0.09943955 0.045881078 0.13142668
0001f0 c2 f8 22 bd 24 bd ae 3d 72 30 f5 bd 82 e5 e2 3c
       -0.039788015 0.085321695 -0.11972131 0.027697328
000200 bd ab a7 3c 81 e4 cb 3d 36 57 c4 bd 7f 7e 8b bc
       0.020467633 0.09955693 -0.09586947 -0.017028091
000210 4c 47 09 bd 10 a5 47 3c 21 56 1f be b3 fc 00 bd
       -0.03351526 0.01218535 -0.155602 -0.031490993
000220 d9 8d c9 3d 9d ef ff bc 03 fb cd bd 62 b4 7d 3b
       0.098415084 -0.031242186 -0.10057642 0.0038712253
000230 e5 60 75 bd 17 b4 30 3c b1 f9 41 bd 10 71 08 bd
       -0.05990686 0.010785124 -0.047357265 -0.03331095
000240 99 d8 44 bd dd d2 83 3d e6 af a3 3d 18 c5 ce 3c
       -0.048058126 0.06436703 0.07992534 0.025240466
000250 60 0c 81 3c 28 52 a9 bb 61 89 af bd 24 35 70 bd
       0.015752971 -0.0051672645 -0.08571125 -0.05864443
000260 2f b1 f1 bd c4 04 ba 3d 5f 08 37 3c 3a 53 c9 bc
       -0.11801373 0.0908294 0.011171429 -0.024575818
000270 6e 0a 12 be 54 2f 18 bd 74 0f e7 3d 01 2c 00 bd
       -0.14261791 -0.03715451 0.11282244 -0.031291965
000280 c0 3e 40 3d 86 53 04 3d 49 72 2e bd 9f 39 90 3d
       0.046934843 0.032306217 -0.04258946 0.0704224
000290 7e 2a 05 bd dc 16 51 3d b3 81 4d bd 0b 19 6b 3d
       -0.032511227 0.05104719 -0.05017252 0.05739693
0002a0 b6 dc d7 bd a8 a6 80 bd bc 3e 92 3d f2 a5 c3 bd
       -0.10540144 -0.06281787 0.07140872 -0.09553136
0002b0 c7 4a 08 bd ee 39 a7 bb c3 38 5c bc 0f 7e 01 bb
       -0.03327444 -0.0051033413 -0.013441267 -0.0019758975
0002c0 32 0b 1b bd 20 84 32 3d 15 28 d5 bc 48 c7 b5 bb
       -0.037852474 0.043583035 -0.02602009 -0.005547438
0002d0 d2 d7 3e 3d ff 32 98 3d ea 8e 34 bd 36 73 f5 bd
       0.04659254 0.07431602 -0.044081606 -0.11984865
0002e0 66 39 09 be 70 a8 c3 3d 98 99 74 bd f7 d9 2c 3e
       -0.13400802 0.09553611 -0.05971679 0.16880022
0002f0 a5 c1 82 bd d1 ee 3d 3d 11 d1 d6 3d 9f ff a9 3d
       -0.06384591 0.04637033 0.10489095 0.08300709
000300 87 b3 a0 bd 32 b9 25 bd b9 64 0c 3e 11 f9 57 bd
       -0.07846742 -0.04045982 0.13710298 -0.052727763
000310 7a 02 88 3d 3f b5 d0 3d cc 34 22 bd ab a7 18 3d
       0.06641097 0.1019082 -0.039601132 0.037269276
000320 55 9c c4 3c 14 46 11 bd f2 6c 42 bd 38 5b 78 bc
       0.024000326 -0.035467222 -0.04746718 -0.015158467
000330 24 8b 0a 3d 0c b0 ea bd 85 4c 13 bc e1 13 d2 3c
       0.0338241 -0.114593595 -0.008990412 0.025644245
000340 76 c4 a2 3b 64 60 97 bd fe 41 1b 3b 95 19 01 3d
       0.0049672676 -0.07391432 0.0023690457 0.031518538
000350 d4 ac 9d bd 56 7a 6d 3d f4 df 11 3d f7 ba 69 3d
       -0.0769898 0.057977997 0.03561397 0.05706307
000360 d4 d7 d0 3d 29 d6 81 3d 6f 73 b1 bc 25 9a 8e 3d
       0.10197416 0.06339676 -0.021661488 0.069629945
000370 a8 ea df 3d 78 6f 0b bc e8 ca b4 3d 85 b7 8b 3d
       0.10933429 -0.008510463 0.08827764 0.06822113
000380 95 cf 36 3c d6 2f 30 3d 07 f4 b6 3c f1 06 96 3d
       0.01115789 0.04301437 0.022333158 0.07325543
000390 e5 ec dc bd 5a f1 a8 3a d8 37 82 bd 81 58 28 3d
       -0.107873715 0.0012889311 -0.063583076 0.04110003
0003a0 f8 f6 09 be a9 07 8d 3d 30 8e c5 bd 25 7a 4f 3d
       -0.13473117 0.06886227 -0.09646261 0.050653595
0003b0 88 5c 3a 3d e3 ce 47 bc 77 58 d4 3c ba 9a 45 3d
       0.0454984 -0.012195322 0.02592109 0.048243262
0003c0 12 06 8a bd e0 cd 22 3d 69 49 00 3d 19 f3 be bc
       -0.06739439 0.03974712 0.03132001 -0.023309277
0003d0 1f d0 9e bb 43 44 61 bd b1 19 c3 bd 47 08 33 bd
       -0.0048465873 -0.05499674 -0.095263846 -0.043709066
0003e0 1b b1 f1 3c 85 35 cb bb ae 17 8d bb 9f 90 24 bd
       0.029503396 -0.0062014484 -0.0043058014 -0.040176984
0003f0 a0 60 27 bd 0a f7 8e bd 67 63 1a 3e 3b 6a 94 3c
       -0.040863633 -0.06980713 0.15076981 0.01811706

network_body._body_endoder.seq_layers.2.bias f4 [256]
000000 ab f4 9e 3c d1 55 2f ba ab f0 a0 3c c9 09 cc 3b
       0.019403776 -0.0006688508 0.01964601 0.0062267524
000010 b4 78 33 3c 85 89 12 bc 14 58 6f bb 4f e7 4d 3b
       0.010954071 -0.00894392 -0.0036521005 0.0031418388
000020 08 8b d5 bb f3 d9 84 ba 62 cb 71 3c 32 30 de 3b
       -0.006516818 -0.0010135755 0.014757963 0.0067806477
000030 42 25 ed bb 4f bf 94 bc 20 20 cc 3b 64 14 ef bb
       -0.0072371075 -0.01815763 0.0062294155 -0.007296132
000040 98 e4 0f bb 41 37 c7 ba 97 fb ad 3b 5b e8 95 bb
       -0.002195632 -0.0015198962 0.005309533 -0.004574818
000050 89 22 e7 3a 33 13 67 bc 64 51 8a 3a 8b 6a 08 3c
       0.0017634194 -0.014103699 0.0010552821 0.008326183
000060 10 e0 a4 3c c9 71 7d 3c dc 97 a6 b9 5c f4 c3 3c
       0.020126373 0.015469023 -0.0003177513 0.02392023
000070 55 1e 57 bc 91 da 72 3c 20 8d ee 3c 60 58 15 bb
       -0.01312979 0.014822618 0.029120028 -0.0022788271
000080 c4 2b e9 ba 72 a5 9c b9 23 7a 96 39 36 82 b2 3b
       -0.0017789532 -0.00029877905 0.00028701228 0.0054476513
000090 4f 89 60 3b 32 31 35 bc db 6d 12 3c 36 13 44 bc
       0.003426153 -0.011059092 0.008937324 -0.011967471
0000a0 ee bb 02 3d 9e f4 94 3c 35 98 2c 3c e6 6a 6b bc
       0.031917505 0.018183049 0.010534336 -0.014368748
0000b0 95 f8 96 3c 57 e7 0d bc fa e7 c7 bc b5 aa 5d 3c
       0.01842908 -0.008661113 -0.024402607 0.013529469
0000c0 98 6f 02 3b d0 d3 48 3c f5 9e 5a 3b 8e 2f 17 3b
       0.001990294 0.012257531 0.0033358906 0.0023069116
0000d0 84 3a c7 3b 52 b3 93 3c e5 1e 7f 3b b9 63 11 3b
       0.0060799737 0.018029843 0.0038928327 0.0022184683
0000e0 48 13 4c 3c 6b e2 5e bc 3d 12 11 bc ed 17 53 bc
       0.012455769 -0.013603787 -0.008854446 -0.012884122
0000f0 58 b4 68 3b 5b 46 34 3b 85 bf f7 3b 0f 41 90 bc
       0.0035507884 0.0027507755 0.0075606727 -0.017609147
000100 7b 82 a6 3b 61 da 84 3b 7c 88 96 3b 9f 96 65 bb
       0.0050814725 0.004054353 0.004593907 -0.0035032404
000110 73 a7 77 3b f5 dd e6 bb 1a 10 81 3c e8 10 b9 3c
       0.0037789016 -0.0070455023 0.015754748 0.02259107
000120 3f b5 76 bc b3 68 11 3b d9 a4 5b bc 68 4e e6 3a
       -0.015057861 0.002218765 -0.013406002 0.0017570974
000130 d1 27 89 3b e3 3c 84 3c 20 45 37 3c 23 5c bd 3b
       0.0041856547 0.016142314 0.011185914 0.005778806
000140 34 5d 9b bc 18 4f 1a bb f4 e6 08 bc 30 2b e4 bc
       -0.018965341 -0.0023545679 -0.008355845 -0.027852625
000150 9f 42 88 3b 6f 07 9b bc b3 a4 d4 bb 72 6a 00 bc
       0.0041583325 -0.018924443 -0.0064893602 -0.007837879
000160 fb d3 9f b9 dc 77 96 3c ab a4 7e bc c4 81 85 3a
       -0.0003048478 0.0183677 -0.01554219 0.0010185768
000170 94 b2 ed bb e8 24 8d bb 4e a3 0c bc 2d 7c ab b7
       -0.007253954 -0.004307378 -0.008583857 -2.0442612e-05
000180 1a 7a d9 bb 8d 40 e7 bb 53 77 87 bb 3c 7f 57 bb
       -0.00663687 -0.0070572556 -0.0041340976 -0.0032882234
000190 fb c4 ae 3a f2 be 09 3d 63 30 e3 3c 35 c0 4c 3b
       0.0013333851 0.033629365 0.027733034 0.0031242494
0001a0 04 a4 88 bc a0 de 80 3c ee 88 5f 3b 85 63 98 bc
       -0.016679771 0.015731156 0.0034108716 -0.018602142
0001b0 1c 63 87 3b 45 7d 99 ba 35 9a 00 bc 09 6d d1 3c
       0.004131688 -0.0011710307 -0.007849266 0.025564687
0001c0 48 a9 19 3b 28 a1 80 bc 9d fd c8 3b 24 8c a6 3c
       0.0023446847 -0.015701845 0.0061337487 0.020330496
0001d0 43 22 a3 3a 10 39 d3 3a dd 8b a7 3b 05 31 36 3c
       0.0012446124 0.0016115028 0.0051131085 0.011120086
0001e0 e1 29 01 3c 23 f8 33 bc 65 3d ce 3b 19 a9 57 3c
       0.00788352 -0.010984453 0.00629394 0.013162875
0001f0 0f f4 ee 3b c2 07 8b 3c 9b f5 ed 3b 1e 20 9d bb
       0.0072922776 0.016971473 0.0072619445 -0.0047950884
000200 0d 8d 27 3c 88 0e 16 3c 58 ff 24 3b bf a3 64 bb
       0.0102265 0.009158738 0.002517661 -0.003488764
000210 f0 dd 0b 3c 53 12 2a 3b 7f b6 f9 3c 5f da fd bb
       0.008536801 0.0025950863 0.030482529 -0.007746979
000220 29 89 d7 bb 10 8f 8d bb 08 76 65 bc d2 20 3c 3b
       -0.00657763 -0.004320033 -0.014005192 0.0028706086
000230 71 02 ce bb cd 42 55 ba fe 15 ec 3b 75 e8 7d bb
       -0.006286912 -0.0008135259 0.00720477 -0.0038743292
000240 58 bb b7 3b aa 96 44 3c 5f 82 26 3b ba 13 c7 3b
       0.00560705 0.011998812 0.0025407297 0.0060753496
000250 a8 10 73 bb 5b a5 05 bc 9a 1a 44 3c 49 7b 2d 3b
       -0.0037088785 -0.0081571 0.011969233 0.0026471189
000260 c6 90 4a bc 31 b4 f6 3c 8d e0 0c bc c7 b8 02 ba
       -0.012363618 0.030115219 -0.008598459 -0.00049866404
000270 5a 94 ad bc 13 99 a0 3b d6 b2 b4 3b a0 4c ef 3a
       -0.021188904 0.0049010604 0.005514483 0.0018257089
000280 98 88 9e 3c 9f 75 e5 3b bb ad be 3b 0c 89 ae ba
       0.019352242 0.007002547 0.00581905 -0.001331599
000290 d5 db 97 3c b2 42 ee 3c c0 8d 0f 3c b6 be 90 bc
       0.018537441 0.029084537 0.008761823 -0.017669063
0002a0 d9 49 5d 3b 73 16 a0 3c fc 72 9a bc 90 36 0b bc
       0.003376594 0.019541955 -0.018853657 -0.008496895
0002b0 ce fc a3 bb 6f ce 80 3a 98 95 06 bc a9 ec 04 bb
       -0.005004502 0.0009827147 -0.008214377 -0.0020282662
0002c0 13 9c f7 3c 45 82 23 3c 28 1e 11 3c 4c 7b ad 3b
       0.03022579 0.009979789 0.0088572875 0.005294239
0002d0 f5 21 a6 3c 78 81 5c 3b ac 51 1c 3a 19 32 03 3c
       0.020279864 0.0033646505 0.0005963098 0.00800755
0002e0 9a 4c 22 bc 16 e7 28 ba 0c 08 9e 3c 33 2c 7f bc
       -0.009905959 -0.0006443126 0.019290946 -0.015574503
0002f0 e8 da 07 3b 86 47 03 3c 5e 40 8d 3c 99 b3 40 3c
       0.0020729844 0.008012658 0.017242607 0.011761569
000300 00 37 32 b9 0a 59 d4 3c b0 cc 05 3c 83 e5 01 3d
       -0.00016995892 0.025921363 0.008166477 0.03171302
000310 2b ff 64 bc 63 c9 49 3c 61 82 fa 3b a1 66 5f 3c
       -0.013976852 0.012316081 0.007644937 0.0136353085
000320 d7 9e 86 3c d3 a2 3e 3b f7 80 8c 3b 2a bc 42 3a
       0.016433163 0.002908875 0.0042878347 0.00074285513
000330 54 b2 10 3a c4 a9 63 3c ca 64 4a bb 27 96 93 bc
       0.0005519737 0.013895456 -0.003088283 -0.018015934
000340 f5 8c d8 bb cd a1 25 3c e5 ae dd bb fc e5 7b 3c
       -0.0066086003 0.010109377 -0.006765234 0.015374657
000350 8a 5b e7 3b 0c d6 c2 3b e6 eb 08 bb c2 2a ab bb
       0.007060473 0.0059459265 -0.002089256 -0.005223603
000360 15 6c a5 ba f6 53 0c 3b de 7d 87 3c 0e b8 19 bb
       -0.0012620712 0.002141235 0.01653951 -0.0023455652
000370 b9 cd ab 3c 68 dd 70 bc 51 c4 a2 3c 11 37 c4 bb
       0.02097212 -0.014701225 0.019869002 -0.0059880097
000380 c3 bc 66 3b f2 d2 5e 3b 98 07 49 bc fe df a8 bc
       0.0035207726 0.0034000245 -0.012269877 -0.02061462
000390 c1 3e 20 ba f8 6f 0b 3b 1d b0 56 3c 4d ee e3 39
       -0.00061128667 0.0021276455 0.013103512 0.00043474362
0003a0 50 f7 4a bc 64 55 4e 3b a5 75 07 ba 16 a6 82 bc
       -0.012388065 0.0031484002 -0.0005167372 -0.015948337
0003b0 11 43 67 3c d4 02 8d 3c 21 e5 26 bc 96 f5 01 3b
       0.014115111 0.017213263 -0.0101864645 0.0019830219
0003c0 de 74 99 3b fe 1d e0 3c d8 99 11 3c c4 5f e9 3c
       0.004683121 0.027358051 0.008886777 0.028488047
0003d0 63 40 83 bb 82 d0 a1 bb a9 96 46 bc fb 5a 9d 3c
       -0.004005478 -0.004938186 -0.012120881 0.019208422
0003e0 01 f4 d4 3b 95 c4 86 3c be 86 45 3c 09 68 23 3b
       0.006498814 0.01645116 0.012056051 0.0024933836
0003f0 c4 90 73 3c 5a f6 78 3c b7 0e 93 bb 0a 80 79 3c
       0.014866058 0.015195454 -0.004487838 0.015228281

action_model._discrete_distribution.branches.0.weight f4 [2, 256]
000000 cc 02 98 bc bc d4 67 3b e3 fa d0 bb 19 6d 29 bc
       -0.018556021 0.0035374602 -0.0063775643 -0.010340952
000010 01 49 53 bc cc d6 9d bb f8 91 f2 3a be 16 a1 bb
       -0.012895823 -0.0048168655 0.0018506637 -0.004916041
000020 92 0c 89 3b 5d 27 e3 bb 0d e7 09 bc d0 e9 8f bb
       0.0041824067 -0.0069321827 -0.008416903 -0.0043918863
000030 46 13 bd bb f3 32 de 3b 1b 2b 0f bc 37 16 f7 3b
       -0.00577012 0.006780976 -0.0087383045 0.00754049
000040 c1 d4 17 3d 5b 2f ab bb 72 54 44 ba cf 04 6c 3c
       0.037068132 -0.005224151 -0.000748939 0.014405443
000050 8c e7 2e 3c ec e8 85 3c c9 74 03 bc f2 30 f9 3b
       0.010675322 0.016346417 -0.008023449 0.0076047117
000060 db 9f 11 3c 04 9e a7 bc 3f ce 84 bb a8 00 a0 bc
       0.00888821 -0.02046109 -0.0040529068 -0.019531563
000070 90 2b 48 3c 1e 36 ff bb 7f f5 02 bd e2 e8 e8 3c
       0.012217417 -0.0077884337 -0.031972405 0.02843136
000080 79 04 d3 3c 34 c2 92 3a b6 2b 15 bc 16 b9 f9 b7
       0.025758969 0.0011196793 -0.00910466 -2.97693e-05
000090 00 70 39 3c ce c1 b2 3b 4c 04 02 bc e3 e9 84 3c
       0.011318207 0.005455232 -0.007935595 0.016224807
0000a0 ff e4 d6 bc b5 30 ec bc ac 8a 4f bc 41 4b 61 3c
       -0.02623224 -0.02883182 -0.012667339 0.013750852
0000b0 82 c3 0a bd 85 1d d0 ba f2 59 c9 3c 46 c4 61 bc
       -0.033877857 -0.0015877938 0.024579022 -0.013779705
0000c0 c0 e5 1d 3c 6a 9e 67 b9 9f f8 da bb 47 c8 b6 bb
       0.009637296 -0.0002208889 -0.00668247 -0.005578074
0000d0 ca f1 b2 3c fa d9 02 bd c7 4f 9c bc f6 75 85 ba
       0.02184381 -0.03194616 -0.01908101 -0.001018225
0000e0 1b b5 91 bc 45 b9 e6 3c 77 18 24 bb bf 9c 0f 3c
       -0.017786553 0.028164515 -0.0025038996 0.0087653985
0000f0 86 b8 8d ba 26 8e 95 3c 40 6c c3 bb 50 09 73 3b
       -0.0010812439 0.018256258 -0.005963832 0.0037084408
000100 50 1c ea bb ab b3 2f bb cf 42 13 bc d2 0c 33 bc
       -0.0071444884 -0.0026809971 -0.008988096 -0.01092835
000110 1a e0 98 bb 17 a3 3e bb 6d 86 6c ba 83 5c d4 bc
       -0.004665387 -0.0029088908 -0.00090227165 -0.02592302
000120 38 11 90 3c 21 5a 88 bb e1 62 a9 3c 60 70 19 bc
       0.017586336 -0.004161135 0.020677032 -0.009365171
000130 e6 b0 d7 bb 7e 31 ef 3b 7f bd 50 3c fa 41 23 bb
       -0.0065823672 0.007299601 0.012740492 -0.0024911151
000140 b4 f8 68 3c dd 55 a2 3c 04 d4 cb 3b 95 bc a3 3c
       0.014219452 0.019816333 0.0062203426 0.019987384
000150 d4 41 6f bc 59 bc 1c 3c bd 1a ea 3c ba 7a 66 3c
       -0.014603097 0.00956639 0.028577203 0.014067346
000160 e4 c8 05 bc e1 62 13 3a 5f e3 9e 3c 90 2b 54 3b
       -0.008165572 0.0005622339 0.019395528 0.0032374598
000170 f3 27 82 ba 6b ce d4 bb f6 17 cf 3c 52 80 02 3a
       -0.0009930119 -0.0064943335 0.02527998 0.00049782277
000180 59 8b 8e bc fa b0 08 3c dc 26 82 bc c1 c0 b3 ba
       -0.01740043 0.008342976 -0.01588767 -0.0013714061
000190 c6 36 be bb 07 10 f0 bc 1d ee 52 bc 5a c5 11 bc
       -0.0058048693 -0.029304517 -0.012874153 -0.00889715
0001a0 f6 4a 24 3b 58 72 95 3b 2e ab 33 bc aa 40 7f 3c
       0.0025069094 0.00456075 -0.010966105 0.015579382
0001b0 5e 18 50 bb 99 7d 76 ba 3c 8f 44 bc f4 72 96 bc
       -0.0031752805 -0.0009402871 -0.01199704 -0.01836536
0001c0 ef e8 2a bc 12 6d 97 3c 49 1a a4 bb 4d 1e cc bc
       -0.010431512 0.018484626 -0.0050080162 -0.024916792
0001d0 d4 61 0f 3c a9 62 21 bc f5 61 2d bc af 38 5f bc
       0.008751351 -0.009850183 -0.010582437 -0.013624354
0001e0 7d 89 56 3b ed 7e c3 3b d4 d4 9d 3b 70 0d 8a bc
       0.0032735758 0.0059660585 0.004816631 -0.01685211
0001f0 89 09 25 bc e7 f1 56 bc 25 99 14 3b a6 eb e0 3b
       -0.010073074 -0.013119197 0.002267429 0.006864029
000200 fc 1b 9d bc 36 aa b3 3b b3 40 4b 3b 77 04 ce bb
       -0.019178383 0.005482937 0.0031013906 -0.0062871533
000210 5a b7 7d bc 7a d7 1c 3c d1 b4 22 bd 18 21 38 3c
       -0.015485609 0.009572858 -0.03972322 0.011238359
000220 62 a1 94 3c 46 02 20 bc 7d 02 a7 3b c3 e3 14 bc
       0.01814336 -0.009766167 0.005096732 -0.009087506
000230 40 72 8e 3b c5 be 15 bc f6 d1 0e bc 4e 39 7b bb
       0.0043471158 -0.009139721 -0.008717051 -0.0038333717
000240 02 1e 90 bc d4 b2 dc 3b 8f d1 a7 3b a1 75 b3 bb
       -0.017592434 0.006735185 0.005121417 -0.005476669
000250 3f ec 98 3c e5 09 49 3c ac bb 9f 3c 5f 58 30 bc
       0.018667338 0.012270425 0.019498669 -0.010763257
000260 ed 4c 56 3a d2 a0 cf bc c1 24 5d bb 95 6e e7 3b
       0.0008174915 -0.02534524 -0.003374383 0.007062743
000270 1e 44 3e 3c de 85 ab 39 ab 9a 0d bc 19 93 f9 bb
       0.01161292 0.000327154 -0.008642833 -0.0076164124
000280 45 04 f8 bb 8f fc b3 3b a9 12 02 3b ae 97 64 3b
       -0.0075688683 0.005492754 0.0019847548 0.0034880447
000290 95 44 37 bc ca 73 14 bc 85 24 2a bc 2c 2d d3 3c
       -0.011185785 -0.009060809 -0.0103846835 0.025778376
0002a0 79 4c e4 bb 7c 8f e3 bb c8 58 a2 3c 28 58 c3 bb
       -0.006967124 -0.006944595 0.019817725 -0.005961437
0002b0 dd 9e 55 bb 4d 1b 2d 3c b3 34 9b 3c 09 40 ec 3c
       -0.003259591 0.010565591 0.018946027 0.028839128
0002c0 cc 10 b1 bc 68 60 a9 bb cc 24 cf 3b 05 f3 ce ba
       -0.021614455 -0.005168963 0.006321525 -0.0015788978
0002d0 42 eb 48 3b 42 90 4d bb 17 7b 25 bb a2 f9 47 bc
       0.0030657803 -0.0031366502 -0.002525037 -0.012205513
0002e0 17 7d 77 bb d1 14 79 bb d2 f3 88 bc fd b7 e5 3c
       -0.0037763768 -0.0038006792 -0.016717825 0.028041834
0002f0 01 6d ff bb 54 fa 92 bc 57 d7 0a bd a3 1a 07 3b
       -0.0077949767 -0.017941631 -0.03389677 0.0020615242
000300 36 40 ba 3a 49 3a d2 bc 4f 65 22 bc bc f6 99 bc
       0.001420981 -0.025662558 -0.009911849 -0.01879441
000310 d7 d5 91 bb 27 97 29 bb 78 1f 15 ba dc 4f a8 bb
       -0.0044505405 -0.0025877447 -0.0005688588 -0.005136473
000320 a0 63 68 bc de 77 0d bb 23 15 26 3b 19 9a d4 3a
       -0.014183909 -0.002158634 0.0025342188 0.0016220241
000330 1c d2 80 3b d8 45 6e bc 21 24 cc 3b cb fb bd 3c
       0.003931297 -0.014543019 0.006229893 0.023191353
000340 15 9f 34 ba eb 1d 87 bc 61 f1 d5 3a af 55 67 bc
       -0.000689016 -0.016493758 0.0016322547 -0.01411955
000350 e7 12 04 bc 06 74 39 3b af 61 8e bb 7f 81 57 3b
       -0.008061147 0.0028297915 -0.004345141 0.0032883582
000360 f3 6e ba bb a9 73 6f 3c 1d 45 21 bb df 4c cf bb
       -0.0056894957 0.014614978 -0.0024607845 -0.0063263024
000370 69 00 0c bc 5f be 2b 3c b6 be 2c bc ad a8 30 b8
       -0.00854502 0.0104824 -0.010543516 -4.211876e-05
000380 0c 2f d7 bb 05 10 16 bc 1c e0 9e bb e2 d9 04 3c
       -0.0065668877 -0.009159093 -0.0048484933 0.008108588
000390 64 ab 7e bc 10 41 85 3b 8f d1 a3 bc 90 5c 01 bb
       -0.015543792 0.004066594 -0.019997386 -0.001973901
0003a0 01 a7 19 3c 58 58 f9 bb ca 9f 68 bb 9f 0b cf 3b
       0.009378196 -0.0076094083 -0.0035495632 0.006318524
0003b0 89 10 5d bb 52 3a e4 3b 71 42 ff 3b f4 18 ba bb
       -0.003373178 0.00696496 0.007789903 -0.005679244
0003c0 70 f4 97 bb 7c 35 73 bc ba 88 2a 3c 2e f1 4c bc
       -0.0046372935 -0.014844295 0.010408575 -0.012508674
0003d0 99 c3 e8 3b 16 f0 c6 3c b8 d8 75 3c 79 7c d1 39
       0.007103395 0.024284404 0.015005283 0.00039956326
0003e0 50 cb 40 bc c4 2c 9c bb 4f 99 85 bc 33 10 1b 3c
       -0.0117672235 -0.0047660787 -0.016308455 0.009464311
0003f0 b0 54 da bb f1 9e 32 bb 8e 39 b8 3c 80 d4 e3 3b
       -0.0066629276 -0.002725538 0.022488382 0.006952822

action_model._discrete_distribution.branches.0.bias f4 [2]
000000 27 2e 1c bc 2a 2e 1c 3c
       -0.009532488 0.009532491

action_model._discrete_distribution.branches.1.weight f4 [3, 256]
000000 e8 6b fe bc b7 03 9d 3a 2b a2 5a bc 34 49 c5 bb
       -0.031057313 0.0011979257 -0.013344328 -0.0060206894
000010 36 7d e8 bb 5e 6d 1b bb 1a 74 2a 3c 58 d6 00 bc
       -0.0070950044 -0.002371631 0.010403657 -0.0078636035
000020 e3 ac 9a bb 6b 53 fc ba 54 69 ca bc 74 9f 17 ba
       -0.0047203167 -0.0019250935 -0.024708427 -0.0005783953
000030 3a c2 8d 3b d4 03 c1 3c 27 ff db 3b ee 44 d1 3b
       0.004326132 0.023561396 0.006713766 0.006386391
000040 d7 39 23 3c 5a 32 f2 3b d3 bf ad bb 87 71 aa bb
       0.009962521 0.0073912563 -0.0053024082 -0.005201522
000050 3b d6 b9 b9 aa 26 f6 3c 11 40 3b 3a 5f 98 95 bc
       -0.00035445564 0.030047733 0.00071430305 -0.018261133
000060 3f 34 15 bc f5 3e 5b bc d7 e1 01 3c 9f 33 d6 bb
       -0.009106695 -0.013381709 0.00792738 -0.0065369154
000070 fe 1d 92 3c 38 b1 7d bc 15 d7 13 bc 4a d0 0c 3c
       0.017836567 -0.015484147 -0.0090234475 0.008594582
000080 de 8a 4a 3b 4f 38 a9 3b 93 13 23 ba ae f0 24 bc
       0.0030905525 0.005164183 -0.00062208733 -0.010067148
000090 12 0f 65 bb a0 fe 1b 3c 3a 95 11 bc 10 45 5f 3b
       -0.003495161 0.009521157 -0.008885676 0.0034068264
0000a0 c9 4d 32 bc 8e 06 17 bc 72 e1 01 3c 25 44 41 3c
       -0.010882803 -0.009217871 0.0079272855 0.011796032
0000b0 a6 44 d2 b8 2b f4 4e 3a b9 70 31 3c 45 6f b7 bb
       -0.00010026367 0.000789466 0.010830098 -0.005597981
0000c0 16 eb 04 3c c5 20 11 bc a6 24 a8 3a 65 db 43 38
       0.0081126895 -0.0088579105 0.0012828305 4.669595e-05
0000d0 d5 40 3d bb aa 6f 4d bc b2 8e c3 3b c2 aa b9 3a
       -0.0028877754 -0.01253883 0.0059679383 0.001416527
0000e0 21 f8 78 bb ec 7b 91 3c a4 8a 2d bc 35 c4 97 3b
       -0.0037989693 0.017759286 -0.0105921365 0.004631544
0000f0 a2 04 32 3c 75 02 85 3c a6 a4 16 bb 3e c9 7e 3c
       0.010865362 0.016236523 -0.0022986322 0.01555091
000100 f6 3f 90 3c 04 3a b1 39 d1 e6 63 3b e6 50 fb bb
       0.017608624 0.00033803296 0.0034775028 -0.007669556
000110 df 29 a5 3b a4 f1 4d 3b c7 4f 89 bc 10 e1 23 3a
       0.005040392 0.0031424547 -0.016761674 0.00062514935
000120 14 f2 ae 3b f9 ce cf 3b a3 52 88 3c ae 05 82 3b
       0.0053389166 0.0063418117 0.016640967 0.003967962
000130 23 93 2b bb a7 59 91 b7 bd 0f 03 3b 99 89 11 3c
       -0.002618023 -1.7327095e-05 0.0019998394 0.0088829035
000140 8d 25 97 3c 5e e9 b9 3a 3a f3 e6 3b 7d 3c d3 3b
       0.018450523 0.0014183929 0.007048038 0.0064464197
000150 65 e1 53 3b 77 e7 b3 3c 7c 91 50 3b 9b 54 73 bb
       0.003233039 0.021960957 0.0031824997 -0.0037129286
000160 30 9e 66 bb 7f 6f f5 ba 11 42 8b 3c 22 2b 3a 3b
       -0.0035189502 -0.0018725245 0.016999276 0.0028407057
000170 36 15 dd 3a 71 7c 5b bb 6e d0 73 3c 28 56 46 bb
       0.0016867283 -0.003349092 0.0148812365 -0.0030263755
000180 3d 1c a8 3b 01 4e ae 3b a0 15 23 bb 14 aa 04 bc
       0.0051303194 0.0053193574 -0.0024884716 -0.00809719
000190 b9 90 8a 3c b5 64 9f ba 55 fd b8 3b b9 54 9d bb
       0.016914712 -0.001216075 0.005645434 -0.0048013595
0001a0 01 88 01 3b 5c e2 7a bc c7 0e 13 3c 28 7e 79 3c
       0.0019764903 -0.015312757 0.008975691 0.015227832
0001b0 06 3c 12 3a c8 ed 00 3b b4 92 b4 bb af c6 2a ba
       0.0005578402 0.0019672979 -0.0055106524 -0.00065145915
0001c0 7a 85 4e 3a 15 03 63 3a 66 a8 19 bb 4c d5 cf bb
       0.0007878166 0.0008659822 -0.002344632 -0.0063425656
0001d0 f2 e8 97 3b 50 8d 13 3c e6 39 2e bb 4d 90 0c bc
       0.0046359235 0.0090058595 -0.0026584803 -0.008579326
0001e0 f0 1a 95 bc 47 d5 a2 bb 67 2f b7 bb 0d 2e 04 bc
       -0.018201321 -0.0049692723 -0.0055903676 -0.00806762
0001f0 05 58 e4 bb 4f bb 16 3b cd 82 1b bc aa 4d 1a 3d
       -0.0069685006 0.0022999828 -0.009491635 0.037671722
000200 d5 02 91 3c 10 af 89 b9 8e d1 65 b9 1b c0 7d b9
       0.017701546 -0.00026261108 -0.00021917207 -0.00024199525
000210 6a 39 73 bc e9 c6 d5 3a 86 fd b4 bc 6d 1d 67 3c
       -0.014845232 0.001630989 -0.022093546 0.014106137
000220 3f b4 72 3b 3f ee 4a 39 ee f1 83 3c 0e 95 c5 ba
       0.0037033705 0.00019352975 0.016106572 -0.0015074329
000230 5c 05 31 bc 33 36 05 bb d5 e0 e4 3b 71 40 8c bb
       -0.0108045 -0.0020326495 0.00698481 -0.004280143
000240 e6 f6 a7 ba b0 21 a6 bb 43 3d e8 ba e4 f9 99 bc
       -0.001281467 -0.005069934 -0.0017718453 -0.018795915
000250 57 db e6 bb e0 01 af 3b 3d 4a 83 bc a6 61 13 3b
       -0.0070451903 0.0053407997 -0.01602661 0.0022488623
000260 9e c8 af 3b f6 c2 7c bc 33 65 e5 bb 43 8b 86 36
       0.0053644916 -0.015427342 -0.0070005893 4.0097234e-06
000270 6b d2 35 3c 96 ff 3b 3a e6 c4 34 3b 3e af 24 3b
       0.011097531 0.0007171569 0.002758318 0.0025128867
000280 1b d7 ee bb 80 16 04 bc 1a 3f ba 3b be df c0 3a
       -0.007288826 -0.008062005 0.005683792 0.0014715118
000290 9e 6a 61 bc 28 af 96 3b 84 56 6c 3c 61 34 24 3c
       -0.01375833 0.004598517 0.014424924 0.010022254
0002a0 93 fb b7 bb 1b e3 7c bb b7 60 51 3c e3 c4 37 ba
       -0.005614707 -0.0038587514 0.012779406 -0.00070102344
0002b0 08 ee f5 b9 77 e8 7b 3c 7f e4 d4 3c 89 9d f5 3a
       -0.0004690739 0.015375248 0.025987862 0.0018738966
0002c0 f3 75 bb bb 23 a2 1b 3c ac a2 f8 ba c7 b3 c7 3b
       -0.0057208478 0.009499106 -0.0018969378 0.006094429
0002d0 d3 65 fa bc d9 76 8a 3b 9b 5f 62 bc 2c 83 03 bc
       -0.030566132 0.0042255935 -0.013816739 -0.008026879
0002e0 1a 0e 21 3b b3 00 af bb fa 33 ee ba 81 1c c2 3b
       0.0024575056 -0.0053406595 -0.0018173449 0.005923808
0002f0 0c 8f 7f 3b 71 df dd 3b 99 05 5f bc 2a f1 df bb
       0.0038995175 0.006771021 -0.013612174 -0.006834169
000300 7d 01 c7 39 72 5b c0 bb b4 3e bc bb 31 59 03 bd
       0.00037957347 -0.005870276 -0.0057447795 -0.03206748
000310 16 dd 89 3a 84 a1 4b bb 98 58 4a bb a9 e4 65 3c
       0.0010518159 -0.0031071613 -0.003087556 0.014031568
000320 f4 0a 0a bd 19 eb e0 bb 15 f5 ac bc ae 54 2c 3b
       -0.033701852 -0.0068639633 -0.021112958 0.002629559
000330 15 e4 67 bb ad f2 04 3a 3c 72 9d 3b 33 a5 cf 3b
       -0.003538375 0.0005071562 0.0048048776 0.006336832
000340 8e 7b ac bb c2 f9 85 bb 0e c5 34 3b d9 87 53 bb
       -0.0052637523 -0.0040886113 0.0027583274 -0.0032277016
000350 75 7a b9 ba e3 9e c8 bb 93 0d a4 bb 08 f9 7f 3c
       -0.0014150875 -0.0061224564 -0.005006501 0.0156233385
000360 05 6b e2 3a 9c 04 88 3c ce bc 56 bc 15 b4 17 3c
       0.0017274326 0.01660376 -0.013106538 0.0092592435
000370 d9 e1 93 bc 4f 84 aa 3c 0d d1 b9 3a d0 2c aa 39
       -0.018052028 0.020815043 0.0014176682 0.00032458315
000380 b7 71 bb ba 3a 43 0c bb 87 9c 19 bb bd 96 b6 3c
       -0.0014300857 -0.0021402375 -0.0023439245 0.022288674
000390 9f 00 a2 3c e8 13 44 3a 07 e5 3d 3a cc 48 cd 3b
       0.019775687 0.0007479773 0.00072439056 0.0062647816
0003a0 5b d0 f6 3a 23 f3 49 3b 3d f3 18 bb 11 b9 e5 3b
       0.0018830405 0.0030815087 -0.002333834 0.007010587
0003b0 db 29 23 bc d8 89 db bb 63 42 0b 3c f8 c3 78 3b
       -0.00995871 -0.006699782 0.008499715 0.0037958603
0003c0 db 13 75 3b df 96 37 bc 9c 85 88 bb 83 b3 85 bb
       0.0037395868 -0.011205404 -0.004166318 -0.0040802374
0003d0 57 e0 2c 3c fe 70 e9 bb 87 a2 0b 3a 9c 2d 35 bc
       0.010551534 -0.0071240654 0.00053266477 -0.011058237
0003e0 ec b5 3a 3c dd e0 ea 3b 32 31 c8 bc 15 72 69 bb
       0.011395913 0.007167919 -0.02443752 -0.0035620977
0003f0 06 2a 2e bc dc 97 3c bc 7f d1 0c 3b b8 30 2e bc
       -0.010630136 -0.0115108155 0.0021487174 -0.010631733

action_model._discrete_distribution.branches.1.bias f4 [3]
000000 fa 72 d3 bb 9e f8 a6 ba 1b 53 95 3b
       -0.0064529153 -0.0012738889 0.004557026
