results/boat-agent-ppo-imit/boat/boat-2500154.onnx (onnx, 328993 bytes, 11 tensors)

discrete_act_size_vector f4 [1, 3]
0	0x40000000	2.0
1	0x40400000	3.0
2	0x40000000	2.0

network_body._body_endoder.seq_layers.0.weight f4 [256, 47]
0	0xbe06a92b	-0.1315047
1	0xbe5a52b6	-0.21320614
2	0x3d9de5b4	0.07709828
3	0xbc625f65	-0.013816689
4	0x3dfc90a6	0.12332277
5	0xbdf093de	-0.117469534
6	0xbe1e7e70	-0.1547792
7	0xbc8dc291	-0.01730469
8	0xbe230f22	-0.15923741
9	0xbdd5be1c	-0.10436651
10	0x3dbb5077	0.09146207
11	0xbd4e9ff0	-0.050445497
12	0x3ea14d74	0.31504405
13	0xbd405dd7	-0.046964493
14	0x3ecd2270	0.40065336
15	0x3c8fc7a1	0.017551245
16	0x3e35ed80	0.1776638
17	0xbe6c500c	-0.2307741
18	0x3ec1a67a	0.37822324
19	0xbd2e28d2	-0.042519398
20	0x3dd5d0bd	0.10440204
21	0x3d4c871f	0.04993355
22	0x3e6d8a2b	0.23197238
23	0x3cc403c6	0.02392758
24	0xbdbac499	-0.09119529
25	0x3dac4a2c	0.08412585
26	0x3ddedbbf	0.10881757
27	0xbea12b48	-0.31478333
28	0x3e281fcc	0.1641838
29	0xbd9d2e1b	-0.076748095
30	0xbdc900bc	-0.09814593
31	0xbd87110e	-0.0659505
32	0x3e5f0bfa	0.21781912
33	0xbe248807	-0.16067515
34	0x3d081c76	0.033230267
35	0xbde99384	-0.114050895
36	0xbd88721f	-0.06662392
37	0x3ddf83fd	0.10913847
38	0x3e103a65	0.14084776
39	0x3de3cb45	0.11122755
40	0xbe16475e	-0.14675662
41	0xbd007c16	-0.031368338
42	0x3eb49b9b	0.35274968
43	0x3e8b48b1	0.27203897
44	0x3cd6f596	0.026240151
45	0xbdb7adec	-0.0896872
46	0x3da751ae	0.08169876
47	0xbf116188	-0.56789446
48	0x3e5634ba	0.20918551
49	0xbdc26826	-0.09492521
50	0x3e47b102	0.19501117
51	0xbea5043e	-0.322298
52	0xbd1d9549	-0.038472448
53	0x3e4e0c18	0.20121801
54	0x3e5f83c6	0.21827611
55	0xbdb34193	-0.08752742
56	0x3d1184eb	0.03552715
57	0xbe4b374f	-0.19845317
58	0x3ddca47f	0.10773563
59	0x3f4fa365	0.81108695
60	0xbdbee63d	-0.09321258
61	0x3da57170	0.08078277
62	0x3e97cd26	0.29648703
63	0xbdf49334	-0.11942139
64	0x3e830cc6	0.25595683
65	0x3eb82d92	0.35972267
66	0xbd1cdd67	-0.038297083
67	0xbe65e857	-0.22451912
68	0x3e0a8640	0.13527775
69	0xbde0908a	-0.10965069
70	0x3dd24ec6	0.10268931
71	0x3e8a77d4	0.27044547
72	0xbe0ec4ab	-0.1394221
73	0xbeb8b433	-0.3607498
74	0x3e264873	0.16238575
75	0xbe966ed0	-0.29381418
76	0x3e31ec8c	0.17375392
77	0xbcc572a0	-0.024102509
78	0x3d3a9779	0.04555461
79	0x3d920560	0.071299314
80	0x3de64fd4	0.11245695
81	0xbf00f2ca	-0.50370467
82	0x3da314b9	0.07962937
83	0xbee4971e	-0.44646543
84	0x3ed8f346	0.42373103
85	0xbdc2430e	-0.09485446
86	0xbd437de6	-0.047727488
87	0xbe4e2458	-0.20131052
88	0x3e2c06ea	0.16799513
89	0xbe585272	-0.211252
90	0x3cb5a3e5	0.022172878
91	0x3e87f149	0.26551273
92	0xbeaafccc	-0.33395994
93	0x3c8acd7b	0.016943684
94	0xbde1a50c	-0.11017808
95	0xbcfdd099	-0.030983256
96	0xbe022e78	-0.12713039
97	0x3ce6001b	0.028076222
98	0xbdd6905e	-0.104767546
99	0x3dc75848	0.09733635
100	0x3e21ec28	0.15812743
101	0x3e27cfbf	0.16387843
102	0xbe91f834	-0.28509676
103	0x3dcc0a25	0.099628724
104	0xbc8584bd	-0.016298646
105	0xbe3c06c1	-0.18361951
106	0xbdd9a361	-0.10626865
107	0xbd91570a	-0.070966795
108	0x3f06d3c4	0.5266688
109	0xbb205bb2	-0.0024468717
110	0x3e1df409	0.15425123
111	0x3e85493f	0.26032445
112	0xbe3029b8	-0.17203414
113	0xbe2aaa1f	-0.16666459
114	0x3e336798	0.17519987
115	0xbdc242d4	-0.09485403
116	0xbdc31953	-0.095263146
117	0x3dd863b2	0.1056589
118	0x3d532660	0.05155027
119	0xbda4e306	-0.08051114
120	0x3cf9768b	0.030452034
121	0xbda60069	-0.08105547
122	0xbec74060	-0.38916302
123	0xbd91a62d	-0.07111774
124	0x3e37bd8e	0.17943403
125	0x3d51e574	0.051244214
126	0xbe89bc0d	-0.26901284
127	0xbd1f9f7b	-0.03897045
128	0xbe75845e	-0.23976275
129	0xbe35b6e5	-0.1774555
130	0xbdb46ab1	-0.08809412
131	0xbd92fb3f	-0.07176828
132	0xbe719168	-0.23590624
133	0x3c26f836	0.010191014
134	0x3e1fa084	0.15588576
135	0xbea2b673	-0.31779823
136	0xbe348fc8	-0.17632973
137	0xbe88e60b	-0.2673801
138	0x3e500137	0.20312963
139	0xbf1858bb	-0.5951039
140	0x3d0e3497	0.034718122
141	0xbcc65836	-0.024211984
142	0x3e3cbebf	0.18432139
143	0xbdb09dca	-0.08623846
144	0x3eb53002	0.3538819
145	0xbb9c56c8	-0.0047710873
146	0x3e921a45	0.28535667
147	0x3e1c39de	0.1525645
148	0xbcaa6e5e	-0.02080458
149	0x3d6aa3af	0.057285007
150	0xbc3a84db	-0.011384214
151	0x3d05bfcf	0.032653626
152	0x3e8090c7	0.25110456
153	0xbea96c34	-0.33090365
154	0x3e8c7baa	0.27438098
155	0xbeb3eaf6	-0.35140198
156	0x3e4abc4a	0.19798389
157	0xbe804caf	-0.25058505
158	0x3e46b034	0.19403154
159	0xbc893593	-0.016749179
160	0x3ddc1db4	0.10747853
161	0xbe3db7bb	-0.18527119
162	0x3e99d37b	0.3004416
163	0xbe8bb948	-0.27289796
164	0x3e709ac5	0.2349654
165	0x3e812132	0.2522064
166	0xbdbfee8b	-0.0937167
167	0xbe48e3a7	-0.19618092
168	0x3e9a08a9	0.30084732
169	0xbe96e855	-0.2947413
170	0xbe049fe4	-0.12951618
171	0x3e2fb20c	0.17157763
172	0xbd6c42b8	-0.057680815
173	0xbe6c93bf	-0.23103236
174	0x3daccab5	0.08437101
175	0x3e2f1741	0.17098714
176	0x3ec35064	0.3814727
177	0xbcd24981	-0.025669815
178	0x3d3497a8	0.044089943
179	0xba808a37	-0.0009806816
180	0x3e00f567	0.12593614
181	0x3f2102c1	0.6289483
182	0xbbbaec35	-0.0057044276
183	0xbe9d76db	-0.30754742
184	0xbcd74887	-0.0262797
185	0x3e7f7ce3	0.24949984
186	0x3e141d31	0.1446426
187	0x3e38ae76	0.18035302
188	0xbea18b2b	-0.3155149
189	0x3e285add	0.16440912
190	0x3e4cbb64	0.19993359
191	0xbe9d927e	-0.30775827
192	0xbd870b21	-0.065939195
193	0x3e974c04	0.29550183
194	0xbe7baadc	-0.24576896
195	0x3e855c0a	0.26046783
196	0xbe58c263	-0.21167903
197	0x3dadffb4	0.08496037
198	0x3ddf1995	0.10893551
199	0xbe7244ba	-0.2365903
200	0x3ea15d0d	0.31516305
201	0x3ea1ceee	0.31603187
202	0xbe9e3e5b	-0.30906948
203	0x3d248b6e	0.040172033
204	0xbe756e6b	-0.23967902
205	0x3e6ed904	0.23324972
206	0xbd820a83	-0.06349661
207	0xbe679d34	-0.22618562
208	0xbf025067	-0.50903934
209	0x3dba40d8	0.09094399
210	0x3d9584c2	0.07300712
211	0x3e41c03e	0.18920991
212	0xbe1667fb	-0.14688103
213	0xbe020b5e	-0.12699649
214	0x3e52eaa3	0.2059732
215	0x3dc4b7ac	0.09605345
216	0xbe35d0bc	-0.17755407
217	0xbe199819	-0.14999427
218	0x3e197304	0.14985281
219	0x3d8a1298	0.06741828
220	0xbe1bbc7e	-0.15208623
221	0x3e6fd7ed	0.23422213
222	0x3e4e5c53	0.20152406
223	0x3d4ccfe5	0.05000295
224	0x3b479e05	0.0030459177
225	0xbefcd55f	-0.4938154
226	0x3e54b07e	0.20770451
227	0x3e181677	0.1485232
228	0x3e68fa5a	0.22751752
229	0xbc5c3076	-0.013439288
230	0xbccfa78f	-0.025348453
231	0x3dd3236a	0.10309489
232	0x3e706205	0.23474891
233	0xbe349c00	-0.17637634
234	0x3cf2a4ac	0.029619537
235	0x3e0c895d	0.13724275
236	0xbe66bb1c	-0.22532314
237	0xbda88eef	-0.082303874
238	0xbd9b70f6	-0.07589905
239	0x3d943c69	0.07238085
240	0x3e076355	0.13221486
241	0x3e7bcad4	0.24589092
242	0x3e684500	0.22682571
243	0xbefb2f6b	-0.49059615
244	0xbc71eaf5	-0.014765491
245	0xbe869049	-0.26281956
246	0x3d796898	0.060890764
247	0x3e9a958d	0.30192223
248	0xbd529a8f	-0.05141693
249	0xbe9e727f	-0.3094673
250	0x3bf4914f	0.007463611
251	0x3e428104	0.18994528
252	0x3da73542	0.08164455
253	0x3ef15f1b	0.47142872
254	0x3c8d145c	0.017221622
255	0x3e3ae9d4	0.18253261

network_body._body_endoder.seq_layers.0.bias f4 [256]
0	0xbd81036c	-0.06299481
1	0x3da1b311	0.07895482
2	0xbbf853c0	-0.007578343
3	0x3d8e5c3a	0.069511846
4	0x3d3f64fc	0.046727166
5	0x3d01995f	0.031640407
6	0xbc35e834	-0.011102725
7	0x3dc51679	0.09623427
8	0xbc66b23d	-0.014080581
9	0x3d480fa7	0.048843052
10	0x3d86035d	0.0654361
11	0x3e146640	0.1449213
12	0x3d944438	0.07239574
13	0x3d279744	0.040915743
14	0x3ddc7fe5	0.107665814
15	0xbdb2a172	-0.087221995
16	0x3cf13cbc	0.029447906
17	0x3d523616	0.05132111
18	0xbd1a234a	-0.03763131
19	0x3db29509	0.087198325
20	0x3d8c4e0c	0.06850824
21	0x3c91188c	0.0177119
22	0xbc914fdf	-0.01773828
23	0x3c7321a1	0.014839561
24	0x3ce3d507	0.02781154
25	0xbb21796b	-0.002463902
26	0xbd054cb1	-0.03254384
27	0x3dc7a248	0.097477496
28	0x3d5d0d78	0.053967923
29	0x3d9a8650	0.07545149
30	0x3cfd9a54	0.030957378
31	0x3d003822	0.031303532
32	0xbc41cf34	-0.011829186
33	0x3d70e615	0.058813173
34	0xbc4b8e3d	-0.012424049
35	0x3c5c4044	0.0134430565
36	0x3da648d8	0.081193626
37	0xbdb8c582	-0.090220466
38	0x3d8fd09f	0.07022213
39	0x3d9b1130	0.07571638
40	0xbbabae95	-0.0052393177
41	0x3d77a265	0.060457606
42	0x3dc9827d	0.09839342
43	0x3c6c8be1	0.014437647
44	0x3bf364a6	0.0074277697
45	0x3c12c5f4	0.0089583285
46	0xbc70978d	-0.01468457
47	0x3d27638d	0.040866423
48	0xbd84f5de	-0.06492208
49	0xbda614e2	-0.08109452
50	0xbca0f410	-0.019647628
51	0x3c8352fa	0.016030777
52	0x3dd502b1	0.10400904
53	0xbd6ed842	-0.05831171
54	0x3cf74177	0.030182583
55	0x3d73483e	0.059395067
56	0xbd269896	-0.04067286
57	0x3a75af48	0.0009372127
58	0x3e369788	0.17831242
59	0x3d9e2257	0.077213936
60	0xbc0148b5	-0.00789087
61	0xbb258f3d	-0.0025262379
62	0xbd25ca8f	-0.040476378
63	0xbd219242	-0.039446123
64	0xbcd50d07	-0.026007188
65	0x3c520c75	0.012820353
66	0x3d367fd0	0.044555485
67	0x3d323a5c	0.043512687
68	0x3d1bf35c	0.038073882
69	0x3d79806e	0.060913496
70	0xbd41fd15	-0.0473605
71	0x3d49d83c	0.049278483
72	0x3d7f1312	0.062274046
73	0xbd37e8f9	-0.044899914
74	0x3d786d4f	0.06065112
75	0xbbaf939d	-0.005358173
76	0x3d688e5d	0.056776393
77	0xbbba926e	-0.0056937253
78	0xbd2cef65	-0.042220492
79	0x3d0ee6a6	0.034887932
80	0x3a9754b6	0.0011545632
81	0x3cfbe230	0.030747503
82	0x3d75d061	0.06001318
83	0xbd5db216	-0.054124914
84	0xbd06d6b7	-0.03291961
85	0xbd39f590	-0.045400202
86	0xbd054682	-0.032537945
87	0x3c578605	0.013154511
88	0xbc59f73b	-0.013303573
89	0x39d68304	0.00040914875
90	0x3cc307e0	0.023807466
91	0xbabe723f	-0.0014529898
92	0xbc70f80f	-0.014707579
93	0x3c78028f	0.015137329
94	0x3b639a7f	0.0034729538
95	0x3d54219e	0.051789872
96	0xbc1bafad	-0.009502334
97	0xbab16ac8	-0.0013535852
98	0x3d67abca	0.056560315
99	0x3da46cf4	0.08028594
100	0xbbaf002b	-0.005340596
101	0xbc0f1ad1	-0.008734421
102	0xbc85d046	-0.016334664
103	0x3c7d499f	0.015459447
104	0x3c1a1487	0.009404308
105	0xbcbbf5fb	-0.022944441
106	0xbdc61b97	-0.09673231
107	0xbcc5e7cd	-0.024158383
108	0x3bd4b874	0.006491715
109	0xbd332352	-0.043734856
110	0xbdd1e100	-0.102479935
111	0xbcd99620	-0.026560843
112	0x3ced7f7f	0.028991459
113	0x3c8e29c0	0.017353892
114	0xb9a4533b	-0.0003134253
115	0x3cdf8609	0.027285593
116	0x3d240eaf	0.040053066
117	0x3ce45143	0.02787078
118	0x3ce2cc20	0.027685225
119	0x3db9cb87	0.09072023
120	0xbc61bc28	-0.01377777
121	0x3c2c4168	0.010513641
122	0x3d88a47c	0.06671998
123	0x3cd39e54	0.025832333
124	0xbd933207	-0.07187276
125	0x3c469b73	0.012122023
126	0x3d60ad4b	0.054852765
127	0xbd4adf97	-0.04952964
128	0x3cb44725	0.02200658
129	0x3d52fc18	0.051509947
130	0xbd9099b5	-0.07060567
131	0x3d18e73c	0.037329897
132	0x3d9093cf	0.07059442
133	0xbd887cc0	-0.06664419
134	0xbc5a176e	-0.01331125
135	0xbc851f7c	-0.016250364
136	0x3d9d20b1	0.07672251
137	0x3d2d3482	0.042286403
138	0x3deb54a7	0.114907555
139	0x3a1c3808	0.0005959277
140	0xbcc68e5f	-0.02423781
141	0x3b9b05c4	0.004730912
142	0xbcddcf53	-0.027076399
143	0xbdc1dd77	-0.09466069
144	0xbd089a8d	-0.033350516
145	0xbc53fe68	-0.012939073
146	0x3cf904c3	0.030397778
147	0xbc75255f	-0.014962523
148	0xbb3528f2	-0.0027642814
149	0x3eaf21a6	0.3420536
150	0xbce80c3e	-0.02832615
151	0x3c3daf13	0.0115773855
152	0xbc9c906b	-0.019111833
153	0x3dc4b812	0.09605421
154	0x3cea38cc	0.028591536
155	0x3b9534d7	0.004553418
156	0x3d202f22	0.03910745
157	0x3d172a25	0.036905427
158	0x3d31f06e	0.043442182
159	0xbcea9cb3	-0.028639173
160	0x3d38d674	0.045126393
161	0xbd930c3a	-0.071800664
162	0x3d14e832	0.03635425
163	0x3dd095fb	0.101848565
164	0xbc4ca67a	-0.012490863
165	0x3d340415	0.043949205
166	0x3cbc858b	0.023012897
167	0x3cd97d87	0.026549114
168	0x3c6a074a	0.014283964
169	0xbd689c64	-0.05678977
170	0x3d6fbe50	0.058531106
171	0x3cd02d94	0.025412358
172	0x3e63d76c	0.22250146
173	0x3d88f96b	0.06688198
174	0x3c820aad	0.015874231
175	0x3a27c9fc	0.00064006425
176	0x3d979eec	0.07403359
177	0x3cc194a1	0.023630442
178	0x3daf93e3	0.08573129
179	0x3caa048a	0.020754118
180	0x3cc51980	0.02406001
181	0xbc8a3e36	-0.016875368
182	0xbd5d586a	-0.054039396
183	0xbd04a0e0	-0.032379985
184	0xbd1eff81	-0.038817886
185	0xbbc8f65d	-0.0061328844
186	0xbd41e6fe	-0.047339432
187	0x3d500b1d	0.05079185
188	0x3c9b8bf1	0.018987628
189	0xbc01c46a	-0.007920364
190	0x3db01421	0.08597589
191	0xbdddd910	-0.10832417
192	0xbb1c80d0	-0.002388049
193	0xbca3b5db	-0.019984176
194	0x3dc71994	0.097216755
195	0xbc2f0a6a	-0.010683635
196	0x3e1d945d	0.15388627
197	0x3caff70c	0.021480106
198	0x3ce0a4b9	0.027422296
199	0xbda19a07	-0.078907065
200	0xbda4e6d6	-0.08051841
201	0x3d5f7852	0.054558106
202	0xbcb996b2	-0.022654865
203	0xbc0c1339	-0.008549505
204	0x3c89f450	0.01684013
205	0x3d2acb46	0.041697763
206	0x3d7d66da	0.061865665
207	0xbdd1847c	-0.102303475
208	0x3d09d07e	0.0336461
209	0xbbc58582	-0.0060278783
210	0x3c3511d9	0.0110516185
211	0xbc8dfc9c	-0.017332368
212	0xbb9e90aa	-0.0048390226
213	0x3d9b1e20	0.07574105
214	0x3ca4c183	0.020111805
215	0x3d3b11fb	0.045671444
216	0x3d74144b	0.059589665
217	0x3c445a80	0.0119844675
218	0xbcc601df	-0.024170814
219	0x3c034d16	0.008013984
220	0x3c86dced	0.016462767
221	0x3dfeecac	0.12447485
222	0x3c97ad34	0.018515207
223	0x3db76f8b	0.08956822
224	0x3d0b7a02	0.034051903
225	0x3ddcc9d8	0.10780686
226	0x3cefa59c	0.029253773
227	0x3d1d7048	0.038437158
228	0x3d0786bf	0.03308749
229	0x3aa53037	0.001260287
230	0x3ce4d2cd	0.027932549
231	0x3d121b15	0.03567036
232	0xbd35a6e5	-0.044348616
233	0xbd9d579b	-0.07682725
234	0x3de9b290	0.11411011
235	0xba5ba88e	-0.00083793036
236	0xbd0b8261	-0.034059886
237	0x3da5c5ce	0.08094369
238	0x3d7238e8	0.0591363
239	0x3d931dec	0.071834415
240	0x3e21e122	0.15808538
241	0xbcc16427	-0.023607327
242	0x3d5a2261	0.053255443
243	0x3be8567e	0.007090389
244	0x3deff4f6	0.117166445
245	0xbc95a8c5	-0.018268952
246	0x3d1aadfe	0.037763588
247	0x3b9ccc2d	0.004785082
248	0x3b6f0dca	0.0036476725
249	0xbc00f5a1	-0.0078710625
250	0x3d689fb5	0.056792933
251	0x3c86e109	0.016464727
252	0x3d32a30d	0.04361253
253	0x3c6e8b92	0.014559643
254	0xbd59c297	-0.05316409
255	0xbd15cde5	-0.03657331

network_body._body_endoder.seq_layers.2.weight f4 [256, 256]
0	0xbbb13565	-0.0054079765
1	0xbcf73aff	-0.030179499
2	0xbdd5712a	-0.10421975
3	0x3cf42b7a	0.029805887
4	0xbb9a9e6e	-0.0047185933
5	0x3e613aec	0.21995133
6	0xbc9c92da	-0.019112993
7	0xbeca15d2	-0.39469773
8	0xbd70ff02	-0.058836944
9	0xbd08813b	-0.03332637
10	0x3e69e455	0.22841008
11	0x3d5942fe	0.053042404
12	0xbdb92607	-0.09040456
13	0x3dee9542	0.116495624
14	0xbdbb8e02	-0.09157945
15	0xbde1fab1	-0.11034144
16	0x3d8980f5	0.0671405
17	0xbc301815	-0.010747929
18	0x3d91055a	0.07081099
19	0xbd0cd835	-0.03438588
20	0xbdb88d7a	-0.090113595
21	0x3d268bc2	0.040660627
22	0x3d531bb0	0.051540077
23	0xbdf746c1	-0.12074042
24	0x3dbe8a4a	0.0930372
25	0x3dfd33f6	0.123634264
26	0x3cfdcb80	0.030980825
27	0xbdcb9dc2	-0.09942199
28	0x3d930f52	0.071806565
29	0x3d09d10b	0.033646625
30	0xbdfe68cf	-0.124223344
31	0xbcc920ae	-0.024551716
32	0xbdf3be10	-0.11901486
33	0x3c9bc43f	0.019014476
34	0xbd249f68	-0.040191084
35	0x3dc67809	0.09690864
36	0x3d633f12	0.05548007
37	0x3cfe2cb4	0.031027175
38	0x3e1a995c	0.15097564
39	0xbd866206	-0.06561665
40	0xbe8052aa	-0.25063068
41	0xbd55654d	-0.05209856
42	0xbcb359d4	-0.02189342
43	0xbd11ad3b	-0.035565596
44	0x3b90177b	0.0043973303
45	0xbd961835	-0.07328836
46	0xbd57f52c	-0.05272405
47	0x3e29e325	0.16590555
48	0x3c91a6b0	0.017779678
49	0x3c3d5446	0.011555737
50	0xbc9f5644	-0.019450314
51	0x3cc362c7	0.023850812
52	0x3dbe5def	0.0929526
53	0x3dc047d1	0.09388698
54	0x3c13320e	0.008984102
55	0xbe252401	-0.16127016
56	0x3c7b4b6b	0.015337805
57	0x3d93ac57	0.072106056
58	0x3e1d799c	0.15378422
59	0xbc0e7b7e	-0.008696435
60	0x3e2374c6	0.15962514
61	0x3dd5f737	0.10447543
62	0x3c82fd75	0.015989998
63	0x3d8478d7	0.06468361
64	0x3db7ffcd	0.08984337
65	0x3df1eaa8	0.11812335
66	0x3cb52a84	0.022115
67	0xbcd8fdd5	-0.026488224
68	0xbd1138f0	-0.03545469
69	0xbe245ed9	-0.16051807
70	0x3d5be3dd	0.053684104
71	0x3e213d6e	0.1574609
72	0x3c23a477	0.009987942
73	0xbda7324f	-0.081638925
74	0xbd4ac510	-0.04950434
75	0xbdf17069	-0.11789019
76	0x3dfbd0c9	0.12295682
77	0xbd1bf4a3	-0.0380751
78	0x3d88c6bc	0.066785306
79	0x3bedef9f	0.007261231
80	0x3c739b2b	0.014868538
81	0x3c05ca69	0.008165934
82	0xbdce9849	-0.1008764
83	0x3d4ecc15	0.050487597
84	0x3dfbebeb	0.12300857
85	0xbced86aa	-0.028994877
86	0xbcc20a3b	-0.023686519
87	0xbe32d0f6	-0.17462525
88	0x3d09760b	0.03355984
89	0x3c3a120a	0.01135684
90	0xbe36d0db	-0.1785311
91	0xbe16f614	-0.14742309
92	0x3e03faaf	0.12888597
93	0x3d682098	0.05667171
94	0x3db86dda	0.090053275
95	0xbe39d07e	-0.1814594
96	0xbd75d978	-0.060021847
97	0x3d8f20c7	0.06988674
98	0xbdbb3e6d	-0.09142766
99	0x3d137f1d	0.036009897
100	0x3b887403	0.0041642203
101	0x3d70467b	0.058660965
102	0xbc22ff46	-0.009948557
103	0x3cef31ba	0.029198516
104	0xbbe44a61	-0.0069668745
105	0x3dbbce59	0.09170217
106	0xbd8cba88	-0.068715155
107	0x3dd5ed2c	0.104456276
108	0x3dfa4cdc	0.12221691
109	0xbc9daa3c	-0.019246213
110	0x3dad1935	0.084520735
111	0x3e4b54d8	0.19856584
112	0xbbd01328	-0.00634994
113	0xbdf7b0cb	-0.120942675
114	0xbc5b457f	-0.013383268
115	0x3ddab6ae	0.10679375
116	0xbddefa13	-0.108875416
117	0x3e4e0306	0.20118341
118	0xbe6b7cb8	-0.22996795
119	0xbcbf313e	-0.02333891
120	0xbc87f1a5	-0.016594717
121	0x3e092280	0.13392067
122	0xbd91229e	-0.07086681
123	0x3d4ec4c5	0.050480623
124	0x3e252f30	0.16131282
125	0x3e083f26	0.13305339
126	0xbde382a7	-0.11108904
127	0x3d6b61c7	0.057466295
128	0x3c57b59e	0.0131658595
129	0xbe18dbfe	-0.1492767
130	0x3d0f01fb	0.034913998
131	0xbdea9717	-0.11454599
132	0x3d0bedca	0.03416232
133	0x3d7663a8	0.060153633
134	0xbdff03f6	-0.12451927
135	0x3d35baeb	0.044367712
136	0xbe60fe96	-0.21972117
137	0xbdb90d6d	-0.09035764
138	0x3e233d84	0.15941435
139	0xbd0e247a	-0.034702756
140	0x3d2d4826	0.042305134
141	0x3d3b9c61	0.04580343
142	0x3d644264	0.055727378
143	0xbe1bc7ef	-0.15212987
144	0xbd9dd236	-0.0770611
145	0x3dcf2408	0.10114294
146	0xbdea15d7	-0.11429947
147	0xbd787b3d	-0.060664404
148	0x3cbdc613	0.023165738
149	0x3e7b90ed	0.24567004
150	0x3d833f9b	0.06408616
151	0x3dec26ba	0.11530824
152	0x3d925670	0.07145393
153	0x3de8822c	0.11352953
154	0xbd842747	-0.06452804
155	0xbcb0792c	-0.021542154
156	0xbdd71772	-0.10502519
157	0xbb08a0b8	-0.002084775
158	0x3d836a98	0.064168155
159	0x3c9cf9bd	0.019162053
160	0x3df5fdc2	0.12011291
161	0xbcfeaf09	-0.031089323
162	0xbb39c805	-0.002834798
163	0xbd08925c	-0.033342704
164	0xbd242ef6	-0.040083848
165	0xbdc5536e	-0.096350536
166	0x3e1470c7	0.14496146
167	0xbd69a4df	-0.057042
168	0x3e2512da	0.16120473
169	0x3d753028	0.05986038
170	0xbd7d66d6	-0.06186565
171	0xbd253817	-0.040336695
172	0x3ca1d4e1	0.019754829
173	0x3c6ab2f7	0.014324895
174	0x3d27bd10	0.04095179
175	0x3dd26459	0.10273046
176	0x3bf8055a	0.0075689973
177	0xbe303bf1	-0.17210366
178	0xbdb0bbff	-0.086296074
179	0x3e055da4	0.13024002
180	0x3cf69e00	0.030104637
181	0xbca15274	-0.019692637
182	0x3d5ad228	0.053423077
183	0x3e3cbbba	0.18430987
184	0x3d52257e	0.051305287
185	0xbd52c489	-0.05145696
186	0x3c9db549	0.019251483
187	0xbe0e2294	-0.13880378
188	0x3a88ccda	0.0010437027
189	0x3cc4f746	0.02404369
190	0xbe4fcf77	-0.20293985
191	0x3d6f8f48	0.058486253
192	0xbd1c66ac	-0.038183853
193	0xbd69125f	-0.056902286
194	0xbd888bae	-0.06667267
195	0xbc9cc9d0	-0.0191392
196	0x3cec0e9b	0.028815558
197	0x3e4f9888	0.2027303
198	0x3d82b60d	0.0638238
199	0xbd38c1af	-0.045106586
200	0x3d87cd40	0.06630945
201	0xbd91186c	-0.07084736
202	0x3e1d87f8	0.15383899
203	0x3c6a888c	0.014314782
204	0xbcf580ae	-0.029968586
205	0xbe3f1afc	-0.18662637
206	0x3e3f2045	0.18664654
207	0xbd1b295f	-0.03788125
208	0xbd21a2ec	-0.039462015
209	0x3e29ebc5	0.16593845
210	0x3d41ef73	0.047347497
211	0xbdb61786	-0.088912055
212	0x3e3be766	0.1834999
213	0x3dee4808	0.116348326
214	0x3de06e96	0.109585926
215	0xbd2cc66c	-0.042181417
216	0x3df46d78	0.11934942
217	0x3e10951d	0.14119382
218	0x3d83ac2d	0.06429324
219	0xbc5ea5e9	-0.013589361
220	0xbdea7c41	-0.11449481
221	0xbe72f13d	-0.23724838
222	0x3d491484	0.04909183
223	0xbe7b2ff7	-0.24530016
224	0xbd942038	-0.07232708
225	0xbad235f8	-0.0016037812
226	0xbdcd6683	-0.10029318
227	0xbd333252	-0.04374916
228	0xbe501e49	-0.20324053
229	0xbdc12532	-0.094309226
230	0x3e014e19	0.12627448
231	0x3cc05c97	0.02348165
232	0x3caf69f9	0.021412836
233	0xbd8770ce	-0.06613313
234	0xbebb1dee	-0.36546272
235	0x3cc637d7	0.024196548
236	0xbd82f1af	-0.06393754
237	0xbd6f8011	-0.058471743
238	0xbdeffd8f	-0.11718284
239	0xbc094b88	-0.008379824
240	0x3df04bd5	0.11733214
241	0xbdac4328	-0.084112465
242	0xbe19f6f7	-0.15035616
243	0xbcce3ebb	-0.025176397
244	0x3bd1d8c1	0.006404013
245	0xbcc593ce	-0.02411833
246	0xbe3c1d90	-0.18370652
247	0x3d6eb4bf	0.05827784
248	0xbdc609b7	-0.09669822
249	0xbdcba85e	-0.09944223
250	0x3c9388a4	0.018009491
251	0x3e0bffdd	0.13671823
252	0xbe576821	-0.21035816
253	0x3e21f446	0.15815839
254	0xbda090ea	-0.0784014
255	0x3bff3a10	0.007788904

network_body._body_endoder.seq_layers.2.bias f4 [256]
0	0xbcd11d0b	-0.025526544
1	0xbc3e5f49	-0.011619397
2	0xbc8c1397	-0.017099185
3	0xbb4791b6	-0.003045184
4	0x3d4dfae6	0.050288104
5	0x3d83f5d8	0.06443375
6	0xbd6f91ea	-0.058488764
7	0xbc174fe4	-0.009235356
8	0x3cb78d33	0.022406196
9	0x3bf2e44e	0.00741247
10	0x3c474acd	0.01216383
11	0x3d7a46a6	0.06110253
12	0xbd0cb51b	-0.034352403
13	0x3c9b1427	0.018930508
14	0x3c90c830	0.017673582
15	0x3ccb9744	0.024852403
16	0x3d6d2410	0.05789572
17	0xbbc2750f	-0.0059343646
18	0x39ec89a4	0.00045115978
19	0x3ba26f8c	0.004957145
20	0xbc1cd0e0	-0.009571284
21	0x3b38f3a9	0.0028221405
22	0xbbde9764	-0.0067929495
23	0xbbade45d	-0.005306764
24	0xbaf69340	-0.0018812194
25	0x3d53cc11	0.051708285
26	0xbc37deee	-0.011222584
27	0x372c1508	1.0256896e-05
28	0x3c23f3af	0.010006829
29	0x3c436acb	0.011927317
30	0x3cc05814	0.023479499
31	0x3ddc2cbd	0.10750721
32	0xbcd0189d	-0.025402362
33	0xbbf9d19d	-0.007623865
34	0x3ca1b24f	0.019738344
35	0x3d44c2b0	0.04803723
36	0x3bb22621	0.005436674
37	0x3ccfb506	0.025354873
38	0x3d16c461	0.036808375
39	0x3bb9907a	0.005662975
40	0xbc71cb9e	-0.014758019
41	0x3b1a12fe	0.0023509855
42	0xbce90b2b	-0.028447708
43	0xbc708d02	-0.014682056
44	0x3d00dbf1	0.031459752
45	0x3ae76fe5	0.0017657249
46	0xbb5970fb	-0.0033178914
47	0x3c199b44	0.009375397
48	0xbc260d64	-0.0101350285
49	0xbd074366	-0.03302326
50	0xbd1a1dea	-0.037626185
51	0x3d52c097	0.0514532
52	0xbd297b00	-0.041377068
53	0x3ce840e6	0.028351258
54	0xbd471a05	-0.0486088
55	0xbc1d84bf	-0.009614169
56	0x3c0af272	0.008480655
57	0xbcc51979	-0.024059998
58	0xbc7962b7	-0.015221289
59	0x3cc1cbcb	0.023656746
60	0xbc409ce7	-0.011756158
61	0x3d2cdf34	0.04220505
62	0xbcdf2fab	-0.02724441
63	0xbb961765	-0.0045804256
64	0xbab6b676	-0.0013939876
65	0x3ca3c979	0.01999353
66	0x3c7f941a	0.015599275
67	0xbb61be6b	-0.0034445773
68	0x3c4b7ea2	0.012420328
69	0xbc3f1733	-0.011663246
70	0xbc1b7597	-0.009488485
71	0xb90a662e	-0.0001319877
72	0xbccf629a	-0.025315572
73	0x3c1552c5	0.009113972
74	0x3c819649	0.015818732
75	0xbd390ce7	-0.04517832
76	0x3c15e3d7	0.0091485595
77	0x3c5aaa81	0.013346315
78	0x3cac2449	0.021013396
79	0xbbe568b7	-0.0070010084
80	0xbc02eac4	-0.007990543
81	0x3baa2348	0.005192194
82	0x3cc51a44	0.024060376
83	0x3c067a0d	0.00820781
84	0x3d276b1b	0.040873628
85	0x3ce2ffa8	0.027709797
86	0xbc8fecf5	-0.017569045
87	0x3a777df8	0.0009441073
88	0x3c15c3f0	0.009140953
89	0x3b57c311	0.0032922665
90	0xbc6b1d4e	-0.0143502485
91	0xbb08f948	-0.0020900536
92	0x3d18b0e4	0.03727807
93	0xbc692dcb	-0.014232109
94	0xbc314339	-0.01081925
95	0xbd040ebc	-0.032240614
96	0x3c8cad16	0.017172378
97	0x3c64d6d6	0.0139672365
98	0x3c4709a7	0.012148297
99	0xbd6d2d21	-0.057904366
100	0xbd00dba7	-0.031459477
101	0xbc4532cc	-0.012036037
102	0xbcc2150d	-0.023691678
103	0x3c5182bc	0.012787517
104	0xbcf98031	-0.030456634
105	0x3b9a3f2d	0.004707238
106	0xbb76f706	-0.0037683859
107	0x3cde6613	0.027148282
108	0xbd271475	-0.040790994
109	0xbc470e4e	-0.012149407
110	0x3d54c6b2	0.051947303
111	0xbcea95a5	-0.02863581
112	0xba7f1d89	-0.0009731879
113	0x3c84a93e	0.016193982
114	0x3ce19bcf	0.027540116
115	0x3ae32ccf	0.001733208
116	0x3b2498c1	0.0025115462
117	0x3c7ac095	0.015304704
118	0x3c9f6062	0.019455139
119	0x3c1559e4	0.00911567
120	0x3d1cf509	0.03831962
121	0xbc5a6a43	-0.013330999
122	0x3c1ef932	0.0097029675
123	0xba3b0493	-0.00071341655
124	0xbb23a9b0	-0.0024972968
125	0xbd6c2756	-0.0576547
126	0xbbc576e0	-0.006026134
127	0xbd11c10b	-0.03558449
128	0xbc6cfe3b	-0.01446491
129	0x3b8d16ca	0.004305695
130	0x3cc20f42	0.023688916
131	0x3da1f19f	0.07907414
132	0x3d771efe	0.06033229
133	0xbcd99846	-0.026561867
134	0xbb9f9395	-0.004869888
135	0xbcbdc363	-0.023164457
136	0xbc08b38c	-0.008343589
137	0x3d35c2cf	0.044375237
138	0x3af97912	0.0019033274
139	0xbba920c3	-0.005161376
140	0x3c0061f9	0.0078358585
141	0x3ca0531d	0.019570882
142	0xbc593c98	-0.013259076
143	0xba3ac4cf	-0.00071246637
144	0x3b9133c8	0.0044312216
145	0x3c151dac	0.009101313
146	0x3d1369eb	0.035989683
147	0x3e0d1fd2	0.1378167
148	0xbba96b3a	-0.005170253
149	0xbcac3bed	-0.021024669
150	0x3d37ba16	0.0448552
151	0xbb80c72e	-0.003929994
152	0xbcf5c5a8	-0.030001476
153	0x3d349582	0.044087894
154	0x3cb7c684	0.022433527
155	0xbb434849	-0.0029797724
156	0x3d6558e8	0.05599299
157	0x3c546509	0.012963542
158	0x3c0cfa2c	0.0086045675
159	0xbd025ff6	-0.031829797
160	0xbcdaca3b	-0.02670776
161	0xbb7780d4	-0.0037765997
162	0xbbad0f61	-0.0052813743
163	0x3d36e816	0.04465493
164	0xbd0bd5eb	-0.034139555
165	0x3d24acfd	0.040204037
166	0xbd06731e	-0.032824628
167	0x3d76035c	0.060061797
168	0x3d1486cd	0.03626137
169	0xbc7ceca0	-0.015437275
170	0xbc057b8c	-0.008147132
171	0xbd056c86	-0.0325742
172	0xbcf608a5	-0.030033419
173	0x3bad435a	0.00528757
174	0xbcb34f56	-0.021888416
175	0xbcf45a42	-0.029828195
176	0xbc57a922	-0.013162883
177	0x3b2d9f6d	0.002649273
178	0x3acedef9	0.0015783004
179	0x3beb70b0	0.0071850643
180	0x3b00a9c1	0.0019632431
181	0x37cc49fa	2.4353143e-05
182	0xbb70b15e	-0.0036726813
183	0xbaf9d71b	-0.0019061299
184	0x3d0acee8	0.033888727
185	0xbd1a8374	-0.03772302
186	0x3d0b4e59	0.034010265
187	0xbb3a3362	-0.0028411974
188	0x3be88853	0.0070963292
189	0xbc239bf1	-0.00998591
190	0xbc94a9e1	-0.01814741
191	0xbbf64221	-0.0075152074
192	0x3c284ea9	0.01027266
193	0x3b2113b1	0.0024578387
194	0xbc28b27e	-0.010296462
195	0x3c1a11e9	0.009403684
196	0xbdb59112	-0.088655606
197	0xbbe64f54	-0.0070284996
198	0x3bc01a8a	0.0058625387
199	0x3c85752d	0.016291225
200	0xbc73f294	-0.014889378
201	0x3d22911a	0.03968916
202	0xbb3ca71b	-0.0028786126
203	0xbbe75033	-0.007059121
204	0xbc032edf	-0.00800678
205	0x3d0b6ab6	0.034037314
206	0x3c496b6c	0.012293678
207	0xba86b85f	-0.0010278336
208	0xbd2cf529	-0.04222599
209	0x3c9da49e	0.019243535
210	0xbbe68bc6	-0.0070357053
211	0xbcf18caa	-0.02948602
212	0xbd0b6737	-0.03403398
213	0x3c8154db	0.015787533
214	0x3c7c51c8	0.015400358
215	0xbbb431a4	-0.0054990817
216	0x3b7d2799	0.0038628338
217	0x3c6447b2	0.013933109
218	0x3b532406	0.0032217517
219	0x3cc626c6	0.02418841
220	0xbc0ace74	-0.008472074
221	0xbc9decb6	-0.019277912
222	0x3b957259	0.0045607504
223	0xbcb0971b	-0.021556428
224	0xbc2b4dcd	-0.010455561
225	0xbc7e5219	-0.015522503
226	0x3ce23cfa	0.027616967
227	0xbb79369d	-0.0038026937
228	0x3bb4fe1d	0.0055234567
229	0xbc8a0e41	-0.0168525
230	0x3d07b37d	0.033130158
231	0x3c941434	0.01807604
232	0xbc26d88a	-0.010183463
233	0x3a82e0d2	0.0009985215
234	0x3ce78f55	0.028266588
235	0xbd7821c9	-0.060579095
236	0x3d296c6a	0.041363157
237	0xbb228e2a	-0.0024803975
238	0xbc484cce	-0.012225343
239	0xbc1c6bcb	-0.009547184
240	0xbce94f20	-0.028480113
241	0xbc4bb08f	-0.012432232
242	0xbc7a0b76	-0.015261522
243	0x3d86bd7b	0.06579109
244	0xbc8431ad	-0.016136969
245	0xbd6565cf	-0.056005295
246	0xbb4194dd	-0.0029538192
247	0x38d04946	9.931861e-05
248	0xbc2fe4d1	-0.010735706
249	0x3c97e9f0	0.018544167
250	0x3d0a150b	0.033711474
251	0xbc7abf42	-0.0153043885
252	0x3c954773	0.018222546
253	0xbc96a688	-0.018389955
254	0xbc9c00bc	-0.019043319
255	0xba8c5a35	-0.0010708036

action_model._discrete_distribution.branches.0.weight f4 [2, 256]
0	0x3c26692e	0.010156913
1	0xbdad7598	-0.08469695
2	0xbe613436	-0.21992573
3	0xbd8ddefb	-0.06927296
4	0xbdf1bbcd	-0.11803398
5	0xbc6a16ff	-0.014287709
6	0x3dd92077	0.10601895
7	0xbddf2d83	-0.108973525
8	0xbd7c2ca3	-0.061566006
9	0x393cc8ba	0.00018003854
10	0xbe230804	-0.15921026
11	0x3ea9583a	0.33075124
12	0x3d2790db	0.04090963
13	0x3ccf9f9c	0.025344662
14	0xbcb9dffd	-0.022689814
15	0xbe21bcb4	-0.15794641
16	0x3e8f90bd	0.28040114
17	0xbe1da12b	-0.15393512
18	0xbe29da20	-0.16587114
19	0x3d582886	0.05277302
20	0xbd65f443	-0.05614115
21	0xbd7d0c04	-0.061779037
22	0xbcdaa952	-0.026692066
23	0x3dc2c6b4	0.09510556
24	0xbddc48ba	-0.10756059
25	0xbce843e9	-0.028352695
26	0xbbedbdd1	-0.007255294
27	0xbdf86cb9	-0.12130112
28	0xbd7c1ab1	-0.061548892
29	0xbe0c162b	-0.13680331
30	0x3c7bf9ff	0.015379428
31	0xbe04aca0	-0.12956476
32	0xbe43a34f	-0.19105266
33	0xbe9da115	-0.30786958
34	0xbe03257d	-0.1280727
35	0xbda8d7a0	-0.08244252
36	0xbe3f4920	-0.18680239
37	0xbd3eaa0d	-0.04654889
38	0xbdb62bed	-0.08895097
39	0xbd1e87b5	-0.03870364
40	0xbdf9baba	-0.121938184
41	0xbdf1523d	-0.11783264
42	0xbdf11c84	-0.11773017
43	0xbd5dfee2	-0.054198153
44	0x3d24da5f	0.040247317
45	0xbe294fa2	-0.16534284
46	0xbe028ca8	-0.12748969
47	0xbd287ea4	-0.0411364
48	0x3ce82f86	0.028342973
49	0xbdb23ba4	-0.08702782
50	0xbba9939c	-0.005175067
51	0xbbc1287c	-0.0058947187
52	0x3cff34f7	0.031153185
53	0x3e28adbb	0.16472523
54	0x3b35627b	0.0027677107
55	0xbd38724f	-0.04503089
56	0xbcac11ff	-0.021004675
57	0xbdad30b8	-0.08456558
58	0xbd9e624f	-0.077335946
59	0xbce5782b	-0.028011402
60	0xbe20c1d8	-0.15698946
61	0xbe07ea97	-0.13273083
62	0xbd5dbd00	-0.054135323
63	0xbd4303a6	-0.0476109
64	0x3edd9d38	0.4328401
65	0xbe853adc	-0.2602147
66	0xbd2a355c	-0.041554794
67	0xbe163f66	-0.14672622
68	0xbea422b7	-0.32057735
69	0xbd5296d5	-0.051413376
70	0xbd87977f	-0.066206925
71	0xbe145b30	-0.1448791
72	0xbdb487ff	-0.08815002
73	0xbe2f1d7a	-0.17101088
74	0xbb2317ad	-0.0024885938
75	0x3c88e99f	0.016712962
76	0x3d43b5e7	0.047780897
77	0xbd690dae	-0.05689781
78	0x3ca7cb8f	0.020482806
79	0x3cf8a748	0.030353203
80	0xbe5b0e32	-0.21392134
81	0xbdde6c60	-0.10860515
82	0x3ccf38a0	0.025295556
83	0xbe06aa66	-0.1315094
84	0xbdde9700	-0.10868645
85	0x3c52b93c	0.012861546
86	0x3dabc41e	0.08387016
87	0xbd075ebf	-0.03304934
88	0xbe4c900a	-0.19976822
89	0x3d9b897e	0.07594584
90	0xbe0a68d0	-0.13516545
91	0xbccbeac7	-0.024892224
92	0xbd6e4f83	-0.058181297
93	0xbdb6b930	-0.089220405
94	0xbd3f003f	-0.046631094
95	0x3c88b275	0.016686657
96	0xbe968d88	-0.29404855
97	0xbbd37865	-0.006453561
98	0xbcce5f61	-0.025191965
99	0xbdd3a82a	-0.10334809
100	0xbca59965	-0.020214746
101	0xbd51f8ef	-0.051262792
102	0x3c20ed05	0.009822135
103	0x3c63a103	0.013893369
104	0xbdac6111	-0.084169514
105	0xbe0d0826	-0.1377264
106	0xbd6a1de4	-0.057157412
107	0xbd4a590b	-0.049401324
108	0x3e7981ad	0.24365874
109	0xbda23e3f	-0.07922029
110	0xbd8583fc	-0.06519315
111	0xbd888479	-0.06665892
112	0xbc82eed7	-0.015983028
113	0xbb0c7474	-0.0021431716
114	0xbcd9a092	-0.026565824
115	0xbd505abf	-0.050867792
116	0xbdbc9123	-0.0920737
117	0xbe6b5bdd	-0.22984262
118	0xbd1e7f18	-0.038695425
119	0xbda2564b	-0.07926615
120	0x3d4b5a4f	0.04964667
121	0x374b54d1	1.2119491e-05
122	0x3e409392	0.18806294
123	0xbd76b21f	-0.060228463
124	0xbe1786c8	-0.14797509
125	0x3e5a61e5	0.21326406
126	0x3c5885f6	0.0132155325
127	0x3d9ba51d	0.07599852
128	0xbcc487cd	-0.023990536
129	0x3ccbc989	0.024876373
130	0xbd334427	-0.043766167
131	0xbbef9705	-0.007311704
132	0x3d14f33e	0.036364786
133	0xbd4b8da7	-0.049695637
134	0xbccc1c6f	-0.024915902
135	0xbd73dca5	-0.059536595
136	0x3d02b93e	0.031914942
137	0xbe0526e2	-0.13003114
138	0xbd5927e2	-0.05301655
139	0x3d3bbb3f	0.04583287
140	0xbcf4d58b	-0.029886981
141	0xbe817447	-0.25284025
142	0xbd5df78a	-0.05419115
143	0xbc2d3c64	-0.01057348
144	0xbe08bd93	-0.13353567
145	0xbd4c42d5	-0.049868423
146	0x3d135533	0.035969924
147	0x3ea28e85	0.3174936
148	0x3cbf0564	0.023318
149	0x3ca1dc92	0.019758496
150	0xbd887b62	-0.066641584
151	0xbe0b57bb	-0.13607685
152	0x3d832924	0.06404331
153	0x3be20c43	0.0068984344
154	0xbd9d25ed	-0.076732494
155	0xbd505672	-0.05086369
156	0xbd9843a4	-0.074347764
157	0x3d358b4a	0.04432229
158	0xbd3cb998	-0.046075433
159	0xbcdd61e0	-0.02702421
160	0xbd13dee2	-0.03610123
161	0x3e9fb719	0.3119438
162	0xbd0193c3	-0.031635057
163	0x3d9491c4	0.07254365
164	0x3d6047a2	0.054755814
165	0x3e375ea5	0.17907198
166	0x3d314419	0.043277834
167	0xbdfc8e39	-0.12331814
168	0xbd60f499	-0.054920767
169	0xbb9b22f6	-0.0047343923
170	0x3eba0252	0.36329895
171	0x3d984ffa	0.07437129
172	0xbd963702	-0.07334711
173	0x3da02c78	0.07820982
174	0x3d28d9f6	0.04122349
175	0xbbaeb084	-0.005331101
176	0xbd57581c	-0.052574262
177	0xb9014c5d	-0.00012330846
178	0xbe4ccd54	-0.20000201
179	0xbdf1ae24	-0.11800793
180	0xbc852340	-0.01625216
181	0xbcb2af44	-0.021812089
182	0xbe56d1e7	-0.20978509
183	0x3dec8dbd	0.11550472
184	0x3c2c0b20	0.010500699
185	0xbd6b125a	-0.05739055
186	0xbbf48ce5	-0.007463085
187	0x3cbc5024	0.022987433
188	0x3c2e2b8f	0.010630502
189	0xbd7765ad	-0.0603997
190	0xbcc54e49	-0.02408518
191	0xbdeb9d51	-0.11504615
192	0x3d64bf3d	0.05584644
193	0xbe1a552b	-0.15071552
194	0xbda4c939	-0.08046193
195	0xbd27abf7	-0.040935483
196	0xbe50c134	-0.20386201
197	0x3bae6df8	0.005323168
198	0x3c88afb8	0.016685352
199	0x3ece33db	0.40273938
200	0x3d763fff	0.060119625
201	0x3c98e823	0.018665379
202	0xbdb01676	-0.08598034
203	0xbe148f14	-0.14507705
204	0xbb6c58ca	-0.0036063665
205	0xbe494a7f	-0.19657324
206	0xbe75b27d	-0.23993869
207	0xbe016e15	-0.12639649
208	0x3e01afba	0.1266469
209	0x3d0ad033	0.03388996
210	0xbdc48766	-0.09596138
211	0x3e5fc3eb	0.2185208
212	0xbdad6af1	-0.08467663
213	0xbe293523	-0.16524176
214	0xbda16e99	-0.07882423
215	0xbcda3ff5	-0.026641825
216	0x3c58e63b	0.013238485
217	0xbe921a13	-0.28535518
218	0xbdd1092e	-0.10206829
219	0xbe8ca91c	-0.2747277
220	0x3d6dd79f	0.05806696
221	0xbcd6b270	-0.026208133
222	0xbdd0925f	-0.10184168
223	0x3d2c5262	0.042070754
224	0xbd53ee9b	-0.051741224
225	0xbe1a716c	-0.1508233
226	0xbda18f43	-0.07888653
227	0xbe5aa863	-0.21353297
228	0x3d12dc86	0.03585484
229	0xbca47128	-0.020073488
230	0xbe3d56e7	-0.18490182
231	0x3e8ef660	0.27922344
232	0xbe428f7a	-0.19000044
233	0xbe86d458	-0.2633388
234	0xbe9e8cfe	-0.30966944
235	0xbd2bdcef	-0.041958746
236	0xbd53d6b5	-0.051718432
237	0xbe02a618	-0.12758672
238	0xbcf80ae7	-0.030278636
239	0xbb0757fd	-0.002065181
240	0x3dace175	0.0844144
241	0xbd728100	-0.059205055
242	0x3da23994	0.079211384
243	0xbe1603bf	-0.14649867
244	0xbe598306	-0.21241388
245	0x3ce2377c	0.027614348
246	0xbd399520	-0.045308232
247	0xbdbb67de	-0.091506705
248	0x3c9e0bef	0.0192928
249	0xbc71ca4a	-0.014757702
250	0xbd56919b	-0.052384954
251	0xbdf4c032	-0.11950721
252	0x3e800820	0.250062
253	0xbdbda612	-0.09260191
254	0xbd236549	-0.039891515
255	0xbc45a07d	-0.012062189

action_model._discrete_distribution.branches.0.bias f4 [2]
0	0x3d9634c7	0.07334285
1	0xbd963499	-0.07334251

action_model._discrete_distribution.branches.1.weight f4 [3, 256]
0	0x3d491370	0.049090803
1	0x3bc717fd	0.0060758577
2	0xbe8ee90f	-0.27912185
3	0xbd6e6621	-0.058202866
4	0x3dbf1618	0.09330386
5	0xbc422bf7	-0.011851302
6	0x3e347b1f	0.17625092
7	0xbe2fd6e5	-0.1717182
8	0x3d009f3a	0.03140185
9	0x3c668c60	0.014071554
10	0xbc9c5194	-0.019081868
11	0x3c096d29	0.008387842
12	0x3d2fb5e2	0.042898066
13	0xbdd604b3	-0.10450115
14	0x3d883ad8	0.066518486
15	0x3ca9b257	0.020714922
16	0x3d47ae11	0.048749987
17	0x3d4b75ff	0.049673077
18	0x3c86f522	0.01647431
19	0x3cc74081	0.02432275
20	0xbd24d42c	-0.040241405
21	0xbde0ceba	-0.1097693
22	0xbe218844	-0.15774637
23	0x3ce28fb4	0.027656414
24	0xbe31ccc0	-0.17363262
25	0x3c32c385	0.010910873
26	0x3d58ea88	0.05295804
27	0xbc9ae431	-0.018907638
28	0xbd13dd9f	-0.036100026
29	0xbe1c350c	-0.15254611
30	0xbd55db5d	-0.052211154
31	0xbc868368	-0.016420081
32	0xbe88618c	-0.26636922
33	0x3cc15e86	0.023604643
34	0x3ae0ed11	0.0017160495
35	0xbd948def	-0.07253634
36	0xbd904664	-0.07044676
37	0x3dfca58a	0.123362616
38	0xbd75581e	-0.05989849
39	0xbe024ddb	-0.12725012
40	0xbe0b64be	-0.13612649
41	0x3dd2218e	0.10260306
42	0xbbb844c4	-0.005623432
43	0x3e16d45b	0.14729445
44	0x3d03b7bb	0.03215764
45	0xbda07d57	-0.07836407
46	0xbd50af2d	-0.05094831
47	0x3c3ad136	0.011402419
48	0x3c2f8336	0.0107124355
49	0x3db7b275	0.08969585
50	0x3d9b3fe5	0.07580546
51	0x3d288249	0.041139875
52	0x3d1d8fdf	0.038467284
53	0x3e334c3c	0.1750955
54	0x3ccc603a	0.024948228
55	0x3e1b9241	0.1519251
56	0x3cea18e5	0.028576324
57	0xbdbe0d96	-0.09279935
58	0xbd8eacc1	-0.06966544
59	0xbe273322	-0.163281
60	0xbbdd3cf2	-0.00675165
61	0xbd4babf7	-0.049724545
62	0x3c1abe97	0.009444854
63	0xbe3a8b3d	-0.18217178
64	0x3eb51128	0.35364652
65	0xbcea6e6a	-0.028617103
66	0x3dfbbd36	0.122919485
67	0x3a9d456b	0.0011998838
68	0xba11d81a	-0.00055635127
69	0x3de9a249	0.114079066
70	0x3d9bf870	0.07615745
71	0xbcf910be	-0.030403491
72	0xbe086e38	-0.13323295
73	0xbe6c0f60	-0.2305274
74	0x3cc5cf6c	0.024146758
75	0xbd3a4226	-0.04547324
76	0x3c69dc8a	0.014273772
77	0x3cdefca6	0.027220082
78	0x3ccda657	0.025103731
79	0x3d17535a	0.036944725
80	0xbc457816	-0.0120525565
81	0x3d450c2c	0.04810731
82	0x3d186547	0.03720596
83	0x3dc5c333	0.09656372
84	0x3c24be86	0.01005519
85	0x3c366266	0.011131858
86	0xbd42cd80	-0.04755926
87	0xbdab3bf0	-0.083610415
88	0x3cb53260	0.022118747
89	0x3d0cc9f6	0.034372292
90	0xbd9d3925	-0.07676915
91	0xbd44f931	-0.04808921
92	0xbe1f426e	-0.15552685
93	0xbd8f5bd0	-0.06999934
94	0xbac8b855	-0.0015313724
95	0xbc0eb67f	-0.008710503
96	0xbe651001	-0.22369386
97	0xbb80e40b	-0.003933435
98	0xbe5a0ce8	-0.21293986
99	0x3aea64fb	0.0017882878
100	0x3e174f28	0.1477629
101	0xbdb8d482	-0.09024908
102	0x3d3d5244	0.046221033
103	0x3d0c1632	0.034200855
104	0x3ccdd3ce	0.02512541
105	0xbe97d7b9	-0.2965677
106	0xbd1f064c	-0.038824365
107	0xba39feb0	-0.00070951413
108	0x3e845709	0.25847653
109	0xbdaa23c5	-0.08307604
110	0xbd7dcfee	-0.061965875
111	0xbe04e009	-0.12976088
112	0xbd0a69d6	-0.03379234
113	0x3ca77e33	0.020445919
114	0xbda00c7c	-0.07814881
115	0xbd3664e5	-0.044529814
116	0xbe82276b	-0.254207
117	0xbd24283d	-0.040077437
118	0x3d98961e	0.074505076
119	0x3d299b35	0.041407783
120	0x3d3c4899	0.045967672
121	0xbc934c4e	-0.01798072
122	0x3d981ce5	0.07427386
123	0x3dd6acc7	0.104821734
124	0x3dbfbc1b	0.0936205
125	0x3e26c3e1	0.1628566
126	0x3c6670f9	0.014065021
127	0x3dfb6952	0.12275948
128	0x3c83e4b8	0.016100273
129	0xbdbf1ef7	-0.09332078
130	0xbdbbcfc0	-0.091704845
131	0x3ccc6a7b	0.024953118
132	0x3ea58175	0.3232533
133	0x3e25ce0f	0.16191886
134	0xbd9fd436	-0.07804148
135	0xbc77b19b	-0.015118028
136	0x3cef3c3e	0.02920353
137	0xbb73cc98	-0.0037200805
138	0xbe10e1e4	-0.1414867
139	0x3da53663	0.08067014
140	0xbe035e7e	-0.12829015
141	0x3c30349d	0.0107547315
142	0xbd129711	-0.0357886
143	0xbbce8e84	-0.0063036103
144	0x3cd95b0a	0.026532669
145	0x3c38e020	0.011283904
146	0x3d6aa6ee	0.057288103
147	0x3e58acb2	0.21159628
148	0x3cb6da63	0.022320932
149	0x3d069456	0.032856308
150	0x3de3c9c2	0.111224666
151	0x3bcd7357	0.006269853
152	0x3ba1b802	0.0049352655
153	0x3d042402	0.032260902
154	0x3b6d440f	0.0036203896
155	0xbadf8af1	-0.0017054958
156	0xbc0abe35	-0.0084682
157	0x3c82c86d	0.015964711
158	0x3c83aa78	0.016072497
159	0x3cf4fd59	0.029905962
160	0x3d0d4dd5	0.034498055
161	0x3e31e89d	0.17373891
162	0x3d81c2c2	0.06335975
163	0x3e3064ba	0.17225924
164	0x3c4a6d4f	0.012355163
165	0x3ddb7a16	0.107166454
166	0x3b96be74	0.0046003405
167	0x3e36c09c	0.17846912
168	0x3d9ea02b	0.07745393
169	0xbcafd9a6	-0.021466088
170	0x3dca4f91	0.09878457
171	0x3d9a3276	0.07529156
172	0xbee4b7e5	-0.4467155
173	0x3e128222	0.14307454
174	0x3b9a2a65	0.004704761
175	0x3d18896c	0.03724043
176	0x3c4c5233	0.01247077
177	0x3cdaed6a	0.026724536
178	0xbe4d0ae0	-0.2002368
179	0x3df4a32b	0.11945184
180	0xbe4950fc	-0.196598
181	0x3d2c8823	0.042122018
182	0xbd8ae544	-0.0678201
183	0x3d91e0c7	0.07122951
184	0x3cd82342	0.026384
185	0xbd27fe00	-0.041013718
186	0x3caa23bb	0.02076899
187	0x3d15e6ef	0.03659719
188	0x3d95a555	0.07306925
189	0xbded8c45	-0.1159902
190	0x3cbb207b	0.022842636
191	0x3d9c2142	0.07623531
192	0x3c67862b	0.014131109
193	0x3d5b84fa	0.053593613
194	0x3c393195	0.011303325
195	0x3cfd2bb7	0.030904634
196	0xbea440d4	-0.3208071
197	0x3cce16e1	0.025157394
198	0x3c05de29	0.008170643
199	0x3e589b8b	0.21153085
200	0x3d518029	0.051147614
201	0x3d6e8a81	0.058237556
202	0x3d18af34	0.03727646
203	0xbd005234	-0.031328395
204	0xbc2a5d95	-0.010398288
205	0x3c15e746	0.009149378
206	0x3c95ff1d	0.018310124
207	0x3d9c5c1c	0.07634756
208	0x3e4893e8	0.19587672
209	0x3c9e1aff	0.019299982
210	0xbd506ba5	-0.050883908
211	0x3e08650b	0.13319795
212	0x3c0f121c	0.008732345
213	0xbe48f183	-0.1962338
214	0x3dc4024b	0.0957075
215	0xbe85fb40	-0.2616825
216	0xbdc2927e	-0.095005974
217	0xbdffa7ba	-0.12483163
218	0xbb501ea5	-0.0031756547
219	0xbe81255c	-0.25223815
220	0x3cff556c	0.031168662
221	0xbcd8a6c7	-0.026446713
222	0xbd4d7ae2	-0.05016602
223	0x3b72edc6	0.0037067994
224	0x3db10281	0.08643056
225	0xbe8e0b79	-0.27743128
226	0x3d6f1c10	0.05837637
227	0x3d9e19fc	0.077198
228	0x3e02bfaa	0.12768427
229	0x3d6268d7	0.055275764
230	0xbdce4d06	-0.10073285
231	0x3d039d97	0.03213271
232	0x3d9c48ea	0.07631095
233	0x3c144aed	0.009051067
234	0xbd06c2f1	-0.032900754
235	0xbddee41a	-0.10883351
236	0xbe05fa68	-0.13083804
237	0xbe83f84c	-0.25775373
238	0x3c2d9642	0.010594906
239	0xbe37004c	-0.17871207
240	0x3d440740	0.047858477
241	0x3d0e0f2c	0.034682438
242	0x3d7262ab	0.05917613
243	0xbe8706e6	-0.2637245
244	0xbc80350a	-0.015650291
245	0x3e4a667a	0.19765654
246	0xbdc3e53c	-0.09565207
247	0xbe120fe2	-0.14263871
248	0x3c2daa72	0.010599719
249	0x3ce8473b	0.028354278
250	0x3c2b52a1	0.010456712
251	0xbe976b29	-0.29573944
252	0x3b2aa5d2	0.0026038778
253	0xbd539cc9	-0.051663194
254	0x3c939a54	0.018017925
255	0xbc446626	-0.011987245

action_model._discrete_distribution.branches.1.bias f4 [3]
0	0x3c6c6368	0.014427997
1	0xbd35e61b	-0.0444089
2	0x3b7703aa	0.0037691393

action_model._discrete_distribution.branches.2.weight f4 [2, 256]
0	0x3d423849	0.04741696
1	0x3ca53c3a	0.02017032
2	0xbf07921a	-0.5295731
3	0xbd2d82a3	-0.042360913
4	0xbe2c8207	-0.16846476
5	0x38c6bc1e	9.476415e-05
6	0xbd25c234	-0.04046841
7	0xbe8a06a7	-0.269582
8	0xbecf27d7	-0.40460083
9	0x3c78abea	0.015177706
10	0xbe54eea3	-0.20794158
11	0xbdfcbaa7	-0.123402886
12	0xbc7ad6a4	-0.015309963
13	0x3cd1c897	0.025608344
14	0xbe090cff	-0.13383864
15	0x3daa774c	0.08323535
16	0x3e572b5e	0.21012637
17	0xbce9c2ef	-0.028535334
18	0x3d3d61e3	0.04623593
19	0x3c909ff2	0.017654393
20	0xbddd5b48	-0.10808426
21	0x3d1d9c9b	0.03847943
22	0xbc9762c8	-0.01847972
23	0x3b29efa0	0.002593018
24	0xbdeba7d1	-0.11506618
25	0x3d46a784	0.0484996
26	0x3d01f063	0.03172339
27	0xbc667b94	-0.014067549
28	0x3e8d0ae5	0.27547374
29	0x3e437371	0.19087006
30	0xba8376ac	-0.0010029874
31	0xbdbb5a6a	-0.091481045
32	0xbea00f59	-0.3126171
33	0xbc81c320	-0.015840113
34	0xbd2e3689	-0.042532478
35	0xbea60398	-0.32424617
36	0x3cee591f	0.02909523
37	0x3e134db9	0.14385118
38	0x3e8dcd01	0.27695468
39	0xbd8069bc	-0.06270167
40	0x3bb7276d	0.0055894167
41	0xbd17470f	-0.036933
42	0xbd057ca3	-0.032589566
43	0x3d147a70	0.036249578
44	0x3cafa415	0.021440545
45	0x3cb10834	0.021610357
46	0xbde6a261	-0.1126144
47	0x3c159e2e	0.009131951
48	0x3db9fe27	0.09081679
49	0xbb4e3404	-0.003146411
50	0xbda87552	-0.08225502
51	0x3ca04f4e	0.019569065
52	0xbc090881	-0.008363844
53	0x3d8597a6	0.06523065
54	0xbb925cb3	-0.004466617
55	0x3ccfa0df	0.025345264
56	0x3ce3cb26	0.02780683
57	0xbb189233	-0.00232805
58	0xbd2b0cc9	-0.04176024
59	0xbde1c8d7	-0.11024635
60	0x3ce437cd	0.02785864
61	0x3e96cf2d	0.29454938
62	0xbe28d937	-0.16489111
63	0xbe8fceb0	-0.28087378
64	0x3eedac6c	0.4642061
65	0x3e08a2f6	0.13343415
66	0x3db277ee	0.08714281
67	0x3a97db9a	0.0011585832
68	0x3c37aba7	0.011210359
69	0x3cfd5aa7	0.030927015
70	0xbe8f5c02	-0.27999884
71	0x3d7c1c10	0.0615502
72	0xbb1808f6	-0.00231987
73	0xbe0df5a0	-0.1386323
74	0x3c3d6c02	0.011561396
75	0xbe1f48c5	-0.15555103
76	0x3d14ac59	0.036297176
77	0x3d95433d	0.07288215
78	0x3c593499	0.013257169
79	0xbd5778a3	-0.052605283
80	0x3a39f76c	0.00070940587
81	0x3cfd1b53	0.030896818
82	0x3cca3aa5	0.024686167
83	0x3d67db33	0.05660553
84	0xbe7ee06e	-0.248903
85	0xbde02db2	-0.10946216
86	0x3edd06bb	0.43169197
87	0xbc4c5bc2	-0.012473049
88	0xbc0adef2	-0.008476006
89	0xbb857d9a	-0.0040738108
90	0xbad9fd84	-0.001663134
91	0xbd5719e2	-0.05251492
92	0xbe95a1f4	-0.29225123
93	0x3dfe1ee9	0.124082394
94	0x3d0f4598	0.03497848
95	0xbdd026b3	-0.10163631
96	0xbe91a06d	-0.28442708
97	0x3ca29db0	0.019850582
98	0xbe338004	-0.17529303
99	0x3d13303c	0.03593467
100	0xbe0f9aab	-0.14023845
101	0xbe12aee0	-0.14324522
102	0x3df3123e	0.11868714
103	0xbd888f78	-0.066679895
104	0xbd1daf28	-0.03849712
105	0xbcb145a7	-0.021639658
106	0xbd352ba3	-0.04423107
107	0xbe28a1ee	-0.16468021
108	0x3ee21b3f	0.44161412
109	0x3c684659	0.014176928
110	0xbea8d23f	-0.32972905
111	0xbe21377f	-0.15743826
112	0x3dbd9ac7	0.09258037
113	0x3c7cb3df	0.015423744
114	0x3b47f5b8	0.003051145
115	0x3c9239df	0.01784986
116	0xbdaf1a02	-0.085498825
117	0xbd4e0320	-0.05029595
118	0xbda322a3	-0.07965591
119	0xb8b05c7e	-8.409562e-05
120	0xbbe63c2f	-0.0070262174
121	0x3c744397	0.014908693
122	0xbe308767	-0.17239152
123	0xbb5210d8	-0.0032053497
124	0xbbdb41cf	-0.0066911946
125	0xbdc282de	-0.09497617
126	0x3e74b18c	0.23895854
127	0x3cb67f71	0.022277566
128	0x3d75f995	0.060052473
129	0xbd0f0719	-0.03491888
130	0xbeb9e0f6	-0.36304444
131	0x3cd6d25b	0.026223352
132	0xbd8c80b9	-0.068604894
133	0x3c89f138	0.016838655
134	0x3c169afa	0.009192223
135	0xbd8a26fe	-0.067457184
136	0x3cab494b	0.020908972
137	0xbc0fe704	-0.008783106
138	0xbe225de1	-0.15856124
139	0x3d186455	0.03720506
140	0xbd11c9d7	-0.03559288
141	0xbae7b8b5	-0.0017678948
142	0x3df768db	0.120805465
143	0x3d2f8b7b	0.04285763
144	0x3be89b2f	0.0070985775
145	0x3d21ab93	0.039470267
146	0xbe290b19	-0.1650814
147	0x3e3e4e74	0.18584615
148	0x3cbf4b69	0.023351388
149	0xbd3c152c	-0.04591863
150	0xbe000b9f	-0.12504433
151	0xbb82269c	-0.0039718878
152	0x3dae6301	0.08514977
153	0x3cfd0e42	0.030890588
154	0xbc5e10e1	-0.013553829
155	0xbba63a06	-0.005072835
156	0xbd5167cb	-0.051124375
157	0x3cca7f15	0.0247188
158	0xbe469239	-0.19391717
159	0x3e1e2493	0.1544364
160	0xbd866be7	-0.065635495
161	0x3bffb0a6	0.0078030406
162	0xbd1973d8	-0.037463993
163	0xbb818b0e	-0.003953344
164	0x3d0de084	0.034637943
165	0xbd717f85	-0.058959503
166	0x3c58bbe2	0.0132283885
167	0x3dc57a2e	0.096424446
168	0xbd8de258	-0.06927937
169	0x3d7ca6e6	0.061682604
170	0x3e52369b	0.20528643
171	0x3d0d6c2c	0.03452699
172	0xbf092132	-0.5356628
173	0x3cc73199	0.024315642
174	0x3c05ec1c	0.008173969
175	0xbddd9294	-0.10818973
176	0x3d3425b8	0.043981284
177	0x3b835bdc	0.004008753
178	0xbefd0275	-0.49415937
179	0x3dcb9204	0.0993996
180	0xbe159de7	-0.14611016
181	0x3c2d4de9	0.010577657
182	0xbd0e9111	-0.034806315
183	0xbd704451	-0.0586589
184	0x3c886c82	0.016653303
185	0xbd6112d8	-0.05494961
186	0x3c60ecf3	0.013728368
187	0x3c8b2b52	0.01698843
188	0xbce0aa17	-0.027424855
189	0x3b3f00a6	0.0029144674
190	0x3c5e166a	0.013555149
191	0x3d2dd6fc	0.042441353
192	0x3c847c7b	0.016172638
193	0xbd219a8c	-0.039454028
194	0xbd8088f9	-0.062761255
195	0x3c67910d	0.014133704
196	0xbeb726ac	-0.35771692
197	0x3b97970b	0.00462616
198	0x3bde7296	0.006788562
199	0x3eb2eb85	0.34945312
200	0x3d8d33bf	0.068946354
201	0xbd1a6139	-0.037690375
202	0xbc612f27	-0.013744152
203	0x3c6af2bd	0.0143401
204	0x3da325a5	0.079661645
205	0x3d91ab6c	0.07112774
206	0x3c1a5e47	0.0094218915
207	0x3d61cb65	0.055125613
208	0x3e59405c	0.21215957
209	0x3c9bf980	0.01903987
210	0x3ea75b1b	0.32686695
211	0xbd8cde65	-0.06878356
212	0xbc0d4b8b	-0.008623968
213	0x3b7d0700	0.0038608909
214	0x3df0a118	0.11749476
215	0xbd830408	-0.06397253
216	0x3cceec32	0.025259111
217	0xbe641200	-0.22272491
218	0xbcf8035a	-0.030275036
219	0xbd74ad24	-0.059735432
220	0xbdf79ffa	-0.1209106
221	0xbdbf8889	-0.09352214
222	0xbcba2541	-0.022722842
223	0x3cc80d64	0.024420448
224	0xbd930928	-0.07179481
225	0xbccdbc7d	-0.025114292
226	0xbe2ce350	-0.16883588
227	0xbd81653c	-0.06318137
228	0x3e9d3bcb	0.3070968
229	0x3d80995d	0.06279252
230	0xbe24bd20	-0.1608777
231	0x3dd3fbe6	0.1035078
232	0xbc5c612d	-0.013450903
233	0x3ccacee5	0.024756858
234	0xbdaddcbc	-0.08489367
235	0x3c9f8261	0.01947135
236	0xbdbf6431	-0.09345282
237	0xbb2c0757	-0.0026249492
238	0x3c9da800	0.019245148
239	0xbd6fcc5b	-0.058544498
240	0x3e1bd9a6	0.15219745
241	0xbd9ebff6	-0.077514574
242	0xbd2ff33a	-0.04295657
243	0x3e8fea4c	0.28108442
244	0x3aa08597	0.0012246844
245	0x3e48da31	0.19614483
246	0x3da0624c	0.07831249
247	0xbe3290ac	-0.17438
248	0x3c17454e	0.009232832
249	0x3d2eb66c	0.04265444
250	0x3c70252c	0.0146573
251	0xbdad5608	-0.08463675
252	0xbe0982e9	-0.13428845
253	0x3ea75cea	0.32688075
254	0xbc7951d6	-0.015217265
255	0x3e0e2d94	0.13884574

action_model._discrete_distribution.branches.2.bias f4 [2]
0	0x3ce7930d	0.028268361
1	0xbce79306	-0.028268348
