results/boat-agent-ppo-imit/boat/boat-2999880.onnx (onnx, 328993 bytes, 11 tensors)

discrete_act_size_vector f4 [1, 3]
0	0x40000000	2.0
1	0x40400000	3.0
2	0x40000000	2.0

network_body._body_endoder.seq_layers.0.weight f4 [256, 47]
0	0xbe06b7fb	-0.1315612
1	0xbe59e4ac	-0.21278638
2	0x3d9c94bd	0.07645557
3	0xbc6e5f03	-0.01454902
4	0x3dfd36f3	0.12363996
5	0xbdefd1e3	-0.117099546
6	0xbe1f47df	-0.1555476
7	0xbc940db2	-0.018072937
8	0xbe220048	-0.1582042
9	0xbdd56059	-0.104187675
10	0x3dbb50bc	0.09146258
11	0xbd51151a	-0.051045515
12	0x3ea15153	0.31507358
13	0xbd3e927f	-0.04652643
14	0x3eccdc15	0.4001166
15	0x3c89e993	0.01683501
16	0x3e36128b	0.17780511
17	0xbe6c0a4a	-0.230508
18	0x3ec1dccf	0.37863776
19	0xbd3086dd	-0.043097366
20	0x3dd5c768	0.10438424
21	0x3d4e3525	0.05034365
22	0x3e6d381c	0.23165935
23	0x3cc0eb6b	0.023549756
24	0xbdb9ff2f	-0.090818755
25	0x3dad4bd9	0.084617324
26	0x3ddd0238	0.10791439
27	0xbea17524	-0.31534684
28	0x3e27de6f	0.16393445
29	0xbd9c55e2	-0.07633568
30	0xbdc8ce32	-0.09804954
31	0xbd87705d	-0.066132285
32	0x3e5fa154	0.21838886
33	0xbe23f502	-0.16011432
34	0x3d046893	0.032326292
35	0xbdea861e	-0.11451362
36	0xbd85ec8e	-0.0653926
37	0x3ddfccd1	0.109277375
38	0x3e0fb9f5	0.1403578
39	0x3de397e3	0.111129545
40	0xbe15e19d	-0.14636846
41	0xbd044506	-0.03229239
42	0x3eb5506b	0.35412917
43	0x3e8bcb0e	0.27303356
44	0x3cda3e64	0.026641078
45	0xbdb7c79e	-0.08973621
46	0x3da7e304	0.08197597
47	0xbf116749	-0.56798226
48	0x3e568419	0.20948829
49	0xbdc1e2c3	-0.094670795
50	0x3e47736e	0.19477627
51	0xbea54a50	-0.32283258
52	0xbd1c1d55	-0.03811391
53	0x3e4e5279	0.20148648
54	0x3e5f68b0	0.21817279
55	0xbdb2076f	-0.08692824
56	0x3d1291cd	0.035783578
57	0xbe4b38da	-0.19845906
58	0x3ddbf9c8	0.10741001
59	0x3f4f9137	0.81080955
60	0xbdbe39ff	-0.092884056
61	0x3da5bcec	0.080926746
62	0x3e97ccbe	0.29648393
63	0xbdf58d9d	-0.11989901
64	0x3e83320e	0.25624126
65	0x3eb89f18	0.3605888
66	0xbd1f1dcc	-0.038846776
67	0xbe65805e	-0.2241225
68	0x3e0aacef	0.13542531
69	0xbde00a17	-0.109394245
70	0x3dd29bc8	0.10283619
71	0x3e8a6ecc	0.27037656
72	0xbe0e1b6c	-0.13877648
73	0xbeb9791a	-0.36225206
74	0x3e257b41	0.16160299
75	0xbe96892b	-0.29401526
76	0x3e325fd4	0.17419368
77	0xbcc75bb6	-0.024335723
78	0x3d3aa659	0.045568798
79	0x3d92a368	0.071600735
80	0x3de75da5	0.11297158
81	0xbf012708	-0.5045018
82	0x3da1aa6e	0.07893835
83	0xbee4ecea	-0.44712
84	0x3ed8f2d2	0.42372757
85	0xbdc0c202	-0.09412004
86	0xbd418ff9	-0.047256444
87	0xbe4defec	-0.20111054
88	0x3e2ce523	0.16884284
89	0xbe58fbdd	-0.21189828
90	0x3cb51b9b	0.02210789
91	0x3e8813bc	0.26577556
92	0xbeaafe44	-0.33397114
93	0x3c8d18cf	0.017223744
94	0xbde259d2	-0.11052288
95	0xbcfa64ee	-0.030565705
96	0xbe01c3e5	-0.12672384
97	0x3ce3ffd1	0.027831944
98	0xbdd96c08	-0.106163085
99	0x3dc87dd8	0.09789628
100	0x3e22a5b8	0.15883529
101	0x3e27e75e	0.16396853
102	0xbe91da82	-0.2848702
103	0x3dccc77a	0.09998985
104	0xbc859df0	-0.016310662
105	0xbe3c7c24	-0.18406731
106	0xbddaa00b	-0.10675057
107	0xbd905dc3	-0.07049134
108	0x3f06d975	0.52675563
109	0xbb16dfa9	-0.0023021495
110	0x3e1d36a3	0.15352874
111	0x3e857a3e	0.26069826
112	0xbe2efedb	-0.17089407
113	0xbe2b3be0	-0.16722059
114	0x3e3398a2	0.17538694
115	0xbdc179cf	-0.09447061
116	0xbdc3e81d	-0.095657565
117	0x3dd8c1f7	0.10583871
118	0x3d560123	0.052247178
119	0xbda3f0ac	-0.08004889
120	0x3cf2d136	0.029640775
121	0xbda74a3e	-0.081684574
122	0xbec76cbe	-0.3895015
123	0xbd908873	-0.070572756
124	0x3e37b164	0.17938763
125	0x3d51e526	0.051243924
126	0xbe899ae4	-0.26875985
127	0xbd1ec5a3	-0.0387627
128	0xbe7524aa	-0.23939767
129	0xbe35f118	-0.17767751
130	0xbdb5d1ef	-0.08877932
131	0xbd915df1	-0.07097996
132	0xbe70fbb8	-0.23533523
133	0x3c2d27b0	0.010568544
134	0x3e2035fd	0.15645595
135	0xbea1f181	-0.31629565
136	0xbe360c7f	-0.17778204
137	0xbe890bd5	-0.2676684
138	0x3e505511	0.2034495
139	0xbf183e9c	-0.59470534
140	0x3d0fbd9f	0.035092946
141	0xbcc3c053	-0.023895418
142	0x3e3c98ff	0.18417738
143	0xbdaf25ac	-0.08552107
144	0x3eb5bb22	0.35494334
145	0xbb97f81c	-0.0046377312
146	0x3e9205d6	0.28520077
147	0x3e1d19bc	0.15341848
148	0xbca213f0	-0.019784898
149	0x3d663bd4	0.0562094
150	0xbc35e4f7	-0.011101953
151	0x3d05c5ed	0.03265946
152	0x3e810ce6	0.25205153
153	0xbea93232	-0.33046108
154	0x3e8c644b	0.27420267
155	0xbeb3b4c3	-0.35098848
156	0x3e4ba158	0.19885767
157	0xbe8072c7	-0.25087568
158	0x3e46bda1	0.19408275
159	0xbc8888df	-0.016666828
160	0x3ddde639	0.10834927
161	0xbe3c270e	-0.18374273
162	0x3e999828	0.29998899
163	0xbe8bbaee	-0.27291054
164	0x3e715777	0.23568521
165	0x3e812c98	0.25229335
166	0xbdc09a55	-0.094044365
167	0xbe470667	-0.19436036
168	0x3e9a7926	0.30170554
169	0xbe96182a	-0.2931531
170	0xbe056295	-0.13025887
171	0x3e30666a	0.17226568
172	0xbd6a52d3	-0.057207894
173	0xbe6d0fd8	-0.23150575
174	0x3dacea35	0.08443109
175	0x3e2f54d3	0.17122202
176	0x3ec3848f	0.38187072
177	0xbccc10b2	-0.024910305
178	0x3d33a545	0.043858785
179	0xba8e5cf8	-0.0010861447
180	0x3e00e2ac	0.12586468
181	0x3f20ec4c	0.6286056
182	0xbb99fdf7	-0.0046994644
183	0xbe9de0ea	-0.30835658
184	0xbcdb5750	-0.026775032
185	0x3e7f5acc	0.2493698
186	0x3e14700f	0.14495872
187	0x3e38befe	0.18041608
188	0xbea1c74a	-0.31597358
189	0x3e291441	0.16511633
190	0x3e4dcbdd	0.20097299
191	0xbe9d1c39	-0.30685595
192	0xbd890664	-0.06690672
193	0x3e97b04c	0.2962669
194	0xbe7ab4e0	-0.24483061
195	0x3e85eed6	0.2615878
196	0xbe590722	-0.21194127
197	0x3daf7942	0.0856805
198	0x3ddf159a	0.10892792
199	0xbe71b901	-0.2360573
200	0x3ea1810a	0.31543761
201	0x3ea213b2	0.3165565
202	0xbe9df417	-0.30850288
203	0x3d29c485	0.04144718
204	0xbe75e05e	-0.2401137
205	0x3e6f8e94	0.23394233
206	0xbd809aec	-0.06279549
207	0xbe674d4d	-0.22588082
208	0xbf01ef25	-0.5075553
209	0x3db9fa53	0.09080949
210	0x3d972fab	0.07382139
211	0x3e431bda	0.19053593
212	0xbe156c5c	-0.14592117
213	0xbe01329b	-0.1261696
214	0x3e51728f	0.20453857
215	0x3dc4e53c	0.096140355
216	0xbe3559f8	-0.17710102
217	0xbe195508	-0.14973843
218	0x3e1a132b	0.15046374
219	0x3d8c7005	0.068573035
220	0xbe1aeefb	-0.15130226
221	0x3e70b09d	0.23504873
222	0x3e4d9222	0.20075276
223	0x3d4cd8ad	0.050011326
224	0x3b2719d3	0.002549757
225	0xbefc6cd2	-0.49301773
226	0x3e55436e	0.20826504
227	0x3e18ef20	0.14934969
228	0x3e6929fd	0.22769924
229	0xbc3e9f21	-0.011634619
230	0xbcd8e8e3	-0.026478237
231	0x3dd32b29	0.103109665
232	0x3e70e089	0.23523153
233	0xbe341b54	-0.1758855
234	0x3cf847c0	0.03030765
235	0x3e0da932	0.13834074
236	0xbe66e415	-0.22547944
237	0xbda74469	-0.08167345
238	0xbd9a4f00	-0.07534599
239	0x3d967f04	0.07348445
240	0x3e06e4ad	0.1317317
241	0x3e7ca07b	0.24670593
242	0x3e68b9ea	0.2272717
243	0xbefb104d	-0.49035874
244	0xbc71b304	-0.014752153
245	0xbe868fec	-0.2628168
246	0x3d7b1617	0.061300363
247	0x3e9b666f	0.30351588
248	0xbd57f952	-0.052728005
249	0xbe9dfd80	-0.30857468
250	0x3bfeb80d	0.0077734054
251	0x3e425c98	0.18980634
252	0x3da7f734	0.08201447
253	0x3ef084c3	0.4697629
254	0x3c8cffa4	0.017211743
255	0x3e3c5455	0.18391545

network_body._body_endoder.seq_layers.0.bias f4 [256]
0	0xbd8057da	-0.06266756
1	0x3da25904	0.07927135
2	0xbbebded9	-0.0071981964
3	0x3d8e68e6	0.069536015
4	0x3d42431e	0.04742729
5	0x3d01fc4d	0.031734753
6	0xbc39261f	-0.011300593
7	0x3dc403f5	0.09571067
8	0xbc72e639	-0.014825397
9	0x3d4aebe6	0.049541377
10	0x3d8478ae	0.0646833
11	0x3e143f06	0.14477167
12	0x3d9408e2	0.07228257
13	0x3d271b4d	0.04079752
14	0x3ddca0d7	0.10772865
15	0xbdb2118d	-0.08694754
16	0x3cedb700	0.029017925
17	0x3d50736b	0.05089132
18	0xbd1a516e	-0.037675314
19	0x3db2a0cf	0.08722078
20	0x3d8b759b	0.06809541
21	0x3c949ac0	0.018140197
22	0xbc93992e	-0.018017378
23	0x3c7a09df	0.0152611425
24	0x3ce384cf	0.027773289
25	0xbb3403ba	-0.0027468042
26	0xbd056cdf	-0.03257453
27	0x3dc5cc3c	0.09658095
28	0x3d5efcc4	0.054440275
29	0x3d9bd480	0.076088905
30	0x3d003455	0.031299908
31	0x3d022e75	0.031782586
32	0xbc3f41ff	-0.01167345
33	0x3d70b6e3	0.058768164
34	0xbc4776c3	-0.012174311
35	0x3c578f6d	0.013156754
36	0x3dab44c0	0.083627224
37	0xbdb78a9c	-0.089619845
38	0x3d910051	0.070801385
39	0x3d9b9794	0.075972706
40	0xbb924f7f	-0.004465043
41	0x3d76e39d	0.060275663
42	0x3dc86f3a	0.0978684
43	0x3c60e27b	0.013725872
44	0x3bebe37a	0.007198748
45	0x3c0d73eb	0.008633594
46	0xbc6a8feb	-0.014316539
47	0x3d26e5ec	0.040746614
48	0xbd85db24	-0.065359384
49	0xbda73267	-0.0816391
50	0xbca16c69	-0.019705014
51	0x3c7cd349	0.015431234
52	0x3dd418c9	0.1035629
53	0xbd70f426	-0.058826588
54	0x3cf074e8	0.02935262
55	0x3d760543	0.06006361
56	0xbd266fa2	-0.040633805
57	0x38bb1c5c	8.922137e-05
58	0x3e36aecc	0.17840117
59	0x3d9e3fbf	0.07727002
60	0xbbfbac13	-0.007680425
61	0xbb1a90b1	-0.0023584778
62	0xbd2850c4	-0.04109265
63	0xbd2175fb	-0.039419156
64	0xbcd6099d	-0.02612763
65	0x3c5d1e49	0.01349599
66	0x3d373363	0.04472674
67	0x3d333009	0.04374698
68	0x3d1b5595	0.037923414
69	0x3d7b37ec	0.061332628
70	0xbd4002f2	-0.04687781
71	0x3d469f49	0.04849175
72	0x3d7c1795	0.061545927
73	0xbd37abe9	-0.04484168
74	0x3d75309d	0.059860814
75	0xbbb0d53a	-0.0053965123
76	0x3d6511cd	0.05592518
77	0xbbd01bac	-0.006350955
78	0xbd2e43eb	-0.04254524
79	0x3d0d8a7d	0.0345559
80	0x3a5085fd	0.0007954536
81	0x3d004b2f	0.0313217
82	0x3d76c7df	0.060249206
83	0xbd5dc3d2	-0.054141827
84	0xbd06b47d	-0.03288697
85	0xbd3b2d01	-0.045697216
86	0xbd0592f6	-0.032610856
87	0x3c54066c	0.012940984
88	0xbc5415a1	-0.01294461
89	0x38a1bcdf	7.712258e-05
90	0x3cc8d5af	0.024515955
91	0xbabc6565	-0.001437348
92	0xbc6d4b10	-0.014483228
93	0x3c76b0e8	0.015056826
94	0x3b722137	0.0036946067
95	0x3d564089	0.05230764
96	0xbc140579	-0.009034508
97	0xbaff20e8	-0.0019464763
98	0x3d63f45b	0.055652957
99	0x3da4f8ff	0.08055305
100	0xbba98ba5	-0.0051741176
101	0xbc0b2c7e	-0.0084944945
102	0xbc84b83b	-0.01620113
103	0x3c821b00	0.015882015
104	0x3c14cd51	0.009082154
105	0xbcbc8c7b	-0.023016205
106	0xbdc64c8e	-0.096825704
107	0xbcd07eee	-0.02545115
108	0x3bdbb0f4	0.006704444
109	0xbd2e32ae	-0.0425288
110	0xbdd136b6	-0.102155134
111	0xbcd775b2	-0.026301239
112	0x3cec6d62	0.028860752
113	0x3c8a7d9c	0.016905598
114	0xba2c6158	-0.00065757846
115	0x3cd95897	0.0265315
116	0x3d23e605	0.040014286
117	0x3ce027ee	0.02736279
118	0x3ce56a66	0.028004836
119	0x3db7e363	0.089789174
120	0xbc5a401d	-0.01332095
121	0x3c2c6859	0.010522925
122	0x3d8a0e6f	0.06741034
123	0x3cd1a207	0.025589956
124	0xbd92bf6e	-0.071654186
125	0x3c3ec631	0.011643932
126	0x3d621334	0.055194095
127	0xbd4bb205	-0.04973032
128	0x3cb805bc	0.022463672
129	0x3d549712	0.051901884
130	0xbd914c04	-0.07094577
131	0x3d1af53d	0.037831534
132	0x3d8e0974	0.06935397
133	0xbd860a28	-0.06544906
134	0xbc6a97bb	-0.014318402
135	0xbc82f49d	-0.015985781
136	0x3d9d6438	0.07685131
137	0x3d29b470	0.041431844
138	0x3debc4a3	0.11512115
139	0x3addd40c	0.0016924157
140	0xbcc81b2c	-0.024427019
141	0x3bb2f3f4	0.0054612104
142	0xbcdc2a89	-0.026875751
143	0xbdc1f113	-0.094698094
144	0xbd0710aa	-0.032974876
145	0xbc59ad5b	-0.01328596
146	0x3cfa08c1	0.030521752
147	0xbc77464b	-0.015092443
148	0xbb3d813c	-0.002891614
149	0x3eaf3493	0.34219798
150	0xbce6fddf	-0.028197227
151	0x3c35a1ac	0.011085909
152	0xbc9daf9c	-0.019248776
153	0x3dc4bc5e	0.09606241
154	0x3cea869b	0.028628638
155	0x3b99467c	0.004677592
156	0x3d2154f7	0.03938767
157	0x3d159670	0.03652042
158	0x3d34c03d	0.044128645
159	0xbce63d7e	-0.028105494
160	0x3d35ad5a	0.044354774
161	0xbd93a982	-0.072100654
162	0x3d12de42	0.035856493
163	0x3dd03c4b	0.1016775
164	0xbc43a410	-0.011940971
165	0x3d344976	0.04401537
166	0x3cc12e6a	0.023581702
167	0x3cd20c78	0.025640711
168	0x3c74f7a6	0.014951622
169	0xbd6a4535	-0.057194907
170	0x3d6d5530	0.05794257
171	0x3cd75d04	0.02628947
172	0x3e6406ad	0.22268172
173	0x3d891b5e	0.06694673
174	0x3c7644e0	0.0150310695
175	0x3a8e6b85	0.0010865784
176	0x3d986205	0.07440571
177	0x3cc02837	0.023456676
178	0x3daf25d1	0.08552135
179	0x3ca6a84d	0.020343924
180	0x3cc50695	0.02405099
181	0xbc85917d	-0.016304726
182	0xbd5ec514	-0.054387167
183	0xbd06d635	-0.032919127
184	0xbd1eaf77	-0.038741555
185	0xbbd0eba4	-0.006375747
186	0xbd415d01	-0.047207836
187	0x3d4fe897	0.050758924
188	0x3c96d3b9	0.018411504
189	0xbc078a9a	-0.008272791
190	0x3db10ce3	0.08645036
191	0xbddf610e	-0.109071836
192	0xbb0e7346	-0.0021736189
193	0xbca21c11	-0.019788774
194	0x3dc6d101	0.09707833
195	0xbc28172e	-0.010259433
196	0x3e1de002	0.15417483
197	0x3cab9bb0	0.020948261
198	0x3cdce85a	0.026966263
199	0xbd9f7d4e	-0.07787572
200	0xbda4728e	-0.08029662
201	0x3d616663	0.055029284
202	0xbcbf95a7	-0.02338679
203	0xbbfe049d	-0.007752015
204	0x3c84f774	0.016231276
205	0x3d306b3d	0.04307102
206	0x3d7bea05	0.061502475
207	0xbdd06dd8	-0.10177201
208	0x3d084f2e	0.033278637
209	0xbbc88f8e	-0.0061206287
210	0x3c28463e	0.010270653
211	0xbc8bffbd	-0.017089719
212	0xbba75152	-0.0051061297
213	0x3d99e42d	0.07514224
214	0x3ca64325	0.020295689
215	0x3d3c8a8b	0.046030562
216	0x3d752833	0.05985279
217	0x3c45fb87	0.012083895
218	0xbccba35a	-0.024858166
219	0x3bf5f9a1	0.0075065647
220	0x3c83444c	0.016023777
221	0x3dfe3e57	0.12414234
222	0x3c978cb1	0.018499704
223	0x3db8c0c4	0.09021142
224	0x3d0de9f7	0.034646954
225	0x3dde099a	0.10841675
226	0x3cf4e5d2	0.029894743
227	0x3d1cc1f3	0.038270902
228	0x3d08c3fe	0.033390038
229	0x3ab550a8	0.0013833242
230	0x3ce79d58	0.02827327
231	0x3d0d201d	0.034454454
232	0xbd343182	-0.043992527
233	0xbd9e02e0	-0.07715392
234	0x3de90ab3	0.11378994
235	0xbad77f04	-0.0016441052
236	0xbd0aff3f	-0.033934828
237	0x3da430cb	0.08017119
238	0x3d74b021	0.059738282
239	0x3d95257f	0.072825424
240	0x3e22c7b5	0.15896495
241	0xbcbb9ee6	-0.022902917
242	0x3d59b851	0.053154293
243	0x3be3336f	0.0069336216
244	0x3defb541	0.11704493
245	0xbc99f29a	-0.01879244
246	0x3d1b62b5	0.03793593
247	0x3b9db130	0.004812382
248	0x3b4a1b9d	0.0030839213
249	0xbbff47d9	-0.0077905473
250	0x3d6688d5	0.056282837
251	0x3c859384	0.016305692
252	0x3d3623b2	0.044467635
253	0x3c620b08	0.013796575
254	0xbd5a0a20	-0.053232312
255	0xbd12b328	-0.035815388

network_body._body_endoder.seq_layers.2.weight f4 [256, 256]
0	0xbbb539d4	-0.0055305753
1	0xbcf7aafe	-0.030232903
2	0xbdd519b4	-0.10405293
3	0x3cefdea3	0.029280966
4	0xbba770e8	-0.005109895
5	0x3e6170ee	0.22015736
6	0xbca09d3c	-0.019606225
7	0xbecae385	-0.3962671
8	0xbd72f918	-0.059319586
9	0xbd06e6dc	-0.03293501
10	0x3e690a75	0.22757895
11	0x3d5cb68f	0.05388504
12	0xbdb8e067	-0.09027176
13	0x3deddd1a	0.116144374
14	0xbdbae16f	-0.09125029
15	0xbde28bbf	-0.11061811
16	0x3d887cad	0.06664405
17	0xbc2c6319	-0.010521674
18	0x3d9028ee	0.07039057
19	0xbd0edb4c	-0.034877107
20	0xbdb7b197	-0.089694194
21	0x3d24a2e5	0.04019441
22	0x3d54b090	0.051926196
23	0xbdf46b78	-0.119345605
24	0x3dbf2659	0.09333486
25	0x3dfdedab	0.12398847
26	0x3d009d74	0.03140016
27	0xbdcb5f01	-0.0993023
28	0x3d9297d3	0.071578644
29	0x3d0c9284	0.034319416
30	0xbdff65a8	-0.12470561
31	0xbccb13e3	-0.024789756
32	0xbdf2d494	-0.11856952
33	0x3c99328e	0.018700864
34	0xbd22e164	-0.03976573
35	0x3dc5474d	0.0963274
36	0x3d65da41	0.056116346
37	0x3cfbeeff	0.03075361
38	0x3e1ac439	0.15113916
39	0xbd875fab	-0.06610044
40	0xbe7f5068	-0.24933016
41	0xbd519381	-0.05116606
42	0xbcb11193	-0.021614825
43	0xbd139e4e	-0.036039643
44	0x3b7efc0b	0.0038907554
45	0xbd97949e	-0.07401393
46	0xbd568719	-0.052374933
47	0x3e2aa61f	0.16664933
48	0x3c8dfed7	0.017333431
49	0x3c3631d5	0.011120279
50	0xbca21185	-0.019783745
51	0x3cbf5e10	0.023360282
52	0x3dbdf6da	0.09275599
53	0x3dbf864e	0.093517885
54	0x3c0bb48a	0.008526931
55	0xbe25796e	-0.16159603
56	0x3c826f8c	0.01592233
57	0x3d925c0c	0.07146463
58	0x3e1e126e	0.15436718
59	0xbc12c483	-0.008957985
60	0x3e238982	0.15970424
61	0x3dd6918a	0.10476978
62	0x3c7fe9ff	0.015619754
63	0x3d8532e7	0.065038495
64	0x3db828aa	0.08992131
65	0x3df15443	0.1178365
66	0x3cb231f6	0.021752339
67	0xbcdc8986	-0.026921045
68	0xbd13cc47	-0.036083486
69	0xbe233f63	-0.15942149
70	0x3d5a6093	0.053314757
71	0x3e20b919	0.15695609
72	0x3c2af725	0.0104349
73	0xbda80ff2	-0.08206166
74	0xbd4c4ae7	-0.04987612
75	0xbdf0ff5e	-0.117674574
76	0x3dfab60b	0.12241753
77	0xbd1e3808	-0.038627654
78	0x3d87bdfb	0.06628033
79	0x3bd7eb3c	0.0065893214
80	0x3c6bd3c0	0.014393747
81	0x3c0b425f	0.008499711
82	0xbdce28c7	-0.100663714
83	0x3d4ce1d9	0.050020073
84	0x3dfd24d2	0.123605385
85	0xbcf0e523	-0.029406136
86	0xbcc13dc3	-0.02358902
87	0xbe3338e9	-0.17502178
88	0x3d08189d	0.033226598
89	0x3c40faf4	0.011778582
90	0xbe363158	-0.1779226
91	0xbe17602c	-0.1478278
92	0x3e038022	0.12841848
93	0x3d65f512	0.05614192
94	0x3db90fcb	0.090362154
95	0xbe38adab	-0.18034999
96	0xbd777964	-0.0604185
97	0x3d8e5d72	0.06951417
98	0xbdbb1f8d	-0.09136877
99	0x3d0ff54c	0.035146043
100	0x3b819e7e	0.0039556613
101	0x3d6e807b	0.058227997
102	0xbc2b89f8	-0.010469906
103	0x3ceeb6ff	0.029139994
104	0xbbff4fbc	-0.0077914875
105	0x3dbbb5c5	0.09165529
106	0xbd8d767b	-0.06907364
107	0x3dd50bef	0.10402667
108	0x3dfb4f0a	0.12270935
109	0xbca062c2	-0.019578341
110	0x3daba5c6	0.08381228
111	0x3e4b6340	0.1986208
112	0xbbdd2b32	-0.006749534
113	0xbdf891f9	-0.12137217
114	0xbc66fb58	-0.014098011
115	0x3dda0b4b	0.10646685
116	0xbddc2b59	-0.107504554
117	0x3e4e98d7	0.20175491
118	0xbe6c1b40	-0.2305727
119	0xbcb98949	-0.02264847
120	0xbc8a8f8c	-0.016914152
121	0x3e09c739	0.13454904
122	0xbd90f418	-0.07077807
123	0x3d4bd4aa	0.04976336
124	0x3e25572b	0.16146533
125	0x3e07cc46	0.13261518
126	0xbde41cbf	-0.111382954
127	0x3d67fae9	0.05663577
128	0x3c54d2ac	0.012989681
129	0xbe181667	-0.14852296
130	0x3d0e32b2	0.034716316
131	0xbde96a61	-0.11397243
132	0x3d0971dc	0.03355585
133	0x3d7523d0	0.059848607
134	0xbdfec6d4	-0.12440267
135	0x3d34d716	0.044150434
136	0xbe5f6862	-0.21817163
137	0xbdb8a669	-0.09016115
138	0x3e23ce80	0.15996742
139	0xbd0adc82	-0.0339017
140	0x3d2b74f7	0.041859593
141	0x3d3a6753	0.045508694
142	0x3d6678f1	0.056267682
143	0xbe1c67b4	-0.15273935
144	0xbd9b6b54	-0.075888306
145	0x3dce9392	0.100867406
146	0xbdeb103a	-0.11477704
147	0xbd7bdb66	-0.06148853
148	0x3cbf70cc	0.023369215
149	0x3e7ba7f7	0.24575792
150	0x3d83474a	0.06410082
151	0x3deb0540	0.11475611
152	0x3d93b198	0.07211608
153	0x3dea49a7	0.11439829
154	0xbd82f8c7	-0.06395107
155	0xbca9f340	-0.020745873
156	0xbdd74bd3	-0.10512509
157	0xbb2603ff	-0.0025331972
158	0x3d83dd29	0.06438667
159	0x3c9a8336	0.018861394
160	0x3df4af9a	0.11947556
161	0xbd00aaef	-0.031413015
162	0xbb2c5516	-0.0026295832
163	0xbd0a6d91	-0.033795897
164	0xbd256069	-0.040375147
165	0xbdc416ac	-0.09574637
166	0x3e14a74c	0.14516944
167	0xbd65543b	-0.05598853
168	0x3e252dbf	0.16130732
169	0x3d72d55d	0.05928551
170	0xbd7e774b	-0.062125485
171	0xbd21d07f	-0.039505478
172	0x3ca7e738	0.020495996
173	0x3c6afb34	0.014342118
174	0x3d25c2c1	0.040468935
175	0x3dd27d36	0.10277788
176	0x3be93da1	0.0071179424
177	0xbe306173	-0.17224674
178	0xbdb19bed	-0.086723186
179	0x3e04eea2	0.12981656
180	0x3cf336b8	0.029689178
181	0xbca226b6	-0.01979385
182	0x3d592b21	0.053019647
183	0x3e3c37b9	0.18380632
184	0x3d505f6f	0.050872263
185	0xbd54a49d	-0.0519148
186	0x3c9b665f	0.018969713
187	0xbe0e0a41	-0.13871099
188	0x3a0c207d	0.00053454173
189	0x3cc1398e	0.023587015
190	0xbe4f3ddb	-0.2023844
191	0x3d6e7a61	0.05822218
192	0xbd1afd9f	-0.03783953
193	0xbd6b341d	-0.057422746
194	0xbd89ae1f	-0.06722664
195	0xbcaa7274	-0.020806529
196	0x3cf060c7	0.029343022
197	0x3e4f417f	0.20239829
198	0x3d81c6e2	0.06336762
199	0xbd3a0332	-0.045413204
200	0x3d887230	0.066624045
201	0xbd91c3b2	-0.07117404
202	0x3e1d01d7	0.15332733
203	0x3c675712	0.01411988
204	0xbcf9bf81	-0.030486824
205	0xbe3f0eff	-0.18658064
206	0x3e3e90ef	0.18609975
207	0xbd1bb001	-0.038009647
208	0xbd23d179	-0.03999469
209	0x3e29f13b	0.16595928
210	0x3d3fb7c5	0.046806116
211	0xbdb5846c	-0.08863148
212	0x3e3c7f5e	0.18407962
213	0x3dee27c5	0.11628679
214	0x3de081bd	0.109622456
215	0xbd2e68b6	-0.04258033
216	0x3df34ed7	0.11880272
217	0x3e104f8a	0.14092842
218	0x3d83a566	0.064280316
219	0xbc68cbe3	-0.014208767
220	0xbdeb9abd	-0.11504123
221	0xbe7252be	-0.23664376
222	0x3d46e859	0.048561428
223	0xbe7c8ff8	-0.24664295
224	0xbd941688	-0.0723086
225	0xbaa41975	-0.0012519794
226	0xbdcd3210	-0.10019314
227	0xbd36555e	-0.044515006
228	0xbe4f7aa4	-0.20261627
229	0xbdc00797	-0.09376448
230	0x3e01ab8b	0.12663095
231	0x3cbbc5d2	0.022921477
232	0x3cabd3b7	0.020974977
233	0xbd8857b3	-0.06657352
234	0xbebbeb4e	-0.3670296
235	0x3cc233b0	0.023706287
236	0xbd83d0f0	-0.06436336
237	0xbd6ef9e3	-0.05834378
238	0xbdf066a2	-0.11738326
239	0xbc0004aa	-0.007813612
240	0x3df1ca83	0.11806204
241	0xbdacf7e3	-0.08445718
242	0xbe194a07	-0.14969645
243	0xbcd092c4	-0.025460608
244	0x3becb140	0.0072232783
245	0xbcce7ff8	-0.025207505
246	0xbe3abe8b	-0.18236749
247	0x3d717c92	0.05895669
248	0xbdc72e09	-0.097255774
249	0xbdcce253	-0.100041054
250	0x3c9008be	0.017582294
251	0x3e0b5543	0.13606744
252	0xbe5628d6	-0.20914015
253	0x3e2194b8	0.15779388
254	0xbda158ba	-0.078782514
255	0x3bff03f6	0.0077824546

network_body._body_endoder.seq_layers.2.bias f4 [256]
0	0xbcd46f0b	-0.025931856
1	0xbc44deaa	-0.012015978
2	0xbc8acc95	-0.016943255
3	0xbb6c586d	-0.0036063448
4	0x3d4da7d3	0.050208878
5	0x3d842aed	0.064535
6	0xbd6ee931	-0.058327857
7	0xbc232981	-0.009958626
8	0x3cbec5bd	0.023287648
9	0x3c00fded	0.007873041
10	0x3c40c853	0.011766511
11	0x3d7c5acb	0.061610024
12	0xbd0dc157	-0.03460821
13	0x3c9b1c37	0.018934352
14	0x3c8e67c8	0.017383471
15	0x3ccb88c4	0.024845488
16	0x3d6e95bc	0.058248267
17	0xbbd06f51	-0.006360926
18	0x3a2379d4	0.00062361103
19	0x3ba120a0	0.0049172193
20	0xbc251a84	-0.010077123
21	0x3b838c1b	0.0040145046
22	0xbba53d77	-0.0050427276
23	0xbb97afa9	-0.0046290946
24	0xbafdeb48	-0.0019372487
25	0x3d545f6f	0.051848825
26	0xbc383d5e	-0.0112451
27	0x3a1eeb15	0.00060622516
28	0x3c26cfb9	0.010181361
29	0x3c3c2cc8	0.011485286
30	0x3cb4d270	0.022073
31	0x3ddc2994	0.10750118
32	0xbcd14e08	-0.025549904
33	0xbbf63bf2	-0.0075144703
34	0x3ca21baf	0.019788591
35	0x3d4c3953	0.049859356
36	0x3baffccc	0.005370712
37	0x3cd0597a	0.02543329
38	0x3d171863	0.03688849
39	0x3bcbf74f	0.00622455
40	0xbc7090b1	-0.014682935
41	0x3b37de90	0.0028056242
42	0xbce97f7c	-0.028503172
43	0xbc738abc	-0.01486462
44	0x3d015217	0.031572428
45	0x3b116177	0.0022183338
46	0xbb3a1780	-0.0028395355
47	0x3c1d9aac	0.009619396
48	0xbc27f852	-0.010252075
49	0xbd078438	-0.033085078
50	0xbd18b2ab	-0.037279766
51	0x3d52ecc4	0.05149533
52	0xbd2b7b5e	-0.0418657
53	0x3ce7654d	0.028246546
54	0xbd46609f	-0.04843199
55	0xbc21869b	-0.009858753
56	0x3c0cdc7a	0.008597488
57	0xbcba3494	-0.02273015
58	0xbc7436f2	-0.014905678
59	0x3cbd3e18	0.023100898
60	0xbc3fbe2f	-0.011703058
61	0x3d2db446	0.04240825
62	0xbcddf433	-0.027093982
63	0xbbae4542	-0.005318315
64	0xba8634c7	-0.0010239118
65	0x3ca3d669	0.0199997
66	0x3c872a60	0.016499698
67	0xbb6b6328	-0.0035917256
68	0x3c527c1d	0.012846974
69	0xbc3f0ca5	-0.01166073
70	0xbc0ca375	-0.008583893
71	0xba02f739	-0.00049959455
72	0xbccfedb6	-0.025381904
73	0x3c0ee9d4	0.008722741
74	0x3c7c5110	0.015400186
75	0xbd392007	-0.04519656
76	0x3c14f2e8	0.0090911165
77	0x3c5d72f0	0.013516173
78	0x3cacb2d2	0.021081362
79	0xbbc9e8b1	-0.006161772
80	0xbbfff6ff	-0.0078114267
81	0x3b9746f0	0.0046166107
82	0x3cc56b8e	0.024099138
83	0x3bdf34e1	0.0068117236
84	0x3d2f2a3b	0.042764883
85	0x3ce11a7f	0.027478455
86	0xbc971bcd	-0.018445874
87	0x3adcd5bc	0.0016848366
88	0x3c20e173	0.009819376
89	0x3b8ce870	0.0043001696
90	0xbc695f2f	-0.014243885
91	0xbb3e5d3b	-0.002904727
92	0x3d17c900	0.037056923
93	0xbc77f52b	-0.015134136
94	0xbc2bb953	-0.010481196
95	0xbd00f554	-0.031483963
96	0x3c884350	0.01663366
97	0x3c643d2a	0.013930598
98	0x3c4aa16a	0.012367586
99	0xbd6d8d38	-0.057996005
100	0xbcfc5d98	-0.030806348
101	0xbc427793	-0.011869329
102	0xbcc2761f	-0.023737965
103	0x3c53c48e	0.01292528
104	0xbcf90c79	-0.030401455
105	0x3b847464	0.004042195
106	0xbb660435	-0.0035097722
107	0x3ce10326	0.027467322
108	0xbd26cb37	-0.040721145
109	0xbc49eaf5	-0.0123240845
110	0x3d5664dd	0.052342284
111	0xbceeff3d	-0.029174441
112	0xba2ce785	-0.00065957784
113	0x3c85ffd9	0.01635735
114	0x3cde5941	0.027142169
115	0x3b06d120	0.0020571426
116	0x3b812e73	0.0039423048
117	0x3c79590b	0.015218983
118	0x3ca1cf97	0.019752307
119	0x3c219faf	0.009864732
120	0x3d1b37cf	0.03789502
121	0xbc62605d	-0.01381692
122	0x3c2c3e5e	0.010512916
123	0xb9ff038a	-0.00048640027
124	0xbb1992e5	-0.0023433503
125	0xbd6b0135	-0.057374198
126	0xbbc9f756	-0.006163518
127	0xbd126c0f	-0.035747584
128	0xbc6e42bf	-0.014542281
129	0x3b87552b	0.004130026
130	0x3cc64f66	0.024207782
131	0x3da1ffd6	0.07910125
132	0x3d733118	0.05937299
133	0xbcdac9cd	-0.026707554
134	0xbb8ef6b7	-0.004362907
135	0xbcc2ca91	-0.023778232
136	0xbc08f196	-0.00835838
137	0x3d362723	0.044470917
138	0x3ad32f33	0.0016112089
139	0xbba56d06	-0.005048397
140	0x3c12a3fd	0.008950231
141	0x3ca15b6c	0.019696914
142	0xbc55e007	-0.013053901
143	0xb9e1e8f7	-0.00043088917
144	0x3b94259d	0.0045210854
145	0x3c161707	0.009160764
146	0x3d14663f	0.036230322
147	0x3e0d9b53	0.13828783
148	0xbbaa4ea1	-0.0051973616
149	0xbcaa0d24	-0.020758219
150	0x3d369eb2	0.044584937
151	0xbb7c3b25	-0.0038487401
152	0xbcf72e61	-0.030173482
153	0x3d3489ae	0.044076614
154	0x3cb84e1a	0.02249818
155	0xbb343f59	-0.0027503578
156	0x3d665d62	0.0562414
157	0x3c543cf1	0.012953983
158	0x3c0bab10	0.008524671
159	0xbd05bb5c	-0.032649383
160	0xbce0b122	-0.027428214
161	0xbb5fb6a9	-0.0034135974
162	0xbba2bc13	-0.004966268
163	0x3d33f551	0.043935124
164	0xbd0b0697	-0.03394183
165	0x3d28d778	0.041221112
166	0xbd07b507	-0.033131626
167	0x3d7dfd6e	0.062009268
168	0x3d159ec5	0.036528368
169	0xbc7da214	-0.015480537
170	0xbc013189	-0.007885345
171	0xbd0642a5	-0.0327784
172	0xbcf42409	-0.02980234
173	0x3bb4fa74	0.0055230204
174	0xbcb5bb82	-0.022184137
175	0xbcf0f9bb	-0.029415956
176	0xbc5853f2	-0.013203608
177	0x3b2cfcf1	0.0026395882
178	0x3af15c43	0.0018414337
179	0x3bedabb1	0.007253133
180	0x3aa70e20	0.0012745298
181	0x38d55dc4	0.00010174097
182	0xbb76cb42	-0.0037657772
183	0xbabb0eec	-0.0014271415
184	0x3d0b03ec	0.033939287
185	0xbd1a493b	-0.037667494
186	0x3d0b8aa0	0.03406775
187	0xbb35796d	-0.0027690784
188	0x3bedd074	0.0072575156
189	0xbc0003dc	-0.00781342
190	0xbc94db4b	-0.018170973
191	0xbc04e3ea	-0.00811098
192	0x3c21db51	0.009878949
193	0x3b3d7741	0.0028910192
194	0xbc2aae82	-0.0104175825
195	0x3c13a1b6	0.009010723
196	0xbdb67520	-0.089090586
197	0xbbd9a78f	-0.006642289
198	0x3bc15b34	0.005900765
199	0x3c87ef47	0.016593589
200	0xbc740465	-0.014893626
201	0x3d242e1b	0.040083032
202	0xbb5afd11	-0.0033415
203	0xbbee3ea4	-0.007270651
204	0xbbf8b451	-0.0075898548
205	0x3d081d6d	0.033231188
206	0x3c4eb2be	0.012615858
207	0xbaac568b	-0.001314835
208	0xbd2d0a1a	-0.04224596
209	0x3c9e037c	0.01928877
210	0xbbfc18ce	-0.0076933866
211	0xbcf65769	-0.030070977
212	0xbd0cec1f	-0.03440487
213	0x3c835aa6	0.016034435
214	0x3c82112b	0.015877327
215	0xbbc7914c	-0.006090319
216	0x3b799ad1	0.0038086663
217	0x3c621da6	0.013801014
218	0x3b8399b3	0.004016125
219	0x3cc46282	0.023972753
220	0xbc0a40b6	-0.00843828
221	0xbc9d2cbc	-0.01918637
222	0x3b8d853d	0.0043188618
223	0xbcabfe87	-0.020995392
224	0xbc2617ff	-0.010137557
225	0xbc7def56	-0.015498957
226	0x3ce849c1	0.028355481
227	0xbb7c80a6	-0.003852883
228	0x3ba3b002	0.004995347
229	0xbc90ef43	-0.017692214
230	0x3d06f530	0.032948673
231	0x3c945d4f	0.0181109
232	0xbc320d7b	-0.010867472
233	0x3abc7cca	0.0014380452
234	0x3ce8cd4d	0.028418208
235	0xbd78d59d	-0.060750592
236	0x3d287efa	0.04113672
237	0xbb116861	-0.0022187459
238	0xbc4a31be	-0.012340961
239	0xbc178633	-0.009248304
240	0xbcec68bf	-0.02885854
241	0xbc443caa	-0.011977354
242	0xbc77f1f5	-0.015133371
243	0x3d86a589	0.06574542
244	0xbc806a57	-0.015675707
245	0xbd65909a	-0.056046106
246	0xbb51c0a9	-0.0032005704
247	0x388034b0	6.1133294e-05
248	0xbc2f3912	-0.010694759
249	0x3c97f990	0.018551618
250	0x3d0a278d	0.033729125
251	0xbc7ac2a2	-0.015305193
252	0x3c96570c	0.018352054
253	0xbc90e58c	-0.017687581
254	0xbca03abe	-0.01955926
255	0xba8c0f1b	-0.0010685654

action_model._discrete_distribution.branches.0.weight f4 [2, 256]
0	0x3c31971e	0.010839252
1	0xbdad0ed2	-0.084500924
2	0xbe60c084	-0.21948439
3	0xbd8e84a2	-0.069588915
4	0xbdf0d1df	-0.1175878
5	0xbc5fd881	-0.013662458
6	0x3dd74745	0.105116405
7	0xbddf75d0	-0.10911143
8	0xbd7bcb4b	-0.061473172
9	0xba59c827	-0.0008307718
10	0xbe233f8a	-0.15942207
11	0x3ea9521a	0.3307045
12	0x3d25c882	0.040474422
13	0x3ccd9545	0.025095591
14	0xbcc45fc4	-0.023971446
15	0xbe20fdab	-0.15721767
16	0x3e8f83a9	0.28030136
17	0xbe1cb8ce	-0.15304872
18	0xbe2a28ea	-0.1661717
19	0x3d53be48	0.05169514
20	0xbd657110	-0.056016028
21	0xbd7dc3cd	-0.06195431
22	0xbce0572e	-0.02738532
23	0x3dc1becd	0.094602205
24	0xbddce4c0	-0.10785818
25	0xbce770f8	-0.02825211
26	0xbbd718aa	-0.0065642195
27	0xbdf9031c	-0.12158796
28	0xbd7bc1e8	-0.06146422
29	0xbe0b3bde	-0.13597056
30	0x3c83695b	0.016041448
31	0xbe044652	-0.1291745
32	0xbe42ff61	-0.19042732
33	0xbe9dc4e6	-0.30814284
34	0xbe03d9c1	-0.12876035
35	0xbda8b081	-0.082367904
36	0xbe3eeccc	-0.18645018
37	0xbd3d842d	-0.04626863
38	0xbdb84176	-0.08996861
39	0xbd1d4b82	-0.038402088
40	0xbdf91acb	-0.121633135
41	0xbdf04a97	-0.11732977
42	0xbdf0413e	-0.11731194
43	0xbd5bf962	-0.053704627
44	0x3d243933	0.040093612
45	0xbe289077	-0.16461359
46	0xbe0322eb	-0.12806289
47	0xbd26c227	-0.0407125
48	0x3cdcdd94	0.026961125
49	0xbdb057ee	-0.08610521
50	0xbbcef546	-0.00631586
51	0xbbc0fd0f	-0.005889542
52	0x3d0078bf	0.031365152
53	0x3e287a38	0.16452873
54	0x3b3ea64f	0.0029090827
55	0xbd366f7f	-0.044539925
56	0xbcb1d8b0	-0.02170977
57	0xbdadb230	-0.08481252
58	0xbd9ed1e8	-0.0775488
59	0xbce1289e	-0.027485188
60	0xbe20b8c1	-0.15695478
61	0xbe07aa31	-0.13248517
62	0xbd5d42fe	-0.054018967
63	0xbd40e880	-0.04709673
64	0x3eddf44e	0.43350452
65	0xbe84f3bb	-0.25967202
66	0xbd2963a0	-0.041354775
67	0xbe15e618	-0.14638555
68	0xbea417bc	-0.32049358
69	0xbd50f0fc	-0.05101107
70	0xbd8773dc	-0.06613895
71	0xbe14d56a	-0.14534536
72	0xbdb3b9fa	-0.087757066
73	0xbe2ff311	-0.17182566
74	0xbb6a23ea	-0.0035726973
75	0x3c885d94	0.016646184
76	0x3d401b52	0.046901055
77	0xbd683098	-0.056686968
78	0x3ca143bf	0.019685624
79	0x3cf1529c	0.029458337
80	0xbe5b5898	-0.21420515
81	0xbddda419	-0.10822315
82	0x3cc65965	0.024212549
83	0xbe06a23a	-0.13147822
84	0xbdde9dbd	-0.1086993
85	0x3c64c49b	0.01396289
86	0x3daad121	0.083406694
87	0xbd08360c	-0.033254668
88	0xbe4ce5ae	-0.20009491
89	0x3d9c3703	0.0762768
90	0xbe0a494c	-0.13504523
91	0xbccc60a2	-0.024948422
92	0xbd6d3752	-0.057914086
93	0xbdb7025a	-0.089359954
94	0xbd3cc476	-0.046085797
95	0x3c8630c8	0.016380683
96	0xbe962573	-0.29325446
97	0xbbccdb5c	-0.0062517356
98	0xbcd688eb	-0.026188334
99	0xbdd36c9b	-0.10323449
100	0xbca8198f	-0.02052
101	0xbd506c84	-0.05088474
102	0x3c2e5a06	0.01064158
103	0x3c65c4fc	0.0140240155
104	0xbdac1bd0	-0.08403742
105	0xbe0e1dcb	-0.13878553
106	0xbd69a9fe	-0.057046883
107	0xbd4745f3	-0.048650693
108	0x3e7a0aaa	0.2441813
109	0xbda13540	-0.07871485
110	0xbd84027d	-0.06445787
111	0xbd87163e	-0.06596039
112	0xbc7cb1d5	-0.015423258
113	0xbb004a67	-0.0019575597
114	0xbcd10c06	-0.025518429
115	0xbd509383	-0.05092193
116	0xbdbc9b44	-0.09209302
117	0xbe6b76ea	-0.22994581
118	0xbd1c9938	-0.03823206
119	0xbda1311d	-0.07870696
120	0x3d4ede6b	0.050505083
121	0x39650f0e	0.0002184475
122	0x3e4085c9	0.18801035
123	0xbd754080	-0.059875965
124	0xbe17608d	-0.14782925
125	0x3e5a87f0	0.21340919
126	0x3c5edb8a	0.013602147
127	0x3d9aff20	0.075681925
128	0xbcc2ab58	-0.023763344
129	0x3cc8883b	0.024479022
130	0xbd34f5a5	-0.044179577
131	0xbbe8ae2a	-0.00710084
132	0x3d1564ed	0.036473203
133	0xbd4a56fd	-0.049399365
134	0xbcc044ee	-0.023470368
135	0xbd745389	-0.059649978
136	0x3cfcefe5	0.03087611
137	0xbe047bbe	-0.12937829
138	0xbd591f56	-0.0530084
139	0x3d39a91b	0.045327287
140	0xbce84e6e	-0.02835771
141	0xbe817700	-0.25286102
142	0xbd5c5a98	-0.053797334
143	0xbc238962	-0.009981485
144	0xbe07cd71	-0.13261963
145	0xbd514b14	-0.05109699
146	0x3d1508eb	0.036385458
147	0x3ea2d04d	0.31799546
148	0x3cb5a32a	0.02217253
149	0x3c979fb6	0.018508773
150	0xbd876f27	-0.066129975
151	0xbe0b8c11	-0.1362765
152	0x3d81a1bf	0.06329679
153	0x3bc4fe79	0.006011781
154	0xbd9f266c	-0.07771
155	0xbd4f5a6f	-0.050623354
156	0xbd96e2c8	-0.07367474
157	0x3d314a5e	0.043283813
158	0xbd413dc4	-0.047178045
159	0xbcd824e7	-0.026384784
160	0xbd13aa47	-0.03605106
161	0x3e9fac14	0.31185973
162	0xbd04a63c	-0.032385096
163	0x3d943dca	0.07238348
164	0x3d5e07b3	0.05420656
165	0x3e370e9d	0.17876668
166	0x3d2e6e39	0.042585585
167	0xbdfd597d	-0.12370584
168	0xbd5f7442	-0.05455423
169	0xbb8bd859	-0.004267734
170	0x3eb9f1f4	0.36317408
171	0x3d980876	0.07423489
172	0xbd96d40d	-0.07364664
173	0x3d9fb91c	0.07798979
174	0x3d254dd8	0.04035744
175	0xbba237c3	-0.004950495
176	0xbd54d298	-0.05195865
177	0xba9bca58	-0.0011885865
178	0xbe4bf7ec	-0.19918793
179	0xbdf15e8d	-0.11785612
180	0xbc7cf68b	-0.01543964
181	0xbcbb7161	-0.022881212
182	0xbe572ab5	-0.21012385
183	0x3dec5888	0.115403235
184	0x3c1db558	0.009625755
185	0xbd69aa04	-0.057046905
186	0xbc094a67	-0.008379555
187	0x3cb35114	0.021889247
188	0x3c2b1841	0.010442794
189	0xbd77d458	-0.06050524
190	0xbccbee0a	-0.02489378
191	0xbdea1cc2	-0.11431266
192	0x3d6021a4	0.054719582
193	0xbe195bb5	-0.1497639
194	0xbda4e4ce	-0.080514535
195	0xbd2414f9	-0.040059064
196	0xbe503554	-0.20332843
197	0x3bbec8d0	0.0058222786
198	0x3c7e7d61	0.015532822
199	0x3ece897e	0.40339273
200	0x3d717322	0.05894769
201	0x3c8eb07e	0.017418142
202	0xbdae8704	-0.08521846
203	0xbe141f37	-0.14465033
204	0xbb9d4c40	-0.0048003495
205	0xbe497900	-0.19675064
206	0xbe759e70	-0.2398622
207	0xbe017d8f	-0.12645553
208	0x3e0189d0	0.12650228
209	0x3d060bc2	0.032726057
210	0xbdc36dfc	-0.09542462
211	0x3e5ff9d9	0.21872653
212	0xbdad4918	-0.08461207
213	0xbe28d368	-0.16486895
214	0xbda138ef	-0.07872187
215	0xbcd00fff	-0.025398253
216	0x3c6208ee	0.013796074
217	0xbe925599	-0.2858093
218	0xbdd1a1ee	-0.10235964
219	0xbe8bd8c0	-0.27313805
220	0x3d68f210	0.056871474
221	0xbcd47eed	-0.02593943
222	0xbdd081b1	-0.10180987
223	0x3d29d7a3	0.041465413
224	0xbd54efaa	-0.051986374
225	0xbe1b79f1	-0.15183236
226	0xbda15fe5	-0.078796186
227	0xbe5a883d	-0.21341033
228	0x3d138c87	0.03602269
229	0xbca8299f	-0.020527659
230	0xbe3c5dd9	-0.18395175
231	0x3e8ef1d4	0.27918875
232	0xbe41aab4	-0.18912774
233	0xbe872be9	-0.26400688
234	0xbe9e5977	-0.3092763
235	0xbd2aef39	-0.041732047
236	0xbd522ba8	-0.051311165
237	0xbe031fa5	-0.1280504
238	0xbcf3db3c	-0.029767625
239	0xbab99e9a	-0.0014161647
240	0x3daaa796	0.08332746
241	0xbd7320af	-0.05935734
242	0x3da08bba	0.07839151
243	0xbe157807	-0.14596568
244	0xbe5963bc	-0.21229452
245	0x3cdfe7b6	0.027332168
246	0xbd3701a1	-0.044679288
247	0xbdbad6df	-0.09123015
248	0x3c944784	0.018100508
249	0xbc825ff3	-0.015914893
250	0xbd570547	-0.052495267
251	0xbdf08d06	-0.11745648
252	0x3e7fe455	0.24989446
253	0xbdbe326b	-0.0928696
254	0xbd21817f	-0.039430138
255	0xbc45d197	-0.012073896

action_model._discrete_distribution.branches.0.bias f4 [2]
0	0x3d96cf21	0.073637255
1	0xbd96cef1	-0.0736369

action_model._discrete_distribution.branches.1.weight f4 [3, 256]
0	0x3d479ff9	0.048736546
1	0x3bcc06c7	0.006226394
2	0xbe8e4e1c	-0.27793968
3	0xbd6d21b0	-0.057893455
4	0x3dbf0bec	0.09328446
5	0xbc3f4ffb	-0.011676784
6	0x3e355d11	0.17711283
7	0xbe30257a	-0.17201796
8	0x3d015d52	0.031583138
9	0x3c710d25	0.014712607
10	0xbc96834b	-0.018373152
11	0x3c067de7	0.008208728
12	0x3d2f8a87	0.04285672
13	0xbdd78a98	-0.105244815
14	0x3d86ab07	0.065755896
15	0x3caae4b7	0.020861013
16	0x3d431b4b	0.04763345
17	0x3d4bd94a	0.04976777
18	0x3c84a052	0.016189728
19	0x3cc7171c	0.024303012
20	0xbd2629b1	-0.040567104
21	0xbde2e66f	-0.11079108
22	0xbe22efaa	-0.15911737
23	0x3ce1bec5	0.027556786
24	0xbe31808b	-0.17334192
25	0x3c37de21	0.011222393
26	0x3d594b2d	0.05305021
27	0xbc9fa8a4	-0.019489594
28	0xbd14391f	-0.036187287
29	0xbe1b4bc3	-0.1516562
30	0xbd4f9381	-0.05067778
31	0xbc840bfb	-0.016118994
32	0xbe88adbc	-0.2669505
33	0x3cb74c78	0.02237533
34	0x3ae6d67f	0.0017611532
35	0xbd965584	-0.073405296
36	0xbd903545	-0.0704141
37	0x3dfcb252	0.123386994
38	0xbd6e368c	-0.05815749
39	0xbe0230e4	-0.12713963
40	0xbe0b9b5d	-0.13633485
41	0x3dd245dc	0.10267231
42	0xbbaf70ce	-0.0053540235
43	0x3e16e665	0.14736326
44	0x3d045b93	0.032313894
45	0xbda2643e	-0.07929276
46	0xbd4b47d1	-0.049629036
47	0x3c4edc79	0.012625807
48	0x3c2d1101	0.010563136
49	0x3db7e395	0.08978955
50	0x3d9b49d6	0.075824425
51	0x3d29231e	0.041293256
52	0x3d19d2ed	0.03755467
53	0x3e337580	0.17525291
54	0x3cc92019	0.024551438
55	0x3e1ba3f0	0.15199256
56	0x3ce1430f	0.027497796
57	0xbdc04663	-0.09388425
58	0xbd8e5bf5	-0.06951133
59	0xbe25ade7	-0.1617962
60	0xbbda6cac	-0.0066657867
61	0xbd496bd4	-0.0491751
62	0x3c14c720	0.009080678
63	0xbe3b0a58	-0.18265665
64	0x3eb5da27	0.35518
65	0xbce8563d	-0.028361434
66	0x3dfc0a8d	0.123067
67	0x3a86a67c	0.0010273005
68	0xba3e826c	-0.0007267359
69	0x3de9de3d	0.11419342
70	0x3d9c60dc	0.07635662
71	0xbcefb9b5	-0.029263357
72	0xbe082051	-0.13293578
73	0xbe6bcb43	-0.23026757
74	0x3cc6bd55	0.024260202
75	0xbd3b19ec	-0.045679018
76	0x3c6d0548	0.014466591
77	0x3cdee7fe	0.027210232
78	0x3ccd9af7	0.025098307
79	0x3d196617	0.037450876
80	0xbc4cd169	-0.012501099
81	0x3d457774	0.048209623
82	0x3d18e906	0.037331603
83	0x3dc5669e	0.09638713
84	0x3c367119	0.011135363
85	0x3c4deba1	0.012568385
86	0xbd40471c	-0.046942815
87	0xbdacd202	-0.08438493
88	0x3cb53d37	0.022123916
89	0x3d10599f	0.03524172
90	0xbd9db18b	-0.07699879
91	0xbd437aed	-0.047724653
92	0xbe1f8b9b	-0.15580599
93	0xbd8b9298	-0.0681507
94	0xbad66935	-0.0016358258
95	0xbc16e17e	-0.009209035
96	0xbe63807d	-0.22216983
97	0xbb81f5a0	-0.0039660484
98	0xbe5a9ed6	-0.21349654
99	0x3adfba0d	0.0017068997
100	0x3e175e94	0.14782172
101	0xbdb9851e	-0.09058593
102	0x3d3dd681	0.046347145
103	0x3d0cc76d	0.034369875
104	0x3ccd800c	0.025085472
105	0xbe97b19e	-0.296277
106	0xbd1ff1dd	-0.03904902
107	0xba45d5bb	-0.0007546802
108	0x3e8501f8	0.25978065
109	0xbdaadb69	-0.083426304
110	0xbd7f7c07	-0.06237414
111	0xbe034ad9	-0.12821521
112	0xbd0abc08	-0.033870727
113	0x3ca90aae	0.020634975
114	0xbda01002	-0.07815553
115	0xbd39314b	-0.045213025
116	0xbe82c25f	-0.25538918
117	0xbd22c045	-0.039734144
118	0x3d9a4789	0.075331755
119	0x3d2b56ce	0.04183083
120	0x3d3decd3	0.04636843
121	0xbc95b61b	-0.018275311
122	0x3d997650	0.074932694
123	0x3dd6c6e4	0.10487154
124	0x3dbff9dd	0.093738295
125	0x3e2680fe	0.16260144
126	0x3c6a7b5a	0.014311636
127	0x3dfb6844	0.122757465
128	0x3c82e4cf	0.015978245
129	0xbdbfc401	-0.09363557
130	0xbdbd2d69	-0.09237177
131	0x3ccdd5a3	0.025126284
132	0x3ea55c18	0.32296824
133	0x3e25e53a	0.16200724
134	0xbda1d4ca	-0.079019144
135	0xbc7a9841	-0.015295089
136	0x3cef629a	0.029221822
137	0xbb494408	-0.0030710716
138	0xbe10a264	-0.14124447
139	0x3da6cd16	0.08144586
140	0xbe046625	-0.1292959
141	0x3c2f8830	0.010713622
142	0xbd12c528	-0.035832554
143	0xbbd0b104	-0.006368758
144	0x3cda1194	0.02661971
145	0x3c38cdd2	0.01127954
146	0x3d68d899	0.05684719
147	0x3e5a515e	0.21320102
148	0x3cb68028	0.022277907
149	0x3d08965a	0.03334651
150	0x3de3e1f1	0.11127079
151	0x3bdaae50	0.0066736117
152	0x3b8fed3e	0.004392295
153	0x3d04a4d1	0.032383744
154	0x3b73e312	0.0037214202
155	0xbad16aa5	-0.0015977217
156	0xbbd027f8	-0.006352421
157	0x3c83e590	0.016100675
158	0x3c889938	0.016674623
159	0x3cf29932	0.029614065
160	0x3d0b8b0a	0.034068145
161	0x3e3201c1	0.17383482
162	0x3d80849d	0.06275294
163	0x3e2f2393	0.17103414
164	0x3c4d76cb	0.0125405295
165	0x3ddb9a88	0.10722834
166	0x3b9c1876	0.004763658
167	0x3e38c12f	0.18042444
168	0x3d9e354b	0.077250086
169	0xbcab1181	-0.02088237
170	0x3dc9352e	0.09824596
171	0x3d9b1529	0.07572395
172	0xbee4c625	-0.44682422
173	0x3e127997	0.14304195
174	0x3bab22e6	0.005222666
175	0x3d191681	0.037374977
176	0x3c4c2f8b	0.012462507
177	0x3cdb5315	0.026773015
178	0xbe4bc535	-0.19899447
179	0x3df4bdd0	0.11950266
180	0xbe489094	-0.19586402
181	0x3d2cb666	0.042166136
182	0xbd8a6f12	-0.06759466
183	0x3d9192e8	0.07108098
184	0x3cd9bc45	0.026579032
185	0xbd29f6f7	-0.04149529
186	0x3caa6e30	0.020804495
187	0x3d15cee3	0.036574256
188	0x3d95e114	0.07318321
189	0xbdf09cea	-0.11748679
190	0x3cbac439	0.022798644
191	0x3d9c3429	0.07627136
192	0x3c6a23cf	0.014290764
193	0x3d5c4938	0.053780764
194	0x3c3a0f82	0.011356236
195	0x3cfdd530	0.030985445
196	0xbea39721	-0.3195124
197	0x3cd26960	0.025685012
198	0x3c075385	0.008259659
199	0x3e5a2325	0.21302469
200	0x3d51ef44	0.051253572
201	0x3d6faab6	0.058512412
202	0x3d192cef	0.037396368
203	0xbcfffe20	-0.031249106
204	0xbc2b1548	-0.010442086
205	0x3c05e10d	0.008171332
206	0x3c8d489a	0.017246533
207	0x3d9bd237	0.07608455
208	0x3e4865d2	0.19570091
209	0x3c9e008d	0.019287372
210	0xbd4a3bcd	-0.049373437
211	0x3e082a4e	0.13297388
212	0x3c086ede	0.008327214
213	0xbe484573	-0.19557743
214	0x3dc43d91	0.09582055
215	0xbe85d55d	-0.26139346
216	0xbdc14b3b	-0.09438177
217	0xbdfcea62	-0.123493925
218	0xbb03d8be	-0.0020118202
219	0xbe8106f5	-0.2520062
220	0x3d000f3b	0.031264525
221	0xbcd85c54	-0.026411213
222	0xbd4c5aa0	-0.049891114
223	0x3b7a82b6	0.0038224882
224	0x3db0de1d	0.08636115
225	0xbe8dbe20	-0.27684116
226	0x3d6c872c	0.057746097
227	0x3d9e4727	0.07728415
228	0x3e031156	0.12799582
229	0x3d62562e	0.05525797
230	0xbdce0217	-0.10058992
231	0x3d02230e	0.031771712
232	0x3d9c95d4	0.07645765
233	0x3c0fd204	0.008778099
234	0xbd07609d	-0.033051122
235	0xbddfc8ef	-0.10926997
236	0xbe05bb46	-0.1305972
237	0xbe840a37	-0.25789043
238	0x3c320dc8	0.0108675435
239	0xbe3666a5	-0.17812593
240	0x3d44ac43	0.048015844
241	0x3d0d8493	0.03455026
242	0x3d6f5de1	0.05843914
243	0xbe86f87d	-0.26361457
244	0xbc86616b	-0.016403874
245	0x3e4a4094	0.19751197
246	0xbdc41854	-0.09574953
247	0xbe126fb0	-0.14300418
248	0x3c30b907	0.010786301
249	0x3ce9f8be	0.028560992
250	0x3c319a07	0.010839946
251	0xbe977d2f	-0.29587695
252	0x3b40b3ef	0.0029404124
253	0xbd517e4c	-0.051145837
254	0x3c90367c	0.017604105
255	0xbc49bbe8	-0.012312867

action_model._discrete_distribution.branches.1.bias f4 [3]
0	0x3c6ee583	0.014581087
1	0xbd367bda	-0.044551708
2	0x3b75351b	0.0037415687

action_model._discrete_distribution.branches.2.weight f4 [2, 256]
0	0x3d3f864e	0.046758942
1	0x3ca4b4bc	0.020105712
2	0xbf07b37f	-0.53008264
3	0xbd2b380e	-0.041801505
4	0xbe2c928e	-0.16852781
5	0x383bfb7b	4.4818484e-05
6	0xbd26c173	-0.04071183
7	0xbe89a806	-0.26886004
8	0xbecfcaae	-0.4058432
9	0x3c74b9eb	0.014936904
10	0xbe53ffda	-0.20703068
11	0xbdfe05fb	-0.124034844
12	0xbc751164	-0.0149577595
13	0x3cd2dc39	0.025739776
14	0xbe08bf74	-0.13354284
15	0x3da8e5e1	0.08246971
16	0x3e586de0	0.21135664
17	0xbce9d547	-0.028544081
18	0x3d3a662f	0.045507606
19	0x3c904341	0.017610194
20	0xbddbf6ec	-0.10740456
21	0x3d1b755c	0.03795372
22	0xbc9bc4cd	-0.01901474
23	0x3ae182db	0.0017205136
24	0xbdec30c0	-0.11532736
25	0x3d45a522	0.048253186
26	0x3d0200c0	0.031738997
27	0xbc6a3cf1	-0.014296756
28	0x3e8cf17f	0.27527997
29	0x3e42966f	0.19002698
30	0xbb2895d2	-0.0025724065
31	0xbdbb4704	-0.091444045
32	0xbe9fdefa	-0.31224805
33	0xbc8439f5	-0.016140917
34	0xbd2e7a56	-0.042597137
35	0xbea6ad2b	-0.32553992
36	0x3cf048c3	0.02933157
37	0x3e135ef4	0.1439169
38	0x3e8da4b9	0.27664736
39	0xbd80f600	-0.06296921
40	0x3bc7c07e	0.006095945
41	0xbd1715f1	-0.03688616
42	0xbd05fcdb	-0.032711845
43	0x3d14a8cd	0.036293793
44	0x3cae65c7	0.021288766
45	0x3cae0a7e	0.021245237
46	0xbde4cdc9	-0.11172063
47	0x3c05c5e4	0.008164857
48	0x3db9e012	0.09075941
49	0xbb520fc6	-0.0032052859
50	0xbda88e9a	-0.08230324
51	0x3ca04690	0.019564897
52	0xbc19a069	-0.009376624
53	0x3d86087d	0.06544588
54	0xbb8dd92a	-0.0043288665
55	0x3ccfdfd2	0.02537528
56	0x3cdfe476	0.027330618
57	0xbb26eba8	-0.0025470052
58	0xbd329bd0	-0.043605626
59	0xbde2ce61	-0.1107452
60	0x3ce45f64	0.027877517
61	0x3e96e5a6	0.29472083
62	0xbe293d4a	-0.16527286
63	0xbe8f6d4b	-0.2801307
64	0x3eecf028	0.46276975
65	0x3e088a6f	0.13334058
66	0x3db3da76	0.087819025
67	0x3a3194ee	0.00067742064
68	0x3c3337b5	0.010938575
69	0x3cfdf351	0.030999811
70	0xbe901144	-0.28138173
71	0x3d78a935	0.060708243
72	0xbb0c2f14	-0.0021390365
73	0xbe0cb53e	-0.13741013
74	0x3c3a5d04	0.011374716
75	0xbe1f4774	-0.15554601
76	0x3d14eee5	0.03636064
77	0x3d95f721	0.07322527
78	0x3c57e064	0.0131760575
79	0xbd5c5dfc	-0.053800568
80	0x39b0c9ff	0.00033719835
81	0x3cf063dd	0.029344494
82	0x3ccb36a3	0.024806326
83	0x3d67124c	0.056413934
84	0xbe80505e	-0.25061315
85	0xbdde44a0	-0.10852933
86	0x3edd29c2	0.4319592
87	0xbc4fc7f2	-0.012681948
88	0xbc163079	-0.00916683
89	0xbb560c6c	-0.0032661213
90	0xbac43f3d	-0.001497246
91	0xbd54a83b	-0.05191825
92	0xbe9618de	-0.29315847
93	0x3dfb2d17	0.122644596
94	0x3d0fc252	0.035097428
95	0xbdd27fd5	-0.10278288
96	0xbe925fb3	-0.28588638
97	0x3ca27149	0.01982941
98	0xbe3380a3	-0.1752954
99	0x3d130c48	0.035900384
100	0xbe111e23	-0.14171652
101	0xbe12e775	-0.14346106
102	0x3df25a7e	0.11833666
103	0xbd88a960	-0.06672931
104	0xbd1cf219	-0.03831682
105	0xbcb74806	-0.02237321
106	0xbd3966d9	-0.0452641
107	0xbe298346	-0.16553983
108	0x3ee1a684	0.44072354
109	0x3c675fa5	0.0141219245
110	0xbea9343a	-0.33047658
111	0xbe21a69f	-0.15786217
112	0x3dbc819c	0.092044085
113	0x3c7af12e	0.015316291
114	0x3b6084f4	0.0034258934
115	0x3c895f52	0.016769085
116	0xbdaf0011	-0.085449345
117	0xbd4eb70f	-0.050467547
118	0xbda39f7f	-0.07989406
119	0xbaa2fe3a	-0.0012435385
120	0xbbd89c42	-0.0066104243
121	0x3c6ecdd4	0.01457544
122	0xbe2fb9ca	-0.17160717
123	0xbb521ec6	-0.00320618
124	0xbc162383	-0.00916374
125	0xbdc1198e	-0.09428702
126	0x3e7511b3	0.23932533
127	0x3cb71db8	0.022353038
128	0x3d762304	0.060091987
129	0xbd0ecdeb	-0.034864347
130	0xbeb9b53b	-0.3627108
131	0x3cd6f18c	0.026238225
132	0xbd8ce0ef	-0.0687884
133	0x3c8ab4f9	0.016931998
134	0x3c185c83	0.0092994
135	0xbd886bba	-0.06661172
136	0x3caa415c	0.020783119
137	0xbc1b8dbf	-0.009494244
138	0xbe226df1	-0.15862252
139	0x3d193f83	0.037414085
140	0xbd10ce8e	-0.035353236
141	0xbb073e08	-0.0020636339
142	0x3df6ae73	0.12044992
143	0x3d2ec811	0.042671267
144	0x3beae5c5	0.007168504
145	0x3d2206b5	0.039557178
146	0xbe292164	-0.16516644
147	0x3e3c071e	0.1836209
148	0x3cbfc8d5	0.023411194
149	0xbd3cab65	-0.046061892
150	0xbe004e68	-0.1252991
151	0xbb83a7b0	-0.0040177926
152	0x3dadf61a	0.08494206
153	0x3cfd880d	0.030948663
154	0xbc5e1c5b	-0.013556565
155	0xbbdaf5a1	-0.0066821133
156	0xbd51b0a9	-0.051193867
157	0x3cca8e09	0.02472593
158	0xbe46550e	-0.19368383
159	0x3e1e761c	0.15474743
160	0xbd849e39	-0.06475491
161	0x3c0cfdb5	0.00860541
162	0xbd191c9d	-0.037380803
163	0xbb589943	-0.0033050335
164	0x3d0cc918	0.034371465
165	0xbd708f8c	-0.058730647
166	0x3c502a32	0.012705373
167	0x3dc96825	0.09834317
168	0xbd8e29bb	-0.06941553
169	0x3d7bab4c	0.06144266
170	0x3e53ce5e	0.20684192
171	0x3d08b2e6	0.033373736
172	0xbf093202	-0.5359193
173	0x3ccd5418	0.025064513
174	0x3c0033dd	0.007824865
175	0xbdddd062	-0.108307615
176	0x3d341d2b	0.04397313
177	0x3b8362af	0.0040095667
178	0xbefd7f93	-0.49511394
179	0x3dcbb1ac	0.099459976
180	0xbe15c949	-0.14627565
181	0x3c2c9a51	0.010534839
182	0xbd0deb79	-0.034648392
183	0xbd6f0c14	-0.058361128
184	0x3c88839d	0.01666432
185	0xbd61c9bd	-0.055124033
186	0x3c60efb6	0.013729027
187	0x3c8b1e73	0.016982293
188	0xbcddc6c4	-0.027072318
189	0x3b305c3f	0.0026910452
190	0x3c5e9b7f	0.013586878
191	0x3d2dc486	0.042423747
192	0x3c832088	0.016006723
193	0xbd213c85	-0.039364357
194	0xbd80ae64	-0.06283262
195	0x3c674ffc	0.014118191
196	0xbeb742fc	-0.35793293
197	0x3b82c857	0.0039911675
198	0x3bd9aadd	0.006642683
199	0x3eb236ac	0.34807336
200	0x3d8d05ab	0.06885847
201	0xbd181d60	-0.03713739
202	0xbc60c32f	-0.01371841
203	0x3c6b89e1	0.014376135
204	0x3da30f22	0.07961871
205	0x3d8f1cbb	0.06987902
206	0x3c13293a	0.008981997
207	0x3d5f929e	0.054583184
208	0x3e59990f	0.21249793
209	0x3c9b3389	0.018945472
210	0x3ea76ad2	0.32698685
211	0xbd8effe3	-0.069824
212	0xbc069d72	-0.008216249
213	0x3b453074	0.0030088695
214	0x3df265db	0.11835834
215	0xbd831770	-0.06400955
216	0x3ccc4cfc	0.024939053
217	0xbe6653a4	-0.22492844
218	0xbcf68653	-0.030093348
219	0xbd75893d	-0.059945334
220	0xbdf7a6dc	-0.12092373
221	0xbdbef3c3	-0.093238376
222	0xbcb8d1f9	-0.02256106
223	0x3cc8635b	0.024461439
224	0xbd92ebb4	-0.07173863
225	0xbccdd178	-0.025124297
226	0xbe2d9b25	-0.16953714
227	0xbd81e963	-0.06343343
228	0x3e9d3ac1	0.30708888
229	0x3d809b56	0.06279628
230	0xbe24d42d	-0.16096564
231	0x3dd6b53a	0.10483785
232	0xbc5c3e93	-0.013442653
233	0x3cc8e5f1	0.024523707
234	0xbdadd0b6	-0.08487074
235	0x3ca6675c	0.020312957
236	0xbdbd758d	-0.09250937
237	0xbb089148	-0.0020838547
238	0x3c9f58b1	0.019451471
239	0xbd70583d	-0.0586779
240	0x3e1b5265	0.1516815
241	0xbda1dcb6	-0.079034254
242	0xbd2c8cd4	-0.04212649
243	0x3e9055b7	0.28190395
244	0x3a3fdc40	0.00073188916
245	0x3e48d4f3	0.19612484
246	0x3da014f7	0.07816499
247	0xbe32a20a	-0.17444625
248	0x3c1718e1	0.00922224
249	0x3d2e2f2b	0.04252545
250	0x3c6e149b	0.01453128
251	0xbdb11c8a	-0.086480215
252	0xbe08e96c	-0.13370293
253	0x3ea783fc	0.32717884
254	0xbc6f42c4	-0.0146033205
255	0x3e0e17e2	0.13876298

action_model._discrete_distribution.branches.2.bias f4 [2]
0	0x3ce6ed13	0.028189218
1	0xbce6ed0c	-0.028189205
