results/speedBoat/boat/boat-733918.onnx (onnx, 340257 bytes, 11 tensors)

discrete_act_size_vector f4 [1, 3]
000000 00 00 00 40 00 00 40 40 00 00 00 40
       2.0 3.0 2.0

network_body._body_endoder.seq_layers.0.weight f4 [256, 58]
000000 86 c8 ee 3d 20 ea 58 be 3e cb 10 3e dc 74 eb be
       0.116593406 -0.21183062 0.1414003 -0.45987594
000010 e7 1a 3f 3d eb 8d dc 3d 92 b7 d8 bb 1b 4d 51 be
       0.046656515 0.10769256 -0.00661368 -0.2043957
000020 73 f2 1c 3e 4b 49 02 3d 1a fc bd bb aa 71 b4 bd
       0.15326862 0.03180818 -0.005797875 -0.08810742
000030 c4 ec a4 bc ba d7 a8 be 7f 11 92 bd 70 d2 ee bc
       -0.02013243 -0.32977086 -0.07132243 -0.029153079
000040 d4 fc c3 3d 36 67 72 3c 2c bf 13 3e cb 7f 22 3d
       0.095697075 0.014795115 0.14428395 0.039672654
000050 9c 78 df bc a0 65 c2 3d 4e 0c c9 3c a6 53 7e bd
       -0.02727919 0.0949204 0.024542 -0.062091492
000060 90 0e 61 bd 2a e0 49 3e 51 10 2e be ee 88 6f 3d
       -0.05494553 0.19714418 -0.16998412 0.058480196
000070 7b 13 a9 3d 55 73 46 3e a4 46 66 bd 06 7a 5e be
       0.08255669 0.19379933 -0.056219712 -0.21726236
000080 59 df 65 be ea c8 1b be a7 10 c6 bc 8c f1 06 be
       -0.22448482 -0.15213361 -0.024177862 -0.1317808
000090 05 57 28 be 21 03 dc bd cc 13 07 3e c2 a9 b7 bd
       -0.16439445 -0.10742784 0.13191146 -0.089679256
0000a0 b1 8b 57 be 0c 8b ce 3c b6 90 73 3d 99 68 2e 3e
       -0.21049382 0.025212787 0.05946418 0.17032088
0000b0 4c 87 18 bd a7 d0 3b be 9a af cd bd 54 dd 9b bb
       -0.037238404 -0.18341313 -0.10043259 -0.004756609
0000c0 76 2d fa 3d 2a d8 27 be 5b 32 b6 3d ba 45 9a ba
       0.12215702 -0.16391054 0.08896323 -0.0011770048
0000d0 a9 d8 7c 3d ad 26 99 bd d9 85 3c be 44 88 4a 3e
       0.06173006 -0.0747808 -0.18410434 0.19778544
0000e0 4a 2f 0b 3e ac 23 d0 bd f0 2a 27 3e c1 27 76 3a
       0.13592258 -0.10163054 0.16324973 0.0009390079
0000f0 cb 73 74 be e8 2c d1 bd 09 5c 7f bb a1 97 0c be
       -0.23872297 -0.10213643 -0.003896477 -0.13729717
000100 61 28 51 3e 1c ba 89 3d 42 53 2b be a3 c7 a8 3d
       0.2042556 0.06724951 -0.16730979 0.08241203
000110 3e ea 3d 3e 7e 4a a3 be 12 51 57 3e 7c a7 44 3e
       0.18546388 -0.3189277 0.2102702 0.19204515
000120 d1 dc 2b 3e 4a 67 60 bc a4 f0 fb ba 73 14 a5 bd
       0.16783454 -0.013696501 -0.0019221497 -0.08060541
000130 4a 09 80 bd ac b2 b8 3c 53 37 8a 3d 92 09 80 be
       -0.06251772 0.022546135 0.067488335 -0.25007302
000140 95 dd 03 be fa 7d 09 3b 16 1e bf 3d ff d3 1b bd
       -0.12877496 0.002097963 0.0933191 -0.038043972
000150 ef 0d 6c 3d 9e fe bf bd 40 7c 83 bd f0 a8 2d 3e
       0.057630476 -0.09374736 -0.06420183 0.16958976
000160 7c 88 24 be f3 69 0f 3d 7a a1 cd 3d 41 ac 50 3d
       -0.1606769 0.03501315 0.10040565 0.050945524
000170 46 0c dd 3c ab 4a ec bd 03 56 26 3d 56 84 12 bd
       0.026983391 -0.11537679 0.04060937 -0.035770737
000180 11 6b 79 bd b4 b5 7f bd 2c 8c 9c 3a e8 b5 f4 bc
       -0.060893122 -0.062429145 0.001194363 -0.029871896
000190 8c 92 01 3e fd 7e 20 3e 99 02 66 3d c5 24 62 be
       0.1265356 0.15673442 0.05615482 -0.22084339
0001a0 d1 bd d2 3e dd 34 8d be f1 90 9c bb 34 92 b8 3e
       0.41160443 -0.27579394 -0.0047780205 0.36049044
0001b0 26 41 83 3d c5 cc 07 be 0e ab 08 be 66 ae 0a 3d
       0.064089105 -0.13261707 -0.13346502 0.033857726
0001c0 f9 d8 f4 bd 73 a1 1e 3e 5d 59 0a be de 2a f9 bb
       -0.11955447 0.15491275 -0.13510652 -0.007603987
0001d0 83 81 d1 3d 21 94 16 3d 89 97 3e be 2c 3a 9a 3d
       0.102297805 0.03676236 -0.18612494 0.07530627
0001e0 cc f9 89 be 91 ed 33 bc e2 c4 77 3d 07 6c ad bd
       -0.26948392 -0.010981933 0.060490496 -0.0846787
0001f0 d0 44 5a bc ad 7f a2 3b db 46 c4 bc ec fa 26 be
       -0.01332207 0.004959068 -0.023959568 -0.16306657
000200 fa 5c 74 3c ca b8 75 3d 40 73 83 3d 85 c2 d0 bd
       0.014914745 0.05999068 0.064184666 -0.10193352
000210 c8 78 aa bc d9 41 35 be 94 44 8b bd b4 4a d0 bb
       -0.020809546 -0.177009 -0.068001896 -0.0063565616
000220 4e 01 6e 3c fd 9e 06 bd eb d6 2f 3d c7 11 a5 bc
       0.014526678 -0.032866467 0.04292957 -0.020150078
000230 fc 28 aa bd 23 34 f6 bc b9 ef 6e be a2 58 17 be
       -0.083085984 -0.030054158 -0.23333634 -0.14779904
000240 8a 8b f3 3d a0 ae 5f be 88 cd 8f bd f1 dc 50 bd
       0.11891849 -0.21843958 -0.07021624 -0.050991956
000250 dd ad 36 bd 2e fb f8 bc 1c 54 8a bc d5 37 34 be
       -0.044599403 -0.03039321 -0.01688581 -0.17599423
000260 a5 bd 58 3c d7 00 39 be f1 87 ee 3d de 2f 95 bd
       0.0132288085 -0.18066727 0.116470225 -0.072845206
000270 d2 d4 56 3e 42 25 7a bd 60 da 68 3d 98 59 ef 3b
       0.20979622 -0.061070688 0.056848884 0.0073043816
000280 9a 6d 35 bd 90 d6 d0 3d f7 24 66 be 80 23 29 3e
       -0.044293977 0.101971745 -0.22475038 0.16517448
000290 d6 ca 71 3e 33 b9 14 3e b6 7e 8b 3e 02 75 64 bd
       0.23612532 0.14523773 0.2724511 -0.05577565
0002a0 21 c2 86 3d 34 78 83 be ce 47 02 3d 98 aa 57 be
       0.06579996 -0.25677645 0.03180676 -0.2106117
0002b0 fb 4b 98 3c bc 75 97 bd d0 8d a3 3d bc e5 c5 bd
       0.018590918 -0.07395503 0.07986033 -0.09662959
0002c0 17 8e 45 bd 62 00 5c be 52 df 10 3e bb e7 ef 3c
       -0.04823121 -0.21484521 0.1414769 0.029285302
0002d0 94 4f 29 be 3c 06 89 3d 82 66 a6 bd 0e b4 51 bd
       -0.16534263 0.06690642 -0.081250206 -0.051197104
0002e0 73 5f 03 3d b2 dd b7 3c be 5f c7 3c 39 31 5b bc
       0.03207345 0.02244458 0.024337646 -0.013378435
0002f0 df b8 48 bd e3 df ed 3d 79 25 d7 3d 00 79 7e 3d
       -0.04900443 0.11614969 0.10505194 0.062127113
000300 03 f3 12 3d fc 9c 29 be fe dd 6c bd 8a 53 85 be
       0.035876285 -0.16563791 -0.057828896 -0.26040298
000310 a8 72 98 3d 6f 26 57 be a8 e2 5a bd 79 01 19 3e
       0.07443744 -0.21010755 -0.053438812 0.14941968
000320 35 c8 35 be 7d 97 cc bc 5d e5 bc bd 04 66 66 3c
       -0.17752154 -0.024974579 -0.09223435 0.014062408
000330 ba d1 09 3e f7 bd 10 3e 24 76 6f bd c5 9a 32 be
       0.1345891 0.14134966 -0.058462277 -0.17441852
000340 b1 54 08 bc c5 3c 8f 3d b2 5b 0d ba 69 3a 53 be
       -0.008320973 0.06994013 -0.0005392387 -0.2062775
000350 99 2e a7 3e 69 4b ee 39 6f e9 58 bc 86 e0 1d 3d
       0.3265274 0.00045451082 -0.013239249 0.0385442
000360 fe ae 5a 3e 53 dd 19 3d df ea 23 3e 5a 2a 54 be
       0.21355817 0.037564587 0.16007565 -0.20719281
000370 36 35 2b 3e 25 a1 b1 3e 45 4d 2b 3d 2d 37 74 be
       0.16719517 0.34693256 0.041821737 -0.23849173
000380 56 f9 13 be 5d b1 8d bd 7f 31 15 bc a0 dd 9d 3c
       -0.14450583 -0.06918595 -0.009106039 0.019270718
000390 99 67 35 3d 60 d0 9c bd 3d 27 01 3e 6e fd 91 3d
       0.04428825 -0.07656932 0.12612624 0.07128416
0003a0 ec 97 86 3d cd 43 28 bd d5 a4 61 be d8 6d 4c bb
       0.065719455 -0.041080285 -0.22035535 -0.0031193402
0003b0 99 10 ae 3c 26 22 39 bc 81 b7 1f bd fa 06 97 be
       0.021248149 -0.0112996455 -0.038993362 -0.2949751
0003c0 49 41 08 bd 78 44 6b 3e e7 21 c0 bc da 92 e6 bd
       -0.033265386 0.22975338 -0.023453666 -0.112584785
0003d0 a3 fe ea bd e1 90 db bc 80 75 60 bd 59 35 63 be
       -0.11474349 -0.026802482 -0.054799557 -0.2218832
0003e0 76 13 8d bd ca 61 2e 3d 23 c8 94 3d 4e 4c 1d 3d
       -0.068884775 0.042573728 0.072647355 0.038402848
0003f0 70 66 b5 39 ee 11 6f 3e aa 55 a2 3d 66 77 30 be
       0.00034599332 0.23346683 0.079264954 -0.17233047

network_body._body_endoder.seq_layers.0.bias f4 [256]
000000 93 36 11 bc f5 ec c4 3c 07 5f a6 bb c9 1d 3f bc
       -0.008863109 0.024038771 -0.005077246 -0.011664816
000010 7e b6 eb 3b dd 2f e8 3c 55 cc 28 bc b5 02 86 bc
       0.0071933856 0.028343135 -0.010302623 -0.016358713
000020 f4 a2 90 3c 14 40 f8 bb e7 2a 3f 3c 23 4e 04 3c
       0.017655827 -0.007575998 0.011667944 0.00807527
000030 3d 18 65 bc 2f e9 34 3d fa ef 06 bc c3 3b 82 bc
       -0.01398283 0.044167694 -0.008235926 -0.015897637
000040 30 62 9c 3c 90 cd d9 bc 39 e2 54 bc e5 72 53 bc
       0.019089788 -0.026587278 -0.012993389 -0.012905811
000050 98 6e 93 bc 6a 31 2e 3c 9b 90 4d 3d 52 9d 00 bb
       -0.017997071 0.010631898 0.050186735 -0.001962502
000060 7c cd 98 3c 27 1f 3d bc a9 c0 fb 3c 78 54 30 bc
       0.01865267 -0.011543072 0.030731516 -0.010762326
000070 0e 37 61 bc 49 7a 5d bc 2b 76 38 bb fe e8 b5 ba
       -0.013746036 -0.013517925 -0.0028146605 -0.0013878641
000080 5d 28 b3 bc 07 8d b3 3c 8a df 54 bc 9f b4 63 bc
       -0.021869833 0.021917833 -0.012992749 -0.013898044
000090 f0 56 e2 ba 30 cf 98 bc 5a 06 f4 3b e2 0a 84 bb
       -0.0017268341 -0.018653482 0.007447046 -0.0040296176
0000a0 4d e0 6e bc 78 44 b1 3c bb a6 15 3b 54 c9 2b bb
       -0.014579845 0.021639094 0.0022834975 -0.002621253
0000b0 32 ff 12 bc 54 f6 b8 bc 3d 7f 05 bc d4 47 cc 3b
       -0.008971976 -0.022578396 -0.008148012 0.0062341485
0000c0 d2 42 a8 3c a9 6e 2d bc 34 25 38 bc 67 59 fb 3c
       0.020539675 -0.0105854655 -0.011239339 0.030682279
0000d0 16 d8 5a 3b 4c c8 3a bc 5f 8d 2d bc b1 89 fd 3c
       0.0033392957 -0.011400294 -0.0105927875 0.030949445
0000e0 69 40 33 bc 30 fe 85 3c 78 6d 1c 3c 70 11 4c 3c
       -0.01094065 0.016356558 0.009547584 0.012455329
0000f0 de 09 11 bc 89 ed 91 bc 82 d9 cb 3c 17 6f 87 3c
       -0.00885245 -0.01781346 0.02488399 0.016532464
000100 ca 2b 6c bc 9e 76 82 3b 75 9e a5 bc a0 c0 3a bb
       -0.014414737 0.0039814254 -0.02021716 -0.002849616
000110 5d 75 08 ba ab 90 74 bc c9 7c d5 3b e2 df 5c 3d
       -0.0005205477 -0.01492707 0.0065151197 0.05392445
000120 36 03 3d bc 08 16 5d 3c 3e 37 50 ba 3c 87 c4 3a
       -0.01153641 0.013494022 -0.0007942802 0.0014993916
000130 97 d4 ec bc e1 cb 81 3c 32 8f 9f 3c 97 c9 4f bc
       -0.028909964 0.015844287 0.01947746 -0.01268234
000140 53 26 e5 bc 93 95 a0 3a 24 e2 71 bc 0e 7b da bc
       -0.027972376 0.0012251608 -0.014763389 -0.026670005
000150 79 98 20 3c 0f a9 90 bc 97 5b d4 ba 61 65 7d 3c
       0.009801977 -0.017658738 -0.0016201612 0.015466065
000160 f7 8d 8c bc f9 5c 0b bc 30 e8 17 bc 1c 1f 6b bc
       -0.017157538 -0.008506053 -0.009271666 -0.014350679
000170 f4 0e 2d 3b a5 b3 e7 bb 94 81 7e 3b 25 82 e8 bb
       0.0026406618 -0.007070976 0.0038834559 -0.0070955926
000180 59 3a 59 bc 41 2e 2b bc 00 82 80 3b 0f 6c 9b bc
       -0.01325854 -0.0104480395 0.003921747 -0.018972425
000190 e9 67 1d 3d cf 76 41 3c 01 de e6 3c ac a5 b8 3c
       0.038429175 0.011808111 0.028182032 0.022539936
0001a0 4e 97 df 3c dc 31 04 bc f3 3e a5 bc 84 01 15 bc
       0.027293827 -0.008068528 -0.020171618 -0.0090946
0001b0 44 27 05 3c 33 12 c6 bc 58 fa 78 3c 0c 7e 98 3a
       0.008127037 -0.0241786 0.015196405 0.0011634245
0001c0 d3 38 8d bb d2 14 26 3a 82 5e 2b 3b 7b 64 f9 bb
       -0.0043097525 0.00063355 0.002614886 -0.007610855
0001d0 b0 37 b0 3b 53 b1 ac 3c 6d d9 84 3b 62 eb 6e bb
       0.005377732 0.021080649 0.0040542395 -0.0036456217
0001e0 f6 d5 3a bc 8f ca fa bb 80 d8 0c 3c d5 3c 4e 3c
       -0.011403551 -0.0076535414 0.0085965395 0.012587746
0001f0 cc 3f 10 3d 3f e9 86 bb fc 0f f5 3b ab d5 13 3c
       0.03521709 -0.0041171606 0.007478712 0.00902311
000200 2b 3e de 3c 14 60 84 bc 46 32 74 3c 97 90 7a 3c
       0.027129253 -0.016159095 0.014904564 0.015293262
000210 fd fc a2 3c 5c c1 f5 39 84 85 b7 3b 1c 96 37 3c
       0.019896025 0.00046874105 0.005600633 0.011205222
000220 e8 99 04 3d ef eb be bb 09 5e 33 bb cc c5 a4 bc
       0.03237334 -0.0058264653 -0.0027369282 -0.020113848
000230 98 98 81 bc 40 16 39 3c 12 d3 d6 3c 70 15 35 3c
       -0.015819833 0.011296809 0.026223693 0.011052474
000240 45 1b 16 3b 13 9e 15 bc 53 e7 a5 ba a1 85 65 bc
       0.0022904438 -0.009131926 -0.0012657441 -0.01400891
000250 a9 7c 2d bb 87 30 75 3c fa c6 97 3b 39 a6 22 bc
       -0.0026472008 0.014965183 0.004631874 -0.009927326
000260 a0 ee 91 bc 74 7a 71 bc 73 f8 88 bb c2 49 9b bc
       -0.01781398 -0.014738668 -0.004180008 -0.018956069
000270 f1 2a 02 3d 49 7f fc bb 0c dc 56 bc bd e4 00 3c
       0.031779233 -0.0077056033 -0.013113987 0.007867035
000280 ec ea 99 bb bc 43 69 bc f3 76 12 3d 7e 08 bb bc
       -0.0046971943 -0.014237341 0.03575797 -0.022831198
000290 20 44 40 bc 0f 2e 5c bc 5f 99 84 bc 1e 5f f6 bb
       -0.011734992 -0.013438716 -0.016186414 -0.007518663
0002a0 86 75 aa 3c 11 fa d1 3b c1 ef b8 bc 04 b3 15 3a
       0.020807993 0.006407984 -0.022575261 0.00057105743
0002b0 df 96 cf bb 0e da d2 3b 7b 7a cb bc 9b 43 de 3b
       -0.006335124 0.0064346856 -0.024838677 0.0067829615
0002c0 4b 26 c2 bb d7 90 ad 3c 91 f9 9a bc 5c 6d 28 bc
       -0.005924975 0.02118723 -0.01891783 -0.01027998
0002d0 de 2a ca 3b a5 cf 92 bc f0 96 ed 3b ae e8 87 bc
       0.006169661 -0.017921278 0.007250659 -0.016590443
0002e0 77 f0 36 3c fd 79 ba bc 2e 02 4a 3c a7 d0 23 bc
       0.01116573 -0.022763247 0.012329621 -0.009998477
0002f0 ca ef fe ba 2b 35 50 bc d2 48 22 bc 9e df 79 bc
       -0.0019450125 -0.012707989 -0.009905057 -0.015251068
000300 82 39 4a 3d 86 16 c3 bb b7 42 e0 bb 3d 7e 48 bb
       0.04937125 -0.0059536127 -0.0068438905 -0.0030592822
000310 b2 6a 52 3b 56 94 41 bc bc b0 0b 3c 9e a8 64 bc
       0.0032107052 -0.011815151 0.0085260235 -0.013956217
000320 c4 1d c4 bc d6 cb c7 ba 13 e2 b2 3c b8 23 b7 bb
       -0.023939975 -0.0015243243 0.021836316 -0.005588975
000330 fc 74 b7 3c 6b ca d0 3c 31 93 43 3c 81 eb 25 bb
       0.02239465 0.025487145 0.011936949 -0.0025317373
000340 60 2e 41 bc 38 39 7b bc 80 e3 19 bb ab f0 96 3a
       -0.011790842 -0.015333466 -0.0023481548 0.0011515816
000350 94 ed 7f 3c 20 00 c5 ba 0a 2b d4 3b 01 82 4b bc
       0.015620608 -0.0015029944 0.006474857 -0.012421132
000360 59 4a 25 bc 77 0b 1d 3d 60 b1 3f bc d4 a6 35 bc
       -0.010088527 0.03834101 -0.011700004 -0.011087138
000370 46 fe bb bb d5 39 a3 3c 85 40 6f bc f4 d5 c9 bc
       -0.005737099 0.019925037 -0.014602785 -0.024638154
000380 36 51 02 bc a0 a2 46 bc 07 e3 0e bc 33 0a 5a ba
       -0.0079539325 -0.012123734 -0.00872112 -0.000831756
000390 1e 5a 30 3c 64 c8 c1 3c 3f 10 b5 bc 8d 8f a4 3b
       0.010763673 0.023655124 -0.022102473 0.0050219954
0003a0 bb 18 8a bc 24 a7 80 bc 3f 04 2a bb 0e 0b 86 bc
       -0.016857496 -0.015704699 -0.0025942472 -0.016362693
0003b0 c9 45 49 bc 52 bd f6 bb 11 31 2c bc de 59 b4 bc
       -0.0122847045 -0.007529893 -0.010509745 -0.022015508
0003c0 06 7e 62 3c 23 cd 80 bc 01 f6 c7 3c f8 f7 c9 3b
       0.013823992 -0.015722817 0.024409296 0.0061635934
0003d0 99 56 7c bb 74 4c 9a 3c 6e 8c b9 bb 13 69 32 3c
       -0.0038503765 0.018835284 -0.0056624925 0.010889309
0003e0 b4 13 cc bb e3 26 e8 bb 7d 51 73 bc cf a5 40 ba
       -0.0062279347 -0.007084714 -0.014850971 -0.0007348926
0003f0 7f 06 07 3d e1 0c 43 bc ad e1 5c bc d7 89 48 3c
       0.03296518 -0.011904926 -0.01348154 0.012239895

network_body._body_endoder.seq_layers.2.weight f4 [256, 256]
000000 9a 0b 4b bd c0 93 e6 39 d3 48 eb ba df 4c 14 be
       -0.04957161 0.000439791 -0.001795078 -0.14482449
000010 17 9d 46 3d be d3 80 3d d9 75 95 bc 32 97 ac bc
       0.048489656 0.062903866 -0.01824467 -0.02106819
000020 eb b0 23 bd 70 0c 68 ba a3 98 6c 3d 6b 18 00 3d
       -0.039963644 -0.0008851951 0.057762753 0.031273287
000030 7c 77 de 3d 75 c7 09 bb 3f 84 39 bd f1 49 ec bb
       0.108626336 -0.0021023427 -0.045292135 -0.007210963
000040 41 f0 0b ba ba 77 89 bd 62 50 1a 3d b3 eb 24 3d
       -0.000533823 -0.06712289 0.037674315 0.040263843
000050 d1 43 f1 ba 3f db 19 3d c4 44 58 3d 77 18 b5 bc
       -0.0018407052 0.037562605 0.052799955 -0.022106392
000060 8e 78 e6 3d 39 6e a1 3d 63 9b e6 ba 1b ad a6 bd
       0.11253463 0.078823514 -0.0017593916 -0.08138486
000070 88 62 e2 bd b5 00 85 3c 43 ef 5c bd 73 9c 0c 3a
       -0.110539496 0.016235689 -0.053939115 0.0005363889
000080 aa 2f fb ba b8 bf 22 3d 2a b9 31 bd 70 12 84 bd
       -0.0019163985 0.03973362 -0.043389477 -0.06448829
000090 14 47 a6 3d 27 d4 7c bd 00 57 f9 bc e7 0f 33 3c
       0.08119026 -0.06172576 -0.030436993 0.010929084
0000a0 b6 52 50 3d df 4f c6 bc 28 90 e8 bd 05 6e f3 bd
       0.05086013 -0.024208007 -0.113556206 -0.11886219
0000b0 88 2b e3 3c f2 70 99 bc 2c f7 1a be b9 5e ac bb
       0.027730718 -0.018730614 -0.15133351 -0.0052603153
0000c0 c2 1b 43 3c f6 f8 e5 3d b5 91 96 3c 22 20 dc bd
       0.011908473 0.11229126 0.018380025 -0.10748316
0000d0 bf 15 13 be 45 eb 41 3d a0 37 b9 3a fd 73 cd bd
       -0.14363764 0.04734351 0.0014130957 -0.10031889
0000e0 00 ba ea bd 84 30 05 bd 98 e9 08 bd b4 5b 14 3d
       -0.11461258 -0.03251697 -0.033425897 0.036220267
0000f0 14 65 8b 3d d5 06 0f 3d 60 48 b7 bc d6 32 6f 3d
       0.068063885 0.034918625 -0.022373378 0.05839809
000100 f7 3f 87 3d f5 19 7d bb 17 7c 74 3d 1d c1 dc 3c
       0.06603997 -0.0038620208 0.059688654 0.026947552
000110 0f b6 68 bd 46 57 cd 3d c8 e5 b5 bd 1a f4 db bd
       -0.05681425 0.10026412 -0.08881718 -0.10739918
000120 a9 75 de 3c 9e b0 29 3c 05 4c 3a bd ba e5 24 3c
       0.027155714 0.01035705 -0.045482654 0.010064537
000130 9a 5b c7 3c 57 78 90 3c 67 3a b9 3d c3 81 b5 bd
       0.024335671 0.017635508 0.090443425 -0.08862641
000140 aa c2 25 bc 1e 0a 31 bc 30 02 ea bd 30 ba 15 bd
       -0.010117212 -0.010805635 -0.114261985 -0.036554515
000150 ad 5b 78 3d d7 21 86 3c 77 6e 6c bc ba 39 9a 3b
       0.060634304 0.016373558 -0.014430634 0.0047065886
000160 f5 d5 61 3d 26 a6 14 3d f9 95 5e bb 13 6b 0a 3b
       0.055135686 0.036291264 -0.0033963902 0.002112095
000170 d7 52 d2 3b 9d 50 a3 3d 7a 34 22 bd df d1 4d 3d
       0.0064185667 0.0797436 -0.039600827 0.050248977
000180 dc 13 5a bd 88 5e 60 bd 90 9d fb bb d4 2a 3d 3c
       -0.053241596 -0.054777652 -0.007678695 0.011545856
000190 b2 82 0b 3e ac 9e 80 bc ff f2 fa 3d ad 57 15 3b
       0.13624075 -0.01570066 0.12253379 0.0022787855
0001a0 f2 d5 80 3d 00 4a c3 3b 44 f7 15 3c ba c6 d3 3c
       0.06290807 0.005959749 0.009153191 0.025851596
0001b0 dd 8f 97 3d ec d2 22 3c 8c 17 ab bc d2 8b 70 bd
       0.074004866 0.009937983 -0.020885251 -0.058727093
0001c0 73 0d 04 bd 45 7f 12 bd ee 9b aa 3c 9d 78 af bd
       -0.03223939 -0.035765905 0.020826306 -0.08567927
0001d0 64 73 ef 3c 27 10 81 3d 89 b6 33 bd b1 aa 85 3d
       0.029229827 0.06301909 -0.04387525 0.065266974
0001e0 87 81 52 3d 2b 84 c8 bc cb 2c 5e bd ff 6e f3 bd
       0.05139306 -0.024477085 -0.054241937 -0.11886405
0001f0 6b 50 ca bc 02 b8 e5 3b f0 00 2f 3d cc 30 93 3d
       -0.02469655 0.007010461 0.042725503 0.07187042
000200 60 a7 63 ba 32 29 a0 bd 8d 65 f0 bd 41 5a da 3c
       -0.00086843036 -0.078203574 -0.11738119 0.026654365
000210 6f cc b8 3d 22 a7 61 3d 00 dd 4c 3b d7 94 b9 3c
       0.090233676 0.05509103 0.0031259656 0.02265398
000220 6f 3a 9a 3d 87 42 43 bd 83 77 b3 3c 33 25 a4 bd
       0.075306766 -0.047670867 0.021907574 -0.08014908
000230 c8 82 27 bd 0a 71 41 bd f5 f0 77 bd 48 c0 d8 bd
       -0.040896207 -0.047226943 -0.06053253 -0.1058355
000240 28 11 cc bc b9 be 6b 3d be e4 e8 3c e9 8e 51 bd
       -0.024910524 0.057554934 0.028429385 -0.05116168
000250 63 72 b3 3d 04 f4 01 bd 7e 92 b0 bd ef 21 d6 3c
       0.08762052 -0.031726852 -0.08621691 0.026139228
000260 73 71 b6 3d 5d 59 49 3d e8 18 de 3d 74 f1 95 bd
       0.089083575 0.04915749 0.10844594 -0.07321444
000270 ee c3 d6 bd 7b 82 15 3c eb 0c a0 3d be 03 27 bd
       -0.10486589 0.009125347 0.07814964 -0.040775053
000280 67 65 6a 3d d2 15 0e 3e f3 52 e8 3c 7c 85 bd 3a
       0.05722561 0.13875511 0.028359866 0.0014459337
000290 fd 54 8e 3d c2 42 e8 bc 8b bc 3a bd 65 4c 6a bd
       0.06949804 -0.028352145 -0.045589965 -0.05720176
0002a0 6c 75 9f 3d 43 29 98 3d 3a f3 09 3e 4c 84 b4 3c
       0.07786068 0.07429745 0.1347169 0.02203574
0002b0 6b 09 00 bd 8f aa 55 3d fc b4 e8 bc f1 3f d0 3d
       -0.03125898 0.05216461 -0.028406613 0.10168446
0002c0 e5 fa da bd 6b 32 6f bd 2c b7 58 bc fa fe 93 3d
       -0.106923856 -0.05839769 -0.013227265 0.07226367
0002d0 c1 e9 97 bd 7d a4 cd 3b 52 01 cc bd 3f 6d d5 3c
       -0.07417632 0.006275712 -0.09961189 0.02605307
0002e0 3c 9f 66 3d 4b 15 43 3c 11 42 70 3c 7d 64 04 bd
       0.0563042 0.011906932 0.014664189 -0.032322396
0002f0 ca 0d 45 bd 34 6b 0f bd 6f ab a3 3d 70 89 4a 3c
       -0.048108853 -0.035014346 0.07991683 0.012361869
000300 4f 78 8b 3d 64 65 25 3e 54 31 54 bd 1c 4c c3 bb
       0.068100564 0.16151959 -0.051804855 -0.0059600007
000310 f5 c6 36 bd 90 c2 8d 3a a9 05 f6 3a 0a ed 87 bd
       -0.044623334 0.001081543 0.0018769997 -0.066370085
000320 0d 07 2f 3d 75 d5 79 3c 64 d8 f6 bc db 6d 54 bd
       0.042731334 0.015248646 -0.03013248 -0.05186258
000330 86 4e 73 bc 51 64 47 3d 68 de 12 bd 36 2f 7b 3d
       -0.014850264 0.048679654 -0.035856634 0.06132432
000340 f5 07 15 3c a2 a0 18 3d a9 ce a0 bd 10 4a b1 ba
       0.009096135 0.037262566 -0.07851917 -0.0013526101
000350 14 06 0e bd 0e 0b 98 bd 2b fc 7e 3d d1 08 69 bd
       -0.034673765 -0.074239835 0.062252205 -0.056893174
000360 48 b3 76 bd 8c 38 12 3d 37 3c 0d be 5a 0c c9 3d
       -0.06022957 0.03569846 -0.13792501 0.09816809
000370 10 cc 23 bb 04 5f e3 3c 51 90 8a bc f0 66 d9 bc
       -0.0024993457 0.027755268 -0.016914519 -0.026538342
000380 65 6b 2e bc 9b f7 42 3e 74 f6 61 bd fb b7 8f bd
       -0.010645722 0.19039766 -0.055166677 -0.07017513
000390 14 e7 04 3d 07 89 0b 3d c5 28 e8 3c 28 44 ca bc
       0.032446936 0.034066226 0.028339753 -0.024690703
0003a0 60 5f f7 3c 46 62 22 bd 39 b2 a0 bc 28 06 3d 3d
       0.030196846 -0.039644502 -0.019616233 0.04614845
0003b0 d7 dc 88 3d bb dc a9 bd 59 48 ff bd b4 2e fb 3d
       0.06682747 -0.08294054 -0.12464971 0.12264767
0003c0 31 15 ba 3d 88 e0 4f 3d 0a 29 84 bd 6c c3 8a 3c
       0.09086073 0.05075124 -0.0645314 0.016938888
0003d0 02 de 65 bb 26 74 e3 bc eb 4a c9 3c da 09 5c be
       -0.0035074954 -0.027765345 0.024571856 -0.21488133
0003e0 b8 15 8c 3c db 3d bf 3d 75 09 d0 bd 30 71 c7 b9
       0.0171002 0.0933797 -0.10158054 -0.0003804057
0003f0 a7 6a 64 3d cc da 1d 3d 12 a6 91 bb e9 d6 42 bc
       0.055765774 0.03853874 -0.004444846 -0.011892059

network_body._body_endoder.seq_layers.2.bias f4 [256]
000000 db d2 88 bb 07 94 a4 bc 04 e5 31 3c ef 9f 5a bc
       -0.0041755266 -0.020090116 0.010857824 -0.013343795
000010 23 b5 43 3c 85 d5 4d bc 30 86 d4 bb 6d d2 2d bc
       0.011945042 -0.012563114 -0.006485723 -0.010609251
000020 de f5 9f bc d2 52 1a bc dc 0a 55 3a d0 f8 57 bb
       -0.019526418 -0.00941916 0.00081269233 -0.00329547
000030 f2 5e 22 3c 57 88 56 bc 93 c3 50 bc 81 e4 a4 bb
       0.009910332 -0.013094029 -0.012741941 -0.0050321226
000040 96 52 23 bc 96 55 fc bb ff 09 fc 3b 0e 1f 50 bb
       -0.0099684205 -0.0077006323 0.0076916213 -0.0031756791
000050 a9 70 90 bc 2a 45 fc 3c 03 99 b0 ba 00 07 4a 3c
       -0.017631846 0.030794699 -0.0013473335 0.0123307705
000060 05 96 8b 3c 45 e3 4c 3b bd 4d 97 bc ea f6 3e bc
       0.017039308 0.0031263393 -0.018469686 -0.011655549
000070 1a 31 f2 3b 41 28 b0 bb f9 6a 56 bc c7 6d 38 bc
       0.0073911073 -0.0053758924 -0.013087028 -0.011256642
000080 96 d1 92 bb 57 f6 8b bc 88 98 2c bc ca 81 f0 bb
       -0.004480551 -0.017085237 -0.010534413 -0.007339691
000090 07 54 10 bc c5 c4 a0 bc b8 62 19 3d 85 f6 97 3c
       -0.008809096 -0.019625077 0.03744766 0.018550167
0000a0 0f c9 1a bc f8 53 9e 3c a9 6e 8b 3b 9e 90 9b bc
       -0.00944735 0.019327149 0.004255135 -0.018989857
0000b0 5d eb 89 bc 4c 02 2c 39 66 44 3b bc 0e 84 90 3c
       -0.016835863 0.00016404054 -0.011429882 0.017641094
0000c0 1b fb 34 3c f8 06 05 bc 88 c4 5f bc e6 0f ac 3b
       0.011046196 -0.008119337 -0.013657697 0.0052509187
0000d0 82 22 ca 3c e5 af 95 3c 58 ab 22 3b cd 7f c4 bb
       0.024674658 0.01827235 0.0024821367 -0.0059966804
0000e0 06 cb 86 b7 8e c3 1d bc df 22 d4 bb 56 8f 9b bc
       -1.6068585e-05 -0.009629143 -0.0064738835 -0.018989246
0000f0 b8 6a f6 3c 71 de a4 bc 88 89 28 bc 94 ae 41 bc
       0.030080184 -0.0201256 -0.010286696 -0.011821408
000100 c5 e6 e7 bb dc 9e eb bb a1 a9 7d 3b ab 7d 8f 3c
       -0.0070770704 -0.0071905684 0.0038705843 0.017515978
000110 b7 12 b4 bc 8c d9 30 3b 9a 50 bb bb 39 bb 4b bc
       -0.02198158 0.0026985137 -0.0057163956 -0.012434774
000120 e3 80 72 3b 2f 6f 9a 3c e4 1c 93 bc 11 01 3b bc
       0.0037003092 0.018851845 -0.017958112 -0.0114138285
000130 d1 49 ac bb d8 ec ad 3b 71 49 36 3c 1d 08 8a bc
       -0.005257823 0.005307775 0.011125908 -0.016849572
000140 e2 f8 1b 3c 3c 5d 23 bc cf 54 26 3c 8c 6c 34 bc
       0.0095197875 -0.009970959 0.010152056 -0.011012208
000150 5d fb 9f bc b1 09 31 bc 25 c7 97 bc 8a 86 20 3b
       -0.019529039 -0.010805533 -0.018527577 0.0024494254
000160 65 51 89 bc 99 17 0b 3c d0 25 c4 bb eb 2b 25 bb
       -0.016762445 0.008489513 -0.005985953 -0.002520318
000170 e5 a4 1e 3c a1 76 a4 bb 39 9a 8b ba b8 7a f3 3b
       0.009682869 -0.0050190245 -0.001065082 0.0074304007
000180 aa 55 48 bc e1 14 84 bc 32 25 0b 3c 79 ab 56 3b
       -0.012227455 -0.016123237 0.008492755 0.0032756014
000190 57 70 83 bc 72 f7 8d ba fd c8 73 bc e6 2a c6 3b
       -0.016044779 -0.0010831191 -0.014879462 0.0060475944
0001a0 5d c6 6f bc af 16 05 bc eb aa f3 bb a1 f8 3f 3b
       -0.014634696 -0.008123084 -0.0074361465 0.0029292481
0001b0 06 35 90 3c 5c d7 ff bb fb 37 de 3c dc 35 77 3c
       0.017603409 -0.0078076553 0.027126303 0.015088525
0001c0 b4 84 b9 3b 6e 54 16 3c 24 26 2c bc 23 ec d5 bb
       0.0056615714 0.009175403 -0.01050714 -0.006528394
0001d0 26 d4 a7 3a 59 70 ea 3b 0d 1f 09 bc 47 83 7a bc
       0.0012804314 0.007154506 -0.0083692195 -0.015290088
0001e0 0e 3b 95 bc 8f fc 93 bc b2 f4 6d ba 9b 2e 5e bc
       -0.018216636 -0.018064765 -0.0009077295 -0.013560916
0001f0 94 7b 06 3b 14 60 6e bc 6f e7 b3 bb c8 fe 70 bc
       0.0020520436 -0.014549274 -0.0054902355 -0.014709182
000200 8f 9b 4c 3c fa 83 9d 3c d4 ac 23 3c f0 a4 20 3c
       0.01248826 0.01922797 0.009989936 0.009804949
000210 07 5e f4 bb a7 66 23 3c 96 0c 05 3c c0 7a 27 bc
       -0.007457498 0.009973205 0.0081206765 -0.010222137
000220 b3 cb 97 bc 87 a1 c4 3b 7e 47 da bb db a0 61 bc
       -0.018529749 0.006000701 -0.0066613546 -0.013771261
000230 c4 6f e7 ba a7 24 2a 3c b4 fe d8 bb 24 cc f1 bb
       -0.001765721 0.010384715 -0.00662216 -0.007379072
000240 88 ca 11 3b 1f 96 e0 3c bf 34 8d bc 6d 38 a0 bb
       0.0022245962 0.027415333 -0.017237065 -0.004889539
000250 ce 8d d6 bb 6c a4 d1 3c 3c a9 44 3b 02 fb 4e bc
       -0.006547666 0.025591098 0.0030008098 -0.012633087
000260 8f e1 c4 3b 3a 15 dc bb c5 b9 c9 ba ff fe de b8
       0.006008334 -0.0067163976 -0.0015390447 -0.000106332816
000270 6e 0e 14 bc 72 80 54 bc 28 51 a5 bc 64 ec 07 bb
       -0.009036643 -0.012970077 -0.0201803 -0.0020740265
000280 0d 68 a8 3c 61 23 76 3c 5d e9 60 bc ba 03 cc 3c
       0.020557428 0.015023083 -0.013727513 0.02490412
000290 a9 91 29 bc 39 ac e9 3b a8 5d 1f bc 4f a5 85 3c
       -0.0103496695 0.0071311262 -0.009726919 0.016314177
0002a0 42 14 80 bc 3c df be bc 49 cd 89 bc 82 8a 47 bc
       -0.01563466 -0.023299806 -0.01682152 -0.012179019
0002b0 98 67 c8 bb 94 81 92 3b b9 f1 4c bc 62 01 95 bc
       -0.006115865 0.0044710133 -0.012508803 -0.018189136
0002c0 dd 8f 3a bc fc 8f 8e 3c 19 0c 0e 3c 52 f7 f8 bb
       -0.011386839 0.017402641 0.0086698765 -0.0075978423
0002d0 ba 22 c1 3c a8 de 70 3c 55 53 88 bc 8f ae 22 3c
       0.02357613 0.014701523 -0.016641298 0.009929313
0002e0 5c 4d 10 bc f4 44 43 bc 3f ac 7f 3c 49 5a b4 3b
       -0.008807506 -0.011918295 0.0156050315 0.005503927
0002f0 25 d5 5f bc 7f aa be 3c a7 41 e7 3b 41 2b 4e bc
       -0.013661657 0.023274658 0.007057387 -0.012583555
000300 40 1d a0 ba 84 03 9c 3c 39 25 28 3c 24 94 0f bc
       -0.0012215748 0.019044645 0.010262781 -0.008763347
000310 2e c2 43 3c 0f 7b bd bc a4 ff c8 bb 28 35 97 3c
       0.0119481515 -0.023129968 -0.0061339904 0.018457964
000320 5c 64 1d bc 5f 46 96 bc be a4 75 3b 6a f9 92 bc
       -0.009606447 -0.018344102 0.0037482227 -0.017941196
000330 44 c6 a4 3c 2d ff 2a bc 13 66 44 bc b6 b0 6c bc
       0.020114072 -0.010436815 -0.011987227 -0.014446428
000340 88 76 ba 3a 07 f0 4b 3c ee 01 0f bc a5 20 bc bb
       0.0014225999 0.012447364 -0.008728487 -0.005741196
000350 8c ea be 3c ba a1 6c bc 01 28 8b bc 4f 89 26 bc
       0.0233052 -0.0144428555 -0.016986849 -0.010164573
000360 4e 53 d7 3b fb 6b 49 ba da 0a 30 bc 5a 77 30 3c
       0.00657121 -0.0007683632 -0.010744775 0.010770643
000370 0a d2 20 3c 87 ab 80 bc a7 18 28 bc 0e c6 90 3c
       0.009815702 -0.01570679 -0.010259784 0.017672565
000380 ca 54 e9 bb 32 71 6e bc cc f6 0b bc 5e 99 33 3c
       -0.0071207033 -0.014553355 -0.008542728 0.010961859
000390 45 d5 0e 3c 83 da 6c bb 34 41 31 3c ed 41 79 3c
       0.00871784 -0.0036140985 0.010818768 0.015213472
0003a0 f8 9b e2 3b 19 b5 26 3c e5 a3 80 3c a4 d9 99 3c
       0.0069155656 0.010175013 0.015703151 0.018780537
0003b0 01 6f 40 bc ec 0a 26 bc 97 24 c4 ba 88 4f b5 3c
       -0.011745215 -0.01013444 -0.0014964518 0.02213265
0003c0 e0 7b 82 bc 29 f4 e0 3b 8d 57 9f 3a 1e ff bb bb
       -0.015928209 0.0068650437 0.001215683 -0.0057371994
0003d0 55 48 d0 bc aa 8e 82 bb 1b 3e 0e bc 95 71 70 bc
       -0.025425116 -0.003984292 -0.008681799 -0.014675518
0003e0 fc 03 ae bc c8 f7 01 bb 4e 9c 93 bc b5 ec ae 3c
       -0.021242134 -0.0019831527 -0.018018868 0.021353105
0003f0 be f6 68 3c 6c 7e 7a 3c f0 e5 59 bc c9 04 85 bc
       0.014218984 0.01528893 -0.01329945 -0.016237633

action_model._discrete_distribution.branches.0.weight f4 [2, 256]
000000 a0 6c e4 b9 b8 94 b2 3c 3b 71 6d bb 82 69 06 3d
       -0.0004356848 0.02179943 -0.003623082 0.032815464
000010 90 6c 17 bc 89 a8 d9 3c fb ed dc 3c 37 1a 96 3c
       -0.009242192 0.026569622 0.026968947 0.018323047
000020 d3 0a 2e 3d e9 73 1c 3d dc 2f 9c bb a6 ac 9c 3c
       0.04249079 0.038196478 -0.0047664475 0.019125294
000030 a0 04 1f bc 13 b0 2a 3b a8 23 a3 3c 6b 2e bd ba
       -0.0097056925 0.002604489 0.019914463 -0.0014433389
000040 55 9a 0c 3c 8b 73 26 bc df f5 61 bc 4b 6e 3c b9
       0.0085817175 -0.0101593835 -0.01379153 -0.00017970164
000050 30 80 99 3c 5e de e6 bc 80 5f 83 3c 4e 27 81 bc
       0.018737882 -0.028182205 0.016036749 -0.015765812
000060 98 a0 5c bc 23 a5 1c bc 9d 18 a3 3c be f3 54 3c
       -0.013466023 -0.009560856 0.019909197 0.012997566
000070 a0 63 3b bc 06 96 95 3b 36 83 ab 3c e4 75 a8 3b
       -0.011437327 0.0045650033 0.02093659 0.005141007
000080 0d 2f 04 3c 25 1f af bb 0e aa ad 3b 5d 85 cf 3c
       0.008067858 -0.005344289 0.005299813 0.025332147
000090 f9 f9 70 3c d6 7a 9e 3c c2 18 3b bd 85 53 a8 bc
       0.014708036 0.019345682 -0.045677908 -0.020547638
0000a0 82 68 9a bb 31 ed c1 bb 46 4e a9 ba f9 30 13 3d
       -0.0047121653 -0.005918168 -0.0012917004 0.035935376
0000b0 ae 4c b8 3c df 15 42 bc 19 81 1e 3c 17 a0 97 bc
       0.022497501 -0.011846035 0.009674334 -0.018508954
0000c0 cc 6e 9e bc 3a 8f 2d bb aa b2 b5 3c 35 a1 01 3a
       -0.019339941 -0.0026483075 0.02217992 0.0004944981
0000d0 95 0c 8c bc f8 41 58 bc c1 05 80 39 ec 81 02 3d
       -0.017095843 -0.013199322 0.0002441835 0.031862184
0000e0 56 6e 60 3c e0 cf 0b 3c 82 fc 44 3c 68 8a f3 3c
       0.013698181 0.008533448 0.012023093 0.029729083
0000f0 97 a9 2c bd 15 13 f2 3c ad 0b 9f bb 0b 0d b9 3c
       -0.04215392 0.029550115 -0.004853687 0.022589227
000100 f3 90 45 ba b5 e8 84 3b f5 83 96 bb 40 0e 42 bc
       -0.0007536553 0.004056061 -0.004593367 -0.011844218
000110 92 29 7e 3c 07 2a f3 bb 8c 62 e8 3c e0 b2 ba 38
       0.015512841 -0.0074207815 0.028367303 8.902489e-05
000120 63 96 20 3c 70 18 dc bc 70 8f fd 3c 41 1e 1a 3c
       0.00980148 -0.026867121 0.030952185 0.009406627
000130 02 66 00 3d e2 68 20 bb 65 6b 84 bb 16 8b bf 3c
       0.031347282 -0.0024476578 -0.0040411227 0.023381751
000140 cd 3f ab ba d0 1a 7f 3c e3 27 36 3a e9 6c f8 3c
       -0.0013065279 0.015570357 0.00069486926 0.03032537
000150 8f 67 d6 3c fc a7 b5 3c 35 fd ca 3c 4f 29 ab bb
       0.026172427 0.022174828 0.024778942 -0.00522343
000160 1f 51 d7 3c 27 c4 ae 3b 93 c8 d7 3c f0 11 0a ba
       0.026283799 0.005333442 0.026340758 -0.0005266955
000170 f5 9c 33 bb fd 85 cc 3c 2d 48 85 bb 31 25 a4 bc
       -0.0027406786 0.024966234 -0.004067442 -0.020037265
000180 8e 26 3f 3d ae 9c 1f 3d eb 32 ca bb ba 9d 0c bc
       0.046667628 0.03896778 -0.0061706207 -0.008582527
000190 44 3b 00 3d a1 25 71 bc 10 14 a6 3b 9c 3a d2 bb
       0.03130652 -0.014718444 0.0050683096 -0.006415678
0001a0 e8 08 f1 3c ed ef 0c 3c 46 06 a8 3b db be 47 bc
       0.029423192 0.008602125 0.005127701 -0.0121915
0001b0 21 6e 91 bc b1 10 59 3c b4 87 ed bc 00 c9 59 bc
       -0.017752709 0.013248608 -0.028995372 -0.013292551
0001c0 b8 2f 9d bc a9 22 2e bc 05 08 d7 3c 13 c9 06 ba
       -0.019187793 -0.010628381 0.026248941 -0.0005141657
0001d0 50 63 7a bb 10 5b d5 bb 33 d8 dd 3c c3 ba c9 3a
       -0.0038206168 -0.0065110996 0.02708063 0.0015390742
0001e0 b7 65 fd 3c db b4 bf 3c 8b 10 f8 3c e1 73 9b 3c
       0.03093229 0.023401668 0.030281326 0.018976154
0001f0 5a 18 a4 3b ab a9 30 3d d8 cf 12 3c 85 4c f3 ba
       0.0050077857 0.043130558 0.008960687 -0.0018562233
000200 1c bb e4 bb 77 11 f3 bc f9 04 07 bc 0e fb 5e bc
       -0.006980313 -0.029671414 -0.008240932 -0.013609661
000210 1c 60 2e 3c 68 39 e5 bb c2 20 0a bc bb 00 2a 3b
       0.010643031 -0.0069953687 -0.008430662 0.0025940377
000220 0b 1e 9d 3c 90 47 ce bb 14 7e a5 3c 7d 9e 50 3c
       0.019179365 -0.006295152 0.02020172 0.012733099
000230 a3 cb cc 3b bc 74 27 bc 09 95 13 3c a5 40 1b 3d
       0.0062498613 -0.010220703 0.009007701 0.037903447
000240 b1 8f 2e 3c 11 af 28 bc 3a 0d 1b 3d 79 e1 20 3c
       0.010654376 -0.010295645 0.03785441 0.009819382
000250 6b e7 f0 bb 58 d5 32 bc e4 ca 12 bb 7e cd ec 3b
       -0.007351806 -0.010915123 -0.0022398764 0.007226645
000260 77 74 dc 3a fc a3 f0 3a 24 87 f7 ba bd 0f b1 bb
       0.0016819377 0.0018359418 -0.001888488 -0.0054034875
000270 35 59 61 3c 57 41 a0 3c 9f 9a ff 3c 3a 57 2d 3c
       0.013754179 0.019562406 0.031201659 0.010579878
000280 92 de cc bc 99 13 07 bc 01 2e aa 3c 9c 6e ce bc
       -0.025008474 -0.008244419 0.02077389 -0.025199227
000290 17 7c 60 3c 72 6c aa bb 92 ab ad 3c c3 f3 ae bb
       0.01370146 -0.005200916 0.021199975 -0.0053391173
0002a0 8a 1a 3c 3d e8 12 8b 3c 8d d2 fa 3c 33 36 b4 3c
       0.045923747 0.016976789 0.030617977 0.0219985
0002b0 4f 67 32 bc 3b 74 83 bb b9 fa 10 3a b8 4e ec 3c
       -0.0108888885 -0.0040116585 0.00055305246 0.02884613
0002c0 d8 af 84 3c 35 8d e8 bb 7a ed 74 3a 0a 25 32 3d
       0.01619713 -0.0070969113 0.0009343248 0.043492354
0002d0 44 a2 36 bc 59 1b 9c bc fb f1 dd 3b 38 ae 63 bc
       -0.011147086 -0.01905601 0.006773231 -0.013896517
0002e0 ed c9 8f 3c 67 17 7a 3c 41 74 b8 bc 4d 06 cc bb
       0.01755234 0.015264369 -0.022516372 -0.006226337
0002f0 74 51 fc 3c 6c 66 80 bc 11 41 34 bb a5 e0 63 3c
       0.030800559 -0.015673839 -0.0027504603 0.01390854
000300 c0 ce 7c 3c 66 9c d8 bc 4c 35 30 3b d9 4d 29 3c
       0.015430152 -0.026441764 0.0026887236 0.010333502
000310 68 eb 33 bc e9 16 8e 3c 4a 8a 37 3c a3 0a 5d bc
       -0.010981418 0.017344909 0.011202404 -0.0134913055
000320 25 19 d9 3c ec 3c 2e 3b 17 bf 1c bb e6 01 89 3c
       0.026501248 0.0026586605 -0.002391761 0.016724538
000330 fa 18 6d bc f7 ad 10 3d da fb b2 3c 79 a3 06 3d
       -0.014471287 0.035322156 0.021848608 0.032870743
000340 23 02 f0 3b 7f 58 9d bb 0b fa c5 b7 ca 52 fc 3c
       0.0073244735 -0.0048018093 -2.3600665e-05 0.030801196
000350 ea e8 7d bb 44 37 69 3c 0e 8d 06 3d 92 58 b7 3b
       -0.0038743564 0.014234368 0.032849364 0.005595275
000360 da 0c 83 bb 0a 6b 9f bb b9 32 a9 3c b5 90 70 bc
       -0.0039993348 -0.004865055 0.02065407 -0.014682938
000370 8d 6e d1 bc 9b 64 06 3d 74 a6 63 3a 5b f4 43 bc
       -0.02556541 0.03281079 0.0008684166 -0.011960114
000380 e2 f3 af ba 0e 2b 04 3d ba e1 b9 3c 47 7e 4b bc
       -0.0013424123 0.032267623 0.022690643 -0.012420244
000390 13 56 86 bc 8e 8a 5c 3c 3a b7 0d bc 6b 49 06 bb
       -0.016398465 0.013460768 -0.008649642 -0.0020490538
0003a0 b4 20 a8 b9 ee d2 21 3b f6 4b 8e bc 8f 06 c8 bc
       -0.00032067823 0.0024692374 -0.017370205 -0.02441719
0003b0 28 ec dc 3b ea ff a6 3c 06 6c 11 bb 05 8f d6 bc
       0.006742019 0.020385701 -0.002218963 -0.026191244
0003c0 22 31 d3 3c 3d 36 52 bc 76 0c a2 ba 04 db 3a bb
       0.025780264 -0.012830314 -0.0012363333 -0.002851189
0003d0 7d 3b a9 3c 9b 5e 47 3b 38 b1 07 3d e6 8b 17 3d
       0.020658249 0.003042138 0.033127993 0.036998652
0003e0 9d b3 00 3d 28 c8 45 3c 28 f5 b0 3c d6 03 9f bc
       0.031421293 0.012071647 0.021601275 -0.019411009
0003f0 29 c1 7b bc c9 2b 8e bc 17 e3 10 3d 08 fb 03 3d
       -0.015365877 -0.017354863 0.03537282 0.032221824

action_model._discrete_distribution.branches.0.bias f4 [2]
000000 f2 ac a7 bc f0 ac a7 3c
       -0.020468209 0.020468205

action_model._discrete_distribution.branches.1.weight f4 [3, 256]
000000 a1 ea 05 bc 41 2a ce b9 19 ad 08 3b 6d 25 22 3b
       -0.008173616 -0.00039322863 0.0020855127 0.0024741546
000010 3e ab 8d bb c2 fb 5c 3c b5 aa b6 bb 81 94 16 3b
       -0.004323392 0.013487758 -0.005574549 0.0022976699
000020 98 ae cc 3b 97 64 86 bb 81 f1 d2 bb 39 1c 4e 3b
       0.006246399 -0.0041013467 -0.006437481 0.0031449927
000030 c2 4f 9d bb e6 aa 73 ba 9d 69 52 3c ad 86 5c bb
       -0.0048007676 -0.000929518 0.012842563 -0.003364961
000040 06 3a 01 3c 98 da 85 3b 07 32 cd 3b 90 09 c1 bb
       0.007887369 0.0040848963 0.0062620672 -0.0058910325
000050 be 83 87 3b e1 5b 95 ba d0 2c 1f bc b8 4b bb bb
       0.004135578 -0.001139518 -0.009715274 -0.0057158135
000060 cd 69 cf bb d4 50 12 3c a4 76 d2 b9 4e 68 dd 3b
       -0.006329751 0.008930404 -0.00040142715 0.006756819
000070 d0 69 6f bc 16 a1 3d 3c 8e 8f 85 3b 3b 13 c5 bb
       -0.01461263 0.01157405 0.004075951 -0.0060142553
000080 b8 43 47 3c d1 9e e5 3a 3b 22 86 bb 1c c3 f5 3a
       0.0121621415 0.0017518644 -0.004093436 0.0018750164
000090 7e c2 2d 3b 53 a2 3d 3c 68 f4 63 bc ad 71 51 bb
       0.0026513631 0.011574346 -0.013913251 -0.0031958625
0000a0 4d e8 f6 39 71 97 15 bc 48 39 a2 bb 61 35 03 3b
       0.00047093854 -0.009130345 -0.004950676 0.002002083
0000b0 de 67 15 3c b6 ae fd 3b 5c 21 64 3b 4d 8f 2a bc
       0.009119002 0.0077417744 0.0034809923 -0.010410142
0000c0 96 58 ec b9 43 88 4e ba c5 b9 91 3b e5 a6 86 ba
       -0.0004507943 -0.0007878581 0.0044471943 -0.0010273127
0000d0 4a 72 00 bc 6d 55 5e bc a7 3b 45 bb b8 89 e4 bb
       -0.007839749 -0.013570172 -0.003009537 -0.006974425
0000e0 d1 a6 ca 3b 79 51 60 bc c4 72 b1 3b 16 74 85 3b
       0.006184437 -0.0136913 0.0054152925 0.0040726764
0000f0 51 49 b3 bb 8f 4b ce 3a 37 e5 40 3c b7 b4 47 3b
       -0.0054713865 0.0015739071 0.011773399 0.0030472705
000100 73 c3 5a bb ec 55 5a bb 0f 54 1e bc 58 00 17 bb
       -0.0033380657 -0.0033315374 -0.009663596 -0.0023040976
000110 5f fa bc bb f7 3a 5b bc 4e 62 9f 3c 39 16 a6 bb
       -0.0057671512 -0.0133807575 0.019456055 -0.005068567
000120 08 36 2f 3a ba 6a 94 3b 9b df 84 3b b8 29 43 bb
       0.00066837715 0.0045293244 0.004054976 -0.0029779505
000130 27 d1 15 bc 2d fc 05 bc 29 94 e4 ba 3f a3 e1 3b
       -0.009144104 -0.008177799 -0.0017439175 0.0068859155
000140 42 5b dd 3b 47 49 35 3b 9d 8e e7 ba dd 75 30 3c
       0.0067552635 0.0027662085 -0.0017666403 0.010770288
000150 90 1a f8 3b 4a be 60 3c 4a 38 a6 3b d2 16 49 bc
       0.007571526 0.013717243 0.005072628 -0.012273507
000160 0f 14 22 3b b7 85 a4 bb 8d 6e 04 bb 69 a6 c0 3b
       0.0024731194 -0.005020823 -0.0020207495 0.0058792126
000170 80 f5 9a bb ca 21 a1 3b 03 bd 1f bb fb 57 2c bb
       -0.004728973 0.004917358 -0.0024374134 -0.0026297558
000180 07 77 83 3b 77 13 93 bb 6d c6 f5 bb 8b e9 06 3b
       0.004011992 -0.0044884044 -0.007500461 0.002058598
000190 d0 af fa 3b 42 c1 ba ba 53 b3 bb 3b ef 35 ce ba
       0.007650353 -0.0014248269 0.005728164 -0.0015732626
0001a0 7f e8 a5 bb 0f 39 9b bc 96 7b 7c 3b 83 32 e3 bb
       -0.005063116 -0.018948106 0.0038525811 -0.0069335117
0001b0 d7 7a 1b ba 46 51 d6 bb 0a 0f 15 bc 05 cd c3 b9
       -0.00059310853 -0.0065404503 -0.009097824 -0.0003734605
0001c0 12 2a 1b bc 1b 54 a1 3b 5e e3 8d 3b 95 14 e1 bb
       -0.00947048 0.004923356 0.004330083 -0.0068689086
0001d0 32 59 b1 3a b7 59 c6 3a 7e 1b be 3b c9 f3 8b 3a
       0.0013530611 0.0015132938 0.005801617 0.0010677512
0001e0 05 6e 1d 3c c1 30 8f bb 73 02 d6 bb a2 43 dd 3b
       0.00960875 -0.0043698256 -0.0065310537 0.006752447
0001f0 ed 4e 05 bc 64 68 b7 3a 52 12 97 bb 84 46 3f bb
       -0.008136493 0.0013992903 -0.0046103382 -0.0029186318
000200 ce 0a 9e 3b 7b 30 80 bb 29 de 90 39 2f e1 b4 ba
       0.0048230654 -0.0039120293 0.00027631343 -0.001380002
000210 0c f3 17 bb 02 9d 63 3b 2c ef 69 ba d5 d5 a8 3b
       -0.0023185639 0.0034731035 -0.0008923884 0.005152444
000220 7f 5a f1 3b bd 08 aa 39 9f af 1f 3c f1 47 62 bb
       0.0073655243 0.00032431437 0.009746461 -0.0034527744
000230 a8 03 a2 ba d6 41 2f bb ec d8 91 3b a4 20 9f 3b
       -0.0012360709 -0.0026742122 0.004450908 0.004856186
000240 44 c5 e1 bb 64 a9 24 bc d2 8a f7 3b e3 da ba 3a
       -0.006889971 -0.0100501515 0.0075543905 0.0014255907
000250 f7 d1 2d bb 44 9d 8a bc 7d e0 9a bb c1 e2 39 bc
       -0.0026522854 -0.016920693 -0.004726468 -0.011345566
000260 05 d8 6b 3b de 61 88 3b a2 3b 1b bb 2b 9a 99 3b
       0.0035986912 0.0041620573 -0.0023686667 0.0046875677
000270 2a e9 d1 3a 24 c0 0f bb 1b d7 5a 3c fb d2 2c 3c
       0.0016014923 -0.0021934593 0.013356949 0.010548349
000280 42 27 36 3b 40 87 25 3b 6a 34 99 bb bb ec 7c 3b
       0.0027794396 0.0025257617 -0.0046754377 0.003859325
000290 7a e1 08 ba aa 93 16 3b 42 6a f3 bb 9f 56 53 bc
       -0.0005221587 0.0022976198 -0.0074284384 -0.01289907
0002a0 92 b9 fe 3b f4 f5 da 3a a8 23 cc 3b 84 18 e0 ba
       0.0077735865 0.001670538 0.0062298365 -0.001709715
0002b0 c3 c2 38 3c c5 ba fd 39 db 30 d1 bb 7d 85 7c 3b
       0.011276904 0.00048395075 -0.006383998 0.0038531714
0002c0 70 f1 65 bb f1 b3 00 bc 65 7b 06 bc b9 2d 0d 3c
       -0.0035086535 -0.007855401 -0.0082081305 0.008616858
0002d0 ed d2 5f bc 5a 5b c0 3a 58 c1 8c 3a dc 40 70 ba
       -0.0136611285 0.0014675662 0.0010738773 -0.0009164938
0002e0 e1 5e 59 3b 73 44 96 3b e5 c4 ad 3a 84 da 14 bc
       0.0033168125 0.0045857965 0.0013257532 -0.009085301
0002f0 4a bd f7 3a 02 fa 47 bc 86 0c f5 bb 55 7d 28 bb
       0.0018901017 -0.012205603 -0.0074782996 -0.002570947
000300 5a 12 66 3b f5 81 29 bc 73 02 12 bc 6b 04 52 3a
       0.0035106153 -0.010345926 -0.008911717 0.00080115226
000310 be 14 84 3b c1 b6 e9 37 ee 72 47 3c c3 f1 51 3b
       0.004030793 2.7860866e-05 0.0121733975 0.003203497
000320 30 0a 6e 3a ea 3d 5d 3b b8 07 7c bb 68 29 fe 3b
       0.00090804975 0.0033758827 -0.003845675 0.007756401
000330 06 a4 1a bb 9c 79 7f 3c 08 3d 42 bb 19 b2 3d 3c
       -0.00235963 0.015592959 -0.0029638428 0.011578106
000340 52 ba 99 bb 90 a8 0a bb e4 ac 30 bb 70 2e c0 bb
       -0.0046914006 -0.00211576 -0.002695852 -0.005864911
000350 b0 ce 73 bc 9f 4f 33 3c 0d 1b b8 3b 13 9c bf 3b
       -0.014880821 0.010944276 0.005618459 0.005847463
000360 43 4c a9 3b 68 75 78 3a c7 35 97 b9 d7 bf de 39
       0.005166562 0.0009477944 -0.00028841032 0.00042486071
000370 93 11 c9 bb cd 4c fa 3a ed 6e a1 bb de 04 aa 3b
       -0.006136128 0.0019096375 -0.0049265535 0.0051885685
000380 38 15 00 bc f9 a7 2b 3c f6 82 80 3c 1c 9c 31 3c
       -0.007817559 0.0104770595 0.015687447 0.010840442
000390 5c 5b 0f bb 07 cd 34 bb 47 39 25 3a b3 72 a9 bb
       -0.0021874523 -0.0027588026 0.00063027855 -0.005171144
0003a0 ec 98 d3 ba fd c4 94 39 80 10 81 3c 3b de 1f bb
       -0.0016143597 0.00028375527 0.015754938 -0.0024393934
0003b0 45 7f f3 ba a5 e0 1e bc ae 39 5b 3b 7c d7 ed bb
       -0.0018577358 -0.009697114 0.0033451128 -0.0072583538
0003c0 ad 3e 30 3b c7 41 97 3a 53 99 36 bc b5 54 b9 39
       0.0026892826 0.0011539989 -0.011144954 0.0003534906
0003d0 4b bb f3 ba 92 a8 cd ba b8 66 0a 39 d2 c8 2d 3b
       -0.0018595246 -0.0015690497 0.00013198971 0.0026517403
0003e0 ba dc 71 3b 6a 53 d3 bb 95 13 7e 3a 57 5d 52 bc
       0.0036905245 -0.0064491527 0.0009692249 -0.012839637
0003f0 e3 e5 7c bb 21 fc 50 bc 7d df 2c 3c 30 77 e6 b7
       -0.0038589172 -0.012755425 0.010551331 -2.7473638e-05

action_model._discrete_distribution.branches.1.bias f4 [3]
000000 70 1d 2d bb 7b fe 13 bb ad d8 aa 3b
       -0.0026415251 -0.0022582102 0.005213818
