results/speedBoat/boat/boat-143719.onnx (onnx, 340257 bytes, 11 tensors)

discrete_act_size_vector f4 [1, 3]
2.0 3.0 2.0
00000000: 0000 0040 0000 4040 0000 0040

network_body._body_endoder.seq_layers.0.weight f4 [256, 58]
0.12022408 -0.14948764 0.047588795 0.10422218 0.076123856 -0.10738984 -0.007194182 0.13218622
-0.13098128 0.025627153 0.09253476 -0.006554287 -0.08097247 -0.056495838 0.09373277 -0.07512734
-0.02452204 -0.15311837 0.12424837 0.08504083 0.029437387 0.13988271 0.036030304 0.118256345
0.103361584 0.037911806 -0.057888668 -0.0642735 -0.16144267 0.0026603478 0.26585892 -0.11596523
0.15614387 -0.0055110566 -0.12171356 0.06473272 -0.12723522 0.04759316 -0.026927732 0.028849168
0.20542641 0.12421689 -0.20995313 -0.052150514 0.24307042 0.041891806 0.01812047 -0.16424128
-0.07446598 0.07779654 0.2795574 -0.09862356 -0.10380588 -0.005710038 -0.118399136 0.12328071
0.16720654 0.18067993 -0.15898709 -0.11291291 0.04673522 0.10186236 0.05628332 0.075047754
-0.044185665 -0.08552153 0.064172015 -0.070459686 0.07851922 -0.032886427 0.07551829 -0.030831773
-0.14432503 -0.1563705 -0.07459234 0.17645696 0.00877481 -0.26293617 -0.010067239 0.14833665
0.08667052 -0.28639355 0.1752 -0.071272165 -0.047485035 -0.14924005 0.001110779 -0.1414355
-0.092127435 -0.05953005 -0.013710863 0.1364422 -0.072502926 0.08710077 0.017822461 0.20493563
0.10409486 0.15173754 0.008003242 0.10921155 0.07227175 0.009743238 -0.20625784 0.2332465
-0.105046794 -0.004874347 0.08312335 -0.041503314 0.09963452 0.06295966 0.0575204 -0.03781903
-0.17534618 -0.08785112 -0.13065982 -0.1314641 0.033558264 0.33352703 -0.1630621 -0.0038935735
0.23011138 -0.0008368646 -0.23379852 -0.11847372 0.06270281 0.31367478 -0.19094594 -0.09786487
-0.1486745 -0.07122265 0.20209593 0.13284464 -0.2005455 -0.123904884 0.0541079 -0.16536665
0.07692419 0.0027611903 0.035438787 -0.05586006 -0.18042734 -0.026976261 -0.05196175 0.0068868888
-0.0050051063 0.09111815 -0.2584153 0.044142455 0.16355802 0.0036128676 0.34076405 0.08971161
0.017905876 0.0417199 -0.013581784 -0.19471174 0.115720384 -0.034586817 0.0032025361 0.09564382
0.1439067 -0.0015302004 -0.011203821 -0.14250289 0.09790783 0.033870216 -0.04712768 0.13042863
-0.043051504 0.22612172 -0.042161252 0.013746583 0.010850973 0.11827154 0.059861816 0.17365697
0.14683911 -0.049692955 0.15521573 -0.113576934 0.019066375 0.011096397 0.11378609 0.2795716
-0.0500638 -0.2329243 -0.0642931 0.050645735 0.15774229 0.18935688 -0.2565303 -0.11595036
-0.026797941 0.11818942 0.020861773 -0.018874848 0.16039373 0.1579781 0.018762007 -0.11037616
0.12032127 -0.17819497 0.013230739 -0.1328887 -0.110639185 0.050545223 -0.041641448 -0.16308045
-0.07660696 -0.06419321 0.11209067 0.018430483 0.13473667 0.08058321 0.13223076 0.042553373
0.20423542 0.13212997 0.1455377 -0.14979784 0.043880403 -0.017518062 -0.08739471 0.05091697
-0.1733092 0.16590562 0.08503157 0.14851183 -0.17289512 0.04240606 0.23322505 -0.2870341
0.053393245 0.023525797 0.1490309 0.005443305 -0.06454961 0.09485437 0.05453723 -0.038310815
0.05950822 -0.087614655 0.08932489 0.08481141 0.061814003 0.108659856 -0.11804305 -0.002726184
0.24177094 -0.029883977 0.27963087 0.00891521 -0.25843057 -0.20060848 0.15411094 -0.011640993
00000000: 0b38 f63d 4a13 19be 78ec 423d 7072 d53d
00000010: d3e6 9b3d 34ef dbbd 2cbd ebbb d35b 073e
00000020: f51f 06be 09f0 d13c dd82 bd3d 58c5 d6bb
00000030: e5d4 a5bd 2e68 67bd f7f6 bf3d 5ddc 99bd
00000040: 72e2 c8bc 10cb 1cbe ee75 fe3d e329 ae3d
00000050: ad26 f13c 6a3d 0f3e 8394 133d 6230 f23d
00000060: 3daf d33d 6949 1b3d ab1c 6dbd d3a1 83bd
00000070: 3a51 25be 3b59 2e3b a91e 883e 2e7f edbd
00000080: 2ee4 1f3e 1896 b4bb f544 f9bd 9792 843d
00000090: f349 02be 0cf1 423d 8c97 dcbc 1755 ec3c
000000a0: 4d5b 523e 6d65 fe3d f4fd 56be c79b 55bd
000000b0: 74e7 783e be96 2b3d 6171 943c de2e 28be
000000c0: 9f81 98bd cb53 9f3d 2622 8f3e 26fb c9bd
000000d0: 2d98 d4bd 451b bbbb 3f7b f2bd 997a fc3d
000000e0: 3138 2b3e 2904 393e 83cd 22be e23e e7bd
000000f0: 6e6d 3f3d 379d d03d 5789 663d a3b2 993d
00000100: 07fc 34bd e925 afbd 9e6c 833d 2b4d 90bd
00000110: afce a03d ebb3 06bd 55a9 9a3d ea92 fcbc
00000120: f1c9 13be 971f 20be dec3 98bd 22b1 343e
00000130: 38c4 0f3c 929f 86be 10f1 24bc 90e5 173e
00000140: 5080 b13d 2da2 92be a167 333e 24f7 91bd
00000150: ab7f 42bd 62d2 18be 8f97 913a 78d4 10be
00000160: 4fad bcbd c8d5 73bd 87a3 60bc 81b7 0b3e
00000170: 6a7c 94bd e361 b23d 6900 923c a5da 513e
00000180: b02f d53d 1661 1b3e 0820 033c 4eaa df3d
00000190: 3603 943d 1aa2 1f3c 4135 53be 2cd8 6e3e
000001a0: c622 d7bd fcb8 9fbb 933c aa3d 61ff 29bd
000001b0: 2f0d cc3d fff0 803d 839a 6b3d 21e8 1abd
000001c0: f38d 33be 4aeb b3bd b0cb 05be 869e 06be
000001d0: 6474 093d 0ec4 aa3e c0f9 26be 532b 7fbb
000001e0: 51a2 6b3e 0861 5bba e168 6fbe 5aa2 f2bd
000001f0: 556a 803d fb99 a03e 5587 43be 616d c8bd
00000200: 213e 18be 2edd 91bd 3cf2 4e3e 6d08 083e
00000210: cd5b 4dbe d8c1 fdbd 3fa0 5d3d e055 29be
00000220: 6e8a 9d3d 16f5 343b 4328 113d 85cd 64bd
00000230: f2c1 38be 52fd dcbc d8d5 54bd 69ab e13b
00000240: e001 a4bb 279c ba3d 034f 84be b8ce 343d
00000250: c17b 273e dcc5 6c3b a078 ae3e b8ba b73d
00000260: 58af 923c 7ce2 2a3d 2286 5ebc 8462 47be
00000270: cffe ec3d e8aa 0dbd a4e1 513b e8e0 c33d
00000280: 475c 133e 0191 c8ba 3b90 37bc 47ec 11be
00000290: e683 c83d 7fbb 0a3d f408 41bd 158f 053e
000002a0: c656 30bd 748c 673e 47b1 2cbd 5939 613c
000002b0: 48c8 313c 5938 f23d aa31 753d 22d3 313e
000002c0: fe5c 163e d78a 4bbd dff0 1e3e 069b e8bd
000002d0: 1631 9c3c aacd 353c ae08 e93d 0224 8f3e
000002e0: b30f 4dbd b583 6ebe 1aac 83bd e771 4f3d
000002f0: 3287 213e c5e6 413e f157 83be 6277 edbd
00000300: 5b87 dbbc 4b0d f23d 4fe6 aa3c 6d9f 9abc
00000310: 413e 243e 03c5 213e c8b2 993c e50c e2bd
00000320: ff6a f63d be78 36be bec5 583c fa13 08be
00000330: cc96 e2bd 8208 4f3d 3990 2abd 90fe 26be
00000340: 1ce4 9cbd bb77 83bd cb8f e53d 86fb 963c
00000350: 69f8 093e cf08 a53d 8067 073e 724c 2e3d
00000360: 1723 513e 144d 073e d607 153e 9b64 19be
00000370: f0bb 333d 0a82 8fbc fffb b2bd 508e 503d
00000380: f877 31be 2ae3 293e 0825 ae3d 7c13 183e
00000390: 6b0b 31be fab1 2d3d 8cd2 6e3e 22f6 92be
000003a0: e0b2 5a3d 2cb9 c03c 8e9b 183e c05d b23b
000003b0: 9632 84bd 0243 c23d 6e62 5f3d cdeb 1cbd
000003c0: e4be 733d 506f b3bd f8ef b63d 9bb1 ad3d
000003d0: ae30 7d3d 0f89 de3d 8ec0 f1bd c7a9 32bb
000003e0: cd92 773e 3ecf f4bc c72b 8f3e 1a11 123c
000003f0: 0351 84be 4f6c 4dbe 42cf 1d3e ddb9 3ebc

network_body._body_endoder.seq_layers.0.bias f4 [256]
-0.0043783453 -0.017077308 0.004283703 0.009363097 -0.0076395487 -0.008726039 0.0042635812 -0.0009992502
-0.009295429 -0.0038444828 0.020148465 0.0021004966 0.00057375757 -0.009257814 -0.008041508 0.0050606476
-0.008323509 -0.0017017922 0.018179279 0.0076230643 0.010272339 0.027622523 0.0047848877 -0.0044865087
-0.0017669068 -0.0014972138 0.007649749 0.0025109777 0.0009727182 0.0034169937 -0.0070533766 -0.01884665
0.0067583276 -0.02060406 -0.016615676 -0.007228453 0.019672034 -0.003697721 -0.0063845417 0.0011567195
-0.008241048 -0.0077812052 0.029942222 -0.0134385405 -0.0070499573 0.014047375 -0.019500015 0.005188169
0.0056927227 0.012138437 -0.0050670286 -0.0034236042 0.0071012913 0.0004383899 -0.015208588 -0.009566881
-0.007989173 0.021489706 -0.0013180559 0.030441858 0.008985487 0.005965099 0.005148427 0.011683665
-0.0038444835 -0.011878454 -0.0039163553 -0.0050632292 -0.0013023183 -0.0062785 0.008104088 -0.0021346658
-0.012668325 -0.0067901206 0.002988849 0.010092733 -0.0012098206 0.02780222 0.0028308523 -0.010570737
-0.0058327457 -0.019523041 -0.0087692775 -0.007710305 0.004985186 -0.010641565 -0.0031958227 0.0067956303
-0.0022158683 0.018899968 -0.005362583 -0.0033080163 0.012512132 -0.008026059 -0.002616712 0.0030161347
-0.0150789 0.024787426 0.012330509 0.02791816 0.00044374992 0.008521662 0.0036576167 -0.015199935
0.009205084 0.011660402 0.0047216765 -0.0005026385 -0.00449933 -0.016838893 -0.0069510834 -0.013138339
0.00087727007 0.02383362 0.0012725304 -0.011648432 -0.0017055352 -0.004828272 -0.004207885 0.0006582784
-0.01592609 0.02474335 -0.00021816522 0.026256608 0.0002733148 0.0067608724 -0.0018634511 -0.0005381821
-0.0021792008 0.027829805 0.003104441 0.006185944 -0.0032269207 -0.011306168 0.0053533847 -0.012212898
0.008886225 -0.0036815777 -0.013654851 -0.0044118883 -0.0057810973 0.012942374 -0.01158232 -0.0092639625
-0.011667228 0.0128032295 -0.0022266046 -0.013011341 0.0020031726 0.0012416978 0.00028082624 0.0024650674
-0.012878577 -0.00024913307 0.003351528 0.0051576807 -0.014406653 -0.013103169 -0.004041146 -0.007911223
0.001869771 0.008902069 0.014852815 -0.014874903 -0.0010208505 -0.0014970195 0.00450423 -0.007882613
-0.0032957152 -0.0036788941 0.0058471 -0.0015890824 -0.017415551 -0.0012625055 -0.0060364353 -0.004643874
-0.0005713694 -0.001712198 0.0037839508 0.006640351 -0.0033701777 -0.007591692 0.00977699 0.0046993634
-0.014269386 0.0020932185 -0.0077080945 0.0016568978 -0.0013905115 -0.0027437443 -0.0048604095 -0.012953747
0.0023683347 0.002616801 0.002129672 0.00852203 -0.0010850703 0.013038242 0.00325636 0.023987032
-0.0019716516 -0.004278381 -0.0037100315 -0.015990136 0.0022868668 -0.0107577965 -0.004991144 -0.006286002
0.0069137076 0.0052462136 0.002912689 -0.021983948 0.02234238 0.02633846 0.020920355 -0.010950391
-0.012995666 0.005219657 -0.0008089351 -0.009551152 -0.00407817 0.010009992 0.008665867 -0.01174406
-0.002998013 -0.00861869 0.001472502 -0.011968016 0.0023934052 -0.0011915927 0.010522882 -0.010680985
-0.005344517 0.011605286 0.0123838 -0.0017075117 -0.0039128982 -0.0072919736 -0.0041957484 -0.012933245
-0.012055967 -0.014318239 0.009243206 -0.0026112236 0.012152378 0.009204961 -0.008320471 -0.002144444
-0.0069921943 0.003551739 -0.008281612 0.01016587 -0.009969271 -0.0045074276 0.009622611 0.0031245174
00000000: 3978 8fbb b6e5 8bbc 4e5e 8c3b ad67 193c
00000010: 2e55 fabb a9f7 0ebc 83b5 8b3b 46f9 82ba
00000020: db4b 18bc b8f3 7bbb 650e a53c 7ca8 093b
00000030: 3868 163a 16ae 17bc 87c0 03bc cad3 a53b
00000040: 545f 08bc ac0e dfba b6ec 943c e6ca f93b
00000050: 504d 283c a148 e23c 8cca 9c3b 9003 93bb
00000060: 8e97 e7ba 293e c4ba bfaa fa3b 378f 243b
00000070: 03fe 7e3a a4ef 5f3b 0320 e7bb 4a64 9abc
00000080: f674 dd3b d8c9 a8bc 991d 88bc a9dc ecbb
00000090: 3f27 a13c 7755 72bb 6b35 d1bb 119d 973a
000000a0: 7605 07bc 7bf9 febb 6449 f53c 532d 5cbc
000000b0: 5403 e7bb f626 663c 7fbe 9fbc 8401 aa3b
000000c0: 058a ba3b 4be0 463c 5109 a6bb 8c5e 60bb
000000d0: f3b1 e83b b2d7 e539 712d 79bc 68be 1cbc
000000e0: 05e5 02bc 2e0b b03c 9ec2 acba 3461 f93c
000000f0: dd37 133c e176 c33b 23b4 a83b d86c 3f3c
00000100: bbf3 7bbb d99d 42bc c554 80bb 72e9 a5bb
00000110: 8db2 aaba e0bb cdbb 02c7 043c c0e5 0bbb
00000120: ce8e 4fbc a97f debb 91e0 433b fe5b 253c
00000130: d892 9eba 7bc1 e33c d285 393b e230 2dbc
00000140: 9e20 bfbb c9ee 9fbc 04ad 0fbc baa6 fcbb
00000150: c55a a33b f559 2ebc 0271 51bb e1ad de3b
00000160: 1a38 11bb 1bd4 9a3c 9bb8 afbb 4ecb 58bb
00000170: afff 4c3c bb7f 03bc 247d 2bbb 58aa 453b
00000180: 7e0d 77bc 000f cb3c e705 4a3c a0b4 e43c
00000190: 1ba7 e839 719e 0b3c a0b4 6f3b 2609 79bc
000001a0: ecd0 163c 450b 3f3c 4bb8 9a3b 80c3 03ba
000001b0: 1e6f 93bb b8f1 89bc eac5 e3bb 3042 57bc
000001c0: 99f8 653a b93e c33c 09cb a63a 11d9 3ebc
000001d0: 448c dfba 7b36 9ebb 4ce2 89bb 5190 2c3a
000001e0: 6e77 82bc 91b2 ca3c 48c3 64b9 1918 d73c
000001f0: b14b 8f39 4f8a dd3b 0b3f f4ba ca14 0dba
00000200: ecd0 0ebb 55fb e33c e173 4b3b 76b3 ca3b
00000210: bf7a 53bb 813d 39bc 726b af3b 9b18 48bc
00000220: 8797 113c a046 71bb 99b8 5fbc 9a91 90bb
00000230: 5c6f bdbb 400c 543c c5c3 3dbc e0c7 17bc
00000240: e727 3fbc a3c4 513c 3aec 11bb 852d 55bc
00000250: a947 033b 77c0 a23a dc3b 9339 f88c 213b
00000260: ab00 53bc 139e 82b9 4fa5 5b3b c301 a93b
00000270: e209 6cbc adae 56bc 976b 84bb 139e 01bc
00000280: 1b13 f53a fcd9 113c 3959 733c ddb5 73bc
00000290: 0fce 85ba a437 c4ba 3898 933b 1326 01bc
000002a0: edfc 57bb 9a19 71bb 0899 bf3b c248 d0ba
000002b0: 0fab 8ebc a87a a5ba 4acd c5bb a32b 98bb
000002c0: f4c7 15ba d56b e0ba 29fc 773b 4d97 d93b
000002d0: 33de 5cbb bac3 f8bb ab2f 203c 1efd 993b
000002e0: 25ca 69bc 612e 093b 2f94 fcbb 442c d93a
000002f0: d341 b6ba 64d0 33bb 1244 9fbb f43b 54bc
00000300: 1036 1b3b a37e 2b3b f891 0b3b fc9f 0b3c
00000310: eb38 8eba 5a9e 553c a868 553b 7480 c43c
00000320: d336 01bb a931 8cbb 0024 73bb bffd 82bc
00000330: 42df 153b 7841 30bc c08c a3bb cffa cdbb
00000340: 628c e23b 6ee8 ab3b d0e2 3e3b ae17 b4bc
00000350: 5e07 b73c c1c3 d73c 2a61 ab3c 4569 33bc
00000360: c6eb 54bc a809 ab3b b70e 54ba 6f7c 1cbc
00000370: 2ba2 85bb f300 243c 48fb 0d3c 286a 40bc
00000380: 507a 44bb 6835 0dbc f800 c13a 7f15 44bc
00000390: adda 1c3b 372f 9cba 2b68 2c3c 4cff 2ebc
000003a0: 0f21 afbb 1924 3e3c 6ce5 4a3c 96ce dfba
000003b0: c537 80bb 82f1 eebb 7d7c 89bb f6e5 53bc
000003c0: 6486 45bc 0c97 6abc d170 173c 1021 2bbb
000003d0: c51a 473c 68d0 163c 9652 08bc cd89 0cbb
000003e0: c71e e5bb 4bc4 683b 99af 07bc c08e 263c
000003f0: 2756 23bc 0bb3 93bb 28a8 1d3c b4c4 4c3b

network_body._body_endoder.seq_layers.2.weight f4 [256, 256]
0.004392831 -0.01178337 0.14006357 -0.008089837 -0.006082579 0.046946835 0.020331547 -0.061290924
-0.06662044 -0.026692089 0.004745024 -0.06519452 -0.0054001883 -0.07708416 -0.035218824 -0.057490088
-0.087450355 0.007057164 0.051688384 -0.0040665916 -0.059758183 0.0010329547 0.025009021 -0.05406333
-0.0038834629 -0.034529652 -0.024488473 0.050056946 0.03932339 -0.08074101 0.038249765 -0.06766811
-0.009250255 -0.020237667 -0.14484915 -0.019265296 0.037463408 0.015113267 -0.017301 -0.056320604
0.078096636 -0.033937458 0.07893727 0.0036636316 0.093828596 0.032266114 0.030336509 0.06296781
0.07630672 -0.07425793 0.015491067 0.0011070587 0.1540243 -0.004677186 0.02800018 -0.08767793
-0.09065758 0.12421727 -0.105604716 -0.041342605 -0.05877134 0.014396642 -0.119343795 0.05955277
0.062285352 0.008403245 -0.110948145 -0.036117278 -0.0491274 -0.021469247 -0.06421681 0.04189162
0.027353816 -0.07365043 0.13590947 0.024741583 -0.04010244 0.03131625 -0.027440405 -0.018396528
0.022656782 -0.02999398 -0.037755992 -0.030018158 0.070148095 0.08292269 -0.07937426 0.04611397
-0.076899625 0.11969698 0.14012168 0.05804352 0.04281955 0.08934831 0.08089465 0.119874105
-0.054393683 -0.014369195 0.10994855 -0.06957534 0.06522133 -0.02294514 -0.046331745 -0.0102999415
0.013014626 -0.03177251 -0.03602007 0.013451504 0.043886174 -0.052415144 0.104010165 0.123312406
0.07808849 0.0061352476 0.018267732 -0.102535 -0.09752032 0.012575743 -0.04649134 0.04789267
-0.004958547 -0.004690893 0.0057984055 0.14433494 0.09841491 0.004898434 -0.02432037 -0.054886803
-0.05602909 -0.1219583 -0.038858254 0.057210784 0.007059162 0.06620545 0.019620538 0.06407296
0.079254664 -0.020799352 -0.11970104 -0.13033742 -0.045359958 -0.0100480225 -0.078925826 -0.026926138
0.055698197 -0.11967723 -0.022099642 0.041013002 0.18591203 -0.13555251 0.03785568 0.021307433
0.11462091 -0.045488823 -0.0029962237 0.026970424 -0.105933614 0.051584817 0.05067063 0.084144674
0.026414849 0.048118528 0.014094769 0.027193861 0.015818972 -0.0018130313 0.041781206 0.011905597
-0.058816943 -0.0648463 0.030027587 0.044620432 -0.09099383 0.023252048 0.0064260573 0.008585051
-0.043819364 -0.0105301095 -0.037608758 -0.08377243 -0.0885024 -0.0651732 -0.09107869 0.005999048
-0.021849792 0.058558688 0.03608856 -0.050385132 -0.06513797 0.083183505 -0.016754465 0.055494018
-0.0734147 0.010165967 -0.043044183 0.057752926 -0.053659976 0.058761496 -0.0013258195 0.13420789
-0.008616852 -0.043854926 -0.07658325 -0.19861175 0.08781636 0.0638385 -0.008206838 0.024615215
-0.0009267709 0.10019948 -0.0006667437 0.011957072 0.0818164 0.08761793 -0.027514588 -0.018521842
-0.07630423 -0.03307769 -0.009875564 0.08455603 0.079643585 0.1042366 -0.017437322 0.060499422
-0.079531975 -0.053670537 0.04078788 0.025141899 0.08418105 -0.057547007 0.016404813 0.038603257
-0.08503164 0.029966839 -0.004893052 -0.090076156 -0.04786123 0.06790585 -0.0015004933 -0.089107014
-0.11474303 -0.052881446 -0.050043043 -0.013847388 -0.02394756 -0.032510433 0.04268051 0.033518143
-0.081073426 -0.12023849 0.072487004 0.025589608 0.009887545 0.013757764 0.033100102 0.09707848
00000000: bdf1 8f3b 090f 41bc d36c 0f3e 3c8b 04bc
00000010: 5f50 c7bb 534b 403d 588e a63c 310c 7bbd
00000020: 4c70 88bd 5ea9 dabc 257c 9b3b b484 85bd
00000030: 10f4 b0bb 4dde 9dbd 9d41 10bd ba7a 6bbd
00000040: 2c19 b3bd c83f e73b 33b7 533d 0b41 85bb
00000050: ffc4 74bd 3564 873a b8df cc3c 8371 5dbd
00000060: b281 7ebb f76e 0dbd 0d9c c8bc 8308 4d3d
00000070: 9011 213d 8b5b a5bd c9ab 1c3d 9495 8abd
00000080: 628e 17bc 77c9 a5bc 5653 14be 41d2 9dbc
00000090: 3b73 193d a39d 773c d4ba 8dbc 6fb0 66bd
000000a0: 21f1 9f3d 0102 0bbd dda9 a13d 8a19 703b
000000b0: 3529 c03d 7929 043d 4584 f83c 44f5 803d
000000c0: b346 9c3d 8b14 98bd 3fce 7d3c ba1a 913a
000000d0: 8cb8 1d3e 1443 99bb a260 e53c 7d90 b3bd
000000e0: aeaa b9bd a065 fe3d 4947 d8bd dd56 29bd
000000f0: 37ba 70bd e5df 6b3c 856a f4bd 9bed 733d
00000100: ed1e 7f3d c4ad 093c c838 e3bd b6ef 13bd
00000110: d039 49bd 46e0 afbc 1a84 83bd 8c96 2b3d
00000120: 1c15 e03c 09d6 96bd da2b 0b3e dcae ca3c
00000130: 7542 24bd 7845 003d b3ca e0bc 51b4 96bc
00000140: b79a b93c efb5 f5bc 07a6 1abd a4e8 f5bc
00000150: cea9 8f3d 5fd3 a93d f98e a2bd 01e2 3c3d
00000160: 8d7d 9dbd b123 f53d 0f7c 0f3e 0bbf 6d3d
00000170: 8d63 2f3d 3ffc b63d 18ac a53d 8e80 f53d
00000180: e9cb 5ebd c66c 6bbc b52c e13d 847d 8ebd
00000190: c392 853d 72f7 bbbc 5bc6 3dbd 16c1 28bc
000001a0: 4c3b 553c e423 02bd c889 13bd b263 5c3c
000001b0: fdc1 333d 43b1 56bd 4803 d53d 378b fc3d
000001c0: dcec 9f3d 300a c93b 36a6 953c dffd d1bd
000001d0: bcb8 c7bd 7d0a 4e3c b46d 3ebd 1b2b 443d
000001e0: 4f7b a2bb 10b6 99bb 8d00 be3b 8acc 133e
000001f0: c28d c93d 0b83 a03b 833b c7bc fcd0 60bd
00000200: c27e 65bd 46c5 f9bd d529 1fbd db55 6a3d
00000210: 8b50 e73b b996 873d 40bb a03c af38 833d
00000220: 4550 a23d 6763 aabc d225 f5bd 2c77 05be
00000230: 5dcb 39bd 76a0 24bc dda3 a1bd 3494 dcbc
00000240: cb23 643d 5619 f5bd 4f0a b5bc 40fd 273d
00000250: b95f 3e3e 47ce 0abe 8f0e 1b3d ed8c ae3c
00000260: 5ebe ea3d 7d52 3abd 4b5c 44bb 14f1 dc3c
00000270: b9f3 d8bd 9a4a 533d 028c 4f3d 0b54 ac3d
00000280: f463 d83c ef17 453d bfed 663c a9c5 de3c
00000290: ca96 813c 3ca3 edba c522 2b3d b10f 433c
000002a0: 09ea 70bd 23ce 84bd 6afc f53c eac3 363d
000002b0: f95a babd 147b be3c ad91 d23b 50a8 0c3c
000002c0: ef7b 33bd 7b86 2cbc a40b 1abd e190 abbd
000002d0: bf40 b5bd 8779 85bd 7787 babd a993 c43b
000002e0: 56fe b2bc 3cdb 6f3d 99d1 133d a460 4ebd
000002f0: 0e67 85bd 1d5c aa3d a940 89bc b24d 633d
00000300: 725a 96bd 288f 263c 194f 30bd 558e 6c3d
00000310: 90ca 5bbd e5af 703d 1fc7 adba cb6d 093e
00000320: b22d 0dbc 39a1 33bd aed7 9cbd e160 4bbe
00000330: 10d9 b33d c2bd 823d f975 06bc d9a5 c93c
00000340: 8bf2 72ba 6335 cd3d 6ac8 2eba 98e7 433c
00000350: 5b8f a73d 0771 b33d 4666 e1bc 1ebb 97bc
00000360: 6445 9cbd 797c 07bd 1ecd 21bc b62b ad3d
00000370: 2d1c a33d 007a d53d b7d8 8ebc 3ece 773d
00000380: a9e1 a2bd a3d5 5bbd 3111 273d 62f6 cd3c
00000390: 1d67 ac3d 69b6 6bbd 6363 863c 731e 1e3d
000003a0: 1225 aebd 047d f53c e555 a0bb d979 b8bd
000003b0: 230a 44bd 3912 8b3d 33ac c4ba bd7d b6bd
000003c0: 65fe eabd 379a 58bd eff9 4cbd 28e0 62bc
000003d0: ac2d c4bc a929 05bd c2d1 2e3d 524a 093d
000003e0: d309 a6bd 993f f6bd 1174 943d 4ca1 d13c
000003f0: 5fff 213c 3f68 613c f993 073d 15d1 c63d

network_body._body_endoder.seq_layers.2.bias f4 [256]
0.0035989562 -0.010986036 0.0052994266 -0.00989732 -0.0044640223 -0.0014835733 -0.0049625053 -0.014889805
-0.0014202988 -0.0062578674 -0.0055177175 -0.0082397135 -0.005574054 -0.006147871 0.020173764 -0.006330905
-0.016608763 -0.0015081032 -0.0021021888 0.00092992675 -0.006975492 0.0020262026 0.0010693196 0.0043207537
-0.0034667985 0.006975362 0.008321204 -0.011674059 -0.002316939 0.0069337925 -0.0112113245 -0.008993932
-7.548567e-05 -0.016700713 -0.012186012 0.0016113188 0.0065806783 0.008776503 -0.010112151 0.008312613
-0.014152859 -0.0070027267 -0.007200199 -0.009698202 -0.01330603 0.0071715554 0.013454691 -0.0010952401
0.0061214124 0.0050824853 -0.011899065 -0.0054935752 0.017644512 -0.012357596 -0.010008476 0.0010176824
-0.0009184492 -0.012842529 -0.004669763 0.009368491 -0.013073062 0.00040465794 -0.001270175 0.0100854905
0.01655 -0.00011409486 -0.01115069 -0.0021495346 -0.003995438 -0.012357118 -0.007849154 0.0021394694
-0.014234813 0.005697687 -0.002549026 -0.015700908 0.0008268799 -0.005408368 -0.008042119 -0.011353571
0.0026765184 -0.0059675304 -0.0045401226 -0.0072497665 -0.0037950396 -0.0027939633 0.013467889 -0.004354207
-0.009214896 -0.0100565925 -0.001939501 0.006722874 0.0007314099 0.006322855 -0.0033155195 0.019981725
0.0013121787 -0.009767576 0.0029121528 0.0022990692 0.008024301 -0.0053974567 0.017370015 -0.009600286
-0.0075546284 -0.00021985362 -0.011570461 -0.012856915 0.010376122 -0.0042062625 -0.0028032898 0.0020493465
0.017261311 0.0037312487 -0.0010540773 -0.0042730477 -0.0014457089 -0.0086634485 -0.001012648 -0.0015989084
-0.0022827152 -0.013461421 -0.0026295753 -0.012395897 -0.019114124 -0.0037967379 -0.0038312983 -0.001031021
-0.001976531 0.0032158832 0.008802554 -0.014210452 0.008216439 -0.0019489233 0.009939095 0.019421848
-0.0052257217 -0.008485196 -0.005372236 0.0057926592 -0.0014503165 -0.0018167315 0.016318252 -0.005722781
-0.01357799 -0.009104857 0.0034992478 -0.004870383 -0.006406594 0.00016467618 -0.0019447721 -0.008542266
0.018843094 -0.008187749 -0.003811743 -0.017640607 -0.008595007 0.022401115 -0.014733488 0.0038944464
-0.013173004 0.0023046695 -0.001258464 0.0058790203 0.0055553387 -0.015309741 0.0024729955 -0.008749304
0.0018664418 0.0012806852 -0.012398019 0.003143988 0.0066632805 -0.0012697068 0.010083798 0.00039394505
-0.010609262 -0.012423413 -0.014816667 0.0048525897 -0.016138572 -0.013442646 0.021187121 -0.015256215
0.0014002187 0.0056301467 -0.0030600696 0.006906606 -0.008785189 -0.01435218 -0.0056823026 -0.0004563804
-0.010809136 -0.0023040383 -0.009897072 -0.008642793 0.005556066 0.0012616852 -0.00533415 -0.008988048
-0.008350582 -0.013735965 -0.017805487 -0.010306029 -0.009310385 0.0018865243 -0.009368521 0.005167785
-0.0021127681 0.0087119555 -0.002914269 0.011230966 -0.0055840905 -0.017625578 -0.011862562 -0.0040453663
-0.013338243 -0.0039061296 -0.008276517 0.018336272 -0.010195123 -0.0022471074 -0.013558344 -0.0022658953
-0.00011054453 0.0029580735 -0.0063151163 -0.0065187425 0.0073205684 0.019628316 0.002698717 0.0047634155
-0.011691137 -0.014325559 0.011678131 -0.01026297 -0.0042734067 -0.0017061994 1.31230845e-05 -0.0031084244
-0.01697354 -0.0074278642 -0.003219108 0.021308823 0.004612594 -0.0070023746 -0.01480611 -0.011229699
-0.008518857 -0.0078109945 -0.016384598 0.015308942 -0.009999345 0.00015471411 -0.0063714115 0.0023352779
00000000: 77dc 6b3b c6fe 33bc d0a6 ad3b 5e28 22bc
00000010: ef46 92bb 7674 c2ba 839c a2bb 5ef4 73bc
00000020: 5229 baba cc0e cdbb f8cd b4bb ddff 06bc
00000030: 8ea6 b6bb 1474 c9bb 7343 a53c 7b73 cfbb
00000040: 1a0f 88bc 8cab c5ba e0c4 09bb 54c6 733a
00000050: ab92 e4bb 0aca 043b 6928 8c3a 1c95 8d3b
00000060: 3a33 63bb 9491 e43b a955 083c 8d44 3fbc
00000070: c9d7 17bb de34 e33b b4af 37bc 495b 13bc
00000080: 0f4e 9eb8 efcf 88bc d7a7 47bc e332 d33a
00000090: bba2 d73b 52cb 0f3c 6fad 25bc a031 083c
000000a0: 65e1 67bc 2177 e5bb a6ef ebbb 35e5 1ebc
000000b0: 8901 5abc 5eff ea3b 1071 5c3c 298e 8fba
000000c0: 2196 c83b fa8a a63b 4cf4 42bc 7303 b4bb
000000d0: 398b 903c 8477 4abc 97fa 23bc c163 853a
000000e0: 15c4 70ba 7969 52bc d004 99bb 4d7e 193c
000000f0: 6530 56bc 4528 d439 007c a6ba 9d3d 253c
00000100: de93 873c 3646 efb8 62b1 36bc 35df 0cbb
00000110: 2aec 82bb 8275 4abc bd99 00bc 5736 0c3b
00000120: 2239 69bc aab3 ba3b 8f0d 27bb 319f 80bc
00000130: f9c2 583a ae38 b1bb 18c3 03bc 5404 3abc
00000140: 8768 2f3b 468b c3bb 4fc5 94bb 738f edbb
00000150: 33b6 78bb ed1a 37bb 6ca8 5c3c bcad 8ebb
00000160: 13fa 16bc 68c4 24bc db36 feba 8e4b dc3b
00000170: 16bc 3f3a f42f cf3b 3049 59bb b7b0 a33c
00000180: 69fd ab3a 2f08 20bc d1d9 3e3b fbab 163b
00000190: 5c78 033c 26dd b0bb 904b 8e3c 854a 1dbc
000001a0: d18c f7bb 8288 66b9 0892 3dbc cfa5 52bc
000001b0: 9c00 2a3c b0d4 89bb 66b7 37bb 544e 063b
000001c0: 9867 8d3c f787 743b f728 8aba ec04 8cbb
000001d0: f17d bdba 23f1 0dbc d4ba 84ba 7792 d1ba
000001e0: 9b99 15bb 4b8d 5cbc f454 2cbb 2918 4bbc
000001f0: 3995 9cbc b1d2 78bb 8516 7bbb 5323 87ba
00000200: b088 01bb 91c1 523b 9638 103c f5d2 68bc
00000210: 3e9e 063c 0473 ffba 96d7 223c 911a 9f3c
00000220: 883c abbb 7e05 0bbc 9509 b0bb 59d0 bd3b
00000230: 8c18 beba 651f eeba dbad 853c 2b86 bbbb
00000240: 3876 5ebc 8a2c 15bc a353 653b bc97 9fbb
00000250: 68ee d1bb edac 2c39 b9e7 feba dcf4 0bbc
00000260: d55c 9a3c e925 06bc 70ce 79bb 0983 90bc
00000270: 12d2 0cbc 8b82 b73c ba64 71bc f839 7f3b
00000280: 95d3 57bc f009 173b 0bf3 a4ba cca4 c03b
00000290: 8f09 b63b b5d5 7abc fb11 223b 3e59 0fbc
000002a0: 65a3 f43a aadc a73a 1021 4bbc 5e0b 4e3b
000002b0: a657 da3b 4a6c a6ba 8436 253c 698a ce39
000002c0: 78d2 2dbc 928b 4bbc 9bc1 72bc 7902 9f3b
000002d0: 0a35 84bc 8b3e 5cbc 9d90 ad3c 34f5 79bc
000002e0: 8b87 b73a 187d b83b 738b 48bb cf50 e23b
000002f0: c1ef 0fbc 6825 6bbc 9c32 babb 5746 efb9
00000300: cd18 31bc 59ff 16bb 5427 22bc 809a 0dbc
00000310: a90f b63b 215f a53a 18ca aebb 9b42 13bc
00000320: e1d0 08bc d00c 61bc d0dc 91bc 9eda 28bc
00000330: 968a 18bc 4045 f73a 6d7e 19bc 8656 a93b
00000340: 5e76 0abb 97bc 0e3c 52fd 3ebb 1602 383c
00000350: bffa b6bb 8463 90bc 315b 42bc fe8e 84bb
00000360: a588 5abc fbfd 7fbb 3a9a 07bc f335 963c
00000370: 7209 27bc 3544 13bb d123 5ebc 6a7f 14bb
00000380: 25d4 e7b8 3ddc 413b 09ef cebb 2d9b d5bb
00000390: 61e1 ef3b 90cb a03c f5dc 303b 6d16 9c3b
000003a0: 2f8c 3fbc c0b5 6abc a255 3f3c 0426 28bc
000003b0: ef07 8cbb 8da2 dfba 382b 5c37 b5b6 4bbb
000003c0: 180c 8bbc 7165 f3bb acf7 52bb d78f ae3c
000003d0: 3e25 973b 2d74 e5bb 5495 72bc c5fc 37bc
000003e0: ad92 0bbc 5ff3 ffbb fe38 86bc 5bd2 7a3c
000003f0: 4bd4 23bc c13a 2239 46c7 d0bb 760b 193b

action_model._discrete_distribution.branches.0.weight f4 [2, 256]
-0.008206955 0.009980056 -0.006228643 0.02733863 0.009005149 0.00857761 0.0071896976 0.009969395
0.0023825003 0.018212643 0.010481641 0.011207388 -0.0014946723 0.01298402 -0.022286346 0.00404365
0.02050809 -0.0011064223 0.01498584 -0.001042675 -0.0063365093 -0.007946414 -0.007312766 0.0060120183
0.00821579 0.01163477 -0.011259933 0.02150573 0.00065368175 0.0056100963 0.01116045 0.0021739872
0.004195761 0.011621583 0.014964651 0.0016262985 0.0022615227 -0.007516048 0.012992501 0.0062390296
0.02454282 0.005264839 -0.0018963763 0.029387133 0.024706854 -0.009375677 -0.011904178 -0.0088997185
-0.010868732 -0.002711313 0.02349507 0.017586187 -0.016979914 0.009453113 0.023467604 -0.0030625802
-0.006095996 0.016531507 0.0062435702 -0.004474227 0.00896888 0.0025899569 0.005715796 0.0022275895
-0.0075994176 0.0023763066 0.015714267 0.001285502 0.0061797486 0.009892269 0.009229635 -0.0019194264
0.019566033 -0.0025677555 -0.004239443 0.020711465 0.004956592 0.020476429 0.02248883 0.011661323
-0.0054737073 0.0029120035 0.0014942397 0.0042045414 0.0057972833 0.015104822 -0.0022655446 0.007154076
0.016209947 0.009143867 0.0032331832 -0.0064693326 0.0003639274 0.005781382 0.00072813325 -0.0050113034
-0.001372888 0.011788773 -0.0022646945 0.0009133087 -0.014385076 -0.0015079629 -0.007940327 0.0101699885
0.004743524 0.0050637373 0.012714843 0.019996863 -0.012729377 0.00914315 0.0014295123 -0.0041150902
-0.00382366 0.0027250652 -0.001088772 0.009134139 0.003195806 0.01482416 -0.0011828367 -0.0001639615
-0.00021017353 0.01617314 0.010013328 0.02505022 0.015303651 0.0015706109 0.02252828 -0.004684485
0.0024134659 -0.00894406 0.0010861002 0.026260998 0.0038819022 0.00592688 -0.0006419181 -0.013819
0.0049711443 0.0031041894 0.005199212 -0.0032253738 -0.008601162 -0.00084927387 -0.021380935 0.01102862
0.006233392 0.0022787375 0.00044677436 0.005747199 0.0023295386 0.011864413 0.00092564034 -0.0011335863
-0.0060043004 0.0038200156 0.0015907205 0.019124525 0.010783373 -0.0170281 0.025386846 -0.007683865
0.009842093 -0.010245318 0.012090658 -0.009459297 -0.015766537 0.017475335 -0.0017241027 0.0055647627
-0.00072777265 -0.0010144094 -0.0010052273 -0.0029597485 -0.0041798004 -0.0031985505 -0.015761405 0.0018106293
0.009140403 0.013178659 0.019774292 -0.0021349057 0.019225826 0.02712944 -0.029788973 0.024699286
-0.001033215 -0.019885937 0.0019187202 -0.006271909 0.0055484255 0.006364358 0.00869933 -0.0025664296
0.0071116122 0.0020807623 0.009427266 0.0040946854 -0.0077694044 0.0048085595 0.00427968 0.010008468
0.00312699 0.016581448 0.011019767 0.01958468 0.0032118007 0.0009397961 0.015904745 -0.006413763
-0.008444272 -0.00094908883 0.0062455353 -0.012378962 0.004366087 0.017905982 0.0029679793 0.0020889405
0.011703964 0.008218938 0.005236009 -0.017421125 0.0018356765 0.00084102654 0.0071022976 0.0035844282
0.0058660684 -0.010401237 0.0027381568 0.007109167 0.003380289 -0.019230293 -0.0020475287 0.00027994488
0.029065808 0.021290142 -0.011145829 0.0040201517 0.013399219 0.020817924 -0.0032441043 0.00048717222
0.002824811 0.0041059684 0.00079818617 -0.011493943 -0.009136898 0.003907776 0.007892022 0.022600595
0.006246719 0.021771291 0.015398122 -0.026406636 0.0064978753 0.008901889 0.0058959695 -0.0019347348
00000000: 7776 06bc 6483 233c a519 ccbb 43f5 df3c
00000010: 558a 133c 1b89 0c3c 8e97 eb3b ac56 233c
00000020: b923 1c3b ae32 953c 30bb 2b3c 319f 373c
00000030: e1e8 c3ba edba 543c db91 b6bc 9880 843b
00000040: 9500 a83c 5f05 91ba 2b87 753c 5eaa 88ba
00000050: 7ea2 cfbb ad31 02bc ed9f efbb 7700 c53b
00000060: 859b 063c c39f 3e3c 957b 38bc c92c b03c
00000070: d75b 2b3a e6d4 b73b 52da 363c 7479 0e3b
00000080: 987c 893b 7468 3e3c 4c2e 753c 8629 d53a
00000090: 0e36 143b 2e49 f6bb 80de 543c c670 cc3b
000000a0: 060e c93c ac84 ac3b d48f f8ba 49bd f03c
000000b0: 0766 ca3c 719c 19bc be09 43bc 20d0 11bc
000000c0: c412 32bc 49b0 31bb bc78 c03c e810 903c
000000d0: 7619 8bbc 3be1 1a3c 223f c03c 92b5 48bb
000000e0: ecc0 c7bb 156d 873c dd96 cc3b 899c 92bb
000000f0: 36f2 123c 44bc 293b 924b bb3b c0fc 113b
00000100: 8904 f9bb cfbb 1b3b 35bb 803c 4a7e a83a
00000110: 7d7f ca3b 2f13 223c e537 173c 4395 fbba
00000120: f248 a03c ca47 28bb 07eb 8abb 17ab a93c
00000130: e86a a23b 2fbe a73c 7f3a b83c 220f 3f3c
00000140: c95c b3bb 50d7 3e3b 5dda c33a 40c6 893b
00000150: 23f7 bd3b 377a 773c 8879 14bb bd6c ea3b
00000160: b9ca 843c 28d0 153c d0e3 533b b2fc d3bb
00000170: 82cd be39 bf71 bd3b 32e0 3e3a dc35 a4bb
00000180: 7af2 b3ba b325 413c 456b 14bb 1c6b 6f3a
00000190: 62af 6bbc d7a6 c5ba 2518 02bc 06a0 263c
000001a0: 906f 9b3b b5ed a53b eb51 503c 76d0 a33c
000001b0: e08e 50bc 27cd 153c 795e bb3a e1d7 86bb
000001c0: 5f96 7abb 0297 323b 20b5 8eba 5ba7 153c
000001d0: ba70 513b 09e1 723c 6a09 9bba 14ed 2bb9
000001e0: 0762 5cb9 887d 843c f10e 243c 1e36 cd3c
000001f0: 2abc 7a3c f5dc cd3a 3a8d b83c 4f80 99bb
00000200: 3d2b 1e3b 1b8a 12bc 7a5b 8e3a 4e21 d73c
00000210: 8367 7e3b 4636 c23b 6546 28ba 1669 62bc
00000220: fbe4 a23b a86f 4b3b 275e aa3b cb60 53bb
00000230: e3eb 0cbc cea1 5eba 1227 afbc 63b1 343c
00000240: 7b41 cc3b df56 153b 0a3d ea39 0053 bc3b
00000250: 2cab 183b f462 423c aca6 723a d894 94ba
00000260: b9bf c4bb 3a59 7a3b b97f d03a 09ab 9c3c
00000270: bfac 303c 847e 8bbc 13f8 cf3c eec8 fbbb
00000280: bb40 213c fadb 27bc e517 463c 2bfb 1abc
00000290: d328 81bc 6f28 8f3c 49fb e1ba 9d58 b63b
000002a0: ffc7 3eba eef5 84ba d5c1 83ba 57f8 41bb
000002b0: b5f6 88bb c69e 51bb 101e 81bc a352 ed3a
000002c0: a1c1 153c 4deb 573c b2fd a13c c6e9 0bbb
000002d0: 7b7f 9d3c 8f3e de3c 0108 f4bc 2856 ca3c
000002e0: f16c 87ba d5e7 a2bc 917d fb3a 9684 cdbb
000002f0: 91cf b53b 1b8c d03b a287 0e3c 8b31 28bb
00000300: 8708 e93b 665d 083b d274 1a3c b62c 863b
00000310: 7d96 febb 1f91 9d3b 8f3c 8c3b 8ffa 233c
00000320: 30ee 4c3b d1d5 873c 418c 343c 0d70 a03c
00000330: 137d 523b a65c 763a ab4a 823c 8b2a d2bb
00000340: d859 0abc 46cc 78ba 59a7 cc3b 21d1 4abc
00000350: 6411 8f3b 91af 923c 6e82 423b 9be6 083b
00000360: fcc1 3f3c b9a8 063c d492 ab3b bfb6 8ebc
00000370: 159b f03a 5678 5c3a 64ba e83b bae8 6a3b
00000380: 2638 c03b f369 2abc a672 333b 04f4 e83b
00000390: d787 5d3b d988 9dbc d52f 06bb 91c5 9239
000003a0: 6b1b ee3c aa68 ae3c ff9c 36bc 7abb 833b
000003b0: 6688 5b3c 5a8a aa3c 0a9b 54bb 266b ff39
000003c0: 7720 393b 5c8b 863b 5e3d 513a 1751 3cbc
000003d0: eeb2 15bc cd0c 803b 8a4d 013c e224 b93c
000003e0: 47b1 cc3b b559 b23c 6848 7c3c bb52 d8bc
000003f0: 21ec d43b 3bd9 113c fa32 c13b ed96 fdba

action_model._discrete_distribution.branches.0.bias f4 [2]
-0.01067234 0.01067234
00000000: 0adb 2ebc 0adb 2e3c

action_model._discrete_distribution.branches.1.weight f4 [3, 256]
-0.0012771641 -0.006292696 0.0016247161 -0.022831108 0.0022647216 0.0018867764 0.0022085353 -0.00923141
0.0067000794 0.005160087 -0.012155403 -0.003638872 0.0025226793 -0.0022667183 0.002288454 0.004787316
-0.01575359 -0.013966987 -0.015696784 0.0020081662 -0.004059521 -0.008767005 0.0036085923 0.011608969
-0.0012540155 0.0037888777 -0.0044035693 -0.017633049 0.0038850459 0.007249083 -0.00862807 -0.004206664
0.0097650215 -0.021775024 -0.018929938 0.008801849 -0.003760737 0.0070606107 -0.006798141 -0.006673753
-0.016199552 0.00057411153 -0.00016164887 -0.014726345 -0.003171043 0.0028774603 -0.0022877653 0.011805857
-0.0026273532 0.0050872397 -0.009159087 -0.012651871 -0.00076557655 -0.011086905 -0.013442815 -0.004112805
0.0067290287 -0.0068734307 -0.0013721595 0.0032558795 -0.011738241 0.0003708746 0.007907371 -0.0014831589
0.0031923298 0.0017139494 -0.0032663257 0.010942472 0.0014734032 -0.007874606 -0.0016447359 0.013457694
-0.007566009 0.010689382 -0.0006421843 -0.0090581905 0.008743425 -0.002000124 -0.009321931 -0.014866943
-0.0045443024 0.0014190365 -0.0006011799 -0.001114973 0.0019555374 -0.0050674863 -0.0074832314 -0.0058698445
-0.018580167 -0.009444852 -0.003131326 0.002467238 0.006393999 -0.019738145 -0.013191747 0.009508845
0.0038712863 -0.010293467 0.0034708767 -0.0020882785 0.009950543 -0.008013144 0.004268099 -0.0053323065
-0.001341271 0.007810206 -0.0063322405 0.008138214 0.0049262396 -0.0026845783 -0.005756207 0.009864478
-0.0012411398 0.005541011 0.011062773 0.005180197 0.012290303 -0.009386177 -0.00030296342 0.0028257587
0.00052444346 -0.0007076264 -0.008786155 -0.007977145 -0.0125804655 0.0011566217 -0.0031178934 -0.011608577
0.008378189 0.00365657 0.00013018954 -0.020735478 -0.0051564537 -0.005358524 0.00207728 0.01218057
-0.00852631 -0.0046350546 -0.0026868323 -0.005998912 -0.0052451803 -0.00029352578 0.009010398 0.0037193415
-0.006946075 0.0046921554 -0.006484816 -0.010836877 -0.003402264 0.0026015565 -0.005178428 -0.0068554017
0.0026420972 -0.013168977 -0.0012297881 -0.008593454 -0.008779164 0.0044869664 -0.011296248 0.005939173
-0.0011530353 -0.005029292 0.001650166 0.0057187686 -0.0013512473 -0.015909942 0.0053423545 0.004040399
0.0039672507 0.017697502 0.00085467595 0.0071636923 -0.013649683 0.010633416 0.0068674637 0.0032667562
0.00025648612 -0.006382295 -0.011808 -0.009486033 -0.0091066705 -0.006890842 0.0067442106 -0.013217542
0.008177347 0.0035173048 0.001418206 0.0022166076 0.0014215771 -0.00930439 -0.011858952 0.0077086026
-0.0038703037 0.0028333354 0.00023221486 -0.00027675304 0.0031251416 -0.007974515 0.0011873438 -0.0028177383
0.0064671338 -0.0045424206 0.001217991 -0.006111241 -0.00788402 -0.0009107571 -0.010510557 0.0013721441
-0.0030926904 -0.0017600217 0.0033448862 -0.0056848577 0.006658649 -0.010726835 0.0038525448 -0.0153892925
-0.006117497 -0.012341289 -0.00803499 0.007244988 0.00023743972 -0.0056733727 -0.004765668 0.009455447
-0.0074305083 3.222503e-05 0.0034390732 -0.004122146 0.0153267495 0.014184046 0.008709665 0.009696577
-0.022771547 -0.0115838405 0.0122484155 0.0012740325 -0.00955652 0.01385586 -0.009514513 0.0025384459
-0.016302785 -0.013401418 0.0039618965 -0.0016327716 -0.0013281336 -0.007895624 -0.013401814 0.0033159195
0.0050818324 -0.009717509 -0.0076510273 0.0073710983 -0.0004898154 -0.0026582584 -0.0045984825 -0.0032351587
00000000: 8466 a7ba f632 cebb 6df4 d43a 4e08 bbbc
00000010: b96b 143b b64d f73a 13bd 103b 573f 17bc
00000020: 578c db3b f215 a93b 7527 47bc 247a 6ebb
00000030: 8953 253b 398d 14bb e3f9 153b ebde 9c3b
00000040: ac0d 81bc cad5 64bc 8b96 80bc 709b 033b
00000050: bb05 85bb 7ca3 0fbc 227e 6c3b 8c33 3e3c
00000060: c75d a4ba d24e 783b d14b 90bb 2f73 90bc
00000070: 419c 7e3b b789 ed3b c05c 0dbc 0ed8 89bb
00000080: 78fd 1f3c 8961 b2bc f512 9bbc a135 103c
00000090: b276 76bb b25c e73b f1c2 debb 7faf dabb
000000a0: ecb4 84bc f97f 163a 4a80 29b9 c546 71bc
000000b0: 46d1 4fbb c693 3c3b 55ee 15bb 5a6d 413c
000000c0: ac2f 2cbb dcb2 a63b ff0f 16bc cb49 4fbc
000000d0: f9b0 48ba daa5 35bc 413f 5cbc b5c4 86bb
000000e0: 2f7f dc3b 843a e1bb 08da b3ba 9860 553b
000000f0: c051 40bc f271 c239 eb8d 013c 8e66 c2ba
00000100: 6836 513b 99a6 e03a da0f 56bb 0e48 333c
00000110: 351f c13a 7e04 01bc 2e94 d7ba a97d 5c3c
00000120: 49ec f7bb 8522 2f3c 4258 28ba ce68 14bc
00000130: 9540 0f3c 8314 03bb 03bb 18bc 7a94 73bc
00000140: 5fe8 94bb f7fe b93a 8098 1dba 4924 92ba
00000150: 7928 003b 280d a6bb e535 f5bb d357 c0bb
00000160: 6f35 98bc 95be 1abc ef36 4dbb 63b1 213b
00000170: c084 d13b e4b1 a1bc 3222 58bc fdca 1b3c
00000180: 68b5 7d3b eea5 28bc a677 633b 80db 08bb
00000190: 9a07 233c 9049 03bc 69db 8b3b a1ba aebb
000001a0: 96cd afba c2ec ff3b af7e cfbb 2556 053c
000001b0: 4b6c a13b c0ef 2fbb 909e bcbb 9f9e 213c
000001c0: bead a2ba 5f91 b53b a240 353c a4be a93b
000001d0: 445d 493c 7bc8 19bc 10d7 9eb9 5d30 393b
000001e0: ce7a 093a 0180 39ba cef3 0fbc 92b2 02bc
000001f0: 4c1e 4ebc c999 973a 9255 4cbb e731 3ebc
00000200: ac44 093c 11a3 6f3b 7d83 0839 73dd a9bc
00000210: 78f7 a8bb 8f96 afbb fa22 083b 0391 473c
00000220: f0b1 0bbc a8e1 97bb 9115 30bb 8592 c4bb
00000230: c3df abbb 5de4 99b9 59a0 133c 32c0 733b
00000240: e69b e3bb a7c0 993b 947e d4bb 288d 31bc
00000250: 85f8 5ebb e07e 2a3b cdaf a9bb 47a3 e0bb
00000260: 0927 2d3b b1c2 57bc d730 a1ba 8fcb 0cbc
00000270: 7cd6 0fbc 6707 933b e613 39bc 659d c23b
00000280: 7221 97ba c2cc a4bb 624a d83a 8264 bb3b
00000290: 561c b1ba 9155 82bc eb0e af3b 5365 843b
000002a0: b6ff 813b 5afa 903c 550c 603a 68bd ea3b
000002b0: eca2 5fbc c737 2e3c 7608 e13b 1317 563b
000002c0: fc78 8639 9222 d1bb 5776 41bc 4e6b 1bbc
000002d0: 2534 15bc 93cc e1bb 8afe dc3b 648e 58bc
000002e0: 47fa 053c 9582 663b 19e3 b93a 8144 113b
000002f0: 3654 ba3a 7171 18bc 0d4c 42bc 7298 fc3b
00000300: eca4 7dbb 7baf 393b b47e 7339 2a19 91b9
00000310: 2dcf 4c3b 8aa7 02bc a6a0 9b3a cea9 38bb
00000320: 40ea d33b 96d8 94bb ffa4 9f3a ce40 c8bb
00000330: fa2b 01bc e0bf 6eba 7934 2cbc 84d9 b33a
00000340: bcae 4abb 87b0 e6ba e135 5b3b 0b48 babb
00000350: cc30 da3b 9bbf 2fbc fa7a 7c3b 5f23 7cbc
00000360: 4975 c8bb 1e33 4abc 31a5 03bc 5d67 ed3b
00000370: 3df9 7839 b3e7 b9bb 5229 9cbb 05eb 1a3c
00000380: 9f7b f3bb 5d29 0738 1362 613b 1113 87bb
00000390: 0c1d 7b3c 3364 683c fcb2 0e3c 64de 1e3c
000003a0: 658b babc 26ca 3dbc 94ad 483c 70fd a63a
000003b0: f392 1cbc b003 633c c3e2 1bbc 0e5c 263b
000003c0: 6b8d 85bc 9f91 5bbc ccd2 813b b902 d6ba
000003d0: c514 aeba a65c 01bc 4893 5bbc e64f 593b
000003e0: 8085 a63b 3036 1fbc 78b5 fabb 4189 f13b
000003f0: f466 00ba 2d36 2ebb deae 96bb f504 54bb

action_model._discrete_distribution.branches.1.bias f4 [3]
0.004526061 -0.0058516865 0.0018400237
00000000: 5a4f 943b 81bf bfbb f32c f13a

action_model._discrete_distribution.branches.2.weight f4 [2, 256]
-0.007380713 -0.001429546 0.00089230045 0.0011818717 -0.011417164 -0.012782472 -0.012041821 -0.003326936
0.00028039963 -0.013693688 -0.0053622294 -0.0015548673 -0.0018708372 0.007088396 -0.0065567503 0.005992146
0.00031978666 0.0037601427 0.0012943249 -0.0050510485 -0.009388972 -0.011391565 -0.00084304984 0.0070059095
0.004207911 -0.0058141183 0.0042999573 -0.009096416 0.012717693 -0.0042957957 0.007997636 0.0014607011
0.0035649184 -0.005223194 -0.0029508334 0.0001702126 0.0022871778 0.0031113708 -0.0037190404 -0.00947446
-0.0074241143 0.0027720192 -0.0002515993 0.001127209 -0.0010801962 0.014500871 0.004998648 0.0016366463
-0.013806581 -9.69128e-05 -0.0050118226 0.01579729 -0.00012092918 0.0011475274 -0.0061835754 0.0019433653
-0.003810963 0.0065841866 -0.005877805 -0.012129531 0.0063826116 0.0034878284 -0.0017369193 0.0010777054
-0.006996029 0.0057171104 -0.0022178667 -0.0039323475 -0.0036375222 0.001486286 -0.007551213 -0.0040222136
-0.0066740224 -0.010855223 0.0010876282 -0.0031871959 -0.009048886 -0.01165174 -0.0047547873 -0.0047788587
0.0011539371 0.0020847812 0.007039477 -0.009889512 -0.012895103 -0.0072564064 -0.0038752856 -0.011690721
-0.0015824492 0.0069970186 0.012243107 -0.0014965718 0.0070180288 -0.009601509 -0.0018616595 0.0026878407
0.0028388593 -0.004176927 -0.01105263 -0.0015981222 0.005258034 -0.006463535 0.005152544 -0.0119867455
-0.008437154 -0.0045828517 0.0028471842 0.004608549 -0.003757914 0.00025110474 0.0014720613 -0.0011796075
-0.012449689 -0.0054629114 0.00054978207 -0.0099881925 0.005150352 -0.002283024 -0.0009391477 -0.0022956282
0.003216553 -0.003427804 0.005630199 0.004620832 0.0048808097 0.0014141831 -0.004878568 -0.0036005753
-0.010452492 -0.0053776978 0.0010138039 -0.013139597 0.008874331 0.0012469148 -0.0009834665 0.0057806494
0.009052316 -0.0034873218 -0.0054317336 -0.0013365039 -0.0036109628 0.0020389748 0.0041620685 0.004727224
0.0017718527 -0.00306475 -0.005699713 -0.0058056973 0.002541359 0.007754305 -0.005080577 0.0018740009
-0.0066133435 0.0029891222 0.00081364316 0.0025886332 0.007908711 -0.016248632 -0.00023061821 0.0048550656
-0.009927246 -0.0063386597 -0.011632514 -0.00019700857 -0.010496757 -0.00036457094 0.0073370994 0.008182112
0.0013539119 -0.008518714 -0.0006780738 -0.0025625855 -0.010480508 0.0024735215 -0.00074674987 -0.0070712944
-0.00057109166 0.005197856 -0.00446012 0.009540708 0.006495416 -0.0020864746 0.0029559822 0.00058123365
-0.01286663 -0.0050880066 -0.011280268 -0.015285974 0.0027133226 -0.007240481 0.00896982 0.0007085037
-0.006784286 -0.0037392965 -0.00027190425 0.0012275047 0.0012592883 0.0031234478 0.008988582 -0.011781593
-0.010402109 -0.0037776881 0.006657147 -0.0042375145 0.00053947757 -0.0071103633 -0.0107882125 0.008648702
-0.0047259573 0.0045005716 -0.0014206171 -0.0007351677 0.0017098144 0.0049050255 -0.0038451168 -0.0030970597
-0.0012912146 0.008397601 0.010897994 0.0027687233 -0.0038243434 -0.00433988 -0.0026723794 -0.0041679842
-0.0011910636 0.0067672343 -0.0061793365 -0.0062043425 -0.004743236 -0.0029220823 -0.0038892434 -0.0008516116
-0.00438959 0.00639984 -0.0051739365 0.0045121876 -0.012516379 0.007644837 -0.00465527 0.0021165747
-0.0039481036 -0.0070670983 0.0015939375 -0.006266079 -0.0019496368 -0.0010472595 0.00677501 1.9600468e-05
-0.0041929875 0.0065342314 0.005155839 0.0012715587 0.0041441843 -0.004568021 -6.1016202e-05 -0.0019571902
00000000: e8d9 f1bb 9b5f bbba 45e9 693a 09e9 9a3a
00000010: 0e0f 3bbc 936d 51bc 0f4b 45bc b908 5abb
00000020: 9a02 9339 7e5b 60bc a4b5 afbb b0cc cbba
00000030: e136 f5ba c745 e83b 02da d6bb c459 c43b
00000040: 0aa9 a739 ba6c 763b 56a6 a93a 4483 a5bb
00000050: 34d4 19bc b0a3 3abc 1e00 5dba d491 e53b
00000060: 84e2 893b 5c84 bebb a8e6 8c3b 2209 15bc
00000070: df5d 503c bfc3 8cbb 8408 033c ff74 bf3a
00000080: 68a1 693b 5427 abbb c562 41bb 197b 3239
00000090: 7ae4 153b 24e8 4b3b 25bb 73bb c43a 1bbc
000000a0: fc45 f3bb c4aa 353b 16e9 83b9 dcbe 933a
000000b0: 5f95 8dba 1095 6d3c b3cb a33b bd84 d63a
000000c0: ff34 62bc aa3d cbb8 373a a4bb 5169 813c
000000d0: 5c9b fdb8 a168 963a 979f cabb 85b8 fe3a
000000e0: 59c1 79bb 29c0 d73b 9a9a c0bb f1ba 46bc
000000f0: 3a25 d13b 0d94 643b 57a9 e3ba cb41 8d3a
00000100: f23e e5bb 9956 bb3b a159 11bb ecda 80bb
00000110: 7f63 6ebb 7ccf c23a 2a70 f7bb c6cc 83bb
00000120: c2b1 dabb 1bda 31bc bf8e 8e3a 46e0 50bb
00000130: c741 14bc f1e6 3ebc 0cce 9bbb f997 9cbb
00000140: b43f 973a d3a0 083b 6aab e63b 9f07 22bc
00000150: fb45 53bc 26c7 edbb 81f8 7dbb 708a 3fbc
00000160: 2f6a cfba 3f47 e53b 5097 483c 9e28 c4ba
00000170: 7ef7 e53b a64f 1dbc ed02 f4ba 7c26 303b
00000180: 280c 3a3b 9ade 88bb 1716 35bc 1578 d1ba
00000190: 964b ac3b 10cc d3bb acd6 a83b 0e64 44bc
000001a0: fd3b 0abc bf2b 96bb d397 3a3b 5003 973b
000001b0: 5647 76bb b5a6 8339 2ef2 c03a 0f9d 9aba
000001c0: c8f9 4bbc 3902 b3bb 401f 103a 84a5 23bc
000001d0: 49c4 a83b c99e 15bb 2331 76ba 4072 16bb
000001e0: cecc 523b 02a5 60bb 887d b83b 596a 973b
000001f0: 33ef 9f3b 1c5c b93a 65dc 9fbb a1f7 6bbb
00000200: ee40 2bbc 6637 b0bb 9de1 843a 7747 57bc
00000210: a465 113c 856f a33a a9e7 80ba 9a6b bd3b
00000220: 2a50 143c 8d8b 64bb affc b1bb a12d afba
00000230: e7a5 6cbb 52a0 053b f661 883b d4e6 9a3b
00000240: 833d e83a f9d9 48bb a8c4 babb b83d bebb
00000250: ee8c 263b d317 fe3b f87a a6bb 09a1 f53a
00000260: bfb4 d8bb 26e5 433b ab4a 553a 0fa6 293b
00000270: 8a93 013c da1b 85bc 1bd2 71b9 3e17 9f3b
00000280: e3a5 22bc 88b4 cfbb 4d96 3ebc 1694 4eb9
00000290: 97fa 2bbc e223 bfb9 0d6c f03b 440e 063c
000002a0: bf75 b13a 1492 0bbc c3c0 31ba 0df1 27bb
000002b0: 70b6 2bbc ce1a 223b 89c1 43ba 51b6 e7bb
000002c0: 50b5 15ba c752 aa3b 3326 92bb a150 1c3c
000002d0: 80d7 d43b 3cbd 08bb 27b9 413b ee5d 183a
000002e0: 8fce 52bc 4bb9 a6bb e0d0 38bc 0672 7abc
000002f0: 00d2 313b 8f41 edbb 27f6 123c e1ba 393a
00000300: b74e debb fc0e 75bb 5f8e 8eb9 39e4 a03a
00000310: b40e a53a c2b2 4c3b d844 133c 9507 41bc
00000320: 9b6d 2abc 1793 77bb 3224 da3b d9da 8abb
00000330: ba6b 0d3a 0dfe e8bb 0bc1 30bc 49b3 0d3c
00000340: 34dc 9abb 8879 933b 0034 baba 45b8 40ba
00000350: da1b e03a 56ba a03b 5bfe 7bbb 0af8 4abb
00000360: f93d a9ba 1796 093c 808d 323c 7873 353b
00000370: d6a1 7abb 8d35 8ebb 1623 2fbb 9693 88bb
00000380: 761d 9cba adbf dd3b 087c cabb cc4d cbbb
00000390: 266d 9bbb 6880 3fbb ade2 7ebb b03e 5fba
000003a0: 8dd6 8fbb c0b5 d13b 208a a9bb f9da 933b
000003b0: 8011 4dbc 8a81 fa3b 3c8b 98bb 3bb6 0a3b
000003c0: 185f 81bb 1e93 e7bb abeb d03a ae53 cdbb
000003d0: f58a ffba 3344 89ba e700 de3b af6b a437
000003e0: 5465 89bb 1b1d d63b 50f2 a83b 6eaa a63a
000003f0: f0cb 873b 56af 95bb a6eb 7fb8 3444 00bb

action_model._discrete_distribution.branches.2.bias f4 [2]
0.00080300367 -0.00080300437
00000000: aa80 523a b680 52ba
