results/speedBoat/boat/boat-2528712.onnx (onnx, 340257 bytes, 11 tensors)

discrete_act_size_vector f4 [1, 3]
2.0 3.0 2.0
00000000: 0000 0040 0000 4040 0000 0040

network_body._body_endoder.seq_layers.0.weight f4 [256, 58]
0.13894711 0.09035748 -0.19072853 -0.014932409 -0.097629875 -0.06643248 0.06772493 0.17070152
-0.03704567 -0.24185015 0.032848854 -0.03401604 -0.08923912 0.043703135 -0.20031175 -0.03226545
-0.010178159 0.21627414 0.021146467 0.04420297 0.08313817 -0.03601899 -0.15907715 -0.17944707
-0.079007626 -0.18935573 0.19745137 -0.16425571 0.23678334 0.09548915 0.06040768 0.32383052
-0.06376229 0.026676046 -0.11070093 0.2832719 -0.0867972 0.22752985 0.33361098 0.05676343
-0.3089575 0.18614458 -0.03049213 0.23726106 -0.15379788 0.12332519 0.18330747 -0.055416074
0.058865122 0.22790739 -0.10977661 -0.007151181 -0.051591825 0.17597364 0.10866056 -0.042787254
0.05052002 0.16686755 0.11185137 -0.019223247 -0.09138469 -0.118023925 0.06971211 -0.26059446
0.19768499 -0.17102575 -0.15916976 -0.2506588 0.1721368 0.14046228 -0.14019196 -0.08870511
-0.08082882 -0.13679262 -0.029439628 0.08037845 -0.17033517 -0.37519267 -0.09879162 -0.007530797
0.239409 -0.06479285 -0.040456668 0.16324838 -0.05373198 -0.1965657 0.021424534 0.058206584
0.017840296 -0.01031021 -0.054968182 -0.04740546 -0.047452826 -0.12701778 -0.15417422 -0.018353779
-0.049709424 -0.15737464 0.19807503 0.007468226 0.14549705 -0.010051998 0.04398941 0.07368006
-0.10810865 -0.096586846 0.03960914 -0.07920385 -0.08434887 -0.21444102 -0.10179787 -0.008237317
-0.18882515 -0.3208763 0.09235691 -0.04144099 0.04003763 0.15081291 -0.08923084 -0.049860124
0.13468164 0.2913647 -0.08465634 -0.26651338 0.08792754 -0.026681947 0.0052566337 -0.25598812
0.13210654 0.07313693 0.041189134 -0.046445668 -0.18185167 0.12696826 -0.27099663 -0.18915722
0.15536456 -0.0033039534 0.057823166 0.2899725 -0.24537565 -0.13987087 0.17314005 -0.016194329
-0.060907368 -0.0073160524 -0.037341002 -0.23379304 -0.23614585 -0.07541452 -0.01726781 -0.01005962
0.334424 -0.00035636293 -0.11934311 -0.048285067 0.13740787 -0.28199172 0.03462378 0.1970109
0.02931419 -0.031641748 0.07729152 0.069156945 -0.05441625 0.13541704 -0.12651685 0.29569766
-0.17922127 -0.062096123 -0.23102815 -0.063399956 0.18331456 0.18227638 0.16677299 -0.11485668
0.027985135 0.009707525 -0.07953389 -0.051763814 -0.09591246 0.03148821 -0.11679776 0.31129605
0.26694342 0.03957326 0.06963241 -0.023008421 0.09700551 -0.07856163 0.076027036 0.16079333
0.09136629 -0.0083372835 0.06864832 0.006646723 -0.016053494 -0.013850337 -0.17241973 0.12451885
-0.103224516 -0.13912997 -0.13787994 -0.12309047 0.054155376 -0.3985814 0.005072449 0.022825323
-0.029239101 0.121036 0.12867558 -0.09211073 0.00055751466 0.1023009 -0.092904575 -0.024459273
-0.045967646 -0.030270869 -0.08354699 0.06163765 -0.19111781 -0.022635972 0.09489555 0.37734067
0.040519033 -0.2602452 -0.07069216 -0.0035862876 -0.1124451 0.10162049 -0.13719212 -0.15815891
0.17465766 0.10145945 -0.15771076 -0.12633432 -0.08520992 0.046452805 -0.007101519 0.11737918
0.21115613 0.022706253 -0.10167234 -0.20679078 0.0034912983 0.040622786 -0.02388142 0.14794002
0.16133478 -0.042360246 -0.09410608 -0.05641688 -0.0029722168 0.0742383 0.07273196 -0.10714658
00000000: 2748 0e3e 580d b93d 574e 43be 10a7 74bc
00000010: 2cf2 c7bd c10d 88bd 5eb3 8a3d 61cc 2e3e
00000020: 33bd 17bd 91a7 77be 858c 063d 6754 0bbd
00000030: 00c3 b6bd 0f02 333d 861e 4dbe c728 04bd
00000040: 4bc2 26bc f876 5d3e 5b3b ad3c 2c0e 353d
00000050: 5844 aa3d a688 13bd 1fe5 22be f9c0 37be
00000060: c0ce a1bd 78e6 41be b130 4a3e a632 28be
00000070: 5577 723e d18f c33d 0b6e 773d 1dcd a53e
00000080: ce95 82bd b987 da3c 2bb7 e2bd 0409 913e
00000090: bbc2 b1bd 96fd 683e 0fcf aa3e c580 683d
000000a0: ad2f 9ebe af9c 3e3e a2ca f9bc 90f4 723e
000000b0: 317d 1dbe eb91 fc3d f4b4 3b3e f7fb 62bd
000000c0: 8e1c 713d 8e60 693e 8fd2 e0bd 7454 eabb
000000d0: f351 53bd 6f32 343e 6d89 de3d b041 2fbd
000000e0: 15ee 4e3d 54df 2a3e 5512 e53d 127a 9dbc
000000f0: e527 bbbd 87b6 f1bd 39c5 8e3d a36c 85be
00000100: ef6d 4a3e 6021 2fbe 66fd 22be 5a56 80be
00000110: a144 303e 58d5 0f3e 7b8e 0fbe 06ab b5bd
00000120: 9589 a5bd 5d13 0cbe 602b f1bc 759d a43d
00000130: 586c 2ebe 4119 c0be 4353 cabd e7c4 f6bb
00000140: a227 753e 1db2 84bd e4b5 25bd 952a 273e
00000150: 1116 5cbd 8548 49be 8182 af3c 076a 6e3d
00000160: d025 923c 28ec 28bc 5126 61bd 3a2c 42bd
00000170: e55d 42bd f310 02be d9df 1dbe aa5a 96bc
00000180: 1c9c 4bbd d126 21be 2ed4 4a3e 05b8 f43b
00000190: 2efd 143e 23b1 24bc 3d2e 343d 92e5 963d
000001a0: 1168 ddbd 53cf c5bd 323d 223d a135 a2bd
000001b0: 1abf acbd 6d96 5bbe 677b d0bd d0f5 06bc
000001c0: 615b 41be e649 a4be 9f25 bd3d 07be 29bd
000001d0: 7ffe 233d b36e 1a3e a9be b6bd 213a 4cbd
000001e0: fce9 093e c12d 953e 4e60 adbd 7174 88be
000001f0: 5b13 b43d 1994 dabc d73f ac3b e010 83be
00000200: f046 073e d1c8 953d f0b5 283d d03d 3ebd
00000210: 5337 3abe f803 023e 12c0 8abe 6eb2 41be
00000220: e317 1f3e 2487 58bb fcd7 6c3d 4777 943e
00000230: c143 7bbe 4f3a 0fbe a04b 313e f8a9 84bc
00000240: 017a 79bd 7fbb efbb e1f2 18bd 7167 6fbe
00000250: 38d0 71be ee72 9abd 3975 8dbc 1bd1 24bc
00000260: 9f39 ab3e 39d6 bab9 296a f4bd 90c6 45bd
00000270: a6b4 0c3e 3861 90be aad1 0d3d 3abd 493e
00000280: 5024 f03c c79a 01bd 044b 9e3d 28a2 8d3d
00000290: 93e3 5ebd c4aa 0a3e a28d 01be af65 973e
000002a0: c885 37be 8158 7ebd a592 6cbe d6d7 81bd
000002b0: d0b6 3b3e a9a6 3a3e 8ac6 2a3e fb39 ebbd
000002c0: 1541 e53c 500c 1f3c aae2 a2bd 4b06 54bd
000002d0: c06d c4bd c8f9 003d aa33 efbd 3262 9f3e
000002e0: cfac 883e 9217 223d 709b 8e3d 287c bcbc
000002f0: d3aa c63d ebe4 a0bd 10b4 9b3d 02a7 243e
00000300: 401e bb3d 1a99 08bc 7e97 8c3d c1cc d93b
00000310: 9e82 83bc 86ec 62bc cc8e 30be bd03 ff3d
00000320: 6067 d3bd 1678 0ebe 6630 0dbe db16 fcbd
00000330: 07d2 5d3d dc12 ccbe c936 a63b 2cfc ba3c
00000340: d786 efbc b9e1 f73d 88c3 033e 8da4 bcbd
00000350: 2d26 123a 2283 d13d c144 bebd d05e c8bc
00000360: 9248 3cbd 9dfa f7bc af1a abbd c377 7c3d
00000370: 63b4 43be 136f b9bc 9958 c23d cc32 c13e
00000380: 49f7 253d dc3e 85be 0dc7 90bd ec07 6bbb
00000390: 9e49 e6bd 671e d03d 177c 0cbe 69f4 21be
000003a0: 75d9 323e f9c9 cf3d ee7e 21be c95d 01be
000003b0: 8a82 aebd 4c45 3e3d dcb3 e8bb 7f64 f03d
000003c0: 5039 583e 7702 ba3c 9639 d0bd f6c0 53be
000003d0: 44ce 643b 1464 263d f8a2 c3bc 977d 173e
000003e0: f234 253e f081 2dbd b0ba c0bd 6315 67bd
000003f0: 86c9 42bb 400a 983d 7ef4 943d ab6f dbbd

network_body._body_endoder.seq_layers.0.bias f4 [256]
-0.004925019 -0.02837926 0.0013199768 0.0013427346 -0.026501382 0.011539811 0.025485415 -0.020817751
0.008985634 -0.012070544 -0.0074259024 -0.0070639886 -0.0017337768 -0.027097804 0.0017937406 -0.002836949
0.056154124 0.0047635636 -0.033280235 0.014067855 -0.00946673 -0.044991434 0.0010432485 0.013954166
0.03123252 0.0030035912 -0.008159577 -0.015608759 0.008594002 -0.0042131883 -0.0057326886 -0.00935666
0.010649833 0.00017809463 -0.004732765 0.015425067 -0.0005254001 0.04282847 0.005641351 -0.008105472
-0.013607507 0.0020039869 0.014938518 -0.018074606 -0.003681159 -0.029996546 -0.011754691 -0.0042626257
0.0005452364 -0.02195366 0.015519316 -0.008960184 0.005105531 1.3969073e-05 -0.0021161956 -0.006937238
0.005488038 -0.035364963 -0.042094503 -0.0023026045 0.007996396 0.02989388 -0.0020291198 0.0032937634
-0.032540873 -0.011856752 0.021429302 0.014075613 0.006812345 0.002584818 0.01431567 -0.0002821844
-0.0011662021 -0.014818398 0.009288929 0.013063732 -0.013656865 -0.044899374 0.037331704 -0.034858905
-0.040431995 -0.012039194 0.00016626253 -0.013242565 -0.030150363 -0.012119579 -0.01078332 0.026276503
0.017951889 0.006412101 0.010623041 0.012849826 0.008673262 0.007520756 -8.8255416e-05 0.04549233
0.021585045 -0.015025649 -0.011887188 -0.03435339 0.024908504 0.006659308 -0.0099483775 -0.007455153
-0.020498343 0.0027752914 -0.016067233 0.00417602 0.005856977 0.0120194405 0.006985624 0.009882806
-0.0048670312 -0.020542936 -0.012864887 -0.0017542585 -0.021361321 0.048718203 -0.0070985244 -0.0075430754
-0.007089558 0.04235427 0.004259175 0.009614695 0.004530908 -0.010812423 0.00060944294 -0.0035765213
0.0109401615 -0.011982571 0.008684291 0.014053669 0.050217282 -0.0128585445 0.0060679847 0.039830822
-0.021003043 -0.00091583596 -0.0224747 -0.011807163 0.002027116 0.0016524522 0.014843882 0.009332683
0.0020115364 0.03329075 0.06810031 0.014986673 -0.002510294 0.0026349407 -0.021298379 -0.020053381
-0.013061517 0.0043849833 -0.010880869 0.007417561 0.004482478 0.0381239 0.0054206266 0.0040950063
0.008397132 -0.004461287 0.00826553 0.025126634 -0.016270353 -0.014137846 -0.004864163 -0.018887637
0.0004986077 0.01669506 0.003943389 -0.0067191855 0.006484173 -0.01787559 -0.021393744 0.01833796
0.018462488 0.028057702 -0.025488898 0.01362874 0.020578424 0.00097532396 0.029357815 0.051961955
0.014496764 0.00052960066 -0.0050067594 0.045423422 0.0083904825 0.023688179 -0.0040078233 0.012713883
0.020289732 0.00031243142 -0.001980421 0.022552803 0.020256778 -0.015725551 -0.029268267 -0.004519605
-0.008279552 0.0036044128 -0.009482243 0.00017938956 0.020501524 0.017681869 -0.020888098 -0.023592552
-0.01367428 -0.0023608997 -0.022133967 -0.019608758 -0.019938948 -0.009820866 0.0059791924 0.0118341865
0.0013576029 -0.017581092 -0.009426406 -0.028264944 0.041527413 -0.004692305 -0.0018613181 -0.028731383
-0.0013238017 -0.010003436 0.022838192 0.02087903 -0.010916128 -0.009071688 -0.006183782 0.033204593
0.029187566 -0.012005461 -0.016839618 0.012774102 -0.009602687 0.00060794817 0.020784518 0.0101534
-0.016063344 -0.009477505 -0.011507996 0.028708655 0.015472352 0.026705746 0.0037760974 -0.014955372
0.008265903 0.010237886 0.01965665 0.006597316 -0.008317433 -0.01264338 -0.000245673 0.008762914
00000000: 0e62 a1bb 9f7b e8bc 1203 ad3a b2fe af3a
00000010: 6d19 d9bc 7a11 3d3c cac6 d03c fd89 aabc
00000020: 7b38 133c 88c3 45bc fc54 f3bb 0879 e7bb
00000030: e53f e3ba 37fc ddbc f21b eb3a 1bec 39bb
00000040: de01 663d ab17 9c3b db50 08bd dc7c 663c
00000050: 581a 1bbc f048 38bd 9cbd 883a 04a0 643c
00000060: 57db ff3c e6d7 443b bfaf 05bc e1bb 7fbc
00000070: dbcd 0c3c c90e 8abb 47d9 bbbb ad4c 19bc
00000080: a37c 2e3c eabe 3a39 4f15 9bbb 6cb9 7c3c
00000090: 01bb 09ba e86c 2f3d 15db b83b d0cc 04bc
000000a0: 05f2 5ebc 5255 033b b0c0 743c 3211 94bc
000000b0: 9a3f 71bb 51bb f5bc bf96 40bc 7fad 8bbb
000000c0: 32ee 0e3a 29d8 b3bc bb44 7e3c bccd 12bc
000000d0: 4c4c a73b b65c 6a37 dfaf 0abb c551 e3bb
000000e0: 00d5 b33b dada 10bd 496b 2cbd 4be7 16bb
000000f0: 5103 033c 03e4 f43c fbfa 04bb 2edc 573b
00000100: 9449 05bd d342 42bc 818c af3c 669d 663c
00000110: 173a df3b 0d66 293b 468c 6a3c 26f2 93b9
00000120: 40db 98ba dec8 72bc 9830 183c 4309 563c
00000130: 0bc1 5fbc 68e8 37bd 21e9 183d 36c8 0ebd
00000140: 059c 25bd 0a40 45bc c256 2e39 58f7 58bc
00000150: e5fd f6bc 3391 46bc 86ac 30bc d241 d73c
00000160: d70f 933c 9a1c d23b 430c 2e3c 1488 523c
00000170: 4c1a 0e3c ad70 f63b c415 b9b8 2a56 3a3d
00000180: 1fd3 b03c 242e 76bc 7bc2 42bc 24b6 0cbd
00000190: eb0c cc3c 5336 da3b 85fe 22bc 5b4a f4bb
000001a0: 24ec a7bc aae1 353b 6e9f 83bc ffd6 883b
000001b0: e2eb bf3b 30ed 443c a9e7 e43b 7eeb 213c
000001c0: 9e7b 9fbb a949 a8bc 3fc7 52bc 26ef e5ba
000001d0: f0fd aebc bd8c 473d bd9a e8bb e72b f7bb
000001e0: 864f e8bb ac7b 2d3d 8d90 8b3b f486 1d3c
000001f0: 0378 943b 9726 31bc 06c3 1f3a 1264 6abb
00000200: 5d3e 333c 8c52 44bc 8e48 0e3c 5c41 663c
00000210: a3b0 4d3d a5ac 52bc f2d5 c63b a525 233d
00000220: 930e acbc b614 70ba dd1c b8bc d572 41bc
00000230: 5dd9 043b 1897 d83a c133 733c 1ce8 183c
00000240: fbd3 033b e25b 083d 2d78 8b3d aa8a 753c
00000250: bf83 24bb f8ae 2c3b f079 aebc fd46 a4bc
00000260: f9ff 55bc e8af 8f3b ac45 32bc 030f f33b
00000270: c0e1 923b ce27 1c3d 839f b13b 672f 863b
00000280: 2094 093c fd2f 92bb 256c 073c 5fd6 cd3c
00000290: 6749 85bc 6da2 67bc 8f63 9fbb 3fba 9abc
000002a0: ffb4 023a 14c4 883c 8b37 813b 9d2c dcbb
000002b0: 2f79 d43b d46f 92bc ef41 afbc 7d39 963c
000002c0: a53e 973c 44d9 e53c 18ce d0bc 144b 5f3c
000002d0: 1594 a83c e2ac 7f3a cd7f f03c 0fd6 543d
000002e0: d683 6d3c e6d4 0a3a be0f a4bb e90d 3a3d
000002f0: 3c78 093c b60d c23c 0f54 83bb e44d 503c
00000300: a736 a63c d6cd a339 f3c9 01bb a8c0 b83c
00000310: 8bf1 a53c dfd2 80bc 01c4 efbc 3219 94bb
00000320: f5a6 07bc 0338 6c3b 695b 1bbc 851a 3c39
00000330: d0f2 a73c 91d9 903c 841d abbc 2b45 c1bc
00000340: 160a 60bc 53b9 1abb 4b52 b5bc 8ca2 a0bc
00000350: 0157 a3bc b3e7 20bc 1aed c33b 2de4 413c
00000360: 98f1 b13a 3906 90bc 3671 1abc e28b e7bc
00000370: a618 2a3d e8c1 99bb 79f7 f3ba 145e ebbc
00000380: 6a83 adba 74e5 23bc 2917 bb3c 800a ab3c
00000390: 8fd9 32bc 6ba1 14bc 53a1 cabb 8a01 083d
000003a0: c31a ef3c 8eb2 44bc 3df3 89bc 784a 513c
000003b0: 9754 1dbc b65e 1f3a 4b44 aa3c 725a 263c
000003c0: 4697 83bc 8a47 1bbc 098c 3cbc 6a2e eb3c
000003d0: bf7f 7d3c 02c6 da3c 6778 773b 6007 75bc
000003e0: b66d 073c cebc 273c fc06 a13c 4c2e d83b
000003f0: d845 08bc 2e26 4fbc accd 80b9 5392 0f3c

network_body._body_endoder.seq_layers.2.weight f4 [256, 256]
-0.076107316 -0.12346955 0.12497678 0.10967698 -0.066784084 0.035772726 0.069035 0.03529507
-0.04586802 0.03743633 0.044954307 -0.012199244 -0.09077932 0.007726658 0.022551352 0.22197512
0.050903127 -0.17015566 0.10066437 -0.030286599 -0.026444115 0.093910895 0.06659034 -0.0013411435
0.028054154 0.02477775 -0.039732903 0.11409585 0.07638466 0.007966589 0.054416023 0.029394858
-0.016007096 0.0805282 0.021091398 -0.039517835 0.00047299964 -0.07081035 0.036289264 0.038963176
0.03647645 0.10914899 -0.03018343 -0.029893255 0.0062623555 -0.06876583 0.033245876 -0.014101287
-0.03889211 0.07238096 -0.016388843 0.14770542 -0.04876985 0.004158871 0.047852594 0.021480486
-0.030368613 -0.034334496 -0.14143847 -0.041505698 -0.050293036 -0.12368151 0.024290634 -0.003196052
0.15439017 -0.010708364 -0.037751935 -0.0022537943 -0.03415418 0.04935057 0.038109105 0.010477094
0.056448534 -0.01943552 0.020256076 0.08713294 -0.03352873 0.107781276 0.13958085 0.062335998
0.019178715 0.112908065 0.08078552 0.09072759 0.01899471 -0.054372188 0.030816915 -0.13411875
-0.09920213 0.008609205 0.018570675 0.03946311 -0.13588758 0.04820786 0.003955783 0.05170089
0.034805533 0.10304789 0.073335804 0.011798855 0.030071426 0.0059769056 -0.0033410138 -0.0019465726
0.057501383 -0.01778965 -0.0018951517 0.031342454 -0.005664434 -0.028877636 0.09761665 -0.016221244
-0.023725785 -0.09557539 0.14763476 -0.047532674 -0.12748057 -0.13597327 0.089772046 0.061095987
-0.10713074 0.0540086 0.12772837 -0.01942705 0.07913579 -0.002255101 0.10878588 -0.023167228
0.036949094 0.04318366 0.009252846 0.06206153 0.042125996 0.16158178 -0.06872456 -0.09192056
0.068719484 -0.004264679 -0.040444564 0.01761427 -0.082463026 0.030389749 -0.03030722 0.0012738917
0.060512494 0.08438626 0.029280448 -0.021578014 0.008041622 0.03551828 -0.08437181 -0.006517661
0.027364956 -0.047072086 0.046418253 0.06887147 0.035788313 -0.064643085 -0.041494697 -0.0026669833
-0.08163776 -0.0032927122 0.082094975 -0.04787949 -0.027972618 -0.120696 0.017935183 -0.021191131
0.015136499 0.011573662 -0.035265286 -0.044361398 -0.07655862 -0.057518393 0.046969883 -0.060127784
0.020864187 -0.059610188 -0.074835025 -0.009165282 -0.08998071 0.040173702 -0.057417776 -0.014332717
-0.032975424 0.024167232 0.022038138 -0.0019359557 0.0011694871 0.077597946 -0.013435165 -0.014061888
0.13918766 -0.1768751 0.056382213 0.083591335 -0.041200664 0.08008793 -0.052325975 0.034842584
-0.075919606 -0.009744127 0.019057043 0.076092176 0.0058432636 0.025906647 0.019920897 -0.11359838
-0.09297752 -0.033508133 0.0117131155 -0.020267682 -0.0046848496 0.048030205 0.03823346 -0.023433011
0.007245486 0.016149787 0.14816266 -0.012031339 -0.010177314 -0.066954486 -0.08514751 0.16361225
0.103981905 -0.057952046 -0.025504854 -0.0057658516 -0.0024105033 -0.019240048 0.033195868 0.00061789615
-0.08389601 -0.0649523 0.1572728 -0.02901691 -0.048958343 -0.061173066 -0.008856122 0.05394441
0.011299187 -0.026048237 0.03846822 0.025840811 0.06716998 0.07543003 -0.02657434 -0.011444564
0.0049369377 0.08068432 -0.05272684 -0.060734946 -0.06200199 -0.04605288 -0.036704294 0.03256126
00000000: 27de 9bbd 9add fcbd d3f3 ff3d 539e e03d
00000010: 18c6 88bd 6c86 123d 3962 8d3d 9091 103d
00000020: 1be0 3bbd d656 193d 0222 383d 57df 47bc
00000030: 82ea b9bd e82f fd3b 9dbd b83c 724d 633e
00000040: cc7f 503d 493d 2ebe 1f29 ce3d 9a1b f8bc
00000050: 54a1 d8bc 5b54 c03d 8460 883d 4fc9 afba
00000060: d3d1 e53c b5fa ca3c f8be 22bd 16ab e93d
00000070: 906f 9c3d 4c86 023c 56e3 5e3d 7ccd f03c
00000080: 5021 83bc f8eb a43d dec7 ac3c 74dd 21bd
00000090: f0fc f739 0405 91bd 0da4 143d da97 1f3d
000000a0: 5468 153d 8189 df3d 3e43 f7bc b3e2 f4bc
000000b0: 7234 cd3b 19d5 8cbd d42c 083d 1609 67bc
000000c0: 554d 1fbd 783c 943d e541 86bc 1740 173e
000000d0: e5c2 47bd 2347 883b 1501 443d d8f7 af3c
000000e0: 99c7 f8bc 54a2 0cbd 3fd5 10be e101 2abd
000000f0: 1200 4ebd bb4c fdbd 27fd c63c db74 51bb
00000100: 7518 1e3e 2272 2fbc c6a1 1abd 65b4 13bb
00000110: 41e5 0bbd d323 4a3d 4b18 1c3d 1ea8 2b3c
00000120: 9436 673d 3d37 9fbc 12f0 a53c c172 b23d
00000130: 6c55 09bd 6ebc dc3d 48ee 0e3e 0854 7f3d
00000140: ae1c 9d3c 583c e73d e172 a53d 63cf b93d
00000150: cb9a 9b3c 5fb5 5ebd c173 fc3c 6d56 09be
00000160: 7d2a cbbd 9f0d 0d3c 8721 983c 12a4 213d
00000170: 1d26 0bbe 9b75 453d 839f 813b 50c4 533d
00000180: 3f90 0e3d c60a d33d 1531 963d fc4f 413c
00000190: 5a58 f63c ebd9 c33b e9f4 5abb 2324 ffba
000001a0: 9286 6b3d 9abb 91bc bd66 f8ba f260 003d
000001b0: b79c b9bb cb90 ecbc 3deb c73d 6ae2 84bc
000001c0: 945c c2bc 08bd c3bd 912d 173e 9fb1 42bd
000001d0: 448a 02be 943c 0bbe 68da b73d c93f 7a3d
000001e0: 5d67 dbbd 1f38 5d3d 3acb 023e 7a25 9fbc
000001f0: f211 a23d 51ca 13bb 22cb de3d 33c9 bdbc
00000200: ef57 173d 59e1 303d 4099 173c 3b34 7e3d
00000210: 4f8c 2c3d b275 253e 76bf 8cbd d940 bcbd
00000220: cdbc 8c3d b8be 8bbb 33a9 25bd cd4b 903c
00000230: 60e2 a8bd ecf3 f83c d946 f8bc b6f8 a63a
00000240: f3db 773d b4d2 ac3d 8ddd ef3c 60c4 b0bc
00000250: 02c1 033c 9e7b 113d 21cb acbd 1a92 d5bb
00000260: 792c e03c a9ce 40bd 1121 3e3d 7c0c 8d3d
00000270: c496 123d 9863 84bd 58f6 29bd 8ec8 2ebb
00000280: b331 a7bd 8bca 57bb 6921 a83d 491d 44bd
00000290: d526 e5bc 772f f7bd ceec 923c 0699 adbc
000002a0: 14ff 773c 759f 3d3c 5572 10bd 4cb4 35bd
000002b0: c4ca 9cbd 6898 6bbd 7e63 403d 8d48 76bd
000002c0: 5feb aa3c d029 74bd 1b43 99bd fb29 16bc
000002d0: ce47 b8bd 2e8d 243d e72e 6bbd c6d3 6abc
000002e0: 3d11 07bd 5cfa c53c 5389 b43c e5bf fdba
000002f0: 7a49 993a aceb 9e3d 2b1f 5cbc d563 66bc
00000300: 3687 0e3e bf1e 35be 09f1 663d ef31 ab3d
00000310: 07c2 28bd 2405 a43d c353 56bd 19b7 0e3d
00000320: bd7b 9bbd d5a5 1fbc 841d 9c3c 37d6 9b3d
00000330: d978 bf3b 2d3a d43c 2631 a33c 44a6 e8bd
00000340: ff6a bebd d33f 09bd 5ee8 3f3c 6908 a6bc
00000350: 5e83 99bb 52bb 443d b09a 1c3d 96f6 bfbc
00000360: 8b6b ed3b 8f4c 843c f4b7 173e 181f 45bc
00000370: c0be 26bc 6f1f 89bd d161 aebd f889 273e
00000380: 77f4 d43d 205f 6dbd 8eef d0bc 78ef bcbb
00000390: 89f9 1dbb 4e9d 9dbc 64f8 073d 4ffa 213a
000003a0: acd1 abbd b605 85bd 1f0c 213e dfb4 edbc
000003b0: 8b88 48bd 9c90 7abd 4519 11bc d0f4 5c3d
000003c0: 3a20 393c 1d63 d5bc da90 1d3d 1cb0 d33c
000003d0: 6a90 893d 0f7b 9a3d 6eb2 d9bc fb81 3bbc
000003e0: 09c6 a13b d23d a53d 19f8 57bd 35c5 78bd
000003f0: ccf5 7dbd f2a1 3cbd 3e57 16bd f55e 053d

network_body._body_endoder.seq_layers.2.bias f4 [256]
-0.0101053715 0.009505196 -0.0010495782 -0.017692868 0.007371181 -0.023885913 -0.0040246295 -0.004448899
-0.010729828 0.007255636 0.029249258 0.0047955187 0.0055446145 0.011001757 -0.016430639 0.008827958
0.0056916955 -0.0029219813 -0.021560818 -0.0051135123 -0.005642053 -0.0007862447 0.0067695286 0.007342096
-0.0056089526 -0.010248513 0.0015892822 0.0029791945 -0.01597213 -0.015634282 0.015785484 -0.015488465
-0.0038821166 0.014842083 -0.012681715 0.0016658884 0.008106285 -0.012547855 0.0064151413 -4.2401216e-06
-0.006620984 -0.008985952 -0.011865999 0.0052963016 0.02120749 -0.02194045 -0.0103952 0.019923039
-0.012651798 -0.00019265045 0.010019343 0.0063020084 0.007007467 -0.013734248 0.019903054 -0.015404752
0.011164806 -0.0061814315 0.019676939 -0.008756351 -0.006449802 -0.005400786 0.0066652517 0.0055574668
-0.014802615 0.0036445376 0.0014665814 -0.015751835 -0.012173961 0.020547802 -0.0027175534 0.0038692523
0.0103913965 0.009358465 -0.0035853165 -0.011139845 0.0012877224 -0.008243089 -0.010656306 0.013292032
0.0035328544 0.0006294586 -0.0074240416 0.0051320423 0.005480331 -0.005788965 -0.011307853 -0.0073603247
0.0012953108 -0.009301649 0.008557333 0.042738028 -0.009277506 -0.00038216077 -0.008149814 0.0013801261
-0.0056750444 0.006228984 0.017345328 0.0005956909 0.0038462137 -0.012887865 0.018088292 0.026581356
-0.0008362614 0.0075527634 0.013708292 -0.010089359 0.004056626 0.00026067847 0.0089979945 -0.00026926678
0.01296745 0.00018957992 0.0020976935 -0.0003061131 0.01504027 -0.0028993194 0.0022096888 0.025827562
0.029193718 0.029897999 -0.009771876 0.000345537 0.002502736 0.012715813 0.0023608815 -0.014600909
0.0009194488 0.009274458 0.0015441062 -0.023169857 -0.0027246708 0.019404825 -0.00205398 0.002338816
-0.004493991 0.0036306004 0.001167171 -0.007188387 -0.005567658 0.0019033113 0.000553437 0.0017279
-0.026084252 -0.015114191 -0.018366443 0.028826132 0.031431578 -0.012581757 0.032386795 0.0059939986
-0.0054738712 0.00023371521 -0.010581108 0.0040842043 0.0005097886 -0.012815462 -0.009330573 -0.00084642135
0.03812419 -0.007992775 0.0014573479 0.019070059 -0.00048893417 -0.008891642 -0.016377222 0.0054494934
-0.012007554 -0.020820025 0.029191237 0.0020260848 -0.0025041122 0.0008084743 -0.00577837 -0.0010611546
0.008062723 -0.0045755254 0.0077160937 0.003720515 -0.003916185 -0.0033846116 0.01414825 0.023135161
-0.002537604 0.010290338 -0.010900879 0.003234234 0.0016284797 0.008908876 0.024115821 0.0068255616
-0.0063829124 0.013368223 -0.009171393 0.0102234315 0.011497785 1.0593504e-05 -0.01975998 -0.005245515
-0.016804045 -0.0064157997 -0.0018474631 -0.0024366095 -0.006775421 -0.014837406 0.011501521 0.03303208
0.020144412 -0.015742663 -0.010673822 -0.013410538 -0.015482237 -0.016287427 -0.015370691 0.013974901
-0.0034816267 -0.009559117 -0.008268735 0.0025359779 0.004491151 -0.012936986 -0.012325778 0.0051692524
0.025959918 0.011072057 -0.01683726 -0.015465111 -0.008154503 0.005466739 -0.0040491265 -0.0026513163
0.006058626 0.014103556 -0.009198294 -0.012991798 0.00040155367 -0.004982506 -0.008440974 0.02473545
0.006694347 0.021028157 0.004115215 -0.0017031174 -0.016157737 0.014148664 0.013246769 0.0014024948
0.002245485 -0.006599075 0.00071733433 -0.011635214 -0.020307587 0.0050532413 0.006645005 -0.015537466
00000000: 0091 25bc aebb 1b3c 0092 89ba a2f0 90bc
00000010: f389 f13b 64ac c3bc 0ae1 83bb 12c8 91bb
00000020: 29cc 2fbc b0c0 ed3b 249c ef3c ba23 9d3b
00000030: 99af b53b b740 343c 8c99 86bc 24a3 103c
00000040: 6781 ba3b b67e 3fbb 50a0 b0bc 408f a7bb
00000050: f9e0 b8bb fd1b 4eba ecd2 dd3b f795 f03b
00000060: 4ecb b7bb 61e9 27bc 764f d03a 973e 433b
00000070: fcd7 82bc 7713 80bc 8f50 813c 55c3 7dbc
00000080: 1c6b 7ebb 352c 733c f8c6 4fbc f059 da3a
00000090: 39d0 043c 8595 4dbc 1b36 d23b 5e46 8eb6
000000a0: d7f4 d8bb d039 13bc 9b69 42bc 998c ad3b
000000b0: 54bb ad3c 75bc b3bc a150 2abc a435 a33c
000000c0: 7d49 4fbc 3602 4ab9 2c28 243c 1481 ce3b
000000d0: e59e e53b 9c05 61bc bb0b a33c 3764 7cbc
000000e0: 97ec 363c 9b8d cabb 8831 a13c cc76 0fbc
000000f0: dc58 d3bb 14f9 b0bb 2f68 da3b 691b b63b
00000100: ab86 72bc 32d9 6e3b 4e3a c03a fe09 81bc
00000110: 4b75 47bc dd53 a83c fb18 32bb 4893 7d3b
00000120: ad40 2a3c 3f54 193c a1f7 6abb e583 36bc
00000130: cbc8 a83a 050e 07bc c997 2ebc d3c6 593c
00000140: 7687 673b 4002 253a 6045 f3bb b12a a83b
00000150: 5994 b33b 5cb1 bdbb 9344 39bc e12e f1bb
00000160: 6bc7 a93a f265 18bc 0e34 0c3c 120e 2f3d
00000170: ae00 18bc c05c c8b9 cc86 05bc 59e5 b43a
00000180: b9f5 b9bb 811c cc3b ca17 8e3c 2428 1c3a
00000190: c210 7c3b a027 53bc e62d 943c 25c1 d93c
000001a0: 8d38 5bba 2c7d f73b be98 603c d74d 25bc
000001b0: 72ed 843b acab 8839 536c 133c 602c 8db9
000001c0: 6d75 543c f9c9 4639 7579 093b ce7d a0b9
000001d0: 776b 763c 8202 3ebb 6dd0 103b 5394 d33c
000001e0: aa27 ef3c a6ec f43c 381a 20bc 3129 b539
000001f0: f104 243b fc55 503c 05b9 1a3b a738 6fbc
00000200: 2a07 713a e5f3 173c 9b63 ca3a b6ce bdbc
00000210: 6490 32bb def6 9e3c 119c 06bb d246 193b
00000220: 5442 93bb 5eef 6d3b c3fb 983a 908c ebbb
00000230: e770 b6bb 8878 f93a 8714 113a b47a e23a
00000240: a4ae d5bc 83a1 77bc 3975 96bc c824 ec3c
00000250: 66be 003d b723 4ebc 04a8 043d 4e69 c43b
00000260: 295e b3bb 7311 7539 625c 2dbc cad4 853b
00000270: 55a3 053a f2f7 51bc 42df 18bc 60e2 5dba
00000280: 1c28 1c3d 21f4 02bc 7b04 bf3a d038 9c3c
00000290: d12b 00ba 40ae 11bc 8629 86bc aa91 b23b
000002a0: 55bb 44bc c28e aabc 7622 ef3c 10c8 043b
000002b0: 081c 24bb cbef 533a 7b58 bdbb 7116 8bba
000002c0: 8319 043c 4aee 95bb 49d7 fc3b e2d3 733b
000002d0: 5753 80bb 5cd0 5dbb 10ce 673c f385 bd3c
000002e0: ee4d 26bb ce98 283c 9a99 32bc 71f5 533b
000002f0: b672 d53a 89f6 113c 8b8e c53c f6a8 df3b
00000300: c027 d1bb 6406 5b3c 9c43 16bc 2e80 273c
00000310: 3561 3c3c c1ba 3137 aedf a1bc 92e2 abbb
00000320: a3a8 89bc a13b d2bb 9326 f2ba 86af 1fbb
00000330: 5a04 debb 9718 73bc e070 3c3c a54c 073d
00000340: e505 a53c c2f6 80bc 41e1 2ebc e0b7 5bbc
00000350: 35a9 7dbc 366d 85bc 5ad5 7bbc fcf6 643c
00000360: 012c 64bb d89d 1cbc 9779 07bc a632 263b
00000370: 812a 933b a7f5 53bc 0ff2 49bc d562 a93b
00000380: e5a9 d43c 9367 353c 4bee 89bc 6061 7dbc
00000390: 779a 05bc 5522 b33b 89ae 84bb b5c1 2dbb
000003a0: 7087 c63b 9a12 673c 71b4 16bc 8ddb 54bc
000003b0: 9f87 d239 4a44 a3bb 034c 0abc 00a2 ca3c
000003c0: 415c db3b 3e43 ac3c edd8 863b 233b dfba
000003d0: 3b5d 84bc cccf 673c fa08 593c ebd3 b73a
000003e0: fd28 133b 0e3d d8bb 7e0b 3c3a a0a1 3ebc
000003f0: 195c a6bc a995 a53b 58be d93b db90 7ebc

action_model._discrete_distribution.branches.0.weight f4 [2, 256]
-0.00092988805 -0.0055830674 -0.0034854247 0.0047623026 -0.009054378 0.018264204 0.020894295 0.0070475186
0.014524733 0.0070185787 0.011718495 0.019929653 -0.023588523 0.013554617 0.028242057 -0.040100582
-0.0067692315 -0.0007844833 0.013432614 0.000954104 0.0064214785 0.015799979 -0.011716599 0.007709275
-0.0011973958 0.002856843 0.019409897 -0.012101629 0.014128263 -0.00013103994 0.010404181 0.00029855088
0.0034404942 0.016302396 0.008057114 0.0009728657 -0.02146501 0.017410936 -0.013050308 -0.0067938766
0.03165375 0.032797866 0.017206542 -0.01761593 0.004133244 0.027404988 0.021246817 0.014884965
0.0038832473 -0.009274411 -0.0009927673 -0.01458274 0.011555821 0.021888556 0.03288365 0.02113534
-0.007691986 0.004772464 0.015718872 0.0040301085 -0.0057590124 -0.003822555 -0.017880896 -0.016718218
0.018242396 0.013657739 0.01602907 0.025276268 0.023525078 0.026505582 -0.011109558 -0.012739057
0.01906052 -0.017903486 0.0009842283 0.0037816358 0.0015104117 0.016747728 0.013380008 0.019201983
-0.010045661 -0.014990451 0.025503848 -0.0024066668 -0.028536987 0.003772066 0.020979874 0.0037767245
0.01947753 -0.015892614 0.0035262064 0.011084495 0.0014993101 0.033391614 0.0015313998 -0.0006395786
0.0024046793 -0.008885012 -0.010035221 0.027766014 -0.0200628 -0.00022396764 0.019808229 0.004360366
0.0058407136 -0.0038132975 -0.0046305447 0.025439184 0.019310853 0.020638602 -0.011078783 -0.010817348
-0.009569584 0.0025949015 0.028776381 0.026401462 0.023907749 -0.0033562419 0.010789509 0.04112062
-0.007794947 -0.0064768298 0.014335991 -0.006204344 0.007699519 -0.02336613 0.033165712 -3.682982e-05
-0.013399514 0.009972617 0.014949639 0.015279217 -0.007766215 0.021686746 -0.007654383 0.0045252223
-0.008668586 -0.009764456 0.001890493 -0.0036983266 0.0016307943 0.0253891 -0.0018252591 -0.0124540115
0.016400564 0.010307249 0.018387664 -0.013028242 -0.0009560948 -0.0048729214 -0.0064316774 -0.020535572
0.039253175 0.00169689 0.027514124 -0.007475 -0.0027161643 0.013847087 0.009722597 -0.004285166
0.006811079 0.00955977 -0.0044602817 0.0051329397 0.0112833865 0.017950848 0.00029788885 -0.011817332
0.026032347 0.011572836 0.014593118 0.026588896 -0.013287837 0.021369454 0.01467027 0.0018362375
-0.017870553 -0.007567624 -0.028752983 -0.013064297 0.00017122808 0.011275684 0.0128994165 0.042557172
0.013786985 -0.03395499 0.03492413 -0.007893151 0.020886002 -0.013086386 -0.031577565 0.015388652
-0.0050159707 -0.017151257 0.01327843 -0.008070628 0.018732205 0.0056489552 0.022084318 0.0010136638
0.008744106 0.020140328 0.018935423 0.015082169 -0.00047055288 0.00828886 -0.009704758 -0.0055715954
0.0058579748 0.015653964 0.008712195 0.004872246 0.0033699856 0.012968115 0.034594666 -0.04255526
-0.009041267 0.021817662 0.016278759 0.0075294552 0.017271457 0.031445537 -0.003874687 -0.027880622
0.011336869 0.028279398 0.008824082 0.03047168 0.00872307 -0.021635475 -0.0065691844 -0.0072603477
0.018250804 -0.004324398 0.0048498237 0.004237681 -0.0034040804 -0.005121931 0.0072375378 0.008403254
0.037045255 0.010844956 -0.009428321 0.018311778 0.018189114 0.013637758 0.00991673 -0.01385352
-0.007882216 0.013414626 0.00059085217 0.0071761846 0.017835286 0.027693722 -0.014443127 -0.0026319514
00000000: bbc3 73ba 2af2 b6bb b96b 64bb 170d 9c3b
00000010: d058 14bc d09e 953c 832a ab3c dfee e63b
00000020: 25f9 6d3c 1bfc e53b eefe 3f3c 8343 a33c
00000030: b83c c1bc 2f14 5e3c e35b e73c 8240 24bd
00000040: 6ed0 ddbb c8a5 4dba 7714 5c3c d61c 7a3a
00000050: 446b d23b f56e 813c faf6 3fbc 169e fc3b
00000060: f0f1 9cba df39 3b3b 8101 9f3c e945 46bc
00000070: 3b7a 673c c467 09b9 4c76 2a3c d286 9c39
00000080: ea79 613b 9a8c 853c fc01 043c e907 7f3a
00000090: 63d7 afbc 61a1 8e3c f6d0 55bc 2b9f debb
000000a0: 5da7 013d 0e57 063d bcf4 8c3c 484f 90bc
000000b0: 2a70 873b 6d80 e03c ce0d ae3c 11e0 733c
000000c0: 147e 7e3b b3f3 17bc be1f 82ba 72ec 6ebc
000000d0: a054 3d3c a14f b33c 02b1 063d 0524 ad3c
000000e0: 0e0d fcbb 5462 9c3b ddc4 803c 000f 843b
000000f0: 19b6 bcbb d583 7abb f57a 92bc a5f4 88bc
00000100: 1471 953c b6c4 5f3c 654f 833c 2d10 cf3c
00000110: aab7 c03c 3c22 d93c dd04 36bc 7ab7 50bc
00000120: cf24 9c3c 55aa 92bc 3901 813a 52d5 773b
00000130: 02f9 c53a 8832 893c d237 5b3c 7a4d 9d3c
00000140: 8e96 24bc 829a 75bc 72ed d03c 2bb9 1dbb
00000150: 66c6 e9bc c434 773b fcdd ab3c ec82 773b
00000160: 578f 9f3c 3a31 82bc ed17 673b be9b 353c
00000170: 8084 c43a a5c5 083d 40b9 c83a 65a9 27ba
00000180: d397 1d3b 7192 11bc c56a 24bc 8d75 e33c
00000190: be5a a4bc dbd8 6ab9 de44 a23c 67e1 8e3b
000001a0: 7563 bf3b 84e8 79bb d3bb 97bb d665 d03c
000001b0: cb31 9e3c 4912 a93c c983 35bc 3f3b 31bc
000001c0: bfc9 1cbc 390f 2a3b 72bc eb3c e147 d83c
000001d0: 2fda c33c 65f4 5bbb 7bc6 303c 186e 283d
000001e0: c16c ffbb 963b d4bb 81e1 6a3c cf4d cbbb
000001f0: 3f4c fc3b 546a bfbc c5d8 073d b879 1ab8
00000200: a389 5bbc 3064 233c 55ef 743c ae55 7a3c
00000210: bc7b febb 67a8 b13c 9ed1 fabb 5148 943b
00000220: af06 0ebc 19fb 1fbc 6bca f73a a05f 72bb
00000230: 60c0 d53a cdfc cf3c 883d efba e90b 4cbc
00000240: 7a5a 863c bcdf 283c baa1 963c 6874 55bc
00000250: 70a2 7aba 07ad 9fbb d2c0 d2bb 373a a8bc
00000260: f0c7 203d 2e6a de3a 4d65 e13c d8f0 f4bb
00000270: ad01 32bb e4de 623c 874b 1f3c 946a 8cbb
00000280: 792f df3b 95a0 1c3c 8e27 92bb 3832 a83b
00000290: f4dd 383c a80d 933c f72d 9c39 7c9d 41bc
000002a0: ca41 d53c fe9b 3d3c f917 6f3c f5d0 d93c
000002b0: 3ab5 59bc fe0e af3c 925b 703c e8ad f03a
000002c0: 4465 92bc d5f9 f7bb 608b ebbc a20b 56bc
000002d0: b08b 3339 a6bd 383c 1358 533c 6e50 2e3d
000002e0: cee2 613c 6314 0bbd 9b0c 0f3d 4652 01bc
000002f0: 1f19 ab3c 4868 56bc 7a57 01bd af20 7c3c
00000300: 035d a4bb cb80 8cbc c68d 593c ab3a 04bc
00000310: 4874 993c df1a b93b 2cea b43c eadc 843a
00000320: 7043 0f3c 54fd a43c 761e 9b3c 341b 773c
00000330: 8ab4 f6b9 00ce 073c b500 1fbc ee91 b6bb
00000340: 41f4 bf3b be3c 803c 98bd 0e3c 5da7 9f3b
00000350: fada 5c3b 3778 543c 23b3 0d3d 6d4e 2ebd
00000360: d321 14bc f4ba b23c 085b 853c a6b9 f63b
00000370: df7c 8d3c 09cd 003d 76ee 7dbb e765 e4bc
00000380: 46be 393c 32aa e73c e292 103c bf9f f93c
00000390: 35eb 0e3c e13c b1bc 5042 d7bb 36e8 edbb
000003a0: b682 953c aeb3 8dbb 45eb 9e3b 3fdc 8a3b
000003b0: fe16 5fbb dfd5 a7bb de28 ed3b cdad 093c
000003c0: c4bc 173d 0baf 313c 3f79 1abc 9502 963c
000003d0: 5601 953c e770 5f3c c879 223c e0f9 62bc
000003e0: 6924 01bc 05c9 5b3c 6be3 1a3a 3326 eb3b
000003f0: 4e1b 923c f2dd e23c dea2 6cbc d17c 2cbb

action_model._discrete_distribution.branches.0.bias f4 [2]
-0.015638636 0.015638638
00000000: 991c 80bc 9a1c 803c

action_model._discrete_distribution.branches.1.weight f4 [3, 256]
0.011086785 -0.00673438 -0.006736011 0.0040283403 0.003023702 0.023456464 0.016715713 -0.003687819
0.010064857 -0.013401606 -0.012817413 -0.0002280275 -0.0035092698 -0.0044423887 0.015156119 -0.009686284
-0.0022019567 -0.003074951 0.015466609 0.007958438 0.001032281 0.010029893 -0.006841905 0.0021088559
0.010703432 -0.01524748 -0.0015684961 -0.0041929027 0.012691429 0.0033005509 0.008521467 0.0037858367
-0.0011052367 -0.017985541 -0.0015199195 0.008342913 -0.0007822269 0.0148270605 0.0023023954 -0.009168179
0.011158307 0.016392177 0.009727541 0.0064174756 -0.0068916916 0.011575175 0.009367105 -0.007877854
-0.001410212 0.0021449325 -0.005395818 0.0023843057 -0.0051976168 0.01926573 0.0020870338 0.014420776
0.0005537168 -0.0031242652 0.00832207 -0.0058830422 -0.009988975 -0.0073195845 0.002265161 -0.0009636209
0.017953578 -0.007901048 -0.0022195338 0.015340791 0.007753391 0.011848206 0.010278974 0.013446403
0.01675687 -0.01842687 0.005485107 0.0045278394 0.0006255529 0.014617614 0.008902569 0.0050363564
0.00026944635 0.0045029717 0.004384729 0.005637258 0.0033688694 0.00047326263 0.01805546 -0.0030887246
-0.0018224498 -0.004465333 -0.008098304 -0.0017380891 0.009123347 -0.0005630542 -0.0013308258 -0.009484813
0.0065354803 0.0019396902 -0.001695597 0.002204971 -0.0038555965 0.0033581478 0.00051674346 -0.005288522
-0.0006494514 0.008154813 0.002738367 0.011704565 -0.0031344462 0.0011798717 -0.0066421404 0.0048306207
0.008516669 0.012361725 0.005328042 -0.006179503 -0.012736943 0.004472627 0.009114947 -0.011125847
-0.0026551294 -0.0140768625 0.0031557798 -0.00938813 -0.012912934 -0.014691211 0.0027877118 0.0018947189
0.0029200497 0.0065396363 0.011171631 0.007941456 0.02060105 -0.011153292 -0.006159528 -0.0039340993
0.004708424 -0.0026589483 -0.005856392 0.010083579 0.0037657246 -0.014355222 -0.014128936 0.0045229965
0.018393047 0.0071505005 0.012950768 -0.0023946622 -0.0066399965 0.00580078 -0.0035245793 0.0031385534
0.016304778 0.009951521 0.00821057 0.0056636706 -0.0063721854 0.0028945953 -0.00012703023 0.0017143973
-0.0039290595 0.0068030832 0.005859448 -0.0022217096 0.01849593 0.012734864 -0.004282678 -0.006064614
0.0054593086 0.006110816 -0.00695318 -0.002599061 0.0026562475 -0.005374075 -0.003845447 -0.0040671877
-0.0012949156 0.010623794 0.015325292 -0.0024191614 0.0009110057 0.008111949 -0.011704926 -0.009003076
0.0034373929 -0.00067306915 0.017402023 -0.004935072 0.01892994 -0.00930115 -0.0034146947 0.0029064973
-0.00097295514 -0.010285346 0.016642418 0.0030702879 -0.012518284 -0.00816137 0.016827794 -0.0044548013
0.0024236576 0.0016195028 0.0026673465 0.016648164 0.003188912 -0.00015607386 0.006081437 0.00562697
-0.0019144092 0.010148482 -0.0024183406 -0.008332371 0.013411289 0.008047648 0.009839167 0.004285856
0.0043770764 0.023342917 0.0030399994 0.00015443843 -0.010974811 0.0040573888 -0.00010636725 -0.0017990234
-0.020234264 -0.008435541 0.006974162 0.012709297 0.010668893 0.0029186048 -0.0047855997 0.0012215856
-0.0039581833 0.0014736754 0.01188048 -0.003466878 -0.0010897366 0.013255565 0.013896602 0.016180823
0.0066080303 -0.008923267 0.008312716 0.011531972 0.012620256 0.011906037 -0.012752662 0.011409461
0.003606286 0.008495346 -0.0034690339 0.010752541 0.025855377 0.006714409 -0.011471238 0.004912906
00000000: 59a5 353c 13ac dcbb c1b9 dcbb 2b00 843b
00000010: 4d29 463b c527 c03c 64ef 883c 56af 71bb
00000020: 12e7 243c 6992 5bbc 2000 52bc aa1a 6fb9
00000030: c7fb 65bb 7591 91bb 5f51 783c 38b3 1ebc
00000040: b44e 10bb 1e85 49bb a967 7d3c 1c64 023c
00000050: 9a4d 873a 6c54 243c 0f32 e0bb bb34 0a3b
00000060: 735d 2f3c 91d0 79bc ff95 cdba 9e64 89bb
00000070: b6ef 4f3c 0e4e 583b a09d 0b3c cd1b 783b
00000080: 97dd 90ba 6a56 93bc 0938 c7ba b7b0 083c
00000090: 5c0e 4dba 33ed 723c c9e3 163b 2136 16bc
000000a0: 55d1 363c e348 863c 4460 1f3c b049 d23b
000000b0: b3d3 e1bb cea5 3d3c 7c78 193c 1d12 01bc
000000c0: ddd6 b8ba ff91 0c3b 67cf b0bb 0342 1c3b
000000d0: c550 aabb 2ad3 9d3c 9ec6 083b 1e45 6c3c
000000e0: 4e27 113a 79c0 4cbb 4b59 083c 89c6 c0bb
000000f0: cca8 23bc 20d9 efbb 1873 143b 819b 7cba
00000100: 6213 933c 6673 01bc 9975 11bb f157 7b3c
00000110: 2810 fe3b fa1e 423c 2469 283c 4d4e 5c3c
00000120: b445 893c f3f3 96bc 6abc b33b 455e 943b
00000130: 25fc 233a b87e 6f3c 15dc 113c 0508 a53b
00000140: 7a44 8d39 aa8d 933b c6ad 8f3b bfb8 b83b
00000150: 40c8 5c3b 3c20 f839 0be9 933c 336c 4abb
00000160: 45df eeba ee51 92bb c0ae 04bc 98d0 e3ba
00000170: 177a 153c ed99 13ba 1b6f aeba 3066 1bbc
00000180: 9527 d63b 343d fe3a cb3e deba 4681 103b
00000190: 2dae 7cbb 5f14 5c3b 1176 073a 574b adbb
000001a0: f23f 2aba c49b 053c 2d76 333b 81c4 3f3c
000001b0: 486b 4dbb eda5 9a3a 50a6 d9bb 2f4a 9e3b
000001c0: 8089 0b3c d588 4a3c db96 ae3b 6e7d cabb
000001d0: 9cae 50bc 1d8f 923b dc56 153c 2f49 36bc
000001e0: ae01 2ebb a4a2 66bc 33d1 4e3b acd0 19bc
000001f0: c590 53bc 68b3 70bc 0bb2 363b 3758 f83a
00000200: 4e5e 3f3b 724a d63b 3709 373c e11c 023c
00000210: 89c3 a83c 4cbc 36bc ded5 c9bb 9ee9 80bb
00000220: 2049 9a3b c041 2ebb fae6 bfbb 9935 253c
00000230: 60ca 763b 2a32 6bbc 0e7d 67bc a535 943b
00000240: 04ad 963c bf4e ea3b 752f 543c c4ef 1cbb
00000250: 5494 d9bb 7814 be3b a1fc 66bb 30b0 4d3b
00000260: 9991 853c b40b 233c a085 063c 5096 b93b
00000270: c4cd d0bb 40b3 3d3b 6b33 05b9 a1b5 e03a
00000280: 57bf 80bb 66ec de3b 9d00 c03b 1a9a 11bb
00000290: c784 973c e4a5 503c b555 8cbb abb9 c6bb
000002a0: 00e4 b23b 3d3d c83b 80d7 e3bb 0255 2abb
000002b0: 7014 2e3b 0219 b0bb e503 7cbb 0b46 85bb
000002c0: 28ba a9ba 6c0f 2e3c ef16 7b3c cb8a 1ebb
000002d0: 8fd0 6e3a fbe7 043c 05c6 3fbc a381 13bc
000002e0: e245 613b e870 30ba b08e 8e3c 62b6 a1bb
000002f0: f612 9b3c da63 18bc 12c9 5fbb ef7a 3e3b
00000300: ea0d 7fba de83 28bc ae55 883c e236 493b
00000310: 7d19 4dbc 44b7 05bc 71da 893c 95f9 91bb
00000320: 3ad6 1e3b 7f45 d43a a6ce 2e3b bb61 883c
00000330: 11fd 503b c2a7 23b9 cb46 c73b 7262 b83b
00000340: eaec faba d245 263c 067d 1ebb 7f84 08bc
00000350: 06bb 5b3c 48da 033c 7534 213c 5e70 8c3b
00000360: 946d 8f3b a539 bf3c ba3a 473b c0f0 2139
00000370: b2cf 33bc d8f3 843b 7c11 dfb8 35cd ebba
00000380: 54c2 a5bc 3935 0abc 8387 e43b a83a 503c
00000390: 95cc 2e3c 1046 3f3b 85d0 9cbb 9c1d a03a
000003a0: a6b3 81bb 5728 c13a 58a6 423c 9034 63bb
000003b0: 7ed5 8eba df2d 593c 93ae 633c a58d 843c
000003c0: 2d88 d83b e532 12bc 0f32 083c 99f0 3c3c
000003d0: 31c5 4e3c 8a11 433c 8bf0 50bc bfee 3a3c
000003e0: 7057 6c3b 1030 0b3c bb58 63bb 6d2b 303c
000003f0: a8ce d33c 8c04 dc3b dcf1 3bbc 71fc a03b

action_model._discrete_distribution.branches.1.bias f4 [3]
-0.007462442 0.0056407596 0.0012524192
00000000: 8087 f4bb 1fd6 b83b 3728 a43a

action_model._discrete_distribution.branches.2.weight f4 [2, 256]
0.0011704696 -0.0024811625 -0.0030835802 -0.0005141572 -0.007642552 0.012251981 -0.014641005 -0.009949005
-0.0062524644 -0.02015241 -0.016502572 -0.01844545 0.005855896 -0.004414128 0.0050254264 -0.0060890354
-0.00019858942 0.007954731 0.011858752 -0.00026882003 -0.011675647 -0.0020377953 0.008981255 0.0024431697
-0.0026765699 0.0074933744 0.00061008264 -0.005935422 0.009020301 0.00027958557 -0.021498816 -0.0019331909
-0.005589341 -0.015456098 0.005422978 0.0062599946 0.010234804 0.006393194 -0.00058565516 -0.0022327187
0.00993483 0.011254319 0.010822194 0.0026061945 -0.0127321305 0.003619481 0.004797395 -0.0065673892
-0.0037588577 0.013800197 -0.013265646 -0.008105135 -0.018735567 0.009628512 -0.028416887 0.0131601505
-0.001905642 -0.010916381 -0.005511886 0.0015012284 0.018431906 0.0011373803 0.010904472 0.013747573
0.007954305 0.003804694 -0.002019864 0.0041365623 0.008913129 -0.01493348 -0.0013081882 -0.0016177817
0.0033536712 0.0016013749 -0.0024741369 -0.0025904602 -0.0036657387 0.0055882838 0.009337868 -0.015965361
-0.00350366 0.008632296 0.0059094233 0.009441819 -0.0025084119 0.0029060661 0.01778506 0.004420975
-0.01963896 0.0050013913 -0.0016594578 -0.026986124 -0.0034374706 -0.0035008534 0.0044966484 0.005528024
0.0024012118 -0.0055501508 0.004104149 -0.0059832223 0.0024864788 -0.0036303224 -0.01033649 -0.02225049
-0.011746491 -0.0179699 -0.000435227 -0.003775872 -0.012790935 -0.0017062584 0.0076926434 -0.007651604
-0.00985314 0.0012196504 -0.008338644 -0.004712246 -0.037005164 -0.009792854 -0.023168383 -0.0034866096
-0.03152791 -0.024752134 0.00012565502 0.00537444 0.0036483917 0.0014104423 -0.004986981 -0.0038115946
0.00013720726 0.004440803 0.00092913926 0.006668905 0.002676706 -0.0086799115 -0.009086927 -0.012126769
-0.007594641 -0.005827142 0.008695468 -0.0028909333 -0.0018770448 -0.01793854 -0.010237242 -0.0019850137
0.011036178 0.011250679 0.014122072 -0.025068855 -0.018738475 -0.0011709263 -0.01464452 0.005872327
0.021557396 0.0050719944 0.013395659 -0.0024017266 -0.00923119 0.008068175 -0.0007814339 -0.002534871
-0.023228541 0.018151382 0.0067149317 -0.010989569 0.016047014 0.0063088103 0.0065608593 -0.010276748
0.008692524 0.018880462 -0.03177914 -0.004021364 0.00060803955 -0.010306254 -0.0050670383 0.006396947
0.010850634 0.0019644576 0.008437643 0.0045153927 -0.00479495 0.012407207 -0.025637478 -0.028032582
0.0066209957 0.0042741713 0.007856006 0.00015705045 0.0034786165 0.0065071555 -0.011931484 -0.00710931
0.0003059034 -0.004188686 -0.0027017063 0.011211783 -0.013429646 -0.003087858 0.016816156 0.008721322
0.00919272 0.008320164 0.0020336942 -0.002899497 -0.010086639 0.0026631185 0.014647546 -0.017711153
-0.0034991854 0.019840738 0.0022523645 0.01187554 -0.00040305662 0.027515244 0.017437447 -0.009753543
-0.0054081855 0.008357792 0.014704915 0.01583468 -0.0018877928 0.008710924 0.0011044061 -0.0011606857
-0.024277749 -0.013465841 0.020638524 0.006782995 0.0018986334 -0.0013051025 -0.001281838 0.0013510885
-0.0021497386 -0.0066143307 0.010568602 0.0059519573 0.014304586 0.020410918 0.013290891 -0.0071925255
-0.0057510594 -0.019921444 0.0020465786 0.0057287277 0.014863469 -0.0028471162 -0.017194584 0.0036452282
-0.0053091217 0.0049177655 -0.002944716 0.010457977 0.022830436 0.005908796 -0.013172957 -0.011392334
00000000: 716a 993a 009b 22bb e415 4abb 81c8 06ba
00000010: 5f6e fabb 88bc 483c d3e0 6fbc 2701 23bc
00000020: 79e1 ccbb ab16 a5bc 6730 87bc ea1a 97bc
00000030: d1e2 bf3b 64a4 90bb 55ac a43b 8886 c7bb
00000040: 713c 50b9 8f54 023c 364b 423c 6af0 8cb9
00000050: 374b 3fbc 888c 05bb 1d26 133c 961d 203b
00000060: 6469 2fbb fb8a f53b f4ed 1f3a ee7d c2bb
00000070: e2c9 133c 5795 9239 491e b0bc 1f63 fdba
00000080: ca26 b7bb 933b 7dbc 3db3 b13b a420 cd3b
00000090: e1af 273c 007e d13b a786 19ba ce52 12bb
000000a0: b2c5 223c 0964 383c 924f 313c b0cc 2a3b
000000b0: 6d9a 50bc d134 6d3b 7733 9d3b 4133 d7bb
000000c0: 2b57 76bb 391a 623c 2758 59bc 66cb 04bc
000000d0: 557b 99bc e8c0 1d3c 88ca e8bc ac9d 573c
000000e0: bcc6 f9ba 9fda 32bc 0d9d b4bb dec4 c43a
000000f0: 82fe 963c 2614 953a aca8 323c 803d 613c
00000100: c652 023c 2c58 793b b25f 04bb 008c 873b
00000110: 5f08 123c 8eab 74bc 8377 abba bf0b d4ba
00000120: 44c9 5b3b 3ae5 d13a 2125 22bb b6c4 29bb
00000130: e43c 70bb ec1d b73b dbfd 183c cac9 82bc
00000140: a99d 65bb 796e 0d3c d6a3 c13b dcb1 1a3c
00000150: 2b64 24bb b373 3e3b f9b1 913c d4dd 903b
00000160: e2e1 a0bc b6e2 a33b 2a82 d9ba 0112 ddbc
00000170: 3047 61bb 936e 65bb 9f58 933b 6d24 b53b
00000180: a65d 1d3b 0ade b5bb 197c 863b e80e c4bb
00000190: 31f4 223b b4ea 6dbb 625a 29bc a946 b6bc
000001a0: 5b74 40bc 9d35 93bc 2e2f e4b9 9f74 77bb
000001b0: 1291 51bc 88a4 dfba 9212 fc3b 4eba fabb
000001c0: 116f 21bc addc 9f3a cf9e 08bc 2f69 9abb
000001d0: ba92 17bd 3572 20bc 9fcb bdbc 9a7f 64bb
000001e0: 6923 01bd fdc4 cabc 43c2 0339 121c b03b
000001f0: db19 6f3b 97de b83a d469 a3bb f2cb 79bb
00000200: 4bdf 0f39 2884 913b 7b91 733a d486 da3b
00000210: ad6b 2f3b 3036 0ebc 56e1 14bc 5baf 46bc
00000220: 77dc f8bb 9cf1 bebb 7077 0e3c d075 3dbb
00000230: 2c07 f6ba d8f3 92bc 1bba 27bc 0117 02bb
00000240: 16d1 343c c554 383c 4360 673c 335d cdbc
00000250: 6e81 99bc c479 99ba 92ef 6fbc a66c c03b
00000260: 2399 b03c f932 a63b 7779 5b3c 4966 1dbb
00000270: 6b3e 17bc 6130 043c 24d9 4cba 1420 26bb
00000280: c849 bebc 35b2 943c ee08 dc3b 980d 34bc
00000290: 0775 833c 23ba ce3b 7afc d63b ce5f 28bc
000002a0: 176b 0e3c 33ab 9a3c d82a 02bd a5c5 83bb
000002b0: d864 1f3a 90db 28bc 6609 a6bb 7b9d d13b
000002c0: dcc6 313c 21be 003b 0a3e 0a3c dcf5 933b
000002d0: f51e 9dbb 9947 4b3c b005 d2bc 96a4 e5bc
000002e0: f0f4 d83b 590e 8c3b 7ab6 003c e9ad 2439
000002f0: 80f9 633b fa39 d53b 457c 43bc 37f5 e8bb
00000300: a961 a039 3f41 89bb 1c0f 31bb a0b1 373c
00000310: 0508 5cbc a95d 4abb 09c2 893c e0e3 0e3c
00000320: 109d 163c 4c51 083c ba47 053b 7d05 3ebb
00000330: 6e42 25bc b787 2e3b 43fc 6f3c fb16 91bc
00000340: 9752 65bb 0b89 a23c 689c 133b a091 423c
00000350: 5851 d3b9 a667 e13c fad8 8e3c 53cd 1fbc
00000360: 2637 b1bb 1fef 083c e2ec 703c bbb7 813c
00000370: d16f f7ba 43b8 0e3c b8c1 903a 2622 98ba
00000380: 21e2 c6bc d59f 5cbc 1f12 a93c e343 de3b
00000390: 91db f83a f90f abba 5903 a8ba 0217 b13a
000003a0: a1e2 0cbb 07bd d8bb ee27 2d3c a308 c33b
000003b0: c85d 6a3c cc34 a73c 0ac2 593c 47af ebbb
000003c0: 6273 bcbb 4c32 a3bc e41f 063b 0db8 bb3b
000003d0: e885 733c af96 3abb a8db 8cbc c8e4 6e3b
000003e0: 24f8 adbb 3525 a13b 23fc 40bb ef57 2b3c
000003f0: e506 bb3c 939e c13b 63d3 57bc e9a6 3abc

action_model._discrete_distribution.branches.2.bias f4 [2]
-0.0056088557 0.005608858
00000000: 7eca b7bb 83ca b73b
