results/speedBoat/boat/boat-3250200.onnx (onnx, 340257 bytes, 11 tensors)

discrete_act_size_vector f4 [1, 3]
2.0 3.0 2.0
00000000: 0000 0040 0000 4040 0000 0040

network_body._body_endoder.seq_layers.0.weight f4 [256, 58]
0.13529412 0.09141512 -0.19072853 -0.015130553 -0.0965899 -0.06412614 0.06889191 0.17070152
-0.041162647 -0.24189533 0.029837416 -0.032979947 -0.08923912 0.04371607 -0.19914939 -0.02658063
-0.009573164 0.21627414 0.015382937 0.043474033 0.08101539 -0.034560576 -0.15907715 -0.1804673
-0.07800225 -0.18312664 0.19808444 -0.16425571 0.23060723 0.09415022 0.057149235 0.32703173
-0.06376229 0.023982512 -0.10890664 0.2929424 -0.09363059 0.22752985 0.3335538 0.057363007
-0.3126038 0.18891422 -0.03049213 0.23959546 -0.15039787 0.13488801 0.1729827 -0.055416074
0.05917929 0.22979018 -0.11269922 -0.014377548 -0.051591825 0.18557756 0.11427793 -0.04005923
0.050205294 0.16688368 0.111240216 -0.01837492 -0.09138469 -0.11656249 0.07283458 -0.26103213
0.19843517 -0.17102575 -0.15696298 -0.2475471 0.17041594 0.14141478 -0.14019196 -0.087041005
-0.0774348 -0.13514876 -0.029467808 0.08037845 -0.16668269 -0.37224683 -0.09669863 -0.007259736
0.239409 -0.06286374 -0.03666523 0.16931675 -0.056621566 -0.1965657 0.025306765 0.06022727
0.021723876 -0.012867344 -0.054968182 -0.038961124 -0.043896522 -0.12517433 -0.15264602 -0.018353779
-0.051253505 -0.15804651 0.19836725 0.0034840333 0.14549705 -0.0010400992 0.047237072 0.07493662
-0.10768743 -0.096586846 0.039724816 -0.08002633 -0.08561265 -0.21560901 -0.10179787 -0.004214128
-0.18749955 -0.32057282 0.09322088 -0.041518405 0.043649994 0.15098539 -0.08923084 -0.049739394
0.13536938 0.29252717 -0.08492905 -0.26651338 0.092107005 -0.025377149 0.007928112 -0.25580218
0.13210654 0.07317192 0.04182774 -0.048783384 -0.181902 0.12696826 -0.26530284 -0.1877591
0.15714869 -0.003507855 0.057823166 0.29108974 -0.24451026 -0.14349544 0.17302677 -0.016194329
-0.054900687 -0.005325277 -0.03380422 -0.23609623 -0.23614585 -0.07207757 -0.017101854 -0.017712422
0.34072304 -0.00035636293 -0.118772104 -0.048229787 0.14172675 -0.28442046 0.03462378 0.19580424
0.027758064 -0.040902328 0.086567536 0.069156945 -0.054324813 0.13415155 -0.12292802 0.30186024
-0.17922127 -0.0698306 -0.23487239 -0.06473731 0.18376675 0.18269503 0.16567245 -0.1116056
0.027985135 0.0068426146 -0.07810447 -0.052648738 -0.09317352 0.03148821 -0.11986439 0.31192708
0.26586816 0.0429275 0.06963241 -0.02481007 0.098900646 -0.077122785 0.07813362 0.16079333
0.087592326 -0.007958753 0.06719199 0.0105977785 -0.016053494 -0.015277186 -0.16979158 0.12305201
-0.099797994 -0.13912997 -0.1381909 -0.1221606 0.053948857 -0.3960603 0.005072449 0.024233166
-0.025922472 0.12240828 0.12947749 -0.09211073 0.0023522964 0.104218066 -0.08911871 -0.023138354
-0.045967646 -0.03210031 -0.08001153 0.063557714 -0.18995401 -0.022635972 0.09573197 0.37886214
0.04438164 -0.26410604 -0.07069216 -0.0023095524 -0.10924249 0.104655825 -0.13253543 -0.15589067
0.17251162 0.10838642 -0.15771076 -0.124430045 -0.07547675 0.04882527 -0.00083027536 0.11737918
0.21295656 0.032019597 -0.10427006 -0.19974746 0.0034912983 0.042122267 -0.0137661975 0.1556283
0.16523217 -0.042360246 -0.091995254 -0.048647262 -0.003994381 0.08121342 0.07273196 -0.10622637
00000000: 8b8a 0a3e da37 bb3d 574e 43be 24e6 77bc
00000010: edd0 c5bd 9154 83bd 3417 8d3d 61cc 2e3e
00000020: 2a9a 28bd 69b3 77be 996d f43c fb15 07bd
00000030: 00c3 b6bd 9f0f 333d d1ed 4bbe 9fbf d9bc
00000040: c3d8 1cbc f876 5d3e b708 7c3c d411 323d
00000050: 66eb a53d 648f 0dbd 1fe5 22be 6bcc 38be
00000060: a5bf 9fbd 8d85 3bbe a6d6 4a3e a632 28be
00000070: 4d24 6c3e d5d1 c03d 5115 6a3d b470 a73e
00000080: ce95 82bd f976 c43c 720a dfbd 8cfc 953e
00000090: 65c1 bfbd 96fd 683e 90c7 aa3e 79f5 6a3d
000000a0: 9b0d a0be bb72 413e a2ca f9bc 8358 753e
000000b0: e601 1abe 1520 0a3e 6022 313e f7fb 62bd
000000c0: fc65 723d 1e4e 6b3e d9ce e6bd cf8f 6bbc
000000d0: f351 53bd 0b08 3e3e 8c0a ea3d 2615 24bd
000000e0: 11a4 4d3d 8ee3 2a3e e9d1 e33d 0087 96bc
000000f0: e527 bbbd 51b8 eebd 4c2a 953d 01a6 85be
00000100: 9732 4b3e 6021 2fbe e7ba 20be fd7c 7dbe
00000110: 8481 2e3e 09cf 103e 7b8e 0fbe 8e42 b2bd
00000120: 2396 9ebd 7064 0abe 7966 f1bc 759d a43d
00000130: deae 2abe 2397 bebe ee09 c6bd 14e3 edbb
00000140: a227 753e b4be 80bd 482e 16bd 5f61 2d3e
00000150: 04ec 67bd 8548 49be 2250 cf3c dfb0 763d
00000160: 45f6 b13c 8dd1 52bc 5126 61bd b395 1fbd
00000170: d7cc 33bd b32d 00be 3d4f 1cbe aa5a 96bc
00000180: 32ef 51bd f2d6 21be c920 4b3e 6154 643b
00000190: 2efd 143e f053 88ba a97b 413d 5f78 993d
000001a0: 3a8b dcbd 53cf c5bd 7db6 223d d8e4 a3bd
000001b0: af55 afbd 9cc8 5cbe 677b d0bd ab16 8abb
000001c0: e2ff 3fbe 1f22 a4be 97ea be3d 340f 2abd
000001d0: 56ca 323d ea9b 1a3e a9be b6bd 89bb 4bbd
000001e0: 459e 0a3e 1fc6 953e 48ef adbd 7174 88be
000001f0: 99a2 bc3d bde3 cfbc e9e4 013c 81f8 82be
00000200: f046 073e 29db 953d 9053 2b3d 16d1 47bd
00000210: 8544 3abe f803 023e c6d5 87be ec43 40be
00000220: 96eb 203e 0be4 65bb fcd7 6c3d b709 953e
00000230: e660 7abe 78f0 12be ee2d 313e f8a9 84bc
00000240: 8bdf 60bd a97f aebb 4b76 0abd 36c3 71be
00000250: 38d0 71be 689d 93bd 3019 8cbc a419 91bc
00000260: 4073 ae3e 39d6 bab9 ca3e f3bd 998c 45bd
00000270: d120 113e 8f9f 91be aad1 0d3d e880 483e
00000280: e164 e33c 3389 27bd 524a b13d 28a2 8d3d
00000290: b283 5ebd 065f 093e b0c1 fbbd 6d8d 9a3e
000002a0: c885 37be 5803 8fbd 6382 70be ff94 84bd
000002b0: 5a2d 3c3e 6814 3b3e 0aa6 293e 7a91 e4bd
000002c0: 1541 e53c 0338 e03b 3df5 9fbd 34a6 57bd
000002d0: c2d1 bebd c8f9 003d 767b f5bd e8b4 9f3e
000002e0: df1f 883e bfd4 2f3d 709b 8e3d 7d3e cbbc
000002f0: 6c8c ca3d 8df2 9dbd 8504 a03d 02a7 243e
00000300: 9b63 b33d 6e65 02bc f49b 893d 4ea2 2d3c
00000310: 9e82 83bc 2a4d 7abc d8dd 2dbe b102 fc3d
00000320: e462 ccbd 1678 0ebe ea81 0dbe 562f fabd
00000330: 7af9 5c3d 6ac8 cabe c936 a63b a284 c63c
00000340: 5d5b d4bc 31b1 fa3d bf95 043e 8da4 bcbd
00000350: fc28 1a3b 4870 d53d df83 b6bd a58c bdbc
00000360: 9248 3cbd 9d7b 03bd 16dd a3bd 8c2a 823d
00000370: 4e83 42be 136f b9bc 200f c43d 38fa c13e
00000380: 86c9 353d e838 87be 0dc7 90bd dc5b 17bb
00000390: 87ba dfbd cb55 d63d 5eb7 07be cea1 1fbe
000003a0: e3a6 303e b3f9 dd3d ee7e 21be 2ed5 febd
000003b0: 8e93 9abd 02fd 473d d6a6 59ba 7f64 f03d
000003c0: 4911 5a3e fb26 033d 8b8b d5bd 998a 4cbe
000003d0: 44ce 643b 6688 2c3d 9e8b 61bc 065d 1f3e
000003e0: 9f32 293e f081 2dbd 0268 bcbd 5a42 47bd
000003f0: 4ce3 82bb 3953 a63d 7ef4 943d 368d d9bd

network_body._body_endoder.seq_layers.0.bias f4 [256]
-0.0041176113 -0.027392903 0.0016789435 0.0033752536 -0.019744482 0.014790282 0.018686252 -0.027601745
0.0035848832 -0.00998151 -0.004270061 -0.006609284 -0.0024498524 -0.027172578 0.0003586273 -0.0007423327
0.0539996 0.008048829 -0.03116624 0.011497129 -0.009235007 -0.045080215 0.00038044123 0.012358159
0.030956656 -0.0001808838 -0.006503694 -0.00893623 0.008505308 -0.0026755612 -0.006078561 -0.013974441
0.013232682 0.0035586217 -0.004434664 0.015105421 0.0029564851 0.039774157 0.0055028466 -0.0068729105
-0.01044009 0.011926052 0.0125583615 -0.017280387 -0.0039923717 -0.022207234 -0.008272472 -0.007632408
0.0002049341 -0.02140388 0.023011593 -0.004726225 0.0055852765 -0.0010240853 0.00095473434 -0.007597334
0.00400562 -0.038370177 -0.04446064 -0.0031585973 0.0064363326 0.028377045 0.0005619227 0.007055105
-0.035410028 -0.015183 0.021032954 0.012168968 0.0040802294 -0.003771439 0.01327224 -0.004639188
-0.003444105 -0.0098581845 0.007377152 0.016102294 -0.0113477595 -0.04606444 0.034223348 -0.036725305
-0.03925624 -0.011241295 -0.0016153998 -0.010126606 -0.03044083 -0.0075678825 -0.010049845 0.029154256
0.01742335 0.005886213 0.012835515 0.008878241 0.0063539105 0.010619183 -0.0004416917 0.045684006
0.014022412 -0.023512727 -0.01262663 -0.033519525 0.02403169 0.0057681273 -0.006265796 -0.017348465
-0.018189693 0.0025523067 -0.017364314 0.00075535727 0.0035055093 0.009641495 0.00667809 0.013398146
-0.008899701 -0.019635001 -0.011159289 6.4970634e-05 -0.026819129 0.04639765 -0.005414292 -0.004841212
-0.0063414215 0.039200313 0.0024775537 0.007826099 0.0045305556 -0.006512042 -0.0005095054 -0.013519639
0.0075578764 -0.01718651 0.0136107495 0.011225455 0.047182128 -0.00875953 0.005947383 0.03353511
-0.025997145 -0.0016958768 -0.022496458 -0.0152310245 -0.0016236131 -0.0072582806 0.012134266 0.013355599
0.0057139546 0.024944462 0.06499161 0.012987135 -0.00085615786 0.0020187402 -0.019276317 -0.016527101
-0.019350719 0.0041793827 -0.013900975 0.0071207774 0.0037007541 0.031475164 0.0058867615 0.0037262035
0.0110925995 -0.0061791125 0.011706334 0.022854783 -0.022117805 -0.01669808 -0.0028657485 -0.024164032
0.003225114 0.01639972 0.0019380235 -0.003532153 0.0074954047 -0.029378656 -0.025259279 0.0177496
0.013523043 0.025738917 -0.03035256 0.013853645 0.01981029 -0.0030757845 0.018933209 0.050130524
0.01211161 0.0027149566 -0.0033368443 0.03505001 0.007438992 0.01647524 -0.0019129108 0.0077214288
0.015887966 -0.0004912245 -0.0023106607 0.023637071 0.018491667 -0.010017982 -0.034269314 -0.0071817604
-0.005499044 0.008572589 -0.014176935 -0.0017662839 0.01992491 0.016318372 -0.017666072 -0.030057067
-0.0152809415 -0.0025261792 -0.026397321 -0.023874436 -0.018703762 -0.011782417 0.0069008553 0.010308274
0.003039155 -0.012409781 -0.007868464 -0.031485558 0.033626653 -0.006991409 0.0026621362 -0.032819144
0.0007639878 -0.006205007 0.022783065 0.020724645 -0.013140101 -0.01869702 -0.006685414 0.031247478
0.02443672 -0.015401935 -0.019697513 0.0129823685 -0.019204501 -0.0010348697 0.015856706 0.00619801
-0.019017914 -0.008854396 -0.008783965 0.025832912 0.016754908 0.027531464 0.0011547826 -0.0110338675
0.0058625834 0.008895975 0.016602231 0.0032913508 -0.0122703295 -0.010645625 0.00016164259 0.009573919
00000000: 07ed 86bb 1567 e0bc ff0f dc3a 5c33 5d3b
00000010: 2ebf a1bc f052 723c e913 993c 0e1d e2bc
00000020: 5cf0 6a3b 7d89 23bc deeb 8bbb b192 d8bb
00000030: b48d 20bb 0799 debc 2406 bc39 1b99 42ba
00000040: af2e 5d3d 3cdf 033c 5850 ffbc 745e 3c3c
00000050: 6d4e 17bc 08a6 38bd f575 c739 e079 4a3c
00000060: d098 fd3c a0ab 3db9 f11c d5bb 4469 12bc
00000070: d959 0b3c 7858 2fbb aa2e c7bb 0ef5 64bc
00000080: e4cd 583c c437 693b a850 91bb ba7c 773c
00000090: 97c1 413b 3aea 223d 3951 b43b 2736 e1bb
000000a0: e90c 2bbc 7d65 433c 96c1 4d3c 998f 8dbc
000000b0: 71d2 82bb f2eb b5bc 4389 07bc 4719 fabb
000000c0: 94e3 5639 3157 afbc cf82 bc3c 73de 9abb
000000d0: b204 b73b 9a3a 86ba 2347 7a3a 0ff3 f8bb
000000e0: 9341 833b 0c2a 1dbd 5c1c 36bd 7800 4fbb
000000f0: dfe7 d23b fa76 e83c fe4d 133a 832e e73b
00000100: 1b0a 11bd 1ec2 78bc 4d4d ac3c 5a60 473c
00000110: 72b3 853b 3f2a 77bb cf73 593c 5404 98bb
00000120: 7eb6 61bb 3984 21bc 09bc f13b f5e8 833c
00000130: f4eb 39bc 11ae 3cbd c82d 0c3d 466d 16bd
00000140: 27cb 20bd 692d 38bc d3bb d3ba 10ea 25bc
00000150: 0c5f f9bc 00fc f7bb 1ba8 24bc e8d4 ee3c
00000160: 6abb 8e3c 22e1 c03b 0d4c 523c 0b76 113c
00000170: 7734 d03b 15fc 2d3c db92 e7b9 271f 3b3d
00000180: 42be 653c c39d c0bc eddf 4ebc c54b 09bd
00000190: 1bde c43c 8f02 bd3b 4e51 cdbb 5e1e 8ebc
000001a0: 8d02 95bc 9a44 273b 9b3f 8ebc 2b03 463a
000001b0: b0bc 653b 5cf7 1d3c e1d3 da3b e683 5b3c
000001c0: 0dd0 11bc 95d9 a0bc 73d5 36bc d840 8838
000001d0: cab3 dbbc 760b 3e3d 606a b1bb 08a3 9ebb
000001e0: b3cb cfbb 8290 203d 745e 223b 0a39 003c
000001f0: 0e75 943b f862 d5bb 5490 05ba 7a81 5dbc
00000200: 10a8 f73b b9ca 8cbc 9fff 5e3c f9ea 373c
00000210: 0c42 413d 2284 0fbc 44e2 c23b 1d5c 093d
00000220: f7f7 d4bc 2f48 deba 7e4a b8bc 8c8b 79bc
00000230: 6acf d4ba dfd6 edbb cdce 463c 71d1 5a3c
00000240: 203c bb3b 5458 cc3c 521a 853d fec7 543c
00000250: c86f 60ba d74c 043b 5ee9 9dbc d863 87bc
00000260: 6685 9ebc 34f3 883b eac0 63bc 6955 e93b
00000270: 5a88 723b 1aec 003d bce5 c03b 5233 743b
00000280: bcbd 353c 277a cabb eccb 3f3c f439 bb3c
00000290: 6630 b5bc 69ca 88bc 48cf 3bbb a6f3 c5bc
000002a0: 6f5c 533b b558 863c 4705 fe3a b27b 67bb
000002b0: 039c f53b 82ab f0bc 8cec cebc 9c67 913c
000002c0: c18f 5d3c 6cda d23c efa5 f8bc 66fa 623c
000002d0: 3049 a23c 1a93 49bb d119 9b3c aa55 4d3d
000002e0: c66f 463c 6aed 313b f5ae 5abb 9990 0f3d
000002f0: cac2 f33b 15f7 863c a3ba faba 0a04 fd3b
00000300: 7b27 823c 85c5 00ba 746e 17bb 88a2 c13c
00000310: d67b 973c 7622 24bc fb5d 0cbd f954 ebbb
00000320: 5331 b4bb 0b74 0c3c 6046 68bc a782 e7ba
00000330: 9139 a33c 1bae 853c 70b8 90bc 3d3a f6bc
00000340: ea5c 7abc 418e 25bb 323f d8bc 5294 c3bc
00000350: a238 99bc 0a0b 41bc 9220 e23b 09e4 283c
00000360: 8f2c 473b 6552 4bbc bbea 00bc 00f7 00bd
00000370: 1abc 093d 3118 e5bb 3c77 2e3b 5e6d 06bd
00000380: 5a46 483a 5f53 cbbb 8da3 ba3c bbc6 a93c
00000390: 9449 57bc 7e2a 99bc 5111 dbbb b6fa ff3c
000003a0: 842f c83c 6658 7cbc ae5c a1bc 00b4 543c
000003b0: c252 9dbc 77a4 87ba ece5 813c ad18 cb3b
000003c0: 75cb 9bbc 0712 11bc 9fea 0fbc 8b9f d33c
000003d0: 9741 893c aa89 e13c 135c 973a 65c7 34bc
000003e0: ea1a c03b 6cc0 113c 6701 883c b4b3 573b
000003f0: 7e09 49bc fd6a 2ebc 9a7e 2939 eddb 1c3c

network_body._body_endoder.seq_layers.2.weight f4 [256, 256]
-0.07655273 -0.12514633 0.12445031 0.106996104 -0.06736382 0.036610913 0.06940206 0.034884103
-0.044198755 0.037126403 0.043966364 -0.012367811 -0.091386385 0.0071886103 0.020326387 0.22137474
0.049906265 -0.17812143 0.098140575 -0.031028552 -0.02722532 0.09256201 0.06420604 -0.00070376537
0.023410492 0.0241607 -0.04045159 0.11159911 0.07315884 0.0055739614 0.049517274 0.026359588
-0.018051403 0.079578996 0.020071339 -0.04062143 -0.0008001324 -0.06841144 0.036065377 0.03783875
0.03571194 0.108300686 -0.025851157 -0.030469608 0.0035276902 -0.06858067 0.032653786 -0.013931613
-0.03957327 0.07233464 -0.015218684 0.14917332 -0.049951952 0.002381711 0.047337826 0.022748014
-0.03137641 -0.035686124 -0.14338955 -0.04111507 -0.050594732 -0.12127617 0.020223161 -0.005516763
0.15059331 -0.015545828 -0.04029891 -0.0016752724 -0.03432763 0.050111078 0.0394177 0.0076104677
0.055538066 -0.014969164 0.020578638 0.079917155 -0.034468397 0.10658147 0.13431993 0.059135742
0.016254306 0.111266874 0.08067615 0.090303876 0.017370217 -0.055320226 0.028297368 -0.13856947
-0.10528625 0.0074981637 0.016062649 0.036155857 -0.13681455 0.04425433 0.002611248 0.05382423
0.035254925 0.10013737 0.07276843 0.011187985 0.024605192 0.006414954 -0.0041940045 -0.0039454587
0.05569439 -0.017455054 -0.0056418274 0.030899907 -0.008777744 -0.030837797 0.095430374 -0.0154635925
-0.023168765 -0.098239936 0.14675792 -0.05135339 -0.13076943 -0.13518819 0.089426145 0.060832374
-0.10827784 0.055963457 0.12740576 -0.020853484 0.07957289 -0.0019643912 0.109298214 -0.026178818
0.036744542 0.03698507 0.002583687 0.0600406 0.043137036 0.16177626 -0.073939115 -0.09233686
0.068378426 -0.0021904188 -0.03952418 0.011947012 -0.08295552 0.031378657 -0.029341927 0.00010923373
0.05582944 0.07784876 0.031039938 -0.021555346 0.0030640052 0.035192043 -0.08718428 -0.007784558
0.024225848 -0.047440443 0.045621302 0.06518395 0.031598598 -0.067190364 -0.049433775 -0.003408241
-0.08209813 -0.008803774 0.08193118 -0.052974496 -0.030633792 -0.12344928 0.01668701 -0.024501136
0.01455857 0.008659723 -0.035235874 -0.045342892 -0.07451548 -0.05915463 0.042431824 -0.06307223
0.018165125 -0.061257016 -0.07784147 -0.021193583 -0.09075126 0.040589795 -0.05446189 -0.019211397
-0.033043485 0.020655485 0.021941015 1.3031452e-05 0.002389836 0.07453388 -0.013788793 -0.014293777
0.13764995 -0.17660004 0.055524148 0.07722907 -0.043043002 0.0796045 -0.053815745 0.035079475
-0.076089986 -0.010319653 0.016844925 0.07331625 0.002516199 0.025516832 0.019074198 -0.116800025
-0.09698618 -0.032278795 0.0069926963 -0.022014638 -0.0055873194 0.045028195 0.037166722 -0.02382642
0.0069018137 0.014698789 0.14777029 -0.015934963 -0.012435204 -0.06589146 -0.086889155 0.1624396
0.10287338 -0.058833506 -0.027970253 -0.00786352 -0.0067014247 -0.019460056 0.032363337 0.0024575698
-0.082907796 -0.068931475 0.15697415 -0.02812862 -0.049951807 -0.061506663 -0.009943314 0.05403928
0.008357713 -0.026397478 0.032975487 0.02571677 0.062432963 0.06825165 -0.027304083 -0.01263089
0.004767765 0.08011439 -0.051425032 -0.06215642 -0.06232507 -0.048597638 -0.03737461 0.033469807
00000000: adc7 9cbd 5c26 00be cedf fe3d c620 db3d
00000010: 0bf6 89bd 53f5 153d ab22 8e3d a2e2 0e3d
00000020: c109 35bd db11 183d 1316 343d 5ca2 4abc
00000030: c928 bbbd 6f8e eb3b 8683 a63c 0fb0 623e
00000040: 836a 4c3d 7765 36be edfd c83d 972f febc
00000050: a207 dfbc 2791 bd3d 757e 833d e57c 38ba
00000060: 5cc7 bf3c a9ec c53c 91b0 25bd 138e e43d
00000070: 4dd4 953d c7a5 b63b a0d2 4a3d 10f0 d73c
00000080: 89e0 93bc 50fa a23d a66c a43c a862 26bd
00000090: fabf 51ba 4c1b 8cbd 4ab9 133d cefc 1a3d
000000a0: af46 123d c0cc dd3d cec5 d3bc 669b f9bc
000000b0: d230 673b 0674 8cbd fabf 053d 6c41 64bc
000000c0: 9517 22bd 2f24 943d ca57 79bc e4c0 183e
000000d0: 6b9a 4cbd 7b16 1c3b 4fe5 413d 0b5a ba3c
000000e0: 8d84 00bd 9d2b 12bd b6d4 12be 4768 28bd
000000f0: 6c3c 4fbd a45f f8bd 0bab a53c f6c5 b4bb
00000100: 2235 1a3e eeb3 7ebc 7810 25bd d094 dbba
00000110: 219b 0cbd 4641 4d3d 7474 213d 3b61 f93b
00000120: e27b 633d 3941 75bc 8894 a83c 9bab a33d
00000130: bc2e 0dbd 6347 da3d 2a8b 093e 5238 723d
00000140: c027 853c e3df e33d 8a39 a53d 3df1 b83d
00000150: fc4b 8e3c 7697 62bd e2cf e73c 28e5 0dbe
00000160: 51a0 d7bd 28b3 f53b d195 833c 2a18 143d
00000170: 1d19 0cbe 0744 353d 7921 2b3b cc76 5c3d
00000180: 7867 103d d214 cd3d 9d07 953d cf4d 373c
00000190: d490 c93c 8934 d23b dc6d 89bb e848 81bb
000001a0: cd1f 643d e7fd 8ebc 14df b8bb cd21 fd3c
000001b0: 87d0 0fbc 8c9f fcbc 0071 c33d 025b 7dbc
000001c0: 6ccc bdbc 0532 c9bd b547 163e ef57 52bd
000001d0: 6ce8 05be c66e 0abe 0e25 b73d 5e2b 793d
000001e0: c6c0 ddbd f039 653d a876 023e edd4 aabc
000001f0: 1df7 a23d 04bd 00bb bed7 df3d f674 d6bc
00000200: 7281 163d a87d 173d 1353 293b 22ed 753d
00000210: 76b0 303d ada8 253e 646d 97bd 1c1b bdbd
00000220: fd09 8c3d 218d 0fbb 1be4 21bd 66bd 433c
00000230: 95e4 a9bd e886 003d 7b5e f0bc 6a14 e538
00000240: 69ad 643d 2c6f 9f3d 7847 fe3c d694 b0bc
00000250: 7acd 483b 8825 103d ac8d b2bd 9b15 ffbb
00000260: 4975 c63c e950 42bd 67dd 3a3d 2a7f 853d
00000270: 886d 013d 1a9b 89bd 127b 4abd cc5c 5fbb
00000280: 1023 a8bd b43d 10bc 89cb a73d c9fb 58bd
00000290: b8f3 fabc fad2 fcbd 32b3 883c 9bb6 c8bc
000002a0: 1287 6e3c 83e1 0d3c 7e53 10bd 78b9 39bd
000002b0: 929b 98bd 204c 72bd fecc 2d3d 032c 81bd
000002c0: 07cf 943c a3e8 7abd 596b 9fbd 2a9e adbc
000002d0: ccdb b9bd 7c41 263d 6e13 5fbd 3861 9dbc
000002e0: 9b58 07bd b135 a93c a5bd b33c a9a1 5a37
000002f0: cb9e 1c3b 38a5 983d 64ea 61bc 7230 6abc
00000300: 1cf4 0c3e a4d6 34be 4a6d 633d 462a 9e3d
00000310: dc4d 30bd af07 a33d e66d 5cbd 7faf 0f3d
00000320: 11d5 9bbd c313 29bc 5efe 893c d526 963d
00000330: d0e6 243b ad08 d13c 7e41 9c3c da34 efbd
00000340: b1a0 c6bd c536 04bd fd22 e53b 0b58 b4bc
00000350: d515 b7bb 7c6f 383d 223c 183d a02f c3bc
00000360: 9c28 e23b 31d3 703c 1851 173e 0a8a 82bc
00000370: 07bd 4bbc 1af2 86bd f1f2 b1bd 9156 263e
00000380: 47af d23d 67fb 70bd df21 e5bc fed5 00bc
00000390: a097 dbbb b26a 9fbc 6b8f 043d 2e0f 213b
000003a0: 90cb a9bd f22b 8dbd d5bd 203e fe6d e6bc
000003b0: 449a 4cbd 69ee 7bbd 48e9 22bc 4b58 5d3d
000003c0: caee 083c 863f d8bc 4e11 073d faab d23c
000003d0: b5b9 7f3d 85c7 8b3d d0ac dfbc cbf1 4ebc
000003e0: e93a 9c3b 0313 a43d 0ea3 52bd bb97 7ebd
000003f0: 9348 7fbd 510e 47bd 1e16 19bd a317 093d

network_body._body_endoder.seq_layers.2.bias f4 [256]
-0.010134927 0.0069404976 -0.0025786806 -0.01370742 0.0116218105 -0.028278183 -0.00741089 -0.0017921748
-0.013950076 0.0067135026 0.02652558 0.0037768313 0.006157528 0.010505591 -0.02345834 0.00722871
0.0098744035 -0.004561484 -0.024059165 -0.0051072245 -0.0044789156 -0.0020667815 0.009555277 0.010075114
-0.001039774 -0.012647938 0.0022576528 0.0047783577 -0.02116279 -0.015373421 0.01599019 -0.012802254
-0.00087170507 0.014221433 -0.014074186 0.008489905 0.0097818775 -0.0152362585 0.0032197698 -0.0033515026
-0.0118372105 -0.016755674 -0.01298224 0.008709538 0.01901544 -0.028631233 -0.015466153 0.017135523
-0.010113669 -0.0005494 0.007459283 0.004572978 0.0051550907 -0.016258333 0.022257622 -0.01952434
0.01441032 -0.0008339488 0.016471183 -0.010009224 -0.010355338 -0.0039499956 0.005763774 0.00754522
-0.016283209 0.0021617545 0.0029175163 -0.019818334 -0.0079095 0.021003386 -0.0020847092 0.004499888
0.007866403 0.0067860787 -0.0035103015 -0.0062649706 0.011886588 -0.0031945307 -0.012394573 0.012409067
0.0076095527 0.001977886 -0.006032217 0.006780064 0.0020876436 -0.0026090627 -0.013253917 -0.0022879879
0.0022817794 -0.008245292 0.0052605825 0.04060084 -0.005508607 0.00340842 -0.006866321 0.0006341777
0.00083334005 0.0030078848 0.019652814 0.00059855287 0.0030800982 -0.009214152 0.018218786 0.023459256
-0.000864111 0.008832887 0.010801941 -0.015988372 0.006911224 0.0021654957 0.0055718697 -0.0030962084
0.008455601 0.004213807 0.0022514237 -0.00091017655 0.014446592 -0.0003982072 0.0041353647 0.024248535
0.023916597 0.02525716 -0.012349866 0.0016434477 0.00082349475 0.0077662845 0.0063787824 -0.0053196377
0.0013647986 0.006442708 -0.0012515533 -0.029312389 0.0033767081 0.017817691 0.0025910384 0.0054248422
-0.0033058275 0.00070421625 0.0013093755 -0.0074894764 -0.00016174492 0.002406514 -0.002346502 0.00060537545
-0.030926693 -0.022292264 -0.024178226 0.023027256 0.027489446 -0.014983666 0.02674965 0.006304495
-0.0068089366 -0.0020129092 -0.012446841 0.0014779678 0.0020168996 -0.01628216 -0.007764009 -0.0019332034
0.036215637 -0.0089411475 0.004394621 0.015090178 -0.0031342634 -0.011625762 -0.016886352 0.005107619
-0.018733628 -0.023828674 0.02813441 -0.00033884126 -0.0026546388 0.001927259 -0.005048423 0.0062668636
0.0072756363 -0.0008868239 0.004861563 0.00045303715 -0.0063664294 -0.00466671 0.0122424355 0.023019567
-0.0037005264 0.009259645 -0.01597809 0.0025369397 -0.00015402559 0.008973108 0.020939337 0.0066223014
-0.00946325 0.016853666 -0.011988385 0.014405297 0.012814664 -0.0028437742 -0.024935868 -0.006860884
-0.013871808 0.0010425986 0.0036464413 -0.0033187803 -0.0061155907 -0.01459915 0.0134484535 0.028665815
0.017304031 -0.01582818 -0.010135275 -0.013120529 -0.011660814 -0.020383589 -0.01771469 0.013077806
-0.0016869936 -0.012860317 -0.010038538 0.0043822597 0.0039346586 -0.017314617 -0.009447548 0.003512098
0.022974815 0.011247583 -0.01591273 -0.02154221 -0.0074273353 0.0030780681 -0.0070693404 -0.0003934519
0.004055432 0.018832605 -0.008482191 -0.011454332 0.003886018 -0.0029377197 -0.01686864 0.021029346
0.011576484 0.01741302 0.0030188242 -0.0052766623 -0.017893642 0.010806118 0.011492602 0.004264227
-0.00035353657 -0.015910788 -0.00055263785 -0.019494733 -0.02647208 0.0030011565 0.004293128 -0.015152895
00000000: f70c 26bc 1d6d e33b 15ff 28bb 1695 60bc
00000010: 6869 3e3c a6a7 e7bc 0dd7 f2bb 68e7 eaba
00000020: dc8e 64bc f1fc db3b 2c4c d93c b784 773b
00000030: 17c5 c93b a41f 2c3c b42b c0bc d1de ec3b
00000040: 40c8 213c 8078 95bb ba17 c5bc 815a a7bb
00000050: dec3 92bb d772 07bb bd8d 1c3c 1712 253c
00000060: 0749 88ba 4c39 4fbc 21f5 133b c593 9c3b
00000070: 965d adbc cde0 7bbc dcfd 823c 8cc0 51bc
00000080: 2383 64ba 0301 693c 6a97 66bc 3e19 0b3c
00000090: 2b44 203c 80a1 79bc c602 533b e2a4 5bbb
000000a0: dcf0 41bc 3243 89bc 76b3 54bc 73b2 0e3c
000000b0: 45c6 9b3c 0c8c eabc bf65 7dbc cc5f 8c3c
000000c0: cdb3 25bc 9c05 10ba 006d f43b ebd8 953b
000000d0: 09ec a83b 3230 85bc 9e55 b63c 82f1 9fbc
000000e0: 4319 6c3c 5b9d 5aba 93ee 863c bafd 23bc
000000f0: 70a9 29bc f76e 81bb 0ade bc3b e53d f73b
00000100: 5d64 85bc 39ac 0d3b cd33 3f3b 0f5a a2bc
00000110: d996 01bc 4b0f ac3c 9e9f 08bb cc73 933b
00000120: 16e2 003c c15d de3b 160d 66bb 624a cdbb
00000130: f7bf 423c 555b 51bb 9b12 4bbc 664f 4b3c
00000140: 8e59 f93b 6c9f 013b e7a9 c5bb 4d2b de3b
00000150: d9d0 083b cffc 2abb f526 59bc 11f2 15bb
00000160: e889 153b 4317 07bc f760 ac3b 114d 263d
00000170: 8b81 b4bb cc5f 5f3b e0fe e0bb f23e 263a
00000180: 8174 5a3a ef1f 453b f0fe a03c 34e8 1c3a
00000190: 79db 493b f4f6 16bc 903f 953c a02d c03c
000001a0: 8285 62ba d0b7 103c a0fa 303c 0cfa 82bc
000001b0: 8d77 e23b fdea 0d3b 3b94 b63b c2e9 4abb
000001c0: 5c89 0a3c fa13 8a3b 9f8c 133b ea98 6eba
000001d0: 66b1 6c3c 77c6 d0b9 f481 873b dda4 c63c
000001e0: bdec c33c 1be8 ce3c 1857 4abc f468 d73a
000001f0: ccdf 573a 517c fe3b 1b05 d13b 5b50 aebb
00000200: 0be3 b23a 5a1d d33b 290b a4ba 8920 f0bc
00000210: c34b 5d3b 68f6 913c 69ce 293b e0c2 b13b
00000220: 95a6 58bb 279b 383a 5a9f ab3a 486a f5bb
00000230: 129a 29b9 9bb6 1d3b c5c7 19bb 0fb2 1e3a
00000240: fa59 fdbc 449e b6bc 6a11 c6bc a8a3 bc3c
00000250: 8c31 e13c 0d7e 75bc 1522 db3c f095 ce3b
00000260: 801d dfbb 03eb 03bb d6ed 4bbc 5fb8 c13a
00000270: f62d 043b 2a62 85bc 3a69 febb 8b63 fdba
00000280: d956 143d e47d 12bc c100 903b cb3c 773c
00000290: 3768 4dbb fb79 3ebc 3f55 8abc d05d a73b
000002a0: 4477 99bc 5a34 c3bc 227a e63c 81a6 b1b9
000002b0: 73f9 2dbb 159c fc3a 3e6d a5bb 435a cd3b
000002c0: 7668 ee3b bf79 68ba bf4d 9f3b 9e85 ed39
000002d0: 7b9d d0bb 33eb 98bb 7f94 483c 8893 bc3c
000002e0: 8884 72bb c4b5 173c 7ce4 82bc c942 263b
000002f0: ee81 21b9 f103 133c f988 ab3c e4ff d83b
00000300: bf0b 1bbc b310 8a3c ee6a 44bc 3204 6c3c
00000310: 99f4 513c 9d5e 3abb 4e46 ccbc 44d1 e0bb
00000320: 9446 63bc cea7 883a 22f9 6e3b e57f 59bb
00000330: 4b65 c8bb 4631 6fbc e756 5c3c 92d4 ea3c
00000340: 2fc1 8d3c 19aa 81bc 6d0e 26bc 7df7 56bc
00000350: 000d 3fbc 7cfb a6bc 661e 91bc 4b44 563c
00000360: 1d1e ddba 14b4 52bc ae78 24bc 0f99 8f3b
00000370: 4fee 803b 62d7 8dbc e3c9 1abc 3a2b 663b
00000380: ae35 bc3c c847 383c 6a5b 82bc 4a79 b0bc
00000390: 0161 f3bb 6ab9 493b eda5 e7bb 3848 ceb9
000003a0: 6ee3 843b d646 9a3c e3f8 0abc f3aa 3bbc
000003b0: 90ac 7e3b c286 40bb 1a30 8abc bc45 ac3c
000003c0: 4bab 3d3c c0a5 8e3c 77d7 453b dae7 acbb
000003d0: b095 92bc 250c 313c 774b 3c3c eeba 8b3b
000003e0: e05a b9b9 5757 82bc e6de 10ba 6bb3 9fbc
000003f0: fadb d8bc 0daf 443b 5ead 8c3b d943 78bc

action_model._discrete_distribution.branches.0.weight f4 [2, 256]
-0.00019390469 -0.004147554 -0.0010807234 0.0055932333 -0.008493182 0.013244734 0.014299248 0.015256827
0.009309772 0.011304316 0.01221439 0.022458592 -0.022550697 0.016510352 0.023445148 -0.038209807
-0.0027373484 -0.0008151395 0.007762251 0.0013873299 0.0068003833 0.009088008 -0.0079867225 0.00034815705
0.005843533 0.0014307365 0.021035941 -0.011118123 0.008548735 -0.001940979 0.009343568 -0.0008451483
0.0063379756 0.019279651 0.002115234 -0.006995274 -0.02505325 0.01190133 -0.006991693 -0.005669754
0.025444373 0.027117163 0.012690107 -0.012815121 0.007652078 0.021865858 0.01578302 0.017305417
0.0056215515 -0.0067750067 0.00024867558 -0.012527075 0.015900735 0.017573392 0.038277883 0.016036114
-0.008696652 0.0057313573 0.017221892 0.0043941084 -0.0072645755 -0.0005492854 -0.015911993 -0.012262576
0.01316772 0.014959576 0.018459685 0.019471457 0.017024798 0.01950326 -0.012514725 -0.010955767
0.019195184 -0.01608229 0.00446994 0.0009105659 0.0012459232 0.012611492 0.0081926305 0.02147646
-0.008999022 -0.014272118 0.019827742 0.0026264496 -0.025393797 0.0062109074 0.015583451 0.0047021373
0.021741927 -0.015071421 0.0059662242 0.013752142 0.0070305 0.031117696 0.0026656128 -0.0024444074
-0.0042078565 -0.008080344 -0.007384775 0.021550946 -0.018792659 -0.0015227647 0.018707536 0.008564162
0.006295561 -0.00795948 -0.0035466203 0.020459471 0.022537244 0.023378693 -0.00878194 -0.006982418
-0.0062597576 0.0007159966 0.029569913 0.028461497 0.027817603 -0.0023917453 0.006635663 0.04193126
-0.0038257912 -0.0025434683 0.0077452003 -0.005518489 0.0081342105 -0.018030336 0.038256526 0.0008997858
-0.011937867 0.011587229 0.009542184 0.009158455 -0.009317904 0.022863582 -0.0059993016 0.012217212
-0.0076908846 -0.008464809 0.0027834254 -0.004009157 0.002889684 0.030274488 0.0007015677 -0.011190664
0.011294977 0.005045038 0.013316451 -0.009089885 0.0035794645 -0.0030870663 -0.0018558832 -0.017231243
0.033573855 0.0017257842 0.021978494 -0.005995487 -0.0013352089 0.008733946 0.006536346 -0.0022339146
0.010340801 0.0032508643 -0.00460381 0.009070913 0.005691289 0.01196093 -0.0027902909 -0.011068602
0.020412471 0.0067189727 0.020609878 0.018251585 -0.011620744 0.019184092 0.018339204 0.0061819702
-0.015393686 -0.009109914 -0.030606436 -0.011333167 0.0029202376 0.007436432 0.015278599 0.046165667
0.011570132 -0.030056225 0.028973546 -0.0066828295 0.015326611 -0.011819741 -0.029537601 0.019535115
-0.003907293 -0.015005583 0.008486236 -0.008422848 0.01936397 0.0062875594 0.01612755 -0.00085574214
0.004674162 0.018271998 0.0111244945 0.009751217 0.0007077825 0.0030641353 -0.008848428 -0.0029952053
0.012274117 0.009823113 0.006545768 0.00011781739 0.0054780776 0.007571634 0.030131409 -0.03998071
-0.008039972 0.016446369 0.010774062 0.010393261 0.019777266 0.027319731 -0.004477864 -0.024542795
0.015782746 0.030111065 0.0031989177 0.024656883 0.0046205465 -0.019769568 -0.0007039722 -0.009104728
0.020300193 -0.00857494 0.009285408 -0.0008178104 -0.0028433076 -0.004819921 0.0020400863 0.010329702
0.042925555 0.014441676 -0.013114674 0.013055175 0.013402591 0.014953567 0.013226655 -0.008806689
-0.0074684066 0.0076502287 0.0019480328 0.002391259 0.012525086 0.028959751 -0.012349616 -0.0019500882
00000000: e552 4bb9 34e8 87bb 0fa7 8dba 7147 b73b
00000010: fd26 0bbc 7100 593c 6547 6a3c c5f7 793c
00000020: 0488 183c bd35 393c dd1e 483c 15fb b73c
00000030: 3dbc b8bc b840 873c 0a10 c03c e381 1cbd
00000040: 1665 33bb 16af 55ba 7b5a fe3b 11d7 b53a
00000050: c0d5 de3b dee5 143c beda 02bc d988 b639
00000060: 1c7b bf3b 8d87 bb3a 9153 ac3c ca28 36bc
00000070: fe0f 0c3c 7368 feba c415 193c f18c 5dba
00000080: cbae cf3b 5cf0 9d3c bd9f 0a3b 9d38 e5bb
00000090: 793c cdbc ccfd 423c 921a e5bb 58c9 b9bb
000000a0: b870 d03c d024 de3c 2bea 4f3c 83f6 51bc
000000b0: 48be fa3b 0720 b33c 644b 813c 17c4 8d3c
000000c0: fe34 b83b e000 debb ac60 8239 5c3e 4dbc
000000d0: 4242 823c 13f6 8f3c 45c9 1c3d 2b5e 833c
000000e0: 677c 0ebc 1cce bb3b ed14 8d3c 74fc 8f3b
000000f0: ad0b eebb ebfd 0fba de59 82bc f9e8 48bc
00000100: 6cbd 573c 0219 753c c438 973c 9b82 9f3c
00000110: 9777 8b3c 4dc5 9f3c 900a 4dbc d17f 33bc
00000120: 383f 9d3c 02bf 83bc 9378 923b 0bb3 6e3a
00000130: 3f4e a33a 6ea0 4e3c 623a 063c 67ef af3c
00000140: a270 13bc 9ad5 69bc ca6d a23c 8320 2c3b
00000150: a706 d0bc de84 cb3b bb51 7f3c 6314 9a3b
00000160: 201c b23c 1fee 76bc 5180 c33b aa50 613c
00000170: 1c60 e63b 8aea fe3c 90b1 2e3b 5a32 20bb
00000180: 0fe2 89bb 6b63 04bc fcfb f1bb 9c8b b03c
00000190: 10f3 99bc 8197 c7ba 8c40 993c b350 0c3c
000001a0: fe4a ce3b 7b68 02bc 6a6e 68bb 9f9a a73c
000001b0: 07a0 b83c ac84 bf3c 20e2 0fbc c4cc e4bb
000001c0: a71e cdbb b8b1 3b3a 9a3c f23c 1628 e93c
000001d0: bee1 e33c d4be 1cbb fa6f d93b 1dc0 2b3d
000001e0: 20ba 7abb 51b0 26bb 73cb fd3b 71d4 b4bb
000001f0: 5a45 053c 5bb4 93bc e0b2 1c3d 9adf 6b3a
00000200: 0b97 43bc 5cd8 3d3c d256 1c3c 580d 163c
00000210: 1faa 18bc 684c bb3c ca95 c4bb b32a 483c
00000220: d103 fcbb fbaf 0abc 216a 363b 3f5f 83bb
00000230: da60 3d3b 3402 f83c 69e9 373a 0c59 37bc
00000240: 910e 393c d950 a53b 3e2d 5a3c beed 14bc
00000250: 7395 6a3b 6150 4abb 1b41 f3ba 8928 8dbc
00000260: bd84 093d b533 e23a 3e0c b43c ca75 c4bb
00000270: 2d02 afba d318 0f3c d82e d63b de66 12bb
00000280: 776c 293c 740c 553b 8fdb 96bb 2b9e 143c
00000290: fe7d ba3b c7f7 433c 50dd 36bb 1559 35bc
000002a0: 0e38 a73c d42a dc3b 0cd6 a83c 5984 953c
000002b0: ef64 3ebc f527 9d3c 193c 963c 2092 ca3b
000002c0: cc35 7cbc c041 15bc 59ba fabc bfae 39bc
000002d0: 7561 3f3b 50ad f33b 1753 7a3c 3618 3d3d
000002e0: a790 3d3c 7938 f6bc ee59 ed3c a3fb dabb
000002f0: 771c 7b3c 96a7 41bc d7f8 f1bc 1b08 a03c
00000300: c008 80bb fad9 75bc db09 0b3c fcff 09bc
00000310: 30a1 9e3c df07 ce3b ec1d 843c e253 60ba
00000320: b629 993b 28af 953c 8343 363c 92c3 1f3c
00000330: 7b8a 393a a9cf 483b fff8 10bc 354b 44bb
00000340: 6119 493c 1ff1 203c e27d d63b bb14 f738
00000350: 7281 b33b 781b f83b 25d6 f63c d0c2 23bd
00000360: 16ba 03bc 89ba 863c b185 303c 7f48 2a3c
00000370: ef03 a23c a1cd df3c 0cbb 92bb f90d c9bc
00000380: d14a 813c 7bab f63c efa4 513b 3bfd c93c
00000390: f467 973b caf3 a1bc c68a 38ba ff2b 15bc
000003a0: 974c a63c e87d 0cbc d321 183c 5462 56ba
000003b0: c956 3abb 6ef0 9dbb f8b2 053b e93d 293c
000003c0: b5d2 2f3d c89c 6c3c eede 56bc 5fe5 553c
000003d0: 8b96 5b3c ceff 743c 9db4 583c ee49 10bc
000003e0: 89b9 f4bb c5ae fa3b 2255 ff3a abb6 1c3b
000003f0: 0536 4d3c 003d ed3c 0b56 4abc 1a9a ffba

action_model._discrete_distribution.branches.0.bias f4 [2]
-0.012199342 0.012199343
00000000: c0df 47bc c1df 473c

action_model._discrete_distribution.branches.1.weight f4 [3, 256]
0.011237133 -0.006105938 -0.0074812355 0.002302426 0.0015334736 0.020943232 0.015003481 0.0028042656
0.008861795 -0.010211698 -0.0076045035 0.0026877546 -0.0034813061 -0.0035055235 0.013073776 -0.007778187
-0.0036398424 -0.0027736307 0.012250886 0.007017923 0.0028906076 0.0069070105 -0.008958623 -0.0026687065
0.00668363 -0.015537617 -0.0031448551 -0.0043728696 0.009596257 0.003443843 0.008254329 0.002967097
-0.0010175967 -0.013939393 -0.005112235 0.0043405984 -0.0016605695 0.01235713 0.005034597 -0.009099186
0.00858875 0.015054797 0.008051705 0.0035405373 -0.0036216448 0.009367248 0.0070555583 -0.003184887
7.1094466e-05 0.002100673 -0.0019871448 0.0038672006 -0.0023027407 0.017510671 0.0029572037 0.012504492
-0.0012367509 -0.006899794 0.010319469 -0.0040223366 -0.01155992 -0.008629963 0.0034973943 -0.0014327192
0.014366275 -0.0066791903 -0.0035206536 0.013748236 0.004272557 0.009949242 0.010436924 0.01229459
0.018023213 -0.017312247 0.0059958072 0.0024106014 0.003906078 0.011072074 0.005520626 0.0051218146
-0.0014788621 0.005633794 -0.00040083542 0.002046954 0.0048397984 -0.0011487001 0.015140399 -0.003916124
-7.053936e-05 -0.0026632538 -0.0057602413 0.0004008993 0.005527165 0.0033647777 -0.0018236461 -0.009206996
-0.0005420039 0.0030613777 -0.0027639188 0.0021636134 -0.0024342844 0.005391378 0.0015913789 -0.0016980681
0.00014949804 0.004500336 0.0056578196 0.009906009 0.0037105402 0.0003306262 -0.005306532 0.0067779915
0.010221958 0.0094139725 0.008295179 -0.0067493706 -0.009059033 0.0047421395 0.0048186122 -0.008711729
-0.00020755788 -0.010518296 -0.00028186347 -0.008879894 -0.012010681 -0.009627514 0.009829423 0.0007225254
0.0041664466 0.008541949 0.0087440675 0.0058588847 0.012491255 -0.0095168585 -0.007917697 -0.002934719
0.00477149 -0.0011353451 -0.005117538 0.009606598 0.00087087223 -0.008214239 -0.012196249 0.004931368
0.014903121 0.004691923 0.010725313 0.0009453007 -0.0046237903 0.0066797063 -0.0003484837 0.0033070073
0.013680566 0.009575307 0.0053291745 0.006246832 -0.006425252 -7.537623e-05 -0.0014279963 0.001052976
-0.0007005576 0.0033585757 0.0039444137 0.0016792999 0.014750038 0.009123861 -0.0061800214 -0.007589029
0.0027170526 0.0036261675 -0.0038063917 -0.00509313 0.0029472215 -0.0074653802 -0.0040813894 -0.00763295
-0.0012336693 0.008921148 0.014446519 -0.0014251154 0.0032510255 0.006987212 -0.008043056 -0.0042160135
0.0022769228 -0.00039791438 0.014741797 -0.006413526 0.014624493 -0.010082713 -0.0009270241 0.0035043648
0.00094244676 -0.011840049 0.014561592 0.0035433064 -0.012149917 -0.0073847855 0.014692544 -0.0057997233
-0.00014905342 -0.00074406894 -0.0026836095 0.011777424 0.0034772572 -0.003238089 0.00453224 0.008679737
-0.0034856999 0.0066025793 -0.004436958 -0.010428485 0.011848208 0.0056375274 0.0071409782 0.005496467
0.0038852154 0.02087441 -2.2269443e-05 -0.0030550095 -0.011069059 0.004032555 -0.0011222378 -0.00043389172
-0.015238417 -0.007516295 0.0032700214 0.010265162 0.008732033 0.004217516 -0.0025954884 0.0016253822
-0.0021117965 -0.0030460157 0.00870741 -0.0054350076 -0.0022851203 0.010841121 0.010812157 0.018379549
0.011860908 -0.0052582785 0.006617457 0.008401256 0.00976911 0.013980302 -0.008876559 0.0066593043
0.005485216 0.0064628143 -0.0023179196 0.008834836 0.023804074 0.007586431 -0.009442653 0.005708475
00000000: f41b 383c 5214 c8bb 2725 f5bb 4ce4 163b
00000010: d6fe c83a 2491 ab3c 29d1 753c c5c7 373b
00000020: 1031 113c f74e 27bc 332f f9bb 0a25 303b
00000030: a026 64bb edbc 65bb 6433 563c 29e0 febb
00000040: 6c8a 6ebb cdc5 35bb f1b7 483c 9bf6 e53b
00000050: 5970 3d3b 3454 e23b 30c7 12bc 77e5 2ebb
00000060: 5a02 db3b 7d91 7ebc ea19 4ebb 4a4a 8fbb
00000070: 9e39 1d3c 19b2 613b 2a3d 073c a173 423b
00000080: e160 85ba 0d62 64bc 8984 a7bb 943b 8e3b
00000090: 77a7 d9ba 8f75 4a3c 43f9 a43b c114 15bc
000000a0: d4b7 0c3c 65a8 763c 4ceb 033c 5c08 683b
000000b0: 1e59 6dbb 1679 193c 5032 e73b 8ab9 50bb
000000c0: 8d18 9538 72ab 093b c23a 02bb dc70 7d3b
000000d0: 94e9 16bb 8a72 8f3c a5cd 413b a4df 4c3c
000000e0: 791a a2ba ab17 e2bb fd12 293c cecd 83bb
000000f0: d265 3dbc b064 0dbc 8a34 653b 14ca bbba
00000100: 8660 6b3c 1cdd dabb c4ba 66bb 4840 613c
00000110: ce00 8c3b 2502 233c a2ff 2a3c 3f6f 493c
00000120: 6ba5 933c 6ad2 8dbc 7a78 c43b 2efb 1d3b
00000130: 1dfd 7f3b a567 353c 5ee6 b43b e5d4 a73b
00000140: 61d6 c1ba b09b b83b 3827 d2b9 3026 063b
00000150: 2c97 9e3b fb8f 96ba 700f 783c d452 80bb
00000160: 88ee 93b8 fc89 2ebb 68c0 bcbb cb2f d239
00000170: 381d b53b 9a83 5c3b 6907 efba f1d8 16bc
00000180: 4415 0eba 65a1 483b dd22 35bb 69cb 0d3b
00000190: 8488 1fbb 28aa b03b d195 d03a b691 deba
000001a0: 93c2 1c39 8e77 933b 3b65 b93b d04c 223c
000001b0: 892c 733b e657 ad39 6be2 adbb ea19 de3b
000001c0: 007a 273c 103d 1a3c 81e8 073c d329 ddbb
000001d0: 576c 14bc f363 9b3b 73e5 9d3b a4bb 0ebc
000001e0: e5a3 59b9 ee54 2cbc 13c7 93b9 fa7c 11bc
000001f0: 73c8 44bc b8bc 1dbc 970b 213c dc67 3d3a
00000200: b086 883b 88f3 0b3c 4743 0f3c e3fb bf3b
00000210: 1fa8 4c3c 99ec 1bbc 3ab9 01bc 6a54 40bb
00000220: 295a 9c3b dccf 94ba 05b1 a7bb fe64 1d3c
00000230: 3f4b 643a 0495 06bc c7d2 47bc 5097 a13b
00000240: 382c 743c b4be 993b 39b9 2f3c 0ece 773a
00000250: 2a83 97bb 70e1 da3b b1b4 b6b9 60ba 583b
00000260: 7424 603c c0e1 1c3c 5ba0 ae3b 3ab2 cc3b
00000270: ec8a d2bb 4e13 9eb8 9b2b bbba 0304 8a3a
00000280: a0a5 37ba 8d1b 5c3b 2440 813b f41b dc3a
00000290: 25aa 713c 3f7c 153c c781 cabb 64ad f8bb
000002a0: 9410 323b ffa4 6d3b a874 79bb 45e4 a6bb
000002b0: 2c26 413b 26a0 f4bb 2dbd 85bb d31d fabb
000002c0: 13b3 a1ba 022a 123c 18b1 6c3c f0ca baba
000002d0: 280f 553b fcf4 e43b 06c7 03bc 7c26 8abb
000002e0: 6d38 153b 2a9f d0b9 9487 713c 8e28 d2bb
000002f0: 929b 6f3c f731 25bc 8903 73ba 7ca9 653b
00000300: 880e 773a c4fc 41bc be93 6e3c d136 683b
00000310: 7210 47bc 12fc f1bb ffb8 703c 9b0b bebb
00000320: 394b 1cb9 9f0d 43ba 7fdf 2fbb 19f6 403c
00000330: b2e2 633b 1e36 54bb 2f83 943b 7535 0e3c
00000340: 5770 64bb 735a d83b e763 91bb 3ddc 2abc
00000350: fc1e 423c 02bb b83b defe e93b b51b b43b
00000360: 199f 7e3b d000 ab3c 44cf bab7 8e36 48bb
00000370: 005b 35bc 8623 843b 0d18 93ba f67b e3b9
00000380: 8eaa 79bc 414b f6bb db4d 563b 362f 283c
00000390: cd10 0f3c 1733 8a3b 1219 2abb c70a d53a
000003a0: 1166 0abb aa9f 47bb 86a9 0e3c 2618 b2bb
000003b0: f5c1 15bb f59e 313c 7925 313c b590 963c
000003c0: 4154 423c a34d acbb 41d7 d83b 6ca5 093c
000003d0: 9e0e 203c a30d 653c fd6e 11bc 4b36 da3b
000003e0: 54bd b33b 04c6 d33b 3de8 17bb fdbf 103c
000003f0: c300 c33c 9997 f83b 5bb5 1abc 290e bb3b

action_model._discrete_distribution.branches.1.bias f4 [3]
-0.006506342 0.001139368 0.005616028
00000000: 2733 d5bb d956 953a a806 b83b

action_model._discrete_distribution.branches.2.weight f4 [2, 256]
-0.00046337664 -0.003770427 -0.0050482894 -0.0026192353 -0.0107147945 0.011466259 -0.016944917 -0.01007762
-0.0074832714 -0.022726921 -0.018210448 -0.018941313 0.0040728603 -0.007344505 0.004345333 -0.0061538354
-0.0042173495 0.007490701 0.0100983465 -0.00058395707 -0.011726507 -0.007199916 0.007145981 0.0017467727
-0.004379474 0.005090635 -0.0054976535 -0.007840624 0.008140852 -0.00017161452 -0.02779417 -0.0048334035
-0.0074562696 -0.014682853 0.0033518851 0.008489723 0.010735964 0.0063257315 -0.0010527234 -0.003558087
0.008471755 0.011047735 0.010212257 -0.0016417921 -0.012889405 0.0026563387 0.0036495426 -0.004796938
-0.0030175876 0.0123503 -0.012513266 -0.008295039 -0.020049896 0.010209422 -0.032753915 0.012845479
0.00085309625 -0.014279102 -0.0059889327 0.0010833618 0.016163394 -0.0010906797 0.011075224 0.012160585
0.005615992 0.0009439598 -0.006779867 0.0035820669 0.0059037115 -0.020027181 -0.002951428 -0.0041655516
0.0030306438 0.00057463447 -0.0031935477 -0.0010219676 -0.0061125774 0.0032854395 0.0075726965 -0.021960529
-0.0063269692 0.007927688 0.0013260735 0.0067661037 -0.002947743 0.0010929609 0.016026685 0.002708844
-0.018672923 0.0046807406 -0.0012941862 -0.027083298 -0.0054108496 -0.0044121505 0.0027334227 0.0049096257
0.0016021242 -0.006188943 0.0017584568 -0.008165871 0.0021879643 -0.0037194137 -0.013009167 -0.023901673
-0.013454257 -0.02495422 -0.0001895938 -0.0047888625 -0.008896538 -0.0063353707 0.007035394 -0.006377919
-0.009060846 0.002294314 -0.010004137 -0.008787887 -0.036223866 -0.011245847 -0.031222964 -0.0035381261
-0.031200936 -0.024854396 -0.0023316175 0.0039845225 0.0029020696 0.0025293347 -0.0014704316 -0.0053748377
-0.00021926018 0.0044389707 -0.00033517377 0.006163369 -0.0009898451 -0.011369144 -0.01184388 -0.014575426
-0.008913518 -0.0065501262 0.0077621825 -0.003371002 -0.004555442 -0.014258923 -0.009655174 -0.0032667993
0.008452732 0.010389962 0.013570956 -0.025685918 -0.020055998 -0.00052020093 -0.013708921 0.0053401343
0.020335287 0.0037365432 0.011828111 -0.0036222811 -0.011152233 0.0063812905 0.00060940284 -0.0043061893
-0.023503399 0.017220525 0.002817127 -0.010258922 0.013682225 0.0034727936 0.0045118365 -0.007363254
0.0074643986 0.018626738 -0.03332616 -0.0069015934 -0.0004092971 -0.014224979 -0.007254359 0.0070428154
0.009733472 -0.0020709932 0.008243784 0.0034606403 -0.0044949693 0.013000729 -0.024989849 -0.027546236
0.00053437403 0.0036770871 0.006590711 -0.0026448034 -0.00034005646 0.0045177327 -0.01142745 -0.011208427
0.00012906613 -0.0070722927 -0.0048944573 0.0074153137 -0.021233253 -0.004394048 0.015833337 0.006669028
0.009119597 0.008396446 0.0017357144 -0.007127026 -0.011372018 0.0008499864 0.010939233 -0.01724552
-0.010301606 0.018465703 0.0009607892 0.011033286 -0.0024710626 0.026748715 0.016613698 -0.009859996
-0.007509157 0.0069261338 0.01267121 0.011982149 -0.005315425 0.009192111 -0.0016835097 -0.0013752102
-0.023683138 -0.017524585 0.018939976 0.0053951684 0.0016488495 -0.0014768075 -0.00013500494 0.00066934916
-0.0034654746 -0.010078056 0.006598975 0.0057016783 0.011995404 0.01684584 0.0121345995 -0.0076805023
-0.0063672015 -0.018498348 0.0049934387 0.0033649593 0.013611128 -0.003528627 -0.015876295 0.0004666573
-0.00850202 0.0046600937 -0.0019344226 0.009319741 0.021790246 0.00482844 -0.013023107 -0.012393049
00000000: 5cf1 f2b9 4519 77bb 1f6c a5bb 7aa7 2bbb
00000010: 1b8d 2fbc fadc 3b3c 11d0 8abc 9a1c 25bc
00000020: 3b36 f5bb cf2d babc 142e 95bc d02a 9bbc
00000030: a175 853b 2caa f0bb 4c63 8e3b 1da6 c9bb
00000040: b131 8abb 8e74 f53b 8973 253c b214 19ba
00000050: 8920 40bc 46ed ebbb d528 ea3b f7f3 e43a
00000060: b181 8fbb 57cf a63b a925 b4bb f675 00bc
00000070: 3561 053c 6cf3 33b9 99b0 e3bc 8761 9ebb
00000080: b953 f4bb 5990 70bc 4dab 5b3b 7b18 0b3c
00000090: e6e5 2f3c 1548 cf3b 89fb 89ba cb2e 69bb
000000a0: 1ecd 0a3c 8f01 353c 4f51 273c 6731 d7ba
000000b0: 152e 53bc f815 2e3b 2a2d 6f3b a22f 9dbb
000000c0: b8c2 45bb ea58 4a3c 7104 4dbc eae7 07bc
000000d0: ae3f a4bc 6b45 273c f828 06bd d875 523c
000000e0: 52a2 5f3a e5f2 69bc cf3e c4bb 97ff 8d3a
000000f0: 1869 843c 23f5 8eba db74 353c 313d 473c
00000100: 5b06 b83b 1274 773a a629 debb 1cc1 6a3b
00000110: ec73 c13b 0b10 a4bc bf6c 41bb 2e7f 88bb
00000120: c49d 463b 11a3 163a d74a 51bb 8bf3 85ba
00000130: 044c c8bb 8750 573b 6224 f83b 91e6 b3bc
00000140: 7752 cfbb 22e3 013c a5cf ad3a 31b6 dd3b
00000150: ec2e 41bb af41 8f3a 654a 833c dc86 313b
00000160: f5f7 98bc e660 993b afa1 a9ba cbdd ddbc
00000170: 7f4d b1bb cd93 90bb 3923 333b ede0 a03b
00000180: 5efe d13a 9ecc cabb 057c e63a 25ca 05bc
00000190: f363 0f3b 68c1 73bb 6724 55bc 71cd c3bc
000001a0: 3e6f 5cbc cb6c ccbc b3cd 46b9 e4eb 9cbb
000001b0: c9c2 11bc f198 cfbb 2a89 e63b ddfd d0bb
000001c0: f173 14bc 345c 163b 64e8 23bc 12fb 0fbc
000001d0: 7a5f 14bd 8040 38bc 4dc7 ffbc e8df 67bb
000001e0: 1b99 ffbc 729b cbbc 0dce 18bb 9990 823b
000001f0: a630 3e3b 32c3 253b 7fbb c0ba 681f b0bb
00000200: 35e9 65b9 c974 913b 43ba afb9 16f6 c93b
00000210: b1bd 81ba a545 3abc d50c 42bc c4cd 6ebc
00000220: 010a 12bc 71a2 d6bb e859 fe3b 07ec 5cbb
00000230: d145 95bb 429e 69bc bc30 1ebc cc17 56bb
00000240: 547d 0a3c a93a 2a3c b758 5e3c 466b d2bc
00000250: 7a4c a4bc 185e 08ba 629b 60bc 4bfc ae3b
00000260: 3096 a63c cbe0 743b b1ca 413c cb63 6dbb
00000270: dbb7 36bc 251a d13b 55c0 1f3a ef1a 8dbb
00000280: 338a c0bc 0f12 8d3c 8c9f 383b 0a15 28bc
00000290: 692b 603c cf97 633b 07d8 933b 7447 f1bb
000002a0: ea97 f43b 1a97 983c 0381 08bd c326 e2bb
000002b0: ed96 d6b9 e30f 69bc f9b5 edbb 6bc7 e63b
000002c0: 2479 1f3c 80b9 07bb f010 073c e9cb 623b
000002d0: 894a 93bb 0201 553c 83b7 ccbc a5a8 e1bc
000002e0: 3c15 0c3a 49fb 703b e4f6 d73b 7054 2dbb
000002f0: 9b49 b2b9 7d09 943b 333a 3bbc 8da3 37bc
00000300: ed55 0739 b1be e7bb af61 a0bb 29fc f23b
00000310: 5cf1 adbc f2fb 8fbb eab4 813c dd87 da3b
00000320: 5d6a 153c 3f91 093c e980 e33a d489 e9bb
00000330: b351 3abc 9fd1 5e3a 783a 333c 7a46 8dbc
00000340: 11c8 28bc 6345 973c 79dd 7b3a f5c4 343c
00000350: 8df1 21bb 1f20 db3c 7319 883c d28b 21bc
00000360: 600f f6bb 9ff4 e23b e89a 4f3c c750 443c
00000370: 042d aebb 829a 163c 36a9 dcba 6640 b4ba
00000380: 2403 c2bc b88f 8fbc 0228 9b3c f4c9 b03b
00000390: 351e d83a 7091 c1ba 1d90 0db9 4377 2f3a
000003a0: 041d 63bb 6e1e 25bc 373c d83b 25d5 ba3b
000003b0: 5f88 443c 4900 8a3c 33d0 463c b9ac fbbb
000003c0: f5a3 d0bb d989 97bc 00a0 a33b a686 5c3b
000003d0: 3501 5f3c 8a40 67bb 010f 82bc afa9 f439
000003e0: 0e4c 0bbc b3b3 983b 748c fdba d4b1 183c
000003f0: 7581 b23c e437 9e3b df5e 55bc 370c 4bbc

action_model._discrete_distribution.branches.2.bias f4 [2]
-0.0067984853 0.006798488
00000000: d4c5 debb dac5 de3b
