results/speedBoat/boat/boat-4999909.onnx (onnx, 340257 bytes, 11 tensors)

discrete_act_size_vector f4 [1, 3]
000000 00 00 00 40 00 00 40 40 00 00 00 40
       2.0 3.0 2.0

network_body._body_endoder.seq_layers.0.weight f4 [256, 58]
000000 23 19 ae 3d a5 9b e9 bd 0d 1e f6 bd 29 22 3c 3e
       0.08500888 -0.1140664 -0.120174505 0.18372406
000010 09 39 3d be ff f7 39 3e 41 e2 e8 bd 80 76 b7 bd
       -0.18478788 0.18161009 -0.113712795 -0.08958149
000020 98 de 8e ba ca e3 cc 3c 11 dc 09 bd 31 32 7f 3d
       -0.0010900078 0.025010962 -0.033657137 0.062303726
000030 2a 38 11 3d 9c 70 b4 3d 1a 77 43 be 20 21 01 bb
       0.035453953 0.08810541 -0.19088402 -0.0019703582
000040 fa 68 47 3e 5b 3e 9a 3e 49 50 83 be 16 82 be 3b
       0.19473639 0.30125698 -0.2564719 0.0058138473
000050 93 b9 4d 3e 62 62 35 be f1 f9 70 3d 2c d3 36 bd
       0.20090322 -0.17713311 0.058832113 -0.044634983
000060 3b 1d c5 bd 83 03 1f be 44 a9 c5 3c 4d a3 e1 3d
       -0.09624716 -0.15528683 0.024128564 0.11017475
000070 3d c0 f2 3d 59 05 22 bd d5 73 18 be f7 06 67 be
       0.11853073 -0.03955588 -0.14887936 -0.2256125
000080 28 37 83 bd 9e 07 81 3d 52 f6 27 3e 7b 64 24 bd
       -0.064070046 0.06300281 0.16402557 -0.04013489
000090 ef 76 8b be c5 b5 f3 bc 77 83 33 bd 8d 91 6e 3e
       -0.27239177 -0.02974976 -0.043826547 0.2329771
0000a0 cd 9f c6 3c 7b a0 1f 3e f2 99 3e 3e e9 14 ff bd
       0.02424612 0.15588562 0.18613413 -0.1245516
0000b0 d2 f5 95 3d dd 24 4f bd c0 d6 0c be 21 ec 99 3d
       0.07322277 -0.050572265 -0.13753796 0.07515741
0000c0 ca cb 29 bc 9c e6 39 be 59 6b a9 bd cc f6 00 3d
       -0.0103635285 -0.18154377 -0.08272428 0.031485364
0000d0 95 32 1e be d9 f2 0c be 04 dc 41 3e 0f f0 2d bd
       -0.15448983 -0.13764514 0.18931586 -0.042465266
0000e0 a2 f5 9d bd 62 f3 3a be bf 08 6f 3d a0 ab 13 be
       -0.07712866 -0.18256906 0.05835795 -0.14420938
0000f0 65 31 e8 bc b7 6d 02 bd fa fb 36 3e 3b 59 f1 3d
       -0.028343866 -0.031842913 0.17869559 0.117845975
000100 2b 94 89 3c f2 31 e8 bd 0a d8 d8 bd 55 b8 7e 3e
       0.016794285 -0.11337651 -0.10588081 0.24875005
000110 dd c2 a7 bc 06 dd 49 3c 6e 14 a9 bd 9a b4 b2 bd
       -0.02047866 0.0123207625 -0.0825585 -0.08725853
000120 8e ec 39 3e ef 78 66 3e 9b f1 be bd bf e4 df bd
       0.18156645 0.2250707 -0.09323426 -0.10932302
000130 b2 94 7e 3e f3 e7 52 3e 13 b9 83 bb 84 6b 91 be
       0.2486141 0.20596294 -0.0040198653 -0.2840234
000140 7a 5e 82 bd ec 37 26 bd a9 ec 19 3c 7b b6 47 3c
       -0.06365676 -0.040580675 0.009394803 0.012189503
000150 c8 54 8c 3d 7e bb a2 3d 93 bd 3e 3e dd f9 5e bd
       0.06852108 0.079459175 0.18627004 -0.054437507
000160 3c 3e 5a bd 39 e0 98 3d 88 4d 21 3e 21 45 6f 3e
       -0.053282008 0.07464642 0.15752232 0.23366214
000170 6a 74 47 be 69 10 42 3e 9d 88 7d 3e 3f 31 b9 3c
       -0.19478002 0.18951572 0.24759145 0.02260649
000180 95 c4 7a bd df 19 17 3e 5f 05 0d be e5 52 0f 3c
       -0.06122263 0.14755963 -0.1377158 0.008747791
000190 1b 32 95 bd 19 22 0a 3d 1a 89 12 3e 8e c6 00 3d
       -0.072849475 0.033723924 0.14310113 0.031439357
0001a0 d6 ad 8e be b8 e1 e9 bb 12 b9 42 be 4f 0e c9 bd
       -0.27867 -0.0071375035 -0.19015911 -0.09817182
0001b0 95 66 84 be 55 5a 2a 3d 19 1b 0e bd 7a 7b b4 bd
       -0.25859514 0.041590054 -0.03469381 -0.08812614
0001c0 7d d9 78 3d 09 2e 53 be 38 fe 93 3c e0 03 ab 3d
       0.060754288 -0.2062303 0.018065557 0.083503485
0001d0 09 50 ab bd 07 7e bb 3c 06 90 fd 3d 55 bb 20 3d
       -0.08364875 0.022887243 0.12380986 0.039241154
0001e0 07 9f 78 3e 13 f2 44 3c b2 c7 31 bd b4 4a 41 ba
       0.24279414 0.012020606 -0.043403335 -0.00073734974
0001f0 40 c0 ea bb 59 6e 73 bc bd 73 13 3e c1 b7 12 be
       -0.0071640313 -0.014857852 0.1439962 -0.14327909
000200 8d d1 f8 bc a2 e3 e9 bd 2b 23 6c 3d ed 1b 2f bd
       -0.03037336 -0.11420371 0.057650726 -0.04275124
000210 71 ca 15 be 16 ad 91 bd e8 61 2d 3e 57 43 c6 3c
       -0.14628007 -0.07113092 0.1693188 0.024202032
000220 13 69 b3 3d 0f 07 90 bd ec ca 82 3d 64 30 cc 3d
       0.08760276 -0.07032596 0.063863605 0.09970167
000230 12 24 a3 bc d4 9a ea 3d d0 a5 53 bd 06 0d fb 3d
       -0.01991466 0.11455312 -0.051671803 0.122583434
000240 41 81 ee 3d 57 ba 36 be ab 5e 46 3e db 76 40 be
       0.11645747 -0.1784452 0.1937205 -0.1879534
000250 c6 f3 f2 3c 02 4f 22 3c 62 ee fe bc cc a5 80 be
       0.029657256 0.009906532 -0.03111953 -0.25126493
000260 50 ac 9c 3d 35 9f f5 bd 6c e1 47 3e 0d a1 7d 3c
       0.076500535 -0.11993257 0.19519585 0.015480292
000270 c4 ba 3b bd d9 6a 7a bd 1c 06 2c 3d 65 f3 d2 3d
       -0.04583241 -0.061137054 0.041998014 0.1030033
000280 66 c3 bf 3d 07 3d d5 bd d8 1e 4f 3d e0 4c 38 3e
       0.09363441 -0.10412031 0.050566524 0.17998075
000290 e6 36 a4 bd a5 e0 4e be f9 6d e3 bd d0 cf ef bd
       -0.080182835 -0.20202883 -0.1110496 -0.11709559
0002a0 82 08 05 be 28 86 a4 3d 46 f0 2c be 40 e4 1a bd
       -0.12991527 0.08033401 -0.16888532 -0.037815332
0002b0 48 47 62 3e 73 a8 c1 3d f8 e6 4c 3e b5 6c 81 be
       0.22097504 0.09455957 0.20009983 -0.2527825
0002c0 36 97 4c bd dc 32 3d 3d 66 dd cb bc 45 74 7c 3d
       -0.049948893 0.04619108 -0.024885844 0.06163432
0002d0 5e 5e dd bd 81 0a 8b 3d c5 c5 3c bd 9b f4 1b 3d
       -0.10809015 0.06789113 -0.046087045 0.03807507
0002e0 bb b6 c7 3d 04 70 38 3e e4 5e bf 3d 20 d3 4d 3d
       0.0975165 0.1801148 0.09344271 0.050250173
0002f0 63 42 a1 3e 73 1e 25 3d 74 07 f8 3b 1e a1 15 3e
       0.31495962 0.04031224 0.007569248 0.14612243
000300 01 37 7e be 9f 74 1f bd 80 96 35 3e 20 35 63 be
       -0.2482567 -0.038929578 0.17733192 -0.22188234
000310 ae bb 7d 3d 51 90 67 3e 5d 01 d3 3d bc fd b1 bd
       0.061946563 0.22613646 0.103029944 -0.08690974
000320 3b 47 98 3d 3c 5b 12 be 95 6f e7 3b 85 83 76 bd
       0.07435461 -0.14292616 0.007062862 -0.06018402
000330 7b a5 85 3e 5c 37 3d 3d 02 2b 6a 3e 24 7f 5d 3e
       0.26102814 0.046195373 0.22867969 0.21630532
000340 2d be 3f 3d 6b 96 56 bc ca c0 ac 3b 67 b9 e4 bd
       0.046812225 -0.013097386 0.0052720057 -0.11168175
000350 e2 c5 ae bd 18 8c 24 3e 5e b9 b1 3d d9 3d 9f be
       -0.08533837 0.16069067 0.08677934 -0.31101874
000360 27 33 73 bc ef 45 e0 3b ad 67 73 bc c8 44 8f bd
       -0.014843739 0.0068442742 -0.014856261 -0.06995541
000370 26 08 07 3e 79 57 cb bd 68 52 6e be 89 14 c6 bd
       0.13186702 -0.099287935 -0.23273623 -0.096718855
000380 0e 7f 99 3c 38 a5 6f bd b2 74 6c 3d be ef 4d 3d
       0.018737342 -0.058507174 0.057728477 0.050277464
000390 69 22 58 be 2c a9 7d 3d 1f ed 28 bd 84 fb 18 3e
       -0.21106876 0.061928913 -0.04124176 0.14939696
0003a0 ac 93 08 be 88 e0 4c 3e 00 2a ac 3e 79 e3 21 3e
       -0.13337582 0.20007527 0.33625793 0.1580943
0003b0 e2 32 6d 3d 9d f5 df bd c3 ef 86 bc b8 c5 5d 3d
       0.057909854 -0.10935519 -0.01647175 0.054143637
0003c0 52 c9 fb bd a4 b3 0f be 3c 4f 20 3b 8c 0c b7 bc
       -0.12294258 -0.14033371 0.002446129 -0.02234485
0003d0 ff 48 d5 bc d0 95 24 3c 35 62 af 3c a7 39 92 bd
       -0.026035784 0.010045484 0.021409133 -0.071399026
0003e0 67 8c de 3c df cc f9 3c c0 09 52 be 60 d1 b5 3c
       0.027166558 0.030493198 -0.20511532 0.022194564
0003f0 e5 87 b2 bd 5e 2b 21 3d 00 8e 57 3e be 29 1a 3e
       -0.08717326 0.039348 0.21050262 0.15054986

network_body._body_endoder.seq_layers.0.bias f4 [256]
000000 3a 5c 2e bc 86 cc 3b bc 21 13 18 bb da 90 76 3b
       -0.010642106 -0.011462336 -0.002320476 0.003762296
000010 1c 94 10 3d 0a 64 1a 3b d3 44 7b 3d 1f 78 1f bc
       0.035297498 0.0023558163 0.061344933 -0.009733229
000020 49 06 1c bb 6f ee 07 3d d5 6b 8d 3c 7f 26 54 b9
       -0.0023807457 0.033186372 0.017263332 -0.00020232236
000030 90 3d 1e bd 1a 19 b6 3c 5c 13 10 bd e4 54 7e ba
       -0.03863293 0.022228766 -0.035174713 -0.0009701981
000040 a5 88 1e 3b 1a 62 0c 3c 47 cd 19 bc 68 a9 53 bc
       0.0024190333 0.008568311 -0.009387321 -0.012918808
000050 4d f4 d4 3b bd fd a7 bc 39 d4 40 bc 40 57 18 bc
       0.0064988495 -0.020506734 -0.011769348 -0.009298146
000060 1e 25 70 3c 30 18 7c bc 73 86 fc 3c 75 42 e0 bc
       0.014657287 -0.015386626 0.03082583 -0.02737544
000070 a7 f3 70 3d e9 69 0c bc 15 53 5f bc 5e 24 0b bd
       0.058826115 -0.008570173 -0.013630648 -0.03397023
000080 7b 3b 8e 3b 11 d9 92 3c 20 b4 01 3c 40 60 5f 3c
       0.0043405867 0.017925771 0.00791648 0.013633788
000090 81 51 fb bb f0 be 01 bc 55 78 76 bc ac ea 87 3b
       -0.007669628 -0.007919058 -0.015043338 0.004147848
0000a0 e5 ee 50 3c 8f 09 3a 3d 76 c9 a4 3c ec 58 e7 bb
       0.012752269 0.045419272 0.020115595 -0.007060161
0000b0 31 4d 5a 3c 25 d1 f2 3b 10 b2 b4 3c b8 3d fc bc
       0.013324068 0.007410186 0.022057563 -0.030791149
0000c0 b4 5e 6f 3c c9 a2 3b 3d 24 f5 97 3c f6 80 b9 3b
       0.014609981 0.04580954 0.01854951 0.0056611253
0000d0 59 98 6d bc 51 76 ab 3b 14 95 a4 bb 2e 59 ac 3b
       -0.014501655 0.0052326103 -0.0050226543 0.0052596545
0000e0 26 30 30 bd 24 ac 9c bb 8b 77 19 bc da 5c e3 3c
       -0.043014668 -0.004781263 -0.00936688 0.027754236
0000f0 ab 4f 02 3b ef fc f5 bb 07 63 19 bd a5 50 69 3c
       0.0019883912 -0.0075069587 -0.037447955 0.014240419
000100 df fb 77 bc 69 4a 1a bb ad 2d 0b 3c c4 93 08 bc
       -0.015135734 -0.0023542887 0.008494777 -0.008336011
000110 0c 67 dc 3c 3a b1 f9 bc 08 fe f2 bc 97 e9 3e bd
       0.026904605 -0.030480016 -0.029662147 -0.046609487
000120 4d cb 9d bb 92 f5 1b 3d 01 5f 9a 38 62 c5 04 3d
       -0.004815495 0.03807599 7.360988e-05 0.0324148
000130 ff 50 49 bb a5 f8 d6 3c af 94 39 bb 3a 8f 0c bc
       -0.0030718443 0.02624161 -0.0028317382 -0.00857907
000140 3a c6 3a bc b6 b6 fc 3c 32 aa ea bc bc 2b 37 3c
       -0.0113998 0.030848842 -0.028645609 0.011179861
000150 78 3a cf bb c7 93 96 3b df 0e d4 bc 21 56 8f bb
       -0.0063241087 0.004595253 -0.025885997 -0.004374281
000160 d4 8d 06 3d 8a c4 b3 bc f5 a6 8f 3c bd 25 f9 bb
       0.0328501 -0.021944303 0.017535666 -0.0076033757
000170 df f1 c5 3c 62 b3 0a 3d f8 d6 84 3b ef c1 df 3b
       0.024163185 0.03386248 0.0040539466 0.0068285386
000180 06 d8 9e 3c 64 af 82 bc 25 1b df 3b e4 61 80 bc
       0.019390117 -0.015952773 0.006808656 -0.015671678
000190 0b 36 45 3c 9d ad dc ba 95 12 04 bd ea ba 1a bc
       0.012036811 -0.0016836409 -0.032244284 -0.009443978
0001a0 b1 02 fa bb dc 7a d2 3c 45 dd 17 bd ac 40 85 bb
       -0.0076297154 0.02569335 -0.037076253 -0.0040665474
0001b0 1e 32 8f 3b 08 46 0b 3c 79 e3 d2 3a 96 a0 5a bc
       0.004369988 0.0085005835 0.0016089521 -0.013343951
0001c0 e2 41 d1 ba e5 ab 42 3a 19 f5 03 3c 8d a0 8c bc
       -0.0015965069 0.0007426127 0.008054041 -0.0171664
0001d0 e1 c7 98 bc 4e b2 c0 bc 5d a9 8f bb d9 af 6b 3c
       -0.018649997 -0.023522522 -0.0043842033 0.014385187
0001e0 69 46 0b bb 5e 2e fd ba ae a3 18 bd ea 99 ac bc
       -0.0021251685 -0.0019316187 -0.037265472 -0.021069486
0001f0 f7 5c 38 3d 00 a9 2e bc 67 a6 b2 bc 70 f2 a0 ba
       0.045010533 -0.01066041 -0.021807862 -0.0012279283
000200 9a f8 1b bb 97 e7 68 3c f1 cc 13 bd 43 34 e6 bb
       -0.00237993 0.014215372 -0.03608412 -0.007025273
000210 de ca 96 3c 38 ac 83 bc 7e 18 12 bd 7e d1 99 bc
       0.018407281 -0.016073331 -0.03566789 -0.018776651
000220 9d 17 2b 3c 50 d1 16 bd 4a f9 9b bc 8c 02 d4 3c
       0.010442642 -0.03682071 -0.019039769 0.02588012
000230 c6 b1 1d bb 79 6c 9b 3c 97 08 05 bc 20 fc 6e bc
       -0.002406226 0.018972622 -0.008119724 -0.0145864785
000240 40 f0 c4 3b af 74 09 3c 3a e2 90 bc ec 99 7e 3b
       0.0060100853 0.008389636 -0.017685998 0.0038849069
000250 57 e0 e9 3c 8f 02 d9 3c 9e d3 f0 b8 5d 3b ed 3c
       0.028549356 0.026490478 -0.000114835086 0.02895897
000260 60 00 1a bc f1 35 df 3b 6f e9 51 3c b2 54 98 3a
       -0.0093995035 0.0068118502 0.012812003 0.0011621921
000270 2b b2 01 3d d0 1a 97 3b cc c4 c0 b9 42 19 a2 ba
       0.031664055 0.0046113506 -0.0003676772 -0.0012367147
000280 e7 15 19 bc 82 fa 09 3c c0 e1 85 3a 75 57 92 bb
       -0.009343601 0.008421542 0.0010214373 -0.004465992
000290 ed 9d 64 3c c5 6a 6f 3c cf 40 91 bc d1 b2 89 bb
       0.013953668 0.014612858 -0.017731098 -0.004202225
0002a0 c5 d4 70 bc eb 58 cd b8 e2 38 2a bd 11 43 37 bd
       -0.014699166 -9.791724e-05 -0.041558154 -0.044741694
0002b0 42 da b4 bc e1 95 5b 3d 64 04 43 3d bc a5 e8 bc
       -0.02207673 0.053609733 0.04761161 -0.02839934
0002c0 b4 93 3e bc ea 56 1d bc 7f c7 ef bb c7 82 95 b9
       -0.011631895 -0.009603241 -0.007317483 -0.0002851693
0002d0 a9 98 18 bc bd cd 5b 3d 99 f6 11 3c 44 89 1f bc
       -0.009313741 0.053663004 0.008908891 -0.0097373165
0002e0 a2 4d b3 ba c1 37 d7 bb df b4 5d 3c 33 91 86 3b
       -0.0013679753 -0.0065679257 0.013531893 0.0041066646
0002f0 e2 87 27 bc 13 1e 8a bc 50 ef c4 3c 7a 04 b5 3b
       -0.010225268 -0.016860044 0.024039894 0.0055242153
000300 7a 82 db 3c 85 4a 5e 3a 52 50 38 3d 2c 4e e2 3c
       0.026795615 0.0008479732 0.044998474 0.027625166
000310 d8 30 5e bc e3 9b 99 bc c3 e6 6b 3c 7a bf 46 3d
       -0.01356145 -0.01875109 0.01439828 0.04852245
000320 7f 26 04 3d fe 5d 85 3c ca 66 26 3d 03 0d fa 3b
       0.032263275 0.01628017 0.04062537 0.0076309456
000330 90 b2 29 3a a7 70 30 bc 24 3d 3f bc e0 05 14 3b
       0.0006473446 -0.010769046 -0.011672292 0.002258651
000340 99 47 7e bc 5f 40 f0 39 25 39 10 bd 85 dc a8 ba
       -0.01552 0.00045824327 -0.035210747 -0.0012883103
000350 68 32 c0 3c af 20 09 bd ec d7 24 ba 97 26 75 3b
       0.023461536 -0.033478435 -0.00062882784 0.0037407035
000360 c1 bd 2c bb 41 aa 7a ba ab f8 a1 3c c5 f4 88 bb
       -0.002635822 -0.0009562113 0.019771894 -0.0041795694
000370 8b 97 01 bc 55 69 03 bd ed 04 41 3c 71 3d 37 bc
       -0.007909666 -0.032082874 0.01178096 -0.011184082
000380 22 8c 00 ba 3d 11 f2 bc b1 13 28 bc 9e 4a 78 bc
       -0.0004903694 -0.029549235 -0.010258601 -0.015154509
000390 7d 99 f5 b9 b9 2a ad 3c 88 7f 57 3c b3 51 ac 3c
       -0.000468444 0.021138536 0.013152964 0.021035051
0003a0 dd 45 1e 3d 98 c1 6c bc 87 17 f1 3c 06 9b 4a 3c
       0.038640846 -0.014450453 0.029430164 0.012366062
0003b0 f0 25 54 3c 4b 80 54 bc 6e 27 44 3b e1 71 87 3c
       0.012948498 -0.012970041 0.0029930728 0.016533794
0003c0 17 26 d7 3c 0a 3b 8c 3c d6 5b 55 bc 50 4e cc 3c
       0.02626328 0.017117996 -0.013022384 0.024939686
0003d0 6d 92 0f 3d bc 63 6e bc eb f7 75 3d 26 e8 3b 3c
       0.035051752 -0.014550146 0.060050886 0.011468923
0003e0 22 35 a4 bb 64 c7 b0 ba a7 84 b2 bc c9 9d 99 b9
       -0.0050112167 -0.0013487157 -0.02179177 -0.00029299993
0003f0 be 57 57 39 99 7e 2e 3d e9 94 c8 3b c9 93 3b bd
       0.00020536684 0.0426012 0.006121267 -0.045795236

network_body._body_endoder.seq_layers.2.weight f4 [256, 256]
000000 76 e5 01 bd 77 51 7f 3d e8 1f 03 3d d0 d2 f0 3d
       -0.03171297 0.06233355 0.03201285 0.11758959
000010 2d fa 28 be 87 c4 0d 3e 01 1d ce bb 11 96 f2 bb
       -0.16501684 0.138445 -0.0062900786 -0.007403143
000020 44 20 97 bd e1 42 8a 3c b9 6e 84 3d b1 a3 52 bd
       -0.07379201 0.016877593 0.06466431 -0.05142564
000030 41 da 95 bd 06 8c 0b be 42 b6 c2 bd 35 13 86 3d
       -0.07317019 -0.13627633 -0.09507419 0.06546632
000040 8b 9f 08 3e 10 f3 ab bc 80 a8 55 bd ad c4 e9 bd
       0.13342111 -0.020989925 -0.052162647 -0.11414466
000050 0a 44 c2 bb 7c a7 ad 39 52 19 71 3d f5 2c 3a 3d
       -0.005928521 0.00033121917 0.058862038 0.04545303
000060 8f fe b9 bb 90 21 9e bc 4b 53 a5 bd 59 80 77 bd
       -0.0056760977 -0.019303113 -0.080725275 -0.060425136
000070 2b e9 d0 3c 92 ca a9 3c 09 ba 1c 3b 62 78 04 be
       0.025501808 0.020726476 0.0023914597 -0.12936547
000080 17 25 1b 3d 75 21 db 3d 29 51 f2 bd f3 90 02 be
       0.03787717 0.10699741 -0.11831886 -0.12750606
000090 a0 6b 32 bd b1 f7 8d bd 5a 31 88 bd 58 54 05 3d
       -0.04355967 -0.06932009 -0.06650038 0.03255114
0000a0 76 c2 f2 3d 22 27 83 3d 1a 24 1d be d5 ef d6 bd
       0.11853497 0.06403948 -0.15345803 -0.10494963
0000b0 ae 5e 1c bd 54 d8 77 bd 28 61 ba 3d d1 d6 f8 bc
       -0.03817623 -0.06050904 0.09100562 -0.03037587
0000c0 58 b9 58 bc 52 51 29 3e 16 4b 65 3d 40 61 e0 bd
       -0.013227783 0.16534927 0.05597981 -0.10956049
0000d0 56 c9 12 bd 2a 56 7b bd 40 c0 00 3c 7c 84 ea bb
       -0.03583654 -0.06136147 0.007858336 -0.0071569066
0000e0 1e 61 70 bb 4d 2a ee bd 5e fb 75 3d 10 24 5a 3c
       -0.003667898 -0.11629162 0.060054176 0.013314262
0000f0 8a d3 87 3d f0 2f 7e bd 72 11 bd 3c be 39 dc bc
       0.06632145 -0.062057436 0.023079608 -0.026883002
000100 96 97 d0 bd 60 f3 16 3d b4 3f 5a 3d 13 bc e4 bd
       -0.10185163 0.036853194 0.05328341 -0.11168685
000110 4a f7 8a 3c b8 8d cf bc a8 a4 32 3c 38 4c b2 bd
       0.01696362 -0.025336131 0.010903515 -0.08705944
000120 6f 2e be bb 71 5e f3 3d bd 23 1f bd d0 f4 4c bd
       -0.005803875 0.11883248 -0.038852442 -0.05003816
000130 41 84 01 3e 15 3b 87 3c af 78 54 3d c9 17 0a 3d
       0.12648107 0.016507665 0.051872905 0.03371409
000140 31 c2 14 3b f0 47 d1 3d c8 64 e0 bd c5 81 c8 3d
       0.0022698755 0.10218799 -0.109567225 0.097903766
000150 ab 51 a2 3c 42 5f cc 3d 81 1d e7 bd ce 85 f2 3c
       0.019814333 0.099791065 -0.11284924 0.029604819
000160 f2 07 08 bd ba 42 9c bd 72 33 1e bd 30 11 80 3d
       -0.033210702 -0.076299146 -0.03862328 0.06253278
000170 b1 1d 4d bd 17 81 7f 3d 5c 0b 21 bc 31 b4 a4 3c
       -0.050077144 0.06237897 -0.009829368 0.020105453
000180 34 1b 9f bc 38 51 33 bd f2 ae a1 3d 62 08 3a bd
       -0.019422151 -0.043778628 0.07894696 -0.04541815
000190 62 b2 e1 3d f9 0a 5e 3c fa 31 89 bd 78 f9 b3 3c
       0.11020352 0.013552421 -0.066989854 0.021969542
0001a0 40 d1 12 3c ca 90 07 bc 27 cd 1f 3c 5a 93 cd 3d
       0.008961022 -0.0082742665 0.009753502 0.10037871
0001b0 66 ea 2d bd 64 5a 4f 3c 9d b9 3f bc e9 aa 93 bd
       -0.042459868 0.012655828 -0.0117019685 -0.07210333
0001c0 14 27 15 3d b3 8f 57 bd 6c c0 57 bd 27 43 8a bd
       0.03641422 -0.052627277 -0.052673742 -0.067510895
0001d0 d7 4c 12 be ac 4c 1b bd 5e dc 39 3d c3 3f 85 bd
       -0.14287125 -0.037914917 0.045376174 -0.06506302
0001e0 77 3f 0c 3d c0 1b b8 3c e3 a1 43 bd 8a 38 0a bd
       0.034240212 0.02247417 -0.04776181 -0.033745326
0001f0 f4 9c 9f bd fb e5 f1 bd 18 0c 57 bb 72 38 7d bd
       -0.07793608 -0.118114434 -0.0032813605 -0.06182141
000200 ac e9 49 bc 20 7e bf bc 10 e2 fd 3c 4b 4b 90 3d
       -0.012323778 -0.02337557 0.030991584 0.07045611
000210 10 d2 f3 bc 24 84 9a bb 9f b0 2b 3d e3 7c e5 3c
       -0.029763252 -0.0047154594 0.041916486 0.028013652
000220 50 e6 46 bd dc 7c 82 3c f1 c4 c3 bd 5d 6d 48 bc
       -0.048559487 0.015928678 -0.09559048 -0.0122331055
000230 8d 1d 4f 3d df 96 e5 bd 50 71 ba bc dc 2e a8 3c
       0.05056529 -0.11210417 -0.02275911 0.020530157
000240 57 57 04 bd be 29 9a 3d db cf 22 bd 48 24 c2 3b
       -0.032309856 0.07527493 -0.039749008 0.005924735
000250 10 5a cb bd 28 71 1c bd d4 b0 aa 3d ac d9 7f bc
       -0.099292874 -0.03819385 0.083345085 -0.015615862
000260 62 fb d9 bd 21 8e 00 bd 24 5b d7 bd 1e 00 df 3d
       -0.106436506 -0.031385545 -0.105154306 0.10888694
000270 4f 59 e6 3b 9e 86 e7 3d 5c 12 58 3d 1e 7c f5 bd
       0.0070296894 0.11304973 0.052751884 -0.11986564
000280 6c 33 92 3d bc 05 7e bd 54 62 44 bd 13 17 a0 3d
       0.07138714 -0.062017187 -0.047945336 0.07816901
000290 af fd 99 bd f4 a7 91 bd 4d 1e c9 3c 2e d0 77 3d
       -0.075190894 -0.07112113 0.024550581 0.06050127
0002a0 6b 9d 09 bd b3 11 95 3d 42 f7 df bb 9a e3 33 3c
       -0.03359739 0.072787665 -0.0068348954 0.010979557
0002b0 1d bf 90 3c d4 be 31 3d a1 db a3 bd 0c 04 80 bc
       0.017669255 0.04339488 -0.08000875 -0.01562693
0002c0 e9 cb db 3d 2c 45 c9 3c 9a f8 47 bd e9 e6 42 bd
       0.10732252 0.024569117 -0.04882107 -0.047583494
0002d0 8d 02 4a bd 0f 74 a7 bb af fd 1a bc fb 31 21 bd
       -0.04931884 -0.005110271 -0.009459897 -0.039354306
0002e0 1d 34 3d bd 7a 49 d6 bd 35 f4 7c 3c 17 69 6c 3d
       -0.046192277 -0.10463233 0.015439083 0.05771741
0002f0 40 03 f9 bd c9 47 cf bd a7 f1 9b bd 91 f9 88 bd
       -0.12158823 -0.10121114 -0.07614451 -0.06688226
000300 bb 2e 3d 3d e9 cb 12 3d f1 ea 7d 3d c6 b7 3f bb
       0.046187144 0.035838995 0.061991636 -0.0029253825
000310 90 0f b4 bd 28 9a 57 bd fe a5 5b 3d e6 37 85 3c
       -0.08792031 -0.05263725 0.0536251 0.016262006
000320 67 7d 04 be 7c 78 39 3d fb f3 1d 3c 1a 9d 9a bc
       -0.12938462 0.04528092 0.009640689 -0.01887374
000330 56 17 b8 bc 90 a8 9c bd ef 58 b4 3d 4d 14 88 3b
       -0.022472065 -0.07649338 0.08806025 0.0041528107
000340 ad 7d d0 3d 86 33 a0 bc 5d 22 f4 bc 3b f0 5b 3d
       0.10180221 -0.019555818 -0.029801542 0.0536959
000350 82 e3 28 3d 9e 4f 33 3d b1 73 16 3e 47 6e 90 3d
       0.041232593 0.0437771 0.1469257 0.07052284
000360 16 57 d1 3c f1 39 59 3d 25 56 9c 3b b6 94 dd bc
       0.025554221 0.053033773 0.0047710114 -0.02704845
000370 db d4 de 3b a4 4b eb bc ff e6 00 be 68 b4 ac 3d
       0.0068002767 -0.028722592 -0.12588118 0.08432847
000380 b2 f5 73 bd fa bf 1c be 63 a5 d7 bd 46 cb 68 bc
       -0.059560485 -0.15307608 -0.10529592 -0.01420862
000390 08 8f 91 ba 43 64 aa 3c 99 9c e2 ba 7e ed b1 bd
       -0.0011105249 0.020799762 -0.0017289101 -0.08687876
0003a0 a7 2b ae bd cf 86 85 3d f9 90 ff bc 9b c7 e2 3c
       -0.0850442 0.06519853 -0.031197058 0.02768307
0003b0 b0 f4 1a 3e 85 b5 eb 3c cd 74 21 3d 58 aa ba 3b
       0.15132403 0.028773079 0.03941803 0.005696576
0003c0 42 cd a3 3c d9 11 ce bd ab df 8f 3d ed 61 c7 bc
       0.019995335 -0.10061998 0.07025083 -0.024338687
0003d0 0e c4 55 3d 70 9c 71 bd 43 e8 9d bd bc cb 55 3d
       0.052188925 -0.05898708 -0.07710316 0.05219625
0003e0 46 b2 5b bd 80 f9 a0 3d e7 35 0d 3d 85 24 4c 3e
       -0.05363681 0.07860088 0.034475233 0.19935806
0003f0 d9 36 1b 3d eb 32 ee bb c0 f5 b4 bd 0f e0 eb bd
       0.037894104 -0.0072692535 -0.088359356 -0.11517345

network_body._body_endoder.seq_layers.2.bias f4 [256]
000000 af 32 71 3c cd 97 8f bb f5 1e 28 3b c9 b7 97 3c
       0.014721557 -0.0043821097 0.0025653217 0.018520253
000010 f6 6e 66 3b 50 95 42 ba 77 8d 06 3d b9 6c 17 3c
       0.0035161353 -0.0007422762 0.032849755 0.00924223
000020 c5 88 c2 3b 58 16 ce 3b 85 b8 8d 3c 5c e5 a6 b9
       0.0059367144 0.0062892847 0.0172999 -0.00031832873
000030 69 f2 aa bb b5 08 8d bb 18 bf 2a bc fc 35 da 3c
       -0.005216886 -0.0043040165 -0.010421537 0.02663707
000040 d3 a0 ce 38 f7 1a 08 3b f8 bf 45 bb 39 dc 53 b9
       9.852801e-05 0.0020768025 -0.0030174237 -0.00020204567
000050 db cf 93 3c 9e 58 9e 3c d0 c7 a2 bb 7b 22 66 3c
       0.01804345 0.019329365 -0.004967667 0.014046307
000060 a3 cd b0 3b de d7 bb 3c 2e 05 92 3c e1 f0 71 3c
       0.0053956076 0.022930082 0.017824735 0.014766903
000070 e1 15 a4 3c 31 23 0c 3c 98 61 b4 3c 84 e0 8c 3c
       0.020029964 0.008553312 0.022019193 0.017196901
000080 c4 8e 9e 3b 5f 61 bf bb 62 51 0c 3c ac 0e d5 3b
       0.0048387963 -0.005840465 0.008564325 0.006501993
000090 55 58 55 3b 2b 75 6b 3b 5d 14 a4 bb a2 52 e2 3c
       0.003255387 0.0035927992 -0.0050073103 0.027627293
0000a0 14 2a 45 3c 86 cb 8a 3b 45 ff c2 bb b1 62 04 3c
       0.012033958 0.0042356877 -0.0059508407 0.0080801705
0000b0 8a 7c 12 bc e9 ef 05 3c 84 ac 76 3c 0f 1c ca 3b
       -0.008940825 0.008174875 0.015055779 0.0061678956
0000c0 84 6b c3 bb be 74 82 bc 7f 17 10 3c 87 7d ca 3c
       -0.0059637446 -0.015924808 0.008794664 0.02471806
0000d0 7b 5a 5c bb d4 a1 2c 3b 13 56 3b bb 03 1a a2 3c
       -0.0033623266 0.0026341574 -0.002858524 0.019787794
0000e0 d5 86 54 bc 3e e5 54 bc 83 92 f3 3c 25 0f c7 ba
       -0.0129716 -0.012994109 0.029732948 -0.0015187009
0000f0 cf b5 74 3a 82 46 41 b9 f8 88 9e 3c 00 59 c5 3a
       0.0009334953 -0.0001843218 0.019352421 0.0015056431
000100 74 af 80 3c d8 b3 d4 3b d3 d7 a9 bb d5 cf 03 bc
       0.015708663 0.0064911656 -0.005183199 -0.0080451565
000110 47 2f b5 bb ea 9b 45 3c 8b d6 8e 3c ea cb 9d bb
       -0.0055293175 0.012061099 0.017436286 -0.004815568
000120 f9 a6 0d 3d b0 1e 14 3b ee fb 98 3b 9e 5c bd 3c
       0.034583066 0.00226013 0.0046687042 0.023115452
000130 ba 53 d2 3c 96 63 39 3c da dd 98 bb 75 d1 c0 3c
       0.02567469 0.011315247 -0.0046651186 0.023537377
000140 8a ef 5a 3c 92 b3 07 3d 8a 18 b4 bb a3 d7 0c bc
       0.013362775 0.033130236 -0.0054960893 -0.008596334
000150 3a f6 2b bc ed aa e4 3a 00 40 2c 3c 8c 4d af 3a
       -0.010495717 0.0017445959 0.010513306 0.0013374551
000160 fc 85 26 bc 28 9b 06 bc a5 3d 0d 3d 4f 93 c6 ba
       -0.01016378 -0.008215703 0.034482617 -0.0015150103
000170 e8 66 92 b9 0f 9f 52 3b 9f eb c2 3b b2 50 da bb
       -0.0002792396 0.0032138263 0.0059484984 -0.0066624517
000180 d1 68 cb 3c 29 85 6a 3c d0 3e 01 3d 4f 0f 88 bb
       0.024830254 0.014313974 0.031554043 -0.0041522156
000190 f3 77 50 bb a7 f2 ad bb 42 fb a0 ba 42 77 27 bb
       -0.0031809777 -0.0053084674 -0.0012281912 -0.002555326
0001a0 67 48 89 3c 2d 27 3e 3c 90 05 20 39 bb e2 6b ba
       0.016758157 0.01160602 0.00015260861 -0.0008998324
0001b0 7c 95 83 3c c0 8a 82 bb 2c 17 cf 3a 1d 09 43 3c
       0.01606249 -0.0039838254 0.0015799752 0.011904028
0001c0 43 f3 0a bc da 1b 13 3c 7a c6 48 bc ec a4 3d bb
       -0.00848085 0.008978808 -0.012254352 -0.0028937412
0001d0 24 b2 ed bb 9b 2f 1a 3c 9d c5 81 bb cf 4d 8b bc
       -0.007253902 0.009410764 -0.003960325 -0.017004875
0001e0 5a b6 02 3c 07 c4 8c 3c fe 73 71 bc 00 04 66 3c
       0.007978046 0.017183317 -0.014737127 0.01403904
0001f0 4a d9 2c 3b d2 52 4d bc 19 a4 19 3c 89 32 00 3c
       0.0026374632 -0.012531953 0.009377503 0.0078245485
000200 44 8c c7 3b d9 dd 37 bc c4 11 62 bb 83 b6 d6 3b
       0.006089719 -0.011222326 -0.0034495452 0.006552519
000210 f3 44 ef 3b 90 9d 02 bc df 15 33 3c cd 23 47 bc
       0.0073019206 -0.007972136 0.010930507 -0.012154532
000220 14 50 c8 bb 3f 64 85 3b 8a f8 59 bc 28 cb 1c bc
       -0.0061130617 0.004070788 -0.013303885 -0.009569921
000230 99 db 5f 3c 44 e9 9a ba dc 8e 16 ba dc 13 a6 3c
       0.013663196 -0.0011818786 -0.00057433336 0.020273142
000240 0b ab ab bb ea 81 8c 3b 98 68 94 3c 6b 3e 20 3b
       -0.005238896 0.004287948 0.01811628 0.0024451267
000250 8a 3c 0b 3c d2 0d 6f 3c 27 13 01 ba 01 11 8f bc
       0.00849832 0.014590697 -0.00049238134 -0.017464163
000260 af 71 3c 3c cf c3 ad 3b c6 72 47 bc 83 d2 36 bc
       0.011501714 0.005302883 -0.01217336 -0.011158588
000270 47 8f 46 ba 99 01 e7 bb fb 97 8c 3c 88 b5 71 bc
       -0.00075744506 -0.007049751 0.017162314 -0.014752753
000280 1d 49 42 bc 42 c6 28 bc 9f 0d 2d bb 3c ef 4b 3b
       -0.011858252 -0.010301175 -0.0026405824 0.0031117937
000290 a2 d8 65 39 38 0f 9b bb c9 7c 4d ba 2a 84 a6 ba
       0.00021919844 -0.004732039 -0.0007838724 -0.0012704183
0002a0 71 a3 31 bb 8d e4 ce ba 0b d1 c4 3c 87 19 d8 bb
       -0.0027105475 -0.0015784666 0.02402546 -0.00659484
0002b0 eb cf 05 bc d2 7e 18 bb 68 51 27 3b 99 d2 00 bc
       -0.008167247 -0.002326895 0.00255307 -0.00786271
0002c0 c3 7b f1 ba 7f e8 bc 3b 34 99 44 bb 9e 75 3f 3c
       -0.0018423725 0.0057650204 -0.0029998543 0.011685757
0002d0 38 49 47 3c 78 bf d0 3a a0 8b 75 3c 40 fc f2 3b
       0.012163453 0.0015926203 0.0149869025 0.0074153244
0002e0 56 29 64 bb 56 3a ba 3b 27 81 61 bb b2 20 85 bc
       -0.0034814677 0.0056832237 -0.0034409256 -0.016250942
0002f0 2e 3a bb 3a ef 83 98 ba 64 73 8e 3b f7 ae d4 3b
       0.0014284307 -0.0011635999 0.0043472517 0.006490584
000300 95 ab 45 3c 2c 59 10 3c 5e fd 0c bc 60 6c d9 3b
       0.012064834 0.008810323 -0.008605329 0.0066352338
000310 27 be 27 3a 2b 60 2a bc 5d 56 33 bc c7 1c 97 3c
       0.00063988793 -0.010398905 -0.010945884 0.01844634
000320 b9 75 c7 3b f5 40 bc 3c cf be c5 bb eb 62 ff bb
       0.0060870317 0.022980193 -0.006034709 -0.0077937744
000330 c5 79 01 3c 46 dc ae bb d2 85 7d 3c 5b 1e 14 bb
       0.007902567 -0.0053363172 0.0154738 -0.00226011
000340 2a 9d c6 3c bb 45 e4 3c e2 77 7e 3c b7 96 91 3b
       0.024244864 0.027865281 0.015531512 0.0044430154
000350 99 a3 4e 3c 8c 44 85 3c a9 36 c6 3c 9b e9 c4 3b
       0.012612247 0.016268037 0.024195986 0.0060092933
000360 f7 82 0f ba 74 8b cb 3c 35 99 cb 3c 70 18 4b 3c
       -0.00054745324 0.02484677 0.024853328 0.012395963
000370 cf 8f 9c 3c 7c 4b 1e bc 4f 0f 44 bc fa c1 7b bb
       0.019111542 -0.009661552 -0.0119665405 -0.003841518
000380 ab 0b c8 bb eb 93 9a bc d6 90 d2 3c de 4f 21 bb
       -0.0061049066 -0.01886936 0.025703829 -0.0024614255
000390 48 a5 03 3d 57 fe 76 bc 17 17 9b 3c 4a 0a 8d 3b
       0.032140046 -0.015075288 0.018931909 0.004304205
0003a0 cb f0 ab 3c 2a 7d d1 bb 73 58 73 bb 68 5b 48 bb
       0.020988842 -0.0063930945 -0.0037131577 -0.003057206
0003b0 cd 0f 21 ba 4f 59 0e 3c 91 52 96 3a ac a8 f5 bb
       -0.0006144017 0.008688285 0.0011468699 -0.007496914
0003c0 8e 41 7b bb 88 58 ed 3c b6 f0 2a 3a b1 cf 79 3a
       -0.0038338634 0.028972879 0.0006520854 0.00095295446
0003d0 c5 86 85 3c ee 4b 8e 3a c2 17 8c bb 9b ba 05 3c
       0.016299615 0.0010856369 -0.004275293 0.008162166
0003e0 63 e4 05 3c 8d 49 d2 3a b4 85 c5 3b 98 38 94 3c
       0.008172127 0.0016043648 0.0060279015 0.018093392
0003f0 06 d0 2f bc b3 a0 5e 3c db c3 dd 3c 9b 2a 13 3c
       -0.010730749 0.013588118 0.02707093 0.008982326

action_model._discrete_distribution.branches.0.weight f4 [2, 256]
000000 a3 f9 67 bc 0b e2 aa 3c a0 8e 82 bb 75 b0 e8 bb
       -0.014158639 0.020859739 -0.0039842874 -0.0071011134
000010 b0 b5 96 bc ad 76 20 bc 89 ed 0d bd 06 8d 92 3c
       -0.018397182 -0.0097939195 -0.03465036 0.01788951
000020 98 00 c3 bb 9c c5 c6 bc 61 b2 46 bc 67 7c 18 3d
       -0.0059509985 -0.02426415 -0.01212749 0.037228014
000030 6e 68 7b 3b 59 d8 e8 3b 23 6b bf 3c e7 10 61 bc
       0.0038361805 0.007105869 0.023366516 -0.01373694
000040 a8 68 27 3d e4 fb 94 bc 13 f5 94 bb 48 90 eb 3c
       0.040871292 -0.018186517 -0.0045458167 0.028755322
000050 2d 70 cf bc 10 7e b4 bc 57 14 91 bb 96 5b 67 bc
       -0.025322044 -0.022032768 -0.0044274735 -0.014120957
000060 1b 29 07 3c bc a5 02 bd 8d ce 24 bc 9e 37 91 bc
       0.008249546 -0.031896338 -0.010059011 -0.017726716
000070 be e5 b1 bc 3c 0e 4b 3c b5 d1 85 bc 6c f9 99 bc
       -0.021715995 0.01239353 -0.016335348 -0.018795691
000080 14 21 93 3c e4 e6 a3 3c fb 38 c7 3a 4d 80 ae bc
       0.017960109 0.020007558 0.0015199477 -0.021301413
000090 c7 30 a0 3c 29 38 01 bc 68 c4 ad 3c 28 82 d5 bc
       0.019554509 -0.007886925 0.021211818 -0.02606304
0000a0 cf 9e 8f bb 9e 70 86 bc a8 d1 07 3d 25 17 b3 bc
       -0.004382945 -0.016411122 0.03315893 -0.021861622
0000b0 38 50 50 3c a0 62 c7 3c 02 c4 10 bc 99 e0 d4 bb
       0.012714438 0.02433902 -0.008835794 -0.0064965007
0000c0 58 63 a9 38 68 ae 06 3d ed ff ce 3c e3 46 86 3c
       8.077052e-05 0.03288117 0.02526852 0.016391223
0000d0 57 f4 e9 bb eb 91 15 3d ee 52 a8 3c 45 d9 7f bc
       -0.0071397233 0.03651611 0.020547356 -0.015615766
0000e0 8b 86 55 3c 2d f4 bd b8 25 18 82 bb 57 9e c0 3c
       0.013032566 -9.0577036e-05 -0.0039701634 0.023513002
0000f0 02 e4 9d bc 5c d9 e2 3b b0 99 d5 3c cc ac 87 bc
       -0.019273762 0.006922884 0.02607426 -0.016561888
000100 60 94 8c 3a 18 fc a1 bb 00 81 34 3c 41 67 c8 3b
       0.0010725372 -0.004943382 0.011017084 0.0061158244
000110 f8 35 a2 3c 24 dc af bc 59 06 4f bc 0f c2 d4 3c
       0.019801125 -0.021467276 -0.012635791 0.02597144
000120 16 04 df bc 9f 64 32 bc c0 48 f8 3c 99 ff 82 bc
       -0.027223628 -0.010888248 0.030308127 -0.01599102
000130 4c 79 3c bd bc b7 18 3d 39 8d 7d 3b cc 9a fc bc
       -0.046014115 0.037284598 0.0038688912 -0.030835532
000140 1c 36 01 bd 56 c1 02 3c 2f 80 99 bb ad c6 5e 3c
       -0.031545743 0.007980665 -0.00468447 0.013597173
000150 ff dc 35 3c 2a 7a 16 3d 37 1c f6 bc 24 e9 d4 bc
       0.011100053 0.0367376 -0.03004275 -0.025990076
000160 f1 82 c3 3c 61 1b 9b 3c 21 65 24 bd a5 18 22 3d
       0.023866149 0.018933954 -0.040135507 0.039574284
000170 d3 37 bb ba 1c 92 43 bc 4f 9d e1 3c 84 ed 6b 3c
       -0.0014283605 -0.011936691 0.02754083 0.01439989
000180 4f b4 f8 bc 7b 73 4c bc 03 b2 78 bc e1 b7 a1 bc
       -0.030359415 -0.012478705 -0.01517916 -0.019741
000190 6b 48 ac 3c e8 01 9f 3a 4c e7 cc 3b 35 46 86 3c
       0.021030625 0.0012131305 0.0062531587 0.0163909
0001a0 21 89 d4 3c 46 c4 8d bc f5 97 c8 3c f7 3e dc bb
       0.025944294 -0.017305505 0.024486521 -0.006721373
0001b0 e7 b0 a7 bc 38 de 2b bc 80 0f e7 3b 44 d5 28 3d
       -0.020470096 -0.010489993 0.0070514083 0.04121901
0001c0 e8 79 b4 3c c1 fe 3d bb 40 56 6e 3c bb 80 63 bb
       0.022030786 -0.0028990956 0.014546931 -0.003471418
0001d0 4c 3b 85 3c 2e 81 d6 bc 74 6b 7d 3c 62 b8 e9 3c
       0.016263627 -0.026184645 0.015467513 0.028530303
0001e0 97 8d 13 3d f6 f2 01 bd 1f eb e8 3a 20 af 91 bc
       0.036023702 -0.031725846 0.0017770267 -0.017783701
0001f0 d5 27 2f 3c 0b 9a 8f bb c9 d8 3f bc 41 c3 82 bc
       0.010690649 -0.004382377 -0.0117094 -0.015962245
000200 25 73 86 bc d5 e4 02 ba 2b c1 b7 bc ed 2f a9 bb
       -0.016412327 -0.0004993205 -0.022430977 -0.005163184
000210 2c a8 92 3b 02 d8 8a 3c f7 31 a3 bc 2e f7 48 3c
       0.004475614 0.016948704 -0.019921286 0.0122659635
000220 ae e0 d0 3c d9 b7 89 3c 1d 6d 16 3c 0d 84 b2 bb
       0.02549776 0.016811298 0.009181288 -0.0054478706
000230 fb 56 ca 3b 95 56 98 bb 4b 34 6e 3c 26 2b e6 bc
       0.0061749197 -0.0046489933 0.014538835 -0.028096747
000240 12 62 b8 3b a9 ff 44 bc 61 f0 b2 bb 3b 0b 47 3c
       0.0056269253 -0.012023845 -0.0054607843 0.012148674
000250 63 73 8f bc dd 16 3e bc c1 99 ad 3c 89 23 94 3c
       -0.017511075 -0.011602131 0.02119148 0.01808335
000260 2d 35 7a bc 92 09 c9 bc 77 2b 9d 3c 93 0f f2 3b
       -0.015271467 -0.024540696 0.019185765 0.0073871105
000270 34 6d 0f 3d 49 5d be bb 31 03 b5 bc c8 f3 a1 bb
       0.035016254 -0.0058094603 -0.022096248 -0.004942391
000280 b2 14 ba 3c 62 bf a8 3c ed 3f 84 bc 54 33 d4 bc
       0.022714946 0.020599071 -0.016143763 -0.025903381
000290 f0 73 dc ba 05 05 22 3c 8c 45 99 3c f4 c8 59 bc
       -0.001681922 0.009888892 0.01870992 -0.01329254
0002a0 8f ef ac bb 9c f1 e9 bb a9 b8 4b bd 38 ec b6 3c
       -0.005277581 -0.007139398 -0.049736653 0.022329435
0002b0 57 17 f7 3c 1a 75 17 3d 9b da 4d 3c d5 39 dc ba
       0.030162496 0.03697691 0.012564327 -0.0016801903
0002c0 d4 f4 8d 3c 9a b6 b6 bb 2c 8c 91 3c 17 aa bc bc
       0.017328657 -0.005575967 0.017767034 -0.023030324
0002d0 fe 5f 6f bb c2 9e c6 3c dc 6d 76 3c ed 92 10 3d
       -0.0036525722 0.024245623 0.015040841 0.03529637
0002e0 7d f4 86 bb cd 1c 95 bc 3c f6 b7 bc 0d cb c3 3c
       -0.0041185007 -0.01820221 -0.02245628 0.023900533
0002f0 d5 6b 24 ba e0 e2 aa ba fc cd 91 3c 5a f3 1e bc
       -0.0006272172 -0.0013037585 0.017798416 -0.009701574
000300 3a 3b 1b bd a4 ff ac b8 4d f3 37 3c 73 23 86 bc
       -0.03789828 -8.249216e-05 0.011227441 -0.016374325
000310 d4 dc 1b b9 82 1d 8c b9 d5 08 2f 3c 01 0b df bc
       -0.00014864217 -0.00026724866 0.010683258 -0.027226927
000320 36 06 07 3d c1 60 67 bc 4f cc d9 bb cd d7 d6 3b
       0.032964908 -0.014122189 -0.00664667 0.006556487
000330 e6 d3 f2 3b d5 83 87 bb 77 d7 d9 3c c3 67 c4 bb
       0.007410514 -0.0041355886 0.026592 -0.0059938147
000340 ae 0f 46 3c f2 a5 98 bb f3 87 8a bc e2 ef 5c 3c
       0.012088699 -0.004658454 -0.016910529 0.013484927
000350 ad 7e 03 bc d5 fb 81 bc f2 d0 1a bc 6c 05 46 3c
       -0.008025807 -0.015867153 -0.0094492305 0.012086254
000360 29 29 ad 3c 88 6f fd 3c 2a 00 30 bd 18 38 98 bc
       0.02113779 0.030936971 -0.042968906 -0.018581435
000370 72 48 f9 bc 01 09 0a bb 3f 9a 97 3c 58 03 cd 3c
       -0.030430052 -0.0021062496 0.018506167 0.025026008
000380 10 e3 58 bc 34 ab 84 3c 75 49 45 bd d7 92 b4 3c
       -0.01323773 0.016194917 -0.048165757 0.022042675
000390 05 87 98 3c 16 72 d1 3b dd 44 2c bc e5 04 07 3d
       0.01861907 0.006391774 -0.010514465 0.032963652
0003a0 14 fa fa 3c 13 a1 ab 3c e8 59 a0 3b d6 74 86 3c
       0.030636825 0.02095083 0.00489353 0.016413134
0003b0 9d d9 2d 3b 8d e6 09 3d eb 39 6c bc 78 86 f2 3c
       0.0026527413 0.033667136 -0.014418106 0.029605135
0003c0 54 5a b9 3c f6 07 bb bc 29 22 a1 bb 18 59 b4 3c
       0.02262608 -0.022830945 -0.0049174023 0.02201514
0003d0 14 91 d8 bc 19 4e 94 bb 21 f8 fc 3c 27 68 40 bc
       -0.026436366 -0.0045259115 0.030880036 -0.011743582
0003e0 a3 0f a9 bc aa a3 d9 3c fc ec ae 3b 26 dc 9c 3c
       -0.020637339 0.026567299 0.0053383093 0.019147944
0003f0 39 cd f9 3b 20 e1 9d 3c 60 14 f0 ba 51 c1 2e bc
       0.0076233414 0.019272387 -0.0018316619 -0.010666207

action_model._discrete_distribution.branches.0.bias f4 [2]
000000 9e b3 a9 bc 9a b3 a9 3c
       -0.020715531 0.020715524

action_model._discrete_distribution.branches.1.weight f4 [3, 256]
000000 b4 73 8d bc e4 2b eb 3a 9f d1 c6 3b 24 4a 85 bc
       -0.017267086 0.0017942158 0.0060674693 -0.016270705
000010 f8 73 60 3b bb 19 57 b9 65 ea 0d 3b 53 4b 98 bc
       0.003424881 -0.00020513583 0.0021654603 -0.018590605
000020 79 15 8f bc db ea 76 3a 61 49 87 bc 58 5d fd 3b
       -0.017466294 0.00094191515 -0.016514482 0.0077320747
000030 e5 d4 18 3c fa ba 7a bb c6 65 fc 3b cb 2e 05 3d
       0.009328102 -0.003825842 0.007702562 0.03251533
000040 c9 e7 33 3c 4c 82 05 bc bd f6 db 3b f8 78 b7 3b
       0.010980555 -0.008148741 0.006712763 0.0055991374
000050 08 07 8b bc c0 ce f3 bb 71 70 7c bb 79 e7 8f bc
       -0.016971126 -0.007440418 -0.0038519169 -0.01756643
000060 50 e7 1d 3c 38 25 0e bb 08 43 d6 bc fd 62 89 bc
       0.009637669 -0.0021689665 -0.02615501 -0.016770834
000070 5d cb 1c bb 36 f2 d5 bb 7d 3c 83 bc 07 ea 9c bb
       -0.0023924925 -0.006529118 -0.016020054 -0.0047886404
000080 b7 14 54 3c cb fe 31 bc 63 49 78 bc 9d 1c 0c 3c
       0.012944392 -0.01086397 -0.0151542155 0.008551744
000090 83 ac df bb 38 0e be bb c4 5b e1 3c b7 67 33 bb
       -0.006825985 -0.005800035 0.027509578 -0.0027375051
0000a0 e2 6e 32 bc 9f 7b a4 3b 72 82 67 3b 79 73 1e bc
       -0.010890694 0.0050196196 0.0035325554 -0.0096710855
0000b0 e1 04 96 bb 32 3c ee 3b d7 f4 88 bc bc c2 26 ba
       -0.0045782183 0.0072703594 -0.016718311 -0.0006361415
0000c0 c0 c2 be bb f0 7d 6d 3c 9a cb 5c 3c 7f 74 84 3c
       -0.005821556 0.014495358 0.013476277 0.01616883
0000d0 82 14 00 3c 23 17 da 3c 54 01 4c 3c a3 c3 f4 bb
       0.007817389 0.02662236 0.0124514885 -0.007469611
0000e0 3b ca f7 3b a2 32 1a 3a 66 81 d2 3c 22 36 89 3c
       0.0075619495 0.00058821787 0.025696468 0.016749445
0000f0 0d 82 18 3b 2c da 94 bc 6a f5 98 bb 37 00 04 3c
       0.0023270876 -0.018170439 -0.0046679275 0.008056692
000100 a4 d5 a3 3b 2b bd 86 3a f2 2f 2c 3b 4d 34 47 3b
       0.004999833 0.0010279765 0.0026273695 0.0030396164
000110 cf 67 93 3c e6 11 f3 bb 3d c5 3b bb 81 c2 de 3b
       0.017993836 -0.007417905 -0.0028651499 0.006798089
000120 8f 5b aa 3c 29 93 20 3b 5f 7d 60 ba c3 c4 ca bb
       0.020795612 0.0024501777 -0.00085636036 -0.0061880066
000130 63 54 01 bb 90 ae 77 3a 67 45 46 3b a9 83 aa bc
       -0.0019734136 0.0009448314 0.003025377 -0.020814734
000140 b7 47 55 b9 76 83 cf ba c0 43 97 bb 1e fc c7 ba
       -0.00020339979 -0.0015832025 -0.0046162307 -0.0015257632
000150 72 1a 88 3c 8a f7 77 3c e3 a5 f6 bb 33 62 9d bb
       0.016614173 0.0151347015 -0.0075270995 -0.004802966
000160 37 22 01 3c b4 2c 6e 3c cd a8 50 3a bc ec 7b 3c
       0.007881693 0.014537025 0.00079597236 0.015376266
000170 4d 56 e2 bb aa e1 d8 3b 34 f2 09 3c c3 36 84 39
       -0.0069072605 0.006618698 0.008419562 0.00025217803
000180 51 13 60 bc 7b 14 9c b9 07 cf 90 3c 78 09 6d bb
       -0.01367648 -0.00029769898 0.017676843 -0.0036168974
000190 d0 53 68 3c 4a 4c a9 bb db a4 23 3c c2 f4 ca 3b
       0.014180139 -0.005166565 0.009988035 0.006193728
0001a0 8a b7 bc 3b 92 5e 2a bc 49 64 08 3c f7 b8 cf bb
       0.0057591842 -0.010398524 0.008324691 -0.006339188
0001b0 9a cb 98 3a 5f da 2c 3c 67 5f 72 bc 8a 88 49 3b
       0.0011657358 0.010550111 -0.0147932535 0.003075155
0001c0 96 eb 43 3c 7d 0a 6e bc ac fb 81 3c f0 a6 5c bb
       0.0119580235 -0.014528868 0.015867077 -0.0033668838
0001d0 0d c8 b4 3c 25 c6 c6 3a 33 79 98 bc ab 70 41 3c
       0.022068048 0.0015165253 -0.01861248 0.011806647
0001e0 22 e0 3d 3c d2 b2 b0 bb 4e 48 98 ba b0 2d 46 3b
       0.011589082 -0.005392411 -0.0011618228 0.0030239634
0001f0 ba c9 be bb af 0b 28 3b 98 6f 29 3a 79 6e 71 bb
       -0.0058223875 0.002564173 0.0006463467 -0.0036839528
000200 90 66 0c bc ee bd 1e bb 8c 04 01 3c 56 6d f4 bb
       -0.008569375 -0.0024222094 0.007874619 -0.007459323
000210 00 9a 64 bc 5f b6 37 3c ea 2b 00 bc 43 6b 63 3b
       -0.013952732 0.011212914 -0.00782297 0.0034701384
000220 2d bf 3e 3c a4 b9 8d 3c 53 4d c2 ba 60 97 25 3c
       0.01164226 0.017300434 -0.001482407 0.010106891
000230 df 0a 85 3c 98 9c f9 bb e1 7b d5 39 c4 49 03 bc
       0.016240535 -0.0076175444 0.00040718823 -0.008013193
000240 85 a9 b5 bb 68 41 5e 3b 25 8e 65 bc e3 f9 7c bc
       -0.00554389 0.0033913497 -0.014010941 -0.015440437
000250 d2 85 b7 ba 33 d9 64 bc 8c ac 85 3c 17 8b 8d 3c
       -0.0014001674 -0.0139678 0.016317628 0.017278237
000260 96 e2 9c 3a 37 0e c1 bb a2 da 92 3c 81 90 74 3c
       0.0011969383 -0.005891587 0.017926518 0.014927031
000270 53 41 b0 3c 9f 8a 56 bc ca ee 7b bc bb bf 37 3c
       0.021515524 -0.013094573 -0.015376756 0.011215146
000280 ae 89 28 3c 6d fa d0 3b 30 78 12 3c fc aa 9d 3c
       0.010286732 0.0063775093 0.008939788 0.01924657
000290 2e f9 35 bc 38 1f 3f 3c 0f 89 17 3c 1c 71 88 3c
       -0.011106772 0.011665158 0.009248986 0.016655497
0002a0 d3 c6 26 bc c1 13 98 bb 30 a0 07 3c ba a7 cd 3c
       -0.010179239 -0.0046410267 0.008277938 0.025104392
0002b0 67 06 0f 3c b2 32 db 3c 0a 70 be 3b f5 3b b4 ba
       0.008729554 0.026757572 0.005811696 -0.0013750779
0002c0 40 5e 5c 3c 71 9a e0 bb 55 40 ed bb 51 e9 75 bc
       0.013450205 -0.0068543484 -0.007240335 -0.01500924
0002d0 c7 fa 30 bc 9a 9d 6e 3c 89 1d 8c bc 65 c7 8f 3c
       -0.0108019775 0.014563942 -0.017103927 0.017551133
0002e0 ba 74 61 3c 11 db 39 3c 91 4c c0 bb 65 0c 8a 3c
       0.01376074 0.011343733 -0.0058685024 0.016851613
0002f0 b1 4c b4 ba b1 b1 91 3c a5 af 43 3c 01 f6 be bb
       -0.0013755766 0.017784925 0.011943732 -0.005827666
000300 d2 80 09 bb bf 10 03 bc 03 c7 7f 3c 35 05 02 bc
       -0.0020981324 -0.007999598 0.015611413 -0.007935812
000310 ad 80 0d bc 35 6b 9c ba 29 4d a3 3c 84 dc 10 bb
       -0.008636636 -0.0011933806 0.019934254 -0.0022104094
000320 51 e4 88 3c f4 6c 51 bc 22 49 05 bc 2b 8d 5f 3c
       0.016710432 -0.012782324 -0.008135112 0.013644497
000330 f0 5c b2 3c 03 7c 09 bc 48 59 28 3b c1 91 0c bc
       0.021772832 -0.008391383 0.0025687981 -0.008579672
000340 e6 c1 a7 ba 87 f6 68 3c 36 a5 7e bc a7 91 11 3c
       -0.0012798875 0.014218933 -0.015542319 0.008884824
000350 ca 39 d5 bb 0b c4 65 bc 35 b1 53 bc 1f bb 8a 3b
       -0.006507133 -0.014023791 -0.012920667 0.0042337324
000360 77 37 6f 3c b8 12 03 bc b0 84 8a bb 75 d4 89 bc
       0.014600626 -0.008000068 -0.0042272434 -0.01682494
000370 40 be db 3b a5 e8 8e bb 2c bc 23 3c 49 7c 9a 3a
       0.006706029 -0.0043612295 0.009993594 0.0011786307
000380 62 96 b0 3a c0 6b 09 3c 04 26 4e 3b 09 09 27 3b
       0.0013472552 0.008387506 0.0031455765 0.0025487563
000390 46 1e 93 3b 40 01 8c 3a 35 34 7b bb 94 16 f8 3a
       0.004489693 0.0010681525 -0.0038330678 0.0018927627
0003a0 74 b7 d5 bb 79 7a 02 3d e5 9a a4 ba 57 e3 1c 3b
       -0.0065221135 0.03185508 -0.0012558369 0.0023939216
0003b0 f9 05 5c b8 c1 71 96 3b 60 f3 2b bb db d3 66 bb
       -5.245765e-05 0.0045911972 -0.0026237592 -0.003522149
0003c0 8d 04 28 3a 6c 78 ea 3b 29 d6 f5 bb 3e 84 95 3c
       0.00064093695 0.0071554687 -0.0075023365 0.018251535
0003d0 b4 ec e9 bb 67 3b c7 ba 31 38 8b 3b fb 10 fa bb
       -0.007138813 -0.0015200198 0.004248642 -0.0076314188
0003e0 31 6b f3 bb f3 4f a9 3c ab 9a 8e bc a3 7f 9e bb
       -0.0074285497 0.020668006 -0.017407736 -0.004836993
0003f0 9c a1 ee 39 98 11 72 3c 16 3a 6b 3c d1 f0 c1 bc
       0.00045515306 0.0147747025 0.0143571105 -0.0236744

action_model._discrete_distribution.branches.1.bias f4 [3]
000000 66 2a 26 bc c9 3e a0 3b c9 97 85 3b
       -0.0101419445 0.004890297 0.004076932
