results/boat-agent-ppo/boat.onnx (onnx, 328993 bytes, 11 tensors)

discrete_act_size_vector f4 [1, 3]
2.0 3.0 2.0
00000000: 0000 0040 0000 4040 0000 0040

network_body._body_endoder.seq_layers.0.weight f4 [256, 47]
0.09327324 -0.053648476 -0.3270111 0.029314866 0.013879451 0.1036381 -0.041495673 0.36777
0.10835028 -0.21395206 -0.16603199 -0.0010465265 0.3713494 0.25244334 0.057644922 -0.07426062
0.26477638 -0.13557296 0.12068385 0.08107366 -0.02116971 -0.02831318 -0.09149247 0.21528286
-0.29766905 0.030740948 0.0259638 -0.07760415 -0.067707665 0.05646609 0.084961064 0.22202542
0.08189347 0.0073267026 0.13082263 0.013709326 -0.05967588 -0.10456753 -0.4541938 0.014494077
0.016455663 0.035453606 0.38173574 -0.04803224 0.1626605 0.091673076 0.022578666 0.027218781
0.20840383 -0.004794867 -0.12500629 0.09059989 0.11377994 -0.18056147 -0.028298093 0.098159626
-0.12118072 0.068442 -0.20635262 -0.0247655 0.059253763 0.11912798 0.22741814 -0.039469603
0.062443115 -0.014116942 0.09232492 0.104640596 -0.12104792 0.37884834 -0.1794639 -0.1672594
0.1798903 -0.11127019 -0.09904068 0.18915412 -0.282668 0.1440517 0.13279319 0.046082363
-0.11011274 0.20111445 0.12855068 0.30539605 0.11134235 -0.101729274 -0.3742791 -0.094117716
-0.064850196 0.097278506 0.04367995 -0.17675027 -0.16340816 0.04349516 0.103542134 -0.14219002
-0.15706179 -0.0657835 -0.087646894 0.111164376 0.26905504 -0.07423554 0.26104444 0.009266157
0.070448875 0.06569713 0.108181305 0.12355445 -0.10367785 0.15736853 0.12708971 0.09238652
0.2497439 -0.09570205 -0.0511731 0.122759104 0.10829007 0.19940017 -0.033740934 -0.03569484
0.109152384 0.26110753 0.07998764 0.15949596 0.0042957203 0.12016639 -0.12080001 -0.10781404
-0.10317538 -0.19137593 -0.15341976 0.011873414 -0.03276889 0.063170165 -0.044705555 -0.21686697
-0.0070554125 -0.082305394 0.11818662 0.045887142 -0.100427724 -0.20092998 0.24820872 -0.004109359
0.16879742 -0.08915668 -0.122479744 -0.040750857 0.16125268 -0.28429815 0.10756709 0.0031029314
0.28253332 -0.05765729 0.020959774 -0.04202928 0.062991925 -0.44500792 0.28846836 -0.03264398
-0.0038125997 -0.14471592 0.19787471 0.15853696 0.22909842 -0.22574264 0.047012113 0.17949526
0.04734554 0.06556377 -0.18737358 0.3614287 0.029470604 0.096699044 -0.37191862 -0.040976997
-0.09551027 0.06653852 -0.07319642 0.14517832 -0.15321502 -0.24743158 0.31070974 -0.07485616
-0.074780986 0.22218454 -0.059863266 0.015571954 0.33090916 0.049337033 0.22469357 0.34512836
0.4262028 -0.13751273 -0.041840106 0.004354881 0.112276025 -0.31883198 0.11581704 -0.07188217
0.055031255 -0.028403128 -0.015644247 -0.046719283 0.083749495 -0.06433375 0.08774216 -0.08691972
-0.04911657 0.015167561 -0.034891974 0.041498274 0.17349377 -0.17998272 0.1110247 0.11113809
-0.29423887 0.34761885 -0.061340854 0.64608955 0.15918396 0.02453268 0.056549974 0.122951604
-0.05468735 0.21952742 0.16405717 0.04702114 0.026905132 0.13454567 0.15514944 -4.030529e-05
0.0056518153 -0.27550447 0.021813527 0.1962318 0.07380453 -0.3837824 -0.2803516 0.24733731
0.03652863 -0.031499915 0.056497987 -0.19238557 0.043870315 0.008637363 0.15429129 0.106626436
0.04611846 -0.072875 0.40819675 0.12722377 -0.057276003 -0.18348873 -0.07535119 0.1300337
00000000: 0a06 bf3d 81be 5bbd 006e a7be bb25 f03c
00000010: a366 633c 3640 d43d 5ef7 29bd 594c bc3e
00000020: c0e6 dd3d 4016 5bbe 4a04 2abe 9a2b 89ba
00000030: 8221 be3e 4140 813e 151d 6c3d f415 98bd
00000040: c590 873e a3d3 0abe 1829 f73d f209 a63d
00000050: 1a6c adbc 0bf1 e7bc 6760 bbbd 1c73 5c3e
00000060: 1468 98be 71d4 fb3c 09b2 d43c edee 9ebd
00000070: 51aa 8abd fd48 673d 1100 ae3d a25a 633e
00000080: c3b7 a73d d614 f03b 5ef6 053e 159d 603c
00000090: b26e 74bd 8027 d6bd 178c e8be 9178 6d3c
000000a0: 07ce 863c cd37 113d de72 c33e 74bd 44bd
000000b0: 7990 263e 18bf bb3d e5f6 b83c ecf9 de3c
000000c0: d067 553e 421e 9dbb a601 00be 6f8c b93d
000000d0: 7505 e93d 1be5 38be 67d1 e7bc ea07 c93d
000000e0: 992d f8bd 522b 8c3d 1a4e 53be 05e1 cabc
000000f0: 13b4 723d 5ff9 f33d 4de0 683e e1aa 21bd
00000100: 5ac4 7f3d bf4a 67bc d914 bd3d cf4d d63d
00000110: f9e7 f7bd 69f8 c13e 62c5 37be 0c46 2bbe
00000120: 2a35 383e a0e1 e3bd d7d5 cabd 9eb1 413e
00000130: dcb9 90be 4a82 133e f0fa 073e dcc0 3c3d
00000140: ca82 e1bd f2f0 4d3e caa2 033e df5c 9c3e
00000150: 7507 e43d 7057 d0bd 83a1 bfbe cac0 c0bd
00000160: 2ed0 84bd f439 c73d bfe9 323d 06fe 34be
00000170: 7854 27be fb27 323d e60d d43d 439a 11be
00000180: ced4 20be 80b9 86bd 3780 b3bd 26aa e33d
00000190: 95c1 893e ce08 98bd 9ea7 853e 14d1 173c
000001a0: 8047 903d 388c 863d 298e dd3d 1e0a fd3d
000001b0: 0d55 d4bd 3725 213e ce23 023e 2535 bd3d
000001c0: ddbc 7f3e 70ff c3bd e29a 51bd 2069 fb3d
000001d0: 2fc7 dd3d 8f2f 4c3e ef33 0abd c134 12bd
000001e0: 498b df3d e3af 853e 8fd0 a33d e952 233e
000001f0: 1dc3 8c3b cc19 f63d ff65 f7bd 9bcd dcbd
00000200: 9d4d d3bd 0df8 43be 121a 1dbe b588 423c
00000210: ac38 06bd 5c5f 813d 2c1d 37bd 6012 5ebe
00000220: 1731 e7bb bb8f a8bd d40b f23d 28f4 3b3d
00000230: 0dad cdbd 97c0 4dbe 6d2a 7e3e cda7 86bb
00000240: 3bd9 2c3e c797 b6bd a9d6 fabd 5fea 26bd
00000250: 6c1f 253e 878f 91be 224c dc3d 8d5a 4b3b
00000260: 35a8 903e 0d2a 6cbd d5b3 ab3c e526 2cbd
00000270: e901 813d 14d8 e3be 20b2 933e b2b5 05bd
00000280: cfdc 79bb 6930 14be ab9f 4a3e 8357 223e
00000290: c798 6a3e 1429 67be c68f 403d 9bcd 373e
000002a0: 66ed 413d 4c46 863d dcde 3fbe 2f0d b93e
000002b0: 566c f13c 260a c63d 1e6c bebe 7fd7 27bd
000002c0: e39a c3bd 5945 883d 01e8 95bd a0a9 143e
000002d0: 66e4 1cbe b45e 7dbe 5915 9f3e 304e 99bd
000002e0: c626 99bd 5884 633e 2f33 75bd 8221 7f3c
000002f0: ed6c a93e a115 4a3d 1216 663e aab4 b03e
00000300: 4137 da3e 23d0 0cbe 8860 2bbd 64b3 8e3b
00000310: f9f0 e53d f23d a3be 7c31 ed3d f636 93bd
00000320: 7468 613d adad e8bc 5d28 80bc b85c 3fbd
00000330: db84 ab3d 6ac1 83bd 29b2 b33d f702 b2bd
00000340: 752e 49bd 5d81 783c e3ea 0ebd 18fa 293d
00000350: 5aa8 313e 644d 38be eb60 e33d 5e9c e33d
00000360: 7aa6 96be 19fb b13e 8c40 7bbd 2066 253f
00000370: 1f01 233e c2f8 c83c f2a0 673d 0dce fb3d
00000380: d8ff 5fbd cccb 603e 9afe 273e 3d99 403d
00000390: 2768 dc3c 57c6 093e 7fdf 1e3e 7a0d 29b8
000003a0: dd32 b93b ec0e 8dbe 48b2 b23c fdf0 483e
000003b0: d426 973d 207f c4be 3f8a 8fbe fe45 7d3e
000003c0: 0b9f 153d 0e06 01bd 6f6a 673d b900 45be
000003d0: 5cb1 333d ba83 0d3c 89fe 1d3e f65e da3d
000003e0: b6e6 3c3d 7d3f 95bd 2aff d03e f346 023e
000003f0: 3e9a 6abd 78e4 3bbe ba51 9abd 8e27 053e

network_body._body_endoder.seq_layers.0.bias f4 [256]
8.948612e-05 0.0001531864 0.043401733 0.03097499 0.02390361 0.00023119895 -0.007942931 0.0015045749
-0.01243685 0.038857844 -0.0057709212 0.010673687 -0.0056853164 -0.0059959767 0.006058454 0.005003319
0.0025204325 0.006759354 -0.004062105 0.010177966 0.037473835 0.024471793 0.025001293 -0.011393411
0.0011398416 -0.0060772253 -0.01866765 0.036532044 -0.04488124 -0.00343524 -0.021348547 -0.02144506
-0.00708001 0.0064283404 0.021560974 -0.016374514 0.010629502 0.026822077 -0.0027333146 0.027347144
-0.011904658 0.017531047 0.014523948 0.014730064 0.01959498 0.02041828 -0.008409491 -0.011291704
-0.0052260207 0.017562518 0.023908928 -0.00510802 0.00075989804 0.04809381 0.0020243602 -0.004578754
0.0064405533 0.0047146357 -0.002090666 0.018268699 0.0028916185 0.054021515 -0.008529973 -0.01977575
0.011505633 0.03979775 0.016952183 0.02072349 0.029764712 -0.012631646 0.009212868 -0.018087812
-0.014896342 0.009279952 0.0039943624 -0.016211104 -0.011731964 -0.0072787027 0.0015778292 0.047828365
0.006387467 -0.0021862716 0.0034388567 0.01682245 -0.0065644947 0.011558193 -0.0022343083 0.012186368
0.010630147 -0.016984727 -0.018183911 0.015039362 -0.035478555 -0.0071175187 0.009381223 -7.714081e-05
0.0074562384 -0.014265003 -0.011635044 0.008595058 0.0037241278 0.0032357066 0.02784534 0.011921445
0.008204803 -0.011721579 0.01038995 -0.016983261 0.044330455 0.003175156 0.019441249 0.011426618
-0.007123628 -0.0029234989 -0.0014590573 -0.03522462 0.00075038953 -0.014978204 0.0006601606 0.0151225915
0.01191701 0.002607616 0.024443755 -0.0058482913 -0.02724021 -0.008940274 -0.0056019314 0.042140607
0.011240308 -0.0063240044 -0.01331737 -0.009858875 -0.0065514906 -0.008827301 0.0146223605 -0.009030901
0.020317484 -0.008738138 -0.008861353 0.020797152 0.037461385 0.01638863 -0.0245609 0.0127339335
0.0015128386 0.0068339393 -0.0227292 0.002785468 -0.0038807797 -0.0014132463 0.02301764 0.0013271192
0.0030981966 -0.006513413 0.0055281525 0.01447011 -0.00031739572 0.010369375 0.0032608735 0.022264216
0.006986919 0.011502802 -0.031236233 -0.014154514 -0.025956297 0.026053192 -0.0127574215 0.047899302
-0.0015624588 0.009084431 0.008722534 -0.012577523 -0.01624538 0.014130967 -0.0014930997 0.016111035
-0.0005046802 0.005457586 0.049238585 0.007733393 0.0006036545 -0.014918996 -0.003649643 0.05067629
0.008191016 0.030603392 -0.006814993 0.022148505 0.006297119 -0.014572155 0.026384521 -0.025193082
0.019298093 -0.006212168 0.009921676 -0.03024445 0.027122255 -0.0013860944 0.028317602 -0.002457001
-0.019601317 -7.973291e-05 0.0021708212 0.009030211 -0.00923221 0.0024506473 -0.011248487 -0.0011730706
-3.465522e-05 0.00020114843 0.008137005 -0.0049674413 -0.018640885 -0.02039534 0.00020448722 0.02097228
0.020373218 0.042321973 -0.0020006439 0.009327141 -0.024398448 -0.0036458655 0.006490438 -0.00015697676
0.00041252788 0.0017160039 -0.02747759 0.029871915 -0.012496336 0.052615806 0.004465325 0.032836236
0.0059509524 0.009386202 0.050603025 0.039583888 0.03874533 -0.0048661246 0.04059898 -0.0045181755
0.026189534 0.030245153 -0.0013828919 0.024078198 0.0040276377 0.026569042 0.0074958215 -0.0041485573
0.0038828044 -0.011611474 0.0001494584 -0.0068538166 -0.0034107927 -0.0146277 0.0042927884 -0.011481181
00000000: 7faa bb38 a9a0 2039 04c6 313d 43bf fd3c
00000010: 81d1 c33c ff6d 7239 1123 02bc 2835 c53a
00000020: eec3 4bbc 6729 1f3d ff19 bdbb b0e0 2e3c
00000030: e44b babb e679 c4bb ff85 c63b e2f2 a33b
00000040: d72d 253b 927d dd3b 681b 85bb 7cc1 263c
00000050: 2a7e 193d 1279 c83c 83cf cc3c 6eab 3abc
00000060: bd66 953a 7623 c7bb e6ec 98bc a0a2 153d
00000070: 64d5 37bd c321 61bb 26e3 aebc 8dad afbc
00000080: 6eff e7bb d4a4 d23b a4a0 b03c d823 86bc
00000090: 5d27 2e3c f9b9 db3c 6921 33bb 1e07 e03c
000000a0: c10b 43bc 459d 8f3c daf5 6d3c 5e56 713c
000000b0: a785 a03c 3d44 a73c f6c7 09bc d700 39bc
000000c0: 0a3f abbb 45df 8f3c a8dc c33c 2d61 a7bb
000000d0: e533 473a 04fe 443d 21ab 043b 5f09 96bb
000000e0: 470b d33b 3b7d 9a3b 8e03 09bb 3da8 953c
000000f0: 4f81 3d3b aa45 5d3d 4dc1 0bbc c100 a2bc
00000100: 1f82 3c3c f702 233d 4edf 8a3c 4fc4 a93c
00000110: 20d5 f33c f7f4 4ebc 92f1 163c e42c 94bc
00000120: c90f 74bc f10a 183c 24e3 823b 26cd 84bc
00000130: 6c37 40bc 2f82 eebb 2acf ce3a ade7 433d
00000140: f54d d13b 8d47 0fbb 715e 613b 3ccf 893c
00000150: f91a d7bb 935e 3d3c 796d 12bb 55a9 473c
00000160: 112a 2e3c 8e23 8bbc 6df6 94bc a867 763c
00000170: f651 11bd 133a e9bb b3b3 193c a8c6 a1b8
00000180: 7653 f43b c2b7 69bc e9a0 3ebc 49d2 0c3c
00000190: 7f10 743b 260e 543b e91b e43c 2a52 433c
000001a0: 706d 063c de0b 40bc 9c3a 2a3c 7b20 8bbc
000001b0: da93 353d 4716 503b 4143 9f3c b636 3b3c
000001c0: 536d e9bb 2c98 3fbb d73d bfba b147 10bd
000001d0: cab5 443a 2467 75bc a10e 2d3a bfc4 773c
000001e0: 903f 433c 89e4 2a3b 453e c83c 06a3 bfbb
000001f0: dc26 dfbc 3a7a 12bc 6890 b7bb a19b 2c3d
00000200: 4529 383c 9839 cfbb 1931 5abc 1e87 21bc
00000210: e3ad d6bb 62a0 10bc a092 6f3c 58f6 13bc
00000220: da70 a63c 682a 0fbc 352f 11bc ca5e aa3c
00000230: 1c71 193d 7341 863c f133 c9bc fda1 503c
00000240: 714a c63a 3def df3b 9632 babc 668c 363b
00000250: ae54 7ebb ad3c b9ba 7d8f bc3c bbf2 ad3a
00000260: 1d0b 4b3b 786e d5bb 8125 b53b 0a14 6d3c
00000270: 2268 a6b9 50e4 293c 61b4 553b 7263 b63c
00000280: 86f2 e43b 4076 3c3c 21e3 ffbc 56e8 67bc
00000290: 4da2 d4bc 816d d53c 8104 51bc 0f32 443d
000002a0: 6bcb ccba ded6 143c f6e8 0e3c f411 4ebc
000002b0: 0815 85bc 9285 673c 1db4 c3ba 4afb 833c
000002c0: 844c 04ba 8dd5 b23b 66ae 493d 6768 fd3b
000002d0: 913e 1e3a ce6e 74bc d92e 6fbb f191 4f3d
000002e0: 9c33 063c f7b3 fa3c 4e50 dfbb c870 b53c
000002f0: 1058 ce3b 0cc0 6ebc 5a24 d83c b961 cebc
00000300: 0917 9e3c 718f cbbb 868e 223c 35c3 f7bc
00000310: 7e2f de3c 9cad b5ba 51fa e73c a305 21bb
00000320: f192 a0bc 4836 a7b8 5644 0e3b 73f3 133c
00000330: b242 17bc 0a9b 203b 934b 38bc b8c1 99ba
00000340: c25a 11b8 5feb 5239 1351 053c ebc5 a2bb
00000350: c5b4 98bc 2114 a7bc 9f6b 5639 0fce ab3c
00000360: bce5 a63c ce59 2d3d 3c1d 03bb ddd0 183c
00000370: 41df c7bc 79ef 6ebb bdad d43b 219a 24b9
00000380: 8e48 d839 89eb e03a af18 e1bc f2b5 f43c
00000390: 6fbd 4cbc ac83 573d dc51 923b 4a7f 063d
000003a0: 3500 c33b 96c8 193c 1e45 4f3d b722 223d
000003b0: 6cb3 1e3d 0374 9fbb 1e4b 263d 340d 94bb
000003c0: 6f8b d63c afc4 f73c 2742 b5ba a43f c53c
000003d0: 46fa 833b 52a7 d93c 829f f53b 9ff0 87bb
000003e0: a676 7e3b 0d3e 3ebc efb7 1c39 fb95 e0bb
000003f0: 9b87 5fbb 05a9 6fbc 85aa 8c3b 901b 3cbc

network_body._body_endoder.seq_layers.2.weight f4 [256, 256]
0.011033308 0.13005778 0.026184231 -0.13531385 0.0073387255 -0.0768571 -0.010306756 0.047409587
0.11988614 -0.028838709 0.11709043 -0.018561285 -0.049916033 0.0919179 0.03519819 -0.023337845
-0.079157025 0.015745472 0.011787923 0.013908155 -0.051247746 -0.021286547 0.0041818656 0.0070937267
-0.023945993 -0.026175758 -0.106913716 0.13214515 0.00060060667 -0.011259703 -0.062325437 0.014248177
0.14281534 -0.009467883 0.08985274 0.046084464 -0.04063194 0.031755086 0.081128865 -0.05385956
0.03592857 0.08940718 -0.02015263 0.11948409 -0.0052128932 -0.021696141 -0.086129256 0.022316853
-0.057565715 -0.052898154 -0.008351446 -0.21358769 0.0015562596 0.020439642 -0.13483244 -0.037206903
0.09117413 0.116352566 0.095209785 -0.14282952 0.06525323 0.014441676 0.058741543 -0.1427971
0.10903083 -0.0074610673 -0.014917553 -0.083974145 -0.037070774 0.02394271 0.014051772 -0.032649625
0.01123053 -0.057226915 -0.009812889 0.017854486 0.007274626 0.006205304 -0.06189938 -0.042369347
0.10061361 0.11545314 0.03583449 0.07095947 0.020947358 -0.036047768 0.028654194 0.058488406
-0.02612938 -0.03676317 0.08666056 0.11362907 -0.00973372 0.08224466 -0.025921669 -0.03920872
0.05265899 -0.005644011 -0.12119286 0.096166216 -0.08558425 -0.086335585 0.006391432 0.07754221
0.09270173 -0.08313823 0.06133959 -0.0043501994 -0.051540818 -0.06368983 -0.008998496 -0.02995909
-0.040086273 -0.030462218 -0.08352334 0.00046804507 0.033230625 -0.09446946 -0.0038937945 0.051914487
-0.044558655 0.07865208 0.056882296 0.0051005203 0.07762795 0.018249782 -0.07923983 -0.009815213
-0.03718644 0.021403428 -0.027856838 0.05473738 0.021498632 -0.033304602 -0.0816569 -0.009022686
-0.11624541 -0.022184364 0.09545651 -0.10415592 -0.081991486 0.012472608 0.11314998 -0.051955536
-0.069216534 -0.022114847 -0.008665713 -0.06297177 0.10767621 0.06923307 0.09785482 -0.04220981
-0.024576012 0.006871348 -0.0138209425 -0.041188814 -0.01713713 -0.101864465 0.034959167 0.017002223
0.053361665 0.023666942 -0.04973726 -0.028507559 0.005108133 -0.027187252 -0.015120038 0.056504898
0.014044082 0.06511942 -0.10123214 0.10253878 -0.07040725 0.008482161 -0.10328401 0.08636439
0.09445746 0.026351908 -0.006755375 -0.04830677 0.07163176 0.045635547 -0.044534683 0.03715116
-0.12766577 -0.022922887 -0.036679976 -0.14385138 0.06324455 0.024285054 0.08573119 0.098471574
0.026174203 0.068913445 -0.040799804 -0.005134549 -0.06672178 -0.04916133 -0.022034366 0.03651528
0.00759688 -0.09480134 -0.0041717915 -0.13733739 0.11591252 -0.030931314 -0.03694499 0.067568466
0.09521465 -0.047861338 -0.009812345 0.033258244 -0.023789769 -0.0029185794 0.05951461 -0.052545555
-0.020775383 -0.0486109 -0.09856598 -0.0019866247 7.9882644e-05 -0.016061451 -0.010083413 -0.046515666
-0.0056584994 0.07158042 0.07929612 -0.04479611 0.031491864 0.052655492 -0.01317465 -0.007984743
-0.07902739 -0.09911354 0.010345132 -0.015576425 0.055968918 -0.0072423248 -0.14705244 0.01385077
-0.13683687 -0.030494478 0.1179606 0.035865966 -0.06721156 -0.0015456739 0.040069696 0.06666142
0.0326642 0.051940836 0.05007091 -0.039615206 0.046500597 0.031780068 -0.07229207 0.046245087
00000000: 0cc5 343c de2d 053e 5080 d63c b78f 0abe
00000010: b179 f03b 4167 9dbd abdd 28bc 8e30 423d
00000020: dd86 f53d 283f ecbc 1bcd ef3d d60d 98bc
00000030: c174 4cbd 743f bc3d fa2b 103d 022f bfbc
00000040: 141d a2bd a6fc 803c 2222 413c 08df 633c
00000050: 28e9 51bd 2061 aebc 0808 893b 7e72 e83b
00000060: 632a c4bc 8b6e d6bc 94f5 dabd 0f51 073e
00000070: 0872 1d3a 9e7a 38bc f548 7fbd 3071 693c
00000080: 2f3e 123e 2e1f 1bbc b704 b83d 10c3 3c3d
00000090: ad6d 26bd 9f11 023d e426 a63d d89b 5cbd
000000a0: d629 133d 1d1b b73d 2117 a5bc 13b4 f43d
000000b0: ebd0 aabb 1bbc b1bc 8964 b0bd d5d1 b63c
000000c0: 07ca 6bbd bcab 58bd 81d4 08bc bbb6 5abe
000000d0: 68fb cb3a 0971 a73c 8411 0abe 4466 18bd
000000e0: 81b9 ba3d 414a ee3d 59fd c23d e741 12be
000000f0: 7ca3 853d c89c 6c3c f99a 703d 6739 12be
00000100: 8e4b df3d f87b f4bb c168 74bc a3fa abbd
00000110: 86d7 17bd 8123 c43c 6739 663c 9dbb 05bd
00000120: 4200 383c c566 6abd 3dc6 20bc 9243 923c
00000130: fc5f ee3b dd55 cb3b 348a 7dbd 7b8b 2dbd
00000140: 820e ce3d b272 ec3d 30c7 123d 3353 913d
00000150: cb99 ab3c d3a6 13bd 33bc ea3c 8a91 6f3d
00000160: 480d d6bc fa94 16bd 177b b13d 5cb6 e83d
00000170: 2e7a 1fbc e36f a83d ae59 d4bc 5399 20bd
00000180: f4b0 573d 65f1 b8bb f633 f8bd cbf2 c43d
00000190: cc46 afbd b6d0 b0bd 386f d13b 73ce 9e3d
000001a0: 68da bd3d 6044 aabd 393f 7b3d 1e8c 8ebb
000001b0: 771c 53bd d06f 82bd 6e6e 13bc c46c f5bc
000001c0: 8131 24bd e78b f9bc 490e abbd f263 f539
000001d0: d61c 083d 3479 c1bd 082f 7fbb 49a4 543d
000001e0: 2383 36bd 5714 a13d 69fd 683d 4422 a73b
000001f0: 67fb 9e3d 9180 953c 7e48 a2bd fdcf 20bc
00000200: cf50 18bd 3e56 af3c 0634 e4bc 4e34 603d
00000210: e61d b03c 686a 08bd bc3b a7bd e3d3 13bc
00000220: 1312 eebd fcbb b5bc b47e c33d b34f d5bd
00000230: 27eb a7bd e959 4c3c 2dbb e73d 54cf 54bd
00000240: 66c1 8dbd 322a b5bc a2fa 0dbc 58f7 80bd
00000250: 5885 dc3d 11ca 8d3d 1c68 c83d 32e4 2cbd
00000260: a253 c9bc 0b29 e13b 3c71 62bc 9ab5 28bd
00000270: 2b63 8cbc 519e d0bd 5831 0f3d 3f48 8b3c
00000280: c391 5a3d 2de1 c13c 4cb9 4bbd af88 e9bc
00000290: 2062 a73b cdb7 debc 09ba 77bc ae71 673d
000002a0: 2619 663c 555d 853d cc52 cfbd daff d13d
000002b0: ad31 90bd c3f8 0a3c 9186 d3bd d0df b03d
000002c0: ea72 c13d f5df d73c 315c ddbb 52dd 45bd
000002d0: acb3 923d 57ec 3a3d 006a 36bd d12b 183d
000002e0: d1ba 02be c7c8 bbbc be3d 16bd c74d 13be
000002f0: 5c86 813d 73f1 c63c d693 af3d 77ab c93d
00000300: 486b d63c 7e22 8d3d b21d 27bd b83f a8bb
00000310: 6ea5 88bd 645d 49bd 6a81 b4bc 0c91 153d
00000320: 40ef f83b 3427 c2bd 86b3 88bb 2ca2 0cbe
00000330: 8b63 ed3d ab63 fdbc a153 17bd 5661 8a3d
00000340: e6ff c23d 400a 44bd f5c3 20bc cc39 083d
00000350: c3e2 c2bc a345 3fbb 97c5 733d 023a 57bd
00000360: 2331 aabc 391c 47bd f6dc c9bd 0832 02bb
00000370: ab86 a738 4e93 83bc e634 25bc 3687 3ebd
00000380: ef6a b9bb c198 923d 0166 a23d 207c 37bd
00000390: 9dfd 003d 49ad 573d 7dda 57bc 71d2 02bc
000003a0: 1dd9 a1bd 0afc cabd a17e 293c 4334 7fbc
000003b0: aa3f 653d 0651 edbb ea94 16be 57ee 623c
000003c0: f71e 0cbe 8ecf f9bc 5495 f13d 31e8 123d
000003d0: 37a6 89bd 3698 caba 1f20 243d c885 883d
000003e0: e5ca 053d eabf 543d 2817 4d3d 8e43 22bd
000003f0: 6977 3e3d d12b 023d dd0d 94bd 7d6b 3d3d

network_body._body_endoder.seq_layers.2.bias f4 [256]
-0.0055695036 -0.002261214 0.033474803 0.00047431688 -0.0020361613 0.015887847 -0.0006439663 -0.006098389
-0.0038507185 0.022258284 -0.006907129 -0.0011586027 0.005118781 0.0064182784 0.0056148237 -0.013209161
0.021723114 -0.0038871106 0.0049253767 0.01706863 0.02444317 0.004761093 0.002456005 -0.005667164
0.022984542 -0.0020612269 0.027291996 0.030792912 0.006968297 0.017112514 -0.0052938885 -0.003167012
-0.006515806 0.02163839 0.004588008 0.010301359 0.023139162 -0.0018521018 -0.0023734265 0.0027671342
-0.022084968 -0.004319362 -0.0043473653 0.0036110133 -0.0034873541 0.0007388677 0.03425263 0.0026961595
0.00044194033 0.0047017545 0.015554316 -0.005137171 0.0067218766 0.0018392405 0.0048677768 -0.003593986
0.0017549196 0.013348492 -0.0025836402 -0.006575486 -0.005372407 0.044546086 -0.014579074 -0.0024227188
-0.000253529 0.0009846074 0.008973512 0.018884411 0.00044158453 -0.013639674 0.00973038 -0.0017102957
-0.012596254 0.022820324 0.025109284 0.0064208275 0.014862879 0.00013124006 0.014032463 -0.0016671296
-0.0014269629 0.011101226 0.0028137923 0.0042818445 -0.0018287953 0.0026605849 -0.0057844827 -0.0037850211
0.004001142 0.009678715 0.0063989055 -0.007338283 6.9182934e-06 0.003525631 0.010003219 -0.0029381309
-0.02369843 0.007796593 0.0012207181 0.011988363 0.013041008 0.02327375 0.0049219513 -0.004116179
0.016046405 0.0005381434 0.0087306 -0.0056046336 0.006292005 0.002120169 -0.0030459901 0.026674481
0.0014607902 -0.0067579853 0.008811728 -0.015885573 0.023104073 0.00702006 0.0126291495 0.0042599286
0.0106160855 -0.004313231 -0.025163285 0.007416542 0.006760861 0.0052402187 -0.0059795775 0.025583666
0.012061183 0.009150111 0.006287612 -0.0018247323 -0.0055051623 0.018426916 0.03581254 0.010390372
0.012022479 0.028135564 0.0054515256 -0.00015879169 -0.011796128 -0.005460057 0.038917866 0.03936845
-0.0011226762 -0.00012675574 0.0015977016 0.0038370085 -0.0009838984 0.014727094 0.0013872267 0.00084490963
-0.00078207185 0.036798783 0.020578643 -0.007015684 -0.00825283 0.015997741 0.028197626 -0.000508819
0.019993575 0.009602163 0.001077883 0.008745767 0.0030052965 -0.020169081 -0.016014611 0.008815286
0.009788032 0.004353622 -0.00052355556 0.026577206 0.0037839639 -0.027272912 -0.0039492613 0.0006755099
0.014568958 -0.008150027 -8.276658e-05 0.011700427 -0.0035050432 0.0031982143 0.011033499 -0.0010212602
-7.894054e-05 0.025880076 0.008092099 -0.007700024 0.026069101 -0.0070748716 0.038919646 0.0011025602
0.0067592897 -0.0061299475 -0.00094410306 0.013425538 0.008726395 0.001128008 -0.016804932 0.003733876
0.03568917 -0.0050532236 0.024397785 -0.012302875 0.006494934 0.0053951987 -0.0023362613 -0.007307136
-0.018779239 0.009008325 0.00079160795 0.02060615 0.032080337 0.016664186 0.017113408 0.0044219806
-0.003648552 0.0005947603 -0.00631647 0.022161027 -0.013176459 0.0076838466 0.0055313497 0.015328435
0.009980775 -0.0019719382 0.008113176 -0.0037375055 0.00419173 0.0030445491 0.033654105 -0.0042232056
-0.0053484994 -5.628793e-05 0.019716145 0.0038401287 0.03171723 0.04017591 0.0112499865 0.009675391
0.023056418 0.010916172 0.006618359 0.0036441395 0.0038619423 0.014245254 0.0069076116 0.00055501
0.003624805 -0.018823678 0.028308332 0.014709304 0.0041494635 0.0030575213 0.01123195 0.021627419
00000000: 6280 b6bb e030 14bb e01c 093d bcad f839
00000010: 1e71 05bb 3b27 823c d9cf 28ba ffd4 c7bb
00000020: 565c 7cbb 0157 b63c 3355 e2bb 41dc 97ba
00000030: 72bb a73b 6c50 d23b 8efc b73b 3d6b 58bc
00000040: acf4 b13c e5be 7ebb 0e65 a13b 83d3 8b3c
00000050: 0b3d c83c f102 9c3b edf4 203b 9eb3 b9bb
00000060: 144a bc3c a615 07bb 7793 df3c 6b41 fc3c
00000070: 5056 e43b 8b2f 8c3c 5b78 adbb a58d 4fbb
00000080: 8b82 d5bb fe42 b13c 0057 963b 08c7 283c
00000090: 578e bd3c 39c2 f2ba 7d8b 1bbb cf58 353b
000000a0: 89eb b4bc 6f89 8dbb 5874 8ebb c0a6 6c3b
000000b0: 188c 64bb 92b0 413a 7c4c 0c3d 0db2 303b
000000c0: 3ab4 e739 2d11 9a3b 88d7 7e3c b755 a8bb
000000d0: 3043 dc3b ac12 f13a df81 9f3b 1489 6bbb
000000e0: 5505 e63a a2b3 5a3c 4a52 29bb 2d77 d7bb
000000f0: 040b b0bb f575 363d 12dd 6ebc 7ac6 1ebb
00000100: 16ec 84b9 f10d 813a a305 133c 7bb3 9a3c
00000110: 7984 e739 f078 5fbc 2c6c 1f3c 002c e0ba
00000120: 8560 4ebc b0f1 ba3c fcb1 cd3c ce65 d23b
00000130: 6f83 733c 7c9d 0939 6ae8 653c 9683 daba
00000140: ee08 bbba ebe1 353c 9a67 383b b74e 8c3b
00000150: 30b4 efba 355d 2e3b c28b bdbb 1e0e 78bb
00000160: 031c 833b 7993 1e3c e9ad d13b fb75 f0bb
00000170: b023 e836 460e 673b 8be4 233c a88d 40bb
00000180: 3623 c2bc 907a ff3b 8100 a03a d76a 443c
00000190: f4a9 553c 97a8 be3c 5248 a13b 03e1 86bb
000001a0: c073 833c 3112 0d3a ca0a 0f3c 13a7 b7bb
000001b0: 2a2d ce3b 89f2 0a3b 3c9f 47bb 7184 da3c
000001c0: fc77 bf3a 1772 ddbb 115f 103c 7622 82bc
000001d0: c144 bd3c 8808 e63b 7eea 4e3c df96 8b3b
000001e0: 17ef 2d3c 0156 8dbb 3c23 cebc 7706 f33b
000001f0: 368a dd3b 24b6 ab3b 55f0 c3bb d694 d13c
00000200: 459c 453c 59ea 153c 5008 ce3b db2b efba
00000210: a664 b4bb 0bf4 963c 2cb0 123d 613c 2a3c
00000220: eff9 443c 8e7c e63c b6a2 b23b 5281 26b9
00000230: 8c44 41bc 47ea b2bb 5768 1f3d d040 213d
00000240: c326 93ba bce9 04b9 f869 d13a 5276 7b3b
00000250: 27f6 80ba e949 713c 9bd3 b53a ed7c 5d3a
00000260: f403 4dba 52ba 163d 8b94 a83c d3e3 e5bb
00000270: e136 07bc b20d 833c b5fe e63c 4462 05ba
00000280: 91c9 a33c 6452 1d3c c047 8d3a 684a 0f3c
00000290: 82f4 443b a139 a5bc 1331 83bc fd6d 103c
000002a0: fb5d 203c d4a8 8e3b 383f 09ba 71b8 d93c
000002b0: 61fc 773b 716b dfbc ce68 81bb b414 313a
000002c0: a4b2 6e3c b187 05bc f892 adb8 26b3 3f3c
000002d0: deb4 65bb 2299 513b d9c5 343c cedb 85ba
000002e0: e18c a5b8 7402 d43c b994 043c 7c50 fcbb
000002f0: de8e d53c 53d4 e7bb 356a 1f3d c883 903a
00000300: 087d dd3b badd c8bb af7d 77ba caf6 5b3c
00000310: 27f9 0e3c abd9 933a 7faa 89bc 0bb4 743b
00000320: cf2e 123d 8395 a5bb dddd c73c ff91 49bc
00000330: 75d3 d43b 35ca b03b f61b 19bb b370 efbb
00000340: ebd6 99bc a797 133c e983 4f3a 3bce a83c
00000350: ac66 033d 5583 883c 6b31 8c3c 43e6 903b
00000360: 8c1c 6fbb b0e9 1b3a 64fa cebb 0b8b b53c
00000370: 13e2 57bc c7c8 fb3b 5340 b53b 1e24 7b3c
00000380: 6886 233c a23b 01bb 20ed 043c f0f0 74bb
00000390: c85a 893b 0f87 473b e3d8 093d d162 8abb
000003a0: 7742 afbb b416 6cb8 c183 a13c abaa 7b3b
000003b0: ede9 013d 7f8f 243d dd51 383c 8885 1e3c
000003c0: d0e0 bc3c bed9 323c d2de d83b 84d2 6e3b
000003d0: a418 7d3b ed64 693c 3f59 e23b 177e 113a
000003e0: 238e 6d3b 1d34 9abc e0e6 e73c 4bff 703c
000003f0: 39f8 873b b260 483b 3606 383c fc2b b13c

action_model._discrete_distribution.branches.0.weight f4 [2, 256]
-0.0013984401 -0.010792124 0.047841057 0.011711859 -0.002980494 0.032176875 -0.012256576 0.010865321
-0.006033223 -0.01619513 -0.004769066 -0.0047669946 -0.0065093962 -0.007203224 -0.00079640205 -0.0006324505
0.033444416 -0.002386212 -0.0010079102 0.0014794202 0.03246804 -0.010814432 0.009490454 0.0039710198
0.00078995776 0.01509578 0.03249696 0.029175082 0.02309316 0.017249398 -0.0031734174 0.0062896116
-0.0038129245 -0.00019473936 0.002159468 -0.010112224 -0.0017577547 0.0053161206 0.011127815 -0.0029961593
-0.0033282256 -0.0022786371 -0.0008450932 0.009798902 0.009123542 -0.0050658965 0.009132653 -0.0057699108
0.007434731 0.0065037156 -0.008390166 -0.0020780265 -0.013622438 0.0045745457 -0.008192771 0.00060523575
-0.0071788244 -0.03555751 -0.014835877 -0.002558335 0.008166675 0.040027004 -0.0019883206 -0.008500699
-0.002810335 0.006241933 -0.019558446 0.013267411 -0.007337237 0.0021295587 -0.0017565299 -0.008204544
0.0043302397 0.037508965 0.0287064 -0.011305742 -0.020793963 0.0012745601 -0.02355118 -0.0022244996
-0.006413039 -0.028993335 -0.018439962 0.00985535 0.0041097947 -0.01072272 0.01669134 0.008560371
-0.012260983 0.02148357 0.00085141073 0.00030405444 0.005845994 -0.008114006 -0.0013401742 -0.0074143386
0.0023913954 0.010940945 0.0024153395 0.009497854 -0.0180364 0.02709491 -0.027473243 0.007760317
-0.023920981 -0.0022233434 -0.0030407072 0.0034336178 0.028420072 0.0002774441 -0.00097322854 0.019600794
-0.010882073 0.004995282 -0.02717323 -0.012472558 -0.0007385529 -0.009109512 -0.028790643 -0.01596075
0.012336518 0.001994915 -0.008319263 0.020384235 0.019813716 0.008739082 -0.0026866843 0.015757607
-0.007238774 0.022898786 -0.0064733196 -0.0022153726 -0.003121814 0.00012647318 0.029330386 -0.030796438
-0.03316361 0.023793846 -0.010317311 -0.0015144446 0.0033430292 0.008863621 0.043898605 0.034372922
0.0016634462 -0.014554471 0.006523196 -0.009048686 -0.006780217 0.004760521 -0.002408248 -0.0063021034
0.0028585107 0.016632164 0.008005506 -0.005964456 0.0064762617 0.012562572 0.017914526 0.0027797334
-0.018113993 0.004364914 -0.0036031876 -0.016843285 -0.0075295907 0.0007464036 0.0038764335 -0.0030785117
-0.02049849 0.015915696 0.008129117 -0.0023830414 -0.012522151 -0.002936963 -0.0021044286 0.0005634404
0.033206105 -0.004246742 0.0044135503 0.01617443 0.0109547535 0.015781205 -0.034653485 -0.0014052113
0.016556354 -0.033459477 -0.001441401 -0.0005430488 0.014457325 0.0044623218 0.030952835 -0.0012533984
-0.009190071 -0.0053207306 0.0075733378 -0.0076327217 0.016749917 -0.0006229907 -0.014842492 -0.008818923
0.03591517 -0.0038709957 0.030333752 0.00040476164 -0.015462298 0.008926712 0.007954626 0.00092449266
-0.0058729607 0.017309386 -0.0031931526 0.017791936 0.023963438 -0.032546364 0.011175866 0.002288521
0.0014049312 0.0032484645 -6.5107924e-05 0.015961977 0.0013665735 -0.023155168 0.00679658 -0.009501623
-0.010665803 -0.0056564715 0.008411753 0.0025914453 -0.011698254 -0.004995287 0.038033865 -0.012209428
0.0035824485 0.008447466 0.020348625 -0.012380514 0.033695564 0.035879236 -0.019477675 0.006407801
0.0005056447 0.011346699 -0.017559633 0.018548464 0.014181332 0.0035372642 -0.02415957 -0.0007163049
0.0065391078 -0.00058659544 0.02088901 0.006496142 0.0063260095 -0.007482362 -0.0071102995 0.020705298
00000000: dd4b b7ba 73d1 30bc fcf4 433d 19e3 3f3c
00000010: 6454 43bb e6cb 033d cecf 48bc 7604 323c
00000020: 58b2 c5bb a6ab 84bc d345 9cbb 7334 9cbb
00000030: c64c d5bb 0609 ecbb a3c5 50ba 09cb 25ba
00000040: 03fd 083d ff61 1cbb db1b 84ba 1be9 c13a
00000050: 35fd 043d 042f 31bc d97d 1b3c 541f 823b
00000060: 2b15 4f3a 4a54 773c 881b 053d 9500 ef3c
00000070: de2d bd3c 9c4e 8d3c 1cf9 4fbb 1619 ce3b
00000080: 42e2 79bb f332 4cb9 dc85 0d3b bead 25bc
00000090: 7664 e6ba da32 ae3b 7051 363c 365b 44bb
000000a0: 5c1e 5abb 3055 15bb 3f89 5dba 938b 203c
000000b0: e97a 153c d2ff a5bb 1fa1 153c 8511 bdbb
000000c0: 0b9f f33b 1f1d d53b e876 09bc 802f 08bb
000000d0: a530 5fbc 12e6 953b f93a 06bc afa8 1e3a
000000e0: 583c ebbb c0a4 11bd 2e12 73bc bda9 27bb
000000f0: 85cd 053c 5bf3 233d 7c4e 02bb 8446 0bbc
00000100: 992d 38bb 2189 cc3b 0939 a0bc 8e5f 593c
00000110: 346d f0bb 1190 0b3b 5d3b e6ba 5a6c 06bc
00000120: afe4 8d3b 00a3 193d af29 eb3c b83b 39bc
00000130: 1a58 aabc 240f a73a 67ee c0bc e9c8 11bb
00000140: 7824 d2bb 6e83 edbc 670f 97bc 5578 213c
00000150: 75ab 863b 59ae 2fbc 47bc 883c cc40 0c3c
00000160: 4ae2 48bc 50fe af3c 3531 5f3a 7f69 9f39
00000170: c18f bf3b 9cf0 04bc c9a8 afba fbf3 f2bb
00000180: f5b8 1c3b a641 333c ac4a 1e3b e39c 1b3c
00000190: 13c1 93bc 25f6 dd3c 910f e1bc 424a fe3b
000001a0: eff5 c3bc 83b5 11bb 9a46 47bb 8c06 613b
000001b0: 36d1 e83c eb75 9139 4320 7fba d891 a03c
000001c0: b94a 32bc 76af a33b 659a debc b359 4cbc
000001d0: 729b 41ba 1040 15bc 5bda ebbc 1ec0 82bc
000001e0: 1b1f 4a3c 1fbd 023b 854d 08bc d7fc a63c
000001f0: 6050 a23c 5e2e 0f3c 1513 30bb 1916 813c
00000200: 3d33 edbb 3c96 bb3c 241e d4bb c92f 11bb
00000210: 5997 4cbb e39d 0439 4746 f03c d048 fcbc
00000220: 91d6 07bd 50eb c23c f009 29bc 5480 c6ba
00000230: b916 5b3b b938 113c 06cf 333d 9fca 0c3d
00000240: fe07 da3a e075 6ebc 89c0 d53b f140 14bc
00000250: 952c debb 25fe 9b3b b2d3 1dbb e081 cebb
00000260: da55 3b3b 2d40 883c 8729 033c 7c71 c3bb
00000270: d236 d43b 3fd3 4d3c 7cc1 923c 302c 363b
00000280: cc63 94bc 8d07 8f3b 7523 6cbb eefa 89bc
00000290: c9ba f6bb 4caa 433a c30b 7e3b dbc0 49bb
000002a0: 73ec a7bc a261 823c fd2f 053c cd2c 1cbb
000002b0: b529 4dbc 107a 40bb 74ea 09bb d8b3 133a
000002c0: 2003 083d 4128 8bbb 8b9f 903b 3d80 843c
000002d0: 917b 333c 9647 813c d0f0 0dbd 112f b8ba
000002e0: 31a1 873c ce0c 09bd 64ed bcba 635b 0eba
000002f0: 6bde 6c3c ab38 923b cd90 fd3c 1249 a4ba
00000300: f491 16bc 8659 aebb c329 f83b e91b fabb
00000310: 1f37 893c 3350 23ba ec2d 73bc 3e7d 10bc
00000320: c91b 133d 88b0 7dbb 7d7e f83c 3036 d439
00000330: 9455 7dbc 5841 123c 1f54 023c a759 723a
00000340: f771 c0bb 6acc 8d3c 3644 51bb 65c0 913c
00000350: f94e c43c 564f 05bd fb1a 373c 03fb 153b
00000360: ab25 b83a 31e4 543b 8d8a 88b8 b1c2 823c
00000370: 991e b33a e8af bdbc d8b5 de3b b2ac 1bbc
00000380: 9fbf 2ebc ec59 b9bb 73d1 093c 3dd5 293b
00000390: 09aa 3fbc 81af a3bb 66c9 1b3d 0d0a 48bc
000003a0: 83c7 6a3b 3e67 0a3c 29b2 a63c a4d7 4abc
000003b0: 5c04 0a3d 1bf6 123d a58f 9fbc 88f8 d13b
000003c0: 3e8d 043a 81e7 393c 38d9 8fbc f3f2 973c
000003d0: d158 683c 72d1 673b 4aea c5bc 68c6 3bba
000003e0: 0346 d63b c1c5 19ba 6e1f ab3c 97dd d43b
000003f0: 6a4a cf3b 9a2e f5bb 84fd e8bb 289e a93c

action_model._discrete_distribution.branches.0.bias f4 [2]
-0.0004367424 0.00043674346
00000000: 93fa e4b9 b7fa e439

action_model._discrete_distribution.branches.1.weight f4 [3, 256]
0.005513937 0.006704906 -0.005661475 -0.0025792595 0.0037526533 0.007223283 -0.0040388503 -0.006497801
0.0107745165 -0.0002978461 -0.0045861714 0.0038465706 0.009149428 -0.009798754 0.003765009 -0.017877158
0.013105155 4.8679958e-05 -0.016263124 0.003109581 -0.0015578662 -0.009551621 0.004691693 0.010726886
0.0028939836 -0.0043324432 -0.006006739 -0.0012506152 -0.004323282 0.011571026 -0.002369612 0.0018834019
-0.0056062294 -0.018027617 -0.0048733465 0.011424064 -0.0052505084 -0.0077251787 -0.007539556 0.0072280695
-0.005356135 0.0031463564 0.0018951222 -0.0015051797 0.00086114195 0.013047988 -0.009857042 0.0028247903
-0.0040876726 0.0031255756 -0.0057274527 -0.00079573074 -0.012050595 0.022683913 -0.00047923246 -0.0021765416
-0.012175074 0.0042741387 0.0022317357 0.007994467 0.0072247325 0.0044334684 -0.0041599954 0.005368834
-0.006463601 -0.0027519842 -0.0011602785 0.0034569595 -0.0077614714 -0.009394289 -0.025565865 -0.00024660802
0.00073741446 -0.010032219 -0.0037093177 -0.019550337 0.0039701876 0.000967602 0.001453274 -0.0034862678
-0.0043784734 0.014703182 -0.0037971877 -0.005725765 0.010802661 0.014305175 -0.01328565 0.016919823
-0.0006494013 0.0017850926 -0.015046709 -0.0006236051 -0.012623148 -0.0056726094 0.006468221 2.8581626e-05
0.001168556 -0.011410857 -0.0031795108 0.0020983259 -0.019318594 -0.0019584566 -0.0066208625 0.00037347485
-0.009087521 -0.005112646 -0.00628882 0.0010639817 -0.0032217435 0.012142288 -0.005063834 0.0077921567
-0.0020042155 -0.0006532932 -0.0076871035 0.000852248 -0.0014772144 -0.009208577 -0.0044744615 0.008107431
-0.014960678 0.0017030673 0.00092953676 -0.00029791196 -0.01883514 0.0020534731 0.005925537 -0.0142787155
0.0004032433 4.1505675e-05 0.0027132304 -0.007028279 0.0007353375 -0.004269696 0.014550585 -0.015912347
-0.003828004 -0.014923964 -0.0069520236 -0.00759142 0.0041535986 -0.0007295575 0.0045187706 -0.020198653
-0.0037808672 0.00064079306 0.0045811175 -0.0029272658 0.015689006 -0.00045378838 -0.00088017544 -0.0022232488
0.0027561972 -0.00897906 -0.011521104 -0.0028996603 0.002363637 0.023086332 -0.00017325404 -0.0040535824
0.002099427 -0.0009615677 0.0039896145 -0.020389134 0.00060784863 -0.019694941 -0.0045654383 -0.006548536
0.01295555 -0.00413552 0.008612972 -0.0099415565 -0.0065037715 -0.0046527926 0.01048115 0.004621294
0.004420345 -0.0022470695 -0.0037744693 -0.00058503327 -0.0018672908 0.0064014653 0.0057952534 -0.013568095
-0.004373473 -0.0063992958 -0.015091761 0.0053437217 0.010015629 -0.00095945003 0.018704645 0.0008899548
-0.0020169765 -0.0039142114 0.0059894114 0.0014104819 -0.0041559464 -0.011275728 -0.001510027 -0.012155458
0.010974424 -0.007925718 0.0010388156 0.0057559814 -0.015509957 -0.0041784355 -0.00520626 0.009148147
-0.018066393 -0.013208136 -0.0018664775 -0.011872557 0.013362635 -0.0027191185 0.010675651 0.006151111
-0.004001352 0.00781579 -0.00027703604 0.012370926 0.007924239 -0.0061825938 -0.016787048 -0.009381064
-0.0051538 0.0073910775 0.00092438835 0.0032911135 -0.0025308519 0.0027331288 0.008226366 0.0056886664
-0.0038929777 0.00070722424 0.021603243 -0.0018177698 -0.0013809168 0.017500598 -0.0038254946 -0.0148071265
-0.014762923 -0.013270153 -0.0050813262 0.00565488 0.0032093024 0.0090152575 0.030777967 -0.006142734
-0.008091239 -0.0033562337 -0.010961326 0.004266035 0.0075329356 -0.006228121 -0.022658326 0.016833795
00000000: 42ae b43b d4b4 db3b e583 b9bb cb08 29bb
00000010: 13ef 753b 4ab1 ec3b 5558 84bb 81eb d4bb
00000020: 9987 303c 3a28 9cb9 9847 96bb bf16 7c3b
00000030: 7ce7 153c f48a 20bc 5fbe 763b 1e73 92bc
00000040: 01b7 563c b52d 4c38 3e3a 85bc 1dca 4b3b
00000050: 5131 ccba 677e 1cbc c6bc 993b d2bf 2f3c
00000060: fda8 3d3b 2bf7 8dbb 2ed4 c4bb afeb a3ba
00000070: 51aa 8dbb 6794 3d3c 7e4b 1bbb 7bdc f63a
00000080: 76b4 b7bb a7ae 93bc 98b0 9fbb ff2b 3b3c
00000090: 750c acbb 7f23 fdbb 610e f7bb 71d9 ec3b
000000a0: 8482 afbb 1a33 4e3b c065 f83a 7349 c5ba
000000b0: 42be 613a 3ac7 553c 6e7f 21bc 1e20 393b
000000c0: e2f1 85bb 75d6 4c3b 5bad bbbb 9698 50ba
000000d0: dc6f 45bc 9dd3 b93c 7e41 fbb9 4fa4 0ebb
000000e0: f679 47bc 130e 8c3b 5042 123b 3afb 023c
000000f0: 73bd ec3b a146 913b 9250 88bb 0bed af3b
00000100: 9dcc d3bb a25a 34bb 7c14 98ba 288e 623b
00000110: f153 febb 81ea 19bc 816f d1bc 2b4b 81b9
00000120: 0c4f 413a 2d5e 24bc 0618 73bb 0728 a0bc
00000130: 5918 823b aca6 7d3a c97b be3a de79 64bb
00000140: 4c79 8fbb 9de5 703c 3dda 78bb 339f bbbb
00000150: a5fd 303c 4160 6a3c 0eac 59bc 719b 8a3c
00000160: 953c 2aba c5f9 e93a 7986 76bc 6e79 23ba
00000170: 52d1 4ebc 4ce1 b9bb 5ff3 d33b 93c2 ef37
00000180: 3c2a 993a 9af4 3abc 575f 50bb 1184 093b
00000190: 0742 9ebc 7359 00bb d2f3 d8bb f2ce c339
000001a0: d3e3 14bc fc87 a7bb 7212 cebb 4d75 8b3a
000001b0: e323 53bb 72f0 463c 85ee a5bb 5955 ff3b
000001c0: 2859 03bb c441 2bba 19e4 fbbb 6569 5f3a
000001d0: 179f c1ba 92df 16bc 819e 92bb 08d5 043c
000001e0: a21d 75bc 7539 df3a 28ac 733a 1131 9cb9
000001f0: 274c 9abc 9093 063b 022b c23b 46f1 69bc
00000200: 666a d339 6116 2e38 74d0 313b 7a4d e6bb
00000210: aac3 403a cee8 8bbb 9465 6e3c 9c5a 82bc
00000220: 40df 7abb a483 74bc cdcd e3bb 72c1 f8bb
00000230: e91a 883b c63f 3fba 3212 943b a577 a5bc
00000240: 6dc8 77bb e5fa 273a 331d 963b 5fd7 3fbb
00000250: 3b86 803c 72ea edb9 93bb 66ba edb3 11bb
00000260: 51a1 343b e81c 13bc 03c3 3cbc 3a08 3ebb
00000270: 40e7 1a3b 8c1f bd3c 87ab 35b9 ead3 84bb
00000280: 8a96 093b b711 7cba 50bb 823b 1d07 a7bc
00000290: 0858 1f3a 4957 a1bc ac99 95bb 1a95 d6bb
000002a0: 8443 543c 4283 87bb 6c1d 0d3c e9e1 22bc
000002b0: 971d d5bb 7476 98bb 21b9 2b3c 396e 973b
000002c0: 8bd8 903b 9243 13bb 165d 77bb eb5c 19ba
000002d0: e2bf f4ba 62c3 d13b 1ce6 bd3b b74c 5ebc
000002e0: 5a4f 8fbb 2fb1 d1bb 6f43 77bc 631a af3b
000002f0: 9818 243c 9a83 7bba 7c3a 993c db4b 693a
00000300: 402f 04bb c942 80bb d342 c43b ebdf b83a
00000310: 9b2e 88bb d5bd 38bc 19ec c5ba b027 47bc
00000320: 12ce 333c dfda 01bc de28 883a ac9c bc3b
00000330: 7a1d 7ebc 42eb 88bb 4699 aabb 1ce2 153c
00000340: f9ff 93bc f066 58bc 98a4 f4ba 1d85 42bc
00000350: f4ee 5a3c 3d33 32bb ede8 2e3c 428f c93b
00000360: c61d 83bb cd0d 003c 263f 91b9 6daf 4a3c
00000370: abd4 013c 5b97 cabb fe84 89bc 09b3 19bc
00000380: 35e1 a8bb da30 f23b a752 723a b9af 573b
00000390: a6dc 25bb 4b1e 333b e1c7 063c fe67 ba3b
000003a0: 5421 7fbb 0465 393a 49f9 b03c 3c42 eeba
000003b0: e1ff b4ba 6a5d 8f3c 26b5 7abb 9799 72bc
000003c0: 30e0 71bc 0e6b 59bc 4181 a6bb 924c b93b
000003d0: 2953 523b bbb4 133c 1322 fc3c fd48 c9bb
000003e0: 1e91 04bc 42f4 5bbb 2297 33bc 18ca 8b3b
000003f0: d8d6 f63b 4415 ccbb f49d b9bc 07e7 893c

action_model._discrete_distribution.branches.1.bias f4 [3]
-0.0035417306 -0.001480495 0.0045372015
00000000: 611c 68bb 2b0d c2ba ceac 943b

action_model._discrete_distribution.branches.2.weight f4 [2, 256]
0.005643443 0.008658566 0.0108553935 -0.0155580295 -0.0003475835 -0.000877603 0.01567078 0.0008893019
0.0006056382 -0.004702388 -0.00030442997 0.008366358 -0.0053716335 -0.0013660827 -0.019885806 0.0023876778
0.009826409 0.008856184 -0.0047692605 -0.0075932946 0.027796045 -0.014477646 0.0073031946 0.0008654024
-0.0016162702 -0.0059034745 0.00047289729 0.019760637 -0.010570967 -0.0053159175 0.009408597 -0.0035408733
0.0019640645 -0.010203832 -0.0064551923 0.0073404885 -0.003189112 -0.006855969 -0.004067055 0.006154833
-0.0073155942 0.0064194207 -0.0003942158 0.0061957664 0.0010382873 0.0060028867 -0.008370236 -0.007743347
0.0005035866 0.013802644 -0.016097222 -0.0012569454 -0.008263228 0.014393745 -0.0047496483 0.005373668
-0.011644664 -0.012236708 0.002456479 0.0014434183 -0.010180744 0.031065287 -0.003678084 0.0012521738
-0.0014768497 -0.0013482241 -0.0073744548 0.011360575 -2.6213007e-05 -0.006434727 -0.0123838065 0.0049839066
0.0058073467 0.009523251 0.0077370843 -0.017449347 0.00095863413 0.0056174817 -0.0055416347 0.0015128991
0.004520771 0.0039266767 0.010130051 -0.006175615 0.020113213 0.006652909 0.0069211475 -0.009702425
0.007583412 -0.0031151306 -0.009249708 -0.0009211507 -0.0025153987 -0.0021368419 0.007958044 0.0012449415
-0.007865938 0.0058582216 -0.003615908 0.01613442 -0.022213671 0.013609328 -0.018290404 -0.005589225
-0.01695687 -0.013692929 -0.005167674 -0.0042684246 0.0015845898 0.010962813 0.008641036 0.021613117
-0.004355451 0.017543826 -0.006260124 0.0010872544 -0.010422125 -0.00835986 -0.019160239 0.00029201366
-0.011650998 -0.0043482454 0.0058240066 0.01623005 -9.8454155e-05 -0.005140197 0.0015678223 0.029491464
-0.00050815137 0.014226089 -0.0059815967 -0.008637036 0.00789424 -0.020029886 0.014248044 -0.014373306
-0.012086268 0.017451396 -0.015907595 -0.000674998 0.0067521753 -0.0012801125 0.022688791 0.0067551374
0.0058748457 -0.004069811 -0.014270043 -0.0052302512 0.020291012 -0.015191826 -0.0067504453 0.007304076
-0.0037063851 0.010393316 -0.0022918435 0.006157951 -0.0040956084 0.0011954987 0.021973964 0.0066171377
-0.007613357 0.005108033 0.011255182 -0.020727612 -0.0033528844 0.0011562099 0.0022088103 -0.0077473726
0.0059659947 0.021899836 0.002297965 0.0012476166 -0.0010937385 -0.0049396437 0.006351946 -0.0063824765
0.0037027583 -0.0017080611 -0.0055714627 -0.00049983285 -0.00061111647 -0.0049034175 0.0021791214 -0.002662569
0.0013284599 -0.00942397 -0.007762745 0.0034991188 0.017696533 0.00070829294 0.027565947 0.0008170637
0.0012296381 -0.0035516769 -0.0052508907 -0.0053411187 0.012436151 -0.0045298063 0.01012758 0.0057708155
0.02642274 0.009728354 0.016613802 0.0033316517 -0.0116149755 0.0036330454 -0.0006749547 0.00828271
0.004560328 -0.020465983 -0.0014287776 -0.00757044 0.027564619 -0.0073885745 0.010910973 0.004273984
-0.004375942 0.007475103 -0.014204712 0.011268746 0.005658161 -0.002482409 -0.020379193 -0.0116450675
-0.00771146 -0.0018312165 -0.0011907133 -0.0017703632 -0.0062651243 -0.00029493778 0.028077897 0.00294163
-0.0034138535 -0.00063031534 0.0030840132 -0.0037198865 0.036574155 0.018225232 0.0005111882 -0.011452331
0.0042004846 -0.0008450884 -0.0030110627 0.0053502345 0.0012620048 0.011527639 0.014317859 -0.008497157
0.004283122 -0.00776861 0.013286727 0.022052215 0.018863646 1.972431e-05 -0.014989032 0.01674767
00000000: a2ec b83b a8dc 0d3c d2da 313c 1be7 7ebc
00000010: de3b b6b9 f10e 66ba 0260 803c 0a20 693a
00000020: b1c3 1e3a 7d16 9abb e69b 9fb9 0c13 093c
00000030: 8704 b0bb 210e b3ba 8fe7 a2bc 967a 1c3b
00000040: f2fe 203c 8719 113c 7547 9cbb 2cd1 f8bb
00000050: 88b4 e33c a633 6dbc a34f ef3b 2cdc 623a
00000060: 07d9 d3ba ef71 c1bb 33ef f739 0fe1 a13c
00000070: d931 2dbc 2631 aebb 8426 1a3c ff0d 68bb
00000080: 89b7 003b f92d 27bc 1486 d3bb 7b88 f03b
00000090: 6c00 51bb 09a8 e0bb ee44 85bb 7bae c93b
000000a0: a7b7 efbb 015a d23b c0ae ceb9 db05 cb3b
000000b0: 2417 883a ddb3 c43b 5023 09bc e7bb fdbb
000000c0: 2003 043a 7c24 623c 52de 83bc 17c0 a4ba
000000d0: 7e62 07bc bed3 6b3c f0a2 9bbb 9815 b03b
000000e0: 43c9 3ebc 797c 48bc e1fc 203b 1531 bd3a
000000f0: 23cd 26bc a17c fe3c 020c 71bb fb1f a43a
00000100: da92 c1ba e5b6 b0ba 69a5 f1bb b521 3a3c
00000110: 01e4 dbb7 67da d2bb 73e5 4abc 0a50 a33b
00000120: 8e4b be3b 6907 1c3c 5e87 fd3b eff1 8ebc
00000130: d94c 7b3a da12 b83b 9a96 b5bb 784c c63a
00000140: fa22 943b 5aab 803b 83f8 253c d05c cabb
00000150: 77c4 a43c a500 da3b cbca e23b ecf6 1ebc
00000160: 457e f83b 3827 4cbb 168c 17bc 6179 71ba
00000170: 63d9 24bb 420a 0cbb 7562 023c 4e2d a33a
00000180: 23e0 00bc 53f6 bf3b dff8 6cbb 552c 843c
00000190: 72f9 b5bc a9f9 5e3c c2d5 95bc d125 b7bb
000001a0: 22e9 8abc 4f58 60bc 9755 a9bb 24de 8bbb
000001b0: 03b2 cf3a 5f9d 333c 2293 0d3c fe0d b13c
000001c0: 2cb8 8ebb 12b8 8f3c ba21 cdbb 3482 8e3a
000001d0: 90c1 2abc cbf7 08bc eff5 9cbc 6919 9939
000001e0: d4e3 3ebc ba7b 8ebb 4fd7 be3b e2f4 843c
000001f0: 2c79 ceb8 196f a8bb 637f cd3a 1598 f13c
00000200: 7635 05ba 8b14 693c 4501 c4bb 5b82 0dbc
00000210: d856 013c b715 a4bc a170 693c 047e 6bbc
00000220: 7b05 46bc 3bf6 8e3c a550 82bc 59f2 30ba
00000230: 5a41 dd3b 73c9 a7ba d8dd b93c 335a dd3b
00000240: c781 c03b 0d5c 85bb e6cc 69bc 8762 abbb
00000250: 5639 a63c 23e7 78bc d732 ddbb 0857 ef3b
00000260: d3e6 72bb ba48 2a3c c132 16bb a3c8 c93b
00000270: 7434 86bb 48b2 9c3a be02 b43c 93d4 d83b
00000280: 7879 f9bb 4961 a73b a867 383c f4cc a9bc
00000290: 11bc 5bbb f78b 973a b0c1 103b acdd fdbb
000002a0: 647e c33b 4967 b33c 7599 163b 1187 a33a
000002b0: c65b 8fba bcdc a1bb fc23 d03b 1824 d1bb
000002c0: faa9 723b 05e1 dfba d190 b6bb 3707 03ba
000002d0: 5533 20ba d9ac a0bb 97cf 0e3b 7f7e 2ebb
000002e0: b81f ae3a ff66 1abc a05e febb 7951 653b
000002f0: 52f8 903c bcac 393a fbd1 e13c 3730 563a
00000300: cf2b a13a 40c3 68bb aa0f acbb 8d04 afbb
00000310: ffc0 4b3c c56e 94bb 26ee 253c 1c19 bd3b
00000320: 8174 d83c ad63 1f3c ab19 883c d757 5a3b
00000330: bd4c 3ebc 6318 6e3b 71ef 30ba 34b4 073c
00000340: ce6e 953b 47a8 a7bc d245 bbba 7411 f8bb
00000350: 32cf e13c db1b f2bb f0c3 323c c70c 8c3b
00000360: 1064 8fbb b5f1 f43b e1ba 68bc 8ca0 383c
00000370: 1868 b93b e9af 22bb 44f2 a6bc f4ca 3ebc
00000380: 6ab0 fcbb 6e05 f0ba b511 9cba 880b e8ba
00000390: ac4b cdbb e1a1 9ab9 9e03 e63c 5dc8 403b
000003a0: f5ba 5fbb bf3b 25ba 281d 4a3b 57c9 73bb
000003b0: c8ce 153d 154d 953c 4201 063a 8fa2 3bbc
000003c0: 38a4 893b ec88 5dba 4055 45bb 0551 af3b
000003d0: db69 a53a 6cde 3c3c 7495 6a3c a937 0bbc
000003e0: 6e59 8c3b d38f febb 92b0 593c d9a6 b43c
000003f0: ef87 9a3c a275 a537 8f94 75bc 6932 893c

action_model._discrete_distribution.branches.2.bias f4 [2]
-1.359485e-05 1.35921055e-05
00000000: 7015 64b7 a609 6437
