results/boat-agent-sac/boat/boat-2803494.onnx (onnx, 328993 bytes, 11 tensors)

discrete_act_size_vector f4 [1, 3]
000000 00 00 00 40 00 00 40 40 00 00 00 40
       2.0 3.0 2.0

network_body._body_endoder.seq_layers.0.weight f4 [256, 47]
000000 15 18 bc 3c b9 13 36 be 7c 13 bf 3d 6f 56 c0 3d
       0.022960702 -0.17780961 0.09329888 0.09391486
000010 7f 28 48 bd f6 fd c3 3e 1f a2 5a 3e 9b 9a 9d 3e
       -0.048866745 0.38279694 0.21350907 0.30782017
000020 32 59 31 bf 67 3a 12 3e e0 bc a5 3d 02 3f 23 3e
       -0.69276726 0.14280091 0.08092666 0.15942004
000030 f3 9a 06 3e a0 47 85 bc db 6c b1 bd eb a8 48 bd
       0.13145046 -0.016269505 -0.08663341 -0.048989218
000040 6c d3 a5 bd a3 68 c8 bd 5b d0 3c be 24 f6 b1 3e
       -0.08096966 -0.09785583 -0.18438856 0.34758103
000050 79 59 d1 3e ed 1d 7a 3d d6 b9 3d 3e 22 3f 2e 3d
       0.40888575 0.061063696 0.18527922 0.042540677
000060 f8 2b 3a 3e b9 1d 0a be be 39 52 3e 4a 2a 18 3f
       0.18180835 -0.13487901 0.2052984 0.5943953
000070 13 6e ff 3c a9 76 9e 3e 8a 84 e0 bc 28 29 17 bd
       0.031180417 0.30949906 -0.02740695 -0.036904484
000080 ac e6 8f 3e b0 01 b1 3d e9 6c 5c b9 6c 85 86 3e
       0.28105676 0.086429 -0.00021021407 0.26273668
000090 a9 6d 21 be 7d 32 79 3e 3f 94 92 bd 80 8e ee bd
       -0.15764488 0.24335666 -0.07157182 -0.116482735
0000a0 5c 4e 26 3e 19 ff 02 be 2e 2a 1a 3e 61 8d 0c 3e
       0.16240829 -0.12792625 0.15055153 0.13725807
0000b0 55 df 2d 3f a7 77 1d 3d 4e 72 6e bd 6b 9d 60 3d
       0.679189 0.038444187 -0.05821448 0.054837625
0000c0 42 66 12 be 1d 9b 14 bf 84 ae b9 be df 58 d4 3e
       -0.14296821 -0.58049184 -0.36265957 0.41474053
0000d0 b3 45 70 3e a6 66 9c 3d 1e 70 19 bf ce 70 a3 3d
       0.23464088 0.07636766 -0.599367 0.079805
0000e0 72 56 e0 3d 3a 71 9f be ea f6 2e bf 06 63 0c 3e
       0.10953988 -0.31141073 -0.6834551 0.1370965
0000f0 a8 93 a8 3e c1 ab 81 3e db 8d 14 be 20 29 f6 3c
       0.32925153 0.2532635 -0.14507239 0.030048907
000100 a8 c9 9c 3e c7 49 ff bd 37 02 c5 be c7 30 68 3d
       0.30622602 -0.12465244 -0.38478252 0.056687143
000110 52 84 bc bc a3 44 76 bb 20 fa 85 bd f4 92 a5 3e
       -0.023012314 -0.0037577532 -0.06541848 0.3233868
000120 75 6b a5 3e 35 85 d6 3c 21 d3 88 be 79 68 01 be
       0.32308546 0.026186565 -0.2672358 -0.1263751
000130 1d 01 b7 3e 80 ab 47 bd fd f8 04 3e 58 b4 0e 3d
       0.35743037 -0.04874754 0.12985606 0.034839958
000140 ab 44 9a 3d 92 02 10 3e fb 31 7b be c1 20 ee 3d
       0.075326286 0.1406348 -0.24530785 0.11627341
000150 0a 40 c8 3e 8b bc 4d be c5 1b c0 be b9 c6 fe bc
       0.39111358 -0.20091455 -0.37521186 -0.031100618
000160 1e 17 a8 3e 37 20 c1 3e b4 bc b7 bd d5 ff 26 bf
       0.32830137 0.3771989 -0.08971539 -0.6523412
000170 0c f5 a1 3c c5 40 60 ba 28 73 77 bd 2f 2b 86 bc
       0.019770168 -0.0008554573 -0.060412556 -0.016378013
000180 cb 6d bd be 74 af 6f 3c 14 48 61 3e ef 11 9f bc
       -0.36997828 0.014629234 0.22000152 -0.019417731
000190 14 08 a5 be 6b 86 23 3e 85 26 24 bf d6 9a ee 3e
       -0.32232726 0.15969245 -0.64121276 0.46602505
0001a0 ce 36 54 be f6 bf 7d bd dc 2a c6 3e 45 e1 97 3e
       -0.20724031 -0.061950646 0.38704574 0.29664055
0001b0 55 99 52 bd 51 fa b4 3e 89 cd b1 3c 65 c0 c7 3e
       -0.05141576 0.35347226 0.021704452 0.39013973
0001c0 32 ca 2d 3e 38 69 2f 3e 79 4d 26 3e 3e 96 f5 bd
       0.16971663 0.17129982 0.16240491 -0.11991547
0001d0 ae 4a 5e 3c 02 60 9a 3e 7b b4 73 3e de 1a 59 3e
       0.01356761 0.30151373 0.23799317 0.21201655
0001e0 72 e7 bf 3d 58 65 5f 3d 37 6c e4 3c 90 ff f0 3e
       0.093703166 0.05454001 0.027883632 0.4706998
0001f0 07 e6 97 be f5 bb a6 3e c4 48 91 3d 2e 3b 45 3e
       -0.29667684 0.32565275 0.07093957 0.19260857
000200 f3 4e e5 3e ac 5f cc bd 25 22 25 3d 44 a4 c7 3e
       0.44786796 -0.099791855 0.040315766 0.38992512
000210 86 ce 0f 3e e9 be 81 3e 53 06 83 3e 48 3e d2 3e
       0.14043626 0.25340965 0.25590762 0.41063142
000220 85 32 04 3f 53 4e 1d be c0 f5 8b 3e 40 0d d6 3d
       0.51639587 -0.1536191 0.2733593 0.10451746
000230 b9 07 9b 3c c9 a7 b2 be c7 24 7a 3e 49 c4 b4 be
       0.01892458 -0.34893635 0.24428092 -0.35306004
000240 e8 2c ca be 08 74 23 be 22 de 03 bd 9f 81 82 be
       -0.39487386 -0.15962231 -0.032194264 -0.25489518
000250 93 06 9f be 11 1a 81 be b5 5a 04 3e 98 cf 3b be
       -0.31059703 -0.252152 0.12925227 -0.1834091
000260 02 ca 4a be 31 33 a2 3e 9d 2f 5f bd 77 44 10 3e
       -0.19803622 0.3167968 -0.054488767 0.14088617
000270 68 46 97 be c0 e8 66 be c0 75 0a 3f 01 85 cb be
       -0.29545903 -0.22549725 0.5408592 -0.3974991
000280 2e 8e 9d be 49 a4 f7 3d fc 79 ce 3e aa 55 ea 3b
       -0.30772537 0.12091882 0.40327442 0.0071513252
000290 81 c4 97 be 75 9e a7 3e 12 af 5d 3e 9a 25 ee 3d
       -0.29642108 0.3273808 0.21648815 0.11628266
0002a0 a6 bb ab be 9e 5d b1 3d eb 33 30 3e 76 82 f3 3c
       -0.33541602 0.08660434 0.17207305 0.029725295
0002b0 95 66 b5 be 6d 62 b2 3e 94 dd 9b bd 0b ab cb 3d
       -0.35429826 0.34840718 -0.07610622 0.09944733
0002c0 1c ae 28 bf c9 27 8d 3e 64 68 0b 3f e9 2b 4d bf
       -0.6589067 0.27569416 0.5445616 -0.80145127
0002d0 de 55 c4 be af 9a 55 3e 74 58 c3 3d b1 93 b9 3e
       -0.3834676 0.20859788 0.095383555 0.36245492
0002e0 a4 f3 00 bf 9e 53 59 be 3d fc db bd 5b b5 30 bd
       -0.50371766 -0.21223304 -0.1074147 -0.043141704
0002f0 ed 74 c5 3c b0 46 da 3d 3a 6d 12 3e e0 ac 1a 3e
       0.024103606 0.10658014 0.14299479 0.15105009
000300 61 b3 25 be d0 66 bd 3d ba 6f 05 3a 59 9a be 3e
       -0.16181709 0.092481256 0.0005090196 0.37227133
000310 f4 43 02 3e 51 08 73 3e 41 20 44 3d 1e 6c 70 3e
       0.12721235 0.23733641 0.047882322 0.23478743
000320 25 5a b7 3d 79 dc 78 3e b2 ef 61 3e d8 17 25 3e
       0.089527406 0.24302854 0.22064093 0.16122377
000330 a7 9e 98 be 1a 0b fb 3d 94 95 13 3e a8 ff cd 3e
       -0.29808542 0.12257977 0.14412528 0.40234113
000340 c6 9b 5f bc 49 ed 0c 3e 74 2e 65 bd be 9c 15 3e
       -0.013647979 0.13762392 -0.055952504 0.14610574
000350 d4 14 b2 bd c1 77 bb be 63 78 6d 3e d6 ff e7 3e
       -0.08695379 -0.36614802 0.23190455 0.45312375
000360 90 ba 45 bd 83 73 58 3e 4f dd 5e 3e a3 cb a0 3e
       -0.048273623 0.21137814 0.2176411 0.31405362
000370 e5 16 71 be 42 38 2a 3f c0 ac f1 3d 4c 11 e1 3e
       -0.2354389 0.6649209 0.118005276 0.4395851
000380 58 12 84 be da c1 c7 3e f1 35 a4 3e 87 e9 e9 3e
       -0.25795245 0.39015085 0.32072404 0.4568598
000390 48 b6 7c 3c 8a 85 28 be 72 8e 82 3e e7 28 15 3f
       0.015424319 -0.16457191 0.25499302 0.5826554
0003a0 95 24 37 be 41 8a 0f be 6d db 80 3d 6e d1 cd 3c
       -0.17885049 -0.14017583 0.06291852 0.025124278
0003b0 7d 38 c1 bd 78 57 5b 3e 36 9e ba 3e f6 b3 eb 3d
       -0.094346024 0.21420085 0.3644883 0.11508934
0003c0 65 81 40 bd 2b 9b 20 bf d4 0d 93 3e 4c ba 7d bd
       -0.0469984 -0.6273677 0.28721488 -0.061945245
0003d0 31 7f dc 3d 98 d5 7c 3e ac bd 6b 3e 02 40 a7 3e
       0.10766447 0.24690855 0.23021573 0.32666022
0003e0 37 fb 05 be d6 dd e1 3d c1 76 e3 3e cf 06 75 3e
       -0.13084112 0.1102864 0.4442654 0.23928379
0003f0 a4 ec 9c ba e7 bd 9a be 23 7e 58 3e dc ab 8b 3e
       -0.001197238 -0.3022301 0.21141867 0.27279556

network_body._body_endoder.seq_layers.0.bias f4 [256]
000000 18 9f 95 3d 78 7a 24 3e aa d5 5f 3e d3 f3 ca 3d
       0.07305735 0.16062343 0.2185885 0.09909787
000010 b1 2e 13 3e 1e 07 29 3e b5 1a a4 3b f3 09 26 be
       0.1437328 0.16506621 0.0050080665 -0.16214733
000020 af 08 99 bc 7f 19 ba 3d 65 fd 2b 3d d1 32 4b 3d
       -0.018680898 0.09086894 0.041989703 0.04960901
000030 32 8a cd 3d 84 26 02 3d bf 97 11 bd 8b 5a c5 3d
       0.10036124 0.031775013 -0.035545107 0.0963641
000040 39 b3 15 3c 1b 07 01 be 2b f6 9e 3d c5 88 29 be
       0.009136968 -0.12600367 0.077617966 -0.1655608
000050 54 4d 10 3d 1f 46 37 bd 84 13 77 3d ba b9 39 3d
       0.035229996 -0.044744607 0.060321346 0.04534314
000060 de ff 72 bd 3d 99 7a 3d ef a1 32 bd 7a cc 6d 3d
       -0.059326045 0.061181296 -0.043611463 0.058056332
000070 3b f8 a7 bb 75 dc 63 bc d6 6c bd bc f1 5e 95 bd
       -0.005126027 -0.0139075415 -0.023123186 -0.07293499
000080 1f 1a f9 3d 6f b0 01 bd 0b c3 bd 3d 67 b4 95 bd
       0.12163185 -0.0316624 0.09265717 -0.073098
000090 af 11 8e bd 10 22 62 bc 5e b3 39 bd 7f 20 00 3e
       -0.06936967 -0.013802066 -0.045337074 0.12512396
0000a0 bc 3c 3f 3c 7d 1e 0d bd fc b2 5e 3a fd 04 db 3c
       0.011672195 -0.034452904 0.00084952987 0.026735777
0000b0 14 4b 39 bd 02 63 25 be d9 e0 b9 3d ae e2 17 bd
       -0.045237616 -0.1615105 0.090760894 -0.037081413
0000c0 35 e0 0b 3d 25 5f 49 3c b4 b1 71 bc 41 2c 16 3d
       0.034149367 0.012290751 -0.01475184 0.036663298
0000d0 a8 52 a5 3c 4b 9b 55 bc 24 0f b2 bc 09 b9 75 bd
       0.020181015 -0.013037513 -0.021735735 -0.059990916
0000e0 e8 f3 83 3d af 0a ab 3d ce bc d1 bd 46 df 93 3b
       0.06443006 0.08351647 -0.1024109 0.0045127003
0000f0 82 22 bf 3d 69 96 2f 3d 5d 5d ad bd 72 32 2a 3b
       0.09332754 0.04286805 -0.08465073 0.002597001
000100 d2 8e 8b 3c c2 56 d8 3d ab 91 bf 3b fb a6 a7 3d
       0.017035875 0.10563423 0.0058462224 0.08186146
000110 e5 74 d7 3d fb 0b 8f bd 32 d3 04 bd ed 1b 8a bb
       0.10520343 -0.06984707 -0.032427974 -0.004214755
000120 fe 81 2f 3d 47 05 ef bd f0 67 2c 3d 4d 74 3b be
       0.04284858 -0.116709284 0.04209131 -0.18306084
000130 58 7d ce ba b6 b7 b3 3d 3c a6 32 bd 0b b7 0c 3d
       -0.0015753908 0.087752745 -0.043615565 0.03435425
000140 bd 5f 17 3d 3c b8 f6 3a 29 13 99 3d 8d b9 b6 bd
       0.036956538 0.0018823217 0.07474358 -0.0892211
000150 a0 6a b0 3c 93 0a aa bd e0 2b 02 be 1a 9c 78 bb
       0.021535218 -0.08302798 -0.1271205 -0.003793484
000160 b6 98 52 bd d7 b8 8c 3c 64 4c 20 3e 73 0d 46 be
       -0.051415168 0.017177982 0.1565414 -0.19341068
000170 0f ac 52 3d aa ba 2a 3d 6c 01 04 be ec 51 b0 3d
       0.05143362 0.041681923 -0.12891167 0.08609375
000180 dd e7 03 be 99 bd ee 3d a5 05 17 bd bf 66 4c bd
       -0.12881418 0.11657257 -0.036870617 -0.049902674
000190 78 94 65 3d c3 53 22 3d d5 97 5c bd 2f d2 40 bd
       0.056049794 0.039630663 -0.053855736 -0.047075447
0001a0 bf 37 38 3d 55 90 04 be 9f eb 13 be 30 06 97 bb
       0.04497504 -0.12945683 -0.14445351 -0.004608892
0001b0 9a 70 7f bd cc 76 9c bd ff fa 85 bb d8 04 c4 bd
       -0.062363245 -0.07639846 -0.004088759 -0.09571236
0001c0 92 10 83 3d 94 d7 97 3d 7b 84 ca 3d a6 51 7f bd
       0.06399645 0.07414165 0.0988855 -0.062333725
0001d0 1a c4 fa 3c 83 99 08 3e d7 6c 2d be af ae 26 3e
       0.030611087 0.1333981 -0.1693605 0.16277574
0001e0 46 fc a3 bc d0 03 a4 3d a0 2a ca bd c6 f0 2d be
       -0.020017754 0.0800854 -0.09871411 -0.16986379
0001f0 e4 b1 a7 3d 34 1a 89 bc c5 7f d2 bd 75 92 03 be
       0.08188227 -0.016736127 -0.10278276 -0.12848838
000200 47 94 d5 3c 7f 4d 23 be dd 8d d2 bc f4 6b f7 bb
       0.02607168 -0.15947531 -0.025702411 -0.007550711
000210 2e 47 7c 3d f3 32 da bb d8 8a 3e bd ad f5 84 bd
       0.06159132 -0.0066589057 -0.04651913 -0.064921714
000220 c9 60 9a bd 05 08 e2 3d c1 d2 0b b9 14 bc 86 bc
       -0.075379916 0.11036686 -0.00013334585 -0.016447105
000230 5e a4 db 3c bb 5c a4 3d 79 ce 0f 3e 04 08 99 bd
       0.026811775 0.080254994 0.14043607 -0.07472232
000240 1b ec c2 bc 37 ea 83 3d ce 8b 8e bd be 31 ab 3d
       -0.023794224 0.06441157 -0.069602594 0.08359097
000250 53 09 51 3d 81 fd 5c bd 79 9d 10 3d 6e c2 b1 bd
       0.051034283 -0.053952698 0.035306428 -0.08679663
000260 d8 0e 2d bc 4f c2 f7 3d 86 ca ba 3c 4b 4c 16 3d
       -0.010562621 0.12097608 0.022801649 0.036693852
000270 e7 be d4 3d 4d 12 01 3c bb c1 19 3e ad 07 77 bb
       0.10387974 0.007877898 0.15015309 -0.0037693784
000280 4b 48 02 bd 18 66 13 be 04 df 5b bd 62 7b 87 3d
       -0.031807225 -0.14394414 -0.05367948 0.0661533
000290 90 4d 4f be 5b 4d 89 be 35 e7 14 3d db 48 37 3e
       -0.20244431 -0.2681683 0.03635331 0.17898886
0002a0 6e 85 bf bc bd cd 32 be 5c 1d b8 3c b9 f6 26 ba
       -0.023379054 -0.17461295 0.022474937 -0.0006369162
0002b0 b3 05 ad 3d 23 bd 57 bd 86 6b 58 bd 4e fc 19 bd
       0.08448353 -0.05267061 -0.052836917 -0.037594132
0002c0 48 86 3a bd 2c 61 be 3d ad e0 0e bd a8 eb 43 3d
       -0.045538217 0.09295878 -0.034882236 0.04783216
0002d0 23 aa 95 3d 7f 3b ca 3c 77 cc c3 be ca 4c f2 bd
       0.07307842 0.024686573 -0.38241932 -0.118310526
0002e0 40 f2 ce bc 60 e6 18 be ac 29 9f bd 82 e5 93 bd
       -0.025261998 -0.14931631 -0.0777162 -0.072215095
0002f0 64 98 a2 be 06 3a fc 3c 2d 4c 70 bb 38 4d 03 be
       -0.3175689 0.030789386 -0.0036666498 -0.12822425
000300 58 03 0d be fc b1 e9 bc 16 b0 3a be cc 53 e1 bd
       -0.13770807 -0.028527252 -0.18231234 -0.11002311
000310 b6 31 90 3d 4f 29 b1 bd 15 47 b9 3d 31 09 c6 bd
       0.070407316 -0.08650457 0.09046761 -0.09669722
000320 73 f9 28 be 89 2f 05 bd 7a 06 6c 3d 9c d5 78 3c
       -0.16501407 -0.032516036 0.057623364 0.015187647
000330 0c bb 86 bd b5 6e a3 bc 36 fd d9 bd 8d 44 be 3d
       -0.06578645 -0.01995025 -0.10643999 0.09290419
000340 e4 eb cd bc fa e1 b8 bd 0b 7b b9 bb 8a eb 84 bd
       -0.025136895 -0.090274766 -0.00566042 -0.06490238
000350 63 55 ee 3d 0d ed 75 3d 24 76 36 3c 93 74 bb 3b
       0.1163738 0.060040522 0.011136565 0.005720684
000360 16 bc 1c 3d b2 94 e7 3c 80 a6 bc 3c a1 b9 3f 3d
       0.03826531 0.028269146 0.023028612 0.04680789
000370 53 a6 ae bc 3d 7f 6e 3d a1 04 32 bc e7 e4 3f bd
       -0.021319544 0.058226813 -0.010865361 -0.046849158
000380 c8 36 46 3c b5 c6 cc bb fd 4e 26 be 24 5d 86 be
       0.012098022 -0.0062492737 -0.16241069 -0.26242936
000390 74 ea 88 3d 3f 04 d9 3d e5 3d c9 3d 38 59 53 3d
       0.066853434 0.10596513 0.098262586 0.051598758
0003a0 16 64 e9 3c 2f 40 ae bc 26 a8 91 3c 16 ef 2a bd
       0.028490108 -0.02127084 0.017780375 -0.041731916
0003b0 93 7a c8 3c bc db 33 be ce cf 87 be a1 e9 48 bd
       0.02447251 -0.17564291 -0.2652573 -0.04905093
0003c0 98 89 f9 bc 37 f4 9b bd 3e f3 44 bd ec 81 41 be
       -0.030461118 -0.0761494 -0.048083536 -0.18897218
0003d0 d1 31 54 bd 9e d7 ef bc db dd 1f bb b6 e1 2c bc
       -0.05180532 -0.029277619 -0.002439371 -0.010551861
0003e0 63 58 fc ba 73 3c 09 3d 73 d0 d4 3d 5f 72 28 be
       -0.0019252416 0.033504914 0.10391321 -0.16449879
0003f0 08 a4 40 3d c5 22 5f 3e eb e9 57 bd c3 e2 59 be
       0.047031432 0.21790607 -0.052713316 -0.21277909

network_body._body_endoder.seq_layers.2.weight f4 [256, 256]
000000 a8 48 24 3d 26 ef 1b bd 08 7d 93 be 7f 3b e1 bd
       0.040108353 -0.038069867 -0.2880633 -0.10997676
000010 56 61 36 bd d3 7e 8b 3e ad bb 6c be 77 74 f1 3d
       -0.04452642 0.27245197 -0.23118468 0.11789792
000020 e5 df 48 bc d9 ef 4b be c1 3c 46 3d 4e ca 06 3e
       -0.012260412 -0.19915713 0.048397783 0.1316311
000030 ea 74 44 be 9a ba cb 3e 3b ab b0 bd 8c 2c 47 bd
       -0.19185224 0.39790803 -0.086264096 -0.048626468
000040 04 2d a3 bd bf 68 ce bd 60 7f 79 3e 7f 5a a3 bd
       -0.079675704 -0.100785725 0.24364996 -0.07976245
000050 b7 a1 ea bc fa 43 44 3e 77 6c bf bd 0f 8d 38 3e
       -0.028641565 0.19166556 -0.0934686 0.1802256
000060 36 d2 e5 3d 9a a1 c9 3d f0 d2 d4 bd 92 64 60 3d
       0.11221735 0.09845276 -0.10391796 0.05478341
000070 4e 1e 35 bc 80 19 85 3c 1d 4f 46 be 29 e4 25 be
       -0.0110545885 0.01624751 -0.19366117 -0.16200317
000080 32 cd a6 3c 82 18 14 3e 6d f2 d8 bc db 3c 2b be
       0.020361517 0.14462474 -0.026482785 -0.16722433
000090 14 d2 75 be b2 39 a0 be 10 c0 11 be a0 0d 46 3d
       -0.2400592 -0.31294018 -0.14233422 0.048352838
0000a0 ed 67 09 3d c6 d3 59 be 2f 41 e4 bd 1d 5d 85 3d
       0.033546377 -0.21272191 -0.11145245 0.065119006
0000b0 82 e7 77 be 28 63 6b bd 18 ca d9 be d7 85 0d 3e
       -0.24209407 -0.05746761 -0.42536998 0.13820587
0000c0 5a 43 a7 be 9a fa d0 bd 5f 66 70 3e e4 f1 5a 3d
       -0.32668573 -0.102040485 0.23476551 0.05345334
0000d0 2d b3 68 be 32 16 74 be fd d4 d6 bd 2b 78 73 be
       -0.227246 -0.23836592 -0.10489843 -0.23776309
0000e0 f9 1b 84 3e 14 03 d2 bd 37 5a 26 be 00 61 79 bd
       0.2580259 -0.10254493 -0.16245352 -0.060883522
0000f0 56 19 a6 bc 63 a9 46 bd 90 fe 59 be 42 e5 99 bd
       -0.020275753 -0.048501384 -0.21288514 -0.075144306
000100 9b 74 bd 3c 56 7d 00 3e 88 39 ce bd 8b 0b fc bd
       0.02312689 0.12547812 -0.10069567 -0.12306889
000110 e6 61 ba 3d aa 9f 06 3e 95 26 10 3d 3f 99 41 3e
       0.09100704 0.13146845 0.035193045 0.18906115
000120 ad 60 92 bd 91 2a f6 3d bd 2e e5 bd 00 62 a2 bd
       -0.07147346 0.12019838 -0.11190555 -0.07928848
000130 fb c4 7b 3e af a0 c6 bd b7 3b 07 3e b3 a9 2f bd
       0.24586861 -0.09698617 0.13206373 -0.042886447
000140 39 ac 3c 3d 81 57 a0 bd 5d 02 b8 3e 3a 08 7b 3d
       0.04606268 -0.0782919 0.35939303 0.061287142
000150 d1 f4 65 3e 17 79 bc bd ed 35 cc bd 46 a5 45 3d
       0.22456671 -0.092027836 -0.09971223 0.04825332
000160 80 40 c1 3d 9f 6f 35 be 16 60 0e be a2 2d 60 be
       0.094361305 -0.17718361 -0.13903841 -0.21892408
000170 eb f7 48 3a fd 8d 51 be 77 f8 35 3e 4e be 64 3b
       0.0007666337 -0.2046432 0.17770563 0.003490347
000180 4b 47 29 bd 7e a1 a6 bd 20 c5 3f 3d 57 f8 f8 bd
       -0.041327756 -0.08136271 0.046818852 -0.12156742
000190 df cd ad 3e 60 61 23 be e0 4b 40 bd 15 81 1a be
       0.3394613 -0.15955114 -0.04694736 -0.15088303
0001a0 6f ae 15 be b2 44 b4 bd be ca ea bd f4 72 46 3c
       -0.14617322 -0.08802165 -0.11464451 0.012112368
0001b0 2e 8b b5 3d 2d f7 be 3e 39 61 17 bd 61 04 8c be
       0.08864437 0.37297955 -0.036957953 -0.2734709
0001c0 d0 3a 5f 3e 12 45 8d 3d 4d 4b e6 3d c5 33 7c 3d
       0.21799779 0.0689794 0.11244831 0.06157281
0001d0 af f9 a2 be 3d 56 13 be 82 ac 83 3d f8 16 21 be
       -0.31831118 -0.14388366 0.06429388 -0.15731418
0001e0 a5 eb 2e 38 be 28 db bd d8 ab a5 bd 55 79 db bc
       4.1704294e-05 -0.1070113 -0.08089417 -0.026791254
0001f0 d4 8d ef bc f2 26 b3 bb 15 b7 32 3d ce b5 00 bc
       -0.029242434 -0.005467289 0.043631632 -0.007855846
000200 1e bb 3d bc 47 b6 e4 3a 79 9c 4c be 4b 9f fd bb
       -0.011580257 0.0017449342 -0.19981565 -0.0077399365
000210 fa 73 21 be ca 79 81 3d 51 3d b6 bd ad 5a 8d be
       -0.15766898 0.063220575 -0.08898414 -0.27608243
000220 ef 43 62 be 56 5f bf bd bb 34 63 be 1b 13 3c 3d
       -0.22096227 -0.09344356 -0.22188084 0.045916658
000230 12 63 a1 be 6f 7b 17 be 52 66 1d 3e 21 3b b8 3c
       -0.31520897 -0.1479318 0.15371063 0.022489132
000240 48 b7 bb 3d f5 bf a0 3d 32 7b c4 3d b2 c1 65 be
       0.091658175 0.07849113 0.0959381 -0.2243717
000250 aa 93 6d 3c e0 fe ca 3c 3e 92 94 3b 04 d9 9c be
       0.014500538 0.024779737 0.004534035 -0.3063432
000260 eb 73 a0 bd 8b 8c 20 be 82 d0 14 be 77 22 1c bc
       -0.078346096 -0.15678613 -0.14532664 -0.009529701
000270 57 48 39 bd b1 98 28 be 94 61 ac be a0 5c b8 3d
       -0.045235004 -0.16464497 -0.33668196 0.09002042
000280 d5 e5 c8 bd e1 19 60 bd a4 47 77 bd 5e 56 13 be
       -0.09809462 -0.05471218 -0.060371056 -0.14388415
000290 28 2b f6 3b 9f b6 a2 3d fd 32 c2 bd 80 14 6d bd
       0.007512469 0.079449885 -0.094823815 -0.05788088
0002a0 d3 ab dc bd a7 02 22 be fd 99 2b be 20 ae a8 3d
       -0.1077496 -0.15821324 -0.1675796 0.08236337
0002b0 5a d6 ae bc 6e 6d 11 3e 44 66 5b 3e bd a5 92 3e
       -0.021342445 0.142019 0.2142573 0.28642073
0002c0 42 48 40 3a 8c 8e b7 3e 8e 3a 56 be c9 92 14 3e
       0.0007334986 0.35850942 -0.20920774 0.14509119
0002d0 e8 58 01 be a6 36 8b bd 47 f3 e8 bd 86 50 b2 bc
       -0.12631571 -0.06797533 -0.113745265 -0.021766912
0002e0 6f 8b 45 be 63 c0 95 bc d8 15 bf bd 4d 47 27 be
       -0.19291471 -0.018280214 -0.09330338 -0.16335793
0002f0 9f 92 e2 bb 7a 3c 8e 3d 81 d2 a8 3d 4f 9f 03 bc
       -0.0069144513 0.06945129 0.082432754 -0.008033588
000300 19 e3 04 be e8 c3 13 be 2c b0 45 bd 36 46 b3 3e
       -0.12977256 -0.14430201 -0.048263714 0.35014504
000310 f6 7b dd bd 14 ce a3 be 2b 9a 53 3d ee 98 9a 3d
       -0.10814659 -0.31993163 0.051660698 0.075487
000320 d2 a0 0a 3d 5b 8d 4a be e7 42 0c be d8 61 97 3e
       0.033844776 -0.19780485 -0.13697396 0.29566836
000330 c5 09 0d 3e a0 48 ee 3d f5 ca 0a 3e b7 d1 04 be
       0.13773258 0.11634946 0.13553984 -0.12970625
000340 68 8a c7 bc e6 be 80 3d 3a 23 ca 3c 3c 96 d4 bc
       -0.02435799 0.06286411 0.024675 -0.025950544
000350 7a 64 76 3e 6e 10 49 bd df 98 6c be ef b2 ca 3d
       0.24061766 -0.049087934 -0.2310519 0.0989741
000360 22 3e e6 3c 41 f7 9f be 0d 4e 44 bd b0 35 8c 3e
       0.0281058 -0.31243327 -0.047925998 0.2738471
000370 1a 62 91 3e bd a0 8f bd f8 63 ad 3d 75 0a a6 3d
       0.28395158 -0.0701308 0.08466333 0.08107463
000380 74 54 98 3c 71 90 2c 3e b1 b3 aa bd dd a2 c7 bc
       0.018594958 0.16851975 -0.08335055 -0.024369651
000390 4e 13 fd be 46 0d fc bd 77 3f b4 be 28 e6 82 3e
       -0.4942879 -0.12307219 -0.3520467 0.2556622
0003a0 40 a6 e3 3c df 6a 09 bd 46 cc 04 3e d2 93 8d be
       0.027789235 -0.033549186 0.12968549 -0.2765184
0003b0 90 69 a5 3d ee 8b 9f bc 6a 2b 4b be 15 f7 a7 be
       0.08076775 -0.019475903 -0.1984078 -0.32805696
0003c0 f8 0c 47 3d 1b bf 9f 3e 55 c9 ae be 82 ce cb 3c
       0.048596352 0.3120049 -0.3413798 0.024878744
0003d0 2f c9 05 bd 5c 13 ea 3d ed e3 88 bd 31 73 1e bd
       -0.032662567 0.11429474 -0.066840984 -0.038684074
0003e0 d4 06 7e be 76 17 25 bd 0d 78 1f be 1f f9 42 bc
       -0.24807292 -0.040305577 -0.1557314 -0.011900215
0003f0 73 81 70 be 0c 33 a3 bd dc 51 7b 3d e9 11 31 bd
       -0.23486881 -0.07968721 0.061357364 -0.04322997

network_body._body_endoder.seq_layers.2.bias f4 [256]
000000 72 ee 00 be 61 ba 6f be 1f 93 c7 3d ce c2 90 bd
       -0.1259096 -0.23410942 0.09744858 -0.07068406
000010 e2 31 ad bd eb 22 f3 bd 34 1f 70 bd fe 12 3b bc
       -0.0845678 -0.118718944 -0.058623508 -0.011418102
000020 32 27 13 bd 7b e3 79 bd e9 8b d0 bd 56 f0 3a be
       -0.03592605 -0.061007958 -0.10182936 -0.18255743
000030 30 fb 2c be b0 f4 e8 bc 80 e6 2e bd 45 bc b4 bd
       -0.16892695 -0.028436989 -0.04270029 -0.08824972
000040 fb 3e e7 bc bd 1e 59 bc 96 64 99 bd 3c 24 4d 3d
       -0.028228274 -0.0132519575 -0.07489888 0.050083384
000050 3f df b6 bd fd 69 6b bc 28 14 62 bc d1 8a 0e bd
       -0.089292996 -0.014368531 -0.013798751 -0.034800354
000060 5c 12 0d 3d c4 30 5b bc e8 62 a3 bd 1f ba 20 be
       0.034441337 -0.013378326 -0.07977849 -0.15696
000070 3c ca 07 bd 7c cc ef 3b 36 43 10 3d b6 fe f4 bd
       -0.03315185 0.0073180776 0.035220347 -0.11962645
000080 45 6c 36 be 9b 11 8b bd 98 88 9d bc 47 08 12 bb
       -0.17814739 -0.06790467 -0.019230172 -0.0022282766
000090 6f 49 b2 3a 72 02 8c 3c a8 2c 6c bc b1 98 de bd
       0.0013602207 0.01709101 -0.014414944 -0.10868967
0000a0 5d f1 93 bd a0 72 be bd d0 5a 16 bc 97 eb 01 bd
       -0.07223771 -0.09299207 -0.009176925 -0.031718817
0000b0 bc 88 bb bc 49 e4 a2 bb fa 91 d7 bc 07 60 d6 bd
       -0.022892348 -0.0049710614 -0.026314724 -0.104675345
0000c0 46 18 07 bd d0 99 a3 bd e9 ef 3b bc 34 4f 5f bd
       -0.032982133 -0.07988322 -0.011470773 -0.054518893
0000d0 82 2c 62 bd 0b 4e d1 3c 5b 3d 4c bd a1 11 cb bd
       -0.055218227 0.02554991 -0.0498632 -0.09915472
0000e0 a6 0e 1a 3c bd 91 73 bd d8 db d1 bd f5 c1 12 bc
       0.0094029065 -0.05946516 -0.1024701 -0.008957376
0000f0 c4 34 9b bd 03 43 09 be cb ea 05 bd 71 f7 ae bc
       -0.075784236 -0.13404469 -0.03269462 -0.021358224
000100 7d 08 c9 bd c0 14 ba bd 2d 52 70 bd 25 3a 3b bd
       -0.09816072 -0.09085989 -0.05867212 -0.045709748
000110 98 9c a8 bd c0 48 a6 3b 5b cd 3b bd 2a e1 a6 bd
       -0.08232993 0.0050745904 -0.04585014 -0.081484154
000120 f9 3f f8 bd 7f 7c b5 bc 04 cc 4c 3d 7b f4 23 bd
       -0.12121577 -0.02215409 0.049999252 -0.040028077
000130 ea f2 0c be 55 48 f6 bc 19 d6 36 bd 79 69 a1 3d
       -0.1376454 -0.030063787 -0.044637773 0.078814454
000140 3d 69 68 be 96 89 75 bd 80 fa 3e bd 53 dc 07 be
       -0.22696395 -0.059945665 -0.046625614 -0.13267641
000150 ae 82 03 be c1 2f 57 bd dc 72 0e be 4b 97 2a 3d
       -0.12842819 -0.052535776 -0.13911003 0.04164819
000160 32 94 f3 bd 2e ff 73 bd 2f 6c 11 be dd d5 1d bd
       -0.118935004 -0.05956953 -0.14201425 -0.038534034
000170 9e 2f 40 bd 32 d9 3c bd 54 e2 d3 bd 5c ae 4b bd
       -0.04692041 -0.04610557 -0.10345903 -0.04972683
000180 09 71 2c be f4 7c 37 bd 47 5e 71 bd a6 2c 0c bd
       -0.16839994 -0.0447969 -0.0589278 -0.034222268
000190 6d 4b f3 bd 74 af 9d bd 04 09 92 bd 5f 5d d4 bd
       -0.11879621 -0.07699481 -0.07130626 -0.103693716
0001a0 17 51 b9 bd a3 f1 b0 bd c3 04 1d be 1b 05 42 3e
       -0.0904867 -0.086398385 -0.15333848 0.1894726
0001b0 da 3d 72 bd 29 5d 30 be db 71 b3 bd 83 2c 89 bc
       -0.059141017 -0.17223038 -0.087619506 -0.016744858
0001c0 58 ec db bd 55 00 e1 bd 5b a4 06 be 5a 49 aa bd
       -0.10738438 -0.109863915 -0.13148634 -0.08314772
0001d0 7a 67 c8 bb ac 5b fd bd 7f 60 49 3c e9 5c 99 3c
       -0.006115851 -0.12371001 0.012291073 0.01872106
0001e0 d1 3d 82 bd 8d c1 89 bd 69 6f f2 bd e8 f3 aa bd
       -0.06359447 -0.0672637 -0.11837656 -0.08347303
0001f0 9e b9 7e bd d2 6d 99 bd 20 58 eb bc a2 aa 92 bd
       -0.062188737 -0.0749165 -0.028728545 -0.07161452
000200 90 ee bf bd 5d c8 ed bc 1d 6b fd bd 57 75 21 bd
       -0.09371674 -0.029026205 -0.12373946 -0.039418545
000210 96 53 a4 bd bb d6 a2 bd 06 e9 15 be a8 0a 96 bd
       -0.08023755 -0.07951113 -0.14639673 -0.07326251
000220 f0 24 a3 bd 48 44 3c bd f3 d9 2c be 10 36 9f bd
       -0.0796603 -0.045963556 -0.16880016 -0.077739835
000230 dc 12 42 bd 6a cb 16 bd e5 3b c7 bd 36 61 c9 bd
       -0.047381267 -0.036815085 -0.09728221 -0.09832995
000240 32 32 f3 3c 46 56 00 be 2e c0 57 bc 5c 4c be bd
       0.02968702 -0.1253291 -0.013168378 -0.09291908
000250 32 61 f8 bc 87 47 65 bd de f4 09 be 86 23 1e bd
       -0.030319784 -0.055976417 -0.13472316 -0.038608097
000260 02 79 fe bd 30 ac 1d be f4 26 8f bd 3c 4b 42 bd
       -0.12425424 -0.15397716 -0.069898516 -0.04743503
000270 f4 47 2f bd b0 f8 40 bd 13 ae 26 bd df 9c 58 be
       -0.04279323 -0.047112167 -0.040693354 -0.21153592
000280 7e 1c 9b b8 ef 1c d3 bc f9 f2 9d bd f1 78 06 be
       -7.396283e-05 -0.025770633 -0.07712359 -0.13132073
000290 a2 86 e5 3c c8 55 15 be 55 8f c0 bd eb 71 b7 bd
       0.0280183 -0.14583504 -0.094023384 -0.08957275
0002a0 aa 7c 25 3c 79 32 13 be 5a cc ab bd 1d 7a 13 bd
       0.010100523 -0.14374723 -0.08388586 -0.03600513
0002b0 cb f2 14 be 32 1a af bd 9e 63 e7 bd 2e 96 a8 bd
       -0.14545743 -0.08549918 -0.11298297 -0.082317695
0002c0 c1 18 14 be 4c a9 40 be 60 c4 65 bc 10 a4 f5 bd
       -0.14462568 -0.18814582 -0.01402387 -0.11994183
0002d0 69 98 69 3d b0 3a 44 bd ea f7 04 bd fb cf 67 bd
       0.057030115 -0.04790753 -0.03246299 -0.05659483
0002e0 ad 9c 55 bc 69 11 97 bc dd 51 26 3c 95 73 d4 bd
       -0.013037843 -0.018440919 0.010151354 -0.10373608
0002f0 a3 a7 2f be 48 03 0e bd f8 b6 45 be c2 fb 0e bd
       -0.17153792 -0.034671098 -0.19308078 -0.034908064
000300 30 38 13 be fb 7a 38 3d ba d0 24 be 25 7d b7 bc
       -0.14376903 0.04503916 -0.16095248 -0.02239854
000310 de dd cc bd 85 2b 04 be 2c c3 57 bd be 87 3a 3d
       -0.10003255 -0.12907226 -0.052676365 0.04553961
000320 7d f1 eb bd 1d 1d 1f be 47 82 1b be 72 fb 32 3d
       -0.115206696 -0.1553845 -0.15186416 0.04369683
000330 03 6a ce bd 43 82 f3 bd c4 d1 c4 bb 82 57 39 be
       -0.10078814 -0.1189008 -0.0060064513 -0.18099788
000340 c1 f1 4a be 83 8d 0e bd 12 52 e2 bc ce 7a 06 bd
       -0.19818784 -0.034802925 -0.027627025 -0.03283196
000350 35 5f 08 bd e5 23 8f bd 68 8e 23 be 47 d8 65 be
       -0.03329392 -0.06989268 -0.15972292 -0.22445785
000360 67 96 d2 bd 64 d8 75 3d 50 72 84 bd 9b 3d 8e bc
       -0.10282593 0.06002082 -0.06467116 -0.01736336
000370 58 16 a3 bd 5f e1 c8 bd 62 b3 9b bd bd d5 45 be
       -0.07963246 -0.09808611 -0.07602574 -0.19319816
000380 ba 6c 02 be 07 1e 34 be a6 8b 14 3c aa 85 43 be
       -0.12736788 -0.1758958 0.009066498 -0.19093958
000390 66 af cd 3a 31 b2 c8 bd 3d 83 08 be a7 54 1a bd
       0.0015692532 -0.09799612 -0.13331313 -0.037678387
0003a0 1f 54 ee bd 9c e2 0e be 9e 3f e5 bc a4 f6 06 be
       -0.116371386 -0.13953632 -0.027984437 -0.13180023
0003b0 c9 4d 70 3c f4 bd c7 bd 23 90 0a be eb 2d 7c be
       0.014666983 -0.097530276 -0.13531546 -0.24626891
0003c0 7b bc ac bd 07 2b 29 be c6 f6 7c bd b0 60 6b bd
       -0.08434387 -0.1652032 -0.06175878 -0.057465255
0003d0 8f 51 c7 bd b7 e5 30 be c1 fc 8f bd 45 97 d3 bd
       -0.09732353 -0.1727513 -0.07030631 -0.10331587
0003e0 9f 67 64 3d 10 db b6 bd 8d 8e 41 3b 73 1e cf bd
       0.055762883 -0.089285016 0.002953443 -0.101132296
0003f0 d6 0f d6 bd 92 c6 29 bd ec 34 f9 bc 50 fe a1 bd
       -0.10452239 -0.041449137 -0.030420743 -0.079098344

action_model._discrete_distribution.branches.0.weight f4 [2, 256]
000000 0c ff 86 be 50 0a ad bd 00 04 50 3e 23 be bc be
       -0.2636646 -0.084492326 0.20314026 -0.36863813
000010 8d 14 d3 be c3 79 a0 be 2b 4b c6 be 40 c8 0d 3e
       -0.41226617 -0.31342897 -0.38729224 0.1384592
000020 d7 fb 7c 3e fc 1b d5 bc 16 16 c6 bd 00 03 44 be
       0.24705444 -0.02601432 -0.09672181 -0.1914177
000030 e5 e2 ae 3e 2e c8 f6 b8 b1 93 dc be c1 ad 5c 3d
       0.34157482 -0.000117674805 -0.4308143 0.053876642
000040 2a 5e 58 be cd 43 27 3d 08 35 8a 3d 3c f2 40 3f
       -0.2112967 0.040836144 0.06748396 0.7536962
000050 7c 9b d8 be a0 02 a5 3d a9 05 40 3d c0 a1 eb 3e
       -0.42306125 0.08057141 0.046880398 0.46021843
000060 2e 58 91 3e fe 55 a9 be 7c 12 8c be 94 d5 87 be
       0.28387588 -0.3307342 -0.27357852 -0.26530135
000070 f1 e8 18 3f ab 06 b8 3d 65 c8 8a be 61 95 81 bd
       0.5973044 0.08985647 -0.27106014 -0.0632732
000080 39 08 fa bd 95 89 2d 3e 61 70 e4 be b4 aa 8d be
       -0.122085996 0.16947015 -0.44616988 -0.276693
000090 b5 5e ba 3d 37 01 8c be 4c 9f 78 3e 95 39 82 3e
       0.09100095 -0.27344677 0.24279517 0.25434557
0000a0 ca 58 07 bf 78 66 ac bb 90 97 25 3e 64 c6 c5 be
       -0.52869856 -0.0052612387 0.16171098 -0.38627923
0000b0 86 80 1f 3e b3 a1 44 3e 8c c3 38 3e 26 af 1d 3e
       0.15576372 0.19202308 0.18043345 0.15398845
0000c0 68 ee 8f 3d 74 a8 c9 be 97 6c c9 be cc a4 99 be
       0.07027894 -0.39386332 -0.3934066 -0.30008543
0000d0 2a 8e d2 bd fc b0 d9 3e 4f 07 c8 be 3f 4b 8d be
       -0.10281022 0.4251784 -0.39068076 -0.2759647
0000e0 f1 2d 8e 3b d8 e1 96 be 55 ed 06 3d b3 8b a7 3e
       0.0043389727 -0.2946918 0.03294118 0.3272377
0000f0 32 2a ee bd 1b bc 60 be 11 bb a9 be ca e0 a0 3e
       -0.11629142 -0.21946757 -0.33150533 0.314215
000100 9f a1 a9 be cd 2a 66 3e fc 52 6a bd 8c 34 23 be
       -0.3313112 0.22477265 -0.057208046 -0.15938014
000110 db 09 2e bf 80 43 87 3d e4 28 8e 3e 08 47 20 be
       -0.6798379 0.066046715 0.27765572 -0.15652096
000120 b7 63 b0 be 77 f9 50 be 4a f6 d6 3e ac 6c fa be
       -0.34451076 -0.20407663 0.4198478 -0.48911035
000130 b5 07 76 be c9 78 4a be db 6d cc bd e1 49 80 be
       -0.24026377 -0.19772638 -0.09981891 -0.25056365
000140 3b 5a 62 bd e8 79 1e bd 36 f7 c5 3d 92 6e 06 bf
       -0.05526183 -0.038690478 0.09666292 -0.52512467
000150 b3 0e 73 be 7b c3 b3 be 63 8b c2 3d a1 b5 9f be
       -0.23736076 -0.35110077 0.09499242 -0.3119326
000160 6a 70 2e be e6 64 18 3d c9 3a 23 be 10 65 da 3d
       -0.1703507 0.0372056 -0.15940394 0.106638074
000170 9a 7c 11 be bc 4f 5f be 52 b1 ad be ad db 73 3e
       -0.14207688 -0.2180776 -0.33924347 0.23814268
000180 93 74 a9 bb b4 d1 91 bd eb dd a2 bd c4 04 69 3d
       -0.0051713674 -0.07120076 -0.07952484 0.05688931
000190 52 e0 64 be 78 5f 3d be 71 00 4d 3b 56 f3 cd 3c
       -0.22351196 -0.1849345 0.003128078 0.025140446
0001a0 e4 dd 88 3d 65 b6 22 be 0c b7 59 3e 14 91 23 3f
       0.06682947 -0.1588989 0.21261233 0.63893247
0001b0 17 f4 fb bd 7c 77 06 be 7d b3 09 be ea ca c1 3e
       -0.12302416 -0.13131517 -0.13447376 0.37850124
0001c0 32 df 30 3e 10 79 11 bf b5 48 40 be e7 46 fe be
       0.17272642 -0.5682535 -0.18777736 -0.4966347
0001d0 1b c6 97 3e fe 2a 9b bd 7f 09 07 3e 68 ae cd be
       0.2964333 -0.075765595 0.13187216 -0.40172124
0001e0 bd 79 c6 3d ff 76 15 bf a3 17 e3 be 3f 7a d6 bd
       0.096911885 -0.583847 -0.4435397 -0.10472535
0001f0 fc 76 70 be 5a 01 8b be 68 64 3c be b4 5a af 3d
       -0.23482889 -0.2714947 -0.18397677 0.08562222
000200 4f f8 5e be e6 82 08 3e 2c 9f 99 be d0 28 92 3d
       -0.2177441 0.13331184 -0.3000425 0.071366906
000210 26 63 e6 be 4d d7 23 bd 96 5e 8c be 38 2d 0e 3e
       -0.4499752 -0.04000025 -0.27415913 0.13884437
000220 24 fb ac be 18 40 42 3e fd b3 8d be 2e b8 b3 be
       -0.33785355 0.18969762 -0.27676383 -0.35101455
000230 69 b6 14 3e a7 ae aa be 43 29 8a be ec 44 0d be
       0.14522709 -0.33336374 -0.26984605 -0.13795823
000240 b5 69 c6 3e 65 bf cf bd c1 83 c3 be 75 4a ec be
       0.38752523 -0.101439275 -0.38186458 -0.46150556
000250 2b 9c 2d bc 8d 98 10 3e ca 6c 22 be 10 39 06 bf
       -0.010596315 0.14120694 -0.15861812 -0.5243082
000260 87 ae 8a be 17 06 83 be 30 e6 cc be 5d 98 f4 3d
       -0.2708628 -0.25590584 -0.4001937 0.119431235
000270 a8 eb b8 be 94 be 38 bd d8 0b cc 3d 6e d7 4f be
       -0.3611729 -0.045103624 0.099631965 -0.20297024
000280 cf a2 d9 bd 67 41 56 3e 54 51 e3 3d 3a 98 ea be
       -0.106267564 0.20923387 0.110994965 -0.45819265
000290 28 26 41 3e 7c 63 c4 3d 55 d1 77 3e e8 77 83 be
       0.18862212 0.09589288 0.24200948 -0.2567742
0002a0 57 e4 0a be ce 91 b1 bc 5d 25 fb 3e e1 68 59 be
       -0.13563667 -0.02167597 0.49051943 -0.21231414
0002b0 77 ff ca 3d dc 66 cb be ae d2 a7 3d 1d b2 68 be
       0.09912007 -0.39726913 0.08194481 -0.22724195
0002c0 28 c8 47 be 70 eb 1f be a5 0e 96 3e 29 5a 89 be
       -0.19509947 -0.15617156 0.29308048 -0.268266
0002d0 de 96 ba 3e c0 3a a8 be 04 4c d3 3e b9 74 a6 be
       0.36443228 -0.32857323 0.41268933 -0.32510927
0002e0 a2 28 5f be c9 7e 32 3f 0d fd 48 3f d9 61 df 3e
       -0.21792844 0.6972471 0.78511125 0.4362934
0002f0 0a 6b 3c be 17 d5 06 3d 6c 62 96 be 27 53 8b 3e
       -0.18400207 0.032918062 -0.29371965 0.27211878
000300 e1 8d 66 be 6c 1c 87 3e 99 4f 6c be 03 da af be
       -0.2251506 0.26388872 -0.23077239 -0.34346017
000310 9e 71 62 bd e4 e8 89 be 85 6e b0 be b4 8c 76 3d
       -0.055284135 -0.26935494 -0.3445932 0.06019278
000320 15 0f 11 bd 17 e5 f4 3c 3a ce 96 be 45 ce 89 be
       -0.035414774 0.029894395 -0.29454213 -0.26915184
000330 84 80 c4 bd 66 cd b4 be fb 6c 31 3f 37 b9 52 be
       -0.09594825 -0.35312957 0.69306916 -0.20578466
000340 1d 90 83 be 74 dd 9d be 4e ea c8 be 0c fd f8 bd
       -0.25695887 -0.30833018 -0.3924126 -0.1215764
000350 85 a3 67 3e c6 2b cf 3d a8 82 44 be 8f 27 92 be
       0.22620972 0.10115771 -0.19190466 -0.28545806
000360 a1 26 7a be 17 46 20 3e 1a 3e 33 be ee 29 8a 3c
       -0.24428798 0.15651737 -0.17504159 0.016865697
000370 6c 2c d2 be 78 70 55 be ab 53 c2 be ba 24 e5 bb
       -0.41049516 -0.20843685 -0.3795446 -0.0069929035
000380 0b b1 e6 be 06 b7 39 be 31 b9 fa 3e 80 35 d6 3e
       -0.45056948 -0.18136224 0.48969415 0.41837692
000390 7e 30 bd 3e 46 a1 71 be 68 70 9d be 1f a9 ae 3c
       0.3695106 -0.23596677 -0.30749822 0.021320878
0003a0 62 62 86 be a8 a8 53 be 8e c9 96 be 01 08 64 3e
       -0.26246935 -0.20669806 -0.2945065 0.22268678
0003b0 4b 9c bc be 4f eb 15 3e d3 3b fa 3c 3f 84 b2 bc
       -0.36837992 0.14640544 0.030546105 -0.021791575
0003c0 61 61 d8 be 97 3c 96 bd 9f 66 53 3d d8 a9 83 be
       -0.42261794 -0.07335775 0.05161154 -0.25715518
0003d0 7c b2 33 be dc 0e f5 bd b5 ed 1d 3e d4 78 4b 3e
       -0.17548555 -0.11965725 0.1542271 0.19870311
0003e0 b0 a9 83 3e dc bc 80 be 48 0d 1b 3f ca b3 a1 be
       0.257154 -0.25144088 0.6056714 -0.3158248
0003f0 6a df cf 3d 6b 1e 87 bd 57 00 4c be 26 31 ac 3d
       0.10150035 -0.06597599 -0.19922005 0.08407812

action_model._discrete_distribution.branches.0.bias f4 [2]
000000 a5 0a 19 bd 21 09 19 3d
       -0.037363667 0.03736222

action_model._discrete_distribution.branches.1.weight f4 [3, 256]
000000 22 57 ef bd 70 3a 34 be 03 43 19 3e 91 1c 81 3e
       -0.11686541 -0.17600417 0.14966969 0.25217107
000010 7a 9b ba be 4b 6f 13 be 20 5b 59 bf f4 94 0c bf
       -0.36446744 -0.14397924 -0.8490467 -0.54914784
000020 6e b4 78 3d 3b b6 1a bd f9 4f a5 be 7a b1 b8 bd
       0.060718946 -0.037771445 -0.32287577 -0.09018226
000030 f9 de 9f 3d e4 ec b2 be cc c4 31 bc 98 64 2c 3e
       0.078062005 -0.34946358 -0.010850143 0.16835248
000040 f0 e8 39 3f ec 13 2c 3e cc 90 0a be 52 ea 44 bd
       0.7262106 0.16804475 -0.13531798 -0.048075028
000050 0c f0 67 be e9 40 8f be 33 b5 b3 be 93 fd 8b 3d
       -0.22650164 -0.2797921 -0.35099182 0.06835475
000060 b9 0d 93 bd 02 a1 b3 3e 08 0f 15 3e 15 c6 13 3d
       -0.07180352 0.35083777 0.14556515 0.036077578
000070 71 a8 27 be d3 d4 e3 bd 6a 2e 95 3d b9 3a 24 3e
       -0.16372849 -0.111245774 0.072842434 0.16038026
000080 90 95 64 bd ed d7 d4 3e 5d e8 f0 3e e3 28 9b bd
       -0.055806696 0.41570988 0.4705228 -0.07576158
000090 07 c7 91 be 56 34 c5 3d d9 f3 0b 3e de 8b 1e bd
       -0.28472158 0.09629123 0.13667239 -0.038707606
0000a0 29 d7 9a be 41 60 ba be 96 cc 39 be 8b ad 42 3c
       -0.3024228 -0.3640156 -0.1814445 0.011882196
0000b0 53 32 49 3e 65 f8 72 3d 2c c8 05 3e 94 a9 90 be
       0.19648103 0.05931892 0.13064641 -0.28254378
0000c0 72 0b 00 bd 2d f2 ac be 3d 30 52 3e e5 d4 a7 3e
       -0.031260915 -0.33778515 0.20526214 0.32779613
0000d0 2b 80 3f be ce a3 22 bd 30 14 01 3f ab eb 5b 3e
       -0.18701236 -0.039706998 0.5042143 0.21476619
0000e0 89 f9 31 be 6a ea b6 bc 00 8b 8d be 44 04 0a 3d
       -0.17380346 -0.022328574 -0.2764511 0.033695474
0000f0 01 9c 45 be c3 fa d2 3d ff d3 0b 3e c3 c8 b2 3d
       -0.19297792 0.10301735 0.13655089 0.087296985
000100 22 cf 8b 3c e8 85 73 bc e7 8c 97 3e 1d 13 e0 bd
       0.017066542 -0.014863469 0.29599687 -0.109411456
000110 a7 3c 1f 3e b6 47 45 3e ba e9 ac bd c4 b9 25 bd
       0.15550481 0.19265637 -0.08443017 -0.040460363
000120 b1 2e 4f 3e f9 69 0b be ec 1a b9 bd 9e 10 2b be
       0.20232655 -0.13614644 -0.09038338 -0.16705558
000130 19 fd a6 be 95 91 35 be f8 df f2 3c a9 19 52 3d
       -0.32614973 -0.17731316 0.029647812 0.051294003
000140 7e 6c 4a 3e e4 a8 90 3e 5a a6 87 be f7 0e f8 bd
       0.19767949 0.28253853 -0.26494104 -0.12112229
000150 7e c3 33 3e bc bf a2 3d 94 3e 73 be a4 63 ca 3e
       0.17555043 0.07946727 -0.2375434 0.39529145
000160 63 f0 19 be 68 92 bb 3e 9a ed 01 be dc eb 89 bb
       -0.15033107 0.36635137 -0.12688294 -0.004209025
000170 54 1a 0c 3f dd b5 f4 bd 0b 81 d6 bd d7 1c 12 be
       0.54727674 -0.1194875 -0.10473832 -0.14268814
000180 9c 49 bd bd 70 99 bd 3e bb 2b ed be 8d d2 51 3c
       -0.092425555 0.37031126 -0.46322426 0.012806547
000190 ad dd 04 3e 31 51 c1 3c 02 c8 71 3e 83 1e 0d 3e
       0.12975188 0.023598285 0.23611453 0.1378117
0001a0 36 2b 39 bf 95 20 84 be 23 f1 ac bd 70 b1 39 bd
       -0.7233156 -0.25806108 -0.08444431 -0.045335233
0001b0 1e 5a 5a bf c2 45 cb be c1 5f cb be 0a 0d a4 bb
       -0.8529376 -0.39701658 -0.39721492 -0.005006437
0001c0 71 6f b3 3d 11 3f 97 bc be 63 22 bc 90 91 b2 3e
       0.0876149 -0.01846269 -0.009911476 0.3487668
0001d0 21 7a 7b 3d bb c8 f5 bd 37 7b 44 3e 53 60 10 bf
       0.061395768 -0.12001177 0.19187628 -0.5639698
0001e0 86 9e 86 3d 52 39 fa 3e 4f 63 ad be 81 c7 c7 3d
       0.06573205 0.48871857 -0.3386483 0.09754849
0001f0 bd 8c dc 3d 93 73 c5 3e a7 ab bf bd e8 f0 ce bd
       0.10769031 0.3856474 -0.09358912 -0.10104543
000200 18 93 24 3d 64 ae d2 bc c1 78 a2 3c 64 51 a8 3d
       0.040179342 -0.025717922 0.01983297 0.08218649
000210 af 2f 36 3d f9 c5 04 be 5f 1a 81 be a5 21 d2 bd
       0.04447907 -0.12966146 -0.25215432 -0.102603234
000220 ba 40 17 bd ba 3c cf 3d 89 7b a7 bd 98 ae c3 bc
       -0.036926962 0.101190045 -0.08177859 -0.023886964
000230 ea 4e 8b 3e 72 7d a0 be 56 c5 72 be 0f 0b 56 bc
       0.27208644 -0.31345707 -0.2370809 -0.01306416
000240 19 5e ad bc 50 e2 a2 3e 93 dd 5f bd d4 c2 22 3e
       -0.021163033 0.31813288 -0.05465467 0.15894634
000250 a6 2b 74 bd eb 27 c9 3e 05 08 29 be e2 fd 40 3e
       -0.05961194 0.39288267 -0.16506965 0.18846849
000260 61 c6 64 3e e4 74 81 bd d9 0d 45 3d d5 4b 6a bf
       0.223413 -0.06321123 0.04810891 -0.9152196
000270 24 fb ca 3e e0 ad bc be aa ec a4 be 5d fd 71 bc
       0.3964473 -0.36851406 -0.3221181 -0.014769879
000280 d4 39 33 bf ff 74 ef be 8a d0 93 3d 9b ca 97 3e
       -0.70010114 -0.46768948 0.0721751 0.29646763
000290 9d 55 28 bd e9 36 c4 be e0 94 0c 3e 24 bb a2 3e
       -0.041097272 -0.38323143 0.13728666 0.31783402
0002a0 ed cb be be 21 82 56 be 77 e8 39 be 3a 5a af be
       -0.37264958 -0.20948078 -0.18155085 -0.34248525
0002b0 25 77 cd bd 16 7f b6 bd 20 fd 00 3f 49 df f1 be
       -0.10032491 -0.089109585 0.5038624 -0.47240666
0002c0 05 a7 9a 3e 30 3a df bd 90 88 25 3d 6d 20 90 3d
       0.3020555 -0.1089977 0.04041344 0.07037435
0002d0 65 b3 98 be d1 27 d6 3b e3 37 29 bd 16 f6 a3 3d
       -0.29824367 0.006535508 -0.041313063 0.080059215
0002e0 0f fc d3 3e af 63 e5 bc 9d 0e 3c 3e 46 84 9d bc
       0.41403243 -0.028001634 0.1836495 -0.019228112
0002f0 10 5c 44 3e 64 8a 45 be 87 0a 23 bd 0a 3b 6c be
       0.19175744 -0.19291073 -0.03980496 -0.23069397
000300 f3 0f a3 3e af af e6 be 00 0b 40 3d 7f 76 00 be
       0.31848106 -0.4505591 0.04688549 -0.12545203
000310 2b 73 c7 be a8 42 23 3c e5 8c 57 be d3 4a 0a 3e
       -0.38955054 0.009964623 -0.21049841 0.13505106
000320 b0 90 6f 3e 6e 68 2f 3e be 0f b5 bc da ac 9f 3d
       0.23395038 0.1712968 -0.022102233 0.07796641
000330 b8 ce d2 be 8b dc d9 3e 0c 6d 77 3e eb e3 04 3e
       -0.4117334 0.42551073 0.24162692 0.12977569
000340 12 6d 02 be 45 32 53 bd c4 ef 73 3e fd 56 bf 3d
       -0.1273692 -0.051561613 0.23821932 0.093427636
000350 6c 5c 39 3d 51 17 e9 bc eb 43 98 3d f0 a8 8c bd
       0.045254156 -0.028453501 0.07434829 -0.0686816
000360 98 50 17 bd c6 02 17 3e 23 e5 f6 bd a0 de d8 3e
       -0.036942095 0.14747152 -0.12055423 0.4235735
000370 91 10 ae be ce 7f 43 3e f2 19 cb 3d ba fe d1 be
       -0.33997014 0.19091722 0.09917058 -0.41014653
000380 79 14 cf bb 55 48 80 be 08 8c 0a be 68 4f 35 bd
       -0.006319579 -0.25055185 -0.1352998 -0.04426518
000390 1b 2c 33 3e 85 4e be bd b7 63 61 bd 14 e2 6d 3d
       0.17497294 -0.0929232 -0.055026736 0.058076933
0003a0 28 3e 6d bf d8 c1 b2 bc fb 13 2b bd f1 33 32 3e
       -0.9267297 -0.021820948 -0.0417671 0.17402627
0003b0 ed e3 a3 3c c8 18 12 3d 25 fb 02 3c 83 ab 26 be
       0.020006144 0.035668164 0.007994448 -0.16276364
0003c0 93 dc 90 be 18 51 18 3e bc 12 9c 3e cc a5 02 3f
       -0.28293285 0.14874685 0.30483043 0.51034236
0003d0 d8 55 69 3e 7a cc 6d 3b f2 57 05 be 3a 61 18 3e
       0.22786653 0.0036285208 -0.1302183 0.14880839
0003e0 f6 15 a8 3e 94 7a 2d 3e 34 38 f0 bd 49 84 cb be
       0.32829255 0.16941291 -0.1172947 -0.39749363
0003f0 b6 51 26 3e 3c e6 e1 3e da 8a d8 3d b4 4b d1 3e
       0.16242108 0.44120967 0.10573359 0.4087807

action_model._discrete_distribution.branches.1.bias f4 [3]
000000 03 37 fa 3c 61 ae 75 bd de 38 f8 3c
       0.03054381 -0.059980754 0.030300554

action_model._discrete_distribution.branches.2.weight f4 [2, 256]
000000 11 10 36 3c 1b c2 33 be 46 e7 cd 3d 5d d3 19 3c
       0.011112229 -0.17554514 0.100538775 0.009388772
000010 50 a5 6c be 42 cf 86 be 28 9c 2c 3e a4 fd 4b be
       -0.23109937 -0.2633 0.16856444 -0.19920975
000020 f8 e2 0d 3d 55 cd 14 be cd f7 73 bd 36 d8 43 be
       0.034640282 -0.14531453 -0.059562493 -0.19125447
000030 89 31 17 bd 09 ab 9c bd 05 76 99 3e f2 31 3b be
       -0.036912475 -0.0764981 0.29972854 -0.18280771
000040 fc f4 b6 bd 80 0c fb bc 2a 3a 7c be 68 71 5c bd
       -0.08933446 -0.030645609 -0.24631563 -0.05381909
000050 38 9f ee 3e 91 a0 45 bd 73 20 f3 bd b5 17 51 3e
       0.4660585 -0.04824883 -0.118714236 0.204192
000060 04 50 b2 3d 24 b2 ce bd 23 bf 3a be 65 3a 08 bd
       0.08706668 -0.100925714 -0.18236975 -0.033258814
000070 09 ef b4 3c 9f 2d 19 bd c9 cc 87 be 4b 57 4c bd
       0.022086637 -0.037397023 -0.26523426 -0.049887937
000080 55 77 1a bd a3 3b de 3c 96 ee c2 bc b8 30 9b 3c
       -0.03771146 0.027128046 -0.023795407 0.01894413
000090 2e 1e 41 be d8 26 16 be 86 a3 70 3e 3e 71 0e 3e
       -0.18859169 -0.14663255 0.23499879 0.13910386
0000a0 1b 02 14 bd e4 16 35 be 9c 7f 2a 3d 59 94 8e 3e
       -0.03613482 -0.17684513 0.041625604 0.27847555
0000b0 00 35 2d 3e 66 12 ef 3d 65 96 01 3d d1 1c 86 bd
       0.16914749 0.11673431 0.031637568 -0.06548465
0000c0 2c 7f e6 be ff 3d 4d 3e b2 90 78 3e f6 5f 11 be
       -0.450189 0.20043181 0.24273947 -0.14196762
0000d0 66 f9 2f 3c ea 88 dc be 7b 49 0e be be b3 35 be
       0.010740614 -0.43073207 -0.13895218 -0.17744347
0000e0 d6 05 af 3d 26 fb 72 bb 27 1b 19 3e f8 2f ad bd
       0.08546035 -0.0037075966 0.14951764 -0.08456415
0000f0 5f 00 51 3d 49 0d 41 be 00 27 a6 3e 94 78 bb bc
       0.051025745 -0.18852724 0.3245163 -0.022884645
000100 fe 7d 96 be ee 9b a2 be ff 03 01 bf 97 29 7b 3e
       -0.29393 -0.3175959 -0.5039672 0.24527584
000110 36 66 00 bb 78 43 52 3e ff 99 5e 3e dc b9 cc 3e
       -0.0019592172 0.2053355 0.21738432 0.3998555
000120 92 6f 01 3e 58 7b 15 3e 57 4b 5b 3d 4e 65 2c 3e
       0.12640217 0.14597833 0.053538647 0.1683552
000130 dd b2 ab bd 6a 9b f4 3c 5c ce 96 3c f3 d3 e3 bc
       -0.08383725 0.029859263 0.018408947 -0.027811026
000140 8f a8 97 bc 2d 49 c4 bd 4a 3c 7d 3d d7 42 4c 3e
       -0.018512992 -0.0958427 0.061825074 0.19947372
000150 08 c2 90 bd 56 f5 9d bd 16 00 75 3e a1 ec 01 be
       -0.070682585 -0.0771281 0.23925814 -0.12687923
000160 99 fd 94 3e 4e 2d 3f bd 46 4d b8 3e 0e b5 c4 3d
       0.2909973 -0.046674065 0.35996455 0.09604846
000170 ec 31 b4 bd 3e 8b b8 3d c7 08 20 3e 56 32 be 3d
       -0.08798584 0.09010933 0.15628348 0.092869446
000180 55 09 b9 be e5 75 2c be 05 ff 3b 3e 82 73 9a bb
       -0.36139932 -0.16841848 0.18359001 -0.0047134766
000190 73 fa 16 be 7d 36 8a bd fd d0 4c be 7d 2b 5b 3e
       -0.14743976 -0.06748674 -0.20001598 0.21403308
0001a0 7a c6 13 3f f6 5f 2d bd 1b 8a 18 3d 24 20 80 bc
       0.57724726 -0.042327844 0.037241083 -0.015640326
0001b0 a9 62 6f 3e e9 90 5d be a3 61 4b 3e f5 34 98 bd
       0.2337748 -0.2163731 0.19861464 -0.07431976
0001c0 4a ca ed be 69 24 7b 3e 38 c1 01 3e d8 59 91 3d
       -0.46443397 0.24525608 0.12671363 0.070972145
0001d0 85 47 85 bc a5 52 9b 3d b8 5f 9b be 62 08 1b 3e
       -0.016269455 0.075841226 -0.30346465 0.15139917
0001e0 5d cd c5 bc 76 54 75 3e 66 fa e1 3e dc 4d db be
       -0.024145776 0.23958 0.4413635 -0.4283284
0001f0 a5 6a cd be 1a 2c 34 be 9d f9 1c bc f0 5d 34 bd
       -0.40120426 -0.17594948 -0.009580997 -0.0440349
000200 a8 00 53 bd 68 c6 ef 3d 5e 29 21 be 12 f6 47 3e
       -0.051514298 0.11707765 -0.15738437 0.19527462
000210 a7 4f 17 bd 19 f0 fb bd 4f 0e 88 be a9 70 9b be
       -0.036941197 -0.12301654 -0.26573417 -0.3035939
000220 e1 b8 a3 3e 00 33 b2 be bc 61 a2 3c 1d 7c 22 3e
       0.3197699 -0.34804535 0.019821994 0.15867658
000230 65 b7 2a 3e 5b 79 ba bd 46 32 91 be cb b7 d4 3b
       0.16671522 -0.09105178 -0.28358668 0.0064916364
000240 8b 40 44 3d 92 18 f0 bd c9 a2 04 be 55 af 92 bd
       0.047913115 -0.117234364 -0.12952723 -0.07162348
000250 2c d0 c0 3c 64 d2 1b be ab 1c 05 3d 93 19 32 bd
       0.023536764 -0.15216976 0.032498043 -0.04348142
000260 15 25 76 3e 03 69 c2 3c 3c f5 3a 3d c8 f5 f4 3d
       0.24037583 0.023731714 0.04564403 0.119609416
000270 a4 43 88 bd dd 65 32 3e 44 7e 84 be 18 f4 66 bd
       -0.066535264 0.1742167 -0.25877583 -0.05638513
000280 62 d2 b8 3e 57 d9 fc be c1 e5 84 be 69 80 c0 be
       0.3609801 -0.49384567 -0.25956538 -0.3759797
000290 a1 de 11 3f 53 fe a0 3c 0e 84 8b bd 77 15 89 bd
       0.5698033 0.019652521 -0.06812297 -0.06693547
0002a0 85 58 81 3e 41 81 0a 3d 7b 9d 67 3d 74 c6 81 3e
       0.25262848 0.033814672 0.05654667 0.2534672
0002b0 dd 37 07 bd 2e c8 d1 bb 82 8e 9e 3e 8b 58 46 3e
       -0.03301226 -0.006402037 0.309681 0.19369714
0002c0 d9 10 bb bd d2 37 8c 3d 77 b2 ce bc 10 45 0f 3f
       -0.09134073 0.068465844 -0.025231583 0.55964756
0002d0 e8 de 50 bd 4a 32 16 bd d9 eb 94 be 71 31 b4 3e
       -0.05099383 -0.036669053 -0.29086187 0.3519397
0002e0 81 c8 25 bd d9 47 a6 bc 2a 1c 8c 3d 97 81 33 3e
       -0.04047442 -0.020297932 0.06841309 0.17529903
0002f0 d7 38 00 be 44 01 f7 3b b9 0a 2a be cb 44 66 bc
       -0.12521683 0.0075379927 -0.16605653 -0.014054487
000300 9f 2c 5c bd 7f 59 19 3e 74 b7 00 be 33 77 01 3e
       -0.05375349 0.14975546 -0.12569982 0.12643127
000310 13 83 ae be f1 3c d5 bd a7 88 b9 bc 0b a7 1e 3e
       -0.34084377 -0.10412014 -0.022648169 0.1549341
000320 74 b7 14 be df e4 b1 be fb 9e 00 3c 99 c8 a2 3c
       -0.14523107 -0.34744927 0.007850404 0.019871043
000330 2c b4 8c 3e 0a c2 d1 be 99 3c 39 3e 65 51 cc bb
       0.2748121 -0.40968353 0.18089522 -0.006235289
000340 ab 9e 2f be 81 2b c4 bd cd f9 46 be 8a f7 b5 be
       -0.17150371 -0.0957861 -0.19431229 -0.3554042
000350 fc 0b 83 3e 72 bf 99 3d 67 d2 9b 3d 45 29 08 be
       0.2559508 0.075072184 0.076084904 -0.13296993
000360 3f 0f 6d be e9 74 77 3d e0 50 e9 bd b7 95 8e 3e
       -0.23150347 0.06041423 -0.11392379 0.27848598
000370 fe 79 39 3e 56 5e aa bd 3f 65 59 3e d1 f9 4a be
       0.18112943 -0.083187744 0.21230029 -0.1982186
000380 cf 51 b5 bd a9 55 db 3d 17 40 1e be c5 13 26 3e
       -0.088534944 0.10709698 -0.15454136 0.16218479
000390 5f f4 af 3e e8 1e 8a bd 29 25 7d bc b4 f1 41 3e
       0.34366128 -0.06744176 -0.015450754 0.18939859
0003a0 38 7c 9e 3e 26 04 06 3d 42 53 10 bd 29 dd 05 be
       0.30954146 0.0327188 -0.03523565 -0.13072647
0003b0 f6 10 80 3d 0a 9f 81 3d d9 0f 49 3e 80 64 cd bd
       0.06253235 0.063291624 0.19634952 -0.100289345
0003c0 d9 7e c6 3e 04 38 0a be 8c cb b3 bc 6f 03 4c 3e
       0.38768652 -0.13497931 -0.021947645 0.19923185
0003d0 40 6d 80 3e 10 10 dc bd ae d9 da 3d ec 03 7f 3e
       0.2508335 -0.10745251 0.1068605 0.2490384
0003e0 6a 27 47 be 20 49 1a 3e 6e cc a3 3d 9a 8a 3b 3e
       -0.19448629 0.15066957 0.07997976 0.18314591
0003f0 f7 f8 9a be a6 40 1c 3e 82 b4 85 bb 22 54 54 be
       -0.3026807 0.15259036 -0.004080356 -0.20735219

action_model._discrete_distribution.branches.2.bias f4 [2]
000000 83 ef a5 bc a8 f0 a5 3c
       -0.02025581 0.020256355
