results/boat-agent-ppo/boat/boat-2500089.onnx (onnx, 328993 bytes, 11 tensors)

discrete_act_size_vector f4 [1, 3]
2.0 3.0 2.0
00000000: 0000 0040 0000 4040 0000 0040

network_body._body_endoder.seq_layers.0.weight f4 [256, 47]
0.09327324 -0.05313927 -0.3270111 0.030117882 0.013879451 0.104145624 -0.04150453 0.36833483
0.10835028 -0.21343634 -0.16603199 -2.7262413e-05 0.37131548 0.25303322 0.056556948 -0.0740559
0.26481217 -0.13508536 0.1210629 0.08232809 -0.021588147 -0.027536334 -0.09262165 0.2154833
-0.2974193 0.031062143 0.026837882 -0.0760777 -0.0682195 0.05751109 0.08408876 0.22257672
0.083232276 0.0067022126 0.13251702 0.0155695155 -0.059679557 -0.103209294 -0.45495123 0.014728552
0.017976873 0.035211705 0.38183227 -0.047474314 0.16322827 0.09159821 0.0232434 0.027218781
0.20829988 -0.004794867 -0.12494584 0.09059989 0.11367614 -0.18058008 -0.028694568 0.098159626
-0.12128489 0.068442 -0.20585436 -0.024958177 0.059249476 0.11765587 0.22640812 -0.039359782
0.062325586 -0.013808785 0.0933928 0.10384958 -0.12066961 0.37644038 -0.18062235 -0.16553989
0.1793313 -0.1089093 -0.09747145 0.18759413 -0.28081077 0.139444 0.13207206 0.05049168
-0.111762375 0.20367724 0.13039218 0.305616 0.112387456 -0.103376485 -0.37448257 -0.092516445
-0.065640494 0.09711532 0.044008683 -0.17680073 -0.16380955 0.0433139 0.103542134 -0.14293997
-0.15706179 -0.06643531 -0.087646894 0.11050608 0.26905334 -0.074858814 0.26104444 0.008272928
0.070448875 0.06494118 0.10817752 0.12296409 -0.10426413 0.15667917 0.12690558 0.09161849
0.24889365 -0.09675143 -0.05129095 0.12229847 0.10736639 0.19864409 -0.03431188 -0.03554487
0.10794158 0.26009786 0.07974475 0.15906164 0.0038790323 0.11941671 -0.12130709 -0.1077448
-0.10401489 -0.19223246 -0.15393284 0.011493818 -0.03310121 0.062509514 -0.045452215 -0.21670277
-0.007105844 -0.083053134 0.11755068 0.045843642 -0.10065167 -0.20092998 0.24775909 -0.004109359
0.16730967 -0.08915668 -0.122929 -0.040758755 0.15965226 -0.28429815 0.10711274 0.0031029314
0.28110418 -0.0577044 0.020575797 -0.04275389 0.061205417 -0.4447414 0.28804836 -0.033683676
-0.0051851408 -0.1454547 0.19804922 0.15603232 0.22738713 -0.2254598 0.04668246 0.17836052
0.046189733 0.06412771 -0.1864918 0.35942957 0.028479788 0.09670725 -0.37190545 -0.042187136
-0.09627017 0.06637435 -0.07427397 0.1457057 -0.15308619 -0.2484874 0.31110784 -0.07526117
-0.07513654 0.22180706 -0.06088199 0.014664517 0.33090916 0.048653252 0.22469357 0.34358492
0.4262028 -0.1381884 -0.04183248 0.0031634003 0.112276025 -0.3195328 0.11581704 -0.07381321
0.055060856 -0.02913644 -0.014566585 -0.04743839 0.08353742 -0.06497958 0.087918386 -0.08941121
-0.048477378 0.014129296 -0.03312324 0.040910188 0.17276035 -0.1800497 0.10888836 0.10820213
-0.29247677 0.3458161 -0.05936169 0.6450833 0.15704165 0.025857909 0.05325975 0.119949706
-0.055737138 0.2190558 0.16427495 0.04611856 0.024891349 0.13490942 0.15508634 -0.0010942362
0.0048744828 -0.2755377 0.021395974 0.1962318 0.073787354 -0.3837824 -0.2807019 0.24733731
0.036511693 -0.031521965 0.05569691 -0.19238557 0.0438529 0.008637363 0.1543695 0.10645138
0.046204325 -0.07437992 0.40678385 0.12730867 -0.057309017 -0.1832939 -0.07471038 0.12919779
00000000: 0a06 bf3d 90a8 59bd 006e a7be c7b9 f63c
00000010: a366 633c 4d4a d53d a700 2abd 6296 bc3e
00000020: c0e6 dd3d 0e8f 5abe 4a04 2abe 96b1 e4b7
00000030: 101d be3e 928d 813e 42a8 673d 9faa 97bd
00000040: 7695 873e d153 0abe d3ef f73d a19b a83d
00000050: a0d9 b0bc e193 e1bc 6bb0 bdbd a7a7 5c3e
00000060: 5847 98be 0976 fe3c 1edb db3c a0ce 9bbd
00000070: aab6 8bbd c090 6b3d ba36 ac3d 27eb 633e
00000080: af75 aa3d 3c9e db3b 8bb2 073e 4817 7f3c
00000090: 8d72 74bd 655f d3bd 5eef e8be 0650 713c
000000a0: 3c44 933c 263a 103d 857f c33e 6d74 42bd
000000b0: 5025 273e d897 bb3d f168 be3c ecf9 de3c
000000c0: 904c 553e 421e 9dbb 9be3 ffbd 6f8c b93d
000000d0: 09cf e83d fce9 38be df10 ebbc ea07 c93d
000000e0: 3664 f8bd 522b 8c3d 7ccb 52be 1775 ccbc
000000f0: 94af 723d 90f5 f03d 88d7 673e b937 21bd
00000100: 1d49 7f3d 3e3e 62bc b944 bf3d 17af d43d
00000110: a121 f7bd cbbc c03e 11f5 38be 4a83 29be
00000120: a0a2 373e d70b dfbd 1d9f c7bd ad18 403e
00000130: 6ec6 8fbe 68ca 0e3e e63d 073e 5dd0 4e3d
00000140: ace3 e4bd c490 503e 8785 053e b379 9c3e
00000150: 652b e63d 0db7 d3bd 2ebc bfbe 4379 bdbd
00000160: 866e 86bd 66e4 c63d 7342 343d 400b 35be
00000170: b1bd 27be ea69 313d e60d d43d db5e 12be
00000180: ced4 20be 3c0f 88bd 3780 b3bd 0351 e23d
00000190: 5cc1 893e 944f 99bd 9ea7 853e 2d8b 073c
000001a0: 8047 903d e2ff 843d 2d8c dd3d 99d4 fb3d
000001b0: 6f88 d5bd 8170 203e 89f3 013e 7aa2 bb3d
000001c0: fadd 7e3e 9d25 c6bd 7616 52bd 9f77 fa3d
000001d0: e9e2 db3d 5b69 4b3e 9d8a 0cbd 7f97 11bd
000001e0: 7a10 dd3d 8c2b 853e 3751 a33d 0ee1 223e
000001f0: 5d37 7e3b c090 f43d da6f f8bd 4ea9 dcbd
00000200: c205 d5bd 96d8 44be 92a0 1dbe 9150 3c3c
00000210: 2295 07bd fd04 803d 1a2c 3abd 55e7 5dbe
00000220: 24d8 e8bb c317 aabd 69be f03d 8bc6 3b3d
00000230: 7622 cebd 97c0 4dbe 8fb4 7d3e cda7 86bb
00000240: 3a53 2b3e c797 b6bd 33c2 fbbd a7f2 26bd
00000250: e27b 233e 878f 91be ed5d db3d 8d5a 4b3b
00000260: e3ec 8f3e 735b 6cbd 938e a83c b41e 2fbd
00000270: 88b2 7a3d 25b5 e3be 137b 933e e5f7 09bd
00000280: 1de8 a9bb 14f2 14be 6acd 4a3e f0c6 1f3e
00000290: 2cd8 683e efde 66be 1b36 3f3d 24a4 363e
000002a0: 7231 3d3d 6455 833d b5f7 3ebe 2707 b83e
000002b0: 724e e93c 730e c63d 646a bebe 6bcc 2cbd
000002c0: 4b29 c5bd 46ef 873d f41c 98bd e033 153e
000002d0: a0c2 1cbe 7b73 7ebe 8749 9f3e 8722 9abd
000002e0: 30e1 99bd 6421 633e 655f 79bd 7143 703c
000002f0: ed6c a93e a248 473d 1216 663e 5dea af3e
00000300: 4137 da3e 4381 0dbe 8958 2bbd 0d51 4f3b
00000310: f9f0 e53d ce99 a3be 7c31 ed3d 612b 97bd
00000320: 7e87 613d 8baf eebc b0a8 6ebc c24e 42bd
00000330: ab15 ab3d 0414 85bd 8e0e b43d 391d b7bd
00000340: 3790 46bd 907e 673c 3cac 07bd 7191 273d
00000350: 17e8 303e f35e 38be dc00 df3d 1499 dd3d
00000360: 84bf 95be cf0e b13e 3e25 73bd 2e24 253f
00000370: 87cf 203e f7d3 d33c e526 5a3d 31a8 f53d
00000380: a04c 64bd 2a50 603e b137 283e d1e6 3c3d
00000390: f1e8 cb3c b225 0a3e f4ce 1e3e 796c 8fba
000003a0: 20ba 9f3b 4713 8dbe 9c46 af3c fdf0 483e
000003b0: d31d 973d 207f c4be 29b8 8fbe fe45 7d3e
000003c0: 498d 153d 2d1d 01bd 7122 643d b900 45be
000003d0: 199f 333d ba83 0d3c 0a13 1e3e 2e03 da3d
000003e0: bf40 3d3d 8054 98bd f945 d03e 345d 023e
000003f0: dcbc 6abd 65b1 3bbe c101 99bd 6d4c 043e

network_body._body_endoder.seq_layers.0.bias f4 [256]
0.0005952577 4.9284732e-05 0.042802732 0.030526418 0.023238696 0.00021414115 -0.007540517 0.0014063878
-0.012457258 0.03808665 -0.0054190597 0.01050324 -0.0059347195 -0.0057683866 0.005685533 0.004675768
0.003014536 0.005610286 -0.00414072 0.010435855 0.03681182 0.023725437 0.025106655 -0.010867293
0.0012163919 -0.005970783 -0.018505763 0.03586486 -0.04513015 -0.004091349 -0.021461688 -0.02213526
-0.0073170373 0.006050291 0.020459576 -0.015828678 0.010389595 0.02652212 -0.0027998427 0.027211305
-0.011628911 0.017310534 0.014443443 0.014072742 0.019419862 0.020229949 -0.008146665 -0.011351677
-0.005410167 0.018057186 0.023535356 -0.0051886947 0.0008880146 0.04510343 0.0024907948 -0.0039723977
0.0051724776 0.004593296 -0.0021606453 0.018010762 0.0024980975 0.053000405 -0.008445857 -0.019768845
0.012364583 0.038968462 0.016783241 0.019786427 0.028921742 -0.012428208 0.008819488 -0.017740248
-0.014581312 0.008860637 0.003998776 -0.016170077 -0.0116279535 -0.006789303 0.0011696204 0.046092704
0.007939514 -0.002915827 0.0031959913 0.01620092 -0.0058054905 0.01153549 -0.002138006 0.011994509
0.010393093 -0.01640431 -0.017869513 0.015086701 -0.034514528 -0.007041267 0.008663783 -0.00014012701
0.008401 -0.014303389 -0.011460165 0.009341858 0.0036971273 0.002819657 0.029093338 0.01184863
0.00794223 -0.011276415 0.010312942 -0.017112274 0.043794923 0.0042158077 0.019191764 0.012963117
-0.0073866295 -0.0022247867 -0.0020749036 -0.03371621 0.0015418555 -0.014868092 0.00071346527 0.014313043
0.011273456 0.0028683557 0.025218109 -0.005804045 -0.026931554 -0.008803137 -0.005546688 0.041905556
0.01090806 -0.006289791 -0.012902617 -0.009101774 -0.006677848 -0.008900177 0.013861243 -0.008647713
0.018959625 -0.00889239 -0.008942192 0.02073903 0.03732214 0.016075278 -0.024211165 0.011940822
0.0006066497 0.0066693313 -0.022019213 0.0026327327 -0.0036136126 -0.0011876773 0.022266103 0.0015250683
0.00332067 -0.0064157126 0.0055066394 0.014281674 -0.00036675224 0.010184603 0.0030438334 0.022533542
0.0066900086 0.011487786 -0.031066399 -0.013705792 -0.02523115 0.025378268 -0.012559986 0.047147438
-0.0013857776 0.008363669 0.008408474 -0.012141079 -0.016318368 0.013779613 -0.0013038359 0.016011061
-0.00035330578 0.0055450397 0.04856563 0.0074838935 0.0017255498 -0.015198757 -0.0035632097 0.05022642
0.008276953 0.030125147 -0.006719909 0.021833321 0.0061563733 -0.013978809 0.02553832 -0.02570803
0.01979412 -0.0060346695 0.009813242 -0.029463667 0.026321324 -0.0015341266 0.028740594 -0.0021642828
-0.020287674 -0.00033115118 0.001501113 0.00873554 -0.009316158 0.0023920801 -0.011227901 -0.0015277431
-0.000111640584 0.0005288234 0.0076807863 -0.0040013157 -0.018063722 -0.02015421 -0.00026611352 0.019939896
0.020016955 0.04320603 -0.0024072188 0.009500757 -0.02402611 -0.0022697896 0.0061465995 0.00010289189
0.0004307713 0.0018171218 -0.02512371 0.029082721 -0.0116900755 0.051658314 0.0044098455 0.03255644
0.0058619394 0.009165832 0.050179824 0.03775542 0.03832556 -0.0047892644 0.039796345 -0.004276843
0.025825346 0.029593807 -0.001102354 0.023877187 0.0042240573 0.026555954 0.007586598 -0.003991868
0.0037321192 -0.011209839 0.0004303766 -0.0065648467 -0.003394923 -0.014835521 0.004343489 -0.011603907
00000000: 110b 1c3a 14b7 4e38 eb51 2f3d 8a12 fa3c
00000010: 145f be3c 148b 6039 7116 f7bb 8b56 b83a
00000020: 8719 4cbc bf00 1c3d 5e92 b1bb c815 2c3c
00000030: 0978 c2bb bc04 bdbb b54d ba3b 2f37 993b
00000040: 868f 453b 7dd6 b73b e0ae 87bb 26fb 2a3c
00000050: fec7 163d d95b c23c 79ac cd3c bb0c 32bc
00000060: 576f 9f3a 8fa6 c3bb 6699 97bc 08e7 123d
00000070: 64da 38bd b910 86bb 6cd0 afbc 0155 b5bc
00000080: c2c3 efbb 8541 c63b d79a a73c 25ab 81bc
00000090: 1f39 2a3c eb44 d93c 917d 37bb 3eea de3c
000000a0: 3087 3ebc d2ce 8d3c 31a4 6c3c 5c91 663c
000000b0: 6716 9f3c 47b9 a53c 9779 05bc 62fc 39bc
000000c0: c547 b1bb aaec 933c 38cd c03c ed05 aabb
000000d0: a7c9 683a 60be 383d 9a3c 233b e32a 82bb
000000e0: e37d a93b 5c83 963b 9d99 0dbb 4e8b 933c
000000f0: 1fb7 233b f416 593d 7e60 0abc 46f2 a1bc
00000100: d294 4a3c 659d 1f3d 027d 893c 2517 a23c
00000110: 4aed ec3c af9f 4bbc 9d7f 103c ff53 91bc
00000120: 75e6 6ebc 352c 113c 2a08 833b 1c77 84bc
00000130: 2c83 3ebc cd78 debb f34d 993a b4cb 3c3d
00000140: bc14 023c 7617 3fbb d673 513b cbb7 843c
00000150: fc3b bebb 5aff 3c3c ca1d 0cbb 9e84 443c
00000160: cb47 2a3c 5562 86bc 1663 92bc 362e 773c
00000170: 1b5f 0dbd 6eba e6bb 8af2 0d3c 0fef 12b9
00000180: 59a4 093c c358 6abc 6ac3 3bbc 980e 193c
00000190: 814b 723b ffc9 383b 2755 ee3c c220 423c
000001a0: 2120 023c b6c0 38bc 9df7 283c 0a2f 8cbc
000001b0: 4e62 333d c224 8a3b 0c38 9d3c 4163 543c
000001c0: 8a0b f2bb bacd 11bb 1bfb 07bb 021a 0abd
000001d0: 1618 ca3a 4c99 73bc d807 3b3a 4181 6a3c
000001e0: 4db4 383c 06fb 3b3b 3596 ce3c dc2f bebb
000001f0: 909f dcbc 083b 10bc fec0 b5bb 29a5 2b3d
00000200: b8b7 323c 971a cebb 8065 53bc 9b1f 15bc
00000210: d9d1 dabb 0cd2 11bc 441a 633c 23af 0dbc
00000220: 3751 9b3c 63b1 11bc 4682 12bc e6e4 a93c
00000230: 1adf 183d 4db0 833c 7e56 c6bc 70a3 433c
00000240: 9207 1f3a 688a da3b a361 b4bc ed89 2c3b
00000250: 5cd2 6cbb d6ab 9bba 6767 b63c cde4 c73a
00000260: 999f 593b e63a d2bb 0a71 b43b affd 693c
00000270: a748 c0b9 52dd 263c 0d7b 473b 4398 b83c
00000280: dc37 db3b 4437 3c3c f67e febc 428e 60bc
00000290: 8fb1 cebc 16e6 cf3c 66c8 4dbc ac1d 413d
000002a0: fba2 b5ba c507 093c b2c3 093c 60eb 46bc
000002b0: 19ae 85bc e3c3 613c 79e5 aaba a129 833c
000002c0: e63b b9b9 2ab3 b53b c1ec 463d 733b f53b
000002d0: d82b e23a 3504 79bc bd84 69bb 38ba 4d3d
000002e0: 0f9c 073c 03c9 f63c af32 dcbb cbdb b23c
000002f0: 67bb c93b 6007 65bc bd35 d13c a699 d2bc
00000300: 4727 a23c 7abe c5bb b8c7 203c ca5d f1bc
00000310: d19f d73c bf14 c9ba 6571 eb3c a4d6 0dbb
00000320: 5632 a6bc 5c9e adb9 fec0 c43a 831f 0f3c
00000330: cca2 18bc 72c4 1c3b 3bf5 37bc 8d3e c8ba
00000340: 9520 eab8 bda0 0a3a 1baf fb3b 781d 83bb
00000350: 5ffa 93bc 711a a5bc 2785 8bb9 fe58 a33c
00000360: 99fa a33c cef8 303d 6ec2 1dbb 10a9 1b3c
00000370: 68d2 c4bc c0c0 14bb 6a69 c93b aac7 d738
00000380: 25d9 e139 7d2c ee3a 3dd0 cdbc e33e ee3c
00000390: bb87 3fbc ab97 533d 7780 903b e759 053d
000003a0: 8315 c03b 492c 163c 5c89 4d3d 6da5 1a3d
000003b0: 43fb 1c3d 43ef 9cbb 7e01 233d c224 8cbb
000003c0: ad8f d33c b66e f23c dd7c 90ba 179a c33c
000003d0: f669 8a3b df8b d93c ff98 f83b 37ce 82bb
000003e0: 9296 743b 79a9 37bc 2ba4 e139 ed1d d7bb
000003f0: 5b7d 5ebb af10 73bc d453 8e3b 501e 3ebc

network_body._body_endoder.seq_layers.2.weight f4 [256, 256]
0.011585055 0.13043712 0.025685921 -0.13498108 0.007828213 -0.076737106 -0.010116781 0.04773868
0.12021777 -0.029373143 0.117336616 -0.01848957 -0.04945815 0.09217329 0.035556335 -0.022871759
-0.07942188 0.015472593 0.012056477 0.013775296 -0.05082826 -0.02052645 0.0038226568 0.007142873
-0.02346224 -0.026022358 -0.107629545 0.13156123 9.9393896e-05 -0.011006204 -0.06297307 0.013799374
0.14300133 -0.009207107 0.08966629 0.046306346 -0.04029131 0.032716893 0.08151756 -0.054740608
0.036148954 0.08942708 -0.019935813 0.119058065 -0.005743364 -0.021689748 -0.085876875 0.022439092
-0.057451144 -0.053347792 -0.0055474853 -0.21322536 0.0017568686 0.02280713 -0.13539962 -0.037606765
0.09119794 0.11649888 0.09560628 -0.14221899 0.065540686 0.013102316 0.058388293 -0.1433678
0.10859582 -0.00759561 -0.0143529065 -0.08412859 -0.03690995 0.024244474 0.013509844 -0.032634176
0.011364043 -0.057708938 -0.009487306 0.018107919 0.0075494316 0.005741933 -0.06239307 -0.041236296
0.10081833 0.11580717 0.036141638 0.070474744 0.02118102 -0.035295043 0.028934311 0.05842359
-0.026826324 -0.037209816 0.086314455 0.11414363 -0.010068915 0.08247143 -0.025786301 -0.039069723
0.052161667 -0.0057417396 -0.120987155 0.09539047 -0.08526809 -0.08604558 0.0063778944 0.07793468
0.0930326 -0.0836665 0.060988568 -0.004813595 -0.049470097 -0.063967146 -0.008216259 -0.029700976
-0.040658537 -0.03081556 -0.08316832 0.0001601032 0.032722525 -0.094949365 -0.003732376 0.051907487
-0.043816183 0.07815297 0.056732535 0.0052819476 0.07703895 0.018467998 -0.079097964 -0.00989025
-0.03640193 0.021311378 -0.028034007 0.05442338 0.021757504 -0.033760726 -0.08139153 -0.009429433
-0.11670055 -0.02212362 0.09582582 -0.10307197 -0.08214195 0.0126832705 0.112602174 -0.052012295
-0.069766834 -0.021899471 -0.009097824 -0.0625535 0.107789405 0.06949185 0.09582399 -0.042555396
-0.025058676 0.0071494435 -0.01330813 -0.041735746 -0.017013887 -0.10164618 0.03475702 0.017172229
0.05369004 0.023890432 -0.050190747 -0.028243616 0.0047619427 -0.027009554 -0.014952676 0.056249827
0.014269162 0.06565265 -0.10034035 0.1026623 -0.07041603 0.008059684 -0.10309047 0.08585644
0.09481268 0.026461516 -0.006907507 -0.048053607 0.072432876 0.04594811 -0.044239167 0.037098825
-0.12737326 -0.022880176 -0.036482226 -0.14347424 0.064142585 0.023758084 0.087360084 0.09821106
0.025865847 0.06910507 -0.04059895 -0.005675711 -0.06688239 -0.04890561 -0.022417514 0.036899637
0.0071655004 -0.09542201 -0.004844099 -0.13738579 0.11626162 -0.03082249 -0.03675276 0.068586215
0.09557124 -0.047778193 -0.011345481 0.033638798 -0.02384572 -0.0025904046 0.059797954 -0.049789663
-0.020558842 -0.048204288 -0.09832651 -0.0015372981 -0.00021236826 -0.016022608 -0.009667129 -0.046628706
-0.0052649723 0.071906105 0.07886692 -0.045281265 0.031071505 0.053052623 -0.012652345 -0.008980652
-0.078585126 -0.09878272 0.010054283 -0.0137339365 0.055563893 -0.0067603556 -0.14724086 0.013481318
-0.13610286 -0.029343963 0.11743337 0.0360788 -0.06756383 -0.0018859386 0.040717334 0.066651456
0.033062883 0.051829368 0.050075248 -0.03931541 0.046519436 0.032021366 -0.071966164 0.046630483
00000000: 3ecf 3d3c 4f91 053e 486b d23c 7b38 0abe
00000010: e841 003c 5828 9dbd dbc0 25bc a289 433d
00000020: bc34 f63d f29f f0bc 2e4e f03d 7077 97bc
00000030: a194 4abd 5ac5 bc3d 85a3 113d 8e5d bbbc
00000040: f0a7 a2bd c280 7d3c 8888 453c c7b1 613c
00000050: 4b31 50bd 1627 a8bc 8a85 7a3b c30e ea3b
00000060: e233 c0bc d72c d5bc e16c dcbd fdb7 063e
00000070: b171 d038 5e53 34bc 06f8 80bd c516 623c
00000080: f16e 123e 68d9 16bc f6a2 b73d b9ab 3d3d
00000090: 8008 25bd 2602 063d aef2 a63d b037 60bd
000000a0: ed10 143d 8b25 b73d 6e50 a3bc b7d4 f33d
000000b0: d432 bcbb b3ae b1bc 37e0 afbd 30d2 b73c
000000c0: e451 6bbd 3783 5abd aec7 b5bb c057 5abe
000000d0: ba46 e63a 05d6 ba3c 33a6 0abe 8d09 1abd
000000e0: fcc5 ba3d f796 ee3d 3acd c33d dba1 11be
000000f0: 323a 863d 19ab 563c 9028 6f3d 02cf 12be
00000100: 7c67 de3d 98e4 f8bb 7428 6bbc 9c4b acbd
00000110: e32e 17bd 599c c63c 6558 5d3c 6aab 05bd
00000120: 4030 3a3c 3560 6cbd a570 1bbc 0f57 943c
00000130: 3961 f73b d326 bc3b e08f 7fbd 64e7 28bd
00000140: d779 ce3d 4f2c ed3d 4109 143d 1055 903d
00000150: d283 ad3c 8991 10bd a607 ed3c 934d 6f3d
00000160: e1c2 dbbc 5269 18bd a2c5 b03d 23c4 e93d
00000170: 17f8 24bc c8e6 a83d cb3d d3bc 9307 20bd
00000180: 79a7 553d 3425 bcbb 1dc8 f7bd 145c c33d
00000190: 09a1 aebd aa38 b0bd a8fd d03b 389c 9f3d
000001a0: e087 be3d 5859 abbd 26cf 793d 5dbb 9dbb
000001b0: 28a1 4abd 3501 83bd 7d9d 06bc 764f f3bc
000001c0: 9189 26bd ea70 fcbc 2754 aabd 60e1 2739
000001d0: 0e08 063d d074 c2bd e19a 74bb f29c 543d
000001e0: 9978 33bd aa0e a03d 6060 683d 3014 ad3b
000001f0: 99c6 9d3d 334a 973c 1dfe a1bd b70a 22bc
00000200: 311a 15bd 3395 ae3c 93a7 e5bc 0deb 5e3d
00000210: cb3c b23c b048 0abd 9ab0 a6bd e97d 1abc
00000220: b300 efbd 983c b5bc 5440 c43d 6617 d3bd
00000230: 0a3a a8bd 7ecd 4f3c f89b e63d d80a 55bd
00000240: eae1 8ebd 8566 b3bc 0a0f 15bc 0d1c 80bd
00000250: b1c0 dc3d be51 8e3d 5e3f c43d 914e 2ebd
00000260: da47 cdbc e145 ea3b 580a 5abc 1af3 2abd
00000270: b560 8bbc df2b d0bd 615d 0e3d c6ac 8c3c
00000280: 16ea 5b3d deb5 c33c d094 4dbd 285f e7bc
00000290: 120a 9c3b 2443 ddbc 12fc 74bc 3866 663d
000002a0: 34c9 693c e674 863d 3e7f cdbd 9d40 d23d
000002b0: 4836 90bd c40c 043c 1921 d3bd 80d5 af3d
000002c0: 262d c23d d2c5 d83c 5e58 e2bb dcd3 44bd
000002d0: b057 943d 1634 3c3d 2134 35bd f0f4 173d
000002e0: 236e 02be 356f bbbc 636e 15bd e9ea 12be
000002f0: 305d 833d 50a0 c23c d8e9 b23d e122 c93d
00000300: 9de4 d33c f586 8d3d 164b 26bd 51fb b9bb
00000310: a2f9 88bd 4051 48bd efa4 b7bc 1324 173d
00000320: 93cc ea3b 9d6c c3bd 3fbb 9ebb dcae 0cbe
00000330: 921a ee3d 727f fcbc 108a 16bd ee76 8c3d
00000340: dbba c33d 11b3 43bd 65e2 39bc d6c8 093d
00000350: 1958 c3bc c7c3 29bb b3ee 743d 3ff0 4bbd
00000360: 046b a8bc dc71 45bd 695f c9bd 2a7f c9ba
00000370: 2caf 5eb9 d841 83bc e162 1ebc befd 3ebd
00000380: ca85 acbb 8243 933d fb84 a13d d978 39bd
00000390: ab89 fe3c b54d 593d c84b 4fbc 9623 13bc
000003a0: 3df1 a0bd 984e cabd b8ba 243c 4e04 61bc
000003b0: f796 633d f985 ddbb 4fc6 16be bfe0 5c3c
000003c0: 8c5e 0bbe c062 f0bc e880 f03d 5dc7 133d
000003d0: e85e 8abd 9931 f7ba 38c7 263d 8f80 883d
000003e0: f26c 073d 084b 543d b41b 4d3d 3209 21bd
000003f0: 2a8b 3e3d d628 033d ff62 93bd 9bff 3e3d

network_body._body_endoder.seq_layers.2.bias f4 [256]
-0.0052159936 -0.0022402792 0.032824006 0.001421067 -0.0021263196 0.01458648 -0.0013838047 -0.0062559214
-0.0042568995 0.022068089 -0.0070441486 -0.0013949752 0.00493628 0.0063433843 0.0061873035 -0.013399721
0.021074405 -0.0043487367 0.0049092756 0.01690589 0.023935113 0.0040799216 0.00234506 -0.005456759
0.022824043 -0.0021187263 0.027111767 0.030140992 0.0070796614 0.016777746 -0.0046931086 -0.003223982
-0.007313007 0.0216217 0.0044935737 0.010012313 0.02299345 -0.0015465094 -0.0019120155 0.0024614823
-0.022076001 -0.0046198075 -0.004353173 0.003157929 -0.003732486 0.00064786477 0.033914115 0.0024819132
0.00070145645 0.004194703 0.015409849 -0.005455807 0.006559445 0.0015195878 0.004631102 -0.00341375
0.001755573 0.013192185 -0.0031456708 -0.006321199 -0.0046684705 0.044138264 -0.014572448 -0.0025843112
-0.0007750142 0.0011441964 0.008479051 0.017982868 -3.4604436e-05 -0.0143746305 0.009413528 -0.0019403389
-0.012635033 0.022163283 0.024682155 0.0062443046 0.014638765 -0.00028416465 0.013825162 -0.0019542985
-0.0022676762 0.010732599 0.002643325 0.0041373153 -0.0019531315 0.0030305048 -0.006032279 -0.0036407681
0.0034238247 0.01019089 0.006457173 -0.006704696 -0.00017133866 0.0033841666 0.011090363 -0.0032065178
-0.023619447 0.0077116988 0.0007841042 0.011391189 0.0126459915 0.022290297 0.004647784 -0.0034377396
0.01570368 0.0005648372 0.008657102 -0.0053334325 0.0066702487 0.0021640968 -0.0030626757 0.025928713
0.0013532763 -0.0070714955 0.008899791 -0.01539304 0.02286272 0.0069569983 0.012014814 0.0040793023
0.010646714 -0.0039857863 -0.024818923 0.006861616 0.005866644 0.0045453412 -0.0060081193 0.02530628
0.011660611 0.008560545 0.0061424086 -0.0022641632 -0.0049822116 0.018448753 0.035346005 0.010171752
0.011695338 0.027188692 0.0054239645 -0.00077283144 -0.012194059 -0.005214276 0.038497124 0.038765457
-0.0014892592 -6.7700945e-05 0.0018790617 0.0036732052 -0.00072577345 0.014783624 0.0011058401 0.00042034936
-0.00086383696 0.036089536 0.02041978 -0.007501441 -0.008365679 0.015991686 0.027642744 -0.00088406523
0.019950174 0.0095225675 0.0010350436 0.008690881 0.002856126 -0.020047022 -0.016003346 0.008703377
0.010124098 0.0040009166 4.1339696e-05 0.026379744 0.0036240336 -0.027248682 -0.003638969 0.00076996157
0.01378188 -0.008220976 -0.0002529281 0.011179555 -0.003165303 0.003276305 0.010581764 -0.0014311817
-0.000121867895 0.02555411 0.00792001 -0.007526734 0.02545505 -0.0075761816 0.038546756 0.0010538402
0.0065457746 -0.006246697 -0.0012774075 0.013237471 0.007954485 0.0010757511 -0.017077575 0.003492328
0.035013203 -0.0054468797 0.024069136 -0.0127385035 0.006095014 0.0054009324 -0.002381375 -0.0075009484
-0.018534217 0.009125352 0.000722373 0.019893575 0.031433523 0.01614553 0.016463947 0.0045811823
-0.004021873 0.0003136094 -0.0062350724 0.021164412 -0.012823669 0.0071516223 0.005623278 0.015185332
0.009669622 -0.002065566 0.007930935 -0.0035411993 0.003591384 0.0029906393 0.033045202 -0.0042973766
-0.005370813 7.8253584e-07 0.019116381 0.0036122927 0.031000048 0.039681293 0.011098442 0.009524736
0.022585543 0.010856179 0.0059499615 0.003246101 0.003664485 0.01507706 0.0066979695 0.00072772824
0.0026795086 -0.018589322 0.027886562 0.014306004 0.004329596 0.002518842 0.011091226 0.021053003
00000000: edea aabb a6d1 12bb 7772 063d 1943 ba3a
00000010: b959 0bbb 22fc 6e3c c860 b5ba 79fe ccbb
00000020: 767d 8bbb 23c8 b43c 9ad2 e6bb 9ad7 b6ba
00000030: 85c0 a13b 2adc cf3b ddbe ca3b 818a 5bbc
00000040: 3ba4 ac3c d97f 8ebb fddd a03b 397e 8a3c
00000050: 9213 c43c ddb0 853b 94af 193b 9dce b2bb
00000060: 7df9 ba3c 54da 0abb 7f19 de3c 3eea f63c
00000070: 81fc e73b 7c71 893c a6c8 99bb 7149 53bb
00000080: f3a1 efbb fe1f b13c d43e 933b af0a 243c
00000090: c25c bc3c 3fb4 caba 989c faba d250 213b
000000a0: bbd8 b4bc c161 97bb 10a5 8ebb 42f5 4e3b
000000b0: b99c 74bb 78d5 293a 87e9 0a3d 98a7 223b
000000c0: f2e1 373a b873 893b 9779 7c3c a0c6 b2bb
000000d0: 9df0 d63b e82c c73a 80c0 973b 39b9 5fbb
000000e0: 411b e63a 0924 583c 9927 4ebb 0f22 cfbb
000000f0: f8f9 98bb 53ca 343d 47c1 6ebc 8c5d 29bb
00000100: 532a 4bba dcf8 953a b8eb 0a3c cf50 933c
00000110: 3b24 11b8 9283 6bbc 333b 1a3c f852 feba
00000120: 2b03 4fbc c68f b53c 3b32 ca3c 069d cc3b
00000130: 6ed7 6f3c effb 94b9 ef82 623c b013 00bb
00000140: 4b9d 14bb c8d7 2f3c a23b 2d3b 5192 873b
00000150: 1c00 00bb 6f9b 463b 6daa c5bb f499 6ebb
00000160: 3f62 603b b1f7 263c b196 d33b 11b3 dbbb
00000170: 5fa9 33b9 e5c8 5d3b 5bb4 353c 7124 52bb
00000180: 927d c1bc 6bb2 fc3b 588c 4d3a 1ca2 3a3c
00000190: 2231 4f3c 249a b63c 704c 983b b34b 61bb
000001a0: 01a5 803c 9511 143a 84d6 0d3c 13c4 aebb
000001b0: 1a92 da3b 85d3 0d3b 2cb7 48bb 7468 d43c
000001c0: 6b60 b13a 01b8 e7bb 6ed0 113c 1733 7cbc
000001d0: 994a bb3c 88f7 e33b c8d9 443c abab 853b
000001e0: 8e6f 2e3c 339b 82bb 0e51 cbbc 68d7 e03b
000001f0: fa3c c03b 16f1 943b c2df c4bb 1e4f cf3c
00000200: 260c 3f3c 8741 0c3c 4246 c93b 5b62 14bb
00000210: d241 a3bb d721 973c f9c6 103d 6ca7 263c
00000220: ce9d 3f3c d2ba de3c 83bb b13b d797 4aba
00000230: 97c9 47bc 84dc aabb 29af 1d3d 87c8 1e3d
00000240: 3f33 c3ba abfa 8db8 d94a f63a 28ba 703b
00000250: d541 3eba 0337 723c d6f1 903a 5662 dc39
00000260: 1e73 62ba 9fd2 133d 6247 a73c a6ce f5bb
00000270: 3310 09bc ff00 833c 0973 e23c 9dc0 67ba
00000280: 8c6e a33c 8b04 1c3c 4daa 873a 3264 0e3c
00000290: d82d 3b3b a739 a4bc 7319 83bc 9c98 0e3c
000002a0: 8bdf 253c 1f1a 833b 2964 2d38 551a d83c
000002b0: 3281 6d3b a138 dfbc c57b 6ebb 3fd7 493a
000002c0: 65cd 613c 46b1 06bc 6f9b 84b9 742a 373c
000002d0: f970 4fbb 47b7 563b 235f 2d3c 7d96 bbba
000002e0: 5493 ffb8 da56 d13c eec2 013c d2a2 f6bb
000002f0: 1c87 d03c 9e41 f8bb 34e3 1d3d 0221 8a3a
00000300: f07d d63b 18b1 ccbb af6e a7ba fae1 583c
00000310: 8753 023c 3800 8d3a 45e6 8bbc 8bdf 643b
00000320: 016a 0f3d bd7b b2bb a32c c53c 28b5 50bc
00000330: afb8 c73b 4efa b03b d810 1cbb 84ca f5bb
00000340: 12d5 97bc 8082 153c a25d 3d3a daf7 a23c
00000350: 70c0 003d a143 843c 66df 863c be1d 963b
00000360: ebc9 83bb f16b a439 944f ccbb fd60 ad3c
00000370: 5e1a 52bc 2858 ea3b 7a43 b83b e6cb 783c
00000380: 566d 1e3c 725e 07bb c1f0 013c 7713 68bb
00000390: 6d5d 6b3b 9afe 433b 685a 073d 02d1 8cbb
000003a0: a5fd afbb 740f 5235 f599 9c3c 37bc 6c3b
000003b0: d0f3 fd3c da88 223d 3dd6 353c a30d 1c3c
000003c0: 5105 b93c 1dde 313c e5f7 c23b 8abc 543b
000003d0: db27 703b c605 773c a47a db3b 04c5 3e3a
000003e0: b29a 2f3b a248 98bc 5c72 e43c bb63 6a3c
000003f0: 49df 8d3b 2813 253b f9b7 353c 5977 ac3c

action_model._discrete_distribution.branches.0.weight f4 [2, 256]
-0.0009742075 -0.009929946 0.047315735 0.012327694 -0.002677451 0.031595424 -0.011634723 0.011272379
-0.005243877 -0.015061113 -0.005307178 -0.002754624 -0.0055237478 -0.005878142 -5.2577587e-05 -0.0004286323
0.03260261 -0.0016408071 -5.137763e-06 0.0021452727 0.03236823 -0.00948042 0.0087614395 0.0046634492
0.0016404517 0.014196681 0.032162618 0.029097559 0.024665873 0.017943578 -0.0034736902 0.005589106
-0.003192954 0.0011121318 0.002986545 -0.009444348 -0.00089095364 0.0058700982 0.011120875 -0.0020414551
-0.0030755901 -0.00095632125 0.00027492575 0.009342207 0.0085050035 -0.003819157 0.010141742 -0.005129086
0.0077893245 0.005627763 -0.007559208 -0.00093095895 -0.012343778 0.0037222041 -0.0069508436 0.00043706805
-0.0060971314 -0.034097612 -0.013904623 -0.0018639818 0.008770305 0.039871264 -0.0016792902 -0.007301263
-0.0015052168 0.0070147444 -0.018141333 0.013040202 -0.006311254 0.0020397038 -0.00070874824 -0.007277096
0.004477123 0.03693735 0.027337736 -0.009881849 -0.0198141 0.001393858 -0.022079678 -0.0009128715
-0.0053446502 -0.027716862 -0.017465463 0.011416442 0.003622734 -0.0112198545 0.017198099 0.009176742
-0.010949341 0.023083327 0.0019657605 0.0007510255 0.0072361236 -0.007056155 -0.002136125 -0.0065591796
0.002626368 0.012085717 0.0032132596 0.009359163 -0.016557759 0.026788568 -0.026592506 0.008233982
-0.022181971 -0.00090007787 -0.001855115 0.0041025374 0.028240629 -0.0001808124 -0.0002808547 0.019121148
-0.009922327 0.004916499 -0.025463685 -0.012142659 1.5254839e-05 -0.008388145 -0.027058937 -0.015245343
0.013115996 0.0027189755 -0.0078675235 0.019891426 0.019606236 0.007996028 -0.0029845822 0.015578226
-0.0061914744 0.02215527 -0.0050785504 -0.0021350812 -0.0026484572 0.0013323281 0.02920084 -0.02964166
-0.03185026 0.023285173 -0.009401566 -0.00062768377 0.0034006324 0.00865755 0.04346981 0.03374961
0.0019502868 -0.014302084 0.0074645164 -0.00823656 -0.0073242714 0.0059507913 -0.001364257 -0.005488367
0.0038253842 0.0172478 0.008858672 -0.00506855 0.007474729 0.01202253 0.017291479 0.003252218
-0.01706189 0.0050378083 -0.0024903512 -0.01502809 -0.006784596 0.0011844855 0.0041135116 -0.0022724066
-0.02061826 0.01555925 0.008445506 -0.0014805873 -0.011470214 -0.0025508476 -0.0027155583 0.0016034878
0.0324343 -0.0041566095 0.0051600337 0.016252475 0.011123098 0.01616294 -0.034652233 -0.0003364312
0.016168494 -0.03213539 0.0003189275 -0.00149831 0.014132598 0.0044427146 0.030779583 -0.0002945773
-0.0078263655 -0.004413312 0.007875002 -0.0067440397 0.015902113 0.00013569837 -0.015008431 -0.0076748673
0.035642274 -0.003859043 0.02963347 0.00014612774 -0.0140393 0.010281191 0.0076202583 0.0008085887
-0.0055435896 0.01803272 -0.0022126718 0.017552469 0.023785295 -0.03144601 0.010718222 0.0025435153
0.00078581326 0.0032357192 -5.3635606e-05 0.015294582 0.001449736 -0.021445462 0.00768735 -0.0085137235
-0.009398044 -0.0048780013 0.008840379 0.0033914396 -0.010561538 -0.004230603 0.03713234 -0.011674016
0.004212709 0.007993672 0.019982303 -0.011095994 0.03350741 0.035407823 -0.018649055 0.007235066
0.0015880516 0.012615784 -0.01620659 0.018556153 0.014667184 0.0026535774 -0.023491912 0.0003546834
0.006529425 -0.0006004155 0.020735802 0.006243652 0.005922077 -0.006368829 -0.0056603826 0.02012219
00000000: f561 7fba 36b1 22bc 25ce 413d 19fa 493c
00000010: 2c78 2fbb 346a 013d 919f 3ebc c9af 383c
00000020: d4d4 abbb e3c2 76bc d6e7 adbb ec86 34bb
00000030: 8e00 b5bb 6e9d c0bb c186 5cb8 0eba e0b9
00000040: 508a 053d 5a10 d7ba 0c65 acb6 b497 0c3b
00000050: 8d94 043d c353 1bbc 248c 0f3c d9cf 983b
00000060: 6d04 d73a 3299 683c f3bc 033d 015e ee3c
00000070: 1610 ca3c 69fe 923c daa6 63bb d224 b73b
00000080: e140 51bb f3c4 913a e9b9 433b 77bc 1abc
00000090: e38e 69ba f459 c03b 5534 363c efc9 05bb
000000a0: d78f 49bb a2b1 7aba e923 9039 0e10 193c
000000b0: 9258 0b3c d24a 7abb 8d29 263c e411 a8bb
000000c0: 973d ff3b 1969 b83b 3cb3 f7bb 990b 74ba
000000d0: 8f3d 4abc 39f0 733b e7c3 e3bb 4826 e539
000000e0: 72ca c7bb f0a9 0bbd 37d0 63bc da50 f4ba
000000f0: 53b1 0f3c 0d50 233d a11b dcba 6f3f efbb
00000100: b24a c5ba f1db e53b 229d 94bc 92a6 553c
00000110: a3ce cebb 8dac 053b 4acb 39ba b574 eebb
00000120: d4b4 923b 9e4b 173d 63f3 df3c 7be7 21bc
00000130: 2e51 a2bc 1db2 b63a 71e0 b4bc c54d 6fba
00000140: 2d22 afbb 790e e3bc bb13 8fbc 070c 3b3c
00000150: 646b 6d3b 7bd3 37bc 07e3 8c3c 0c5a 163c
00000160: dd64 33bc 3f19 bd3c fdd3 003b 78e0 443a
00000170: 011d ed3b 5137 e7bb 3bfe 0bbb 63ee d6bb
00000180: 251f 2c3b 2c03 463c 8d95 523b 2d57 193c
00000190: 23a4 87bc b373 db3c 87d8 d9bc d3e7 063c
000001a0: f7b6 b5bc 34f3 6bba 5527 f3ba 946e 863b
000001b0: e458 e73c 7698 3db9 ae3f 93b9 f4a3 9c3c
000001c0: 4191 22bc 951a a13b 3899 d0bc 01f2 46bc
000001d0: 09ef 7f37 6e6e 09bc b4aa ddbc 9ac7 79bc
000001e0: 79e4 563c d730 323b c9e6 00bc 58f3 a23c
000001f0: 429d a03c c601 033c fb98 43bb d13b 7f3c
00000200: dae1 cabb f87e b53c f869 a6bb b8ec 0bbb
00000210: bd91 2dbb 83a1 ae3a 9a36 ef3c 11d3 f2bc
00000220: 6b75 02bd 8cc0 be3c 0709 1abc 258b 24ba
00000230: 25dd 5e3b 66d8 0d3c 660d 323d 083d 0a3d
00000240: c4a0 ff3a 4a53 6abc e798 f43b a3f2 06bc
00000250: 7100 f0bb dbfe c23b ded0 b2ba c2d7 b3bb
00000260: 4cb3 7a3b 424b 8d3c f723 113c 1416 a6bb
00000270: 92ee f43b 25fa 443c dca6 8d3c 2a23 553b
00000280: 60c5 8bbc 3314 a53b 2935 23bb 6138 76bc
00000290: 5151 debb bd40 9b3a a3ca 863b a8ec 14bb
000002a0: a0e7 a8bc 39ec 7e3c 055f 0a3c 4410 c2ba
000002b0: 91ed 3bbc 1f2c 27bb 82f7 31bb 1f2c d23a
000002c0: d4d9 043d 2b34 88bb 8015 a93b e923 853c
000002d0: a83d 363c 2468 843c 80ef 0dbd 0863 b0b9
000002e0: ca73 843c 66a0 03bd b935 a739 f162 c4ba
000002f0: 6a8c 673c 3194 913b 7725 fc3c 7f71 9ab9
00000300: 283a 00bc 8b9d 90bb 2706 013c 1bfd dcbb
00000310: 2645 823c 414a 0e39 ece5 75bc 747d fbbb
00000320: a2fd 113d ffe7 7cbb e4c1 f23c de39 1939
00000330: 1805 66bc 7172 283c 5cb3 f93b 78f7 533a
00000340: 00a7 b5bb 5bb9 933c 7902 11bb 32ca 8f3c
00000350: 61d9 c23c 88cd 00bd 7b9b 2f3c 1bb1 263b
00000360: 09ff 4d3a 5c0e 543b cbf6 60b8 2096 7a3c
00000370: 1105 be3a 65ae afbc 2ae6 fb3b 257d 0bbc
00000380: 41fa 19bc a4d7 9fbb 3dd7 103c ea42 5e3b
00000390: 4d0a 2dbc dfa0 8abb 1518 183d 5f44 3fbc
000003a0: c40a 8a3b e4f7 023c edb1 a33c f9cb 35bc
000003b0: 113f 093d cb07 113d e7c5 98bc 2214 ed3b
000003c0: 2b26 d03a 6fb2 4e3c afc3 84bc 1303 983c
000003d0: a14e 703c a4e7 2d3b 1c72 c0bc cdf4 b939
000003e0: c9f4 d53b 3465 1dba 21de a93c 8d97 cc3b
000003f0: fc0d c23b 9cb1 d0bb bb7a b9bb 4ad7 a43c

action_model._discrete_distribution.branches.0.bias f4 [2]
0.00017306059 -0.00017305955
00000000: 9977 3539 5277 35b9

action_model._discrete_distribution.branches.1.weight f4 [3, 256]
0.0057109804 0.0070810146 -0.005861552 -0.0020131313 0.004449111 0.0067487154 -0.003206222 -0.0061036632
0.011273156 -0.00021443692 -0.005082417 0.003917881 0.009645021 -0.009516911 0.004403248 -0.018063093
0.012928302 0.00071473996 -0.015464897 0.0038839772 -0.0015357235 -0.008862843 0.005063351 0.011090447
0.0034937179 -0.0045841513 -0.005396001 -0.0012710685 -0.0038441583 0.012710063 -0.0027762651 0.0016278458
-0.0053608236 -0.017855363 -0.004266493 0.012081984 -0.0046742493 -0.007838377 -0.0075103827 0.00774625
-0.005618942 0.003621508 0.0019631614 -0.0018564082 0.00055296253 0.01330214 -0.009395644 0.0035626087
-0.0042131655 0.002778463 -0.0051557007 -0.00036479384 -0.011929012 0.022535827 -0.00043653103 -0.0022100573
-0.011841222 0.0045852563 0.0025426429 0.008447061 0.0076273503 0.0042593074 -0.004437084 0.0056958627
-0.0059342817 -0.002180952 -0.00077778654 0.0033091505 -0.0072638625 -0.009333322 -0.024873776 0.00024322628
0.0006492848 -0.010411053 -0.0030527113 -0.019383749 0.0045903157 0.00082298747 0.0016154997 -0.0032261822
-0.0039010711 0.015013115 -0.0034358206 -0.005536013 0.010313369 0.014205892 -0.013749443 0.017113814
-0.00016277775 0.0015957605 -0.014468751 -0.00035548155 -0.0120127825 -0.005364047 0.0066528004 0.0002720842
0.00094513973 -0.010611267 -0.002417048 0.0019118675 -0.01872862 -0.001888099 -0.0062436126 0.00072427525
-0.008598378 -0.004539525 -0.0058076736 0.0014569059 -0.0028315375 0.011483865 -0.004375442 0.0076582124
-0.0015244025 -0.00071481825 -0.0073525626 0.0005027911 -0.00074177765 -0.009120238 -0.004189723 0.008688136
-0.014576574 0.0020604667 0.0005010002 -0.000997149 -0.018922964 0.0015853109 0.005478148 -0.014925944
0.0010586269 -0.00019880103 0.0023823911 -0.007136882 0.000915423 -0.0037937653 0.014312967 -0.015478824
-0.0035521945 -0.014871269 -0.0061691673 -0.0067017283 0.003968956 -0.0007905649 0.0041638897 -0.020190887
-0.0041337283 0.000731321 0.0051773624 -0.0021806494 0.015297311 6.481952e-05 -0.00023123398 -0.0019340483
0.0031628823 -0.008640179 -0.010793908 -0.002483256 0.0023489704 0.023237264 -0.00055731 -0.0038061154
0.0021845333 -0.00029454424 0.0045202957 -0.020185286 0.0012623613 -0.020086797 -0.004801448 -0.0059007187
0.013490661 -0.0047217235 0.009562567 -0.009380207 -0.0062328 -0.004963347 0.010102545 0.0051015266
0.0041107936 -0.002611958 -0.002901843 -0.00093127304 -0.0018191746 0.0073516984 0.006296637 -0.013079802
-0.0046668267 -0.006018826 -0.0147782685 0.005237571 0.009937146 -0.00096039433 0.01824451 0.0014545355
-0.001364179 -0.0036207833 0.006447517 0.0020715834 -0.0032847307 -0.010526148 -0.0013658587 -0.011883183
0.010923541 -0.008061759 0.00053472817 0.0054975417 -0.015045254 -0.0034754314 -0.0053229425 0.009001583
-0.018415172 -0.012491639 -0.0013445813 -0.011446102 0.013362892 -0.0021605124 0.010311179 0.0071126507
-0.0041529 0.0073314914 -0.00043815593 0.012143653 0.0077824704 -0.005937796 -0.016440025 -0.008927243
-0.004887322 0.008025115 0.0017067158 0.0037043116 -0.0020680507 0.00349281 0.008258329 0.0062223277
-0.003464341 0.00036575834 0.021076111 -0.001532669 -0.001363948 0.017498061 -0.0034536174 -0.014028046
-0.013886096 -0.012866267 -0.00469427 0.0056724506 0.004073488 0.009016988 0.031321872 -0.0057343696
-0.008453441 -0.003753358 -0.010677659 0.0037149894 0.0070650247 -0.005725078 -0.02219265 0.016429786
00000000: 2d23 bb3b db07 e83b 4312 c0bb bdee 03bb
00000010: d9c9 913b 5424 dd3b 7b1f 52bb 3d01 c8bb
00000020: 0bb3 383c 79da 60b9 678a a6bb 9161 803b
00000030: 2606 1e3c d1ec 1bbc 1f49 903b 0df9 93bc
00000040: 3bd1 533c 635d 3b3a 7b60 7dbc 538a 7e3b
00000050: 544a c9ba 7535 11bc 77ea a53b b5b4 353c
00000060: dcf6 643b a636 96bb f0d0 b0bb fb99 a6ba
00000070: 46ee 7bbb de3d 503c 00f2 35bb 715d d53a
00000080: d9a9 afbb 6945 92bc f0cd 8bbb 84f3 453c
00000090: 722a 99bb 896c 00bc a819 f6bb 41d4 fd3b
000000a0: 1a1f b8bb d256 6d3b 62a8 003b b952 f3ba
000000b0: b0f4 103a 38f1 593c 30f0 19bc a87a 693b
000000c0: 980e 8abb e016 363b 27f1 a8bb cd41 bfb9
000000d0: e771 43bc 0e9d b83c 34de e4b9 9cd6 10bb
000000e0: af01 42bc eb3f 963b 78a2 263b 8b65 0a3c
000000f0: daee f93b a991 8b3b f564 91bb 5ca4 ba3b
00000100: 5d74 c2bb 4eee 0ebb 5fe4 4bba 55de 583b
00000110: b205 eebb caea 18bc 17c4 cbbc 8f0a 7f39
00000120: c434 2a3a 1f93 2abc ff0f 48bb abca 9ebc
00000130: 5c6a 963b c1bd 573a 2dbf d33a 5b6e 53bb
00000140: 1da9 7fbb 91f9 753c 812b 61bb 7167 b5bb
00000150: 68f9 283c d4bf 683c 5845 61bc 4532 8c3c
00000160: 52af 2ab9 d628 d13a 570e 6dbc ed5f bab9
00000170: 43d1 44bc e3c4 afbb bcff d93b 86a6 8e39
00000180: 41c3 773a e1da 2dbc 5667 1ebb a197 fa3a
00000190: c36c 99bc 177a f7ba 3897 ccbb 4add 3d3a
000001a0: 36e0 0cbc 4cc0 94bb 4c4e bebb a6f5 be3a
000001b0: 5191 39bb d226 3c3c de5f 8fbb bef1 fa3b
000001c0: 76ce c7ba a462 3bba c4ed f0bb bdcd 033a
000001d0: db73 42ba 0d6d 15bc f249 89bb af58 0e3c
000001e0: 95d2 6ebc e508 073b 8e55 033a c5b2 82ba
000001f0: 5504 9bbc 35ca cf3a 0982 b33b f28b 74bc
00000200: a0c1 8a3a 3f75 50b9 e421 1c3b 81dc e9bb
00000210: fff8 6f3a d2a0 78bb ef80 6a3c e59a 7dbc
00000220: efcb 68bb a0a6 73bc ba26 cabb 2c9a dbbb
00000230: 040e 823b ea3d 4fba 3d71 883b 5c67 a5bc
00000240: 3a74 87bb 1fb6 3f3a dda6 a93b 3ae9 0ebb
00000250: 93a1 7a3c b7ef 8738 6677 72b9 e47f fdba
00000260: 5c48 4f3b 8a8f 0dbc eed8 30bc 1fbe 22bb
00000270: 2ff1 193b 135c be3c 7118 12ba 0570 79bb
00000280: 632a 0f3b 0f6d 9ab9 fd1e 943b 9d5b a5bc
00000290: d175 a53a 118d a4bc 7755 9dbb d15a c1bb
000002a0: ef07 5d3c b0b8 9abb 50ac 1c3c 71af 19bc
000002b0: 843c ccbb 93a3 a2bb 2585 253c b52a a73b
000002c0: d6b3 863b 622d 2bbb d92c 3ebb ad20 74ba
000002d0: 5f71 eeba 84e6 f03b 0554 ce3b aa4c 56bc
000002e0: 2eec 98bb 9239 c5bb 8d20 72bc ee9f ab3b
000002f0: 69cf 223c f9c2 7bba 8375 953c 1da6 be3a
00000300: 40ce b2ba aa4a 6dbb b145 d33b 67c3 073b
00000310: a344 57bb dd75 2cbc 9d06 b3ba afb1 42bc
00000320: a7f8 323c 7815 04bc 002d 0c3a b924 b43b
00000330: 5e80 76bc 10c4 63bb 146c aebb 607b 133c
00000340: 6adb 96bc bba9 4cbc a93c b0ba 6e88 3bbc
00000350: 08f0 5a3c 6297 0dbb 38f0 283c 3d11 e93b
00000360: 0d15 88bb 023d f03b 4bb8 e5b9 2cf6 463c
00000370: 1804 ff3b d891 c2bb 3bad 86bc 9243 12bc
00000380: d425 a0bb c67b 033c e1b3 df3a 09c4 723b
00000390: 2288 07bb a1e7 643b f14d 073c abe4 cb3b
000003a0: ff09 63bb 41c3 bf39 cfa7 ac3c d6e3 c8ba
000003b0: 80c6 b2ba 1858 8f3c 1656 62bb e4d5 65bc
000003c0: 8282 63bc 09cd 52bc 64d2 99bb f7df b93b
000003d0: e57a 853b fdbb 133c 5d4b 003d 61e7 bbbb
000003e0: 4d80 0abc e6fa 75bb 59f1 2ebc 2e77 733b
000003f0: b981 e73b 6f99 bbbb 5ccd b5bc c297 863c

action_model._discrete_distribution.branches.1.bias f4 [3]
-0.0030076427 -0.0017833052 0.0043978505
00000000: df1b 45bb cbbd e9ba d81b 903b

action_model._discrete_distribution.branches.2.weight f4 [2, 256]
0.0057563465 0.008123891 0.010770379 -0.0156715 -0.0011262074 -0.00019631574 0.014997659 0.00036410068
0.00018294567 -0.0050768154 0.0002309923 0.007824028 -0.0057598054 -0.0019791706 -0.019844094 0.0024555777
0.009832377 0.008503627 -0.005283424 -0.008040392 0.02756658 -0.015009012 0.008407298 0.00048022598
-0.0019599332 -0.004909104 0.0010661938 0.019464439 -0.010951269 -0.0059291325 0.009505128 -0.0028149579
0.0009878243 -0.010578704 -0.0069715073 0.006815266 -0.0036822446 -0.006799052 -0.003962053 0.0054567214
-0.007152022 0.0054866313 -0.00089838676 0.006685802 0.00149793 0.005738595 -0.008761189 -0.0083728675
0.00037100012 0.013750465 -0.01639588 -0.0018928731 -0.008608692 0.014084177 -0.00492597 0.0060652657
-0.011281209 -0.012853003 0.0019225487 0.0009086432 -0.010554839 0.030970637 -0.0035898294 0.00057345873
-0.0020902522 -0.0019062113 -0.008108729 0.0109109655 -0.00062947936 -0.0066307476 -0.012588569 0.0043415595
0.0057542995 0.009717077 0.009654433 -0.017581336 0.00038427504 0.0055084312 -0.005886694 0.0008032286
0.0038851418 0.0034774246 0.009632857 -0.006691673 0.0201657 0.006423975 0.006857772 -0.009954891
0.0070807557 -0.002569829 -0.010020758 -0.0012876549 -0.0032187328 -0.0026498695 0.00815375 0.00081117725
-0.0077151903 0.0051174946 -0.004055913 0.015797332 -0.02261798 0.0130239455 -0.018580034 -0.005822627
-0.01762194 -0.01400569 -0.0059533524 -0.004865904 0.0020047089 0.011172619 0.00783017 0.021282287
-0.004938878 0.017478136 -0.006382656 0.0012128897 -0.010797698 -0.008509544 -0.019555267 -7.375381e-05
-0.011728957 -0.0049654404 0.005932922 0.016344447 -0.00053690537 -0.0046909796 0.0012657632 0.029655555
-0.00091967307 0.014431988 -0.005596496 -0.008569583 0.007978912 -0.020331584 0.013995004 -0.014613608
-0.012501633 0.01707967 -0.016372548 -0.0011770161 0.006719934 -0.0010078984 0.022778716 0.0074945837
0.005808421 -0.0035564045 -0.0145198535 -0.005500212 0.020292552 -0.015093477 -0.007122558 0.0066973353
-0.003717406 0.010865346 -0.0029292188 0.0055787386 -0.0044071283 0.0007950339 0.021886848 0.0067388476
-0.00794108 0.0045711803 0.010865856 -0.021507865 -0.0040373956 0.0014430649 0.0020378104 -0.008201079
0.0061446046 0.021932948 0.0020756286 0.0009886597 -0.00088847085 -0.0048577692 0.0066711726 -0.0069759088
0.0040866677 -0.0018955491 -0.006005841 -0.0007399121 -0.00043476588 -0.0046960684 0.0023120893 -0.0032633233
0.0015700536 -0.009908387 -0.0079888515 0.0038860382 0.017513558 0.00060103845 0.027578626 0.0001853243
0.00068078074 -0.0041155387 -0.0049257516 -0.005969682 0.013387387 -0.005150737 0.009961937 0.00539401
0.026081067 0.009612289 0.017033087 0.0030748264 -0.011767513 0.0027215022 -0.00048411355 0.007987733
0.0047678226 -0.020797752 -0.0018619582 -0.0059720716 0.027242662 -0.007843821 0.0108325565 0.0030668285
-0.004125232 0.007426548 -0.014118552 0.010871995 0.005265281 -0.0029864875 -0.020269815 -0.011864419
-0.008091741 -0.0023499301 -0.001642512 -0.00235486 -0.0067750267 -0.00064396346 0.028132401 0.0022236512
-0.0037264056 -0.000588537 0.0030350029 -0.0038014294 0.036224216 0.017879045 0.00023530578 -0.011782538
0.00392615 -0.0011811703 -0.0036022842 0.0051798094 0.0013612171 0.011643413 0.013765001 -0.009057761
0.0040620496 -0.007710676 0.013393544 0.021941368 0.019080805 -0.00066795223 -0.015490814 0.016733328
00000000: bc9f bc3b 121a 053c 3e76 303c 8461 80bc
00000010: 409d 93ba 1bda 4db9 beb8 753c c4e4 be39
00000020: 1bd5 3f39 6a5b a6bb 8636 7239 5a30 003c
00000030: c0bc bcbb f9b4 01bb 1590 a2bc c2ed 203b
00000040: fa17 213c cc52 0b3c 9320 adbb d9bb 03bc
00000050: 4fd3 e13c 5ce8 75bc c3be 093c d7c6 fb39
00000060: 3972 00bb 8ddc a0bb 87bf 8b3a e373 9f3c
00000070: f46c 33bc 2b49 c2bb 65bb 1b3c 287b 38bb
00000080: e279 813a 4d52 2dbc 3e71 e4bb 9852 df3b
00000090: d051 71bb 95ca debb 1cd4 81bb 4cce b23b
000000a0: 825b eabb 33c9 b33b b781 6bba 9214 db3b
000000b0: 3156 c43a d30a bc3b 178b 0fbc 5a2e 09bc
000000c0: cb82 c239 a149 613c a750 86bc 481a f8ba
000000d0: 790b 0dbc 52c1 663c 086a a1bb 23bf c63b
000000e0: d2d4 38bc 6795 52bc 08fe fb3a 0332 6e3a
000000f0: 34ee 2cbc 22b6 fd3c 5843 6bbb 2a54 163a
00000100: 9dfc 08bb d6d9 f9ba 79da 04bc e8c3 323c
00000110: a503 25ba be46 d9bb 4940 4ebc a443 8e3b
00000120: 908e bc3b 6034 1f3c a02d 1e3c bc06 90bc
00000130: 8678 c939 1280 b43b 2be5 c0bb c28f 523a
00000140: dd9d 7e3b 81e5 633b 21d3 1d3c d245 dbbb
00000150: 8a32 a53c 3580 d23b 29b7 e03b d719 23bc
00000160: af05 e83b 946a 28bb 1b2e 24bc 87c6 a8ba
00000170: 60f1 52bb 6fa9 2dbb 4e97 053c 2fa5 543a
00000180: b5cf fcbb a8b0 a73b 77e7 84bb 6869 813c
00000190: 5849 b9bc 6362 553c 2835 98bc bccb bebb
000001a0: e35b 90bc 1f78 65bc 5714 c3bb 2972 9fbb
000001b0: 6f61 033b 5c0d 373c 1d4a 003c 3158 ae3c
000001c0: 50d6 a1bb 4f2e 8f3c 9925 d1bb d3f9 9e3a
000001d0: d4e8 30bc 9d6b 0bbc 5e32 a0bc 46ac 9ab8
000001e0: d02a 40bc 22b5 a2bb f568 c23b cae4 853c
000001f0: 1cbf 0cba cab6 99bb f7e7 a53a 35f0 f23c
00000200: 3716 71ba 2574 6c3c d062 b7bb 7067 0cbc
00000210: fcb9 023c 6c8e a6bc 4d4b 653c ea6d 6fbc
00000220: a6d3 4cbc aaea 8b3c b91f 86bc 1b46 9aba
00000230: e432 dc3b 751b 84ba 6e9a ba3c 2095 f53b
00000240: 9154 be3b 9112 69bb aee4 6dbc 1f3b b4bb
00000250: 913c a63c a24a 77bc 5964 e9bb 5275 db3b
00000260: b99f 73bb 9004 323c 23f8 3fbb dacd b63b
00000270: ac69 90bb d269 503a 0c4c b33c 8dd1 dc3b
00000280: 4e1b 02bc d7c9 953b b406 323c 4331 b0bc
00000290: 214c 84bb 3925 bd3a c98c 053b d25d 06bc
000002a0: ae58 c93b baac b33c 4507 083b ea95 813a
000002b0: 45e8 68ba ec2d 9fbb da99 da3b 2a96 e4bb
000002c0: 74e9 853b 1374 f8ba a5cc c4bb a9f6 41ba
000002d0: 4af1 e3b9 7ae1 99bb 6c86 173b 7bdd 55bb
000002e0: 42ca cd3a ca56 22bc ace3 02bc e7ac 7e3b
000002f0: 9878 8f3c 028f 1d3a 92ec e13c 9d53 4239
00000300: 6c76 323a a4db 86bb 3368 a1bb 529d c3bb
00000310: c556 5b3c 83c7 a8bb 6437 233c 3cc0 b03b
00000320: f6a7 d53c dd7c 1d3c f988 8b3c 0783 493b
00000330: 87cc 40bc 3b5b 323b 9fd0 fdb9 fbde 023c
00000340: 653b 9c3b 0c60 aabc f30c f4ba 5eb1 c3bb
00000350: 012c df3c 5f83 00bc 097b 313c d8fc 483b
00000360: f42c 87bb 665a f33b 8051 67bc 7420 323c
00000370: 6188 ac3b f2b8 43bb e20c a6bc fb62 42bc
00000380: 3993 04bc 4901 1abb 8f49 d7ba ff53 1abb
00000390: 0b01 debb a8cf 28ba ec75 e63c adba 113b
000003a0: b636 74bb 0d48 1aba e6e6 463b 6721 79bb
000003b0: d85f 143d 1377 923c 6abc 7639 8c0b 41bc
000003c0: efa6 803b 80d1 9aba 4d14 6cbb 64bb a93b
000003d0: de6a b23a 04c4 3e3c 9986 613c 0167 14bc
000003e0: f11a 853b d7a9 fcbb 9870 5b3c 62be b33c
000003f0: 594f 9c3c 8419 2fba 2fcd 7dbc 5514 893c

action_model._discrete_distribution.branches.2.bias f4 [2]
-0.0004245397 0.00042453696
00000000: c194 deb9 6394 de39
