results/boat-agent-border-allowed/boat/boat-1000037.onnx (onnx, 328993 bytes, 11 tensors)

discrete_act_size_vector f4 [1, 3]
2.0 3.0 2.0
00000000: 0000 0040 0000 4040 0000 0040

network_body._body_endoder.seq_layers.0.weight f4 [256, 47]
-0.026834324 0.15919963 0.1411994 0.38202685 -0.05811065 -0.012599388 -0.19105965 -0.047207583
-0.16126706 -0.03058592 0.033144597 0.12810037 0.08122099 0.103416376 -0.10692919 0.06919768
0.281029 -0.03201067 0.079185985 -0.017446324 -0.032250617 0.14990357 0.02167684 0.026745312
-0.13575788 0.121187694 -0.010181017 0.10182638 0.07187496 -0.13065372 0.15868999 0.32814574
0.23281595 0.015828114 -0.061408237 -0.0921597 0.01691546 -0.071213014 -0.073658906 -0.1224164
-0.2234208 -0.13818668 0.092447914 0.16519047 0.12622336 -0.20148656 0.072798185 -0.009446227
-0.0063029584 0.05488853 0.015393568 0.18969652 0.013543457 0.030911125 -0.034306966 0.15204708
-0.16109744 -0.31098655 0.11237921 -0.07520086 0.21539515 0.16764358 -0.023925764 0.015353432
-0.37324876 0.19711475 -0.055960614 0.036264647 -0.04875351 0.06188508 -0.114000596 0.26277915
-0.049022675 0.17991258 0.22613238 0.011087466 0.080138005 -0.11402594 -0.059534106 0.028528433
0.18127832 -0.02013544 0.26020756 -0.2659309 0.09863472 -0.0040844106 -0.054404885 0.07820877
-0.018603496 -0.14481202 0.26316866 0.05989906 0.06576007 0.06361893 -0.0035640069 -0.07638285
-0.11889867 0.054394472 0.4072555 0.0056015756 -0.0056604086 0.1327941 0.17549032 -0.001981643
0.24457814 -0.011931585 0.016809318 -0.0649034 0.3022802 -0.007832506 0.1241859 0.16944233
0.1073557 -0.056581326 0.17059538 0.006556581 -0.2692898 0.2247311 0.18515445 0.05212067
-0.057184238 0.026910754 -0.18426456 -0.016776701 0.18280289 0.111765824 0.18125866 -0.034941245
-0.088802144 -0.24464133 0.060507465 -0.06211262 -0.20333439 0.01683146 0.34420693 0.090617575
-0.08682927 -0.04901499 -0.04203606 0.23444018 -0.08296407 -0.011878781 0.14190887 0.18095577
-0.29148668 0.052814886 0.2647626 -0.16180849 0.23229784 -0.23607427 0.23066229 -0.020202136
-0.038583614 -0.10211858 0.11775981 0.14895572 -0.027581647 0.011624941 -0.1246792 0.027429048
0.3912861 -0.15081239 0.13934495 0.096545294 -0.05535639 -0.18393236 -0.13455692 0.39154965
0.2366365 -0.17678122 0.0707503 -0.1844465 -0.12650722 -0.16794921 -0.015189843 0.09584893
-0.15075925 -0.16715184 0.06237794 0.24552025 0.00016852081 0.28029302 0.03090599 -0.2334406
-0.097852245 -0.10218796 -0.17484197 0.0009413509 -0.15249352 0.03246102 -0.25078467 -0.009689421
-0.31674877 -0.059952997 -0.24732144 -0.20465446 -0.030995222 0.07526843 -0.27571312 -0.017512681
-0.0017641205 -0.050451655 0.22397223 -0.034386277 -0.24536218 0.045233283 0.025602387 -0.21044205
0.14543085 -0.007873857 -0.031691886 -0.0741615 0.1016668 0.03701911 0.1430258 0.023729032
-0.129021 0.1338752 0.18303242 0.042262997 0.087677106 0.078314066 -0.046314508 -0.26928535
-0.15214445 -0.1194471 0.24261655 0.060186923 0.29799038 0.112416245 0.013515395 -0.10186409
-0.28955692 -0.22684616 -0.09163423 -0.078826316 -0.27928463 -0.15454865 -0.07896154 0.13510382
-0.12573527 0.17886719 0.22262955 0.047004092 0.21031477 -0.20019636 -0.08797982 -0.13345785
-0.075062685 0.28227335 -0.15885939 0.25312215 0.14406213 0.07563933 -0.10203587 -0.011145268
00000000: a8d3 dbbc 3a05 233e 9396 103e 0699 c33e
00000010: 6f05 6ebd aa6d 4ebc 24a5 43be bd5c 41bd
00000020: 3123 25be 538f fabc a1c2 073d be2c 033e
00000030: 3157 a63d f7cb d33d b1fd dabd 83b7 8d3d
00000040: 08e3 8f3e 9f1d 03bd 432c a23d 98eb 8ebc
00000050: 3919 04bd 5280 193e a193 b13c fc18 db3c
00000060: 1d04 0bbe 4131 f83d 48ce 26bc 598a d03d
00000070: 2e33 933d 17ca 05be a17f 223e b802 a83e
00000080: 4e67 6e3e f6a9 813c 3487 7bbd 3abe bcbd
00000090: 4a92 8a3c 21d8 91bd 7bda 96bd 73b5 fabd
000000a0: 6cc8 64be cf80 0dbe 5555 bd3d b127 293e
000000b0: b240 013e 7e52 4ebe 3717 953d 59c4 1abc
000000c0: 0c89 cebb ccd2 603d 4e35 7c3c ce3f 423e
000000d0: 60e5 5d3c 5439 fd3c 7685 0cbd 3bb2 1b3e
000000e0: baf6 24be a139 9fbe 1227 e63d e902 9abd
000000f0: 8c90 5c3e c2aa 2b3e f7ff c3bc f68c 7b3c
00000100: 761a bfbe 73d8 493e f536 65bd 3d8a 143d
00000110: c3b1 47bd 367b 7d3d 2579 e9bd fd8a 863e
00000120: 00cc 48bd 013b 383e 3f8f 673e 34a8 353c
00000130: 651f a43d 6f86 e9bd 09da 73bd 76b4 e93c
00000140: 06a1 393e 14f3 a4bc ed39 853e 1828 88be
00000150: 0001 ca3d 85d6 85bb a8d7 5ebd eb2b a03d
00000160: 5c66 98bc 9a49 14be 0bbe 863e b758 753d
00000170: 37ad 863d a44a 823d 1d92 69bb 9d6e 9cbd
00000180: 2581 f3bd bdcc 5e3d cb83 d03e 6c8d b73b
00000190: f37a b9bb 2dfb 073e bcb3 333e 74de 01bb
000001a0: b172 7a3e b27c 43bc b2b3 893c 13ec 84bd
000001b0: 78c4 9a3e e953 00bc 2d55 fe3d 4a82 2d3e
000001c0: 4edd db3d d2c1 67bd 8eb0 2e3e 96d8 d63b
000001d0: 5ae0 89be e91f 663e 2199 3d3e 7c7c 553d
000001e0: 053a 6abd f173 dc3c d9af 3cbe 4b6f 89bc
000001f0: ae30 3b3e 7be5 e43d df9b 393e 8d1e 0fbd
00000200: e6dd b5bd 4283 7abe add6 773d cd69 7ebd
00000210: e436 50be 21e2 893c e43b b03e b595 b93d
00000220: 8bd3 b1bd f1c3 48bd 012e 2cbd 1611 703e
00000230: 11e9 a9bd 389f 42bc 8f50 113e 784c 393e
00000240: be3d 95be 6c54 583d f78e 873e 20b1 25be
00000250: 7cdf 6d3e 74bd 71be bc32 6c3e f37e a5bc
00000260: da09 1ebd 8c23 d1bd 0e2c f13d d987 183e
00000270: e8f2 e1bc 8976 3e3c cf57 ffbd e2b2 e03c
00000280: a756 c83e 906e 1abe 71b0 0e3e 8ab9 c53d
00000290: 62bd 62bd c458 3cbe 4ac9 09be 3279 c83e
000002a0: d750 723e 2306 35be 89e5 903d 8bdf 3cbe
000002b0: 1c8b 01be e1fa 2bbe d2de 78bc 724c c43d
000002c0: a260 1abe da29 2bbe 0380 7f3d a969 7b3e
000002d0: f6b4 3039 9182 8f3e 8f2e fd3c 0d0b 6fbe
000002e0: c266 c8bd ec47 d1bd c609 33be fdc4 763a
000002f0: 4327 1cbe d9f5 043d d966 80be 61c0 1ebc
00000300: e52c a2be 4691 75bd d541 7dbe f090 51be
00000310: b1e9 fdbc 5626 9a3d 452a 8dbe c176 8fbc
00000320: 103a e7ba 65a6 4ebd fa58 653e a0d8 0cbd
00000330: 3940 7bbe 8946 393d 19bc d13c 1f7e 57be
00000340: d3eb 143e 5a01 01bc 5acf 01bd fce1 97bd
00000350: af36 d03d 5aa1 173d 5b75 123e 6363 c23c
00000360: 151e 04be 9516 093e da6c 3b3e f71b 2d3d
00000370: 0e90 b33d 2063 a03d 48b4 3dbd c5df 89be
00000380: c1cb 1bbe aea0 f4bd 7970 783e 9086 763d
00000390: 3292 983e 7d3a e63d ad6f 5d3c 1f9e d0bd
000003a0: ce40 94be 5c4a 68be baaa bbbd b16f a1bd
000003b0: 65fe 8ebe 0042 1ebe 96b6 a1bd a858 0a3e
000003c0: bfc0 00be f628 373e 00f9 633e 5d87 403d
000003d0: c15c 573e 4600 4dbe c42e b4bd 2da9 08be
000003e0: 77ba 99bd 2286 903e 09ac 22be 3a99 813e
000003f0: 0685 133e cbe8 9a3d 2ff8 d0bd a49a 36bc

network_body._body_endoder.seq_layers.0.bias f4 [256]
-0.0071707377 0.01100482 0.040926475 0.0048350673 -0.027171431 -0.006463569 0.011714859 -0.024183089
0.028778207 0.0023099505 -0.0039404933 0.031671908 0.0013343276 0.0007632982 0.0041578966 0.031862047
0.0072948146 0.025793418 0.0053721983 -0.002840713 -0.032668345 0.006627345 0.028474638 -0.005722191
-0.006599222 -0.019556833 7.958179e-05 -0.0021144967 -0.0014026446 -0.0035540655 -0.0012431146 -0.0025318624
0.0033152108 0.0045836777 0.0072238618 -0.0012294892 -0.012333744 -0.002729663 -0.0017637515 0.013174385
-0.012331707 0.009823317 0.0005360568 -0.0017699425 -0.034209717 0.0033351965 -0.00061825686 -2.8127182e-05
0.03529023 0.030359657 -0.010854895 0.01181558 0.003653554 0.062476803 0.012921754 -0.0060038753
-0.0021337154 0.006767966 -0.005073648 0.00027507398 0.0041133054 -0.008444689 -0.0023967135 0.036207087
-0.0120752035 -0.0025226402 0.028727965 0.03640267 0.046683583 -0.043091744 -0.0024396088 0.020051923
0.025962345 -0.034315813 0.008105075 0.01054224 0.011789012 0.0054295845 -0.0041995356 -0.009479954
0.009024829 -0.03201193 -0.010255136 0.0402686 -0.004170654 -0.0026654312 -0.020945404 -0.00809435
0.002187538 -0.03102677 -0.019034224 -0.0032185544 -0.011402054 -0.01902851 0.006068933 -0.008555621
0.014780646 0.00082479446 -0.01105249 0.012197913 0.0065898593 0.0025209575 -0.0034361756 0.02422909
-0.028810874 -0.012247795 -0.0026178472 0.035865534 -0.0031476247 0.016706262 -0.008876327 0.0037122434
-0.027205816 -0.035383064 0.04690584 -0.0071737077 -0.00019039614 0.0023145473 -0.018210353 0.0013174198
0.0138114 -0.010085496 -0.010815774 0.0145690525 -0.029196108 -0.010088522 -0.0058453484 0.017754974
0.00030981243 -0.008108858 -0.0029625606 4.615639e-06 -0.028276805 -0.009017846 -0.010631696 -0.013811507
-0.009011481 0.005404879 0.0046374146 0.024929281 0.017963544 0.020371612 -0.0036965269 -0.0027002296
-0.008701747 -0.011129951 -0.012831459 -0.0049583595 -0.017400596 0.00085736805 -0.018219069 -0.00033896638
0.0049312515 -0.011085987 -0.009340559 -0.0006406451 -0.010320697 0.0014506896 -0.028481634 -0.023855815
-0.0035039282 -0.0019227717 -0.0031213304 0.009455318 0.022201316 0.010956803 0.0025612984 -0.0048936605
-0.0064963615 -0.010090252 0.0064857067 -0.006057349 0.0017570828 0.0009216308 0.014194119 0.018850928
0.030091438 -0.030527296 -0.007097456 0.0009723967 0.0053915926 -0.011524063 0.011363685 -0.027668398
-0.0025936377 -0.01549848 -0.0106065115 0.002328278 -0.012596901 -0.0038292392 -0.02119285 -0.010475208
-0.003110586 -0.021988783 0.00045463533 -0.009249348 -0.017921066 0.03745791 0.006630396 -3.90468e-05
-0.0013227478 -0.014126704 -0.016682198 0.00028292593 -0.0087230895 -0.008334752 0.025682917 0.0126860645
-0.031511154 0.025795756 0.0004816619 -0.0067012627 -0.02464222 -0.0034030033 0.016321085 -0.013545153
-0.014273785 0.047688335 -0.006725859 0.05748075 0.007869037 -0.010109167 0.014848219 0.008744943
-0.003910583 -0.008521822 0.006054847 -0.010826208 -0.0010424777 0.0386168 0.005213494 0.0052195513
0.00550262 -0.0021171689 0.003844302 0.039535347 -0.004798464 0.0010508385 0.007422184 0.006724725
0.04148914 -0.014230335 0.02212281 -0.00053297885 0.0250641 0.01069716 -0.008941416 -0.00748647
0.03565846 -0.0044105053 -0.003390033 0.001528012 0.006652425 0.004025244 0.015543381 -0.013635283
00000000: 82f8 eabb 8f4d 343c 85a2 273d 7c6f 9e3b
00000010: 9f96 debc 59cc d3bb aeef 3f3c 9d1b c6bc
00000020: 46c0 eb3c 8a62 173b 411f 81bb 67ba 013d
00000030: 9be4 ae3a 1318 483a f73e 883b c781 023d
00000040: 5709 ef3b b84c d33c 4409 b03b 412b 3abb
00000050: 3ecf 05bd 332a d93b a543 e93c 3881 bbbb
00000060: 493e d8bb a735 a0bc 26e5 a638 5e93 0abb
00000070: f1d8 b7ba 53eb 68bb 01f0 a2ba 9aed 25bb
00000080: 0244 593b ad32 963b 25b6 ec3b d026 a1ba
00000090: 7913 4abc 25e4 32bb ae2d e7ba 60d9 573c
000000a0: ee0a 4abc faf1 203c 2a86 0c3a 6afd e7ba
000000b0: 7d1f 0cbd 5093 5a3b 8412 22ba aaf2 ebb7
000000c0: 7d8c 103d d1b4 f83c bbd8 31bc 2296 413c
000000d0: 7770 6f3b ade7 7f3d c4b5 533c 28bc c4bb
000000e0: ced5 0bbb d0c5 dd3b d840 a6bb ce37 9039
000000f0: e8c8 863b 985b 0abc 2e12 1dbb e24d 143d
00000100: 13d7 45bc e152 25bb e956 eb3c f71a 153d
00000110: 4937 3f3d f880 30bd d8e1 1fbb ee43 a43c
00000120: fcae d43c bd8e 0cbd 26cb 043c 5cb9 2c3c
00000130: b326 413c a8ea b13b 429c 89bb cf51 1bbc
00000140: e0dc 133c f11e 03bd 2805 28bc b0f0 243d
00000150: fba9 88bb 84ae 2ebb b295 abbc 2a9e 04bc
00000160: cc5c 0f3b da2b febc a9ed 9bbc 62ee 52bb
00000170: aecf 3abc aee1 9bbc e6dd c63b e02c 0cbc
00000180: 862a 723c 0537 583a 8115 35bc c1d9 473c
00000190: bfef d73b a636 253b 7631 61bb 167c c63c
000001a0: c804 ecbc faaa 48bc 3090 2bbb bde7 123d
000001b0: 6148 4ebb 92db 883c 046e 11bc 1c49 733b
000001c0: bbde debc d5ed 10bd 5720 403d 6c11 ebbb
000001d0: 13a5 47b9 a9af 173b e12d 95bc 46ad ac3a
000001e0: 3649 623c a33d 25bc a534 31bc 09b3 6e3c
000001f0: ad2c efbc 544a 25bc 568a bfbb e172 913c
00000200: 526e a239 04db 04bc 8527 42bb 0ae0 9a36
00000210: c2a4 e7bc 96bf 13bc 9130 2ebc a949 62bc
00000220: e4a4 13bc 691b b13b 74f5 973b 7e38 cc3c
00000230: 4828 933c 5ee2 a63c 6e41 72bb 56f6 30bb
00000240: c691 0ebc 665a 36bc 0a3b 52bc bc79 a2bb
00000250: b28b 8ebc ffc0 603a 2840 95bc 4cb7 b1b9
00000260: 5696 a13b 00a2 35bc 2509 19bc f7f0 27ba
00000270: 2418 29bc 1125 be3a 5152 e9bc 456d c3bc
00000280: 29a2 65bb 8305 fcba 3c8f 4cbb 7aea 1a3c
00000290: 89df b53c 2a84 333c 75db 273b 005b a0bb
000002a0: 6edf d4bb 9651 25bc 0d86 d43b ba7c c6bb
000002b0: ea4d e63a 9999 713a 738e 683c 436d 9a3c
000002c0: 5282 f63c 6114 fabc c791 e8bb 70e8 7e3a
000002d0: f5ab b03b 6ccf 3cbc c02e 3a3c d6a8 e2bc
000002e0: 05fa 29bb 56ed 7dbc efc6 2dbc 0696 183b
000002f0: 3b63 4ebc f9f3 7abb a19c adbc 35a0 2bbc
00000300: f9da 4bbb d221 b4bc 1f5c ee39 948a 17bc
00000310: 33cf 92bc 776d 193d cb43 d93b 2fc6 23b8
00000320: 0d60 adba b173 67bc 1ba9 88bc ad55 9439
00000330: 4aeb 0ebc 7c8e 08bc fb64 d23c 36d9 4f3c
00000340: d711 01bd 9f51 d33c 9187 fc39 4496 dbbb
00000350: 7bde c9bc ec04 5fbb ccb3 853c 7dec 5dbc
00000360: 98dc 69bc d854 433d 9864 dcbb ef70 6b3d
00000370: 22ed 003c eba0 25bc f245 733c f346 0f3c
00000380: 5924 80bb 1d9f 0bbc bd67 c63b 6860 31bc
00000390: bfa3 88ba a62c 1e3d f5d5 aa3b c508 ab3b
000003a0: 524f b43b 33c0 0abb aff0 7b3b d1ef 213d
000003b0: 6f3c 9dbb 4abc 893a cb35 f33b 155b dc3b
000003c0: 84f0 293d 5a26 69bc e53a b53c 9bb7 0bba
000003d0: 3a53 cd3c 2443 2f3c 047f 12bc 1051 f5bb
000003e0: 9b0e 123d 0086 90bb 512b 5ebb 9347 c83a
000003f0: 96fc d93b 32e6 833b aaa9 7e3c 8666 5fbc

network_body._body_endoder.seq_layers.2.weight f4 [256, 256]
-0.042452503 0.068117574 -0.0030004627 -0.0031016606 0.031633165 0.05042092 -0.03651962 -0.1153098
0.016937025 0.016893677 0.07734953 -0.023983162 -0.09851221 0.07440194 0.05501128 -0.009848716
-0.02802582 -0.013136402 -0.030331621 -0.09244412 -0.14598753 0.037777003 -0.008088779 -0.022101512
-0.060388315 -0.0012367048 0.05176952 0.0004398083 -0.012302536 -0.061229132 0.12885106 0.10268968
0.0023985167 0.103639424 -0.02035199 0.0101759415 0.006567104 0.007927297 -0.05461933 0.002599816
-0.03224454 -0.07365114 -0.042154048 -0.085202746 0.043821298 -0.045091722 -0.017165955 -0.042121317
-0.007123805 -0.064384125 -0.032528944 0.050423577 0.018031841 0.029847324 -0.10314405 0.04338904
-0.05458701 0.09514201 0.033881813 0.021232432 -0.026068721 -0.017730216 0.0020505073 0.004003933
-0.010427081 -0.0065012276 -0.038991507 -0.030840905 -0.029980972 -0.015095894 0.03385439 0.008131859
0.03603717 0.030216457 0.0747374 -0.0534818 0.07695504 0.026710076 -0.06937479 0.015568769
-0.036177963 0.022737378 0.017057754 -0.11802316 -0.1270541 -0.03652221 0.12521765 -0.11718322
0.006771045 -0.045891587 -0.035123628 0.10068424 -0.056690663 -0.015528261 0.03131469 0.022536613
-0.0037015802 -0.05852679 0.016421892 0.07599723 -0.06631758 0.037498407 -0.043481905 -0.010431298
-0.07657986 0.07553483 -0.056688353 -0.121991806 0.0051855585 0.13419823 -0.07346227 0.028938888
-0.12580632 -0.029681342 0.02892863 -0.017680522 -0.0050582415 0.064694226 0.046400946 0.044812717
0.004262953 0.06740797 -0.10602785 -0.030167079 0.08920241 0.011438904 0.0059769675 0.010195096
-0.022850616 -0.038056444 0.070560895 -0.089605056 0.05134574 0.055425987 -0.05078555 -0.052988447
-0.08705172 -0.106146835 0.030562615 -0.06456586 -0.08038697 0.0018535147 0.0011206996 0.17309847
-0.08387656 -0.011943544 -0.05078689 -0.022790145 0.039532337 -0.048244536 -0.027328286 -0.08556854
-0.20932703 0.00668178 0.017432988 0.0063883173 -0.09004731 -0.061866384 -0.07581976 -0.03376676
0.08726144 0.07733319 -0.07974496 0.101689525 -0.030073155 -0.056590725 0.032770876 -0.031306375
-0.060513765 0.06913861 0.026904875 0.03272077 -0.12832749 0.026786733 -0.046271652 -0.06218916
-0.0063255494 0.10690573 -0.07813421 0.028932715 -0.021622157 0.04285372 0.028566414 0.01180027
0.047184177 -0.027388955 0.07947614 -0.04102291 0.04163373 0.015316128 -0.023441557 -0.098111905
-0.007884384 0.11598585 0.0007024186 -0.045239873 0.057816397 -0.017739346 -0.09204236 -0.022997271
-0.010223052 0.032147013 -0.056301694 0.05199049 0.027099945 -0.07315288 0.06113203 0.10645595
0.12615564 0.013892441 -0.036583494 0.06968762 0.026538676 -0.04672025 0.045458514 -0.08204669
-0.070284605 -0.031811956 -0.061990835 -0.0055681844 0.025493328 -0.005171754 -0.012218804 0.08097648
0.056763038 0.07003088 -0.036065813 0.06105344 -0.03182811 -0.0069768857 -0.0073227165 -0.00046382696
0.0015325742 0.025808701 0.049117472 -0.032647714 0.047793746 -0.08278714 -0.021968806 -0.017727721
-0.00086643023 0.05078055 -0.1289491 0.012249648 0.048270777 0.031171089 -0.038296968 0.08870595
-0.0021303943 -0.09537562 -0.062770344 0.076144785 0.095058486 -0.031895623 -0.020558992 -0.0014709601
00000000: ade2 2dbd 3a81 8b3d 69a3 44bb 3b45 4bbb
00000010: c791 013d 2b86 4e3d 9995 15bd 8b27 ecbd
00000020: 84bf 8a3c 9c64 8a3c 6e69 9e3d 5678 c4bc
00000030: c5c0 c9bd 0b60 983d 8253 613d 825c 21bc
00000040: 6896 e5bc 103a 57bc 057a f8bc 5853 bdbd
00000050: c17d 15be 0fbc 1a3d cc86 04bc 3b0e b5bc
00000060: bd59 77bd ed18 a2ba 470c 543d 1296 e639
00000070: 9390 49bc 66cb 7abd 88f1 033e f84e d23d
00000080: 6f30 1d3b e840 d43d 37b9 a6bc feb8 263c
00000090: dc30 d73b 7ee1 013c 85b8 5fbd ad61 2a3b
000000a0: da12 04bd 69d6 96bd b9a9 2cbd c77e aebd
000000b0: f67d 333d 19b2 38bd 9e9f 8cbc 6787 2cbd
000000c0: cf6e e9bb d3db 83bd 123d 05bd f488 4e3d
000000d0: 83b7 933c 6082 f43c 303d d3bd b5b8 313d
000000e0: a196 5fbd d0d9 c23d a8c7 0a3d a3ef ad3c
000000f0: 128e d5bc f53e 91bc ce61 063b 6d33 833b
00000100: 59d6 2abc 4008 d5bb 8fb5 1fbd 11a6 fcbc
00000110: a89a f5bc c554 77bc e7aa 0a3d 7d3b 053c
00000120: b69b 133d 8188 f73c ec0f 993d bb0f 5bbd
00000130: 9b9a 9d3d 17cf da3c 5f14 8ebd 2614 7f3c
00000140: 582f 14bd bd43 ba3c b4bc 8b3c 20b6 f1bd
00000150: 781a 02be 5098 15bd 0e39 003e c2fd efbd
00000160: a4df dd3b d1f8 3bbd cbdd 0fbd 8a33 ce3d
00000170: 7834 68bd 3f6a 7ebc d543 003d b49e b83c
00000180: 3696 72bb cab9 6fbd 3487 863c 70a4 9b3d
00000190: 83d1 87bd ee97 193d 151a 32bd 09e8 2abc
000001a0: e7d5 9cbd 01b2 9a3d 0c32 68bd d7d6 f9bd
000001b0: 9eeb a93b 436b 093e 6373 96bd 3f11 ed3c
000001c0: 5fd3 00be 4926 f3bc bcfb ec3c bed6 90bc
000001d0: 9bbf a5bb 687e 843d eb0e 3e3d 8a8d 373d
000001e0: 3eb0 8b3b 310d 8a3d 2125 d9bd f320 f7bc
000001f0: c1af b63d 3e6a 3b3c 70da c33b 5509 273c
00000200: 3731 bbbc 13e1 1bbd 3b82 903d db82 b7bd
00000210: e94f 523d 5c06 633d 8204 50bd 6a0a 59bd
00000220: 2c48 b2bd 8363 d9bd 735e fa3c 1b3b 84bd
00000230: eca1 a4bd a2f1 f23a 70e4 923a ba40 313e
00000240: 79c7 abbd dbae 43bc ea05 50bd 66b2 babc
00000250: a9ec 213d 109c 45bd 92df dfbc 8f3e afbd
00000260: d359 56be d5f2 da3b a0cf 8e3c 1755 d13b
00000270: b96a b8bd 9b67 7dbd 6447 9bbd 044f 0abd
00000280: 20b6 b23d dd60 9e3d 5351 a3bd 9942 d03d
00000290: fa5b f6bc adcb 67bd c13a 063d 1d3b 00bd
000002a0: 48dd 77bd 8b98 8d3d 9d67 dc3c 3706 063d
000002b0: 4868 03be da6f db3c 5887 3dbd 10ba 7ebd
000002c0: 8e46 cfbb 64f1 da3d d404 a0bd 4d04 ed3c
000002d0: f320 b1bc 6287 2f3d 1d04 ea3c eb55 413c
000002e0: 3244 413d cd5e e0bc 63c4 a23d a407 28bd
000002f0: 2188 2a3d 7ff0 7a3c 8208 c0bc e5ee c8bd
00000300: 812d 01bc fd89 ed3d 8422 383a 724d 39bd
00000310: e3d0 6c3d 1b52 91bc b480 bcbd c664 bcbc
00000320: 977e 27bc 96ac 033d 9b9c 66bd fbf3 543d
00000330: b400 de3c 2dd1 95bd 9465 7a3d 9405 da3d
00000340: f22e 013e 1f9d 633c 93d8 15bd 62b8 8e3d
00000350: a367 d93c bc5d 3fbd b532 3a3d 1808 a8bd
00000360: 60f1 8fbd 414d 02bd 1aea 7dbd 5175 b6bb
00000370: 62d7 d03c d177 a9bb 6131 48bc ffd6 a53d
00000380: 5c80 683d 5a6c 8f3d bfb9 13bd 2c13 7a3d
00000390: 315e 02bd 5c9e e4bb 66f3 efbb cd2d f3b9
000003a0: a8e0 c83a c56c d33c 672f 493d 9cb9 05bd
000003b0: 60c3 433d 4e8c a9bd edf7 b3bc ba39 91bc
000003c0: 2621 63ba 44ff 4f3d 3c0b 04be bfb2 483c
000003d0: 94b7 453d 835a ff3c 48dd 1cbd 77ab b53d
000003e0: 169e 0bbb 4b54 c3bd bd8d 80bd ccf1 9b3d
000003f0: 06ae c23d fca4 02bd 556b a8bc 3bcd c0ba

network_body._body_endoder.seq_layers.2.bias f4 [256]
0.005686919 0.0044375965 0.001935635 -0.0031705422 0.0029262528 0.0030408597 0.0031104158 -0.004434837
0.0075015193 -0.01012954 0.0039684516 0.016830858 -0.0026115042 0.0031321023 -0.007968262 -0.010268325
-0.0051865173 0.019321036 0.008088794 -0.0015942048 -0.0036585224 0.007077557 0.004708341 0.025359152
-0.0027552035 -0.0066990065 0.0028043995 0.0059011444 0.038248297 0.0017979349 -0.022623135 -0.0038228438
0.018222641 0.0020483967 0.004838201 0.023415916 -0.006382811 0.043079976 -0.010058112 0.006909422
0.003479727 -0.0031715832 -0.0024985508 0.0018058259 0.0031383215 -0.00060392235 -0.00095857016 -0.0059649996
-0.009312909 -0.015493581 0.029017875 0.031535894 -0.010967447 -0.0033029628 0.027309056 -0.007146831
0.041648928 -0.014172426 -0.00030000674 0.00759948 -0.0019388098 -0.010001227 0.04022573 0.006979828
-0.0037848772 -0.008676921 -0.00033390513 -0.0050384174 0.016325148 0.0061686984 -6.851206e-06 0.0068568746
0.009535798 -0.0019314253 -0.0016427373 -0.0092559 -0.0087179085 -0.008408035 0.0009355132 -0.0034598203
0.0044992724 -0.0037549415 0.0021458252 0.017957307 0.0016021793 -0.007302044 -0.0014261389 -0.0083285775
0.01938981 0.0014481331 0.030196687 0.011409882 -0.0018618295 0.006266142 0.0033308493 -0.004615823
-0.0077105863 -0.0016998013 0.0047136093 0.0056939055 -0.0033967902 -0.00012450262 0.0010506085 0.042683743
0.002690487 0.044405267 0.0009126154 0.01642849 0.025700934 0.0072672097 -0.0025176737 0.00014789202
-0.011255992 -0.02116728 0.010383657 0.012247797 0.018299822 -0.0032749423 0.005804513 0.0005828571
-0.01140695 -0.0032138256 0.0120229535 0.007334394 0.012350619 -0.00017295867 -0.0021131453 -0.0018203064
0.0071722637 0.0011644982 0.00080545055 -0.0089444015 0.029107448 -0.0017841829 0.006983749 0.023704754
-0.011407366 0.030539675 0.026955662 0.00012534526 0.014454263 0.009365578 -0.0018150171 0.0026668948
0.015492285 -0.002931911 -0.015857259 -0.0027493807 0.0049655144 0.0058295024 0.017879551 0.027532874
0.013076862 0.0023217036 0.010085152 0.0048095454 0.039823942 -0.0060774544 -0.00051317667 -0.0137772625
-0.001802592 0.034639064 -0.01821957 -0.004895158 0.004739402 0.006096141 0.010207619 -0.017053114
0.0007833867 0.023736728 0.02952454 0.005160719 -0.0022012785 -0.00089530763 -0.020509886 -0.005730055
0.026130207 0.0034654883 0.016167196 0.008860254 0.0073395805 0.017609159 -0.0019565027 -0.0055845566
-0.0075833304 -0.020725708 0.041351784 6.789381e-06 -0.013904131 0.0061524194 -0.004775166 0.026191229
0.00068600295 -0.0037746346 -0.00021902478 -0.0023185539 0.0036255002 -0.012805352 0.005779586 0.016262887
-0.007569825 -0.007633964 0.01077284 0.019740302 0.010815604 0.021679012 -0.004187263 -0.004292027
0.02188999 -0.009713974 0.016465051 0.0061834124 -4.617127e-05 -0.003535028 -0.0013016299 -0.0033841596
0.0017483159 -0.002798467 0.01488456 0.012411875 0.0229924 -0.0015608211 -0.0009185753 0.0014477221
-0.008836751 0.0023019784 0.0038193706 -0.0052509117 -0.005597805 0.008929992 0.0061961096 0.025455104
0.0145757105 0.012367578 -0.0038445946 0.020330215 0.009855663 0.03686691 -0.006913665 0.0035218939
-0.0054524355 0.03592808 0.007360481 0.028478608 0.0071384176 0.0069181384 6.0922746e-05 -0.0024505418
-0.0021246427 0.0034949821 0.03892105 0.02002695 0.005790069 -0.006596443 0.0013896313 0.00048069918
00000000: 5659 ba3b 4269 913b 22b5 fd3a dfc8 4fbb
00000010: 60c6 3f3b 2949 473b 1ed8 4b3b 1c52 91bb
00000020: 4ecf f53b 5ff6 25bc c909 823b dee0 893c
00000030: c525 2bbb f543 4d3b 508d 02bc 7a3c 28bc
00000040: a9f3 a9bb 2647 9e3c dc86 043c a3f4 d0ba
00000050: d2c3 6fbb daea e73b 6d48 9a3b ffbd cf3c
00000060: a590 34bb 5783 dbbb 04ca 373b 635e c13b
00000070: 3faa 1c3d afa8 eb3a 2754 b9bc ad88 7abb
00000080: a647 953c 653e 063b c689 9e3b bcd2 bf3c
00000090: e626 d1bb a174 303d c8ca 24bc 6f68 e23b
000000a0: 220c 643b 56da 4fbb babe 23bb 76b1 ec3a
000000b0: 4cac 4d3b 8b50 1eba 8e48 7bba 0b76 c3bb
000000c0: 2c95 18bc cad8 7dbc e5b6 ed3c c82b 013d
000000d0: cfb0 33bc 8576 58bb 3eb7 df3c f72f eabb
000000e0: 1198 2a3d 7733 68bc 394a 9db9 0f05 f93b
000000f0: a91f feba 30dc 23bc bcc3 243d 0ab7 e43b
00000100: b40b 78bb a529 0ebc fd0f afb9 4f19 a5bb
00000110: 51bc 853c cb22 ca3b 69e3 e5b6 a2af e03b
00000120: 093c 1c3c e127 fdba 1e51 d7ba 0fa6 17bc
00000130: 8fd5 0ebc dbc1 09bc 3a3d 753a 27be 62bb
00000140: a26e 933b 7715 76bb f9a0 0c3b 341b 933c
00000150: 3700 d23a fc45 efbb 48ed baba 9674 08bc
00000160: 61d7 9e3c 49cf bd3a 0b5f f73c 84f0 3a3c
00000170: a208 f4ba 3554 cd3b 614a 5a3b 5440 97bb
00000180: 16a9 fcbb decb deba 9f74 9a3b f193 ba3b
00000190: af9c 5ebb eb8c 02b9 92b4 893a 26d5 2e3d
000001a0: e252 303b 4ce2 353d 953c 6f3a 0a95 863c
000001b0: c48a d23c c621 ee3b 8eff 24bb 7613 1b39
000001c0: 0d6b 38bc 0167 adbc 3720 2a3c fcaa 483c
000001d0: 82e9 953c 6aa0 56bb c933 be3b e1ca 183a
000001e0: 37e4 3abc 0c9f 52bb ecfb 443c 5b55 f03b
000001f0: 405a 4a3c 3d5c 35b9 b27c 0abb 5997 eeba
00000200: 4f05 eb3b 13a2 983a df24 533a 8a8b 12bc
00000210: be72 ee3c 3edb e9ba efd7 e43b 7930 c23c
00000220: f6e5 3abc 572e fa3c 1fd2 dc3c 1d6f 0339
00000230: 93d1 6c3c 1572 193c dee5 edba 12c7 2e3b
00000240: 5ad3 7d3c 4e25 40bb 15e7 81bc f42e 34bb
00000250: c1b5 a23b 6905 bf3b 2378 923c 9f8c e13c
00000260: 5640 563c b927 183b 323c 253c 6499 9d3b
00000270: 6e1e 233d 6225 c7bb b486 06ba 07ba 61bc
00000280: f344 ecba b1e1 0d3d 3541 95bc 9067 a0bb
00000290: fc4c 9b3b 23c2 c73b db3d 273c f9b2 8bbc
000002a0: 315c 4d3a 8773 c23c 73dd f13c 401b a93b
000002b0: 5343 10bb 14b3 6aba 5904 a8bc 2fc3 bbbb
000002c0: 040f d63c 3f1d 633b 1171 843c 992a 113c
000002d0: dd80 f03b 1541 903c ab38 00bb a8fe b6bb
000002e0: 967d f8bb f6c8 a9bc 7d60 293d 57d0 e336
000002f0: 27ce 63bc 3c9a c93b ff78 9cbb fd8e d63c
00000300: e1d4 333a dc5f 77bb 04aa 65b9 e1f2 17bb
00000310: cd99 6d3b 8acd 51bc ae62 bd3b bf39 853c
00000320: 4b0c f8bb 5526 fabb 9180 303c 6ab6 a13c
00000330: ee33 313c 2f98 b13c 4f35 89bb 22a4 8cbb
00000340: a352 b33c 5c27 1fbc b7e1 863c 399e ca3b
00000350: 06a8 41b8 eeab 67bb 749b aaba c7c8 5dbb
00000360: bf27 e53a 7c66 37bb 5fde 733c 2d5b 4b3c
00000370: 8f5a bc3c 7794 ccba 8bcc 70ba 7ec1 bd3a
00000380: 05c8 10bc cadc 163b 684e 7a3b d70f acbb
00000390: cb6d b7bb 1a4f 123c bc08 cb3b 3987 d03c
000003a0: f6ce 6e3c 62a1 4a3c 98f5 7bbb 8d8b a63c
000003b0: a679 213c c201 173d 078c e2bb 93cf 663b
000003c0: 58aa b2bb 5329 133d 3130 f13b f84b e93c
000003d0: 63e9 e93b 8db1 e23b 4d87 7f38 4599 20bb
000003e0: 973d 0bbb 120c 653b ae6b 1f3d 8f0f a43c
000003f0: 9eba bd3b f926 d8bb 4a24 b63a 5a06 fc39

action_model._discrete_distribution.branches.0.weight f4 [2, 256]
0.009749191 0.006892402 -0.00031071677 0.0072446917 0.006881194 0.006266679 -0.010621859 -0.00076188677
0.001207918 0.0027326164 0.020725243 0.015746318 -0.008708462 -0.0059314845 0.00056756736 0.012218039
-0.0042862236 0.016689155 0.007449526 0.0048267706 -0.0016753991 -0.0037710695 0.025248947 0.013062053
0.00031519795 -0.0013015358 -0.006317402 0.0022691514 0.031997703 -0.0047336253 0.0042267716 -0.006439173
0.012012996 -0.003659697 -0.005084688 0.022708079 0.0028577906 0.05017075 0.0029688575 -0.00028162348
-0.009289391 -0.002505158 0.008145701 -0.009458573 0.001455134 0.006869175 0.009467451 0.0089977905
-0.0027219658 -0.0022848744 0.028140381 0.0074029295 -0.0049750507 -0.0071917335 0.020668242 -0.0044311048
0.025581473 -0.004539651 0.0018030399 0.005244064 -0.0034650739 -0.0024545682 0.041718327 0.008260162
-0.0042232047 -0.0027991738 0.00016029697 -0.0051691937 0.027385 -0.0038569565 0.0007527299 0.006078586
-0.0089933 0.0023160933 0.01813421 0.005754866 0.0028178333 0.008519061 -0.0010847987 -0.004202599
0.001490658 0.008957634 0.015902946 0.009013873 0.0008062802 0.00019404682 -0.0011909695 -0.0020853968
-0.009928546 0.0036848425 0.024796404 -0.020404704 -0.00035736794 0.0025268518 0.005196287 -0.002837737
0.004930129 -0.005394478 0.0026245578 0.02343747 0.0031300774 0.0024596052 0.005760217 0.029905468
-0.012374854 0.04361234 -0.0019853637 0.021786615 0.024035245 -0.013805347 0.0017420228 0.0068537025
-0.0015463616 -0.016083408 0.027110942 0.0065524196 -0.006573475 0.0019550994 -0.0013059847 0.019643104
-0.0035324243 -0.002892647 -0.0039875912 0.0012197354 0.015454848 0.018147737 0.01578332 0.0061807814
0.008411681 -0.014717565 -0.0012812482 0.0016952512 0.028474854 0.007767104 0.0022857203 0.010192191
0.004207843 0.02514188 0.018264696 0.0036193053 -0.02769493 0.0091817705 -0.009739081 -0.002023681
0.017820628 -0.007036811 0.0030426811 0.011563105 0.0037413104 0.000692095 -0.004790482 0.018452547
0.027093554 0.017994696 0.012291529 0.0031034185 0.05042339 0.004351021 0.003559923 0.0051304856
-0.008417536 0.03217292 -0.002717424 -0.0045113084 0.008116431 -0.015573048 0.0066577485 -0.009483686
0.007653262 0.016157482 0.015934061 -0.003946185 0.0013709565 -0.014915842 -0.009416069 -0.0025280777
0.004181321 0.0029628477 0.016189003 -0.016377348 -0.0024810184 0.021137184 -0.0010945942 -0.014907669
-0.008436486 -0.0019042366 0.04398108 -0.007181607 0.0023554992 0.0068749585 0.004546978 0.025501546
0.0088815885 0.0026202225 0.0056415983 0.009655394 -0.005637494 -4.3315515e-05 -0.0030338536 0.013880224
-0.014074862 3.702226e-05 0.014263263 0.012793636 0.016054064 0.017000942 0.0043874006 -0.005847296
0.010062565 -0.0038467606 0.02125814 0.00961368 -0.015934525 0.006537716 0.007964374 -0.003671816
-0.008949122 -0.010681973 -0.006113564 -0.011777425 0.015121977 -0.013175462 0.003755464 0.005900291
-0.0034425873 0.01575985 -0.0100439275 0.0023770242 0.008186965 -0.0011338572 -0.029810589 0.031618763
0.024191221 0.005291048 0.0127049815 0.02847524 0.015239632 0.04515774 -0.00042903793 0.00626958
-0.005840853 0.039915312 0.0161531 0.0054562637 -0.009783048 -0.00040449464 0.008450935 -0.008507876
0.009263964 0.016434515 0.030116199 0.016209722 0.0034118283 0.0011227237 -0.009733687 -0.01774622
00000000: 12bb 1f3c a9d9 e13b b3e7 a2b9 e164 ed3b
00000010: a47b e13b b758 cd3b 4e07 2ebc 5bb9 47ba
00000020: 0153 9e3a b215 333b fcc7 a93c 6cfe 803c
00000030: f0ad 0ebc e65c c2bb cdc8 143a 2b2e 483c
00000040: 7373 8cbb b2b7 883c 271b f43b e329 9e3b
00000050: 1199 dbba 0c24 77bb e1d6 ce3c 3902 563c
00000060: 2741 a539 4b98 aaba 3502 cfbb 0bb6 143b
00000070: 0610 033d 871c 9bbb bb80 8a3b b3ff d2bb
00000080: 28d2 443c 87d7 6fbb 749d a6bb 4b06 ba3c
00000090: c549 3b3b d87f 4d3d 2a91 423b dda6 93b9
000000a0: 8832 18bc 942d 24bb 8c75 053c 21f8 1abc
000000b0: 32ba be3a d116 e13b 5e1d 1b3c 786b 133c
000000c0: 0263 32bb d5bd 15bb a886 e63c 4694 f23b
000000d0: c005 a3bb a2a8 ebbb 7250 a93c cd32 91bb
000000e0: 3d90 d13c 5ac1 94bb fb53 ec3a 66d6 ab3b
000000f0: 4b16 63bb d2dc 20bb d6e0 2a3d a155 073c
00000100: cf62 8abb 5872 37bb 6415 2839 5762 a9bb
00000110: 8256 e03c fec4 7cbb d952 453a e02e c73b
00000120: a258 13bc 99c9 173b 328e 943c 5193 bc3b
00000130: 66ab 383b 8893 0b3c ce2f 8eba f5b5 89bb
00000140: 2f62 c33a 0ac3 123c e546 823c ecae 133c
00000150: 8c5c 533a 0c79 4b39 4e1a 9cba 27ab 08bb
00000160: 57ab 22bc 667d 713b d421 cb3c c427 a7bc
00000170: 1d5d bbb9 8a99 253b 9d45 aa3b 54f9 39bb
00000180: eb8c a13b 29c4 b0bb c600 2c3b f0ff bf3c
00000190: fc21 4d3b 5431 213b 34c0 bc3b 50fc f43c
000001a0: e6bf 4abc daa2 323d e01c 02bb d879 b23c
000001b0: 90e5 c43c d22f 62bc 9654 e43a 0695 e03b
000001c0: 49af caba 5ac1 83bc c417 de3c aeb5 d63b
000001d0: 4e66 d7bb 2021 003b 932d abba 93ea a03c
000001e0: 3f80 67bb 9092 3dbb 57aa 82bb 87df 9f3a
000001f0: 5536 7d3c 90aa 943c 054c 813c 2788 ca3b
00000200: 26d1 093c f121 71bc 8eef a7ba 3133 de3a
00000210: 1944 e93c 3183 fe3b 06cc 153b 26fd 263c
00000220: f2e1 893b 58f6 cd3c d89f 953c de31 6d3b
00000230: 7ae0 e2bc 236f 163c ab90 1fbc bc9f 04bb
00000240: 91fc 913c 0d95 e6bb b867 473b 2d73 3d3c
00000250: c630 753b b66d 353a 7af9 9cbb cc29 973c
00000260: 4df3 dd3c 9d69 933c 6962 493c b962 4b3b
00000270: c288 4e3d 0293 8e3b 994d 693b a21d a83b
00000280: b4e9 09bc c0c7 033d cf16 32bb 99d3 93bb
00000290: c7fa 043c 1926 7fbc 3e29 da3b 7661 1bbc
000002a0: 37c8 fa3b b25c 843c 2688 823c 004f 81bb
000002b0: abb1 b33a 9361 74bc db45 1abc 1bae 25bb
000002c0: 7603 893b 562c 423b cd9e 843c ca29 86bc
000002d0: 9598 22bb e327 ad3c 7d78 8fba 4c3f 74bc
000002e0: 3039 0abc 9497 f9ba 8125 343d b053 ebbb
000002f0: b85e 1a3b 5547 e13b d1fe 943b 9ee8 d03c
00000300: 1584 113c 0ab8 2b3b 28dd b83b a831 1e3c
00000310: baba b8bb aead 35b8 9ed3 46bb e169 633c
00000320: 409a 66bc 5948 1b38 76b0 693c 669c 513c
00000330: d083 833c 8f45 8b3c 2fc4 8f3b ad9a bfbb
00000340: 75dd 243c ef19 7cbb 8d25 ae3c b282 1d3c
00000350: 1f89 82bc 563a d63b 017d 023c daa2 70bb
00000360: 579f 12bc 7103 2fbc 4b54 c8bb 1af6 40bc
00000370: 2bc2 773c e5dd 57bc 3b1e 763b 3a57 c13b
00000380: 089d 61bb cd1a 813c 498f 24bc d9c7 1b3b
00000390: 9f22 063c ef9d 94ba 5635 f4bc ad82 013d
000003a0: ab2c c63c 8760 ad3b 8e28 503c e844 e93c
000003b0: a6af 793c 53f7 383d 7ff0 e0b9 0d71 cd3b
000003c0: a064 bfbb 3d7e 233d 8253 843c 75ca b23b
000003d0: 1449 20bc 5a12 d4b9 ca75 0a3c 9e64 0bbc
000003e0: e2c7 173c ada1 863c 3fb6 f63c 40ca 843c
000003f0: fb98 5f3b 5b28 933a 0b7a 1fbc 8560 91bc

action_model._discrete_distribution.branches.0.bias f4 [2]
0.0055845547 -0.0055845533
00000000: a4fe b63b a1fe b6bb

action_model._discrete_distribution.branches.1.weight f4 [3, 256]
0.0056298003 0.0034061787 -0.008271375 0.00043465188 0.005532541 0.0031763562 0.0011456198 0.011172556
-0.00014288051 0.0002537347 -0.0010714586 0.0063812793 0.0060092597 -0.003848545 0.0036975765 0.0070810486
0.013323599 0.014548548 -0.00049530267 0.001017999 -0.0036264195 -0.00040209177 0.0040723006 0.009648816
-0.00500434 -0.00053432677 -0.0025646116 0.0013689351 0.0073859943 0.0019741962 0.0095150415 -0.009257354
-0.0002656518 0.0023655444 -0.003217142 0.01339414 0.006939749 0.0077244695 0.005019317 -0.0058380277
-0.007076364 -0.004347607 0.007747525 0.002996747 -0.00016660137 0.002780252 0.0059884544 0.0103961695
0.01988055 0.008671853 -0.006487241 -0.0040411204 0.010177021 -0.0037131135 0.0051647197 -0.00037483763
-0.004773571 0.0049364073 0.007907336 0.007994727 -0.0018253177 0.0075576175 0.011562444 0.0028475388
0.006313177 0.010627502 0.0061235293 -0.0040436443 -0.0019383375 0.010533378 0.0015585901 -0.004576696
-0.010285154 0.013341423 0.009846096 0.0026235238 0.0021304784 0.0021867538 0.0003365907 -0.00093179656
0.00512515 0.011335063 0.0013113077 -0.0008717392 -0.00061326596 -0.0049189706 0.004949003 0.0073324
-0.009084818 0.011324017 -0.0020920606 -0.009890593 0.00025520334 0.00985824 0.013472976 0.007976383
0.009407394 -0.0014322497 0.008212548 -0.0010640593 -0.0048176614 0.0015670754 0.003818206 0.0046874834
0.00502042 6.406661e-05 0.00488413 0.013314318 -0.0012946966 -0.0006341632 -0.006844452 -0.0052731475
-0.002451861 0.0005823041 0.0036499102 0.0043122885 -0.010827317 0.0061137537 0.009910037 0.0029793126
0.0057349955 -0.0003408773 0.008674729 -0.001274846 0.008189998 0.015268377 -0.0027615547 0.0062182723
0.0012151252 -0.008800776 0.0012822627 0.01117703 0.008634555 0.002462662 0.0070519173 0.0028212094
0.0062469337 -0.0041834544 -0.00044013417 0.0013938259 -0.013466346 0.00617169 0.0004366218 0.0028679755
0.003985642 -0.0007834411 0.0072860885 0.00015281697 0.005731363 -0.012283043 -0.0010825678 0.0030209918
0.006722805 0.0023066937 0.00044654068 0.0004376619 0.0023081673 2.0638558e-05 -0.004618339 0.0036992475
-0.002137655 -0.0023024094 0.02370993 0.0104690995 0.006868028 -0.010023151 0.009743632 0.010111632
-0.015449095 0.00987142 0.0028100375 -0.00479774 -0.0019209582 0.004024976 -0.000190211 0.008938983
0.0040991507 0.0068543768 0.015489613 -0.01293234 -0.009481901 0.012791424 -0.007767131 0.0010236592
0.0044118413 -0.0074229306 0.011055295 0.001508647 0.00024767598 0.0031428386 0.0013524055 -0.0008465947
0.004887529 -0.0026875755 -0.00770075 0.006585445 -0.0007035254 0.0070842877 -0.012103648 -0.0076966365
-0.007785013 -0.0015054817 -0.002617121 0.0033312105 0.0024897344 0.0018108884 -0.0018910852 -0.004011583
0.008387422 0.01021387 -0.0031715948 0.0045838524 -0.0053614886 -0.0044167265 -0.0010962089 0.00398644
-0.011490979 -0.0003592373 -0.011189771 -0.006901886 0.0025711518 -0.0056751384 0.0040460583 0.0006461861
0.005554876 0.0020648127 -0.0036697716 0.008000392 -0.002871328 0.005158752 0.001114877 0.008392422
-0.00076291483 0.0071509494 0.00726034 0.015675217 0.0053039733 0.008792362 0.00633184 -0.00430416
0.010409588 -0.010658872 0.0028221782 -0.00011595336 0.005548383 -0.0013696743 0.0059166728 -0.0011557005
0.0036732217 0.001690317 0.00030997544 0.0028459162 0.0041916408 -0.0034467906 0.006558296 -0.011241372
00000000: 307a b83b 323a 5f3b a984 07bc fde1 e339
00000010: 514a b53b 6a2a 503b 9f28 963a 190d 373c
00000020: 32d2 15b9 b207 8539 2f70 8cba 0d1a d13b
00000030: 53e9 c43b df37 7cbb 0a53 723b 2408 e83b
00000040: 394b 5a3c 085d 6e3c 33d7 01ba 616e 853a
00000050: 39a9 6dbb d8cf d2b9 ef70 853b 1116 1e3c
00000060: 72fb a3bb 1012 0cba 0b13 28bb d76d b33a
00000070: 3606 f23b 8461 013b fae4 1b3c 28ac 17bc
00000080: 2e47 8bb9 4007 1b3b b0d6 52bb 1873 5b3c
00000090: d566 e33b 8c1d fd3b 1579 a43b ed4c bfbb
000000a0: d8e0 e7bb 5f76 8ebb f3de fd3b 1265 443b
000000b0: b7b1 2eb9 e334 363b cc3a c43b b254 2a3c
000000c0: 89dc a23c 6314 0e3c ec92 d4bb 606b 84bb
000000d0: 85bd 263c b557 73bb cf3c a93b db85 c4b9
000000e0: 9e6b 9cbb 96c1 a13b c58d 013c 51fc 023c
000000f0: 803f efba e4a5 f73b 6870 3d3c c69d 3a3b
00000100: c4de ce3b f91e 2e3c e3a7 c83b 8c80 84bb
00000110: d00f feba 3194 2c3c 9b49 cc3a 1cf8 95bb
00000120: 1083 28bc fc95 5a3c 8551 213c 6def 2b3b
00000130: 7f9f 0b3b a44f 0f3b 7078 b039 cf43 74ba
00000140: e0f0 a73b b3b6 393c 2fe0 ab3a 6d85 64ba
00000150: 95c3 20ba 512f a1bb 3f2b a23b a144 f03b
00000160: 7dd8 14bc 5f88 393c f41a 09bb 270c 22bc
00000170: d0cc 8539 7584 213c c2bd 5c3c 60af 023c
00000180: 7821 1a3c 53ba bbba ec8d 063c e877 8bba
00000190: 79dd 9dbb 5366 cd3a de3a 7a3b 7699 993b
000001a0: 5682 a43b 805b 8638 0d0b a03b 4c24 5a3c
000001b0: cfb2 a9ba f93d 26ba 6d47 e0bb 5eca acbb
000001c0: 67af 20bb c4a5 183a 5533 6f3b 194e 8d3b
000001d0: 0f65 31bc e255 c83b b55d 223c 9240 433b
000001e0: a1ec bb3b c7b7 b2b9 7320 0e3c bc18 a7ba
000001f0: 572f 063c 3728 7a3c 33fb 34bb a6c2 cb3b
00000200: d644 9f3a 2131 10bc 9911 a83a dd1f 373c
00000210: f377 0d3c 9d64 213b c513 e73b 0ae4 383b
00000220: 14b3 cc3b 5c15 89bb cfc1 e6b9 09b1 b63a
00000230: f3a1 5cbc e33b ca3b 63ea e439 a5f4 3b3b
00000240: fd99 823b d85f 4dba 24c0 ee3b 7e3d 2039
00000250: 28ce bb3b d13e 49bc f3e4 8dba d5fb 453b
00000260: fa4a dc3b e62b 173b ad1d ea39 fc75 e539
00000270: 9f44 173b f720 ad37 6f55 97bb 136f 723b
00000280: e617 0cbb 05e4 16bb 543b c23c 9686 2b3c
00000290: 320d e13b 2438 24bc c1a3 1f3c 42ab 253c
000002a0: 331e 7dbc bdbb 213c 9b28 383b 5c36 9dbb
000002b0: a9c8 fbba f2e3 833b 6073 47b9 d074 123c
000002c0: 2b52 863b ae9a e03b 25c8 7d3c 2ae2 53bc
000002d0: fa59 1bbc 1f93 513c 6b83 febb 4e2c 863a
000002e0: 3591 903b 0e3c f3bb 4521 353c cbbd c53a
000002f0: 82da 8139 15f8 4d3b 3343 b13a 02ee 5dba
00000300: 9127 a03b 0922 30bb 9356 fcbb b7ca d73b
00000310: ca6c 38ba 5023 e83b 614e 46bc 1134 fcbb
00000320: 6c19 ffbb 9553 c5ba 0184 2bbb 7050 5a3b
00000330: d02a 233b 555b ed3a 4ade f7ba 9973 83bb
00000340: 666b 093c 1358 273c 88da 4fbb 2434 963b
00000350: 6daf afbb 30ba 90bb abae 8fba afa0 823b
00000360: a944 3cbc 0458 bcb9 4d55 37bc 3729 e2bb
00000370: c580 283b 83f6 b9bb cc94 843b d164 293a
00000380: ad05 b63b cf51 073b 8d80 70bb 1314 033c
00000390: e42c 3cbb c00a a93b 1121 923a 5f80 093c
000003a0: 59fe 47ba 8352 ea3b 25e8 ed3b 5069 803c
000003b0: f4cc ad3b d70d 103c 537b cf3b e909 8dbb
000003c0: fa8c 2a3c 8da2 2ebc 4bf4 383b fc2b f3b8
000003d0: 36cf b53b a586 b3ba a6e0 c13b e07a 97ba
000003e0: 6fba 703b a08d dd3a 3384 a239 8d82 3a3b
000003f0: 085a 893b 8de3 61bb f9e6 d63b bb2d 38bc

action_model._discrete_distribution.branches.1.bias f4 [3]
-0.0027371359 -0.007237016 0.009766877
00000000: 8561 33bb 7e24 edbb 4005 203c

action_model._discrete_distribution.branches.2.weight f4 [2, 256]
0.0061796573 -0.0043754242 0.012274303 0.0017687851 0.017343674 0.009244001 -0.010583987 0.0047840187
-0.010693081 -0.0031830382 0.012539124 0.0038754689 0.007905212 0.0062905955 0.0024389646 -0.0001842591
-0.011794686 0.010056928 -0.0021236837 0.0035257286 0.01479497 -0.0030168828 0.0015761803 0.004520063
-0.0023106693 -0.015932877 0.0055984813 -0.0042301374 -0.010822682 0.00050703075 0.0021491558 -0.010313374
-0.0011686017 0.0097762905 0.01389924 -0.014344386 -0.0038528515 0.008508005 0.0005646199 0.007530825
-0.009685205 0.0012324153 -0.0043901955 -0.00035419795 0.0009940349 -0.006103704 0.0012325116 -0.0036534942
-0.007856911 -0.0006911038 0.0014036522 -0.012774527 0.00876883 0.0062498897 -0.0044041593 -0.0099646505
-0.010762637 3.0358506e-05 -0.0014081069 0.0046571717 -0.005063616 -0.0007377506 -0.0116486 0.0022712178
-0.0022985653 0.005357587 0.002072456 -0.004781744 -0.004737994 -0.0014913135 -0.0013857972 -0.00023477423
-0.0011940064 0.009575049 -6.141579e-05 0.011659011 0.010700831 -0.003394769 -0.00025781398 -0.009260352
-0.0107869 0.001100692 0.0010293468 -0.0075394376 -0.00032871196 0.0031475816 0.016801443 0.0046370877
-0.017525507 0.0047400864 -0.01673349 -0.008361721 0.00051204173 0.0008405561 -0.010080979 -0.0071559553
-0.0039480934 -0.00877819 0.002181546 -0.0056583546 0.008502295 0.013211008 -0.0011032961 -0.016612155
0.007514442 0.0016159058 0.00019670655 -0.009497823 -0.01010943 -0.0074344813 -0.0012523374 0.0077341115
-0.0041404776 0.0035562306 -0.011801069 -0.004597195 -0.019895071 0.0030260654 0.0019860794 0.0009828025
-0.0007724261 -0.010086122 0.0067077503 -0.008048182 0.0059367777 -0.004241249 0.0071712504 -0.00027455128
1.5822836e-05 -0.003600005 0.004057042 -0.005711543 -0.0055734077 -0.0026993966 0.012513048 -0.0023922091
-0.0053902324 -0.021064783 -0.0031902636 0.003843088 -0.005385044 0.01105598 0.0010935587 -0.0040993607
0.007045801 -0.0088872155 0.003101477 0.0018156922 -0.012392914 -0.009146655 -0.0138662765 -0.00535988
-0.0054218154 0.008566022 0.00832277 0.005757529 -0.008930516 0.0038988714 0.005239395 -0.0036985495
-0.006873343 -0.011328604 0.0039902274 0.0042641764 0.0041147815 -0.0098292865 -0.002450631 0.00035306092
-0.015164444 -0.0049842456 -0.00044989295 -0.007931826 -0.022497369 4.268757e-05 -0.005190109 -0.0073300283
-0.002959901 0.001028941 -0.0040592863 -0.017624186 0.0033392129 0.0012772504 0.006025789 -0.0012107469
-0.0033983027 -0.0056461846 -0.0027778947 0.0012595282 -0.011916329 -0.0041476013 0.0025095863 -0.022323787
0.01360714 -0.0053830044 -0.0057355836 0.005708999 0.0006074926 -0.009259513 -0.00369149 0.0048789564
-0.0021712026 0.0072569526 -0.00095629995 0.003204074 -0.0057101524 0.0011612949 -0.008644845 0.008367938
-0.012880798 0.0024096163 -0.0032508501 0.010589255 0.0041889683 -0.012016489 0.003117177 -0.015325265
7.9785445e-05 -0.0058443546 -0.003285269 -0.004891996 -0.0043419143 -0.0037770686 -0.0098510105 -0.012310921
-0.002152123 0.016544983 -0.0053092977 -0.01950735 -0.003728408 0.007975136 0.008023149 -0.005300301
0.0005425474 0.0051262258 -0.00022070168 0.0164578 -0.007747735 -0.008342917 0.001727469 -0.0034960085
-0.008124714 -0.0019269431 0.012756086 -0.01285624 -0.0013860115 -0.019607684 0.0061695795 -0.011541599
0.00072557037 0.010383564 -0.0052623125 0.014021458 0.0122862 0.004448281 0.010760302 -0.015652386
00000000: b97e ca3b b85f 8fbb 281a 493c 94d6 e73a
00000010: 5214 8e3c 2674 173c 7668 2dbc 42c3 9c3b
00000020: 0832 2fbc 859a 50bb e670 4d3c 94fb 7d3b
00000030: dd84 013c 5721 ce3b 09d7 1f3b ad35 41b9
00000040: 803e 41bc d0c5 243c 802d 0bbb e90f 673b
00000050: 9a66 723c e5b6 45bb d697 ce3a 091d 943b
00000060: 996e 17bb aa85 82bc 7773 b73b f79c 8abb
00000070: 9e51 31bc 42ea 043a dad8 0c3b 6df9 28bc
00000080: c42b 99ba bc2c 203c a3b9 633c b704 6bbc
00000090: 1f80 7cbb 2965 0b3c 0003 143a 24c5 f63b
000000a0: b2ae 1ebc ff88 a13a a1db 8fbb a5b3 b9b9
000000b0: 474a 823a 9501 c8bb 3a8c a13a 766f 6fbb
000000c0: 46ba 00bc 312b 35ba c1fa b73a 404c 51bc
000000d0: 24ab 0f3c e0cb cc3b c450 90bb c642 23bc
000000e0: c555 30bc 65aa fe37 3a90 b8ba 309b 983b
000000f0: b1ec a5bb 9b65 41ba c5d9 3ebc b6d8 143b
00000100: 87a3 16bb b28e af3b 0bd2 073b 2db0 9cbb
00000110: 2d41 9bbb 2d78 c3ba a3a3 b5ba ba2d 76b9
00000120: 3580 9cba abe0 1c3c 5acc 80b8 7005 3f3c
00000130: 8a52 2f3c c67a 5ebb 352b 87b9 bbb8 17bc
00000140: 8abb 30bc 1845 903a 26eb 863a 630d f7bb
00000150: f956 acb9 a847 4e3b 2ea3 893c b6f2 973b
00000160: a791 8fbc ba52 9b3b ac14 89bc 9aff 08bc
00000170: 8a3a 063a c458 5c3a b12a 25bc 817c eabb
00000180: 025f 81bb 66d2 0fbc 45f8 0e3b b869 b9bb
00000190: 364d 0b3c fc72 583c 799c 90ba 3716 88bc
000001a0: b53b f63b cdcc d33a 0343 4e39 c29c 1bbc
000001b0: 06a2 25bc f39c f3bb 7825 a4ba 6e6e fd3b
000001c0: d8ac 87bb a60f 693b 4559 41bc 11a4 96bb
000001d0: fdfa a2bc f450 463b e228 023b 61d1 803a
000001e0: a37c 4aba 4340 25bc b0cc db3b 86dc 03bc
000001f0: 4d89 c23b 2dfa 8abb cffc ea3b a6f1 8fb9
00000200: 48bb 8437 10ee 6bbb eff0 843b e527 bbbb
00000210: 22a1 b6bb 5ce8 30bb 8703 4d3c 9cc6 1cbb
00000220: 8ca0 b0bb 0d90 acbc be13 51bb 51dc 7b3b
00000230: 0675 b0bb 2424 353c be55 8f3a ee53 86bb
00000240: 76e0 e63b af9b 11bc 2642 4b3b 85fc ed3a
00000250: a60b 4bbc dadb 15bc 612f 63bc efa1 afbb
00000260: 7ca9 b1bb 8058 0c3c 3a5c 083c a7a9 bc3b
00000270: 4d51 12bc 3584 7f3b 3baf ab3b 5d63 72bb
00000280: c839 e1bb 9c9b 39bc 74c0 823b 81ba 8b3b
00000290: 4ad5 863b 040b 21bc c49a 20bb 091b b939
000002a0: 4a74 78bc e252 a3bb 9cdf ebb9 7df4 01bc
000002b0: 674c b8bc 6e0b 3338 ca11 aabb bc30 f0bb
000002c0: e6fa 41bb 88dd 863a c303 85bb 9960 90bc
000002d0: b2d6 5a3b 6969 a73a fb73 c53b edb1 9eba
000002e0: 0fb6 5ebb a103 b9bb 570d 36bb c116 a53a
000002f0: b53c 43bc 9ae8 87bb df77 243b 60e0 b6bc
00000300: 7bf0 5e3c ea63 b0bb 90f1 bbbb 8e12 bb3b
00000310: 2340 1f3a 36b5 17bc edec 71bb a7df 9f3b
00000320: bc4a 0ebb bbcb ed3b 34b0 7aba 71fb 513b
00000330: 3b1c bbbb 9736 983a 1ca3 0dbc ad19 093c
00000340: fc09 53bc a7ea 1d3b 370c 55bb 8e7e 2d3c
00000350: 9d43 893b cfe0 44bc 8d49 4c3b d216 7bbc
00000360: 7c52 a738 0082 bfbb ab4d 57bb 094d a0bb
00000370: 9e46 8ebb b288 77bb 2266 21bc bfb3 49bc
00000380: a20a 0dbb 5889 873c 9ef9 adbb e1cd 9fbc
00000390: 4e58 74bb 25aa 023c 8773 033c 26ae adbb
000003a0: bd39 0e3a e6f9 a73b 286c 67b9 82d2 863c
000003b0: b6e0 fdbb bbb0 08bc 3e6c e23a 4a1d 65bb
000003c0: 851d 05bc 7b91 fcba e7fe 503c fba2 52bc
000003d0: d4aa b5ba 4ba0 a0bc 2f2a ca3b fa18 3dbc
000003e0: 3434 3e3a d31f 2a3c 7a6f acbb 42ba 653c
000003f0: 0f4c 493c e3c2 913b fa4b 303c 6f39 80bc

action_model._discrete_distribution.branches.2.bias f4 [2]
0.001380446 -0.0013804459
00000000: 15f0 b43a 14f0 b4ba
