results/boat-agent-checkpoint1/boat/boat-499983.onnx (onnx, 328993 bytes, 11 tensors)

discrete_act_size_vector f4 [1, 3]
0	0x40000000	2.0
1	0x40400000	3.0
2	0x40000000	2.0

network_body._body_endoder.seq_layers.0.weight f4 [256, 47]
0	0x3ea47cfd	0.32126608
1	0xbd02fe2e	-0.031980686
2	0xbea168db	-0.3152531
3	0x3de335f8	0.11094278
4	0x3e43725c	0.19086593
5	0xbdaaf8f9	-0.08348269
6	0x3eaa155a	0.33219415
7	0x3e4a6020	0.19763231
8	0xbe2740a3	-0.1633325
9	0x3dc1dfca	0.094665125
10	0x3e23c361	0.159925
11	0x3ec9095b	0.3926495
12	0xbe881913	-0.2658163
13	0x3c9a93de	0.018869337
14	0x3e4e3ead	0.20141096
15	0x3de6bbf0	0.11266315
16	0xbe7b8399	-0.2456192
17	0xbe3bfe82	-0.18358806
18	0x3d6980ba	0.05700753
19	0x3d4e0c55	0.05030473
20	0xbc3c72a1	-0.011501939
21	0xbda9be47	-0.08288246
22	0xbe17adb0	-0.1481235
23	0xbd5b3b5f	-0.053523418
24	0x3d087942	0.033318765
25	0xbe5651e4	-0.20929676
26	0xbe2724c7	-0.16322623
27	0xbd80784e	-0.06272946
28	0x3db99ffe	0.09063719
29	0xbd86d8b3	-0.06584301
30	0x3e0a51b7	0.13507734
31	0xbe211cb6	-0.15733609
32	0xbc79beec	-0.015243273
33	0x3ccdc8f4	0.025120236
34	0x3d409c0c	0.047023818
35	0x3d713f24	0.058898106
36	0x3da8545d	0.08219216
37	0xbd601740	-0.054709673
38	0x3d56aa86	0.052408718
39	0xbe0cae77	-0.13738428
40	0xbb352e1d	-0.0027645894
41	0x3ea4c45d	0.32181063
42	0xbc3dfdfc	-0.011596199
43	0xbabcb491	-0.0014397075
44	0x3e59982c	0.21249455
45	0x3daf9633	0.0857357
46	0x3d922b9b	0.07137223
47	0xbd9c5c41	-0.076347835
48	0x3dffc7df	0.12489294
49	0xbe0d42b2	-0.13794973
50	0x3dd830d9	0.10556192
51	0x3d1694b3	0.036762904
52	0xbe3aea33	-0.18253402
53	0xbd9a256c	-0.07526669
54	0x3e36c1aa	0.17847314
55	0x3c95c1f3	0.018280959
56	0xbe480653	-0.19533662
57	0x3ebf8f26	0.374139
58	0xbca34cb0	-0.019934028
59	0x3e802dc5	0.2503492
60	0xbd94af96	-0.07260053
61	0x3ea9093c	0.33014858
62	0x3d6b111f	0.057389375
63	0x3cfffe57	0.031249208
64	0xbe401f4e	-0.18761942
65	0x3e0fbfdb	0.14038031
66	0xbd9263dc	-0.07147953
67	0xbe03d04b	-0.12872426
68	0x3dbe09ac	0.092791885
69	0x3d09cdbf	0.03364348
70	0x3e7dfe5b	0.2480406
71	0xbc856ca9	-0.016287165
72	0xbc943853	-0.018093264
73	0x3e3a6304	0.18201834
74	0x3daaacea	0.08333762
75	0x3e1a0c16	0.15043673
76	0x3e1d2938	0.15347755
77	0x3d413cb9	0.04717705
78	0xbd0e8587	-0.03479531
79	0xbe0d1532	-0.13777617
80	0xba8139c2	-0.0009859132
81	0x3ce460ed	0.027878249
82	0xbd752c82	-0.0598569
83	0x3eb56d31	0.3543487
84	0x3e81c0a8	0.25342298
85	0xbd99252a	-0.074777916
86	0x3edb65a4	0.42850983
87	0xbe032c12	-0.1280978
88	0x3e505318	0.20344198
89	0x3d2d4107	0.042298343
90	0xbdf4c48c	-0.11951551
91	0xbdfcd6b7	-0.12345641
92	0x3de8a407	0.11359411
93	0x3e947cd3	0.29001483
94	0xbe226f34	-0.15862733
95	0x3e10f0d9	0.14154376
96	0x3e40ca35	0.18827136
97	0xbdf3114a	-0.11868532
98	0xbd5878ef	-0.052849706
99	0x3d5dcb28	0.054148823
100	0x3eb219a9	0.34785202
101	0x3ccbd3e3	0.024881309
102	0x3e6c57df	0.23080395
103	0xbc8ef159	-0.017449068
104	0xbe41be91	-0.18920352
105	0xbe0ae071	-0.1356218
106	0xbe4d7000	-0.20062256
107	0x3ceecf8d	0.029151702
108	0xbe1b397d	-0.15158649
109	0xbe171177	-0.14752756
110	0x3d687248	0.056749612
111	0xbdce2c10	-0.10066998
112	0xbdddb64a	-0.108257845
113	0x3db57730	0.08860624
114	0xbe1816dc	-0.1485247
115	0x3e96325f	0.29335305
116	0xbd1c6289	-0.038179908
117	0x3e1e7702	0.15475085
118	0xbd78ab3b	-0.060710173
119	0xbba5050e	-0.005036003
120	0x3df98c5e	0.12184976
121	0x3e117a34	0.14206773
122	0x3e17b255	0.14814122
123	0xbd9c10dc	-0.07620403
124	0x3e2c4b1c	0.16825527
125	0xbc20d415	-0.009816189
126	0x3cf332f8	0.02968739
127	0xbdf8524c	-0.12125072
128	0xbdb4ed83	-0.08834364
129	0xbdd4d324	-0.103918344
130	0x3e098e79	0.13433255
131	0x3e10fd24	0.14159065
132	0x3dbc6e49	0.09200723
133	0x3d4d96f8	0.050192803
134	0x3da4507e	0.08023165
135	0x3ddb500b	0.10708626
136	0xbe9c5684	-0.30534756
137	0xbe03e98b	-0.12882058
138	0xbc122c20	-0.008921653
139	0xbe18d845	-0.1492625
140	0xbdbbf631	-0.09177817
141	0x3de0c91f	0.10975861
142	0x3b9076cf	0.0044086943
143	0x3a52c329	0.00080399454
144	0x3d8b4f5e	0.068022475
145	0xbdaba1b1	-0.083804496
146	0x3dd33ed2	0.103147164
147	0xbe5a444c	-0.21315116
148	0x3ccf59e5	0.02531142
149	0xbe88b9c4	-0.26704228
150	0xbdbbcef7	-0.09170335
151	0x3e855cfe	0.2604751
152	0xbd7c027b	-0.061525803
153	0xbcf65781	-0.030071022
154	0x3e4a4166	0.1975151
155	0xbd9c4eb7	-0.07632201
156	0xbdba7c7a	-0.09105773
157	0xbdafa32a	-0.08576043
158	0xbc15b456	-0.009137234
159	0x3cccaec3	0.024985677
160	0x3d36be0c	0.044614837
161	0xbe91883f	-0.2842426
162	0xbda05a91	-0.07829774
163	0x3e2717da	0.16317692
164	0xbe08b7ad	-0.13351317
165	0xbdacd99d	-0.08439944
166	0x3e5827ab	0.21108882
167	0x3dee5ac8	0.11638409
168	0x3d304330	0.043032825
169	0xbd5608e7	-0.052254584
170	0xbd8cf367	-0.06882363
171	0x3e15fe8c	0.14647883
172	0x3e43ebde	0.19132945
173	0xbdb08dbd	-0.086207844
174	0xbd797a13	-0.060907435
175	0x3d95fcc1	0.073235996
176	0x3dde975e	0.10868715
177	0xbc736d26	-0.014857566
178	0xbd6caab7	-0.057779994
179	0x3e948167	0.29004976
180	0x3e948ba3	0.29012784
181	0x3e4409c3	0.19144349
182	0xbcf2d259	-0.029641317
183	0xbd92f5f2	-0.071758166
184	0x3d9b9def	0.07598483
185	0x3e37de03	0.17955784
186	0x3e3a659c	0.18202823
187	0xbc8a17b8	-0.016857013
188	0x3e3148fa	0.17312995
189	0xbe1a6f9d	-0.1508164
190	0x3d1e2be6	0.038616084
191	0x3e31ea82	0.17374614
192	0xbdcff204	-0.10153583
193	0xbde74022	-0.11291529
194	0xbd92b3b0	-0.07163179
195	0xbd020998	-0.03174743
196	0x3e04196a	0.1290032
197	0x3cea2d0d	0.028585935
198	0xbe2c582b	-0.16830508
199	0x3d349195	0.04408415
200	0xbdf7b6b9	-0.120953985
201	0x3d24e92e	0.04026144
202	0x3db8732e	0.09006344
203	0x3e0089cf	0.1255257
204	0x3e8056ca	0.25066215
205	0xbccaf03d	-0.024772758
206	0x3e0332a0	0.1281228
207	0xbe98b8d2	-0.29828507
208	0x3e87a822	0.26495463
209	0xbd13fc44	-0.03612925
210	0x3eaa5b93	0.3327299
211	0x3dc01b02	0.09380151
212	0xbddfc393	-0.10925975
213	0x3c607960	0.013700813
214	0xbe8abd33	-0.27097473
215	0xbdf656d6	-0.120282814
216	0x3d99f3e6	0.07517223
217	0x3d5fd94c	0.05465059
218	0xbd12e701	-0.035864834
219	0xbe31035f	-0.17286442
220	0xbcd08a46	-0.025456559
221	0xbdc4e39d	-0.09613726
222	0xbc74c2c4	-0.014939014
223	0xbdf930f2	-0.12167539
224	0x3e841f9c	0.25805366
225	0xbe044c1d	-0.1291966
226	0xbda9d6f5	-0.08292953
227	0x3d30998b	0.04311518
228	0xbe4d3fd2	-0.20043877
229	0xbe380647	-0.17971145
230	0xbe13bb0d	-0.14426823
231	0xbe837422	-0.2567454
232	0x3e2880ae	0.16455337
233	0x3e19ff59	0.15038814
234	0x3e05c317	0.13062702
235	0x3db8e3db	0.09027835
236	0xbdcacad1	-0.099019654
237	0x3df3aa4a	0.118977144
238	0x3e142b61	0.14469673
239	0xbd7e0e6e	-0.06202548
240	0x3d00c378	0.031436414
241	0x3e9ea220	0.30983067
242	0xbd984901	-0.074357994
243	0x3c8bf4aa	0.017084438
244	0x3e9b89cc	0.30378568
245	0xbd085de0	-0.03329265
246	0xbbe218f5	-0.0068999478
247	0x3e0a7e23	0.1352468
248	0x3d51fc5c	0.05126606
249	0x3d6a0317	0.057131853
250	0x3cb0f470	0.021600932
251	0xbea3d4f3	-0.31998405
252	0x3d70f102	0.058823593
253	0x3e06b1c8	0.13153756
254	0xba3f356c	-0.0007294032
255	0x3e1da4f7	0.1539496

network_body._body_endoder.seq_layers.0.bias f4 [256]
0	0x3b7195f7	0.0036863068
1	0x3b8b1b2e	0.0042451834
2	0xbc44f2ce	-0.01202078
3	0x3c04ce4a	0.008105824
4	0xbb8493e8	-0.004045952
5	0xbb8cf773	-0.004301959
6	0xbc7f6760	-0.015588611
7	0x3cdd2a4c	0.026997708
8	0x3c17e24f	0.009270265
9	0xbc83650b	-0.016039392
10	0xbb2cb4fe	-0.0026352997
11	0x3cb00ade	0.021489557
12	0xbc89f8d6	-0.016842287
13	0xbc8053b4	-0.015664913
14	0x3c9f4d70	0.019446105
15	0xbc1b928e	-0.009495391
16	0xbc072c7c	-0.008250352
17	0xbbba1614	-0.0056789014
18	0xbb6aef85	-0.0035848331
19	0x3a72b393	0.0009258326
20	0x3c68ec13	0.014216441
21	0x3bd13464	0.0063844193
22	0xbc1bd258	-0.009510599
23	0xbb1d256d	-0.0023978606
24	0xbad657ed	-0.0016353108
25	0x3c3cf32e	0.011532588
26	0xbcaa65f2	-0.020800564
27	0xbd2ddbff	-0.042446133
28	0xbc70e02a	-0.014701882
29	0xbcd8ef67	-0.026481343
30	0xbc883fc5	-0.01663197
31	0xbb61561c	-0.00343836
32	0x3b9669b4	0.0045902375
33	0x3c3eba01	0.0116410265
34	0xbb574c90	-0.0032852031
35	0xbb7be149	-0.003843384
36	0x3a47fa55	0.000762855
37	0x3c1b6298	0.009483956
38	0x3af56752	0.0018722808
39	0x3bbea2a9	0.0058177304
40	0x3c82f3b5	0.01598535
41	0xbce86357	-0.028367681
42	0x3b3f1835	0.0029158716
43	0xbbde2c50	-0.006780185
44	0x3c88a745	0.016681323
45	0xbccee317	-0.02525477
46	0x39bd69cf	0.00036127723
47	0x3b6c7add	0.0036083974
48	0xbb9f7fb0	-0.0048675165
49	0xbbe30e67	-0.006929207
50	0x3c14813e	0.009064017
51	0xbb9e411e	-0.00482954
52	0xbd152a0d	-0.036417056
53	0xba8d53dd	-0.001078244
54	0x3af47faa	0.001865377
55	0xbcae366c	-0.021266185
56	0xbd0086db	-0.03137861
57	0xbc9be5be	-0.019030448
58	0xbd24a5e8	-0.040197283
59	0xbc3a3b16	-0.011366626
60	0xbc67578c	-0.014119994
61	0x3c2bdd6c	0.010489803
62	0x3c9f4701	0.019443037
63	0xbc148e1f	-0.009067087
64	0x3c138318	0.009003423
65	0xbbbbff0d	-0.0057371915
66	0x3c0181fe	0.007904528
67	0xbb6df02d	-0.0036306486
68	0x3bcf4448	0.0063252784
69	0x3af431aa	0.0018630524
70	0x3ba653e5	0.005075919
71	0x3b48d208	0.0030642767
72	0xbcadea93	-0.021230018
73	0x3b88e7eb	0.0041780374
74	0x3d21d08e	0.039505534
75	0xbbf12362	-0.0073589543
76	0x3b73d92e	0.0037208307
77	0x3b4bdbe3	0.0031106404
78	0xbb914278	-0.0044329725
79	0x3c438a1a	0.011934781
80	0xbcfa4e93	-0.030555045
81	0x3bfa3c52	0.0076365853
82	0xbc0d7f99	-0.008636379
83	0x3c42eb0e	0.011896862
84	0x3ca3862d	0.019961441
85	0x3c31e718	0.01085832
86	0x3cd34f8f	0.025794772
87	0xbc13d5c9	-0.009023138
88	0xbc23cfc0	-0.009998262
89	0x3c3d37fa	0.01154899
90	0xbbb07cdd	-0.0053859786
91	0xbc52de6e	-0.012870414
92	0x3bc48608	0.005997423
93	0x3c06bf79	0.008224362
94	0x3bce5029	0.006296177
95	0x3be3fc0e	0.0069575375
96	0x3cfa7e08	0.030577675
97	0x3b3c166e	0.0028699893
98	0xbbcdbff0	-0.0062789842
99	0x3a03a464	0.00050217495
100	0x3c75c53e	0.0150006395
101	0xbb70e132	-0.003675532
102	0xbc194921	-0.009355814
103	0xbbb5ef6f	-0.0055522243
104	0xbb7fdf92	-0.003904317
105	0xba25de74	-0.00063273986
106	0xbd140da3	-0.036145817
107	0xbcf795c5	-0.030222783
108	0x3ccdd323	0.025125092
109	0xbc07419d	-0.0082553895
110	0x3a167b0f	0.0005740383
111	0xbcbfa72b	-0.023395142
112	0xba93b2ed	-0.0011268534
113	0xbc9787cd	-0.018497372
114	0x3c77b7fe	0.015119551
115	0x3b878322	0.0041355053
116	0x3b6e5dce	0.003637183
117	0xbcf79047	-0.030220164
118	0xba1cd90a	-0.0005983269
119	0xbc11df9b	-0.008903409
120	0xbba0b937	-0.004904892
121	0x3cca9cb6	0.024732929
122	0xbc4a3259	-0.012341105
123	0x3c92feb7	0.017943723
124	0xbb231873	-0.00248864
125	0x3b03afcc	0.0020093797
126	0xbbe9de87	-0.007137123
127	0xbc982190	-0.018570691
128	0xbaf45f16	-0.001864406
129	0xb9071760	-0.00012883311
130	0xbbf169fa	-0.0073673697
131	0xbbc4d216	-0.0060064895
132	0xbc6c039a	-0.014405156
133	0xbbc1842e	-0.0059056496
134	0x3bf6559d	0.00751753
135	0xbd0bf6b9	-0.03417084
136	0xbcd3d0e7	-0.025856448
137	0xbbf6bb71	-0.007529669
138	0xbbb5459f	-0.005531981
139	0xbbbeaa87	-0.0058186683
140	0x3ba5c918	0.0050593726
141	0xbb97922d	-0.00462558
142	0xbbefaa2a	-0.0073139863
143	0x3bb5b5ae	0.0055453395
144	0xbbe15547	-0.006876621
145	0xbbce714c	-0.006300127
146	0xbc3cb5ef	-0.011517986
147	0xba18456f	-0.0005808686
148	0x3c1a1f4b	0.009406875
149	0xbb91ae0c	-0.004445797
150	0xbcd3a252	-0.025834236
151	0x3b477a35	0.0030437831
152	0xbc1b7e8b	-0.009490619
153	0x3c8772b9	0.016534196
154	0x3b40bcf9	0.0029409511
155	0x3c106083	0.008812073
156	0x3bb6e29d	0.0055812136
157	0xbc4935a7	-0.012280858
158	0x3c65cbad	0.014025611
159	0xbc89ca16	-0.016819995
160	0x3a3f344e	0.0007293866
161	0xbcb4873b	-0.02203714
162	0x3c105bfc	0.008810993
163	0x3c924ea7	0.01785977
164	0xbc867cba	-0.016416896
165	0x3b11bd08	0.0022237916
166	0x3d0edbdc	0.034877643
167	0xbba86a57	-0.00513963
168	0xbc7148a8	-0.014726795
169	0xba12d592	-0.00056012825
170	0xbcde48e7	-0.027134372
171	0xbb20b818	-0.002452379
172	0x3c2df055	0.010616382
173	0xbd0e41be	-0.034730665
174	0x3c39ecb2	0.0113479365
175	0x3ab5c449	0.0013867702
176	0xbc3f9bb8	-0.011694841
177	0xbcfda148	-0.030960694
178	0x3baa8121	0.0052033816
179	0xbb467492	-0.0030281884
180	0x3bdada52	0.006678858
181	0xba554383	-0.0008135365
182	0x3c4e7cc0	0.012602985
183	0xbbf39d14	-0.0074344967
184	0xbbc32dec	-0.005956402
185	0xbca02aed	-0.019551719
186	0xba02ed1d	-0.0004994439
187	0xbbc0716b	-0.0058728955
188	0xbd08ae81	-0.033369545
189	0xbc2b173a	-0.010442549
190	0x3c88ff23	0.016723221
191	0xbc827f18	-0.015929744
192	0xbcb70749	-0.022342341
193	0xba5d71b8	-0.00084474264
194	0x3ce0ae39	0.027426826
195	0xbb575948	-0.0032859612
196	0x3c478c12	0.012179391
197	0x3b6df539	0.0036309494
198	0x3c23b538	0.009991936
199	0xbc0f001a	-0.008728052
200	0xba84dfb2	-0.0010137467
201	0xbc86a248	-0.016434804
202	0xbc3076cd	-0.010770512
203	0xbc160de8	-0.009158589
204	0x3bde66b0	0.0067871436
205	0xbc1f58cc	-0.009725761
206	0x3bc068ae	0.005871854
207	0xbcd6057b	-0.02612566
208	0xb82ad6a4	-4.0731058e-05
209	0xbbac35cd	-0.005255437
210	0x3a80343d	0.0009781193
211	0xbbcd2f25	-0.0062617236
212	0xbbbbe3c2	-0.005733938
213	0xbaeba9ae	-0.0017979646
214	0xbb5f38ca	-0.0034060949
215	0xbbd9df88	-0.0066489615
216	0xbc1720a4	-0.009224091
217	0xbba3f11f	-0.005003109
218	0xb9c8a06c	-0.00038266496
219	0x3b8049c1	0.003915042
220	0x3bf352e0	0.007425651
221	0x3b211659	0.002457997
222	0xbae74a75	-0.0017646091
223	0xbcf19891	-0.029491695
224	0xbbd2a6a1	-0.006428555
225	0x3bdd1bf5	0.0067477175
226	0x3b48387f	0.0030551252
227	0xbc1c24ac	-0.009530228
228	0xbcad834e	-0.021180775
229	0x3cd09c26	0.025465082
230	0xbca6d127	-0.020363403
231	0x3d177933	0.03698082
232	0x3c6103f0	0.013733849
233	0xbbafeba7	-0.005368668
234	0xbbedf509	-0.0072618765
235	0xbaa1af20	-0.0012335517
236	0x3cac356d	0.02102157
237	0xbc5b73e9	-0.013394334
238	0xbca74733	-0.020419693
239	0xba5b036e	-0.0008354698
240	0x3bd25f43	0.0064200475
241	0xb969ac10	-0.0002228471
242	0xbc4a52c1	-0.012348832
243	0x3b6cbabd	0.0036122047
244	0xbd1338cb	-0.035942834
245	0xbaf53b37	-0.0018709664
246	0x3c202235	0.009773781
247	0x3cb26d28	0.021780565
248	0x3c96c936	0.018406492
249	0xbb457811	-0.003013138
250	0xb9fd5e0a	-0.00048325985
251	0xbc71b8e1	-0.014753551
252	0x3d289719	0.041159723
253	0xbc1894fb	-0.009312863
254	0x3be58153	0.007003942
255	0xbcbea360	-0.023271263

network_body._body_endoder.seq_layers.2.weight f4 [256, 256]
0	0xbd6365bf	-0.055516955
1	0x3d4daa9a	0.050211526
2	0xbcc01e54	-0.023451962
3	0xbd8fae1a	-0.07015629
4	0x3d65290e	0.055947356
5	0xbd8c2562	-0.06843068
6	0x3d6a6401	0.057224277
7	0xbd758756	-0.05994352
8	0x3c804aae	0.01566061
9	0x395f434c	0.00021292007
10	0xbd8eb68b	-0.06968411
11	0xbcaa62a2	-0.020798985
12	0xbd8780f0	-0.0661639
13	0x3d604b12	0.054759093
14	0xbce17833	-0.027523136
15	0xbd75cc44	-0.060009256
16	0x3d472da4	0.04862751
17	0x3b50b14a	0.0031843954
18	0x3bddadc9	0.0067651016
19	0x3c07d98f	0.008291616
20	0x3d404c68	0.046947867
21	0x3dd99c72	0.10625543
22	0x3dca3438	0.09873241
23	0xbcb006e2	-0.021487657
24	0xbc3991f3	-0.011326301
25	0xbd7bb887	-0.061455276
26	0x3dcbc20f	0.09949123
27	0xbc26fba6	-0.010191834
28	0xbd84609d	-0.0646374
29	0x3d3b6a6e	0.045755796
30	0x3ccd0571	0.025027009
31	0xbdd37bc8	-0.10326344
32	0xbd44dc4d	-0.048061658
33	0x3db08ce1	0.086206205
34	0x3d311524	0.043233052
35	0x3e180f03	0.14849477
36	0xbd08ae9a	-0.033369638
37	0x3d9a9eb3	0.07549801
38	0x3babb5aa	0.005240162
39	0x3db86dfb	0.09005352
40	0xbd404c8c	-0.046948
41	0x3c15f483	0.009152534
42	0x3c6f4eb4	0.014606167
43	0x3ba8694b	0.005139505
44	0xbda052d6	-0.078283
45	0x3db3f9f3	0.087879084
46	0x3d876f4f	0.06613027
47	0x3db9d819	0.090744205
48	0x3baa7cd5	0.0052028694
49	0x3d2cfb2a	0.042231716
50	0x3cc7c20b	0.02438452
51	0x3daeb9df	0.08531546
52	0x3cd4210d	0.025894666
53	0x3b56536e	0.0032703537
54	0xbbc864c5	-0.0061155283
55	0x3d72e302	0.059298523
56	0x3d0bc470	0.034122884
57	0xbda7c457	-0.08191746
58	0xbc19627d	-0.00936186
59	0x3c53b008	0.012920387
60	0xbd8b4502	-0.068002716
61	0xbd244de8	-0.04011336
62	0x3de0e306	0.10980801
63	0x3d9d5997	0.076831035
64	0x3dc8ace4	0.09798601
65	0xbdb08fe2	-0.086211935
66	0x3d9ff764	0.07810858
67	0x3d136056	0.035980545
68	0x3dcdc9c1	0.10048247
69	0x3cfed515	0.031107465
70	0xbb848c83	-0.0040450706
71	0xbc169bf5	-0.0091924565
72	0xbdc86e51	-0.09786666
73	0x3da226d0	0.07917559
74	0x3df06c61	0.11739422
75	0x3dfc68de	0.12324689
76	0x3af6d1fc	0.0018830891
77	0xbd7773aa	-0.06041304
78	0x3e4ffd52	0.20311478
79	0x3d413854	0.04717286
80	0xbdf1e7c7	-0.11811786
81	0xbd33dd4d	-0.04391222
82	0xbbc6fed7	-0.0060728597
83	0x3d217341	0.039416555
84	0x3d325863	0.043541323
85	0xbe09ad26	-0.13444957
86	0x3d42383c	0.04741691
87	0xbddb8267	-0.10718232
88	0xbd53d0e2	-0.051712878
89	0x3ddd522d	0.108066894
90	0x3d65ae9b	0.05607472
91	0x3cce3bf3	0.02517507
92	0x3cebd859	0.028789686
93	0x3d83b27d	0.06430528
94	0xbd800ffc	-0.06253049
95	0xbe03ff27	-0.12890302
96	0xbcdb0c8a	-0.026739378
97	0x3dc060e5	0.09393481
98	0xbd485621	-0.048910264
99	0xbd6a5c29	-0.057216797
100	0xbd214a13	-0.039377283
101	0xbbc4bc2e	-0.006003878
102	0x3d7cdd3f	0.061734434
103	0xbcc37c6a	-0.023863036
104	0x3c1b19f7	0.00946664
105	0xbd9a594d	-0.07536564
106	0x3cb76189	0.022385376
107	0xbbd18c7b	-0.0063949204
108	0x3c22e06b	0.009941201
109	0xbda07d41	-0.0783639
110	0xbd2cfe40	-0.04223466
111	0xbcc16488	-0.023607507
112	0xbd181fb6	-0.037139617
113	0x3dd77874	0.105210215
114	0xbd438588	-0.047734767
115	0xbc4c17b5	-0.012456824
116	0xbb37d4db	-0.0028050456
117	0xbd60cf07	-0.054884937
118	0x3d886bf0	0.066612124
119	0xbd58855f	-0.052861568
120	0xbc30de93	-0.010795253
121	0xbcb29161	-0.021797838
122	0x3bc99739	0.0061520603
123	0x3d65b740	0.056082964
124	0xbd1b5f2a	-0.037932552
125	0x3de6f80e	0.112777814
126	0x3d421a77	0.04738852
127	0x3d37798a	0.044793643
128	0xbd3c7e47	-0.046018865
129	0x3da0197c	0.07817361
130	0x3dae8b33	0.08522644
131	0xbc73c858	-0.014879309
132	0xbcdb5ce0	-0.026777685
133	0xbcfe5f90	-0.031051427
134	0xbba68cdd	-0.00508271
135	0x3d31fee9	0.043455992
136	0x3d411ca2	0.047146447
137	0xbc1168ce	-0.008875085
138	0x3c9d4b5c	0.019200973
139	0x3d1f0d59	0.03883109
140	0xbd65d083	-0.056107055
141	0x3d0a706e	0.033798628
142	0xbd56ed79	-0.052472565
143	0xbd218730	-0.039435565
144	0x3d330c1a	0.043712713
145	0xbc7bf1a1	-0.015377433
146	0x3d0541af	0.032533344
147	0xbbb96e43	-0.005658896
148	0xbabebd31	-0.0014552233
149	0x3cd99595	0.026560584
150	0x3dc0d3b2	0.09415378
151	0xbd5c0784	-0.053718105
152	0xbd56afe6	-0.052413844
153	0x3c42f7db	0.011899914
154	0x3e148181	0.14502527
155	0xbcde1076	-0.027107459
156	0x3d2a4f51	0.04157955
157	0xba2ef8cd	-0.00066746474
158	0xba8ec4ce	-0.0010892393
159	0xbc671baa	-0.014105717
160	0xbc9d7b26	-0.01922376
161	0xbb51b027	-0.0031995864
162	0x3de76e30	0.113003135
163	0xbcb674ca	-0.022272486
164	0xbd8a35c3	-0.067485355
165	0xbdb3f6da	-0.087873176
166	0x3cc33d0a	0.023832817
167	0xbd66bddb	-0.056333404
168	0xbdd2e755	-0.10298029
169	0x3cc9995c	0.02460926
170	0xbdaedccd	-0.08538208
171	0x3ba8d946	0.005152854
172	0xbd9a8a07	-0.07545858
173	0xbdde27ad	-0.10847411
174	0x3d84647a	0.06464477
175	0x3da95c64	0.08269575
176	0x3d6a43a8	0.05719343
177	0x3bc0c85c	0.0058832597
178	0xbd58bf33	-0.052916717
179	0x3c2f72f1	0.0107085565
180	0x3d9d66a7	0.07685595
181	0xbc15fa30	-0.009153888
182	0xbcb769b1	-0.022389265
183	0xbd1c186b	-0.038109224
184	0x3cf3bb28	0.029752329
185	0xbdd74c25	-0.1051257
186	0x3daedeab	0.08538564
187	0xbcec4e29	-0.028845863
188	0x3dd99e66	0.10625915
189	0xbd88f8e6	-0.066880986
190	0xbdf60991	-0.120135434
191	0x3cdc20fd	0.026871199
192	0x3bd91cbf	0.0066257413
193	0xbcb8d3a0	-0.022561848
194	0x3d995dfb	0.074886285
195	0xbd0efebb	-0.0349109
196	0xbd01b45e	-0.031666152
197	0x39cee5be	0.00039462553
198	0x3d9cd19a	0.07657166
199	0x3d8efe4d	0.06982098
200	0x3d40b756	0.047049843
201	0xbd783e11	-0.060606066
202	0xbd7af5c9	-0.061269555
203	0xbcaed533	-0.021341896
204	0xbc179cb0	-0.009253666
205	0x3c9326a8	0.017962769
206	0x3d85fd59	0.06542463
207	0x3c676c47	0.014124936
208	0xbd960a57	-0.07326191
209	0xbca00dcb	-0.019537827
210	0xbd49323d	-0.049120177
211	0xbda76e6a	-0.08175357
212	0xbc779aa2	-0.015112551
213	0xbcaf1b72	-0.021375392
214	0x3b40fbc5	0.0029446941
215	0xbdbabfcf	-0.09118616
216	0xbdd23f0a	-0.1026593
217	0xbc40f67b	-0.0117775155
218	0xbd03d9b1	-0.03219003
219	0x3d483fc5	0.04888894
220	0xbc4ac554	-0.012376148
221	0xbd1c5d59	-0.03817496
222	0xbbbdad46	-0.005788478
223	0x3b894b7d	0.004189907
224	0x3db0e58a	0.08637531
225	0x3d05acb4	0.032635406
226	0xbd8c9603	-0.0686455
227	0x3ce2849f	0.02765113
228	0xbddd32c7	-0.10800701
229	0x3cb4d4df	0.022074161
230	0x3daddb50	0.08489096
231	0x3d36bcd9	0.044613693
232	0xbc8b4320	-0.016999781
233	0x3d848314	0.06470314
234	0x3e12cc8f	0.14335845
235	0xbc91798e	-0.017758157
236	0xbd9228d2	-0.07136692
237	0xbb0c3744	-0.0021395246
238	0x3cc03bc3	0.023465997
239	0x3d5349ea	0.05158416
240	0xbd015acc	-0.03158073
241	0x3b8a3627	0.0042178812
242	0xbe339f4c	-0.17541236
243	0xbdb4ec84	-0.08834174
244	0xbd39b9d7	-0.045343246
245	0xbc37081a	-0.011171365
246	0xbd70d66e	-0.058798246
247	0xbd8047ce	-0.06263696
248	0x3d483d85	0.048886795
249	0x3d7332ab	0.059374493
250	0x3cd2e79a	0.025745202
251	0xbcd3e105	-0.025864134
252	0x3dc8db91	0.09807504
253	0xbddad299	-0.106846996
254	0x3dcc42f4	0.09973708
255	0xbba821d8	-0.0051309876

network_body._body_endoder.seq_layers.2.bias f4 [256]
0	0x3c55d420	0.013051063
1	0xb98c0180	-0.00026703998
2	0xbba51bb2	-0.005038702
3	0xbc81b861	-0.015834989
4	0x3b908e24	0.0044114757
5	0x3a5a470d	0.00083266274
6	0xbaa0fe64	-0.0012282846
7	0x3be5b7ff	0.0070104594
8	0xbae102ce	-0.0017166974
9	0x3add04ed	0.001686243
10	0x3c24db9d	0.0100621255
11	0xbc5c638c	-0.013451468
12	0x3b3551fe	0.002766728
13	0xbb9283c0	-0.004471272
14	0xbb3f72db	-0.0029212746
15	0x3b60b7d8	0.0034289267
16	0x3ca0dac5	0.019635567
17	0xbc10de2e	-0.008842034
18	0xbba33954	-0.0049811993
19	0xbc3688a0	-0.011140972
20	0x3c6f429b	0.014603282
21	0x3bd128c4	0.0063830335
22	0x3b822ab9	0.003972378
23	0xbc0eb887	-0.008710987
24	0xbba6f101	-0.005094648
25	0xbba2158a	-0.0049464153
26	0xbc1ab7be	-0.009443222
27	0xbc2cb8d6	-0.010542115
28	0xbc93f1ca	-0.01805963
29	0xbc09ec81	-0.008418203
30	0xbb19b71f	-0.0023455096
31	0x3cc3c085	0.023895511
32	0xba7e8624	-0.00097093196
33	0x3b4e3f0f	0.0031470691
34	0x3b9a1af7	0.0047029215
35	0xbc4310a8	-0.011905827
36	0xbc5505cd	-0.013001871
37	0xbbac2bd3	-0.0052542477
38	0xbba6b94a	-0.005088006
39	0xbb8b8bec	-0.0042586233
40	0x3ca31d81	0.01991153
41	0xbbae3a4c	-0.005317008
42	0x3a92df2a	0.0011205424
43	0x3b6f6faa	0.0036535063
44	0xbb3def4d	-0.0028981746
45	0xba939d79	-0.001126214
46	0x3c586223	0.013206991
47	0xbcecd53e	-0.028910276
48	0x3c2b6337	0.010460666
49	0xbbf67038	-0.0075207017
50	0x3bedd2e4	0.007257806
51	0xbc86b77b	-0.016444912
52	0xbbe5e29a	-0.0070155384
53	0x39d18019	0.00039959027
54	0x3b9c33b2	0.0047669047
55	0x3ad5fbea	0.0016325687
56	0xbbb6f76b	-0.0055836937
57	0xbc3ad714	-0.011403818
58	0x3c238d96	0.009982487
59	0xbc1f8c88	-0.009738095
60	0xbba043c8	-0.0048908927
61	0xbae43b3d	-0.0017412674
62	0x3b0178ce	0.0019755843
63	0xbb788c37	-0.0037925371
64	0xbb029b2c	-0.0019928915
65	0xbab4d9cf	-0.0013797822
66	0x3c048bb9	0.008089953
67	0xbc22eef3	-0.009944665
68	0xbbae3807	-0.0053167376
69	0x3bc061fb	0.005871055
70	0x380d40dd	3.367743e-05
71	0xbbf585e5	-0.007492768
72	0x3ab95b0a	0.0014141512
73	0xbbe0892b	-0.006852289
74	0xbc1744fe	-0.009232758
75	0xbbf8c0c6	-0.0075913398
76	0x3bbdd8eb	0.005793681
77	0x3c433fd1	0.0119170705
78	0xbb6a7004	-0.0035772333
79	0xbb03f55f	-0.0020135266
80	0xbb62fe21	-0.0034636336
81	0x3a9f2bf2	0.0012143834
82	0xbb799a98	-0.003808653
83	0x3c8b0447	0.016969813
84	0x3bc2ea0f	0.005948312
85	0x3b176d11	0.002310578
86	0x3ad3fcaf	0.0016173328
87	0xb9a51a5f	-0.000314909
88	0x3a7e5d82	0.0009703265
89	0xbbfe60b7	-0.007762994
90	0x3c4ec85c	0.012621012
91	0x3bebffa7	0.007202107
92	0x3c0ad110	0.008472696
93	0xbb815941	-0.0039474075
94	0x3bc738c8	0.006079767
95	0xbb588803	-0.0033040054
96	0xb8a90b5c	-8.060664e-05
97	0xbc9969ae	-0.01872715
98	0x3ae0bd86	0.0017146326
99	0xbb447c51	-0.0029981325
100	0x3c016928	0.007898606
101	0x3bf22d9f	0.0073906924
102	0x3c8f6706	0.01750518
103	0xbb90a792	-0.004414507
104	0xb992e76e	-0.0002801972
105	0xbb579158	-0.0032893028
106	0x3bacd740	0.0052746832
107	0xbbf49ea4	-0.0074652005
108	0x3b3f0d94	0.002915238
109	0xbb98fa4e	-0.0046685105
110	0x3c537389	0.012905964
111	0x3bf3ddec	0.0074422266
112	0x3cbd37b1	0.023097845
113	0xbbf07a37	-0.007338788
114	0xba91aec7	-0.001111471
115	0xbc5b0fdd	-0.013370481
116	0xbbbdcf22	-0.0057925144
117	0x3b951543	0.0045496537
118	0x3c0f9c4b	0.0087652905
119	0x3c8b1865	0.016979406
120	0xbba7134e	-0.005098737
121	0xbb558c14	-0.0032584714
122	0x3cf66282	0.030076269
123	0xbbcce179	-0.0062524644
124	0xbbae246a	-0.0053143995
125	0x3b9ac6e8	0.0047234185
126	0x3a6407d3	0.00086986757
127	0xbc1a3541	-0.009412111
128	0xbb88dc06	-0.0041766195
129	0xbc818969	-0.015812593
130	0xbc2a4efa	-0.010394806
131	0x3c607c27	0.013701475
132	0xbb93110c	-0.004488116
133	0xbbbc07c9	-0.0057382328
134	0x3ceaa489	0.02864291
135	0x3cb9ec47	0.022695674
136	0xbbf16487	-0.00736672
137	0xb8a051d3	-7.6446355e-05
138	0xbc0e5788	-0.008687861
139	0xbbf98ee4	-0.007615911
140	0x3b99eaf6	0.004697199
141	0xbc93a52a	-0.018023092
142	0xbbdb6e40	-0.0066964924
143	0x3cd9908a	0.02655818
144	0xb9824036	-0.00024843373
145	0x3b5ce6de	0.0033706944
146	0xba85f217	-0.0010219243
147	0x3ce334a3	0.02773506
148	0xbbcc1b57	-0.006228845
149	0xbbd7d8c4	-0.00658712
150	0x3ad765c3	0.0016433526
151	0x3caba9a3	0.020954913
152	0xb98996d9	-0.00026243067
153	0x3c200684	0.009767178
154	0xbafbb855	-0.0019204715
155	0xba108f1b	-0.00055144884
156	0x3bca87f9	0.00618076
157	0xbc1dc0e4	-0.009628508
158	0x3bf25d0b	0.0073963455
159	0xbc02949a	-0.00797
160	0xbb50a773	-0.0031838089
161	0x3a9030ae	0.0011000836
162	0xbb490269	-0.0030671603
163	0xbaa97ae2	-0.0012930299
164	0x3c970acf	0.018437771
165	0x3b481718	0.0030531343
166	0xbbcfe44d	-0.0063443542
167	0xbbb0c884	-0.005394997
168	0xbb5f2c71	-0.0034053589
169	0x3bf18f04	0.007371785
170	0x3cc35c15	0.02384762
171	0xbc1d43c8	-0.00959868
172	0x39a03c3a	0.0003056245
173	0xb96b0335	-0.00022412541
174	0xbbbb170f	-0.005709536
175	0xbbc4d9aa	-0.006007393
176	0x3cb427c8	0.021991625
177	0x3b8d911c	0.004320277
178	0x3b2bbad3	0.0026203885
179	0xbc38974a	-0.011266539
180	0x3ccaad61	0.024740877
181	0xbbd93994	-0.0066291783
182	0x3c3a663a	0.011376912
183	0xbb816758	-0.003949087
184	0x3a88252e	0.0010387057
185	0x3a2d8965	0.00066198997
186	0xbbfca437	-0.0077100056
187	0x3c9d8f28	0.019233301
188	0x3c4d29cf	0.012522175
189	0x3cf4ec0f	0.029897718
190	0x3c04329a	0.008068705
191	0xbc36ebc3	-0.011164608
192	0xbbb0bf70	-0.005393915
193	0xb9f64c68	-0.00046977703
194	0xbade71c7	-0.0016971164
195	0xbc18b3f6	-0.00932025
196	0xbb71fb85	-0.00369236
197	0xb9971ffb	-0.00028824792
198	0xbc5a54dc	-0.013325896
199	0x3aa54694	0.0012609535
200	0x3b90aea9	0.0044153524
201	0xbc3586f7	-0.011079541
202	0xbbb201bb	-0.005432335
203	0xbc4566af	-0.012048407
204	0x3c9f1540	0.019419312
205	0xbbc3bb5f	-0.005973264
206	0x3b0a4f2f	0.0021104326
207	0xbb2d8fab	-0.0026483338
208	0xbc8575ae	-0.016291466
209	0x3b2ca058	0.002634069
210	0xbb2474a5	-0.002509394
211	0xbc058124	-0.008148465
212	0xbbc90575	-0.0061346837
213	0x3c8fa532	0.017534826
214	0xbb002244	-0.0019551674
215	0xbbb0b0c8	-0.0053921677
216	0xbc258342	-0.010102095
217	0x3bf241bb	0.0073930896
218	0xbbdf5520	-0.0068155676
219	0xbc2f2cdf	-0.01069185
220	0xbbcf371f	-0.0063237096
221	0xbc1f11b1	-0.009708808
222	0x3b7e3967	0.0038791539
223	0xbaa8e927	-0.0012886868
224	0x3b8b29df	0.004246935
225	0x3a12fc80	0.00056070834
226	0x3a56e803	0.00081980246
227	0x3c9c9a1c	0.019116454
228	0xbb8a6e17	-0.0042245495
229	0x3c73cb92	0.014880078
230	0x3be0b05e	0.006856962
231	0xbc0f410a	-0.008743534
232	0xb9acfed1	-0.0003299625
233	0xba936270	-0.0011244547
234	0x3c211318	0.009831212
235	0xba9cbaba	-0.0011957504
236	0xbb83fd52	-0.004028001
237	0xba8b91e9	-0.0010648343
238	0x3ce8f049	0.02843489
239	0xbc6475b8	-0.013944082
240	0x3c98d6dc	0.01865714
241	0xbce2b01a	-0.027671862
242	0xbc11e798	-0.008905314
243	0xbaca040a	-0.0015412581
244	0x3bbefe41	0.0058286493
245	0xbacd08e9	-0.0015642914
246	0x3cfcd90f	0.03086522
247	0x3a091c76	0.0005230376
248	0xbb2b366b	-0.0026124965
249	0xbb613585	-0.0034364176
250	0xb900af29	-0.00012272283
251	0xb9b6c41f	-0.00034859867
252	0xbc6fa4c0	-0.014626682
253	0xbb814913	-0.0039454787
254	0xbb586e16	-0.00330246
255	0xbcc211a1	-0.023690047

action_model._discrete_distribution.branches.0.weight f4 [2, 256]
0	0x3c368103	0.011139157
1	0xbca0d84f	-0.019634394
2	0xbc2306e4	-0.009950373
3	0xbcb066fe	-0.021533486
4	0x3c099b59	0.008398854
5	0x3b0e5bc7	0.0021722184
6	0xb97b601b	-0.00023973027
7	0x3c5ab94d	0.013349843
8	0xbb4ba5bc	-0.0031074127
9	0x3be084be	0.0068517616
10	0x3c014a93	0.007891315
11	0xbb127244	-0.002234594
12	0x3b923314	0.0044616554
13	0xb9843316	-0.00025215064
14	0xbc1b4067	-0.009475804
15	0xbb7633db	-0.003756753
16	0x3b272cd7	0.0025508904
17	0xbb90443f	-0.004402667
18	0xbba6604f	-0.005077399
19	0x3c67475f	0.014116137
20	0xb957aa1a	-0.00020567366
21	0x3c32c46c	0.010911088
22	0xbb51a1c4	-0.003198729
23	0xbbb31315	-0.0054649212
24	0xbc5886f0	-0.013215765
25	0xbbf98385	-0.0076145553
26	0xbc9dc65c	-0.019259624
27	0xbc2f8d2d	-0.010714811
28	0xbc91468c	-0.017733835
29	0xbc913afe	-0.017728325
30	0x3a144807	0.0005656485
31	0x3c06fc0e	0.008238805
32	0x3b03df5e	0.002012215
33	0x3b4fcc20	0.0031707361
34	0x3be4c0a9	0.0069809747
35	0x3ba3ff29	0.0050047827
36	0xbc7e51cb	-0.015522431
37	0xbc899f2a	-0.016799528
38	0x3a8d2e4e	0.0010771246
39	0xbbb965dc	-0.0056578945
40	0x3bea3943	0.0071479394
41	0xbadd7fd2	-0.0016899055
42	0xb89f3928	-7.592357e-05
43	0xbc9c6ecf	-0.019095806
44	0xbb75bccb	-0.0037496563
45	0xbc7565dc	-0.014977898
46	0x3c27e0fd	0.0102465125
47	0xbc7c42a5	-0.015396749
48	0xbc3e139e	-0.011601357
49	0xbb8f558b	-0.004374211
50	0xbbf25faa	-0.007396658
51	0xbc00cc76	-0.007861247
52	0xbc354c74	-0.011065591
53	0xbbdf6fb8	-0.006818738
54	0x3cb06497	0.02153234
55	0x3a931f7e	0.0011224595
56	0xbb6cfa90	-0.003616009
57	0xbb5152bc	-0.0031940183
58	0x3c4d8590	0.012544051
59	0xbc5a9107	-0.013340241
60	0xb90b82bc	-0.00013304775
61	0xbba2217e	-0.0049478402
62	0x3bb58494	0.005539486
63	0x3bddeaea	0.0067723887
64	0x3abff1ad	0.0014644169
65	0x3c2aad1c	0.010417249
66	0x3bb401cc	0.0054933783
67	0x3c03609e	0.008018641
68	0xbc50c4a6	-0.012742197
69	0x3c5f3237	0.013622812
70	0x3ba0a617	0.004902612
71	0xbbf2d09d	-0.0074101225
72	0xbcb3a482	-0.02192903
73	0x3bdbd428	0.0067086406
74	0x3c21c3a5	0.009873305
75	0xbcb122bd	-0.02162301
76	0x3ba0a8ac	0.0049029198
77	0x3c4d81a3	0.012543115
78	0x3bc6795d	0.006056948
79	0xbbf9f893	-0.0076285093
80	0xbc53658e	-0.0129026305
81	0x3b547354	0.0032417374
82	0x3c0b5327	0.008503712
83	0x3b61a506	0.0034430637
84	0x39cda877	0.00039226163
85	0x3bea4839	0.007149723
86	0xbc2d04ce	-0.010560228
87	0xbbebe3bf	-0.0071987803
88	0x3ba291c7	0.0049612257
89	0xbc0db330	-0.008648679
90	0x3c9ff575	0.019526223
91	0x3c3c8bda	0.011507953
92	0x3b9ac049	0.004722629
93	0xbc41ed75	-0.011836399
94	0xbafc526f	-0.0019250641
95	0x3bd8cc43	0.006616147
96	0x3c30eea7	0.010799087
97	0xbcd4015d	-0.025879556
98	0xbbb066a8	-0.0053833313
99	0xbc80e80f	-0.015735654
100	0x3c6649f7	0.0140557205
101	0xbaf1a04e	-0.0018434615
102	0x3bb59f68	0.0055426843
103	0xbbfb4ea4	-0.007669287
104	0xbc44e172	-0.012016641
105	0xbc130c25	-0.008975063
106	0x3ca5f975	0.020260552
107	0x3afa643e	0.0019103361
108	0x3bb10352	0.005402007
109	0x39d2f115	0.0004023394
110	0x3ca59cdb	0.020216396
111	0xbbaf0fa7	-0.005342442
112	0x3bb731e5	0.0055906647
113	0xbbdfd85d	-0.0068312124
114	0xbc6c6881	-0.014429213
115	0xbc4f0eb1	-0.01263778
116	0xbc1c1a44	-0.009527747
117	0xbcd08ff3	-0.025459265
118	0xbb9abd6e	-0.004722289
119	0x3c98de94	0.018660821
120	0xbc5bdc03	-0.013419154
121	0xbafe8488	-0.001941816
122	0x3c910f3a	0.017707456
123	0xbbdf2e85	-0.0068109655
124	0xbc35d020	-0.011096984
125	0xbbf38da2	-0.0074326554
126	0xbc60e523	-0.013726505
127	0xbad83688	-0.0016495744
128	0xbbd71296	-0.006563495
129	0xbc5a3d87	-0.013320333
130	0xbc7a0056	-0.015258869
131	0xbc0b1e3d	-0.008491096
132	0xbc677086	-0.014125949
133	0xbba6dd61	-0.0050923084
134	0x3cbe9245	0.023263106
135	0x3c9deec3	0.01927889
136	0x3a95c4ce	0.001142645
137	0xbc5b3d96	-0.013381382
138	0xbc38a27f	-0.011269211
139	0xbcaecd6c	-0.021338187
140	0x3c5142d5	0.012772282
141	0x39737de4	0.00023221184
142	0xbb69be45	-0.0035666388
143	0x3a7ee5f5	0.00097235973
144	0x3c1b2dec	0.009471398
145	0xbbf58de8	-0.007493723
146	0x3aab659a	0.0013076544
147	0x3c1429e3	0.00904319
148	0x3ba56111	0.0050469716
149	0xbc0dc4c7	-0.008652872
150	0x3be54559	0.0069967923
151	0x3d18c78a	0.03729967
152	0xbb95f644	-0.0045764763
153	0x3c4bcba8	0.012438692
154	0xbb1d8b1c	-0.0024039214
155	0xbc80f76a	-0.015742976
156	0x3c0c6b76	0.008570543
157	0xbc93dd5e	-0.018049892
158	0x3c2ac485	0.0104228305
159	0xbc606937	-0.01369696
160	0xbb96c8e4	-0.0046015847
161	0xbb81d504	-0.003962161
162	0xbbb95a60	-0.0056565255
163	0x3ae48537	0.0017434721
164	0x3bc053b2	0.0058693523
165	0xbc97ef9a	-0.018546868
166	0xbc431c41	-0.011908592
167	0xbc195944	-0.0093596615
168	0xbc5f7aa7	-0.013640082
169	0xbaa646b1	-0.0012685863
170	0xbac7a805	-0.0015232569
171	0xbbffafca	-0.007802938
172	0xba970613	-0.0011522196
173	0x3a145a39	0.0005659196
174	0xbbe5fc83	-0.007018627
175	0xbc28832c	-0.01028518
176	0x3c39ac7e	0.011332629
177	0x3c622df5	0.013804902
178	0xba0a133c	-0.00052671484
179	0xbc172d27	-0.009227074
180	0x3c3caf14	0.011516351
181	0xbbbfb1d4	-0.005850056
182	0x3c2ee418	0.010674499
183	0x3b4004d7	0.002929976
184	0x3b52b94f	0.003215391
185	0xbc988528	-0.018618181
186	0xbb93f2da	-0.004515034
187	0x3c557b26	0.013029849
188	0xbc95c1a8	-0.018280819
189	0x3cc42b37	0.023946388
190	0xbb32bb66	-0.0027272343
191	0xbb94280d	-0.004521376
192	0x3b568993	0.003273581
193	0x3bb2ce33	0.00545671
194	0xbaf8e5cc	-0.0018989383
195	0xba8d536e	-0.001078231
196	0xbbad79ad	-0.005294046
197	0xbb9a6079	-0.0047112075
198	0xbc715f9d	-0.014732269
199	0x3c0345a5	0.00801221
200	0x3a7920cc	0.00095034833
201	0xbb4271d2	-0.0029669893
202	0x3a74ed12	0.00093431876
203	0xbbdcf5dd	-0.0067431764
204	0x3c4b7aef	0.012419446
205	0xbbbbf7fc	-0.005736349
206	0xbc66a55d	-0.014077512
207	0xbb8745a8	-0.0041281767
208	0xbc9ea9f1	-0.019368144
209	0x3a849d17	0.0010117617
210	0xbbf91519	-0.007601392
211	0xbc9f684b	-0.01945891
212	0xbc7f4cf3	-0.015582311
213	0x3c781c5e	0.015143482
214	0x3b842714	0.004032979
215	0x3b72f031	0.0037069435
216	0xbc88c7c1	-0.016696813
217	0xbc5a423f	-0.013321458
218	0xbc58c3ca	-0.0132302735
219	0xbbf3803f	-0.0074310596
220	0xbb440941	-0.0029912742
221	0x3c159245	0.009129112
222	0x3c92d696	0.017924588
223	0x3a39b475	0.000708408
224	0x39aa73ad	0.00032511112
225	0xbc90db19	-0.017682599
226	0x3bdef31b	0.006803883
227	0xbb206954	-0.0024476843
228	0xbb13a445	-0.0022528332
229	0x3a8b67b1	0.0010635761
230	0xbac014d0	-0.001465464
231	0xbaa56a27	-0.0012620137
232	0x3c29ba3e	0.010359345
233	0xbc4f0ced	-0.012637359
234	0x3ba10e89	0.004915063
235	0xbbe94142	-0.007118375
236	0xbb65645f	-0.0035002453
237	0xbc8d18d7	-0.017223759
238	0x3cca6718	0.024707362
239	0x3bf8394e	0.0075751906
240	0xbc39e88e	-0.011346949
241	0xbc973cd9	-0.018461632
242	0xbab67268	-0.0013919594
243	0x3a282615	0.0006414366
244	0xbc3bfbd2	-0.011473613
245	0xbb377a21	-0.0027996378
246	0x3cfeb0e9	0.031090217
247	0xbbf01476	-0.007326658
248	0xbc248f42	-0.010043921
249	0xbc06e6a2	-0.008233698
250	0x3bac42ea	0.005257
251	0x3b928d2b	0.004472395
252	0xbb1e2a8f	-0.0024134254
253	0x3b49363a	0.0030702488
254	0x3912969d	0.00013979753
255	0xbc19163f	-0.009343683

action_model._discrete_distribution.branches.0.bias f4 [2]
0	0x3bcfb1d9	0.0063383398
1	0xbbcfb1db	-0.0063383407

action_model._discrete_distribution.branches.1.weight f4 [3, 256]
0	0xbc6d5c11	-0.014487282
1	0x3cd330dd	0.025780136
2	0xbb8c5167	-0.004282165
3	0xbb36b19f	-0.0027876867
4	0xbc65b07f	-0.014019131
5	0xbbf7cf11	-0.007562526
6	0x3b727924	0.0036998475
7	0xba7d982a	-0.00096738583
8	0x3a877bce	0.0010336579
9	0xbbee16f8	-0.0072659217
10	0xbc4c4700	-0.0124681
11	0x3999cb78	0.0002933403
12	0x3be9b498	0.007132124
13	0x3bdb39b0	0.0066902265
14	0x3b0506cf	0.0020298248
15	0x3c4cf491	0.012509481
16	0x3be5b7a5	0.0070104175
17	0xbbb16ed8	-0.005414825
18	0xba942d15	-0.0011304939
19	0xb9cf6ae3	-0.00039561754
20	0xbbd22ebb	-0.006414262
21	0xbbf8ab5c	-0.007588787
22	0x3a540141	0.0008087345
23	0xbc16e636	-0.00921016
24	0xbabdc6ec	-0.0014478839
25	0x3be82180	0.0070840716
26	0x3b112ad5	0.0022150774
27	0xbbc93078	-0.006139811
28	0x3ad1ccf4	0.0016006515
29	0x3c1bd937	0.009512237
30	0x3aca4ce4	0.0015434292
31	0xbb530e7f	-0.0032204685
32	0xbc0bc04e	-0.008529736
33	0xbb63eb6e	-0.0034777778
34	0xbbf4f71f	-0.007475748
35	0xb9b44de9	-0.00034390323
36	0x3a35297c	0.00069107837
37	0x3a993132	0.0011687635
38	0x3bc4d67f	0.0060070152
39	0xbc13ef14	-0.009029169
40	0xbbe6b0f2	-0.0070401365
41	0xbc342f0f	-0.010997548
42	0xbc1067d1	-0.008813814
43	0x3b4aa2ce	0.0030919793
44	0xbb13da60	-0.0022560582
45	0x3b923bce	0.0044626957
46	0xbb7a1c4d	-0.0038163841
47	0x3bf3cc93	0.0074401586
48	0x3be0336d	0.006842068
49	0x3b738441	0.0037157687
50	0xbb898e76	-0.004197891
51	0x3b46f549	0.0030358604
52	0xbbb802a3	-0.0056155487
53	0x3c26c873	0.010179627
54	0xbcb6ab47	-0.022298468
55	0xbb4cafaf	-0.0031232645
56	0xbb748944	-0.0037313262
57	0xbbb3c224	-0.00548579
58	0xbc534097	-0.012893817
59	0xbbdb72d6	-0.006697039
60	0x3b6cbb84	0.003612251
61	0x3c94beb4	0.01815734
62	0xbc3f6b84	-0.011683349
63	0xbc307859	-0.010770881
64	0xbc038726	-0.008027827
65	0xbb84ba4d	-0.004050529
66	0x3be2700d	0.00691033
67	0x3b0625f5	0.0020469401
68	0x393c7c4d	0.00017975383
69	0x3b334b2f	0.0027358045
70	0xbb89a948	-0.004201088
71	0xbc15cc9c	-0.009143021
72	0x3c3c069d	0.011476186
73	0x3ad1b3ff	0.0015999078
74	0x3a718fd5	0.0009214853
75	0x3a11ed5f	0.0005566682
76	0x3a83c6fa	0.0010053806
77	0xbca9f66d	-0.020747388
78	0x3ac4cc6c	0.0015014536
79	0x3bda845e	0.0066686114
80	0xbc09b5ab	-0.008405129
81	0x3bf341d7	0.00742362
82	0xbbf640ba	-0.00751504
83	0xbb0572e0	-0.002036266
84	0xbb49676a	-0.0030731806
85	0xbbd4b528	-0.006491322
86	0xbb8deeca	-0.0043314444
87	0xbc629a15	-0.013830681
88	0x3a0cec09	0.0005375748
89	0x3b8e4bf5	0.004342551
90	0xbc3ab02f	-0.0113945445
91	0xbae6ff73	-0.0017623737
92	0xbc2aecb8	-0.010432415
93	0xbc563d49	-0.013076135
94	0xbb999569	-0.0046870005
95	0xbb29878b	-0.0025868143
96	0xbb2c920d	-0.002633217
97	0x3b80984d	0.0039244057
98	0x3af6e7c2	0.001883738
99	0xbc1b3bf7	-0.009474746
100	0xbc141153	-0.009037334
101	0xbbc850f0	-0.006113164
102	0xbc34574c	-0.011007141
103	0xbc066f02	-0.008205177
104	0xbad961ca	-0.001658493
105	0x3bc2d5b7	0.005945887
106	0xbb768b28	-0.0037619565
107	0x3c5691b5	0.013096263
108	0x3b460d03	0.0030220158
109	0xbbdf9af7	-0.006823893
110	0xbc788a58	-0.0151697025
111	0x3b821b9f	0.003970578
112	0xbc98096f	-0.018559186
113	0xba8b2371	-0.0010615421
114	0x3c0d1717	0.008611462
115	0xba843967	-0.0010087908
116	0x3af14fdc	0.0018410641
117	0x3bc3090f	0.0059520076
118	0x3b5f56cd	0.0034078837
119	0xbbee7142	-0.007276685
120	0x3ae049c0	0.0017111823
121	0x3b3f98a7	0.0029235275
122	0x3b36aac7	0.0027872787
123	0x3bd64945	0.006539496
124	0xbb1f9f92	-0.0024356586
125	0x3be28d04	0.006913783
126	0xbc25b9ff	-0.010115146
127	0x3b3aa0c5	0.0028477174
128	0x3b954ab2	0.0045560235
129	0xba5824c5	-0.0008245225
130	0x3b4a1df4	0.0030840607
131	0x3bdcd58d	0.0067393244
132	0x3c4a36b0	0.01234214
133	0x3a288a02	0.0006429256
134	0xba22ba76	-0.00062075944
135	0xb8ea2046	-0.00011164001
136	0x3aa14ad1	0.0012305622
137	0x3c2a6d45	0.010402028
138	0xbb790f64	-0.0038003558
139	0xb9d9ec40	-0.00041565485
140	0xbb677e20	-0.003532298
141	0x3bea77a7	0.007155377
142	0xba2984e2	-0.00064666395
143	0xbb33bb74	-0.0027424963
144	0x3c503c1b	0.012709643
145	0xbb0db8d3	-0.0021625056
146	0xb9c6ddab	-0.00037930658
147	0xbbc5b474	-0.0060334746
148	0xbc3e6f08	-0.011623152
149	0x3ae86dd0	0.0017732922
150	0xb8c0d5b6	-9.19508e-05
151	0x3a09d808	0.00052583264
152	0xbb928847	-0.004471812
153	0xbc28cbbb	-0.010302479
154	0xbc432de5	-0.011912798
155	0x3c9a29ae	0.018818703
156	0x3c005d55	0.007834752
157	0xbb16447a	-0.0022928999
158	0xbc052222	-0.008125814
159	0xba948e88	-0.0011333982
160	0xbcb2ed6f	-0.021841733
161	0x3a85d98d	0.001021193
162	0x3bfb5ba7	0.007670838
163	0xbb5c25c9	-0.0033591858
164	0x3b981616	0.0046413047
165	0xbbe29935	-0.0069152364
166	0x3b8788c4	0.004136177
167	0x3ba1bb60	0.004935667
168	0x3afe2a41	0.0019391255
169	0xba8809b0	-0.0010378864
170	0x3bd72352	0.00656549
171	0x3b2d18bf	0.0026412455
172	0x3786721e	1.6027185e-05
173	0xbbe3e391	-0.0069546183
174	0x3b83c458	0.0040212087
175	0xbab5741e	-0.001384381
176	0x3b53dd62	0.0032328
177	0xbb764acf	-0.003758121
178	0x3b918319	0.004440677
179	0xb9ba924e	-0.0003558569
180	0xbb06cd30	-0.0020569079
181	0xbc8b094d	-0.016972208
182	0xbc820b4d	-0.01587453
183	0xbc434384	-0.011917952
184	0x3a833f4b	0.001001337
185	0x3c1602cd	0.009155941
186	0xbb65a94e	-0.003504354
187	0xbc5739ab	-0.013136308
188	0x3b9dd2af	0.004816375
189	0xbc2c7807	-0.010526664
190	0x3b5bde4b	0.0033549245
191	0x3c2b3740	0.010450184
192	0xbb7d2824	-0.0038628662
193	0xbc7d0307	-0.015442616
194	0x39b01772	0.00033586804
195	0xbbe78525	-0.0070654326
196	0xbbe3f851	-0.006957092
197	0x3bb0b4d9	0.0053926525
198	0xb905584e	-0.00012716764
199	0xbb98692b	-0.004651209
200	0xbadfa256	-0.001706193
201	0xbbfd6fdd	-0.0077342824
202	0xbbb95508	-0.0056558885
203	0xbc4631bc	-0.012096819
204	0x3b9d5366	0.0048012016
205	0x3c048719	0.00808885
206	0x3c276d35	0.010218908
207	0xb96595aa	-0.00021894896
208	0x39d27c7b	0.00040147066
209	0x3c074c12	0.008257883
210	0x3c16064a	0.009156773
211	0x3bcda679	0.0062759486
212	0xbac650a3	-0.0015130233
213	0xbc6aed7d	-0.014338848
214	0xbbc43491	-0.0059877117
215	0x3a484f4c	0.00076412107
216	0xb6d89929	-6.455132e-06
217	0x3c8883a1	0.016664328
218	0x3bc64ed3	0.006051877
219	0xbba9544d	-0.00516752
220	0x3a90b6a7	0.0011040763
221	0x3aee8481	0.0018197448
222	0x3a5bfc8f	0.0008391821
223	0xba9dfab4	-0.0012052865
224	0xbc1c0c50	-0.00952442
225	0x3c5c952c	0.0134633
226	0xbc4eeb5b	-0.012629355
227	0x3c3b582c	0.011434596
228	0x3aaadc21	0.0013035574
229	0x3b86859a	0.004105282
230	0x3c35a186	0.0110858735
231	0xbc1ac997	-0.009447477
232	0xbc41b53b	-0.011822994
233	0x3c06fbb3	0.008238721
234	0xbbd1be8e	-0.0064008897
235	0x3b8a7377	0.0042251903
236	0xbbcc27d9	-0.006230336
237	0x3b3dd886	0.002896817
238	0xbc44992f	-0.011999412
239	0xbb4b67ca	-0.0031037205
240	0xbb810914	-0.00393785
241	0x39c904f2	0.00038341392
242	0xbbd66924	-0.0065432955
243	0x3bf21131	0.0073873033
244	0x3c140e41	0.0090366015
245	0x3b842fde	0.0040340265
246	0xbc97f428	-0.01854904
247	0x3ca1ddb3	0.019759035
248	0x3b777699	0.0037759899
249	0xbc86988b	-0.01643016
250	0x3b05dcfd	0.0020425909
251	0xbbed2d31	-0.0072380533
252	0x3bf84f2b	0.007577797
253	0x3a86d915	0.0010288084
254	0x3bdeca04	0.0067989845
255	0x3c8a3ea3	0.01687557

action_model._discrete_distribution.branches.1.bias f4 [3]
0	0x3a7b0413	0.0009575497
1	0xbc0c7a99	-0.008574151
2	0x3bfac8f7	0.0076533514

action_model._discrete_distribution.branches.2.weight f4 [2, 256]
0	0xbc47b266	-0.01218853
1	0xbb6d3a1e	-0.003619797
2	0x3b1b4c4d	0.0023696602
3	0x3c45c024	0.012069736
4	0xba5cf7a2	-0.0008429234
5	0x3aaae401	0.0013037921
6	0xbbe36a4f	-0.006940163
7	0xbb2b8fff	-0.0026178358
8	0x3c155455	0.009114345
9	0x3b96168e	0.0045803254
10	0xbc8213cf	-0.015878586
11	0x3bcd5982	0.0062667737
12	0x3adec086	0.0016994632
13	0x3c2906b7	0.010316542
14	0x3a704ae4	0.0009166433
15	0xbadf75a0	-0.0017048605
16	0xbcab05a2	-0.02087671
17	0x3b912611	0.0044295867
18	0x3b328749	0.002724128
19	0x3c2d3ac4	0.010573093
20	0xbc546613	-0.0129637895
21	0xbbacc805	-0.0052728676
22	0x3a086dfe	0.00052043784
23	0x3bdce4e2	0.006741152
24	0x3b9ed82d	0.0048475475
25	0xbc25212a	-0.010078708
26	0x3c37c842	0.011217179
27	0x3b91e8dd	0.0044528083
28	0x39c297db	0.00037115705
29	0xbb65b9df	-0.0035053415
30	0xbc13aad6	-0.009012898
31	0xbc11d0d2	-0.008899884
32	0x3c1a0eb1	0.009402917
33	0xbc95e9ec	-0.01830002
34	0xbb51349f	-0.0031922234
35	0x3b40bc71	0.0029409195
36	0x3c2797c2	0.010229053
37	0x3ad7fcf7	0.0016478588
38	0xbb316fc8	-0.0027074683
39	0x3b2a8942	0.0026021753
40	0xbc3b7bc5	-0.011443083
41	0x3bc03232	0.0058653587
42	0x3c00867a	0.007844562
43	0xba808b37	-0.0009807114
44	0x3b978b4a	0.004624759
45	0xbb40442e	-0.0029337513
46	0xbc10b1a2	-0.008831413
47	0x3bce5be8	0.006297577
48	0xbb6bc9bf	-0.0035978404
49	0x3b4d5e19	0.0031336604
50	0x3b340972	0.002747145
51	0x3b76fdd5	0.0037687917
52	0x3c105ec5	0.008811657
53	0xbc698797	-0.014253519
54	0x3b147c56	0.0022657118
55	0xb5073880	-5.037364e-07
56	0x3c6f15ce	0.014592601
57	0x3c31744f	0.010830953
58	0xbb8da79e	-0.00432296
59	0x3bae4e13	0.0053193658
60	0x3acf3e3f	0.0015811397
61	0xbbb9ddb9	-0.0056721834
62	0xbc21e684	-0.009881619
63	0x3b8f96c3	0.004381986
64	0xbb17657c	-0.002310126
65	0xbaa3b908	-0.0012491057
66	0xbc169247	-0.009190149
67	0x3c85100a	0.016243
68	0xba30d3c6	-0.0006745424
69	0xbaae9681	-0.001332
70	0xbbf0087b	-0.0073252297
71	0x3bfc0b78	0.007691797
72	0xbb1b9e60	-0.0023745522
73	0x3b160053	0.0022888377
74	0x3b561aad	0.0032669709
75	0x3bf3e990	0.0074436143
76	0xbb52c567	-0.0032161118
77	0x3b4b4328	0.003101537
78	0x3bf7e816	0.0075655086
79	0x3c8b31a5	0.016991446
80	0x3bd2e139	0.00643554
81	0xbbf511b4	-0.007478917
82	0xb86d0be0	-5.6516263e-05
83	0xbc74b6ee	-0.014936192
84	0x3c4f0990	0.012636557
85	0xbb001361	-0.00195428
86	0x3b7182ec	0.0036851717
87	0x3c0ae565	0.0084775435
88	0x3bbbde28	0.00573327
89	0x3bbd836c	0.005783489
90	0xbc29387d	-0.010328409
91	0x3c045a0f	0.008078112
92	0x3c7a48c9	0.015276142
93	0x3bcd4c4d	0.0062651993
94	0x3c5b4b27	0.013384617
95	0x3b95a612	0.0045669163
96	0xbab08962	-0.0013468678
97	0x3be54c98	0.006997656
98	0xbc0158ee	-0.007894738
99	0xbb905383	-0.0044044866
100	0x3ae4f407	0.0017467745
101	0x3c107796	0.008817574
102	0xbaa6432a	-0.0012684811
103	0xbbff9283	-0.007799448
104	0xbb6259af	-0.003453832
105	0xbc2c2f7b	-0.010509367
106	0x3a54da00	0.0008119643
107	0x3c661117	0.0140421605
108	0xbc04ba82	-0.008101108
109	0x3b985e44	0.004649909
110	0xbbf2b25d	-0.0074065165
111	0xbc4375d6	-0.01192995
112	0xbc74ee85	-0.014949446
113	0x3b49f2d0	0.0030814894
114	0xbb0271ec	-0.0019904329
115	0xbad40455	-0.0016175607
116	0xbb7caa27	-0.0038553567
117	0xbb778f41	-0.0037774595
118	0xbb550e0e	-0.0032509598
119	0x3aa84017	0.0012836483
120	0xbc0ed86d	-0.008718592
121	0x3b47285a	0.0030389042
122	0xbb70b523	-0.003672906
123	0x3c43d12a	0.011951724
124	0x3b636ecf	0.0034703498
125	0x3c1d15e7	0.009587741
126	0xbb469e9a	-0.0030306936
127	0xbad41093	-0.0016179256
128	0x3b238cac	0.0024955673
129	0x3826e652	3.9791987e-05
130	0xbb41aac5	-0.002955125
131	0xbcaa5204	-0.020791061
132	0x3bd85704	0.00660217
133	0x3b4d7cac	0.0031354828
134	0xbc41cf7e	-0.011829255
135	0xbbe71553	-0.0070521026
136	0xbb601b87	-0.0034196095
137	0x3b2c511e	0.0026293467
138	0xbb2a4d06	-0.002598585
139	0xba7d2684	-0.00096569234
140	0x3bcb59c9	0.0062057716
141	0xbb286498	-0.0025694724
142	0x3c2d82b5	0.010590245
143	0xbc76ee3c	-0.015071448
144	0x3aba3c42	0.0014208632
145	0x3c6b14fb	0.014348264
146	0xbbd21a62	-0.0064118365
147	0xbbe35036	-0.006937052
148	0x3b888a8a	0.004166906
149	0x3b5db2aa	0.0033828416
150	0x3c571943	0.013128581
151	0xb9f538ce	-0.00046772364
152	0xbc4fcf48	-0.012683697
153	0x3bac98b3	0.0052672266
154	0xbbad127f	-0.005281746
155	0x3b8cb3aa	0.0042938786
156	0x3cd3e244	0.025864728
157	0xbafc0416	-0.0019227292
158	0x3c00c7f3	0.007860172
159	0x3bb9d26b	0.0056708357
160	0xbbd6aa90	-0.0065510944
161	0xbab136e8	-0.0013520392
162	0xbb27f6ee	-0.002562936
163	0xbb0ac612	-0.0021175188
164	0xbc3c9125	-0.0115092145
165	0xbb2fff67	-0.0026855113
166	0x3b149293	0.0022670373
167	0xbbadf62d	-0.0053088875
168	0x3bce9834	0.006304765
169	0xba81ad97	-0.0009893653
170	0xbc953e9a	-0.018218327
171	0xbad40c91	-0.0016178061
172	0xba06eeb4	-0.0005147264
173	0xbb64955b	-0.0034879062
174	0x3b1c3aaf	0.002383869
175	0xb7e8245b	-2.7673485e-05
176	0xbc3a584d	-0.011373592
177	0x3b4863f8	0.0030577164
178	0xbb29e233	-0.0025922179
179	0xbb83cdbe	-0.004022329
180	0xbc135947	-0.008993453
181	0x3bc21ea5	0.0059240633
182	0xbc2fdd60	-0.010733932
183	0x3c97d15f	0.018532453
184	0xbb990ca8	-0.004670698
185	0x3cb6a102	0.022293571
186	0x3c046f56	0.008083185
187	0xbc3c9384	-0.01150978
188	0xbc83a0e5	-0.016067931
189	0xbc7b5df5	-0.015342225
190	0xbbdb9ab6	-0.0067017926
191	0x3843a937	4.6649217e-05
192	0x3aa71137	0.0012746219
193	0xbc0405f2	-0.008058058
194	0xbb59090f	-0.0033116972
195	0x3bc3827b	0.005966482
196	0x3b9cfdc7	0.004790995
197	0x3c36c591	0.011155502
198	0x3bcf9905	0.00633538
199	0xbb82a8db	-0.0039874143
200	0xbb10e93f	-0.0022111682
201	0x3bc112f8	0.005892154
202	0x3bc2ea05	0.0059483075
203	0x3be97a8f	0.007125206
204	0xbc67a0e1	-0.014137478
205	0x3c97b887	0.018520607
206	0x3a597895	0.0008295861
207	0xbb979d1f	-0.0046268846
208	0x3c388660	0.011262506
209	0x3c121de0	0.008918256
210	0x3c2b7e8a	0.010467181
211	0x3a48166f	0.00076327374
212	0x3b395841	0.0028281363
213	0xbc8bc266	-0.01706047
214	0xbb8df380	-0.004332006
215	0xbb190f79	-0.002335517
216	0x3ba3f576	0.0050036265
217	0xbc95857f	-0.018252132
218	0xba8acf8b	-0.0010590417
219	0x3bb2d817	0.005457889
220	0x3b8c150c	0.00427497
221	0x3b51908f	0.0031977033
222	0x3c0c5a37	0.008566431
223	0xbb227b1c	-0.0024792617
224	0xbb5a43b4	-0.0033304514
225	0xbbb0b30e	-0.0053924387
226	0x39d605c4	0.00040821556
227	0xbc7af526	-0.015317237
228	0x3b7de7c6	0.0038742884
229	0xbc4c5e83	-0.012473705
230	0xbc48768b	-0.012235294
231	0x3c6588ec	0.0140096955
232	0xbb62102d	-0.0034494505
233	0xbba4b32a	-0.005026241
234	0x3c997575	0.018732766
235	0x3c0b8e98	0.008517884
236	0x3ba0ad68	0.004903484
237	0xbbde7a57	-0.0067894864
238	0xbb68f078	-0.0035543721
239	0xbb4906ca	-0.0030674213
240	0xbc77ec58	-0.015132032
241	0x3c5c9510	0.013463274
242	0x3c30c15c	0.010788288
243	0xba9b7c17	-0.0011862543
244	0x3c8a56be	0.016887065
245	0xba36f617	-0.0006979419
246	0xbbd6c479	-0.006554183
247	0xbc1f227c	-0.009712812
248	0xbc2a9325	-0.010411059
249	0x3c4dfa15	0.012571831
250	0xbc218045	-0.009857242
251	0x3b89b2f2	0.00420224
252	0x3b271467	0.0025494338
253	0x3ad12a53	0.0015958048
254	0x3a229f81	0.00062035775
255	0x3c0805bf	0.008302151

action_model._discrete_distribution.branches.2.bias f4 [2]
0	0xbba91993	-0.0051605194
1	0x3ba91992	0.005160519
